V1/Assets/MoveToGoal-499995.onnx (onnx, 75062 bytes, 7 tensors)

network_body._body_endoder.seq_layers.0.weight f4 [128, 6]
0	0xbdb9ac18	-0.090660274
1	0x3e15d404	0.14631659
2	0xbe0edff5	-0.1395262
3	0xbee9c8bd	-0.45660964
4	0x3ea22074	0.31665385
5	0xbd5151c9	-0.051103387
6	0x3f2b1d4f	0.66841596
7	0x3eccbdf1	0.39988664
8	0x3eba9587	0.36442205
9	0x3e22e2a9	0.15906776
10	0xbf6890ec	-0.90846133
11	0xbeaa37de	-0.33245748
12	0x3d5ec016	0.054382406
13	0xbb87cdbb	-0.004144398
14	0xbe415f60	-0.18884039
15	0xbe84b0e9	-0.25916222
16	0xbe854054	-0.2602564
17	0x3d931354	0.07181421
18	0x3f2957f7	0.6614985
19	0xbd8711dd	-0.06595204
20	0x3ecf29e5	0.4046165
21	0xbe5a7e05	-0.21337135
22	0x3ee40902	0.44538122
23	0xbe2010d9	-0.15631427
24	0x3f7cac97	0.9870085
25	0x3eae0ea4	0.33995545
26	0xbf05eca7	-0.5231423
27	0xbe88741e	-0.2665109
28	0xbdcb6add	-0.09932492
29	0xbe0abf80	-0.13549614
30	0xbd8334ac	-0.06406531
31	0x3b27f7bb	0.0025629837
32	0x3bdde8aa	0.0067721205
33	0xbe8e6706	-0.27812976
34	0x3e3a1a87	0.18174182
35	0xbe965745	-0.29363456
36	0x3d90630f	0.07050144
37	0xbf0457ce	-0.5169648
38	0xbe33f207	-0.17572795
39	0x3dbff478	0.093728006
40	0x3e12a4da	0.14320698
41	0x3f3563c2	0.70855343
42	0xbf3d6944	-0.7398875
43	0xbe75e956	-0.24014792
44	0x3ea32bf5	0.31869474
45	0x3e2bb034	0.16766435
46	0x3dde1689	0.10844142
47	0x3dbf67cf	0.09345972
48	0xbcb51c13	-0.022108113
49	0x3f2ae9fe	0.66763294
50	0xbebbda47	-0.3668997
51	0xbf17533f	-0.591114
52	0x3ef53bbb	0.47897133
53	0x3ecb03ad	0.39651242
54	0xbe9e35a2	-0.30900294
55	0xbf09d055	-0.53833514
56	0xbf109dfd	-0.5649107
57	0x3e4d0355	0.20020802
58	0x3d14b3b5	0.036304194
59	0xbdbb354e	-0.091410264
60	0x3e3e542d	0.18586798
61	0xbecaeca2	-0.39633662
62	0xbf3ca9f4	-0.7369683
63	0x3e0356cd	0.1282608
64	0x3ce12c5e	0.027486976
65	0xbec90cd1	-0.3926759
66	0xbe4c71b6	-0.19965252
67	0x3f3af554	0.7303059
68	0x3dcb7ce1	0.09935928
69	0x3e3f1167	0.18658982
70	0x3f3af5dd	0.7303141
71	0x3eda53ce	0.42642063
72	0xbc9f1579	-0.019419419
73	0xbe8ccd32	-0.27500302
74	0x3ea14433	0.31497344
75	0x3fa2f4cd	1.2730957
76	0x3f08fc4a	0.5350996
77	0x3ea280bb	0.3173884
78	0x3ef6e176	0.48218888
79	0x3f5ceac1	0.86295706
80	0xbe5d49e1	-0.21610214
81	0xbd89a072	-0.06720056
82	0xbe5275fd	-0.20552821
83	0xbd6894c0	-0.056782484
84	0x3f0534e8	0.52033854
85	0xbe81cc88	-0.25351357
86	0x3ebf3358	0.3734386
87	0xbfaa0a23	-1.3284343
88	0xbf429405	-0.7600711
89	0xbf12313b	-0.5710637
90	0xbe8cbeca	-0.2748931
91	0xbe816252	-0.25270325
92	0x3cd2db8f	0.02573946
93	0xbf3af6e7	-0.73032993
94	0x3f23b054	0.6394093
95	0x3dfe5ced	0.12420068
96	0xbe30dfdb	-0.17272894
97	0xbef2fe5d	-0.4745969
98	0x3f4768ff	0.77894586
99	0xbed8fd55	-0.42380777
100	0xbef588a2	-0.47955805
101	0x3ebe94eb	0.3722299
102	0x3f255685	0.64585143
103	0x3f15e1a7	0.58547443
104	0xbe5bde91	-0.21471621
105	0x3e2f5aac	0.17124432
106	0x3f05b07c	0.5222242
107	0xbe29f62d	-0.16597815
108	0xbe1b1c0b	-0.15147416
109	0xbf582ca6	-0.8444313
110	0x3e8ee12e	0.27906173
111	0xbe2b2c43	-0.16716103
112	0xbecfb58a	-0.4056819
113	0xbf2a0b1b	-0.66423196
114	0xbd845082	-0.06460668
115	0xbeed6d2c	-0.46372354
116	0x3e563d8d	0.20921917
117	0xbf2d096c	-0.675925
118	0xbf40e7f7	-0.7535395
119	0x3f5c5a48	0.8607526
120	0xbd3e89ca	-0.046518125
121	0x3e951dac	0.291242
122	0xbd845241	-0.06461001
123	0x3d0d8038	0.034546107
124	0x3f028b1b	0.5099351
125	0x3eeb28d4	0.45929587
126	0x3e5ba69a	0.21450272
127	0x3d7f8044	0.062378183
128	0xbf13d77a	-0.57750666
129	0xbc93e556	-0.018053692
130	0xbe9b4766	-0.3032791
131	0x3ecd8f4d	0.40148392
132	0x3d284de5	0.04108991
133	0xbf133e4d	-0.5751694
134	0xbdb05d30	-0.08611524
135	0x3ebc5087	0.36780187
136	0x3f21c441	0.63190085
137	0x3cd5ed69	0.026114183
138	0xbf18b001	-0.5964356
139	0x3db1d6d1	0.08683551
140	0x3cf8103b	0.030281177
141	0xbe45a31e	-0.19300506
142	0xbd9f6f64	-0.07784918
143	0x3d9dc985	0.077044524
144	0xbe5e2ab9	-0.21695985
145	0xbb9b8bb4	-0.0047468785
146	0xbf0a4cde	-0.5402354
147	0xbf5090b2	-0.8147079
148	0xbe25ed28	-0.16203749
149	0x3e313727	0.17306195
150	0xbee564aa	-0.44803363
151	0x3e8f0964	0.27936852
152	0x3d291a93	0.04128511
153	0xbee43884	-0.44574368
154	0x3e85c58b	0.26127276
155	0x3de34675	0.11097423
156	0x3e0813b8	0.13288772
157	0x3eb8157a	0.35953885
158	0xbe970fc3	-0.29504213
159	0x3f112a67	0.56705326
160	0x3e01a892	0.1266196
161	0xbf3f493b	-0.74721116
162	0x3c744aae	0.014910383
163	0x3d82ade7	0.063808255
164	0xbd5683c2	-0.052371748
165	0xbe14bb41	-0.14524557
166	0x3d646fba	0.055770613
167	0xbd3f5eb5	-0.04672118
168	0x3e3bcd96	0.18340144
169	0x3f309f6d	0.68993264
170	0x3d5259c3	0.051355135
171	0xbebf528a	-0.3736766
172	0x3e5d1eed	0.21593828
173	0xbda39471	-0.07987297
174	0x3f05497b	0.5206525
175	0xbc723e6d	-0.014785391
176	0x3ed7e35c	0.4216565
177	0xbf206b09	-0.6266332
178	0xbe8d34d8	-0.2757938
179	0xbe10dfb0	-0.1414783
180	0xbde627bc	-0.112380475
181	0xbeb1aa10	-0.3470006
182	0x3eeca34c	0.46218336
183	0xbed4b741	-0.41546062
184	0xbdcc3b81	-0.09972287
185	0x3e6c1336	0.23054203
186	0xbde797d0	-0.11308253
187	0x3ecb2b7e	0.3968162
188	0xbe9a6483	-0.3015481
189	0xbea6988f	-0.32538268
190	0x3caf0fa3	0.02136976
191	0x3dcc949c	0.099892825
192	0x3e316405	0.1732331
193	0x3ec82fb5	0.39098898
194	0x3ebe80b6	0.37207574
195	0xbe3c8bd1	-0.1841271
196	0xbee9fcfc	-0.45700824
197	0x3eb5adfd	0.35484305
198	0xbed242a3	-0.41066465
199	0xbf38238b	-0.71929234
200	0x3d6d445a	0.057926513
201	0xbe1867be	-0.14883325
202	0x3ef6dbde	0.4821462
203	0xbe350b57	-0.17680107
204	0xbeee6fdf	-0.46569726
205	0xbf1c8317	-0.6113753
206	0xbef2317b	-0.47303376
207	0xbf32471e	-0.69639766
208	0x3e16809c	0.14697498
209	0xbe67edf8	-0.22649372
210	0xbdb61731	-0.08891142
211	0xbd832bf3	-0.06404867
212	0x3f55929b	0.8342683
213	0x3f68159e	0.90657985
214	0xbede181b	-0.43377766
215	0xbe4dabbf	-0.20085047
216	0xbf1ced86	-0.6129993
217	0x3e45b9ec	0.19309205
218	0x3e61e6d5	0.22060712
219	0x3e9b4eae	0.30333465
220	0x3f592906	0.8482822
221	0xbdfc885f	-0.12330698
222	0x3eef9a6f	0.4679751
223	0xbf40d003	-0.753174
224	0xbc9c1058	-0.019050762
225	0xbf0f7ece	-0.56052864
226	0xbeb297cb	-0.34881434
227	0x3cc448c7	0.023960484
228	0x3d159217	0.036516275
229	0xbeb9212f	-0.3615813
230	0x3eec4247	0.46144316
231	0xbd4a0f52	-0.049331017
232	0xbf082a3a	-0.5318943
233	0x3e2e02f8	0.1699332
234	0xbe9eaafc	-0.30989826
235	0xbe6e265f	-0.23256825
236	0x3e15d21d	0.14630933
237	0xbf25f20e	-0.6482247
238	0x3e73a3dd	0.23792978
239	0xbe83844c	-0.25686872
240	0x3e831606	0.2560274
241	0x3e988220	0.29786777
242	0xbdc985db	-0.09839984
243	0xbed3b3bf	-0.41348073
244	0x3e518023	0.20459037
245	0x3e9ffad3	0.3124605
246	0xbea039df	-0.31294152
247	0x3c9d4175	0.019196251
248	0x3ecf95ce	0.4054398
249	0xbe2dcda3	-0.16972975
250	0xbeda49b1	-0.42634347
251	0x3f86162f	1.047552
252	0x3e5c779d	0.21530004
253	0xbf0349ac	-0.5128429
254	0xbe88f0c1	-0.2674618
255	0xbec819d6	-0.3908221

network_body._body_endoder.seq_layers.0.bias f4 [128]
0	0xbaba2eca	-0.0014204618
1	0xbc47a7c3	-0.012185994
2	0xbd86ac4d	-0.065758325
3	0x3d0685f1	0.03284258
4	0xbe0c8e87	-0.13726245
5	0xbdca70ee	-0.09884821
6	0x3c4abda2	0.012374314
7	0x3b920201	0.0044558053
8	0x3b392a03	0.00282538
9	0xbd1b8f73	-0.0379786
10	0xbdb6826c	-0.08911595
11	0xbd27a1d4	-0.040925816
12	0xbd994a5f	-0.07484888
13	0xbe748a0d	-0.23880787
14	0xbc161341	-0.009159864
15	0xbe114d5e	-0.1418967
16	0x3d97571d	0.073896624
17	0xbe778dae	-0.2417514
18	0x3d810cc2	0.063012615
19	0xbc5b1d7b	-0.013373728
20	0x3d9c0ecc	0.0762001
21	0x3e195c6b	0.14976661
22	0xbe4646ab	-0.19362895
23	0xbd05162e	-0.032491855
24	0xbc972115	-0.018448392
25	0xbcd4e3a3	-0.025987452
26	0xbdc29025	-0.0950015
27	0xbde0a4db	-0.10968944
28	0xbb9e58f5	-0.004832382
29	0x3db2258c	0.08698568
30	0xbd576ca1	-0.05259383
31	0xbd19dc3c	-0.037563547
32	0xbe01289d	-0.12613149
33	0xbcbcac42	-0.023031358
34	0x3dd7b1bb	0.10531946
35	0xbdd9eba9	-0.10640652
36	0x3caf3d10	0.021391422
37	0x3db9395c	0.090441436
38	0x3c54d24e	0.012989594
39	0xbd2382eb	-0.039919775
40	0xbb7dd45c	-0.0038731312
41	0xbc817c0a	-0.015806217
42	0x3cf53e3e	0.029936906
43	0xbdca65c1	-0.09882689
44	0x3e005bb5	0.12534983
45	0xba5150cd	-0.00079847575
46	0x3cc5b400	0.024133682
47	0x3b8e3db8	0.0043408535
48	0xbbfb4a0f	-0.0076687406
49	0xbb03477f	-0.0020031629
50	0xbdcb1aeb	-0.099172436
51	0xbdc9022d	-0.09814868
52	0x3d64ee44	0.05589129
53	0xbe523c55	-0.20530827
54	0xbe867b11	-0.26265767
55	0xbe06dc72	-0.1317003
56	0x3d9afbb0	0.07567537
57	0xbdd5e94c	-0.104448885
58	0x3d8b0830	0.06788671
59	0x3bf797f8	0.007555958
60	0xbe3734b8	-0.17891204
61	0xbdfd517d	-0.12369058
62	0xbc03d703	-0.008046868
63	0x3d2c0e2c	0.042005703
64	0xbd4f7489	-0.050648246
65	0x3c94c4e3	0.01816029
66	0xbd5f9dec	-0.054593965
67	0xbc81ee2b	-0.015860638
68	0xbe27ea6a	-0.16398016
69	0xbe19a263	-0.15003352
70	0xbe53c964	-0.20682293
71	0xbe41334b	-0.18867223
72	0x3dc00db9	0.093776174
73	0x3dc55dc9	0.09637029
74	0x3d2fc026	0.042907856
75	0xbe331345	-0.1748782
76	0xbe628f01	-0.22124864
77	0xbc2cad3e	-0.010539351
78	0xbe88f1e3	-0.26747045
79	0xbda37887	-0.07981973
80	0x3e151339	0.14558114
81	0x3c97df9a	0.018539239
82	0xbc5f5a18	-0.01363232
83	0xbe0213e3	-0.12702899
84	0xbc536b8f	-0.012904062
85	0x3d80be99	0.062863536
86	0xbde56bf4	-0.11202231
87	0x3d3376d2	0.043814488
88	0xbd637df4	-0.05554004
89	0x3d30b2ed	0.043139387
90	0xbb458d72	-0.0030144122
91	0xbddf027a	-0.10889144
92	0xbd52cfe0	-0.051467776
93	0xbd9a9756	-0.07548396
94	0xbbc28ab8	-0.0059369467
95	0x3d8deffd	0.0693054
96	0xbd8c7857	-0.068588905
97	0x3dc3800d	0.09545908
98	0xbda6fedf	-0.081540816
99	0xbda6c14c	-0.08142337
100	0xbca65733	-0.020305252
101	0xbd7332ac	-0.059374496
102	0x3bcb20fd	0.006199001
103	0x3ccb669a	0.024829198
104	0xbca63df1	-0.020293208
105	0x3d9b761f	0.07590889
106	0xbc8fdea3	-0.017562216
107	0xbd22fc91	-0.039791647
108	0xbd9800bc	-0.07422015
109	0xbdfc79c7	-0.12327915
110	0x3e04af6b	0.12957542
111	0x3c71b8e8	0.014753558
112	0xbe0f9e2f	-0.14025186
113	0xbe2031a8	-0.15643942
114	0xbbf8bbbb	-0.0075907386
115	0xbced02b5	-0.028931955
116	0xbc212d97	-0.00983753
117	0xbc069703	-0.008214715
118	0xbe01f8ea	-0.1269261
119	0xbe8b6efd	-0.27233115
120	0x3deba35d	0.115057684
121	0xbe27091c	-0.16312069
122	0x3d94cb84	0.0726538
123	0x3d2027b7	0.039100375
124	0xbe7dbbe7	-0.2477871
125	0xbe212cc7	-0.15739737
126	0xbba0218f	-0.004886813
127	0x3d5a0fd9	0.05323777

network_body._body_endoder.seq_layers.2.weight f4 [128, 128]
0	0xbe8246ef	-0.25444743
1	0xbd281b7b	-0.041041832
2	0xbe0d310d	-0.13788243
3	0xbd48aebf	-0.048994776
4	0xbd93597b	-0.071948014
5	0xbe2a2aef	-0.1661794
6	0xbe690d39	-0.2275895
7	0xbd9a16ed	-0.07523904
8	0xbdea949d	-0.11454127
9	0xbdf1d8d7	-0.11808937
10	0xbd71d3e8	-0.05903998
11	0xbd73120a	-0.059343375
12	0xbe16086a	-0.14651647
13	0x3d0e3e91	0.034727637
14	0x3e09f563	0.13472514
15	0xbdce9e59	-0.10088796
16	0xbd210c84	-0.039318576
17	0x3e29e229	0.1659018
18	0xbdd489f1	-0.10377873
19	0xbedc7e54	-0.4306513
20	0x3d1f4062	0.03887976
21	0xbd349c03	-0.044094097
22	0x3c8f2db6	0.017477851
23	0xbd8cdaf9	-0.06877703
24	0xbe66454b	-0.2248737
25	0xbd6ddca7	-0.05807176
26	0xbe5e00dd	-0.21680017
27	0x3d77307c	0.060348973
28	0xbccc22f5	-0.024919013
29	0x3daa8738	0.08326572
30	0xbc595bb6	-0.0132664945
31	0xbd823bb9	-0.063590474
32	0xbda8cb3e	-0.0824189
33	0xbe28cd25	-0.16484506
34	0xbe679e65	-0.22619016
35	0xbe69aae3	-0.22819094
36	0xbe0d5ae6	-0.13804206
37	0xbd12e7aa	-0.035865463
38	0xbdd21508	-0.10257918
39	0xbe284568	-0.16432726
40	0xbd6aca1e	-0.05732166
41	0xbe626c1a	-0.2211155
42	0xbe1debfe	-0.15422055
43	0xbdd628bd	-0.10456989
44	0xbe2dbae6	-0.16965827
45	0xbdffb699	-0.124859996
46	0xbe9d61af	-0.3073859
47	0x3d2c0bba	0.04200337
48	0xbe3bdd83	-0.18346219
49	0x3e1c1967	0.15244065
50	0xbdbfd5c3	-0.09366944
51	0xbc696ca9	-0.014247098
52	0x3d5be243	0.053682577
53	0x3d77a930	0.060464084
54	0xbd9e5773	-0.07731523
55	0x3e0d1c83	0.13780408
56	0x3dfe8b03	0.12428858
57	0xbda25f49	-0.079283305
58	0xbdbcdd92	-0.09221949
59	0xbe1dd535	-0.15413363
60	0x3d2e6c10	0.042583525
61	0xba83173f	-0.0010001435
62	0x3c88cf4e	0.016700413
63	0xbd64b02e	-0.05583208
64	0x3dacb6a3	0.08433273
65	0x3dc80742	0.09767009
66	0x3d95e054	0.07318178
67	0xbe51e999	-0.20499267
68	0xbd22eac7	-0.039774682
69	0x3ca7d456	0.020486992
70	0x3d5e6b66	0.054301642
71	0xbcbbb009	-0.022911089
72	0xbe5d121d	-0.21588941
73	0xbc68e13f	-0.014213859
74	0xbe196cd9	-0.14982928
75	0x3e22d511	0.15901591
76	0x3e149ab2	0.14512137
77	0xbe3e71ef	-0.1859815
78	0x3c732beb	0.014842014
79	0x3cf712d5	0.030160347
80	0xbdc29bd7	-0.0950238
81	0x3bb99be1	0.005664334
82	0x3d321546	0.04347732
83	0x3c691f33	0.01422863
84	0xbe2bb94a	-0.16769901
85	0xbe3c17e4	-0.18368489
86	0xbe3eaf69	-0.18621601
87	0xbdf59fac	-0.119933456
88	0x3a90277f	0.0010998099
89	0xbca3d20f	-0.019997625
90	0x3cd1fd24	0.025633402
91	0xbd054d27	-0.03254428
92	0xbda9acbd	-0.082849
93	0xbc827aa6	-0.015927624
94	0x3ddf99ac	0.109179825
95	0xbe18b4ee	-0.14912769
96	0xbe213b8b	-0.1574537
97	0xbc273510	-0.010205522
98	0xbdf6c65b	-0.12049552
99	0xbb658172	-0.0035019782
100	0xbda75733	-0.08170929
101	0x3d8e8b0b	0.06960114
102	0x3d57edb6	0.052716933
103	0xbdb87b19	-0.09007854
104	0x3c80809f	0.015686331
105	0xbe692b06	-0.22770318
106	0xbde59aa9	-0.1121114
107	0xbe37b5fe	-0.17940518
108	0xbe3ce519	-0.18446769
109	0xbdc1f518	-0.09470576
110	0xbe309f08	-0.17248166
111	0xbdc65efa	-0.09686084
112	0x3cef0b61	0.02918023
113	0x3d97a398	0.0740425
114	0xbe17feeb	-0.14843337
115	0xbe1a7b24	-0.15086037
116	0xbc4abee5	-0.012374614
117	0xbe0afb32	-0.13572386
118	0xbe7dd45f	-0.24788044
119	0xbbef7b88	-0.0073084272
120	0xbe0bb868	-0.13644564
121	0xbdba3c1b	-0.090934955
122	0xbc32a23e	-0.010902939
123	0x3da5616d	0.08075223
124	0x3e0105ef	0.1259992
125	0x3d3f0881	0.04663897
126	0xbe234d42	-0.1594744
127	0xbdb25183	-0.087069534
128	0xbd638806	-0.055549644
129	0x3d798af4	0.06092353
130	0x3c698dfa	0.014255041
131	0x3dbd5aa0	0.09245801
132	0xbdd7af09	-0.10531432
133	0x3d035796	0.03206595
134	0xbe24e995	-0.1610473
135	0x3ccb011b	0.0247808
136	0xbd318135	-0.043336112
137	0x3dd809b8	0.10548729
138	0xbb3fde14	-0.0029276656
139	0xbd9442fe	-0.0723934
140	0x3e2a9e7d	0.16662021
141	0x3ca344d1	0.019930275
142	0x3e5989ad	0.21243925
143	0x3d392eba	0.045210578
144	0xbdaff15a	-0.08590956
145	0x3d30f8f3	0.043206166
146	0x3cf56ea4	0.029959984
147	0x3dfe5f04	0.124204665
148	0x3c390e40	0.011294901
149	0x3d9da7b5	0.07698003
150	0xbe0a9419	-0.13533057
151	0xb9ce01e1	-0.00039292782
152	0x3e1dac16	0.15397677
153	0xbca247d9	-0.01980965
154	0xbd8ac775	-0.06776325
155	0x3b9a6f27	0.0047129574
156	0xbc2fbcdc	-0.01072618
157	0x3da08556	0.07837932
158	0xbdb3d444	-0.08780721
159	0x3c9247cc	0.017856501
160	0x3dc56e73	0.09640207
161	0xbde08092	-0.10962023
162	0x3dcaf8c2	0.09910728
163	0x3e08cc10	0.13359094
164	0xbe294d3a	-0.16533366
165	0x3dde3eaa	0.10851796
166	0x3d33b52a	0.043873943
167	0xbc86d709	-0.016459959
168	0xbc06b4a4	-0.008221779
169	0xbd84f17d	-0.06491373
170	0xbd467d7b	-0.04845951
171	0xbc4626a1	-0.012094171
172	0xbe35f79a	-0.17770234
173	0xbe25926f	-0.16169141
174	0xbe636b22	-0.22208837
175	0xbda28acb	-0.07936629
176	0xbd8f3271	-0.06992043
177	0xbbfafdcc	-0.0076596495
178	0x3d5a6bc3	0.053325426
179	0xbdf9df9c	-0.12200853
180	0xbe47bfb9	-0.1950673
181	0x3c2d05ff	0.010560512
182	0x3c790b02	0.015200378
183	0xbb0032ed	-0.0019561604
184	0x3dbcda7a	0.092213586
185	0x3d771ce7	0.060330298
186	0xbd4023af	-0.04690903
187	0x3d158915	0.036507685
188	0xbe97b1ac	-0.2962774
189	0xbcff8508	-0.031191364
190	0xbd806b3b	-0.062704526
191	0xbd838c8c	-0.064232916
192	0xbdea9c68	-0.114556134
193	0xbb4a190b	-0.003083768
194	0x3d979137	0.074007444
195	0x3e06064d	0.13088341
196	0x3c90221e	0.017594393
197	0x3dcbab0f	0.09944736
198	0x3dc3c229	0.095585175
199	0xbc99df9b	-0.018783381
200	0x3d4bba96	0.04973849
201	0x3e4ee57b	0.20204727
202	0xbd0bad1c	-0.034100637
203	0x3d18c0fd	0.037293423
204	0xbe858039	-0.2607439
205	0xbdad6bb2	-0.08467807
206	0x3c707b39	0.014677816
207	0x3df2cdbf	0.11855649
208	0x3d3b7bbd	0.045772303
209	0xbc1550b4	-0.009113479
210	0x3e53aa88	0.20670521
211	0xbd6d0303	-0.0578642
212	0xbd170da4	-0.036878243
213	0x3d0990c4	0.033585325
214	0x3d6cfd9d	0.057859052
215	0xbdb9c1ca	-0.090701655
216	0xbdbcc22d	-0.092167236
217	0xbdf7bd42	-0.12096645
218	0xbe051275	-0.12995322
219	0x3d8c40e9	0.06848318
220	0x3df8c1e4	0.12146357
221	0x3ca41009	0.020027177
222	0xbd1a2a4a	-0.037637986
223	0xbd0d93b5	-0.034564693
224	0xbc3f26b9	-0.011666947
225	0xbc29ed19	-0.01037147
226	0xbdcab7d0	-0.09898341
227	0xbe0d48a7	-0.13797246
228	0xbdef7687	-0.11692529
229	0xbb96fb26	-0.004607576
230	0xbd28becc	-0.041197583
231	0x3d0a47cb	0.033759873
232	0xbb8c0cd4	-0.00427399
233	0x3d783e1d	0.06060611
234	0xbe507c1c	-0.20359844
235	0x3dc3c94e	0.0955988
236	0xbd7064e5	-0.05868997
237	0xbdbf80a2	-0.09350707
238	0x3e1cec6b	0.15324561
239	0x3e01bb3a	0.12669078
240	0xbe4d62bb	-0.20057194
241	0xbc8957d0	-0.016765505
242	0xbd83ddd3	-0.06438794
243	0x3b510fc6	0.003190027
244	0x3c1fcf2c	0.0097539835
245	0xbd843860	-0.06456065
246	0x3e01fefd	0.12694927
247	0x3ce1d292	0.027566228
248	0xbdf48967	-0.1194027
249	0xbe0e2e0c	-0.13884753
250	0x3d14b102	0.03630162
251	0xbc88838e	-0.016664293
252	0xbd86b1c4	-0.06576875
253	0xbdcb2b74	-0.099203974
254	0x3d64591e	0.05574905
255	0x3d3515a2	0.044210084

network_body._body_endoder.seq_layers.2.bias f4 [128]
0	0xbe415c0b	-0.18882768
1	0x3cbf9603	0.02338696
2	0x3cf973c1	0.030450704
3	0x3bcedbe1	0.0063128327
4	0x3dd6c1ef	0.10486209
5	0x3d4c46a6	0.049872063
6	0xbd4f35ac	-0.050588295
7	0xbd8aa11f	-0.06769013
8	0xbdbd9b58	-0.09258145
9	0x3d46ecef	0.0485658
10	0x3db6dae8	0.08928472
11	0x3d15469b	0.036444288
12	0xbe0d786f	-0.13815473
13	0xbdd9ede4	-0.10641077
14	0x3c999084	0.018745668
15	0x3bf94bb3	0.007607901
16	0xbe0b97b1	-0.13632084
17	0xbd172185	-0.0368972
18	0xbe0535cc	-0.13008803
19	0xbd5fca16	-0.054636084
20	0xbe3f2c50	-0.18669248
21	0xbd87d895	-0.066331066
22	0xbcd66684	-0.02617193
23	0xbd5d026e	-0.053957395
24	0xbce39113	-0.027779138
25	0x3d916174	0.07098666
26	0x3d827c14	0.06371322
27	0xbdf96350	-0.121771455
28	0xbd41ddea	-0.047330774
29	0xbe14a120	-0.1451459
30	0xbceb3268	-0.028710559
31	0x3bda70fd	0.0066663013
32	0x3d2609d3	0.040536713
33	0x3c9d9928	0.01923807
34	0xbd3b9fc1	-0.04580665
35	0xbe40bded	-0.18822451
36	0x3cdadc1a	0.02671628
37	0x3d8e70ff	0.06955146
38	0xbda84e0a	-0.0821801
39	0x3d913500	0.07090187
40	0x3db108ab	0.086442314
41	0xbd17d224	-0.03706564
42	0xbc8d4e09	-0.017249124
43	0x3ca9705f	0.020683466
44	0xbdf9c714	-0.12196174
45	0x3d80803d	0.062744595
46	0x3d5b433b	0.053530913
47	0x3cfeffa7	0.031127764
48	0xbd626487	-0.05527165
49	0x3a50121f	0.00079372706
50	0xbd820717	-0.063490085
51	0xbd15106d	-0.036392618
52	0x3c19feb9	0.0093991095
53	0xbe0404e0	-0.12892485
54	0x3db63166	0.08896141
55	0xbcd42958	-0.02589862
56	0xbd61d3f2	-0.055133767
57	0xbe13e7b8	-0.14443862
58	0x3d6c0bf2	0.05762858
59	0xbd7f5274	-0.062334493
60	0x3e25853c	0.16164106
61	0xbd8e4b32	-0.06947936
62	0xbd5af669	-0.05345765
63	0x3d10c6fc	0.035346016
64	0x3e08d926	0.13364086
65	0xbd935a6d	-0.07194982
66	0x3cf3e4c2	0.029772166
67	0xbe203320	-0.15644503
68	0x3d464762	0.04840792
69	0xbe5df2ae	-0.21674606
70	0xbc972ae5	-0.01845307
71	0x3d654906	0.055977844
72	0xbe0243df	-0.12721203
73	0x3da5e5d8	0.0810048
74	0xbe0e97a9	-0.13925041
75	0xbd48e466	-0.049045943
76	0x3de7781d	0.11302207
77	0xbe173054	-0.1476453
78	0xbe1da26c	-0.1539399
79	0xbd0f694e	-0.035012536
80	0xbdb68d0c	-0.08913621
81	0xbc1c22f8	-0.009529822
82	0xbdd2c52a	-0.10291512
83	0x3d5d80b7	0.05407783
84	0x3dc374b5	0.095437445
85	0x3df774a8	0.12082797
86	0x3d5ee3a5	0.054416317
87	0xbd479152	-0.048722573
88	0x3dbb7686	0.09153466
89	0x3e1353a2	0.14387372
90	0x3def14e6	0.11673908
91	0xbe299e36	-0.16564259
92	0x3dd3f2b5	0.10349027
93	0xbbd19bae	-0.0063967323
94	0xbd908245	-0.07056097
95	0xbd8e1068	-0.06936723
96	0x3d601ac5	0.05471303
97	0x3d1b52ff	0.037920948
98	0xbe25da40	-0.16196537
99	0xbe002fc7	-0.12518226
100	0x3d7cab11	0.06168658
101	0x3dbfa8a4	0.093583375
102	0xbd899e06	-0.06719594
103	0x3df5b1e7	0.11996823
104	0xbddfe22f	-0.10931813
105	0xbd8deea3	-0.06930282
106	0x3d507d04	0.050900474
107	0xbe1eccd5	-0.15507825
108	0xbc35a45f	-0.011086552
109	0x3d250c7d	0.040295113
110	0xbdda431c	-0.10657331
111	0xbded57ae	-0.11588989
112	0xbd410bf6	-0.047130547
113	0x3ce02ab1	0.027364107
114	0xbcf8b21d	-0.030358369
115	0x3d91f8c0	0.071275234
116	0x3cc3fa24	0.023922987
117	0xbbed1c82	-0.0072360644
118	0xbde86d34	-0.11348954
119	0x3dd1f8e0	0.10252547
120	0x3d3e3976	0.046441518
121	0xbd09ac7e	-0.033611767
122	0xbdad1086	-0.08450417
123	0x3d7c3b58	0.061580032
124	0x3c67cb91	0.014147655
125	0xbe22b237	-0.15888296
126	0x3c8cca8b	0.017186424
127	0x3deeb443	0.11655476

action_model._continuous_distribution.log_sigma f4 [1, 2]
0	0xbe8f2393	-0.27956828
1	0xbe7a9668	-0.24471438

action_model._continuous_distribution.mu.weight f4 [2, 128]
0	0x3c26318f	0.010143652
1	0xbd7ec0aa	-0.062195458
2	0xbda6db9b	-0.08147355
3	0xbc6ef986	-0.014585858
4	0xbd316894	-0.043312624
5	0x3ceba089	0.028763073
6	0xbd14d8b0	-0.03633946
7	0xbcef17e3	-0.029186195
8	0xbdc9e8b7	-0.0985884
9	0x394063e8	0.00018347765
10	0x3ba0d1f1	0.0049078395
11	0xbd5857e0	-0.05281818
12	0xbc86d88f	-0.016460685
13	0xbc865707	-0.01639892
14	0xbd5bb867	-0.053642657
15	0xbc948ab5	-0.018132547
16	0x3c331246	0.01092965
17	0xbd2d5d1e	-0.04232513
18	0xbddd42bd	-0.10803745
19	0x3caedf80	0.021346807
20	0x3c2f1687	0.010686523
21	0xbcdd6541	-0.02702582
22	0xbd8b50ef	-0.06802546
23	0xbd87b5d0	-0.06626475
24	0xbd190afc	-0.03736399
25	0x3c9878d3	0.018612301
26	0xbd1a69c5	-0.037698526
27	0x3c6f0d60	0.014590591
28	0x3d38b96c	0.045098707
29	0xbacfe450	-0.0015860889
30	0xbbf71021	-0.0075397645
31	0xbd16abd1	-0.03678495
32	0xbda40d93	-0.080104016
33	0x3d82caff	0.06386375
34	0xbda0aecb	-0.07845839
35	0x3cf06aa7	0.02934773
36	0xbc4061c0	-0.011742055
37	0x3d4d0bd7	0.05006012
38	0xbdb21a0b	-0.086963736
39	0xbd4eab2b	-0.050456207
40	0xbd472042	-0.048614748
41	0x3c91908a	0.017769117
42	0xbdac5875	-0.08415309
43	0x3b64af9b	0.0034894708
44	0xbcacaa45	-0.021077285
45	0xbdaca135	-0.08429185
46	0xbd8296db	-0.0637643
47	0xbd3b44bc	-0.045719847
48	0xbdb0a655	-0.08625475
49	0xbc042017	-0.008064291
50	0xbd7f60be	-0.06234812
51	0xbc733e29	-0.014846363
52	0xbc0047a4	-0.00782958
53	0x3cac3829	0.021022873
54	0xbd8551ca	-0.06509741
55	0xbcccc37b	-0.024995556
56	0xbd1277c9	-0.035758767
57	0xbd90293f	-0.07039117
58	0x3bbb9c7e	0.0057254424
59	0xbbe8d5c3	-0.0071055605
60	0x3da13d9f	0.078730814
61	0x3b89a973	0.004201108
62	0xbda05e51	-0.078304894
63	0x3cfa4ef5	0.030555228
64	0x3e143f8d	0.14477368
65	0xbd54c43d	-0.05194496
66	0xbd529282	-0.051409252
67	0xbcbf64de	-0.023363527
68	0xbdde567e	-0.10856341
69	0x3c3979e3	0.011320564
70	0xbd986a29	-0.074421234
71	0xbd6cc19f	-0.05780184
72	0x3cbfb287	0.023400558
73	0xbc3bc841	-0.0114613185
74	0xbda9bd9d	-0.08288119
75	0xbd1d9f55	-0.03848203
76	0x3dc9a7e6	0.09846477
77	0xbca0c5d8	-0.01962559
78	0x3c3b1e6c	0.011420827
79	0xbd333b0f	-0.043757495
80	0xbd44669d	-0.047949422
81	0xbc99cf3e	-0.018775579
82	0xbd6ac1ee	-0.057313852
83	0x3c97a832	0.018512819
84	0x3dcc99ff	0.0999031
85	0x3b3a4fad	0.0028428838
86	0x3c157f85	0.009124641
87	0xbd6bf0ac	-0.05760257
88	0x3ce481cb	0.027893921
89	0x3e0bd65d	0.13655992
90	0xbcf73e14	-0.030180968
91	0x3bd7de84	0.006587805
92	0xbc898ca3	-0.016790694
93	0xbd7720e5	-0.060334105
94	0xbd0d3e61	-0.034483317
95	0xbc22ba94	-0.009932179
96	0xbdbed49c	-0.09317896
97	0x3c01cf41	0.007922948
98	0x3c1d46ba	0.009599382
99	0xbce94d94	-0.028479375
100	0xbc748242	-0.014923634
101	0x3d291ce3	0.041287314
102	0xbd3c83fd	-0.04602431
103	0xbd2fa4b0	-0.042881668
104	0xbd96bf9f	-0.073607676
105	0x3d126098	0.03573665
106	0xbd8472c4	-0.06467202
107	0xbd6ab4d5	-0.05730136
108	0x3d1f11ec	0.03883545
109	0x3b8756ab	0.0041302047
110	0x3cf629f5	0.030049304
111	0xbd8f4d5e	-0.069971785
112	0xbd3b8c96	-0.04578837
113	0x3d849d9d	0.06475375
114	0xbcbb6ec9	-0.022879975
115	0xbce7c351	-0.028291376
116	0xbd226d9d	-0.039655317
117	0x3db2a0ce	0.08722077
118	0xbcb384b1	-0.021913858
119	0x3d974053	0.07385316
120	0xbd6eccf6	-0.058300935
121	0xbd9fed8d	-0.07808981
122	0xbc9dc16e	-0.019257274
123	0x3c927e64	0.017882533
124	0xbcad90fc	-0.021187298
125	0x3c4f2fca	0.012645671
126	0x3d9207ea	0.07130416
127	0x3c9d6c61	0.019216718
128	0x3dd06f2a	0.10177453
129	0x3cefdb6a	0.02927943
130	0x3d1bff5f	0.038085338
131	0xbc04e8da	-0.008112157
132	0xbd25d8f6	-0.040490113
133	0xbda1355a	-0.07871504
134	0x3d27eb23	0.04099573
135	0x397edae0	0.00024304865
136	0x3be2ed99	0.0069252965
137	0xbd941f49	-0.0723253
138	0xbd8cf183	-0.06882002
139	0x3db08273	0.08618631
140	0x3dbe0f6b	0.092802845
141	0x397d58eb	0.00024161085
142	0x3d64120d	0.055681277
143	0xbd4fcd48	-0.05073288
144	0x3db986cc	0.090589136
145	0x3d0dad86	0.034589313
146	0x3c4a7224	0.012356315
147	0xbce14d20	-0.027502596
148	0x3d8cd727	0.068769746
149	0x3c98449d	0.018587405
150	0x3ce59ee3	0.028029865
151	0x3c324164	0.010879848
152	0x3cfe2e74	0.03102801
153	0xbde9c6ad	-0.114148475
154	0xbd6737d1	-0.056449715
155	0xbcc0fc0e	-0.023557689
156	0x3d1fc3ba	0.03900502
157	0x3d6772c6	0.05650594
158	0xbc9db77b	-0.01925253
159	0xbd65e97c	-0.05613087
160	0x3d7eb1b4	0.06218119
161	0x3c7a2acd	0.015268994
162	0x3cdc9e7c	0.02693104
163	0x3dd38626	0.10328321
164	0xbd1606c9	-0.036627565
165	0x3d88890a	0.06666763
166	0xbd1b6c52	-0.0379451
167	0xbe1a7971	-0.15085389
168	0x3deb7a90	0.11497986
169	0xbd25d5c7	-0.040487077
170	0x3d6b7ae0	0.05749023
171	0xbd46536d	-0.048419405
172	0x3d733323	0.05937494
173	0xbd02c57d	-0.03192662
174	0x3d0199ab	0.03164069
175	0x3cea2678	0.028582796
176	0x3d9646ba	0.07337709
177	0xbcb0743c	-0.0215398
178	0x3d586666	0.05283203
179	0x3d896de6	0.067104146
180	0xbd0fc976	-0.035104237
181	0x3d929d39	0.07158894
182	0xbd8fb382	-0.0701666
183	0xbd06ddc3	-0.032926332
184	0xbc2f57cf	-0.010702088
185	0x3d1d2249	0.038362775
186	0xbdc114a5	-0.09427766
187	0x3cb37ddc	0.0219106
188	0x3dcd2eef	0.100187175
189	0xbd0be0cb	-0.034149926
190	0xbc87871d	-0.01654392
191	0xbd676511	-0.05649287
192	0xbda7de47	-0.08196693
193	0x3d1afc66	0.037838362
194	0x3c815720	0.015788615
195	0x3d3a1e84	0.04543926
196	0x3cef69f9	0.029225336
197	0x3d8b5f16	0.068052456
198	0xbb9cb3b0	-0.0047821626
199	0x3d4a6967	0.049416926
200	0x3d8219e3	0.06352594
201	0xbda895ac	-0.08231673
202	0xbd3044dd	-0.043034423
203	0x3dab2ad7	0.083577804
204	0x3d6460cd	0.05575638
205	0x3d66ca5c	0.05634533
206	0x3d9dae85	0.076993026
207	0x3d9d5f0d	0.07684145
208	0x3d9c7968	0.07640344
209	0x3cd9fa4d	0.02660861
210	0xbbd78fe3	-0.006578432
211	0xbd87003d	-0.06591842
212	0xbca34736	-0.019931417
213	0xbda284d5	-0.07935492
214	0xbd9e61c7	-0.07733493
215	0x3d163285	0.036669273
216	0xbdd41568	-0.103556454
217	0x3b7e9f93	0.0038852438
218	0x3e250e15	0.16118653
219	0x3dcbb1fd	0.09946058
220	0xbdd7de05	-0.10540394
221	0x3d08a33f	0.03335881
222	0x3cb1ed52	0.021719608
223	0xbb535013	-0.0032243773
224	0x3d5194c5	0.05116727
225	0x3d970f4c	0.073759645
226	0x3d8f8bc5	0.07009081
227	0x3d8bf4de	0.06833814
228	0xbd847741	-0.064680584
229	0xbe206722	-0.15664342
230	0x3cd95670	0.026530474
231	0xbdf64f6a	-0.12026866
232	0x3b71cedd	0.0036896982
233	0x3c62a06c	0.013832193
234	0x3d156734	0.036475375
235	0x3d6b8540	0.057500124
236	0x3d930684	0.07178977
237	0x3dc99906	0.0984364
238	0x3d96903f	0.073517315
239	0xbc9fcf97	-0.019508166
240	0x3d2d0245	0.042238493
241	0xbdaecc5b	-0.085350715
242	0xba0ddd56	-0.0005411705
243	0xbdc1db92	-0.09465708
244	0xbd47e8da	-0.04880605
245	0x3c910f1f	0.017707406
246	0x3d07bfc3	0.033141863
247	0x3dcb43c7	0.09925037
248	0x3dbea764	0.09309271
249	0x3b0364c4	0.0020049075
250	0x3d51f202	0.051256187
251	0xbda7d982	-0.08195783
252	0xbd772b43	-0.060343992
253	0xbc82dd02	-0.015974525
254	0xbd3a79ad	-0.045526195
255	0x3db2bb58	0.08727139

action_model._continuous_distribution.mu.bias f4 [2]
0	0xb9cc9fa3	-0.0003902885
1	0xbc50792d	-0.012724203
