V2/PellerGrabber/results/Simple1/AgentControl/checkpoint.pt (torch, 445410 bytes, 39 tensors)

network_body._body_endoder.seq_layers.0.weight f4 [128, 6]
000000 dd c6 4a 3e 3f da 8a 3e f7 37 6b bc e9 7f 0f 3f
       0.19802423 0.27119634 -0.014356605 0.5605455
000010 a0 71 ee 3e 5a f6 00 3f a5 73 c4 bd d5 3c cd 3c
       0.46571064 0.503759 -0.0959237 0.025053421
000020 a5 08 ee 3d 3f ec 37 bf 2f 47 66 bf 7b 05 a5 3d
       0.116227426 -0.7184486 -0.8995237 0.08057686
000030 a4 16 08 3f 82 7e 4c 3f 16 aa d6 3e 33 a9 a8 be
       0.53159547 0.79880536 0.4192664 -0.3294159
000040 6e 67 c5 be e1 88 04 be 92 3f 66 3e 8f 84 a6 3e
       -0.38555473 -0.1294284 0.22485188 0.3252301
000050 f1 62 41 be 54 30 11 3c 55 2e 34 be 5a 51 99 bf
       -0.188854 0.00886162 -0.175958 -1.1977952
000060 bc 7c 47 3f 01 d2 a9 be a2 d4 35 3e a2 1c 2e 3f
       0.77924705 -0.33168033 0.17756894 0.6801244
000070 1f 16 66 3e e2 d5 a3 bd 1e ff 37 3f 56 00 ee be
       0.22469376 -0.07999779 0.7187365 -0.4648463
000080 9b 9d f3 be 29 b2 e6 bd 9d 87 8d 3e 79 86 11 be
       -0.4758118 -0.1126445 0.27642527 -0.14211453
000090 67 42 c5 3e 5e a5 c1 3c 12 22 e5 3e fe d9 1e 3e
       0.38527223 0.023638424 0.44752556 0.15512845
0000a0 fc 08 f7 3b d9 09 10 bf 5c 9c a8 bd 16 ab 12 be
       0.007538913 -0.56265026 -0.08232948 -0.14323077
0000b0 e5 7b 3e be 14 57 df 3d 50 32 3e 3e fb 3c 7c 3e
       -0.1860195 0.10905281 0.1857388 0.24632637
0000c0 a5 88 fd be b4 73 0e be c4 6c d6 3e 07 00 a6 3e
       -0.49518314 -0.13911325 0.41879857 0.32421896
0000d0 01 bf 58 3f 77 8c 8b be 8e 4d 3f bf c5 06 c1 bd
       0.8466645 -0.27255604 -0.74727714 -0.09425119
0000e0 13 4c 6f 3e 44 34 14 3f de dc 9d 3e 28 09 9c 3e
       0.23368864 0.5789225 0.3083257 0.30475736
0000f0 d8 86 89 bf f2 73 7a bf d0 6b fd 3e bd 71 8c be
       -1.0744276 -0.9783317 0.49496317 -0.27430525
000100 81 08 bd bc 26 76 a7 be 8f e9 26 be 3e ab 95 be
       -0.023075344 -0.32707328 -0.16300033 -0.2923221
000110 66 a3 d6 be af 85 c6 bc b9 99 9c 3e dd 5d 97 3d
       -0.41921538 -0.024233667 0.3058603 0.0739095
000120 c6 01 dc bd 6b d5 22 3e 1e 5d 8a 3f 79 f7 8a bd
       -0.10742526 0.15901725 1.0809667 -0.06785483
000130 af fb 35 be f5 c3 6e 3e 15 16 cc 3d e8 91 22 3f
       -0.17771791 0.23316939 0.09965149 0.63503885
000140 b7 d3 90 3f 98 83 20 3f 29 2c ac 3e 5a f0 d4 be
       1.131461 0.62700796 0.33627442 -0.41589624
000150 97 dd 9b be 4d 1a 4b 3f b5 3c c6 bd 0c c7 5b 3d
       -0.30442497 0.79337007 -0.09679548 0.053656623
000160 df 28 6c bc 60 5a 50 3d ed 6d f2 bd 34 af b9 be
       -0.014414041 0.05086744 -0.11837373 -0.36266482
000170 b2 3f 54 be 19 b9 14 bc 0e 8a 22 be 8c 78 ef 3b
       -0.20727423 -0.009077334 -0.15872976 0.0073080715
000180 0f a8 1b be 0b ab 06 bf 25 ca 4b 3f 8e c9 68 be
       -0.15200828 -0.5260474 0.79605323 -0.22733137
000190 4d d2 97 3e 26 69 ae 3e cb 03 05 bf a4 e3 22 3f
       0.29652634 0.34064597 -0.5195891 0.636286
0001a0 c8 90 a0 3e eb 9e 84 3f 26 f8 5c 3e dc fa 2c 3b
       0.3136046 1.0360998 0.21579036 0.002639464
0001b0 68 3d f2 3e 48 3d 30 bf 7f 10 dc be 07 77 0a 3e
       0.47312474 -0.6884351 -0.42981336 0.13521968
0001c0 48 46 1c 3e 5a 9d c8 3d af 26 9a 3d 94 2f 00 3f
       0.15261185 0.097956374 0.075269096 0.500726
0001d0 56 cd 33 3e 3d 72 89 be be e9 43 3e 00 74 20 be
       0.17558798 -0.2684497 0.19132134 -0.1566925
0001e0 22 61 f4 be 14 f9 79 bd 0c 9f 88 3e 9b 92 ce 3e
       -0.47730356 -0.061028555 0.26683843 0.40346226
0001f0 62 b6 9f 3e 78 32 05 bf d8 15 d4 3e 98 37 d2 3e
       0.31193835 -0.52030134 0.41422915 0.4105804
000200 93 c5 6c 3e 19 1d 52 3e 3e fd 8f be ba 4a a1 3e
       0.23122244 0.20518912 -0.28122896 0.31502324
000210 a6 57 0e bf 22 06 73 be 3e 6b 0e 3e 38 43 da 3e
       -0.5560249 -0.23732808 0.13908097 0.4262941
000220 b8 66 7d 3e 03 20 24 3f d9 9e 8e 3e 90 40 fa be
       0.24746215 0.64111346 0.27855566 -0.48877382
000230 3e 3c 8d be cd 40 18 3f 5d 56 36 bf 2c 26 9e 3d
       -0.27585024 0.5947388 -0.7122553 0.077221245
000240 07 44 a4 be ec 44 17 bd 5c 21 e2 bc 3a 2a c4 bd
       -0.3208315 -0.036930963 -0.027603798 -0.095783666
000250 cc 6f 0c bf 5c 5c 27 3f c9 c3 d0 be df b9 88 be
       -0.5485809 0.65375304 -0.40774372 -0.26704308
000260 3c b2 fd be 7b af 49 3e 57 7c f5 3e 25 fb 5f 3b
       -0.49550045 0.19695847 0.47946426 0.0034176793
000270 16 98 9c 3d 75 a6 9c 3e 0a 48 6b 3d 42 a9 98 3e
       0.076461956 0.30595747 0.05744175 0.29816633
000280 3f 8a 4a 3e e8 2f 80 bf 1a 60 90 3e 03 83 b9 3e
       0.19779299 -1.001462 0.2819832 0.36232767
000290 be 00 0a be 3d 66 b9 bc 3d 69 b2 3e 6d de 1f be
       -0.13476846 -0.022631759 0.34845915 -0.15612192
0002a0 90 8b a3 be fe 0c e4 3d a9 62 ce be 57 a7 b1 3d
       -0.31942415 0.111352906 -0.40309647 0.08674496
0002b0 bb 03 c1 be 1a c1 cd 3e d1 ce 81 bd ef 92 86 3e
       -0.3769816 0.40186387 -0.06338275 0.26283976
0002c0 60 19 81 3e 81 6e fc bd 71 01 41 3e 80 0a 15 bf
       0.25214672 -0.123257644 0.18848206 -0.58219147
0002d0 26 3c c0 be 18 47 05 3e 58 a6 79 be d9 07 50 bd
       -0.3754589 0.13015401 -0.24379861 -0.050788734
0002e0 4f 0b 0c be ef 08 7f 3c f9 a9 c4 3e 15 6a a1 3e
       -0.13676189 0.015566095 0.3841093 0.31526247
0002f0 66 9d 9f bd 7f 18 a7 3c a0 64 b6 3e 38 90 2b bd
       -0.07793693 0.020397423 0.35623646 -0.041885585
000300 e4 f5 10 bf 16 02 0a 3f ef 70 10 3f 53 f7 38 be
       -0.566252 0.5390943 0.56422323 -0.18063097
000310 87 db c3 3e af c3 d1 3e be bc 8c be 08 9e 54 3e
       0.38253424 0.40969607 -0.2748775 0.20763409
000320 1b 04 ca be 60 ca 66 bd ce 01 07 3c 20 c3 48 bd
       -0.39456257 -0.056345344 0.008240176 -0.04901421
000330 7b 89 9c 3d 2b c0 c5 3e 5c 69 80 be 77 15 86 3d
       0.0764341 0.38623175 -0.25080383 0.06547063
000340 60 56 91 be 71 46 a9 3d 97 05 b9 3e 56 54 ef 3e
       -0.2838621 0.08265389 0.36137077 0.4674403
000350 c4 3f bb be a0 d9 d9 3e 4d 6f 1c 3f d8 8d 18 bf
       -0.36572087 0.42548847 0.6110733 -0.59591436
000360 16 a9 af bd 7d ed 18 be a8 7d 3c 3b 12 bc 12 3e
       -0.085771725 -0.14934345 0.002876142 0.14329556
000370 45 88 2c 3e bc 8c c9 bd 6a a6 e0 3e 38 d1 12 3f
       0.16848858 -0.09841296 0.43876964 0.5735049
000380 ba ea 3f be 9a e0 f4 3e 7d 23 44 3e 55 5d a7 be
       -0.18741885 0.47827607 0.19154163 -0.32688394
000390 2f 26 26 3e fb b3 8f be 35 00 63 be 64 dc 1b 3f
       0.16225503 -0.28067002 -0.22168048 0.60883164
0003a0 ca df 92 bb e6 7f 10 bc 32 2c 0e be 88 51 1b be
       -0.004482244 -0.008819556 -0.13884047 -0.1516782
0003b0 22 3f b5 be 43 97 e0 bd 2f 2d 8a 3e 36 e3 c1 3c
       -0.3539973 -0.10966351 0.26987597 0.023667913
0003c0 2a 9b 53 3e 8a 51 6c be d7 3e 06 3f 94 ba cd bd
       0.20664659 -0.2307798 0.52439636 -0.100453526
0003d0 4c aa b2 be 5a 90 8a be f9 7d 89 3e 5d 3e 5a 3e
       -0.3489555 -0.27063257 0.26853922 0.21312852
0003e0 9f f0 21 3e f4 1b 15 3f 34 ad b0 be e3 a1 42 3c
       0.15814446 0.5824578 -0.34507143 0.011879417
0003f0 14 55 de be b0 d6 0c bf 6f 81 49 3e 98 79 98 3e
       -0.43424284 -0.5501509 0.19678281 0.2978027

network_body._body_endoder.seq_layers.0.bias f4 [128]
000000 a1 b7 e1 39 f1 90 39 bb c1 e4 ce 3b d7 d9 fd ba
       0.00043052158 -0.0028315152 0.0063138907 -0.001936729
000010 a5 46 97 3c 08 19 32 3c 59 fc d2 3a 0e ed 63 bb
       0.018466303 0.010870226 0.0016096934 -0.0034778747
000020 b3 ad 69 3c e1 71 0b 3d 7c 14 a3 b9 38 47 78 3c
       0.0142626045 0.03404415 -0.00031105045 0.015153699
000030 99 c4 fb bb 40 6f 41 bb a8 c4 a0 38 9e 1c d4 3b
       -0.0076833484 -0.0029515773 7.6660246e-05 0.006473138
000040 78 65 ad 3b 47 fb bd 3c 9a 2d 84 3c 61 6b 12 3c
       0.005291637 0.023191107 0.016135026 0.008936734
000050 85 61 7a 3c 1a ce a5 bb 86 03 93 bb 1b 86 9c bc
       0.0152820395 -0.0050599696 -0.004486504 -0.019106915
000060 61 88 af bc d9 d0 8e 3c 97 cb 13 3c 11 5f f0 3a
       -0.021427335 0.01743357 0.009020708 0.0018338879
000070 e5 c5 bc bb d4 a1 e9 bb b3 33 7f 3c a0 b5 16 bb
       -0.0057608956 -0.007129887 0.015576291 -0.002299644
000080 3f 00 ab 3c 3b 22 1b 3c 30 4b 2a ba da 5f 53 bb
       0.02087414 0.00946861 -0.0006496189 -0.0032253177
000090 2d bb ba 3b 72 d2 3c 3c bc 4a 31 bb 54 b7 12 bc
       0.0056985826 0.011524783 -0.0027052602 -0.008954842
0000a0 80 3b dd 3a 23 47 2a 3c ae 04 97 3c 8d f4 5b 3c
       0.0016878694 0.010392937 0.018434849 0.013425005
0000b0 ae 61 ae 3b 84 33 e8 bb cf 5d 88 bb ea 85 8a 3b
       0.005321703 -0.0070862193 -0.0041615735 0.0042273896
0000c0 cf fa 8f 3b 4e 45 08 3b 41 e3 38 3c 16 eb 0f 3c
       0.0043939124 0.0020793262 0.01128465 0.008784076
0000d0 67 17 ce 3c 77 86 09 bb 78 3a 0f 3c e0 cf 9d 3b
       0.025157643 -0.0020984688 0.008741967 0.0048160404
0000e0 33 7e 10 3c 00 a3 b5 3b d9 ef 16 3c e6 67 fa bb
       0.008819151 0.0055431128 0.009212458 -0.00764178
0000f0 c3 54 a7 3c 1c ec 31 b9 62 7c 8f 3c 80 33 cf 3b
       0.02042616 -0.00016967993 0.017515365 0.006323278
000100 72 4e 0b 3c 72 53 c6 bb 74 08 10 3c 78 a4 a6 3a
       0.00850259 -0.006052428 0.008791078 0.001271381
000110 88 b7 36 39 74 24 da bb b3 a6 9b bb 11 a2 79 bb
       0.00017425243 -0.0066571776 -0.0047500967 -0.0038090984
000120 b6 a2 0f 3c fb 4f 0d bc c1 aa 54 3b a4 06 5c 3c
       0.008766821 -0.008625026 0.003245041 0.013429318
000130 a8 e1 12 3b ce 79 bd 3b a5 f4 f5 ba 0f d9 f5 bb
       0.0022412334 0.0057823425 -0.0018764926 -0.007502682
000140 0a 00 14 3b 5a ca 82 ba 06 1f b0 3c f1 07 ab 3c
       0.002258303 -0.0009978518 0.021499168 0.02087781
000150 af 31 e1 3b 47 f8 e8 39 ca 0a ea bb 42 4c 73 3c
       0.006872378 0.0004443547 -0.0071423994 0.014849724
000160 b5 63 93 3a a9 e8 93 3b df f1 d9 3b 1f 8c 08 bc
       0.0011244925 0.0045138192 0.0066511477 -0.008334189
000170 9e ec 2f 3b 52 1d fb b9 1a fa f5 3a 8b c0 c0 3b
       0.0026843916 -0.00047896296 0.0018766553 0.005882328
000180 0f c7 3e bc c4 c3 7f 3c 4e e6 36 bc eb ac 9c ba
       -0.011644139 0.015610639 -0.011163307 -0.0011953389
000190 be c0 8f 3c 02 b8 2c bb 25 48 53 3b c0 ac 81 3c
       0.017547961 -0.0026354794 0.0032239046 0.015829444
0001a0 64 ed 7a 3c 82 fa d3 3b b9 96 d9 bb a3 7f 3f bb
       0.015315387 0.006469072 -0.006640282 -0.0029220365
0001b0 17 56 60 3c 4c 80 42 bc ee 16 eb 3c 71 e9 4d bc
       0.0136924 -0.011871409 0.028697457 -0.012567864
0001c0 8e 32 6e 3c 9c 45 ec 3b 32 e8 7e 3c 3a 13 9c 3b
       0.01453842 0.0072104465 0.015558289 0.004763034
0001d0 15 24 ab bb 79 37 b4 bb 4f 4e ba 3c c3 cc dd 3c
       -0.005222807 -0.005499777 0.022742419 0.027075177
0001e0 29 64 59 3c 09 6c d9 bb 3a 68 de bc ad 21 c7 3c
       0.013268509 -0.0066351932 -0.027149308 0.02430805
0001f0 b0 89 ab 3b 46 1d 53 bc c6 bb ca 3a 87 6a ad 3b
       0.0052349195 -0.012885397 0.0015467338 0.00529224

network_body._body_endoder.seq_layers.2.weight f4 [128, 128]
000000 a3 6f 95 3d 0f 99 35 bd 6c df 03 3d b2 b1 06 3d
       0.07296684 -0.04433542 0.032195494 0.032884307
000010 d8 c7 19 3d bb 0a ef bd e9 47 ea bd a3 f1 b9 3d
       0.0375441 -0.116719685 -0.11439497 0.09079292
000020 cf 51 c2 3d f0 c9 2e 3d 95 aa cc 3d 26 e9 0d bd
       0.0948826 0.04267305 0.099934734 -0.034646176
000030 e4 37 46 be 35 c3 dd 3d a8 07 62 3c 7c f3 08 3d
       -0.19357258 0.108282484 0.013795771 0.03343533
000040 b3 59 53 be 1c 21 0e bd ec 48 6d bc eb d7 79 bd
       -0.20639686 -0.034699544 -0.014482718 -0.06099693
000050 cc 5f a3 3d 0b 4e 2f bd e2 8f 7c bd 80 e1 bf bb
       0.07977256 -0.042799037 -0.061660655 -0.005855739
000060 9b 3b 31 3e 66 3c 28 3c 84 57 d7 3d 41 d1 20 3c
       0.17307894 0.010268306 0.10514739 0.009815515
000070 f9 f2 17 bd f6 2c e7 3c b8 a9 8d 3d bc cb de bc
       -0.03709695 0.028219681 0.06917137 -0.027196757
000080 7e ee ca bd 3a 95 aa 3d ba 42 e3 3d 06 04 28 3e
       -0.0990877 0.08329244 0.110967115 0.16407785
000090 07 2e da bd 7a 99 2c 3c f9 76 c8 3d c0 f4 09 3e
       -0.1065331 0.010534639 0.09788317 0.13472271
0000a0 c7 f4 2c bd 6a 7e ba 3d 23 d6 4e 3e 47 6f 53 3c
       -0.042225625 0.09106143 0.20198874 0.012904949
0000b0 d7 71 cf bd ae b3 09 bb a5 a0 71 3d e0 6d e1 3d
       -0.10129135 -0.0021011638 0.058991093 0.11007285
0000c0 d0 ed 5c be 76 c7 83 3d 27 3b c0 bd a4 c8 07 3d
       -0.21575093 0.064345285 -0.093862824 0.03315033
0000d0 00 01 d5 3c 2a 24 40 be d2 a0 87 3d 12 6b eb 3d
       0.026001453 -0.18763795 0.06622471 0.114950314
0000e0 97 0c d6 3d 6a 5d 66 bb 5a 17 ba 3b 7a 60 1f 3b
       0.1045162 -0.0035150894 0.0056790533 0.002431898
0000f0 29 40 22 3d a2 64 41 3e 80 56 f5 3d 38 cd 67 3d
       0.03961197 0.18886045 0.11979389 0.056592196
000100 90 d9 16 be 03 92 27 3e 37 41 aa 3d 96 bd c2 3a
       -0.14731431 0.16364293 0.0831322 0.0014857526
000110 c9 b7 7b 3a 4d 0b 56 bd 3f 50 03 3c 95 e6 f2 bd
       0.0009602276 -0.05225687 0.008014738 -0.11860386
000120 8e d7 ab bd 21 c4 cd bd 49 fb a8 3d 80 5c 80 3d
       -0.08390723 -0.10047174 0.08251054 0.06267643
000130 f8 bb b0 3c c3 b9 47 bd f9 8a f4 3c c7 cc 27 be
       0.021574005 -0.04876114 0.029851424 -0.1638671
000140 3e 96 2b 3d c2 08 0d be 05 ec d2 3d d9 bb ac bc
       0.04189133 -0.13772872 0.102989234 -0.021085666
000150 22 78 96 bd 2b b7 d2 3d 95 49 01 be ce c9 fe 3c
       -0.07347132 0.10288843 -0.12625726 0.031102087
000160 a3 b4 0a be 95 04 d7 bc 74 1c 6d bd 47 d6 92 bd
       -0.1354547 -0.026247302 -0.057888463 -0.071697764
000170 ce d4 10 3d 5a 18 c0 bd ca 2d 53 bd b5 ef 42 bb
       0.035359196 -0.09379645 -0.05155734 -0.0029744927
000180 b5 ac b4 bd 64 22 39 3e a9 c3 a1 3d fb 87 20 bd
       -0.08822004 0.18079525 0.07898647 -0.03919218
000190 0f b0 c3 bd 89 2d c9 3d ad c2 10 3e b0 c6 0b 3e
       -0.09555065 0.09823138 0.14136763 0.13650012
0001a0 b1 4d 10 3e a7 96 e0 bb 13 69 01 3e 40 9f 20 bd
       0.14092137 -0.0068538967 0.12637739 -0.039214373
0001b0 7c 2c df 3c 98 af 33 3d b6 8b 57 bc 3b da d5 3c
       0.027242891 0.04386863 -0.013155868 0.026105037
0001c0 15 f1 5d be a5 dd 2e bd 33 50 1e bc cb 91 04 3d
       -0.21673997 -0.042691845 -0.009662676 0.0323656
0001d0 2c 53 74 3d 5c 41 06 3d e5 72 ef bd e6 bc 7a 3d
       0.05964963 0.032777175 -0.11691836 0.061215304
0001e0 a7 15 8a 3d b6 2c 01 3e 6d 7a b6 39 09 7b 0c 3d
       0.06742411 0.12614712 0.0003480496 0.034297023
0001f0 07 3b 41 be d9 87 a8 bd 03 eb 80 bd 71 c3 f5 bd
       -0.18870173 -0.08229036 -0.06294825 -0.12000168
000200 b4 c2 5a bd 87 12 45 bc 8f 45 10 3c ba 28 c3 bd
       -0.05340834 -0.012028343 0.008805647 -0.09529252
000210 60 03 2a 3d d4 f1 5a 3e 52 5b d0 3d 4f 36 f2 bc
       0.041507125 0.21381313 0.10173668 -0.029566912
000220 a9 34 82 3d 09 1e a9 bc a6 e9 9d 3d ea 88 2f 3d
       0.063577004 -0.020644205 0.077105805 0.04285518
000230 39 89 c2 bc cf 5f 8b bd 52 79 83 bc c8 7c 97 bd
       -0.023747073 -0.068053834 -0.016049061 -0.07396847
000240 06 0e 64 be bc bf d0 3b d2 eb 00 3c cd 04 b8 bc
       -0.22270975 0.006370513 0.007868724 -0.022463227
000250 f0 d6 d7 bd 4c ba 15 3c 52 15 d3 3c be 2d e9 bd
       -0.10539043 0.009138655 0.025767002 -0.11385678
000260 0e 92 8c 3c 41 3a c3 bd 7f 32 15 3e 18 18 85 bc
       0.017159488 -0.095325954 0.14570044 -0.01624684
000270 9b 64 0f be 8e 69 8b be 2d aa 8a 3d ae 2c 6d 3d
       -0.14003222 -0.2722897 0.0677074 0.057903938
000280 c5 ce e6 bd fa 35 4e 3e ff 63 35 3e 11 25 4a be
       -0.11269907 0.20137778 0.17713927 -0.19740702
000290 0d af 9a 3d 7a 8f 1b be dc 66 20 3e ba da 5c 3d
       0.075529195 -0.1519145 0.15664238 0.05391953
0002a0 c1 08 79 bd 30 a4 d3 bd db fa a7 3c 4d fb a7 3d
       -0.060799364 -0.10334051 0.02050536 0.08202229
0002b0 bc 86 fb 3b 22 bb 47 3a 74 a2 25 3e 53 bd 57 bb
       0.0076759737 0.00076191325 0.16175252 -0.0032919243
0002c0 cb 65 f8 bd be 14 cc 3b 1e f5 d5 3c 09 41 95 bc
       -0.121287905 0.0062280586 0.026117858 -0.018219488
0002d0 ef 7e 31 3d 24 9d 42 be 37 0a 67 bd 5f d1 bb 3c
       0.043333944 -0.19005257 -0.056406226 0.022926984
0002e0 db 32 eb 3c 9e 02 b2 3c 1f 7b 8e 3d 68 c0 74 3d
       0.028710773 0.021729764 0.06957077 0.059753805
0002f0 4b 84 66 3d 08 aa 5d 3d 9b cd af bc 81 0f c8 3d
       0.05627851 0.054117233 -0.021460345 0.09768582
000300 c3 e7 95 be 39 60 91 3d dd 62 b9 bd 07 34 c5 3d
       -0.29278383 0.07098431 -0.0905206 0.09629064
000310 d1 52 e8 3d e7 31 b2 bd 0f 1c cd bc d4 1f 65 bd
       0.11343921 -0.08700924 -0.025037793 -0.055938557
000320 ca e2 c8 bd ba d9 b3 bb ab e9 b8 3b 20 0c 81 bd
       -0.098088816 -0.0054886015 0.00564309 -0.06301141
000330 c6 4f 73 bd 46 57 59 bb 88 fa a6 3d 16 d0 dc 3d
       -0.05940225 -0.0033163591 0.08153254 0.10781877
000340 de cf 55 be 3e 7e e3 3d ef 02 c2 3d e8 65 57 bd
       -0.20880076 0.11108063 0.09473216 -0.05258742
000350 a4 1b 53 3d 4f 62 f5 bc 29 7a 4c bd 12 9f 0f 3c
       0.051540032 -0.029954104 -0.04992119 0.008765953
000360 9c 03 b4 bd 02 e3 18 bd ae d0 db 3d c0 fe 48 bc
       -0.08789751 -0.037325867 0.10733162 -0.012267768
000370 99 31 23 3e 40 40 0d 3e fd 71 d5 38 2d 42 0c bc
       0.15936889 0.1379404 0.000101778634 -0.008560699
000380 17 c8 1a bd d3 12 a0 bd 9e c3 a1 bd 78 bd 63 bd
       -0.037788477 -0.078160904 -0.07898639 -0.055600613
000390 cb e8 59 3c 6b c6 65 bd ea d9 91 3b e0 04 0a 3e
       0.013300131 -0.05609743 0.004451026 0.13478422
0003a0 f6 d5 d3 3d 05 f4 38 bd eb cb ab 3d a1 9e ee bd
       0.10343544 -0.04515459 0.08388504 -0.1165135
0003b0 0d 21 f1 3d 7c 83 b6 3d d9 50 88 3d 38 31 fc 3b
       0.11773882 0.089117974 0.066560455 0.007696297
0003c0 e6 50 6d bd 5b e9 37 3d 2b 80 94 bd 8b 80 f2 3c
       -0.05793848 0.04490028 -0.072510086 0.02960231
0003d0 a0 ed 98 bd f7 b2 55 3d f2 77 0d 3c 9f 34 ba 3c
       -0.07467198 0.052172627 0.008634554 0.02273017
0003e0 ed 8c 9b 3d 6a b5 00 3e 52 95 e0 bd 6c 40 9a 3d
       0.07595239 0.12569204 -0.109659806 0.07531819
0003f0 6b 8a 03 3d 10 88 ca bd 59 43 e5 bd 12 18 b0 3d
       0.032114428 -0.09889233 -0.11194486 0.08598341

network_body._body_endoder.seq_layers.2.bias f4 [128]
000000 7a 6e 42 3c 0f 6e 39 3c b9 7b 88 bb a4 92 8a 3b
       0.01186716 0.011317744 -0.0041651395 0.0042289067
000010 35 0a c5 3b 05 5d f3 3b a0 3c af bb 25 a5 0a 3c
       0.0060131797 0.0074268603 -0.0053478032 0.008462225
000020 6f b4 cf 3a 06 1c 4d bb 21 f4 37 3c dd ca 0b 3c
       0.001584662 -0.003129722 0.011227638 0.008532253
000030 76 54 28 bb c7 08 c8 3c df 0f 93 3c d0 82 84 3b
       -0.0025685108 0.024418248 0.017951904 0.0040439144
000040 f1 64 8b 3b 29 5f 86 3b 84 a1 00 bc e1 7b 76 3c
       0.0042539765 0.0041006994 -0.007851008 0.0150441835
000050 18 9a 7a 3c b2 cd 86 3c 4d b8 bb 3a 26 1e bb 3b
       0.015295528 0.016455505 0.0014321894 0.005710381
000060 0b 14 d5 3a 45 4c 4a 3c 14 b2 75 bc db e9 7e 3a
       0.0016256584 0.012347286 -0.01499607 0.0009724178
000070 fa e0 52 3c d3 ef 80 ba bd cb 47 39 76 4b d7 3b
       0.012871021 -0.0009837098 0.00019054017 0.006570275
000080 0a 40 89 3b 26 11 0e 3b b5 41 90 bb a0 48 b2 bb
       0.0041885423 0.0021677702 -0.004402364 -0.0054407865
000090 4d 48 b9 bb f2 d4 43 3c 12 4a 02 bc 76 a6 e7 bb
       -0.005654371 0.011952626 -0.00795223 -0.0070694042
0000a0 e2 ce 84 3b 4d 1c 4e 3b 50 3b a9 ba 06 f1 ce bb
       0.0040529827 0.0031449974 -0.0012911353 -0.0063153533
0000b0 f4 99 39 3b 67 b8 84 3b 08 0a 53 bb ef e1 d9 3b
       0.0028320523 0.004050303 -0.0032202024 0.006649248
0000c0 ee 83 49 ba 63 c8 8e bb 67 31 2a 3c 8f 58 ae bc
       -0.00076872006 -0.004357384 0.010387755 -0.021282462
0000d0 0b e1 5a ba d2 41 c0 3b c3 5d 22 bc df 18 bc b9
       -0.0008349574 0.0058672214 -0.00991005 -0.00035876685
0000e0 78 82 1f 3b 60 94 68 3b f9 64 49 bb ff c6 55 3b
       0.002433924 0.003548883 -0.003073035 0.0032619832
0000f0 58 16 b5 bb 76 e3 d2 bb 2f 3c e2 b8 59 62 1c bc
       -0.005526345 -0.006435807 -0.0001078773 -0.009544932
000100 58 3e 15 ba e1 f3 76 bb 27 ff 51 3a 3c 7e 62 3b
       -0.0005693189 -0.0037681984 0.0008010738 0.0034560105
000110 cf 70 8b 3b 8c 52 72 3a 0e 6b b9 bb 5d 52 ca 3b
       0.004255391 0.0009243868 -0.005658514 0.0061743692
000120 a6 d0 0b bb fd 9d 60 bb 80 28 94 ba aa 2f ad ba
       -0.002133408 -0.0034273856 -0.0011303574 -0.0013213058
000130 55 d9 12 bc a6 86 8a 3a 68 33 b1 b9 2d dd 23 3c
       -0.008962949 0.0010568693 -0.0003379837 0.010001463
000140 a5 7d 2f 3b 9f 48 3b 3b 90 3d 5e 3c 97 d1 92 3c
       0.002677777 0.002857722 0.013564482 0.017922206
000150 44 04 09 3c c6 71 2c 3b e7 3a f2 3b d5 ed 1d 3b
       0.008362833 0.0026312931 0.0073922756 0.0024098058
000160 61 89 40 bb 40 f4 60 3a f9 53 43 bc de d3 d4 3a
       -0.002937876 0.0008581318 -0.011921876 0.0016237458
000170 fb 6b 0e 3b 84 41 20 3c 1a 2b 01 bc 18 f4 5e bb
       0.0021731842 0.009781245 -0.007883811 -0.0034020003
000180 e4 8c 13 bb 7c fb 41 b9 e0 8b f7 3b a5 b3 f8 3b
       -0.0022514397 -0.000184996 0.007554516 0.0075897747
000190 31 b9 ef 3b 63 6b 33 3b d1 90 2d bb 98 62 41 bb
       0.0073157777 0.002737724 -0.0026484022 -0.002950823
0001a0 92 0d 7f 3b 76 06 e2 3b 7e 6d 80 3c 37 3a 14 3c
       0.0038918 0.006897743 0.01567721 0.009047083
0001b0 9d a4 53 3c bf 53 6b 3b 53 72 00 bb aa c7 27 3c
       0.012917665 0.003590807 -0.0019599393 0.010240475
0001c0 4c 86 07 3a 68 e9 63 3b 16 4d 53 bb 2a e4 f6 b8
       0.0005169853 0.0034776572 -0.0032241992 -0.00011772693
0001d0 c9 b9 fe ba 88 06 3a 3c 20 55 44 3a 37 ed 65 bb
       -0.001943403 0.011354096 0.0007489491 -0.0035084018
0001e0 b8 89 34 bb a7 d8 e0 ba 5b 20 ba 3b a2 8c 92 bb
       -0.0027547907 -0.0017154411 0.0056801266 -0.004472331
0001f0 91 af b8 bb 6b ee a5 bb f2 c5 44 bb fa 20 70 ba
       -0.0056361635 -0.005063822 -0.003002521 -0.00091601873

action_model._continuous_distribution.log_sigma f4 [1, 2]
000000 3f e7 13 bd bd 06 ab bc
       -0.036109205 -0.020877237

action_model._continuous_distribution.mu.weight f4 [2, 128]
000000 55 1f b5 3c cb c1 f6 3c ad ad 59 bd 2e 19 81 bc
       0.022109667 0.030121705 -0.053144146 -0.015759077
000010 5c 9d 2c bd e4 43 8d bc 10 1a 70 bb e5 35 b2 bc
       -0.042142257 -0.017244287 -0.0036636628 -0.021754215
000020 24 fe 52 3d 3c 34 64 3d 6a a2 e6 bb 59 8a 0a bd
       0.0515119 0.055713877 -0.0070384042 -0.033823345
000030 10 46 a3 bb de df 7b bc a2 57 34 bd 65 ff 64 3d
       -0.0049827173 -0.015373198 -0.044028886 0.055907626
000040 67 5c c4 3c 5c e4 47 bb 5d a7 a5 3a fd 42 d3 bc
       0.023969842 -0.0030501103 0.0012638379 -0.025788778
000050 c0 37 cb bc 15 0b 3d 3d b2 72 b9 3b ae b4 5a 3c
       -0.024806857 0.046153147 0.0056594247 0.013348741
000060 5f 9f 95 bc ef 25 c3 3c 3a 8a 29 bc e3 53 b9 3c
       -0.01826447 0.0238218 -0.010347897 0.022623008
000070 1d e9 3b 3c 36 42 ee 3b 11 f6 51 3c d1 a7 16 bd
       0.011469153 0.0072710766 0.012815014 -0.036781136
000080 8b a8 4b 3d 52 30 0f 3d c7 b5 8a 3c 55 90 b2 3c
       0.049721282 0.03495819 0.016932381 0.021797339
000090 b6 75 f4 3c bd 18 07 3d df 6b f6 3b 64 fa 00 3c
       0.029841285 0.032982577 0.0075201835 0.007872198
0000a0 3a af dc 3a 72 78 60 bb 13 6b 26 bb e6 9c 7a 3c
       0.001683689 -0.0034251479 -0.002539341 0.015296197
0000b0 74 fa d2 3b 97 80 f1 3a 76 2b 06 3d 8b ef 9f bc
       0.0064385477 0.0018425164 0.03275629 -0.019523403
0000c0 1c 1b c4 bb aa d5 df bb d2 f9 11 3d 94 3f 7d bc
       -0.005984677 -0.0068308907 0.035638638 -0.015457053
0000d0 b8 e7 57 3c f0 a1 30 bd e2 ad b8 3c bb c4 2d bc
       0.013177805 -0.043123186 0.022543851 -0.010605986
0000e0 80 08 38 3c 2d cd a3 bc 30 56 72 39 16 1a 12 3c
       0.011232495 -0.019995296 0.00023111026 0.008917352
0000f0 ba 1c 89 3c 02 3b 4e 3c db 3c 17 bc 55 aa ab bb
       0.01673733 0.012587311 -0.009230818 -0.005238811
000100 f9 58 ad 3b 2f 6a 0a 3d bd 7c d1 bc 8e 2a bb bc
       0.0052901474 0.03379267 -0.025572175 -0.02284744
000110 c3 22 03 bd fc 9a c8 bb 68 cf 65 3c bf 51 3b 3d
       -0.032015573 -0.006121991 0.0140265 0.045732256
000120 1d ba c0 3c a5 32 3c 3c aa 75 93 3c c4 bd 60 3d
       0.023526246 0.011486684 0.018000443 0.054868475
000130 2c 69 e8 3b 0b af 96 3b 99 8c 96 3c 4b 92 b8 bc
       0.0070926156 0.0045985035 0.018377589 -0.022530695
000140 9d 26 63 bc 68 78 8d bc 8d c2 d7 3b 93 98 20 bd
       -0.013864187 -0.017269328 0.0065844716 -0.039208006
000150 7f e7 b1 bc a9 f5 89 bb f2 9b 18 bb 16 8d 63 bc
       -0.021716831 -0.004210193 -0.002328631 -0.013888618
000160 fe 28 9f 3c 61 21 1e bc 22 de b7 bb b8 40 68 bc
       0.019428726 -0.009651513 -0.005611197 -0.014175586
000170 42 a3 9b bc 75 54 d9 bc ff fe 2e 3c 01 df a0 3c
       -0.018998746 -0.02652953 0.010680913 0.019637587
000180 c1 f4 a4 3c ba 03 9a 3a 96 88 4b 3c 70 ca 6f bc
       0.020136239 0.0011750378 0.012422701 -0.014635667
000190 06 cc 10 bd 2b b2 e2 bb 48 a1 86 3a 5f 04 40 3d
       -0.035350822 -0.006918212 0.0010271454 0.04687917
0001a0 f3 a0 68 3d 69 13 9f 3c 36 aa 27 bd 23 ec 9f 3a
       0.056794118 0.019418435 -0.04093381 0.0012201112
0001b0 49 89 16 3d 85 45 cd bc fd 4b 48 3c fd b3 ce bc
       0.03675202 -0.025057564 0.012225148 -0.02523231
0001c0 3b d4 36 bc 51 b5 a5 bc 01 1e 7c 3c 6e 8b 22 3c
       -0.011158998 -0.02022806 0.015388013 0.009920938
0001d0 18 f8 80 bc a4 fa 22 3d a1 32 63 3b 07 b3 cd 3c
       -0.0157433 0.03978981 0.0034667628 0.025109781
0001e0 70 01 43 3c 08 c0 fb 3b 42 93 f2 3c c9 c0 d6 ba
       0.011902198 0.007682804 0.029611234 -0.0016384359
0001f0 78 ec b3 3c 99 1b eb 3c 3c 7c 65 bb 49 9b a6 3c
       0.021963343 0.028699683 -0.0035016676 0.020337718
000200 cd b9 92 3c 5c 77 9c 3c 31 15 bf bc a8 00 72 3a
       0.017910862 0.019099884 -0.023325535 0.0009231665
000210 33 19 58 3a bf ab ba bc 49 dd 11 ba 78 97 97 3c
       0.0008243501 -0.022786973 -0.0005564285 0.018504843
000220 29 ba 81 3b 50 2d ea 3c 47 09 6c 3c eb 93 0a bd
       0.0039589596 0.02858606 0.014406509 -0.03383247
000230 76 ed a2 3b 2c 37 8e bb 02 fa db bc e1 e3 e8 3c
       0.004972155 -0.004340073 -0.026852611 0.028428974
000240 ad a8 63 bc c6 5f 28 3c 8f 2e 58 bc bb 40 1b 3d
       -0.013895196 0.01027674 -0.013194694 0.03790353
000250 76 a3 1b 3a f9 69 41 3d 80 f7 2f 3c 24 4b 0c 3d
       0.00059371383 0.047220204 0.010740161 0.034251347
000260 ba a8 76 3c 6e dd e9 bb ad 15 ad bc 97 91 81 bb
       0.015054876 -0.007136992 -0.0211285 -0.0039541232
000270 65 f8 22 3c 33 7a 51 3c 6f 5d 65 3c ad 64 20 3d
       0.009946917 0.012785482 0.013999327 0.039158512
000280 71 40 2c 3c 4d 77 28 3d 75 d1 b6 bc 40 77 ba bc
       0.010513411 0.0411294 -0.022316674 -0.022761941
000290 f9 e5 f1 bc f2 8e de bc df 29 13 bb 0a 6c 70 3c
       -0.029528605 -0.027167771 -0.0022455377 0.014674196
0002a0 09 4e 06 3d 55 de 14 3d c8 85 5f bc fa 86 4d bc
       0.032789264 0.036344845 -0.013642736 -0.012544388
0002b0 46 9a 43 3d fd 99 8b bc a6 65 1c bc 66 b9 62 3c
       0.04775455 -0.0170412 -0.009545719 0.013838148
0002c0 33 ad 1f bc 0d 2c 64 bb 94 e0 49 3d 57 20 d5 bb
       -0.009745884 -0.0034816295 0.04928644 -0.0065040994
0002d0 07 a2 1e 3b 89 f1 51 bd e7 95 3f 3c 66 e3 76 3c
       0.0024205463 -0.051255737 0.011693454 0.015068864
0002e0 fa 6d 0a bd 2f 69 4d 3d ab 1f 30 bd dd 6f c9 3c
       -0.033796288 0.05014914 -0.04299895 0.024589473
0002f0 dc e8 05 bd 6b 6d bd ba 0d c4 b7 3c c1 3d e3 bc
       -0.032692775 -0.0014452165 0.022432351 -0.027739407
000300 ff 03 fe 3b 05 d3 ee bb 14 20 05 3d 4e 12 d2 bc
       0.007751941 -0.007288339 0.032501295 -0.025643494
000310 30 a4 99 bc d9 db 8c 3c f7 82 e7 bc 3c 51 9f bb
       -0.018755049 0.017194675 -0.028260691 -0.004861979
000320 8e 8f a3 bb 5f dd 28 bb b4 ec 44 3c d1 39 8a bc
       -0.0049914783 -0.0025766713 0.012019325 -0.016873272
000330 b7 40 fd bb 64 06 05 3d 0d 99 db 3b 66 5c 7d 3c
       -0.007728662 0.032476798 0.0067015947 0.015463924
000340 2e e8 99 bb bc 0d b2 bb 72 6c 13 3d 3c 21 50 bc
       -0.0046968674 -0.005433766 0.035992093 -0.012703236
000350 13 50 86 bc 73 96 e8 bc 2a be e1 3c e3 d0 8c 3c
       -0.016395604 -0.028392052 0.027556498 0.017189449
000360 e5 ac 04 bc 3c 0d a2 3b 86 a7 33 bd 93 08 7d bc
       -0.008097862 0.0049454253 -0.043860935 -0.015443939
000370 b7 a2 22 bc dc 38 04 3d d9 a1 10 bc ef 2d 85 bc
       -0.00992649 0.032280788 -0.00882765 -0.016257254
000380 af bf 8b 3c 73 c2 19 3d 11 4e 36 3c ec 41 b7 3c
       0.017059175 0.037538957 0.011127011 0.022370301
000390 42 90 33 bc 18 c6 d9 bc 1d cf 40 bc c7 bd 28 3c
       -0.010959687 -0.026583716 -0.01176813 0.010299153
0003a0 ed 87 fa 3b 86 1f cb bb e9 3c 8b 3c 43 b6 07 3d
       0.007645598 -0.0061988262 0.016996818 0.033132803
0003b0 2a a5 25 3d 09 1e 77 bc 61 11 20 bc ae 93 9f bb
       0.040440716 -0.0150828445 -0.009769768 -0.0048698997
0003c0 da ed 00 3c 7f 4e f2 bc 98 72 0f 3a 0a 43 cf bc
       0.007869208 -0.029578445 0.0005472093 -0.025300521
0003d0 34 30 a2 bc d7 83 3d 3d 3e a7 ae bc 29 6b d5 bc
       -0.019798376 0.04626831 -0.021319982 -0.026052075
0003e0 f6 07 97 bc a8 af e2 3c 14 cc 14 3b c8 bc bc bb
       -0.018436413 0.02767165 0.0022704648 -0.005759809
0003f0 00 ad 81 bc c3 6a f8 3a 8c 1e 50 3c ae c0 d2 3b
       -0.015829563 0.0018952716 0.012702595 0.0064316606

action_model._continuous_distribution.mu.bias f4 [2]
000000 4a f2 91 bb a8 e5 b8 3a
       -0.004453932 0.0014106529

action_model._discrete_distribution.branches.0.weight f4 [1, 128]
000000 9f 05 fb 3b bf e9 76 3c 4a 33 24 bc bd 32 18 3c
       0.007660582 0.015070378 -0.010021994 0.009289441
000010 18 5c 0e 3c aa 81 7b bb ef 3e 41 bb 03 59 97 bb
       0.008688949 -0.0038376846 -0.0029486974 -0.0046187653
000020 ff ec 39 3c ce 84 c3 bb 37 32 76 b9 3d e2 ab bb
       0.011348008 -0.0059667593 -0.00023479095 -0.0052454756
000030 ad 48 b3 bb 05 8b f4 ba 4a 3b 10 3c af 2c 74 bc
       -0.00547131 -0.0018657154 0.008803198 -0.0149032315
000040 ee a4 2b 3c 53 da 46 3b 66 b4 42 3b cf 0b 67 3c
       0.010476334 0.0030342534 0.0029709577 0.0141019365
000050 b8 c1 04 3a f3 72 e1 ba 97 6d 16 3b 51 f4 b7 ba
       0.0005064267 -0.0017200395 0.0022953504 -0.0014034604
000060 79 d5 92 3b 5b ec 1c bc 4c 17 0b 3b e0 35 26 bc
       0.0044810143 -0.009577836 0.0021223603 -0.010144681
000070 b2 3d 6d 3c 93 dd 0e bc 03 d8 92 bb 35 a2 fb bb
       0.014480041 -0.00871982 -0.004481317 -0.0076792487
000080 9d f1 c5 bb b7 f4 91 bb 97 66 dd 3b 5d 82 f0 39
       -0.0060407654 -0.004454221 0.0067566144 0.00045873495
000090 e8 16 e0 3b de 75 30 bb 9b 8c 1a bc da 2b 93 3a
       0.006838668 -0.0026925723 -0.009432937 0.0011228279
0000a0 b2 0b e6 3b 78 0a e8 ba 4c 6e 07 bc f7 b0 c6 3b
       0.007020437 -0.0017703315 -0.008266043 0.0060635763
0000b0 27 57 3c bc ca d5 c8 bb ff 21 98 bb fb cd 84 3c
       -0.011495388 -0.0061290013 -0.0046427245 0.0162115
0000c0 b3 cb 1c bb 9f 55 b0 3b 5b 42 eb ba 73 ba c1 3c
       -0.0023925125 0.0053813006 -0.0017948853 0.023648476
0000d0 a5 0f 0b bc 7f 15 0a bb ce 06 00 bc 84 e2 27 ba
       -0.008487617 -0.0021069942 -0.007814122 -0.0006404298
0000e0 24 2e 10 bc df f1 73 39 bf b6 cf 3b af 1d a0 3b
       -0.008800063 0.0002326439 0.0063389237 0.004886351
0000f0 3c df 27 bc 58 41 ff 3b cb 69 0e bc 67 57 00 bb
       -0.010246094 0.007789772 -0.008692215 -0.0019583346
000100 32 48 b2 3b 5a 4c 60 3b a2 4f 08 3c d5 fe 4e 3a
       0.0054407353 0.0034225197 0.008319767 0.00078962493
000110 42 bb c8 ba 32 1b 6c bb 03 7e a6 3c 5e 4e 24 bb
       -0.0015314596 -0.0036026952 0.020323759 -0.0025071125
000120 5b f2 14 bc 68 d0 4b 3c c0 d4 a9 3b 32 55 f5 3a
       -0.009090985 0.012439825 0.0051828325 0.0018717407
000130 96 dd 15 bb af b6 06 bb c7 f7 11 bb 7b f7 7f 3a
       -0.0022867671 -0.0020555665 -0.002227293 0.00097643555
000140 f8 46 d4 3a e1 d2 38 38 95 a8 51 39 19 a5 3d 3c
       0.0016195467 4.4065415e-05 0.00019994595 0.011575007
000150 f0 e6 59 3b a8 83 fa 3a d2 aa fc bb cd 0e cd ba
       0.0033249222 0.0019112723 -0.007710793 -0.001564467
000160 c7 7a c1 bb b9 c2 40 3c 75 33 fa bb 83 5c 0a bb
       -0.005904529 0.0117651755 -0.0076355287 -0.002111227
000170 ad 2e 7e bc 7b 11 84 3c bf cc e5 3b fb 52 12 3c
       -0.015514058 0.016121617 0.007012933 0.008930917
000180 08 7e 9d bb 4b a9 94 bc c6 c9 cb 3b 2a e2 e2 ba
       -0.004806284 -0.018147131 0.0062191216 -0.0017309834
000190 8f d3 7f 3c a0 fb fa ba 7d 22 16 bc 93 d7 31 3c
       0.015614404 -0.0019148476 -0.009163496 0.01085462
0001a0 85 98 70 3c 09 88 a0 3b 47 94 0e 3b 10 ed 38 ba
       0.014684801 0.004899029 0.002175586 -0.0007054368
0001b0 7d a2 ab 3b ea 35 a5 bb 3b 8a 01 3c a4 b9 80 bc
       0.005237876 -0.0050418274 0.007906492 -0.01571352
0001c0 81 20 c7 3b 7a 8e 5f 3b 33 93 9b bb ea 1e b1 bb
       0.006076873 0.0034112022 -0.004747772 -0.0054052966
0001d0 7a b2 58 bc 50 33 04 3c 27 21 a0 3a a4 d2 1b bc
       -0.013226146 0.0080688745 0.0012216911 -0.00951067
0001e0 a6 3f 96 bb a5 7d b3 ba 32 ff 65 ba 58 fa f3 bb
       -0.004585224 -0.0013694061 -0.0008773684 -0.007445615
0001f0 f3 56 47 3b a8 28 19 3c ac 68 b1 bb 38 3e b0 bb
       0.0030416816 0.009348072 -0.005414089 -0.005378511

exp_avg f4 [128, 6]
000000 10 88 1f b5 c0 57 86 b1 fc 61 35 35 16 32 83 b5
       -5.943011e-07 -3.9098893e-09 6.757034e-07 -9.774838e-07
000010 00 00 00 00 16 32 03 b6 34 14 c0 37 18 24 e2 32
       0.0 -1.9549675e-06 2.2897591e-05 2.6326276e-08
000020 3f 7b f8 b6 84 d7 dc 36 00 00 00 00 84 d7 5c 37
       -7.4053237e-06 6.5816002e-06 0.0 1.31632005e-05
000030 d2 e0 24 b9 d6 ee b3 b2 b0 9a 68 b8 26 b5 af b6
       -0.00015724011 -2.0946953e-08 -5.5457174e-05 -5.236495e-06
000040 00 00 00 00 26 b5 2f b7 55 22 93 38 24 84 62 34
       0.0 -1.047299e-05 7.015901e-05 2.1095963e-07
000050 23 7b 33 38 d6 35 5d 38 00 00 00 00 d6 35 dd 38
       4.2791606e-05 5.2740645e-05 0.0 0.00010548129
000060 74 dc 18 b8 28 1e 07 34 0e 10 81 b8 e7 f3 03 38
       -3.6444937e-05 1.2583826e-07 -6.15419e-05 3.1459986e-05
000070 00 00 00 00 e7 f3 83 38 c1 01 06 b8 9a 14 ca 33
       0.0 6.291997e-05 -3.1949723e-05 9.4101054e-08
000080 34 df f5 b7 02 59 c5 37 00 00 00 00 02 59 45 38
       -2.9310213e-05 2.3525678e-05 0.0 4.7051355e-05
000090 98 68 9c b9 0f c4 bf b4 18 69 29 b8 cd 45 bb b8
       -0.00029832567 -3.5719174e-07 -4.0390616e-05 -8.929856e-05
0000a0 00 00 00 00 cd 45 3b b9 68 37 99 b6 98 71 70 b2
       0.0 -0.00017859713 -4.5662055e-06 -1.3995667e-08
0000b0 05 7a 56 36 72 cf 6a b6 00 00 00 00 72 cf ea b6
       3.195951e-06 -3.4989466e-06 0.0 -6.9978933e-06
0000c0 d0 9b fa 37 ad 84 3a 34 e5 d4 53 b8 0f 26 36 38
       2.9874878e-05 1.7370867e-07 -5.0504594e-05 4.3427626e-05
0000d0 00 00 00 00 0f 26 b6 38 f2 74 5a 37 57 a5 e5 33
       0.0 8.685525e-05 1.3021041e-05 1.06937186e-07
0000e0 88 7e d1 b7 23 44 e0 37 00 00 00 00 23 44 60 38
       -2.4973662e-05 2.673461e-05 0.0 5.346922e-05
0000f0 9d 6c 54 39 08 a7 da 34 ea d9 0d b7 92 87 d5 38
       0.00020258357 4.0727195e-07 -8.454992e-06 0.000101818834
000100 00 00 00 00 92 87 55 39 f3 79 2a 38 44 55 30 34
       0.0 0.00020363767 4.0644733e-05 1.6422297e-07
000110 9e 29 a1 b7 bd 33 2c 38 00 00 00 00 bd 33 ac 38
       -1.9212075e-05 4.105618e-05 0.0 8.211236e-05
000120 09 c0 a5 b8 95 8b 04 b4 25 9d 3d b8 a2 70 01 b8
       -7.9035824e-05 -1.2344238e-07 -4.5207464e-05 -3.0860894e-05
000130 00 00 00 00 a2 70 81 b8 7d 02 b3 b7 52 3f b9 b2
       0.0 -6.172179e-05 -2.1339622e-05 -2.156563e-08
000140 6b dd 42 b8 a6 e8 b4 b6 00 00 00 00 a6 e8 34 b7
       -4.6459416e-05 -5.391502e-06 0.0 -1.0783004e-05
000150 a0 39 24 38 ed 2a 93 33 64 0f 34 b6 33 b8 8f 37
       3.9154314e-05 6.853029e-08 -2.6831049e-06 1.7132703e-05
000160 00 00 00 00 33 b8 0f 38 b4 b2 5d 37 5a af 66 33
       0.0 3.4265406e-05 1.3214234e-05 5.371053e-08
000170 4e 74 64 b5 ff 47 61 37 00 00 00 00 ff 47 e1 37
       -8.5105864e-07 1.3427808e-05 0.0 2.6855616e-05
000180 89 21 d7 b8 48 85 02 b4 31 74 8e b8 ee ec fe b7
       -0.00010258245 -1.2155681e-07 -6.79273e-05 -3.0389489e-05
000190 00 00 00 00 ee ec 7e b8 52 dd 12 37 4a d5 6b 33
       0.0 -6.0778977e-05 8.753808e-06 5.4909187e-08
0001a0 bf 8e a6 b7 ea 4e 66 37 00 00 00 00 ea 4e e6 37
       -1.9855213e-05 1.3727442e-05 0.0 2.7454884e-05
0001b0 3a 6d 72 b6 6d 68 a6 32 99 8e b1 b6 a4 82 a2 36
       -3.6124388e-06 1.937243e-08 -5.2916116e-06 4.843185e-06
0001c0 00 00 00 00 a4 82 22 37 5d f6 40 b8 65 f7 f0 33
       0.0 9.68637e-06 -4.600581e-05 1.1220872e-07
0001d0 b9 8d 4d b8 8a 52 eb 37 00 00 00 00 8a 52 6b 38
       -4.90078e-05 2.8052618e-05 0.0 5.6105237e-05
0001e0 46 66 d2 37 5c aa 96 34 2f 1b c1 b8 c8 22 93 38
       2.5081576e-05 2.806363e-07 -9.2080205e-05 7.015985e-05
0001f0 00 00 00 00 c8 22 13 39 c8 f0 e6 b5 c8 f9 8e 31
       0.0 0.0001403197 -1.7206412e-06 4.1611408e-09
000200 7b 86 fb 35 ac a0 8b 35 00 00 00 00 ac a0 0b 36
       1.8740096e-06 1.0403069e-06 0.0 2.0806137e-06
000210 94 f5 c0 34 77 8f 97 b1 1d 33 81 35 ae 02 94 b5
       3.5941468e-07 -4.4109885e-09 9.626125e-07 -1.1027639e-06
000220 00 00 00 00 ae 02 14 b6 e3 c8 d1 b5 5d e7 23 b3
       0.0 -2.2055278e-06 -1.5630179e-06 -3.816182e-08
000230 81 29 c1 36 8b 10 20 b7 00 00 00 00 8b 10 a0 b7
       5.75668e-06 -9.540595e-06 0.0 -1.908119e-05
000240 cb 1e 4c b4 12 29 ab b2 e4 53 ad 36 a6 26 a7 b6
       -1.9010183e-07 -1.9925697e-08 5.165568e-06 -4.981487e-06
000250 00 00 00 00 a6 26 27 b7 8a 69 02 37 91 2d 67 33
       0.0 -9.962974e-06 7.773177e-06 5.382532e-08
000260 0a a5 28 b7 25 c3 61 37 00 00 00 00 25 c3 e1 37
       -1.00520065e-05 1.3456481e-05 0.0 2.6912961e-05
000270 ba f2 c8 b8 8f 5e f9 33 8c 89 a5 b8 65 87 f3 37
       -9.5819545e-05 1.1612166e-07 -7.893433e-05 2.9030905e-05
000280 00 00 00 00 65 87 73 38 b4 e4 07 b8 73 64 27 32
       0.0 5.806181e-05 -3.2399505e-05 9.743519e-09
000290 b0 6b 6e b5 cd 7a 23 36 00 00 00 00 cd 7a a3 36
       -8.8818615e-07 2.4360372e-06 0.0 4.8720744e-06
0002a0 59 5c 1f 35 26 6b 28 b3 28 a3 36 37 2e 79 24 b7
       5.93665e-07 -3.9213e-08 1.0886033e-05 -9.803376e-06
0002b0 00 00 00 00 2e 79 a4 b7 b3 fe 88 38 50 4e 88 b1
       0.0 -1.9606752e-05 6.532427e-05 -3.967024e-09
0002c0 b1 98 a8 37 54 21 85 b5 00 00 00 00 54 21 05 b6
       2.0098263e-05 -9.918972e-07 0.0 -1.9837944e-06
0002d0 c5 cd b7 38 75 9d 92 34 5f 53 00 b8 21 2e 8f 38
       8.7644476e-05 2.7309184e-07 -3.0595224e-05 6.8273635e-05
0002e0 00 00 00 00 21 2e 0f 39 aa c8 e1 b6 c3 41 11 33
       0.0 0.00013654727 -6.728883e-06 3.3820253e-08
0002f0 61 d8 39 b6 d1 da 0d 37 00 00 00 00 d1 da 8d 37
       -2.7693097e-06 8.455202e-06 0.0 1.6910404e-05
000300 8b 1d 88 38 00 a5 bc 33 d0 3b bb b7 66 39 b8 37
       6.490488e-05 8.7844455e-08 -2.231999e-05 2.1961238e-05
000310 00 00 00 00 66 39 38 38 f5 23 48 38 4e 16 63 34
       0.0 4.3922475e-05 4.7717203e-05 2.1149137e-07
000320 3b d7 aa b7 71 c4 5d 38 00 00 00 00 71 c4 dd 38
       -2.0365804e-05 5.2873456e-05 0.0 0.00010574691
000330 ad 11 8c b6 20 bf 7a b0 4a 9b 07 36 70 d9 74 b4
       -4.174383e-06 -9.1221075e-10 2.0206958e-06 -2.2803374e-07
000340 00 00 00 00 70 d9 f4 b4 6e c7 8f b8 e0 9c 6f b3
       0.0 -4.5606748e-07 -6.855918e-05 -5.57892e-08
000350 a7 85 ab b7 7a ff 69 b7 00 00 00 00 7a ff e9 b7
       -2.0447025e-05 -1.3947365e-05 0.0 -2.789473e-05
000360 d7 2f a9 38 af cc 1e 34 44 5f 10 b7 37 14 1b 38
       8.067459e-05 1.478936e-07 -8.60525e-06 3.6973706e-05
000370 00 00 00 00 37 14 9b 38 0a 71 9e b8 eb da 61 b2
       0.0 7.394741e-05 -7.555082e-05 -1.31465e-08
000380 71 bb c3 b7 6e 8d 5c b6 00 00 00 00 6e 8d dc b6
       -2.3333096e-05 -3.2864878e-06 0.0 -6.5729755e-06
000390 55 7d 4a b7 bc 61 d0 b2 9c 1b 25 b6 f6 7f cb b6
       -1.2069319e-05 -2.4258831e-08 -2.4602987e-06 -6.064768e-06
0003a0 00 00 00 00 f6 7f 4b b7 ad 16 4d 37 ca 71 f8 b0
       0.0 -1.2129536e-05 1.2224232e-05 -1.8076716e-09
0003b0 9b 8d 23 37 82 9f f2 b4 00 00 00 00 82 9f 72 b5
       9.748527e-06 -4.519207e-07 0.0 -9.038414e-07
0003c0 06 45 35 b9 fa 78 b8 b3 6c 71 20 b8 e0 25 b4 b7
       -0.00017287218 -8.590173e-08 -3.8252605e-05 -2.1475309e-05
0003d0 00 00 00 00 e0 25 34 b8 f6 2f 60 b8 02 f8 d7 32
       0.0 -4.2950618e-05 -5.345043e-05 2.5142075e-08
0003e0 13 46 29 b8 7e e9 d2 36 00 00 00 00 7e e9 52 37
       -4.0358e-05 6.2856698e-06 0.0 1.25713395e-05
0003f0 c2 0e e5 37 7c fa cc 33 8c 5b 48 b7 25 2d c8 37
       2.73058e-05 9.545053e-08 -1.1942244e-05 2.386288e-05

exp_avg_sq f4 [128, 6]
000000 03 36 fd 32 c6 1b e8 28 e5 10 32 32 6e b0 2a 32
       2.9477638e-08 2.5769219e-14 1.0364805e-08 9.935418e-09
000010 00 00 00 00 78 a0 9e 31 fa 09 f4 30 2e 5c 03 29
       0.0 4.6166484e-09 1.7756172e-09 2.9167796e-14
000020 66 f2 98 31 04 f2 11 31 00 00 00 00 b7 66 03 32
       4.4513397e-09 2.1237847e-09 0.0 7.648558e-09
000030 5d 69 d9 32 13 bb 59 2b ad 65 8b 33 d3 94 5b 33
       2.5310039e-08 7.7353504e-13 6.4911866e-08 5.1125266e-08
000040 00 00 00 00 85 ed 50 34 e0 39 c3 32 95 32 54 2b
       0.0 1.9457919e-07 2.2727306e-08 7.5387727e-13
000050 f1 f2 a0 33 e6 f8 5b 33 00 00 00 00 2b 59 4c 34
       7.4947714e-08 5.1216283e-08 0.0 1.903142e-07
000060 6c c9 59 32 7d 06 a1 29 ef ee a0 32 ff be f7 31
       1.26768605e-08 7.150962e-14 1.8735106e-08 7.21036e-09
000070 00 00 00 00 fe b7 a2 32 b1 9c cc 32 39 af 80 29
       0.0 1.8942952e-08 2.381998e-08 5.714738e-14
000080 56 bc 2f 32 0d e0 0c 32 00 00 00 00 2c f6 50 32
       1.0229163e-08 8.200016e-09 0.0 1.21631665e-08
000090 46 1a e1 33 13 87 78 2c 15 ac 93 34 11 0c 78 34
       1.0482158e-07 3.53179e-12 2.750609e-07 2.310119e-07
0000a0 00 00 00 00 89 d7 6e 35 2d bb 40 31 28 9e b7 27
       0.0 8.8975554e-07 2.8046074e-09 5.0964177e-15
0000b0 3f 5f 76 30 01 4e b2 30 00 00 00 00 5c c5 98 30
       8.962963e-10 1.2973375e-09 0.0 1.1115548e-09
0000c0 66 df 90 31 29 12 b6 29 15 df 8f 32 e4 b7 c0 31
       4.216349e-09 8.085574e-14 1.6748837e-08 5.6088414e-09
0000d0 00 00 00 00 07 26 b8 32 39 59 92 30 9c 0a ab 28
       0.0 2.1437712e-08 1.0648257e-09 1.8989415e-14
0000e0 22 9f aa 30 59 1f b9 30 00 00 00 00 0e 56 a1 31
       1.2414356e-09 1.3469431e-09 0.0 4.6955e-09
0000f0 dd ca 82 32 e8 05 a4 2b 4f 96 a0 33 43 24 9d 33
       1.5226243e-08 1.165454e-12 7.4779216e-08 7.317478e-08
000100 00 00 00 00 e9 7c 9c 34 c9 0f b5 32 21 d8 0c 2a
       0.0 2.9148148e-07 2.1078352e-08 1.2509483e-13
000110 cb d1 6a 32 27 57 5a 32 00 00 00 00 ef b3 01 33
       1.3668294e-08 1.2709086e-08 0.0 3.01988e-08
000120 ba fc d3 32 de 71 68 2a 0c 42 37 33 db 38 98 32
       2.467856e-08 2.0645245e-13 4.2668077e-08 1.7720984e-08
000130 00 00 00 00 1b b5 74 33 11 f6 83 32 17 f3 4c 2a
       0.0 5.697539e-08 1.5362305e-08 1.8203178e-13
000140 a1 36 03 33 46 77 93 32 00 00 00 00 30 17 51 33
       3.05505e-08 1.7167292e-08 0.0 4.8682693e-08
000150 6d dc 82 30 35 bc 1b 29 8c f6 36 31 6e 3d 20 31
       9.521394e-10 3.4580157e-14 2.6624631e-09 2.3317983e-09
000160 00 00 00 00 23 4b 13 32 ae 9d 4d 31 7b 75 41 28
       0.0 8.57361e-09 2.9921057e-09 1.0739127e-14
000170 52 69 20 31 2c 7c c5 30 00 00 00 00 ee cd 27 31
       2.3342932e-09 1.4368928e-09 0.0 2.4418756e-09
000180 98 75 94 33 83 cf 6f 2b 3c be 3c 34 80 a4 90 33
       6.913177e-08 8.5197837e-13 1.7578071e-07 6.735445e-08
000190 00 00 00 00 de f9 73 34 a4 3c 1c 31 7d 2c 71 28
       0.0 2.272204e-07 2.2735458e-09 1.3387834e-14
0001a0 6f 70 00 31 9f 1b d9 30 00 00 00 00 f2 25 5e 31
       1.8690363e-09 1.5796678e-09 0.0 3.2326821e-09
0001b0 60 f3 84 31 84 08 f7 27 b3 ff 57 31 47 4a d3 30
       3.869374e-09 6.8565504e-15 3.1431966e-09 1.5373381e-09
0001c0 00 00 00 00 57 a4 1f 31 07 fb f9 32 91 ef 31 2a
       0.0 2.3230962e-09 2.910157e-08 1.5803874e-13
0001d0 0a b9 51 33 5d 67 88 32 00 00 00 00 7e 55 42 33
       4.8829897e-08 1.5879488e-08 0.0 4.52469e-08
0001e0 48 1e 1d 32 72 15 7d 2a 51 a5 41 33 a6 96 7d 32
       9.145488e-09 2.2478354e-13 4.508667e-08 1.4760792e-08
0001f0 00 00 00 00 e9 04 79 33 6f 6c 49 32 51 f3 ed 28
       0.0 5.7979296e-08 1.1724395e-08 2.6417807e-14
000200 4d 0b 80 32 98 22 9e 31 00 00 00 00 99 88 10 32
       1.49063e-08 4.602338e-09 0.0 8.412962e-09
000210 a4 3b 64 30 0a 1d 95 26 e2 f4 ce 2f 99 d8 e8 2f
       8.303067e-10 1.0346823e-15 3.7645181e-10 4.2354456e-10
000220 00 00 00 00 0b 4c 26 2f 40 7b da 31 87 83 50 28
       0.0 1.5124628e-10 6.358647e-09 1.157484e-14
000230 90 c4 5f 31 2f 27 2d 31 00 00 00 00 7d 4c 27 31
       3.2562504e-09 2.5197087e-09 0.0 2.4345177e-09
000240 45 21 15 30 15 9d 30 27 c5 ea f9 2f 99 f3 c0 2f
       5.4253163e-10 2.451006e-15 4.545965e-10 3.5097683e-10
000250 00 00 00 00 cb 94 3b 30 e6 10 32 31 c2 93 c4 27
       0.0 6.824165e-10 2.5912015e-09 5.4561128e-15
000260 dd 1d 14 31 30 6e a8 30 00 00 00 00 ab a9 a0 30
       2.155381e-09 1.2254926e-09 0.0 1.1689755e-09
000270 a0 91 70 33 d9 2e 35 2b a6 98 fb 33 99 b9 59 33
       5.60118e-08 6.436913e-13 1.1715865e-07 5.069305e-08
000280 00 00 00 00 cf c5 35 34 8e 76 b1 32 d3 91 b7 29
       0.0 1.6928901e-07 2.0659424e-08 8.152129e-14
000290 73 4d 97 32 f4 a0 19 32 00 00 00 00 fd f4 a7 32
       1.7613933e-08 8.942369e-09 0.0 1.9552767e-08
0002a0 27 8f 0d 33 22 47 1a 29 69 79 97 32 8f a8 4e 32
       3.2959317e-08 3.4256567e-14 1.7633925e-08 1.2029104e-08
0002b0 00 00 00 00 68 4d 0a 32 45 bc 1f 33 47 24 0f 2b
       0.0 8.050257e-09 3.7191302e-08 5.085415e-13
0002c0 ec e2 a4 33 4f 63 1e 33 00 00 00 00 84 1b 10 34
       7.678122e-08 3.6877562e-08 0.0 1.3421055e-07
0002d0 50 8f ca 31 8a d1 88 2a 2d 1c 5f 32 95 9d 87 32
       5.8952665e-09 2.430385e-13 1.2986715e-08 1.5787728e-08
0002e0 00 00 00 00 d0 fa 81 33 44 76 14 33 eb 38 bc 29
       0.0 6.052653e-08 3.4566497e-08 8.358751e-14
0002f0 72 b5 f9 32 07 03 4b 32 00 00 00 00 b4 23 b6 32
       2.9069927e-08 1.18168435e-08 0.0 2.1203824e-08
000300 06 e3 25 31 f2 a0 5d 2a 0b ce 9c 32 ba 3c 56 32
       2.4139708e-09 1.9684582e-13 1.8254488e-08 1.2470247e-08
000310 00 00 00 00 40 64 53 33 16 39 98 31 55 05 9e 29
       0.0 4.9218443e-08 4.430272e-09 7.0175345e-14
000320 1a cf b7 31 b5 1b b9 31 00 00 00 00 95 8c 93 32
       5.3495457e-09 5.3873586e-09 0.0 1.7176982e-08
000330 fe 35 bb 30 94 94 a8 27 f5 da 54 30 c0 28 44 30
       1.3621386e-09 4.6790456e-15 7.743631e-10 7.1362294e-10
000340 00 00 00 00 2c 62 8a 30 8d 93 05 33 9f 74 82 2a
       0.0 1.0068724e-09 3.1100672e-08 2.317356e-13
000350 c8 41 08 33 cc 48 b6 32 00 00 00 00 08 32 77 33
       3.1724795e-08 2.1220693e-08 0.0 5.7554672e-08
000360 64 2d 10 32 b9 09 59 2a e2 c2 88 32 60 69 7b 32
       8.392224e-09 1.9276845e-13 1.5921106e-08 1.4634082e-08
000370 00 00 00 00 bf f8 4f 33 19 43 f0 32 a0 3c 89 2a
       0.0 4.8422176e-08 2.797019e-08 2.4378156e-13
000380 ec d9 f2 32 63 6b aa 32 00 00 00 00 be c1 83 33
       2.8271607e-08 1.9839439e-08 0.0 6.1354044e-08
000390 4e c0 8f 32 50 b4 db 28 f1 98 f9 31 2a 67 c6 31
       1.6734841e-08 2.4392082e-14 7.264241e-09 5.774287e-09
0003a0 00 00 00 00 1e 6c b5 31 62 73 b5 30 c4 7f 12 28
       0.0 5.280085e-09 1.3202277e-09 8.132333e-15
0003b0 10 e8 94 30 ac a2 67 30 00 00 00 00 20 b8 06 31
       1.0834373e-09 8.426848e-10 0.0 1.960423e-09
0003c0 ab fd 49 33 10 6b 97 2b 5d 0d e2 33 67 5b a3 33
       4.702967e-08 1.0758911e-12 1.0526376e-07 7.606905e-08
0003d0 00 00 00 00 4e 96 93 34 fd d6 24 33 ef eb 4c 2a
       0.0 2.7490245e-07 3.8379756e-08 1.8200696e-13
0003e0 a2 cd 3b 33 cc 07 98 32 00 00 00 00 c3 b8 56 33
       4.3726352e-08 1.7698675e-08 0.0 4.9993798e-08
0003f0 d8 71 9b 30 35 4b d1 28 29 38 fa 30 80 21 ed 30
       1.1310091e-09 2.3236277e-14 1.8205856e-09 1.7253541e-09
