V3/results/Simple10/AgentControl/checkpoint.pt (torch, 445410 bytes, 39 tensors)

network_body._body_endoder.seq_layers.0.weight f4 [128, 6]
0	0xbf2c2c63	-0.6725523
1	0xbecd4bf9	-0.40097025
2	0x3f662961	0.8990689
3	0x3eadfc3e	0.33981508
4	0x3d2d2eba	0.04228089
5	0x3f374ed0	0.71604633
6	0xbd829b59	-0.063772865
7	0x3ea9b402	0.33145148
8	0x3d9baaf4	0.07600966
9	0xbf1ad730	-0.604846
10	0x3f2826b7	0.65684074
11	0xbe358795	-0.17727502
12	0x3f2df043	0.67944735
13	0xbe486750	-0.1957066
14	0x3e2c44cb	0.16823117
15	0x3f92d5a9	1.1471454
16	0x3d4db134	0.050217822
17	0x3f1e22dd	0.6177195
18	0x3d39e202	0.045381553
19	0x3eaf9b2e	0.3429808
20	0xbeb495c3	-0.3527051
21	0xbf055f65	-0.52098686
22	0xbe96c1eb	-0.29444823
23	0xbf228548	-0.6348462
24	0x3f7e12c6	0.99247396
25	0xbdf346c0	-0.11878729
26	0x3e87b9f6	0.26509064
27	0xbeccecd7	-0.40024444
28	0x3e5e78bb	0.21725743
29	0x3d6e7a8d	0.058222342
30	0xbed2160c	-0.41032445
31	0x3f0a8cfb	0.5412137
32	0xbe9b3712	-0.30315453
33	0xbf32053d	-0.69539243
34	0x3f03709b	0.513437
35	0x3ebc9d42	0.36838728
36	0x3e423b5e	0.1896796
37	0x3c7a1fd0	0.015266374
38	0xbe97cd5c	-0.29648864
39	0xbe1f775b	-0.15572874
40	0xbf104fc1	-0.56371695
41	0x3de63dce	0.11242257
42	0xbf063067	-0.52417606
43	0x3dcb4c98	0.099267185
44	0xbf688404	-0.9082644
45	0xbe0be8ba	-0.13662997
46	0x3f217b9a	0.63079226
47	0x3e23c90c	0.15994662
48	0x3e8d3937	0.27582714
49	0x3e4d31b5	0.20038493
50	0xbebea32d	-0.37233868
51	0x3d7f4cb7	0.06232902
52	0x3eed7436	0.46377724
53	0xbecb2cad	-0.39682522
54	0xbcacfa2b	-0.021115383
55	0x3f2c880d	0.67395097
56	0x3e48e214	0.19617492
57	0xbede80ee	-0.4345774
58	0x3dd43a2b	0.10362657
59	0xbee68135	-0.45020452
60	0xbf1d3cc2	-0.61420834
61	0x3e739815	0.23788483
62	0x3df93305	0.12167934
63	0xbe0b945a	-0.1363081
64	0x3e705a51	0.23471953
65	0xbe5a018c	-0.21289653
66	0xbf53eab5	-0.8278001
67	0xbce75aec	-0.028241597
68	0xbdc60861	-0.09669567
69	0x3d4a38e1	0.04937065
70	0x3e42d70d	0.19027348
71	0x3ea862c1	0.32887843
72	0xbf48167f	-0.78159326
73	0x3e88634f	0.26638266
74	0x3de1efe8	0.110320866
75	0x3f85aecf	1.0443972
76	0xbeefbaf2	-0.46822315
77	0xbdc0b6f4	-0.094098955
78	0xbdd47b9d	-0.1037514
79	0x3dd199b6	0.10234396
80	0xbe7a819c	-0.24463505
81	0x3e409bc5	0.18809421
82	0xbe6be2c6	-0.23035726
83	0xbedbc13d	-0.42920867
84	0x3f473b9d	0.7782534
85	0xb9871f59	-0.00025772562
86	0xbed714be	-0.42008013
87	0x3f27e4d1	0.6558352
88	0xbed6d286	-0.41957492
89	0x3bf967df	0.0076112594
90	0xbe7a3700	-0.24435043
91	0x3dfc46ba	0.123181775
92	0xbf81bf3b	-1.0136484
93	0x3e12c5e8	0.14333308
94	0xbf2a06d9	-0.664167
95	0xbea49e23	-0.321519
96	0xbed2c159	-0.41163138
97	0xbf487e9b	-0.78318185
98	0xbd9052e7	-0.07047062
99	0x3e89b226	0.2689373
100	0x3e0ee3e6	0.13954124
101	0xbf045038	-0.51684904
102	0x3d9e282e	0.077225074
103	0x3e2168f4	0.15762693
104	0xbf17f7a7	-0.5936226
105	0xbe31b774	-0.17355138
106	0xbf07b564	-0.53011155
107	0xbee1c5e2	-0.44096285
108	0xbea2a994	-0.31770003
109	0x3e7e2325	0.24818094
110	0xbe87f193	-0.26551494
111	0xbe7b8454	-0.24562198
112	0x3deadafd	0.1146755
113	0xbdcc9238	-0.099888265
114	0xbd9b3468	-0.07578355
115	0xbed2150b	-0.4103168
116	0xbe20c7d5	-0.1570123
117	0x3dea9437	0.11454051
118	0xbece1bea	-0.40255672
119	0xbec168ae	-0.37775177
120	0x3d239f04	0.03994657
121	0x3e5c21b1	0.21497227
122	0x3e4bd3b7	0.19904982
123	0x3ec0f39f	0.37685868
124	0x3e238375	0.15968116
125	0x3e8dfa97	0.27730247
126	0x3eff017a	0.49805814
127	0xbf1310fe	-0.57447803
128	0x3f3c1661	0.7347165
129	0x3f047f18	0.5175643
130	0xbe3979a1	-0.18112804
131	0x3eb0f6e4	0.34563363
132	0x3ca00bc7	0.019536866
133	0xbbf998eb	-0.007617106
134	0xbd5c9d83	-0.053861152
135	0x3f89a9c5	1.0754935
136	0x3d18323c	0.037157282
137	0x3f189ed1	0.59617335
138	0x3b126c0b	0.002234223
139	0x3f236945	0.63832504
140	0x3de7821d	0.11304114
141	0x3da9ec8e	0.08297072
142	0xbf46226e	-0.77396286
143	0x3c0af4df	0.008481233
144	0xbc038585	-0.008027439
145	0xbe4afe21	-0.19823505
146	0x3da47cd8	0.080316246
147	0x3dadc369	0.08484537
148	0xbdb9e160	-0.0907619
149	0xbe34c86f	-0.17654584
150	0xbf306866	-0.689093
151	0x3e421f03	0.18957143
152	0xbe0c3ed1	-0.13695838
153	0x3e2885a1	0.16457225
154	0xbe040b12	-0.12894848
155	0xbd445267	-0.047930147
156	0xbf2badb1	-0.6706191
157	0x3dd09e3c	0.10186431
158	0xbf1cf2b2	-0.61307824
159	0x3e426736	0.18984684
160	0x3f22caa9	0.63590485
161	0x3e0182a4	0.12647492
162	0x3ea0e117	0.3142173
163	0x3c09843f	0.008393346
164	0x3e492267	0.1964203
165	0xbe88b5a2	-0.26701075
166	0xbe61a4e5	-0.22035559
167	0xbe820240	-0.25392342
168	0x3f08d445	0.534489
169	0xbd6db8a0	-0.0580374
170	0xbcb2378a	-0.021754999
171	0xbe88f73f	-0.26751134
172	0xbe46ba79	-0.19407071
173	0x3edd9eef	0.4328532
174	0x3e41932d	0.189038
175	0x3c6d5900	0.014486551
176	0x3dc249b6	0.094867155
177	0xbe38d2a1	-0.18049099
178	0x3e447ca4	0.19188172
179	0xbf06fc0a	-0.5272833
180	0xbdf93939	-0.121691175
181	0xbef2ff85	-0.4746057
182	0xbdcd041b	-0.10010549
183	0xbdec3a32	-0.115345374
184	0xbe8d35ca	-0.275801
185	0xbf240be4	-0.64080644
186	0xbc6ee7d9	-0.014581644
187	0xbdce9c57	-0.10088413
188	0xbe0f801a	-0.1401371
189	0x3f0d1f4c	0.5512588
190	0x3eaca3fe	0.33718866
191	0xbe528f21	-0.20562412
192	0x3cedb483	0.029016739
193	0x3f1c582e	0.6107205
194	0x3c2fd3ab	0.010731618
195	0xbec1481b	-0.37750325
196	0xbda09698	-0.078412235
197	0x3e25b8f2	0.16183832
198	0xbd32c7ac	-0.043647453
199	0x3d6e2138	0.05813715
200	0xbe01d480	-0.12678719
201	0x3ec67287	0.38759252
202	0x3e59965e	0.21248767
203	0xbe2bf98d	-0.16794415
204	0xbf18cf17	-0.59690994
205	0x3e3c99ef	0.18418096
206	0xbf8086f7	-1.0041188
207	0x3e2af0af	0.16693376
208	0xbd6ab2ae	-0.05729931
209	0x3db61d82	0.08892347
210	0x3df2d121	0.118562944
211	0xbe9569e3	-0.29182348
212	0xbac817b5	-0.0015265854
213	0x3d8a384b	0.06749018
214	0x3e4f2a8d	0.20231076
215	0xbf1cffc5	-0.61327773
216	0x3e0816a1	0.13289882
217	0x3f0ae1b4	0.54250646
218	0xbea67e41	-0.325182
219	0xbf235391	-0.6379939
220	0x3ea31cc5	0.31857887
221	0xbd9106b1	-0.070813544
222	0x3e187290	0.14887452
223	0xbf107e35	-0.56442577
224	0x3d87be20	0.0662806
225	0xbe82c271	-0.25538972
226	0x3f166a13	0.58755606
227	0xbec83dbc	-0.391096
228	0xbe230cf0	-0.15922904
229	0xbec2a6bd	-0.38017836
230	0xbe9eb020	-0.30993748
231	0xbf365a77	-0.7123179
232	0xbf00420d	-0.50100785
233	0x3e11ae25	0.14226587
234	0xbea871d9	-0.3289936
235	0xbd607aec	-0.054804727
236	0xbece58bf	-0.40302083
237	0x3f1efd0b	0.6210486
238	0x3e1f274b	0.15542333
239	0xbed21b73	-0.41036567
240	0x3ea73b83	0.3266259
241	0xbe8fa34f	-0.28054282
242	0x3ef6e8ec	0.4822458
243	0x3bdf7d8e	0.006820387
244	0xbeed749d	-0.4637803
245	0x3e85d9ec	0.26142824
246	0x3d811213	0.063022755
247	0x3f5b2d94	0.8561642
248	0xbecba2dc	-0.3977269
249	0xbeb0d4f4	-0.3453747
250	0x3deb71f7	0.114963464
251	0xbf2853a7	-0.65752643
252	0x3ed67aa2	0.41890436
253	0x3d893fdf	0.067016356
254	0x3d8bbd0b	0.068231665
255	0xbf01245f	-0.5044612

network_body._body_endoder.seq_layers.0.bias f4 [128]
0	0x3caa8fa0	0.020820439
1	0xbc81137d	-0.015756363
2	0x3c6f79e4	0.014616463
3	0xbb7464b6	-0.0037291474
4	0xbb528316	-0.003212159
5	0x3a3da027	0.00072336424
6	0x3866790c	5.4949007e-05
7	0x3d58856e	0.052861623
8	0xbc3275b4	-0.01089232
9	0xbd1a6aee	-0.037699632
10	0x3bfc6d29	0.0077034426
11	0xbb1c5a64	-0.0023857588
12	0xbc6ef842	-0.014585556
13	0x3bbc412d	0.0057450742
14	0x3d24ebf9	0.040264104
15	0xbcffc2bf	-0.031220792
16	0x3ccf73dd	0.025323803
17	0x3aa32666	0.0012447357
18	0x3c111e4d	0.008857322
19	0x3c8eb874	0.017421938
20	0x3c950500	0.01819086
21	0x3c8a43dc	0.016878061
22	0x3b53c517	0.003231352
23	0x3cd31ed1	0.02577153
24	0x3c33e19e	0.010979084
25	0x3ca2092e	0.019779768
26	0xbb86da58	-0.004115384
27	0xbaa9c821	-0.001295332
28	0xbd0dd39f	-0.034625646
29	0xbd26b38c	-0.040698573
30	0x3be24cf9	0.0069061485
31	0x3b4b212b	0.0030995111
32	0x3c976ab8	0.018483505
33	0x3c1b162a	0.009465734
34	0x3d1ad31e	0.037798993
35	0xbc525dbe	-0.012839733
36	0xbc973446	-0.018457543
37	0xbca3f558	-0.02001445
38	0x3c7d27dc	0.015451398
39	0x3cea5eae	0.0286096
40	0x3c9b5fb4	0.018966533
41	0xbc05b8de	-0.008161752
42	0xbbfdd31a	-0.0077461125
43	0x3d075322	0.033038266
44	0xbcb08668	-0.021548465
45	0x3cb68afc	0.02228307
46	0xbd0e7d90	-0.034787714
47	0x3d450ee0	0.04810989
48	0x3c80a093	0.015701568
49	0xbb370e9a	-0.0027932287
50	0x3d2e60bb	0.042572718
51	0x3cd85674	0.026408412
52	0xbc8beed5	-0.017081657
53	0xbaf9ab15	-0.0019048179
54	0x3b46f054	0.003035565
55	0x3c7e3f3f	0.015518009
56	0xbc15a86d	-0.009134394
57	0x3cd6f49c	0.026239686
58	0xbca42210	-0.020035774
59	0x3d037aa1	0.03209937
60	0x3cd23e87	0.025664581
61	0x3b2796c3	0.0025572039
62	0x3c0ca5d4	0.008584458
63	0x3c603daa	0.013686577
64	0x3b84a913	0.0040484755
65	0x3c0676b9	0.008207017
66	0xba6b4a46	-0.0008975606
67	0x3ceacf6e	0.028663363
68	0x3ceda71c	0.029010348
69	0xbcfc53d3	-0.03080169
70	0xbb766bb7	-0.0037600824
71	0x3d0021f3	0.031282376
72	0x3d0cd6c1	0.034384493
73	0xbbe92fa2	-0.007116274
74	0x3d12bd60	0.035825133
75	0x3d008a7f	0.03138208
76	0x3d771dd9	0.0603312
77	0xbbf0e1ac	-0.007351121
78	0x3d2f8aed	0.0428571
79	0x3cc6c248	0.024262562
80	0xbb5462e5	-0.0032407579
81	0x3b26a5c8	0.0025428403
82	0x3c02fc8d	0.007994783
83	0x3d69e305	0.05710127
84	0xba7420a2	-0.0009312724
85	0x3bd752e5	0.006571161
86	0xbc332ce8	-0.010935999
87	0x3bd8f7eb	0.006621351
88	0x3c886fd3	0.016654884
89	0x3af4b9ca	0.0018671092
90	0xbadf088f	-0.00170161
91	0xbb7b4dde	-0.0038345973
92	0xbc6de30c	-0.014519464
93	0x3d1abd1c	0.037778005
94	0x3c21b0a4	0.009868775
95	0x3cba15ab	0.02271541
96	0x3c936ebd	0.01799714
97	0x3c81f4fa	0.015863884
98	0x3c89a22d	0.016800964
99	0x3cc0464f	0.023471026
100	0x3ca9b25e	0.020714935
101	0x3c8a4636	0.016879182
102	0x3ce689cf	0.028141884
103	0xbc9279cb	-0.017880341
104	0x3c166617	0.009179614
105	0x3d0e1685	0.034689445
106	0x3c918fed	0.017768824
107	0xbc7d1c3a	-0.015448624
108	0x3d07f165	0.033189196
109	0x3c8c3cc2	0.017118815
110	0x3c8c6fb4	0.017143108
111	0x3ac86042	0.0015287476
112	0x3d19b007	0.03752139
113	0xbc645ae8	-0.013937689
114	0xbbd04f91	-0.0063571413
115	0x3ae0bafe	0.0017145572
116	0xbd5dadda	-0.054120876
117	0x3d15f5bd	0.036611307
118	0xbbb0df46	-0.00539771
119	0xbbbe46fc	-0.005806802
120	0x3d25b2d9	0.040453766
121	0x3ba428e8	0.005009759
122	0x3c04c0ce	0.008102609
123	0x3bf900d1	0.0075989743
124	0x3d09809f	0.03356993
125	0x3cae0b6c	0.02124568
126	0x3c92e52b	0.017931541
127	0x3b63a623	0.0034736476

network_body._body_endoder.seq_layers.2.weight f4 [128, 128]
0	0x3cc311f9	0.023812281
1	0xbba51dc1	-0.0050389473
2	0xbd0f923d	-0.035051573
3	0x3c9ed03e	0.019386407
4	0xbe0072e1	-0.12543823
5	0xbd92e4c1	-0.071725376
6	0xbdd04ae9	-0.10170538
7	0x3db81ba8	0.0898965
8	0xbda4c8d4	-0.080461174
9	0xbdc09699	-0.09403724
10	0x3d60c78d	0.054877806
11	0xbd721c00	-0.059108734
12	0xbe0b5d22	-0.13609746
13	0x3d532667	0.051550295
14	0x3e70f023	0.23529105
15	0xbd7fd931	-0.06246299
16	0xbdacb15c	-0.08432266
17	0xbd462b7a	-0.048381306
18	0xbbdcf276	-0.006742771
19	0x3db3de9b	0.08782693
20	0xbd74d833	-0.059776496
21	0x3de98fc4	0.11404374
22	0xbcb77aa6	-0.02239735
23	0xbd109abd	-0.03530382
24	0x3dcdc971	0.100481875
25	0x3d242929	0.040078316
26	0xbe343929	-0.1759993
27	0xbc9aa818	-0.018878981
28	0x3c853217	0.016259236
29	0xbcc6d8fc	-0.024273388
30	0xbc94229b	-0.018082907
31	0xbdfa210d	-0.12213335
32	0x3d532640	0.05155015
33	0x3da3da84	0.08000663
34	0xbe11d4d1	-0.1424134
35	0xbe018221	-0.12647296
36	0x3e148126	0.14502391
37	0x3e2d803a	0.16943446
38	0xbd7632d6	-0.060107075
39	0xbe2c3077	-0.16815363
40	0xbdfb64f8	-0.12275118
41	0x3cb76f3c	0.022391908
42	0xbe2ac6b9	-0.16677369
43	0xbe3c97a6	-0.18417224
44	0xbcad2959	-0.02113788
45	0xbd643975	-0.055718858
46	0x3cdef152	0.02721468
47	0x3d1b7184	0.037950054
48	0x3d631632	0.05544109
49	0x3d224e23	0.0396253
50	0x3e51730b	0.20454042
51	0x3d72f095	0.05931147
52	0x3e14a22b	0.14514987
53	0xbc30da06	-0.010794168
54	0x3e0f50e6	0.13995704
55	0x3cbb96c3	0.022899037
56	0xbe385e55	-0.18004735
57	0x3d67f3a7	0.05662885
58	0xbd9f43d6	-0.077766106
59	0x3abb5c98	0.0014294563
60	0xbb89e974	-0.004208738
61	0xbe34644b	-0.17616384
62	0xbd45cabc	-0.048289046
63	0xbe035dbe	-0.12828729
64	0xbe2a7241	-0.16645147
65	0x3d0a0493	0.03369577
66	0x3d375760	0.04476106
67	0x3dc0da3c	0.09416625
68	0x3e0cf302	0.13764575
69	0xbd96bab6	-0.07359831
70	0x3e59eb6d	0.21281214
71	0xbd8d88f0	-0.069108844
72	0xbda35679	-0.07975478
73	0xbe4338af	-0.19064592
74	0xbdd46c73	-0.103722475
75	0x3d473d5e	0.04864251
76	0xbdcb5fb4	-0.09930363
77	0x3c778620	0.0151076615
78	0xbb7b0b07	-0.0038306133
79	0xbdc25daa	-0.09490521
80	0xbc4886e5	-0.012239193
81	0xbc43e1a1	-0.01195565
82	0xbe52b2c1	-0.20576002
83	0xbe2f956f	-0.17146848
84	0xbd807150	-0.06271613
85	0x3d285626	0.041097783
86	0xbdc19b8e	-0.09453498
87	0xbd2e4daa	-0.042554535
88	0xbe33075c	-0.17483276
89	0xbce0e222	-0.027451579
90	0x3db30826	0.087417886
91	0x3e16dc7c	0.14732546
92	0x3e467f04	0.1938439
93	0xbccdad8f	-0.025107173
94	0xbd97a602	-0.0740471
95	0x3d6ae819	0.05735025
96	0x3dc175be	0.09446286
97	0xbdb4b771	-0.08824051
98	0x3cc11309	0.023568647
99	0xbd424318	-0.047427267
100	0x3d971735	0.07377473
101	0x3d73e4e4	0.05954446
102	0xbbeb5c29	-0.007182617
103	0x3d2dedc3	0.042463075
104	0xbd0f4c30	-0.034984767
105	0xbe29f075	-0.16595633
106	0x3df0fceb	0.1176699
107	0x3c99352e	0.018702116
108	0x3d968627	0.07349806
109	0xbd4f4cc5	-0.050610323
110	0xbe068feb	-0.13140838
111	0x3db06d49	0.086145945
112	0x3d38bae3	0.045100104
113	0x3d38edda	0.045148708
114	0xbd30f5d2	-0.043203183
115	0xbe06e8eb	-0.13174789
116	0x3c03aa43	0.008036199
117	0x3de90335	0.11377565
118	0xbd8c397d	-0.068469025
119	0xbdb36477	-0.087593965
120	0x3c48f0b1	0.012264417
121	0xbe476265	-0.19471128
122	0xbd860c57	-0.065453224
123	0xbb1044b9	-0.0022013618
124	0xbcde3a96	-0.027127545
125	0xbe15a45a	-0.14613476
126	0x3e83489f	0.25641343
127	0xbd2ae686	-0.04172375
128	0x3e272eb7	0.16326414
129	0x3d1f987e	0.038963787
130	0xbdfe0742	-0.12403728
131	0x3c771bfe	0.015082357
132	0xbd518c6a	-0.0511593
133	0x3df920e9	0.1216448
134	0x3d9ac41c	0.07556936
135	0x3c32d5f7	0.010915271
136	0x3dc25782	0.09489347
137	0xbe33587a	-0.1751422
138	0xbe1995fc	-0.14998621
139	0xbd06a5b8	-0.032872885
140	0x3d861427	0.065468125
141	0x3d209093	0.039200377
142	0x3dc67b98	0.096915424
143	0xbe31e4d6	-0.1737245
144	0xbe02eb60	-0.12785101
145	0x3e1a64a7	0.15077458
146	0x3d42dde9	0.04757491
147	0xbc8bb8e0	-0.017055929
148	0x3e055098	0.13019025
149	0x3d0967a6	0.033546112
150	0x3dfb451d	0.12269042
151	0xbd59d1b6	-0.05317851
152	0xbdf53df4	-0.11974707
153	0xbc7a0512	-0.015259998
154	0x3d3a0d2d	0.04542272
155	0x3da0bf52	0.078489915
156	0x3e228430	0.15870738
157	0x3d3b495b	0.045724254
158	0x3d253123	0.040330064
159	0x3d853efd	0.06506155
160	0x3d9b4cf7	0.07583039
161	0x3e6fcf52	0.2341893
162	0xbd949ca2	-0.07256438
163	0xbdd7555f	-0.1051433
164	0x3ddb1b1d	0.10698531
165	0x3b99240a	0.0046734856
166	0x3e0e6fdd	0.1390986
167	0x3c01bb49	0.007918187
168	0xbd97d990	-0.07414544
169	0xbd6b83bf	-0.05749869
170	0x3d8b6bf4	0.068077
171	0x3e427751	0.18990828
172	0xbd8422e5	-0.06451968
173	0x3d4a8bc8	0.049449712
174	0xbd8a814e	-0.06762944
175	0xbdf8859d	-0.1213486
176	0xbd26298b	-0.040566962
177	0x3df5acdf	0.11995863
178	0xbe30cbf9	-0.1726531
179	0xbdd22841	-0.10261584
180	0x3dfd9a53	0.12382951
181	0x3c87172a	0.016490538
182	0x3d6f23d4	0.058383778
183	0xbd976cad	-0.07393775
184	0x3e7867f5	0.24258406
185	0x3dfa7204	0.12228778
186	0xbd9df94e	-0.07713567
187	0x3d3fa317	0.046786394
188	0xbda6a650	-0.0813719
189	0xbd022de0	-0.03178203
190	0xbd813dc8	-0.06310612
191	0xbd0ac13c	-0.03387569
192	0xbdfc1679	-0.12308974
193	0x3d7e3db1	0.062070552
194	0xbdb22eeb	-0.08700355
195	0xbcd712e7	-0.02625413
196	0xbd6d076d	-0.05786841
197	0xbdfc6751	-0.123243935
198	0xbe169761	-0.14706184
199	0xbe0628e0	-0.1310153
200	0xbde2ddf1	-0.11077488
201	0x3d13a491	0.036045615
202	0x3b5970b8	0.0033178758
203	0xbcde0d17	-0.027105851
204	0x3d1d2f62	0.038375266
205	0xbca4beae	-0.020110454
206	0xbd87cfdd	-0.06631444
207	0xbd201b40	-0.039088488
208	0x3d8008ec	0.06251702
209	0xbda1e0c9	-0.079042025
210	0x3b8b76b7	0.0042560953
211	0x3d023e1b	0.03179751
212	0xbdacac62	-0.08431317
213	0xbdeb3b48	-0.114859164
214	0xba3ec9c2	-0.0007277989
215	0xbc3c6aea	-0.0115001
216	0xbdbad755	-0.091231026
217	0xbb9e78a4	-0.004836159
218	0x3d97c8da	0.07411356
219	0x3d21fb0a	0.03954605
220	0xbd2a27a9	-0.04154173
221	0x3db9e1bb	0.09076258
222	0x3db35cf7	0.08757966
223	0xbd798c98	-0.060925096
224	0xbd00727f	-0.031359192
225	0xbd751e7b	-0.05984352
226	0xbd8f2d9b	-0.069911204
227	0xbd81c11c	-0.06335661
228	0x3e63813d	0.22217269
229	0x3e43dc80	0.19127083
230	0xbe02b103	-0.12762837
231	0x3d127e31	0.035764877
232	0xbcc9c82c	-0.024631582
233	0x3e372ddb	0.17888586
234	0x3c9d4bb1	0.019201132
235	0x3d762508	0.06009391
236	0x3d498262	0.04919661
237	0xbd28cfeb	-0.04121391
238	0xbd73f961	-0.059563998
239	0x3c5e3048	0.013561316
240	0x3d03a106	0.032135986
241	0xbd977c92	-0.07396807
242	0xbc2c690d	-0.010523093
243	0x3e21c0b7	0.15796171
244	0x3c978af0	0.018498868
245	0xbd5fc83e	-0.054634325
246	0x3ce63769	0.028102593
247	0x3d4eb7a5	0.050468106
248	0xbda18017	-0.07885759
249	0xbd8cd329	-0.06876213
250	0x3d32b25e	0.043627135
251	0xbde665a4	-0.11249855
252	0x3da99fef	0.08282458
253	0x3d230b64	0.039805785
254	0x3da143a0	0.078742266
255	0x3df2b0d1	0.11850131

network_body._body_endoder.seq_layers.2.bias f4 [128]
0	0xbcb229e8	-0.021748498
1	0xbc9e7687	-0.019343628
2	0x3cc80da0	0.02442056
3	0x3b925cfd	0.0044666515
4	0xbc6d082d	-0.014467281
5	0x3c937c88	0.018003717
6	0x3cae9b0b	0.021314165
7	0x3c778930	0.015108392
8	0xbc097235	-0.0083890455
9	0x3cda5193	0.026650226
10	0x3cb718e2	0.022350732
11	0xbcb535d1	-0.022120388
12	0x3ceff772	0.029292796
13	0x3befdcb1	0.0073200096
14	0xbb2d019d	-0.0026398667
15	0x3bf6ad53	0.007527986
16	0x3c8e7b30	0.017392725
17	0xbaac6ab4	-0.0013154359
18	0x3b8e70da	0.004346949
19	0xbc5a7857	-0.013334355
20	0xbadd0fe6	-0.00168657
21	0x3cc4cf7e	0.024024721
22	0xbca7a1e9	-0.020462947
23	0xbc912c54	-0.017721333
24	0x3cfc60a4	0.0308078
25	0x3caf3d60	0.02139157
26	0x3c85f7ce	0.016353514
27	0xbc820cab	-0.015875181
28	0xbbab4150	-0.0052262917
29	0x3d123bdd	0.03570162
30	0x3ca57470	0.020197123
31	0x3b41f6c0	0.0029596537
32	0x3cdf759d	0.027277762
33	0xbb920674	-0.0044563357
34	0xbd06b62d	-0.03288858
35	0x3cbad949	0.022808688
36	0x3d151d19	0.036404703
37	0xbbbd4900	-0.0057765245
38	0xb9d79d46	-0.00041125173
39	0xbc136d30	-0.0089982
40	0xbc86a190	-0.01643446
41	0x3bc49fba	0.006000486
42	0xb98d0faa	-0.00026905286
43	0xbb04969f	-0.0020231379
44	0x3b0081f0	0.0019608699
45	0x3cebf2bd	0.02880227
46	0x3ac64048	0.0015125358
47	0xbba45cdc	-0.0050159525
48	0x3c8e8955	0.01739947
49	0xbcc03062	-0.02346057
50	0xbbc810e1	-0.0061055277
51	0xbc1bd817	-0.009511969
52	0xb905d439	-0.00012762928
53	0xbc147495	-0.009060998
54	0x3bba355b	0.00568263
55	0xbc7ba7f6	-0.015359869
56	0x3cb34edb	0.021888187
57	0x3b8e8e5e	0.0043504676
58	0x3d118e2d	0.03553598
59	0x3ca30a12	0.019902263
60	0xba96b5ec	-0.0011498309
61	0xbc4cafc9	-0.012493082
62	0x3cd9cdc6	0.026587378
63	0xbccbc5e4	-0.024874635
64	0x3d0292bb	0.031878214
65	0x3c52420a	0.012833128
66	0x3c8dd462	0.017313186
67	0xbc015fb3	-0.007896352
68	0x3cb7c610	0.02243331
69	0xbc721d07	-0.0147774285
70	0xbbda2ba1	-0.006658033
71	0x3c64203b	0.0139237
72	0x3bcd6726	0.0062684
73	0x3c9e5cc1	0.019331338
74	0xbbe49618	-0.0069759004
75	0x3b473246	0.0030394956
76	0x3cf678ce	0.030086901
77	0xbca32f03	-0.019919878
78	0x3b4e91c0	0.003151998
79	0x3c8b8eab	0.017035803
80	0xbbcda9a0	-0.0062763244
81	0x3c2df64c	0.010617804
82	0x3c0bd4da	0.0085346345
83	0x3c51dca1	0.01280895
84	0xbc4ecdc2	-0.012622299
85	0x3bf86fdc	0.007581694
86	0xbc7daefb	-0.015483613
87	0x3bfe33b7	0.0077576297
88	0x3cb8ec85	0.022573719
89	0x3d3d7bd3	0.046260666
90	0xbd25054f	-0.040288266
91	0xbbcac2fd	-0.006187795
92	0xbc31a83f	-0.010843336
93	0x3c71f986	0.014768964
94	0xbcdc1f35	-0.02687035
95	0x3c72cea6	0.014819777
96	0x3ccbfba5	0.024900267
97	0xbbbfe6b3	-0.005856359
98	0xbb832690	-0.0040023997
99	0x3cf393a3	0.029733485
100	0x3ccadd98	0.024763867
101	0xbc333f4b	-0.010940383
102	0x3bb3f902	0.0054923305
103	0x3c5d38af	0.013502284
104	0xbbb0c887	-0.0053949985
105	0xbc873659	-0.016505407
106	0x3c6524b1	0.013985799
107	0x3a260e79	0.0006334554
108	0xbbec2a9f	-0.0072072293
109	0x3d51e840	0.05124688
110	0xbb669e1f	-0.0035189462
111	0x3cd051a3	0.025429552
112	0x3cde0957	0.027104063
113	0x3cdd927c	0.027047388
114	0xbcc3dfcf	-0.023910431
115	0xbc3ed30e	-0.011646999
116	0x3ce90749	0.028445857
117	0x3cd8bc9f	0.026457129
118	0xbcf96e62	-0.030448142
119	0x3d22b22a	0.03972069
120	0x3cdf7a0d	0.027279878
121	0x3cc8bbdd	0.024503643
122	0xbcd3b834	-0.02584467
123	0x3b598517	0.00331909
124	0x3bddd70a	0.0067700194
125	0xbab19c06	-0.0013550527
126	0x3bb081d7	0.005386572
127	0x3c89b2b4	0.016808845

action_model._continuous_distribution.log_sigma f4 [1, 2]
0	0x3c883656	0.016627472
1	0xbcb45a72	-0.022015784

action_model._continuous_distribution.mu.weight f4 [2, 128]
0	0x3ca5329f	0.02016574
1	0x3c2edfef	0.010673507
2	0xbd8844d3	-0.06653752
3	0x3d4328d5	0.047646362
4	0x3bf74bb4	0.0075468663
5	0xbceb62eb	-0.028733691
6	0xbd174de2	-0.03693951
7	0x3caab9c8	0.02084054
8	0x3d4e9c77	0.050442185
9	0xbd0d06ca	-0.034430303
10	0xbc3e9aa8	-0.011633553
11	0x3c3a4328	0.01136855
12	0xbcf6f7a1	-0.030147376
13	0x3cccdbe3	0.025007194
14	0xbc8d23c2	-0.017228965
15	0xbcfb5a0a	-0.030682582
16	0xbc94bb25	-0.018155644
17	0x3d4ce09f	0.050018903
18	0xbc6a82b2	-0.014313387
19	0xbc0ef3b7	-0.008725098
20	0xbc85e09a	-0.01634245
21	0x3be7d925	0.007075446
22	0xbb038384	-0.0020067403
23	0x3d461dd4	0.04836829
24	0xbd50db23	-0.050990235
25	0x3b642b42	0.0034815823
26	0xbd6e1d76	-0.058133565
27	0x3c80a739	0.015704738
28	0xbc5585ef	-0.013032421
29	0xbc8f1576	-0.017466288
30	0xbd4ccc97	-0.0499998
31	0x3d194f70	0.037429273
32	0x3c017132	0.007900523
33	0xbcc9ad8c	-0.024618886
34	0x3c9c4d0c	0.019079708
35	0xbc4c2dc3	-0.012462082
36	0x3c063fbd	0.008193907
37	0xbc1bbaad	-0.009504956
38	0xbc58be05	-0.013228898
39	0x3cc1caa1	0.023656191
40	0xbc3395a8	-0.010960974
41	0x3b693df8	0.0035589915
42	0xbca44ab1	-0.020055147
43	0x3c7186c3	0.014741602
44	0x3d0f48c1	0.034981493
45	0xbb6e642e	-0.003637563
46	0x3d37a8d7	0.044838753
47	0x3d359086	0.04432728
48	0x3d8c0968	0.068377316
49	0x3b5f0f7e	0.0034036334
50	0x3d134850	0.035957634
51	0xbc2ebc9b	-0.010665084
52	0xbcfd1b82	-0.030896906
53	0x3d410abf	0.04712939
54	0xbcb2073f	-0.02173197
55	0x3d104ae1	0.03522766
56	0xbd079c66	-0.033108138
57	0xbd88193a	-0.066454366
58	0xb719815c	-9.1496295e-06
59	0xbd1d6bc2	-0.038432844
60	0x3ca42e9a	0.020041753
61	0x3d205ced	0.03915112
62	0x3c7ad834	0.015310336
63	0x3c9272dc	0.017877035
64	0x3cdeff9b	0.027221492
65	0xbcfdec05	-0.030996332
66	0x3c8de88c	0.017322801
67	0x3c9322fb	0.017961016
68	0x3ceec7c7	0.029147996
69	0x3d0a7d84	0.033811107
70	0x3d248992	0.04017026
71	0x3cd34942	0.025791768
72	0x3c291c3d	0.010321674
73	0x3da694c3	0.08133843
74	0x3d4d9fb9	0.05020115
75	0x3d331ef5	0.043730695
76	0xbb525ebe	-0.0032099928
77	0x3c9a51ab	0.01883777
78	0xbccfbf2d	-0.025359714
79	0xbd2595b0	-0.040425956
80	0x3cc1a9e8	0.023640588
81	0x3d80034d	0.062506296
82	0xbc83815c	-0.016052894
83	0x3d5da8d4	0.054116085
84	0x3d561331	0.052264396
85	0x3da28978	0.07936376
86	0x3ce38311	0.027772458
87	0x3cc640eb	0.024200877
88	0xbb83cc77	-0.004022177
89	0x3cf65bcb	0.030073067
90	0x3c7520da	0.014961446
91	0x3c989664	0.0186264
92	0x3ccd8957	0.025089903
93	0x3d9481b9	0.07251305
94	0x3ca80fd0	0.020515352
95	0xbc06971e	-0.00821474
96	0x3d3a4da8	0.045484215
97	0x3c25b4ec	0.010113936
98	0x3c8349f8	0.016026482
99	0xbcf56e60	-0.029959857
100	0xbd601ddb	-0.054715972
101	0x3d547606	0.05187037
102	0x3d374c2a	0.04475037
103	0xbd6750e7	-0.05647364
104	0xbb173744	-0.0023073712
105	0x3c90707a	0.017631758
106	0xbd8be4ce	-0.068307504
107	0xbbc6bff7	-0.0060653645
108	0x3cb9e940	0.02269423
109	0xbc910e35	-0.01770697
110	0x3cfdcf48	0.030982628
111	0xbd81f19a	-0.0634491
112	0x3c651bd4	0.0139836855
113	0xbd843b0d	-0.064565755
114	0x3c81da00	0.01585102
115	0x3cf7bd07	0.030241502
116	0xbc49c364	-0.012314651
117	0x3ce9e997	0.028553767
118	0x3c69282f	0.014230772
119	0xbc2177a7	-0.0098551875
120	0xbd5c0da0	-0.05372393
121	0x3d83e479	0.06440062
122	0x3c0a2863	0.0084324805
123	0x3d836ce6	0.06417255
124	0xbc764f73	-0.015033591
125	0xbce3c2aa	-0.027802784
126	0xbcebf7cd	-0.028804684
127	0xbd062e81	-0.032759193
128	0x3c588741	0.013215841
129	0x3ca5061b	0.020144513
130	0xbb44afb9	-0.0030011965
131	0xbca9d8e3	-0.020733302
132	0x3d076ba6	0.033061646
133	0x3c1b2e47	0.009471483
134	0x3d206d69	0.03916684
135	0xbce240b1	-0.027618738
136	0x3c733d2d	0.014846128
137	0xbd29a687	-0.04141858
138	0xbc80fb70	-0.015744895
139	0x3ce98856	0.028507393
140	0xbd02055d	-0.031743396
141	0xbc570dbf	-0.013125836
142	0x3d897184	0.067111045
143	0x3c03b7db	0.00803944
144	0x3d62acf9	0.05534074
145	0xbc3dce70	-0.011584863
146	0x3d36b238	0.044603556
147	0x3d70ec03	0.05881883
148	0xbbe12c10	-0.0068717077
149	0xbd2f359a	-0.042775728
150	0x3b11d3d3	0.0022251501
151	0x3cafd839	0.021465408
152	0xbd386902	-0.04502202
153	0xbc9c897e	-0.01910853
154	0x3cf8459f	0.030306635
155	0x3d021a96	0.031763636
156	0x3c2d8ab4	0.010592151
157	0xbd71c43c	-0.059025034
158	0x3b9b25d0	0.004734732
159	0x3d8483b9	0.064704366
160	0xbd0430c3	-0.032273065
161	0x3ce72d76	0.02821992
162	0x3d067842	0.03282953
163	0xbca217a1	-0.019786658
164	0xbd6a311e	-0.057175748
165	0x3d50e580	0.05100012
166	0x3c428b62	0.011874052
167	0xbc0638f4	-0.00819229
168	0x3d26067c	0.040533528
169	0x3d5ff9f6	0.05468174
170	0x3c07f66b	0.008298497
171	0x3d52c225	0.051454682
172	0xbd12de9f	-0.03585684
173	0xbcdd2821	-0.026996674
174	0x3b13e980	0.0022569597
175	0x3c91e140	0.017807603
176	0xbca0ccb6	-0.019628864
177	0x3d0357a0	0.032065988
178	0x3b5799ed	0.0032898143
179	0x3c84ccb2	0.016210888
180	0x3d633b46	0.05547645
181	0x3cb10413	0.021608388
182	0x3cc04e2e	0.023474779
183	0x3d00a665	0.031408686
184	0xbd6fc7b5	-0.058540065
185	0x3d5aa9bc	0.053384528
186	0xbd8edd8f	-0.06975853
187	0xbbb96e72	-0.005658918
188	0x3d8fcfde	0.070220694
189	0x3cd5cbb3	0.026098108
190	0xbd25dbc6	-0.040492795
191	0x3cb7cbb2	0.022435997
192	0xbdae1f9c	-0.08502123
193	0x3d92647d	0.07148073
194	0xbd0a100d	-0.033706713
195	0x3cf0ce58	0.029395267
196	0xbd174db0	-0.036939323
197	0x3c9e9934	0.019360162
198	0x3d07fa2f	0.033197578
199	0xbd65f9e2	-0.05614651
200	0xbc5dfdd5	-0.013549288
201	0xbc4925d4	-0.012277085
202	0xb9f610f9	-0.00046933422
203	0xbcdab178	-0.026695952
204	0xbd57b48e	-0.052662425
205	0x3c59d5bf	0.01329559
206	0x3cae799c	0.021298222
207	0x3cc6aa10	0.024251014
208	0xbc0dd0f8	-0.008655779
209	0x3c4041ef	0.01173447
210	0x3d5ec31b	0.054385286
211	0xbbfb37c2	-0.007666559
212	0x3c2d4c92	0.010577338
213	0x3c0b50c9	0.008503147
214	0x3d19406c	0.037414953
215	0xbc9bd7ee	-0.019023862
216	0xbd0fa0d0	-0.035065472
217	0xbdba57b6	-0.09098761
218	0x3c9f1cab	0.01942285
219	0x3cc9b68d	0.02462318
220	0x3bc19509	0.005907659
221	0xbc3d1fbf	-0.011543213
222	0x3c0a8237	0.008453897
223	0xbd0ed96f	-0.03487533
224	0xbce00d75	-0.027350167
225	0x3d41e0e4	0.047333613
226	0xbc88ae2c	-0.016684614
227	0xbd1c4a8b	-0.038157027
228	0x3accc616	0.0015622999
229	0x3d5d828d	0.05407958
230	0x3d2e33da	0.04252992
231	0x3b3cda6c	0.0028816713
232	0x3d771159	0.06031928
233	0x3b8f9177	0.0043813544
234	0x3d1c074f	0.038092908
235	0x3d91ebe6	0.07125072
236	0xbbed66a8	-0.0072449036
237	0xbda65297	-0.081212215
238	0xbb8439c3	-0.004035206
239	0xbd11452b	-0.035466354
240	0xbd22d2f2	-0.039751954
241	0x3d7f3475	0.062305886
242	0x3c8dd9ae	0.017315712
243	0x3d1b1796	0.03786429
244	0xbd432d75	-0.047650773
245	0xbcf3b36c	-0.029748641
246	0x3d2a9093	0.041641783
247	0xbd688f16	-0.056777082
248	0xbc275f94	-0.010215659
249	0xbca93f11	-0.020659955
250	0x3cbd8070	0.023132533
251	0x3d18c882	0.037300594
252	0xbbb387aa	-0.005478819
253	0x3d85cd66	0.06533317
254	0x3c8f2dc9	0.017477887
255	0x3d7b6518	0.061375707

action_model._continuous_distribution.mu.bias f4 [2]
0	0xbc54c568	-0.012986518
1	0xbca0c584	-0.019625433

action_model._discrete_distribution.branches.0.weight f4 [1, 128]
0	0x3c73a528	0.014870919
1	0xbb5ea4ea	-0.0033972808
2	0xb694afcf	-4.4312105e-06
3	0x3cbc2794	0.022968091
4	0xbc2619f7	-0.010138026
5	0xba8c590b	-0.0010707689
6	0xbc152b75	-0.009104599
7	0xbbb04186	-0.0053789048
8	0xbc406874	-0.011743654
9	0x3baf55bb	0.005350796
10	0x3b34c0e7	0.00275808
11	0x3c283418	0.010266326
12	0xbc17796d	-0.009245259
13	0xba6139b5	-0.0008591668
14	0x3af644c3	0.0018788803
15	0x3afa0a0a	0.0019076478
16	0xbba84f58	-0.0051364116
17	0x3c2ca7f2	0.010538088
18	0xba078f82	-0.00051712256
19	0x3b672227	0.003526816
20	0xbc934f0d	-0.01798203
21	0x3b2fe77e	0.002684086
22	0x3b6bb3e3	0.0035965375
23	0x3b710fe8	0.0036783163
24	0xbc022cd8	-0.007945262
25	0xbb5acd1b	-0.0033386413
26	0x3c10dfa8	0.008842386
27	0x3c1c74df	0.009549349
28	0xbc80c0b0	-0.01571688
29	0xbc0b5cf9	-0.008506053
30	0xbafe2cda	-0.0019392029
31	0x3cb296df	0.021800457
32	0x3b2dd483	0.0026524372
33	0x3c2e4216	0.010635873
34	0xbc03b6fb	-0.008039231
35	0x3bde67b3	0.0067872643
36	0x3b6214e7	0.0034497322
37	0x3c2fcbb7	0.010729722
38	0xbbb58f92	-0.0055407966
39	0xba7f5a20	-0.00097409077
40	0xbbdb0c08	-0.006684784
41	0xba2c32df	-0.00065688597
42	0xbb173a6f	-0.00230756
43	0x3adaba63	0.0016687628
44	0x3c3a33fb	0.011364932
45	0xbbdb7ca7	-0.0066982093
46	0x3c62adb0	0.013835356
47	0x3c34cda1	0.011035354
48	0xbc9d3a5e	-0.01919287
49	0xbc21a708	-0.0098664835
50	0xbc7f775d	-0.015592423
51	0x3bf29f38	0.0074042343
52	0x3c6da56b	0.014504771
53	0x3a89b951	0.0010507499
54	0xbca0c847	-0.01962675
55	0xbb5ebedf	-0.003398828
56	0x388923c2	6.5393295e-05
57	0x3c07c111	0.008285777
58	0xb88a2111	-6.586512e-05
59	0x3a53a7d0	0.0008074017
60	0xbbb9060a	-0.005646472
61	0xbc48b27f	-0.012249588
62	0x3c5065e2	0.012719603
63	0xbc9054e2	-0.0176186
64	0x3b5f95a5	0.0034116295
65	0x3b270496	0.0025484911
66	0x3c1e1d6d	0.00965057
67	0xbc484b93	-0.01222505
68	0x3c13a0b1	0.00901048
69	0x3c58654d	0.013207746
70	0xbc9c8b9a	-0.019109536
71	0xbbed5b05	-0.0072435164
72	0x3aeea6fb	0.0018207723
73	0x3a8b02e5	0.0010605721
74	0x3b3189ed	0.0027090267
75	0xbbb60b17	-0.005555521
76	0xbc29fc4f	-0.010375096
77	0x3b1e717d	0.002417653
78	0x3c24c2e8	0.010056235
79	0xbc9086a4	-0.017642327
80	0xbbae2152	-0.0053140307
81	0x3b2c81f0	0.0026322566
82	0x3c734142	0.014847102
83	0xbc14f22d	-0.009090942
84	0xbc0f027f	-0.008728622
85	0xbc8aa097	-0.016922278
86	0x3b936263	0.0044978126
87	0xbc15c489	-0.009141096
88	0xbc0db94d	-0.008650136
89	0xbbbc11fa	-0.0057394477
90	0x3c70d13a	0.014698321
91	0xbcaf5c9f	-0.02140647
92	0xbb3981d5	-0.0028306146
93	0xbc2c26af	-0.01050727
94	0x3b3925b4	0.0028251233
95	0xbc070cb7	-0.008242778
96	0xba8c1a05	-0.0010688907
97	0x3c38e7ee	0.011285765
98	0xba59740d	-0.0008295186
99	0xbcb559d7	-0.022137566
100	0x3c3d4974	0.011553157
101	0x3c513100	0.01276803
102	0xbca971e8	-0.020684198
103	0x3abfad0f	0.0014623719
104	0x3beda4d0	0.007252313
105	0xbac6e297	-0.001517373
106	0x3c56e22b	0.013115446
107	0xbc4d2328	-0.012520589
108	0xbbdcadf3	-0.0067346036
109	0x3901278b	0.0001231713
110	0xbb9f7ad3	-0.0048669367
111	0xbb80f8c3	-0.0039359047
112	0x3c663c82	0.014052512
113	0x3a75e73f	0.00093804667
114	0xbad9efdd	-0.0016627271
115	0x3c51c570	0.01280342
116	0x3c8c35bd	0.017115468
117	0xbc5c69a7	-0.013452924
118	0x3bc86fdd	0.006116851
119	0x38e8f95f	0.00011109071
120	0xbb830337	-0.003998186
121	0x3af82dc8	0.0018934542
122	0x3c01faf9	0.007933372
123	0xbc06b3f0	-0.008221611
124	0xbbc46e8a	-0.0059946226
125	0xbb7cf287	-0.0038596706
126	0xbc572a7a	-0.013132686
127	0xbb554223	-0.0032540641

exp_avg f4 [128, 6]
0	0xb5c159c8	-1.440575e-06
1	0x3228ad12	9.818239e-09
2	0x34dcf1f0	4.1154226e-07
3	0xb74b4f01	-1.2118137e-05
4	0x00000000	0.0
5	0x368dd11b	4.2264705e-06
6	0xb89ca0a4	-7.468581e-05
7	0x3340d4ca	4.4897014e-08
8	0xb8479ea6	-4.759305e-05
9	0x38114945	3.463893e-05
10	0x00000000	0.0
11	0x37b54cc2	2.1612625e-05
12	0xb89bb050	-7.423817e-05
13	0xb526302e	-6.190993e-07
14	0xb8a3ca04	-7.810074e-05
15	0x38da86bb	0.000104201456
16	0x00000000	0.0
17	0xb974ac73	-0.00023333896
18	0x388b0998	6.6298235e-05
19	0x33ae9164	8.128953e-08
20	0x38399a15	4.4250937e-05
21	0x3806c550	3.213185e-05
22	0x00000000	0.0
23	0x37b8cbdc	2.2029439e-05
24	0xb8885a7e	-6.501841e-05
25	0xb40d70d7	-1.3172699e-07
26	0xb79fe5a5	-1.9061214e-05
27	0xb8728c92	-5.7828212e-05
28	0x00000000	0.0
29	0xb7ae8393	-2.0803685e-05
30	0x385d9d68	5.2837102e-05
31	0x34fdc78e	4.7270117e-07
32	0xb86d0ba4	-5.6516044e-05
33	0x3944e80e	0.00018778464
34	0x00000000	0.0
35	0x3855da05	5.0986204e-05
36	0x385e968a	5.3069125e-05
37	0xb4f3a90b	-4.5385272e-07
38	0x38d24652	0.000100266785
39	0xb8825c7d	-6.21611e-05
40	0x00000000	0.0
41	0xb826c6a6	-3.976249e-05
42	0x390efa99	0.0001363553
43	0x333b22fc	4.357115e-08
44	0xb8b9e5b4	-8.864273e-05
45	0xb8d4615e	-0.00010127084
46	0x00000000	0.0
47	0xb949bd20	-0.00019239308
48	0xb79cdaf9	-1.8698616e-05
49	0xb48fca41	-2.6782985e-07
50	0x388a9b9c	6.609337e-05
51	0xb3da5a00	-1.0167787e-07
52	0x00000000	0.0
53	0x378f985f	1.7117882e-05
54	0x38d0bdbc	9.953554e-05
55	0xb391c0ac	-6.7871355e-08
56	0x38a53b18	7.87882e-05
57	0x37c99920	2.4032372e-05
58	0x00000000	0.0
59	0x3805df04	3.191737e-05
60	0x392b7c77	0.00016354198
61	0x35a8e9fc	1.2585074e-06
62	0xb8c71196	-9.492335e-05
63	0x39585f18	0.0002063479
64	0x00000000	0.0
65	0x394941f8	0.00019193429
66	0x38b21798	8.492096e-05
67	0xb2d1d354	-2.4426903e-08
68	0xb7356f1b	-1.08143095e-05
69	0xb8951d49	-7.1103284e-05
70	0x00000000	0.0
71	0xb8dc323b	-0.000104997736
72	0x383d3188	4.510724e-05
73	0xb1113164	-2.1128352e-09
74	0xb75e47c4	-1.324894e-05
75	0xb80eeb81	-3.407477e-05
76	0x00000000	0.0
77	0xb8726e34	-5.779993e-05
78	0x38a11d11	7.682492e-05
79	0x34fa6636	4.6640497e-07
80	0xb6da2730	-6.5014683e-06
81	0xb80c3e44	-3.343659e-05
82	0x00000000	0.0
83	0x3898bf4a	7.283555e-05
84	0x37e562a2	2.7344857e-05
85	0xb5018d28	-4.8261654e-07
86	0x388e33f2	6.780763e-05
87	0x379728fc	1.8019688e-05
88	0x00000000	0.0
89	0xb8851275	-6.345372e-05
90	0xb8843f03	-6.305987e-05
91	0xb3f36369	-1.1333652e-07
92	0xb501d948	-4.837243e-07
93	0x38851cc0	6.347289e-05
94	0x00000000	0.0
95	0x383d9989	4.5204102e-05
96	0x39102a16	0.00013748588
97	0x354ac6bb	7.5540055e-07
98	0xb8895929	-6.5492764e-05
99	0xb93612f6	-0.00017363936
100	0x00000000	0.0
101	0x381c990a	3.7335827e-05
102	0x38441d3c	4.6757268e-05
103	0xb36e651c	-5.550565e-08
104	0x38b3c0b2	8.5712774e-05
105	0x389a34d3	7.3531315e-05
106	0x00000000	0.0
107	0x3898aa7b	7.279679e-05
108	0x388b08a2	6.6296445e-05
109	0x34ceb357	3.8500977e-07
110	0xb7f6bb96	-2.9412837e-05
111	0x38916657	6.933201e-05
112	0x00000000	0.0
113	0x37be8d25	2.271549e-05
114	0x38e45f8e	0.00010889686
115	0x34cd2669	3.8212173e-07
116	0x372a3dd0	1.01471815e-05
117	0xb6b91a80	-5.5165146e-06
118	0x00000000	0.0
119	0x3860df8a	5.361395e-05
120	0xb9074147	-0.00012898921
121	0x337f5f62	5.9458564e-08
122	0xb8369859	-4.3534066e-05
123	0x38a5e529	7.9104975e-05
124	0x00000000	0.0
125	0x38b921eb	8.827805e-05
126	0xb9ecb4b4	-0.00045148062
127	0xb31537cc	-3.4742513e-08
128	0xb91836c4	-0.00014516251
129	0x39b342ce	0.00034191314
130	0x00000000	0.0
131	0x393b64b4	0.00017871225
132	0xb7ede328	-2.835838e-05
133	0xb53e6c79	-7.0938364e-07
134	0xb86861d2	-5.5404213e-05
135	0x389b6093	7.408964e-05
136	0x00000000	0.0
137	0xb98702ab	-0.00025751194
138	0xb8e3ec7c	-0.00010868252
139	0x34b50eb1	3.3724567e-07
140	0xb87efcfc	-6.079393e-05
141	0x38a8499e	8.0245765e-05
142	0x00000000	0.0
143	0x39167402	0.00014348331
144	0xb7c31b48	-2.3258515e-05
145	0x35336312	6.682686e-07
146	0xb87b58fc	-5.9925937e-05
147	0xb80662ea	-3.204021e-05
148	0x00000000	0.0
149	0x391e8450	0.00015117344
150	0x394500c8	0.00018787675
151	0x34fd48fe	4.717803e-07
152	0xb89cb044	-7.471492e-05
153	0xb8cd11a0	-9.778445e-05
154	0x00000000	0.0
155	0xb8f78281	-0.00011802186
156	0x397cf7eb	0.0002412495
157	0xb317d383	-3.5349796e-08
158	0xb901b73f	-0.00012370663
159	0xb959220d	-0.00020707418
160	0x00000000	0.0
161	0xb9d28c28	-0.00040158746
162	0xb9826388	-0.0002486969
163	0x3314fc10	3.4688185e-08
164	0xb91e7714	-0.00015112414
165	0x37c56f00	2.3535918e-05
166	0x00000000	0.0
167	0x37ad4890	2.0656997e-05
168	0x3940f346	0.00018401173
169	0xb4cb184e	-3.782938e-07
170	0x3908b5a6	0.0001303764
171	0xb920d735	-0.0001533896
172	0x00000000	0.0
173	0xb8d61b56	-0.00010209407
174	0x382e575f	4.1566203e-05
175	0xb4660fde	-2.1426192e-07
176	0x38bb6721	8.936064e-05
177	0x3446fb00	1.85315e-07
178	0x00000000	0.0
179	0x378e41ff	1.6958451e-05
180	0x39425fd4	0.0001853698
181	0x33adf0e8	8.099761e-08
182	0x38c97f90	9.608187e-05
183	0xb7946f98	-1.769494e-05
184	0x00000000	0.0
185	0x37a78da0	1.99739e-05
186	0x38f51042	0.000116855386
187	0xb43a44ab	-1.7347581e-07
188	0xb8723594	-5.7747195e-05
189	0xb8dd909e	-0.00010565038
190	0x00000000	0.0
191	0xb985a07c	-0.00025487307
192	0x36e1f420	6.7339424e-06
193	0xb29b420f	-1.8074415e-08
194	0x37d62a0e	2.5530371e-05
195	0x3795a8b9	1.7840752e-05
196	0x00000000	0.0
197	0x37d1f91f	2.5030748e-05
198	0x38e481af	0.00010896043
199	0x3445972f	1.8402055e-07
200	0xb826e9d3	-3.979525e-05
201	0xb9085612	-0.00013002034
202	0x00000000	0.0
203	0xb8d02dfe	-9.9267796e-05
204	0x39b88cb2	0.0003520004
205	0x339d173e	7.31511e-08
206	0xb961cf42	-0.00021534882
207	0xb9928dcf	-0.00027952946
208	0x00000000	0.0
209	0xba0f307f	-0.00054622436
210	0x381d451c	3.749608e-05
211	0xb3cf7cdb	-9.6619e-08
212	0x38487259	4.779021e-05
213	0xb8623b3b	-5.393776e-05
214	0x00000000	0.0
215	0xb5d8df60	-1.6158265e-06
216	0x39879ff2	0.00025868375
217	0xb4743522	-2.27436e-07
218	0x396bc3d6	0.00022484301
219	0xb82e4434	-4.1548352e-05
220	0x00000000	0.0
221	0x37139248	8.7959415e-06
222	0xb7c29358	-2.3195214e-05
223	0xb343a72e	-4.5554025e-08
224	0xb7832c1e	-1.563696e-05
225	0xb7ce37d1	-2.4583105e-05
226	0x00000000	0.0
227	0xb6faee4e	-7.478323e-06
228	0x380629c6	3.1986994e-05
229	0xb2c2b170	-2.2665262e-08
230	0x38237803	3.8973998e-05
231	0xb77ed75c	-1.5189722e-05
232	0x00000000	0.0
233	0xb65ee880	-3.321591e-06
234	0x39228e1c	0.00015502464
235	0xb34155b4	-4.501426e-08
236	0xb8f4ae4e	-0.000116672934
237	0xb943396b	-0.00018618039
238	0x00000000	0.0
239	0xb9a5a47c	-0.00031593803
240	0xb9d8bfba	-0.00041341578
241	0x348d2237	2.628819e-07
242	0xb967dafe	-0.00022111458
243	0x3959e63b	0.000207805
244	0x00000000	0.0
245	0x392e1d49	0.00016604843
246	0x38fe6ebe	0.00012132291
247	0x340b11bd	1.2951837e-07
248	0x38a5406c	7.8798126e-05
249	0x38b9cec7	8.860003e-05
250	0x00000000	0.0
251	0x3862db16	5.408664e-05
252	0x3904a33a	0.00012649308
253	0x3412c1ad	1.3667768e-07
254	0x38929f40	6.991485e-05
255	0x389d8f57	7.5130425e-05

exp_avg_sq f4 [128, 6]
0	0x32b6ce6b	2.1281457e-08
1	0x29cf5490	9.207316e-14
2	0x330a7e0e	3.2245275e-08
3	0x32fad6a1	2.9201432e-08
4	0x00000000	0.0
5	0x32e2539b	2.6347882e-08
6	0x33767b23	5.738833e-08
7	0x2a4c17cb	1.8127095e-13
8	0x32f77aa9	2.8810364e-08
9	0x334e0dc5	4.7975636e-08
10	0x00000000	0.0
11	0x3287f616	1.5827975e-08
12	0x365a5ebf	3.253968e-06
13	0x2d46ef8d	1.1308188e-11
14	0x35acad4b	1.2865434e-06
15	0x36a584fd	4.932865e-06
16	0x00000000	0.0
17	0x364365ad	2.9116447e-06
18	0x33327cdc	4.1557414e-08
19	0x2a36acf5	1.6224854e-13
20	0x32b4f8ed	2.1067956e-08
21	0x3339af25	4.3232962e-08
22	0x00000000	0.0
23	0x3284719d	1.5418488e-08
24	0x33933d43	6.8563644e-08
25	0x2a93b23a	2.6236115e-13
26	0x33100252	3.3529723e-08
27	0x338889b7	6.358044e-08
28	0x00000000	0.0
29	0x32d9f3de	2.5373023e-08
30	0x3317a7b0	3.5309938e-08
31	0x2aa61b64	2.950653e-13
32	0x328a5237	1.6102701e-08
33	0x3396d169	7.023011e-08
34	0x00000000	0.0
35	0x32c180ba	2.2526695e-08
36	0x338ff31e	6.703179e-08
37	0x2a9dbe09	2.8020666e-13
38	0x330e7265	3.3165993e-08
39	0x33876213	6.304267e-08
40	0x00000000	0.0
41	0x32e37507	2.6479496e-08
42	0x342a5449	1.5863147e-07
43	0x2b0a9c95	4.924475e-13
44	0x33379b9c	4.2749534e-08
45	0x34343e9d	1.6786585e-07
46	0x00000000	0.0
47	0x341f1452	1.4815421e-07
48	0x33e2bbf8	1.05581364e-07
49	0x2aabca36	3.0516014e-13
50	0x335324fd	4.9160906e-08
51	0x33a768f0	7.7956315e-08
52	0x00000000	0.0
53	0x331046be	3.3591952e-08
54	0x3402486e	1.2133543e-07
55	0x2ad11981	3.7143555e-13
56	0x339f0280	7.404469e-08
57	0x33d6cb06	1.0002081e-07
58	0x00000000	0.0
59	0x33248185	3.8302023e-08
60	0x36446c71	2.9269397e-06
61	0x2d2bd301	9.767077e-12
62	0x358eb356	1.0632018e-06
63	0x368370b7	3.917226e-06
64	0x00000000	0.0
65	0x362ad008	2.5453064e-06
66	0x3412c31d	1.3668291e-07
67	0x2b00cf88	4.576274e-13
68	0x33829b5c	6.0818564e-08
69	0x345b7098	2.0436926e-07
70	0x00000000	0.0
71	0x3402de9d	1.218818e-07
72	0x343f98af	1.7843807e-07
73	0x2b33057d	6.360119e-13
74	0x33acf616	8.054137e-08
75	0x34927003	2.7276118e-07
76	0x00000000	0.0
77	0x343046cb	1.6417032e-07
78	0x348ca998	2.6200428e-07
79	0x2bb6227f	1.2941452e-12
80	0x33eac082	1.0931491e-07
81	0x34f2e98f	4.524595e-07
82	0x00000000	0.0
83	0x342f12b9	1.6304956e-07
84	0x354de9e1	7.670879e-07
85	0x2bf28178	1.7231069e-12
86	0x34c37e50	3.6413485e-07
87	0x35324e75	6.642434e-07
88	0x00000000	0.0
89	0x34a980d1	3.157243e-07
90	0x31b2ff43	5.2095017e-09
91	0x290beef3	3.1071455e-14
92	0x3095e378	1.0905827e-09
93	0x31e179dd	6.562216e-09
94	0x00000000	0.0
95	0x314da576	2.992548e-09
96	0x3552b348	7.8491985e-07
97	0x2c527f24	2.9913372e-12
98	0x34aa4201	3.1712992e-07
99	0x35ab389b	1.2756967e-06
100	0x00000000	0.0
101	0x352feb04	6.5534573e-07
102	0x3399aba3	7.155838e-08
103	0x2ac1d065	3.442829e-13
104	0x33019e12	3.0178917e-08
105	0x33cbdee9	9.493471e-08
106	0x00000000	0.0
107	0x3313eafe	3.443983e-08
108	0x334f1686	4.8216428e-08
109	0x2a746724	2.1707338e-13
110	0x32710d26	1.4031036e-08
111	0x337c677f	5.876745e-08
112	0x00000000	0.0
113	0x331fe407	3.7227462e-08
114	0x34790f53	2.3195507e-07
115	0x2b8c5d61	9.973516e-13
116	0x33d40831	9.873509e-08
117	0x34a9d8d7	3.1636475e-07
118	0x00000000	0.0
119	0x34045ebe	1.2327925e-07
120	0x34fd1c5a	4.714555e-07
121	0x2be45e9e	1.6226636e-12
122	0x348cbe58	2.6215525e-07
123	0x353e8130	7.096851e-07
124	0x00000000	0.0
125	0x34e9f8ed	4.358075e-07
126	0x363f303a	2.848929e-06
127	0x2d1727ad	8.592166e-12
128	0x35a9a1db	1.2638587e-06
129	0x367d8350	3.7776372e-06
130	0x00000000	0.0
131	0x3612aa6b	2.1854892e-06
132	0x360ed1e6	2.1281826e-06
133	0x2d09a12a	7.823334e-12
134	0x355c32f7	8.203055e-07
135	0x365dacd8	3.3032175e-06
136	0x00000000	0.0
137	0x35fe0f24	1.8928881e-06
138	0x34b28206	3.3249688e-07
139	0x2b8e23ab	1.0099607e-12
140	0x3433bcfd	1.6739428e-07
141	0x34cf2d30	3.8589633e-07
142	0x00000000	0.0
143	0x3471fdea	2.2537247e-07
144	0x34cb59b6	3.787697e-07
145	0x2bd504cf	1.5135895e-12
146	0x34312708	1.6498609e-07
147	0x3527813b	6.2400403e-07
148	0x00000000	0.0
149	0x34ae1027	3.2421778e-07
150	0x35b2b86d	1.3315708e-06
151	0x2c97d8e5	4.3157583e-12
152	0x3505afff	4.980247e-07
153	0x35f73316	1.8417802e-06
154	0x00000000	0.0
155	0x359dd380	1.1758966e-06
156	0x36176c78	2.256389e-06
157	0x2d027e40	7.417678e-12
158	0x35696579	8.6946926e-07
159	0x36611457	3.3539452e-06
160	0x00000000	0.0
161	0x360ad111	2.0685295e-06
162	0x34a60425	3.0922925e-07
163	0x2b9fd998	1.1358024e-12
164	0x341fabf6	1.4870588e-07
165	0x349acb98	2.883287e-07
166	0x00000000	0.0
167	0x33cef635	9.637407e-08
168	0x34cf890a	3.8656464e-07
169	0x2b7e68d9	9.0384433e-13
170	0x347f8fba	2.3801013e-07
171	0x34732f9b	2.2648457e-07
172	0x00000000	0.0
173	0x340bd0c6	1.3021335e-07
174	0x33f993b7	1.1621835e-07
175	0x2a6d9f09	2.1105005e-13
176	0x338a2150	6.432185e-08
177	0x3352b686	4.906044e-08
178	0x00000000	0.0
179	0x3314264b	3.4493763e-08
180	0x34b6c407	3.404277e-07
181	0x2b8ae2c1	9.868427e-13
182	0x34443d00	1.8276114e-07
183	0x34887dbd	2.542346e-07
184	0x00000000	0.0
185	0x33ec7e26	1.1012553e-07
186	0x35e9f010	1.742972e-06
187	0x2ce1f334	6.4218856e-12
188	0x35511f3f	7.7904036e-07
189	0x364f73ec	3.091288e-06
190	0x00000000	0.0
191	0x35d07d35	1.5533648e-06
192	0x32c27655	2.2638384e-08
193	0x29a298b5	7.2207356e-14
194	0x326bff19	1.3736803e-08
195	0x32a0bece	1.871322e-08
196	0x00000000	0.0
197	0x32321d4d	1.0367626e-08
198	0x34a89a93	3.1404906e-07
199	0x2b95a26c	1.0632168e-12
200	0x3406b3ae	1.254509e-07
201	0x35046e8f	4.9334716e-07
202	0x00000000	0.0
203	0x34956828	2.7829196e-07
204	0x3642d996	2.9034904e-06
205	0x2d2339d4	9.278318e-12
206	0x3586c0f3	1.0039934e-06
207	0x368669d1	4.00583e-06
208	0x00000000	0.0
209	0x3631ed5e	2.6513221e-06
210	0x3330724f	4.1082156e-08
211	0x2a05b7ea	1.1876581e-13
212	0x32c1af5f	2.2547907e-08
213	0x330c4a59	3.266391e-08
214	0x00000000	0.0
215	0x325fcb3d	1.3026519e-08
216	0x34fee6f2	4.7479222e-07
217	0x2c00b0b2	1.828798e-12
218	0x34863360	2.4996825e-07
219	0x35001328	4.771159e-07
220	0x00000000	0.0
221	0x342d2aee	1.6127498e-07
222	0x333b5600	4.3617547e-08
223	0x299ae674	6.878951e-14
224	0x32d83996	2.5171897e-08
225	0x32ab09f0	1.9911539e-08
226	0x00000000	0.0
227	0x3244fe08	1.1466462e-08
228	0x3290e1cc	1.6866487e-08
229	0x29e6f23a	1.02560714e-13
230	0x3217806a	8.818555e-09
231	0x32e066c2	2.6123761e-08
232	0x00000000	0.0
233	0x3200174c	7.455878e-09
234	0x3659c991	3.2452847e-06
235	0x2d4c2066	1.1603251e-11
236	0x35b1985f	1.3231873e-06
237	0x36b7047b	5.4543466e-06
238	0x00000000	0.0
239	0x36406621	2.8669676e-06
240	0x358a4873	1.0302887e-06
241	0x2c4b25d2	2.886903e-12
242	0x350eaf9f	5.3154685e-07
243	0x3589905b	1.0249308e-06
244	0x00000000	0.0
245	0x351dc9b3	5.878057e-07
246	0x346251e4	2.1077682e-07
247	0x2b4e6cae	7.3336725e-13
248	0x33cdf443	9.590487e-08
249	0x344e1779	1.9193784e-07
250	0x00000000	0.0
251	0x3393e57e	6.886965e-08
252	0x3476ebb6	2.2996286e-07
253	0x2b6e1ef9	8.459757e-13
254	0x34093e6b	1.2781827e-07
255	0x346aa872	2.1854228e-07

exp_avg f4 [128]
0	0xb624b8b9	-2.4545427e-06
1	0xb73c4f5c	-1.12241505e-05
2	0x39224bf9	0.00015477826
3	0xb7aa7c0a	-2.032334e-05
4	0x380a2163	3.2932858e-05
5	0xb8f7d680	-0.000118178315
6	0x38edf3f0	0.000113464775
7	0xb736c150	-1.0893054e-05
8	0x388c6c0e	6.695847e-05
9	0x378e5524	1.6967366e-05
10	0xb9a4f56b	-0.00031463368
11	0x36cce862	6.1067267e-06
12	0x350dba4a	5.279768e-07
13	0xb8f4895a	-0.000116604104
14	0x38fd08be	0.000120656085
15	0x37edafe0	2.83345e-05
16	0xb94606fb	-0.00018885352
17	0x3768cba0	1.3875688e-05
18	0xb8c9dc4a	-9.625459e-05
19	0xb8c858da	-9.553293e-05
20	0xb77961f8	-1.4864367e-05
21	0x3711bed8	8.687108e-06
22	0x3939f6d6	0.00017734928
23	0xb8b0d0ff	-8.4312625e-05
24	0xb92f2f7e	-0.00016706993
25	0xb8f75ab4	-0.000117947726
26	0x3714441a	8.837344e-06
27	0xb71178f0	-8.670831e-06
28	0x38c6563e	9.4574396e-05
29	0x3860abf6	5.3565913e-05
30	0xb7a9e06c	-2.0250875e-05
31	0x3835e7e6	4.3369735e-05
32	0x36979e31	4.5185666e-06
33	0xb840f69f	-4.600605e-05
34	0xb79969fb	-1.8288372e-05
35	0x37caa05a	2.4154946e-05
36	0x386e7b1a	5.685827e-05
37	0x373f132d	1.1388952e-05
38	0x36be1fe4	5.666154e-06
39	0x373cce00	1.1253636e-05
40	0xb889d312	-6.571984e-05
41	0xb807d126	-3.2381293e-05
42	0xb80f52e1	-3.4171044e-05
43	0xb83a2a9d	-4.4385542e-05
44	0x3827249f	3.985001e-05
45	0xb997da77	-0.00028963733
46	0x38407e28	4.589386e-05
47	0xb6958218	-4.455691e-06
48	0xb91b3afe	-0.00014803928
49	0xb8993fd8	-7.3075e-05
50	0xb8ddc607	-0.00010574987
51	0xb7e9193e	-2.7787519e-05
52	0x3805b44d	3.187759e-05
53	0x37873000	1.6115606e-05
54	0x3885028e	6.34241e-05
55	0xb8b21170	-8.4909494e-05
56	0xb863de86	-5.432826e-05
57	0xb9847f9e	-0.00025272084
58	0xb8b16b34	-8.459986e-05
59	0x38f70588	0.00011778908
60	0xb8a90a38	-8.0604514e-05
61	0x37900c8c	1.717198e-05
62	0xb8429a1c	-4.639673e-05
63	0x385b356e	5.226343e-05
64	0x3743b8cc	1.1665932e-05
65	0xb4f82300	-4.6219066e-07
66	0xb8411db1	-4.6042438e-05
67	0xb807b870	-3.235828e-05
68	0xb9108d62	-0.0001378558
69	0x388d63be	6.741982e-05
70	0x3897e3ff	7.242709e-05
71	0xb64217d4	-2.8922123e-06
72	0x38b49e86	8.612596e-05
73	0x384274e6	4.6362074e-05
74	0x388b5048	6.64299e-05
75	0xb93b627e	-0.00017870401
76	0xb9aa554e	-0.00032488484
77	0x37181fc5	9.067303e-06
78	0x389697bd	7.180821e-05
79	0xb985c640	-0.00025515445
80	0xb8a4e569	-7.8628604e-05
81	0x37fcd322	3.0139057e-05
82	0xb8f738e8	-0.000117884774
83	0xb7adf9bd	-2.07395e-05
84	0xb6cea137	-6.1580463e-06
85	0x3897299a	7.20799e-05
86	0xb84b5732	-4.848018e-05
87	0xb932765a	-0.00017019492
88	0xb987b16a	-0.0002588139
89	0x388f6d72	6.839157e-05
90	0xb821ef76	-3.8608407e-05
91	0xb855f8f2	-5.1015006e-05
92	0x3643d428	2.9180756e-06
93	0xb95439cf	-0.00020239431
94	0xb8f2f91f	-0.00011585862
95	0xb9666986	-0.0002197382
96	0xb86bbc1c	-5.6203557e-05
97	0xb9327fbe	-0.0001702299
98	0xb8c5a09a	-9.4236064e-05
99	0xb908edff	-0.00013058631
100	0x3837498c	4.3699096e-05
101	0xb8c0967e	-9.183305e-05
102	0x381efc02	3.7904836e-05
103	0x3814b4f4	3.5454475e-05
104	0xb8c59e19	-9.42314e-05
105	0xb9302551	-0.0001679857
106	0xb8176922	-3.6099118e-05
107	0x38c35d8d	9.31575e-05
108	0xb93f264f	-0.0001822945
109	0x38b19581	8.467865e-05
110	0xb903c750	-0.00012567383
111	0xb91d9cf9	-0.00015031164
112	0x38bed27d	9.0991125e-05
113	0x378bddfa	1.6673457e-05
114	0xb929b94d	-0.00016186126
115	0x3815c978	3.5712e-05
116	0x376bd248	1.4056051e-05
117	0xb9c34852	-0.0003724718
118	0x3739fc38	1.10855835e-05
119	0xb751c8d4	-1.250413e-05
120	0xb8b292e1	-8.51506e-05
121	0x38aaad28	8.1384846e-05
122	0x390000bf	0.00012207309
123	0x38213c94	3.844181e-05
124	0xb83cbbb8	-4.499752e-05
125	0xb7da1233	-2.59961e-05
126	0xb87f587a	-6.0879138e-05
127	0x35afda18	1.310199e-06
