results/RayCast1/AgentControl/AgentControl-499965.pt (torch, 492385 bytes, 39 tensors)

network_body._body_endoder.seq_layers.0.weight f4 [128, 21]
0	0xbe5f81f1	-0.21826912
1	0x3e0d5aca	0.13804165
2	0x3f07dac9	0.53068215
3	0x3e963bfa	0.29342633
4	0x3dd3bfd6	0.10339324
5	0xbe78d8d1	-0.24301459
6	0xbef372ff	-0.47548673
7	0x3d9b0db3	0.07570972
8	0xbd3ea718	-0.04654607
9	0x3e8125cf	0.25224158
10	0x3ecd92dc	0.40151107
11	0xbd73955a	-0.059468605
12	0xbeeb491b	-0.45954213
13	0x3e43cc33	0.19120865
14	0x3d8d21cc	0.06891212
15	0x3e36b441	0.17842199
16	0xbe870fbf	-0.263792
17	0xbe435f90	-0.19079423
18	0x3c87453e	0.01651251
19	0x3f1bd62d	0.6087368
20	0xbe308559	-0.17238368
21	0x3d4b0413	0.049564432
22	0xbd22f930	-0.039788425
23	0xbda71ac0	-0.08159399
24	0x3eccb8ee	0.3998484
25	0x3de5b06d	0.11215291
26	0x3cbeebd2	0.023305807
27	0xbe5c163a	-0.21492854
28	0x3dd5fd92	0.10448755
29	0xbd823d4d	-0.063593484
30	0x3e9c0a67	0.30476686
31	0x3ced2803	0.028949743
32	0x3e3842e2	0.17994264
33	0x3e308ebf	0.17241953
34	0xbecb0c5b	-0.39657864
35	0x3e85c2dc	0.26125228
36	0xbe14231f	-0.14466523
37	0xbe24421d	-0.16040845
38	0xbce0cc03	-0.02744103
39	0xbbae52b0	-0.0053199157
40	0xbd4c0ad7	-0.049815025
41	0x3e8f00b2	0.27930218
42	0x3e8eea5d	0.2791318
43	0xbccfb098	-0.025352761
44	0xbd4e0641	-0.050298933
45	0xbe85fa2c	-0.26167428
46	0xbf1cf141	-0.61305624
47	0x3d952b17	0.07283609
48	0xbe661298	-0.2246803
49	0xbd7c8097	-0.06164607
50	0xbeca452e	-0.39505905
51	0x3f04c068	0.5185609
52	0x3e65fa97	0.22458874
53	0x3c3f05db	0.011659111
54	0xbecd0843	-0.40045366
55	0x3d110cf8	0.03541276
56	0xbc85a58a	-0.016314287
57	0xbe1059a0	-0.14096689
58	0xbe20bcf6	-0.15697083
59	0xbdf97535	-0.121805586
60	0x3e6451a3	0.22296767
61	0x3e8e8e33	0.27842864
62	0x3c518c58	0.012789808
63	0xbdab3b5b	-0.083609305
64	0x3e14e969	0.14542164
65	0xbe82b32a	-0.25527316
66	0x3e7f45a7	0.24928914
67	0x3bc591d6	0.006029348
68	0x3e63f30c	0.22260684
69	0xbe8e60cf	-0.27808234
70	0xbec1f6af	-0.37883517
71	0xbea0cc1a	-0.31405717
72	0xbb987429	-0.0046525192
73	0x3eb0943f	0.34488103
74	0x3e3c6250	0.18396878
75	0xbe4c70b8	-0.19964874
76	0xbc6273fb	-0.013821597
77	0x3e057166	0.1303154
78	0xbd97e2a3	-0.074162744
79	0x3c515bfd	0.012778279
80	0x3e3b2b93	0.18278341
81	0x3e8388aa	0.25690204
82	0x3dd9c477	0.10633176
83	0xbe2def69	-0.16985859
84	0x3e48950e	0.1958811
85	0xbad83a1c	-0.001649681
86	0x3d26e10d	0.04074197
87	0x3cd7cab4	0.026341774
88	0x3e05c846	0.1306468
89	0xbda9c489	-0.08289439
90	0xbdea52ab	-0.11441549
91	0xbe4893da	-0.19587651
92	0xbe78e6b9	-0.24306764
93	0xbe085f50	-0.13317609
94	0x3cf224a7	0.029558493
95	0xbe74b659	-0.23897685
96	0xbb6567c1	-0.003500447
97	0xbe8ac0fa	-0.27100354
98	0xbe8326c3	-0.2561551
99	0xbd875f2f	-0.06609952
100	0xbdf16080	-0.11785984
101	0x3dfdcec1	0.12392951
102	0xbdd4b551	-0.10386146
103	0xbf0903f5	-0.5352166
104	0xbe746715	-0.23867448
105	0xbe18896d	-0.14896174
106	0xbed331f2	-0.41249043
107	0xbe9a5ba0	-0.3014803
108	0x3c93d923	0.018047875
109	0xbda66483	-0.0812464
110	0x3d5ee526	0.05441775
111	0x3e2148d8	0.15750444
112	0x3e815c3a	0.25265676
113	0xbea0b55c	-0.31388366
114	0x3dafdad1	0.08586658
115	0xbc78a0be	-0.015175043
116	0x3e1a5d95	0.15074761
117	0x3d8230ac	0.0635694
118	0x3eb4db55	0.35323587
119	0x3c304b7b	0.010760183
120	0x3ee92324	0.45534623
121	0x3df1bd70	0.118037105
122	0x3e54db07	0.20786677
123	0xbb425d43	-0.002965764
124	0x3eae1a52	0.34004456
125	0x3ed29277	0.4112737
126	0xbed83239	-0.42225817
127	0x3e6bae92	0.23015812
128	0x3dd4120c	0.10355005
129	0x3e7ee699	0.24892654
130	0x3e40ef9d	0.18841405
131	0x3eeb6b18	0.45980144
132	0xbddf0a8c	-0.108906835
133	0x3e08069b	0.1328377
134	0xbd23c532	-0.039982982
135	0xbe9b4d8b	-0.30332598
136	0x3c0d42a5	0.008621846
137	0x3f00fd3f	0.5038642
138	0xbe5409e7	-0.20706902
139	0xbbae441f	-0.0053181793
140	0xbe548925	-0.20755441
141	0xbe26a21e	-0.1627278
142	0x3e40d951	0.188329
143	0xbe602a2e	-0.2189109
144	0x3e0a99d9	0.1353525
145	0x3e8ac65e	0.27104467
146	0x3ddc59f2	0.10759343
147	0x3e505f14	0.2034877
148	0x3e9ed716	0.31023473
149	0xbe1391e8	-0.14411128
150	0x3f0001d9	0.5000282
151	0xbe848c22	-0.25888163
152	0xbe2b927a	-0.16755095
153	0x3ea26d46	0.31723994
154	0xbec79fb0	-0.3898902
155	0x3e900f9d	0.28136912
156	0x3d0092e6	0.031390093
157	0x3de59b00	0.112112045
158	0x3d9d38a1	0.07676817
159	0x3ae8591c	0.0017726752
160	0x3d4a2b3e	0.049357645
161	0x3e62a7b9	0.22134294
162	0xbda14f03	-0.078763984
163	0xbe9eed63	-0.31040487
164	0x3dd62a4b	0.104572855
165	0x3d756da0	0.059919
166	0xbea2e8c5	-0.31818214
167	0xbe9f5a39	-0.31123522
168	0xbde094ae	-0.109658584
169	0x3ce80b18	0.028325602
170	0xbedebde5	-0.43504253
171	0x3ec9143e	0.39273256
172	0x3e2a89fc	0.166542
173	0xbe46e957	-0.1942495
174	0xbeba8068	-0.3642609
175	0xbd2de2eb	-0.042452734
176	0xbdc2325b	-0.09482261
177	0xbe8f24ad	-0.2795767
178	0xbf0a9a19	-0.54141384
179	0xbceac40d	-0.028657937
180	0x3d8a6d3a	0.067591146
181	0xbdb6f8dc	-0.08934185
182	0x3e3f0a01	0.1865616
183	0x3eefa74e	0.4680733
184	0x3e041251	0.12897612
185	0x3ecf59d1	0.40498212
186	0xbe106e14	-0.14104491
187	0x3c3bfc99	0.011473798
188	0xbecc96eb	-0.3995889
189	0xbe1d68d8	-0.15372026
190	0x3e323b87	0.1740552
191	0x3cedb3f0	0.029016465
192	0x3e9d8813	0.3076788
193	0x3e92fedf	0.28710076
194	0xbeaebe77	-0.34129688
195	0xbe953be3	-0.29147252
196	0x3e0c8f8c	0.13726634
197	0xbea21047	-0.31653044
198	0x3ac27314	0.0014835321
199	0xbe65df14	-0.22448379
200	0x3e564764	0.20925671
201	0x3da306b4	0.07960263
202	0x3e96db8e	0.29464382
203	0xbe3b01fc	-0.18262476
204	0xbe5535a1	-0.20821239
205	0x3d3e3cd8	0.046444744
206	0xbd8a9b14	-0.0676786
207	0xbe10f44d	-0.14155693
208	0xbe1d6b59	-0.15372981
209	0x3d11e84c	0.035621926
210	0x3e6bee74	0.23040181
211	0xbcb8ef25	-0.02257497
212	0xbe7879d8	-0.2426523
213	0x3d9b5cbe	0.075860485
214	0xbe32d69c	-0.1746468
215	0xbd8e7eff	-0.06957816
216	0xbea0ca27	-0.3140423
217	0x3dbcfe64	0.09228209
218	0xbd7382fd	-0.059451092
219	0x3e5077af	0.20358156
220	0x3ddd74b4	0.10813275
221	0x3e98ec22	0.29867655
222	0xbd45a87d	-0.048256386
223	0x3b455f1f	0.003011651
224	0x3e81686a	0.25274974
225	0x3c9d2740	0.019183755
226	0x3b78fc8a	0.0037992322
227	0x3e4a2255	0.19739659
228	0xbe085aa6	-0.1331583
229	0x3e84a991	0.2591062
230	0x3e36f8cc	0.17868346
231	0x3eae8f95	0.3409392
232	0x3d0d5c23	0.034511697
233	0x395fad66	0.00021331533
234	0xbe65539d	-0.22395177
235	0xbe675f35	-0.22594912
236	0x3e7609bb	0.2402715
237	0xbe325989	-0.17416967
238	0x3d114778	0.03546855
239	0xbd8fd9a3	-0.07023933
240	0xbe375c02	-0.17906192
241	0xbe68f884	-0.22751051
242	0xbec01fb0	-0.37524176
243	0xbdd4f88d	-0.1039897
244	0x3dbff9b9	0.09373803
245	0xbe14545b	-0.14485304
246	0xbc345b7d	-0.011008141
247	0xbe172eb4	-0.1476391
248	0x3cff8a29	0.03119381
249	0xbe039539	-0.12849893
250	0xbeca9c67	-0.3957245
251	0x3e668208	0.2251054
252	0x3e787b53	0.24265794
253	0xbc22b61f	-0.009931116
254	0xbe8e81b7	-0.2783334
255	0xbebffa0c	-0.37495458

network_body._body_endoder.seq_layers.0.bias f4 [128]
0	0x3c736115	0.014854689
1	0xbc0a85fa	-0.008454794
2	0xbce00669	-0.027346807
3	0x3c0739a4	0.008253489
4	0x3b3cfe57	0.0028838122
5	0x3bb77557	0.005598705
6	0xbc094d1d	-0.008380202
7	0x3cc33d30	0.023832887
8	0x3cb2434c	0.021760605
9	0xbba3e44a	-0.0050015794
10	0xbca0187d	-0.019542927
11	0x3c0a9e11	0.0084605375
12	0x3c131eb5	0.008979489
13	0xbb94ed2e	-0.0045448756
14	0xbc76322f	-0.015026613
15	0x3ce6ff9b	0.028198054
16	0x3c2802a1	0.010254533
17	0xbbe11134	-0.006868506
18	0x3dcd2916	0.10017602
19	0xbab5ed81	-0.0013879986
20	0xbc9c335b	-0.019067457
21	0xbc867391	-0.016412528
22	0xbb3baa61	-0.002863549
23	0xbbfe07d3	-0.0077523976
24	0xbce7d500	-0.028299809
25	0x3cc211a9	0.023690062
26	0xbbab77c0	-0.005232781
27	0x3ae7fe72	0.0017699732
28	0xbb09b132	-0.0021010158
29	0xb986c29a	-0.0002570346
30	0x3cf39c64	0.029737659
31	0xbcb1597b	-0.021649113
32	0xbcebd049	-0.028785842
33	0x3bbb7a8f	0.005721397
34	0x3c74c6be	0.014939962
35	0xba92c1f6	-0.0011196721
36	0x3c4157da	0.011800731
37	0x3d7fed53	0.06248219
38	0x3c279c44	0.010230128
39	0x3cfdbf75	0.030975083
40	0x3d48e7e0	0.04904926
41	0x3d30fdfa	0.04321096
42	0x3d01f05d	0.03172337
43	0xbc9e9308	-0.01935722
44	0xbc625d46	-0.013816183
45	0x3be572b7	0.0070022005
46	0x3d01d228	0.03169456
47	0x3d15d95d	0.036584247
48	0xbc3bf172	-0.011471139
49	0x3b9837da	0.00464533
50	0x3cbcfe23	0.0230704
51	0x3c45451a	0.012040401
52	0xb9a81f87	-0.00032066947
53	0xbc236096	-0.009971758
54	0x3cd6a1c5	0.026200185
55	0x3be4841a	0.0069737555
56	0x3cd9338a	0.026513834
57	0x3ad71237	0.0016408627
58	0xbb1f677f	-0.0024323163
59	0x3bc9d3ca	0.0061592804
60	0xbbbb435e	-0.005714818
61	0x3b801b49	0.0039095026
62	0x3ba11aaa	0.0049165087
63	0xbb47de84	-0.003049762
64	0x3bcef05f	0.0063152756
65	0x3bf269ca	0.007397865
66	0xbb24f1dc	-0.0025168573
67	0xbc78e353	-0.015190917
68	0xbb9a8f6b	-0.004716804
69	0x3c9a9194	0.018868245
70	0x3c9de311	0.019273313
71	0x3d3c7e5f	0.046018954
72	0x3ce51012	0.027961764
73	0x3c193c36	0.009352734
74	0x3d6f317a	0.058396794
75	0xbb09d5a4	-0.002103188
76	0x3c1d8a0d	0.009615433
77	0xbc41e010	-0.011833206
78	0xbc8693dd	-0.016427929
79	0x3c1ac110	0.009445444
80	0xbc737237	-0.014858774
81	0x3caa2fff	0.02077484
82	0xbc0a0f66	-0.008426523
83	0x3c44fa1e	0.012022523
84	0x3c691951	0.014227227
85	0xbc7ae77f	-0.015313982
86	0xbcb1950c	-0.021677516
87	0x3d48cf9e	0.049026124
88	0xbc7cef42	-0.015437903
89	0x3b91f0b8	0.0044537447
90	0x3ac85034	0.0015282691
91	0xbbf357f3	-0.007426256
92	0xbcba3801	-0.022731783
93	0x3caf0458	0.021364376
94	0x3cf853de	0.030313428
95	0xb98646f6	-0.00025611342
96	0x3c35e20c	0.011101257
97	0x3cb0737e	0.021539446
98	0x3c6b24bb	0.014352019
99	0x3bf41563	0.0074488386
100	0xbb0e79b5	-0.0021740024
101	0xbc9d492b	-0.019199928
102	0x3cc1a807	0.023639692
103	0x3a703782	0.0009163545
104	0x38b9c8d2	8.858893e-05
105	0x3d365b07	0.044520404
106	0xbb8b4b44	-0.0042509157
107	0xbc397972	-0.011320459
108	0xbb90789e	-0.00440891
109	0x3d274166	0.040833853
110	0xbcc595df	-0.024119316
111	0x3b897434	0.0041947607
112	0x3ca2d5c3	0.01987732
113	0x3c577e60	0.013152689
114	0xbba11dfb	-0.004916904
115	0x3d83a89f	0.06428646
116	0x3ce20640	0.02759087
117	0x3c568f11	0.013095633
118	0xbd1b68d9	-0.037941787
119	0x3c2ae8e6	0.010431504
120	0x3c249719	0.01004579
121	0xbd02a406	-0.031894706
122	0x3c9face1	0.019491615
123	0xb9dc4f3e	-0.0004202071
124	0xbc635c51	-0.01387699
125	0xbb061952	-0.002046187
126	0x3caeb34a	0.021325726
127	0x3b4726fe	0.0030388231

network_body._body_endoder.seq_layers.2.weight f4 [128, 128]
0	0xbb9e59cd	-0.0048324824
1	0x3e051254	0.12995273
2	0x3d805db4	0.062678725
3	0xbd8b46cf	-0.06800615
4	0x3dfb0855	0.122574486
5	0x3e0a4e1e	0.13506362
6	0xbda01894	-0.07817188
7	0xbe12a6eb	-0.14321487
8	0x3ccec641	0.02524102
9	0xbd1aba00	-0.03777504
10	0xbe37e449	-0.17958178
11	0x3d75532f	0.059893783
12	0x3de0f87e	0.10984896
13	0x3dac5af6	0.08415787
14	0xbd0b5868	-0.034019858
15	0x3c928b2f	0.017888634
16	0x3e0b23b3	0.13587837
17	0x3cce79cd	0.025204564
18	0x3cd37dc7	0.025816811
19	0x3d8be47e	0.06830691
20	0xbd29d20c	-0.041460082
21	0xbdda32da	-0.106542304
22	0xbd38e66d	-0.045141626
23	0x3d1d16f5	0.03835197
24	0x3da309c1	0.07960845
25	0x3c0db86d	0.008649928
26	0xbd57b416	-0.052661978
27	0x3d06e78c	0.032935664
28	0xbcbe3440	-0.023218274
29	0x3d61f14f	0.05516177
30	0x3d9c651c	0.076364726
31	0x3e0acbe6	0.13554344
32	0xbdf9e4a0	-0.1220181
33	0xbdad61ff	-0.08465957
34	0x3d53782b	0.051628273
35	0xbcbbd88d	-0.022930408
36	0xbcedb31d	-0.029016072
37	0x3d3b3ab3	0.045710277
38	0x3d1ad126	0.037797116
39	0x3da8db01	0.08244897
40	0xbcef2d9a	-0.02919655
41	0xbca2c4cf	-0.019869236
42	0xbc5a6ca1	-0.013331563
43	0xbd0667b9	-0.03281376
44	0x3d422500	0.047398567
45	0x3e1244d0	0.14284062
46	0xbd662867	-0.056190874
47	0xbde758fa	-0.11296268
48	0x3e252efe	0.16131207
49	0x3be9fe50	0.007140912
50	0xbda3b12d	-0.07992778
51	0xbd971bad	-0.073783256
52	0x3d3130eb	0.043259542
53	0x3de9c443	0.11414387
54	0x3d0cb49a	0.034351923
55	0x3e2386eb	0.15969436
56	0x3e192973	0.14957218
57	0x3df2af3b	0.11849829
58	0xbd3fbe90	-0.046812594
59	0x3d76fa7e	0.06029748
60	0x3e2486dc	0.1606707
61	0xbe1fa77e	-0.15591237
62	0x3dbf5581	0.093424805
63	0xbe6af901	-0.2294655
64	0xbd4ca171	-0.04995865
65	0x3db980a8	0.09057742
66	0xbdab3c11	-0.08361066
67	0xbd14d6b8	-0.036337584
68	0xbdf76623	-0.12080028
69	0xbcd40e49	-0.025885718
70	0xbd296415	-0.04135521
71	0xbc69464c	-0.0142379515
72	0x3d67b9aa	0.056573547
73	0x3da1e97b	0.07905861
74	0x3d9e0f2d	0.07717738
75	0xbc91e102	-0.017807487
76	0xbcfcf934	-0.030880548
77	0x3e887f82	0.2665978
78	0x3daab30e	0.08334933
79	0x3e37eb2a	0.17960802
80	0xbde2544d	-0.11051235
81	0x3b599052	0.0033197594
82	0xbde130fc	-0.10995671
83	0x3da3ba81	0.07994557
84	0xbd6052bd	-0.054766405
85	0xbd5146a4	-0.05109276
86	0x3d9af861	0.07566906
87	0xbe0ff25e	-0.140573
88	0x3d47e171	0.048798982
89	0xbd917528	-0.07102424
90	0xbe01f5d3	-0.12691431
91	0x3e8c11aa	0.27357227
92	0xbdb7f183	-0.089816116
93	0x3c2377e7	0.009977317
94	0x3da2e07c	0.07952973
95	0x3c405902	0.011739971
96	0xbde3a758	-0.11115903
97	0xba9800c9	-0.0011596914
98	0xbccef422	-0.025262896
99	0x3d430f74	0.04762216
100	0x3d789bf6	0.06069561
101	0xbe0bda21	-0.13657428
102	0x3d0cf589	0.034413848
103	0xbda30363	-0.0795963
104	0xbb9f1934	-0.0048552994
105	0x3ca50c93	0.020147597
106	0xbdce3470	-0.100685954
107	0x3cbee555	0.023302713
108	0x3ddaa60d	0.10676203
109	0x3d38ff3e	0.045165293
110	0xbde9e87d	-0.11421297
111	0xbc6ecb33	-0.014574814
112	0xbdb48772	-0.08814897
113	0xbd89c6e3	-0.06727388
114	0x3dde4744	0.108534366
115	0xbccc0cdb	-0.024908474
116	0xbd5a4306	-0.053286575
117	0x3d948564	0.07252005
118	0x3b23bcdd	0.0024984397
119	0x3cd84940	0.026402116
120	0xbda81c3b	-0.082085095
121	0x3e0feac5	0.14054401
122	0x3b24dc65	0.002515578
123	0x3d8be011	0.06829847
124	0xbc9b67a6	-0.018970322
125	0xbbb93082	-0.0056515345
126	0xbc269cc1	-0.010169209
127	0xbc964718	-0.018344447
128	0x3d9f52b7	0.077794485
129	0xbd5527da	-0.05203996
130	0x3c9ce1a3	0.01915056
131	0x3e0e464e	0.13894007
132	0x3c01d5b5	0.007924487
133	0x3c08c103	0.008346799
134	0x3bc841e1	0.006111369
135	0x3dc2889f	0.09498715
136	0xbe25749e	-0.16157767
137	0x3c4b920f	0.01242496
138	0xbce1792e	-0.027523603
139	0xbd557dbe	-0.05212187
140	0x3db3e8d4	0.08784643
141	0x3d1f7333	0.038928222
142	0x3c4c8651	0.012483195
143	0x3db55879	0.088547654
144	0xbd6a6d05	-0.057232875
145	0x3d282616	0.041051947
146	0xbd96628a	-0.073430136
147	0xbcafda93	-0.021466529
148	0xbdd169f1	-0.10225285
149	0x3c38f746	0.011289423
150	0x3e55b2d9	0.20869006
151	0xbd4eea0f	-0.050516184
152	0xbc6d7b8f	-0.014494791
153	0xbe285a11	-0.16440608
154	0x3dd0da93	0.1019794
155	0xbd79072b	-0.06079785
156	0xbdb7e80c	-0.08979806
157	0x3daa90a6	0.08328371
158	0xbe2f88ec	-0.17142075
159	0xbcfbcc47	-0.030737055
160	0x3d718cd9	0.058972213
161	0x3ddac463	0.10681989
162	0xbcc509d1	-0.024052532
163	0xbdbf7a73	-0.09349527
164	0xbc8c388c	-0.017116807
165	0x3d4082a7	0.0469996
166	0x3d26872a	0.040656246
167	0x3dad4d68	0.0846203
168	0x3d7016e1	0.05861557
169	0xbe63e164	-0.22253948
170	0xbd9cb495	-0.07651631
171	0x3deb8d4b	0.11501559
172	0x3dbae2fd	0.09125326
173	0xbe60332e	-0.21894524
174	0x3d6232f0	0.05522436
175	0x3dab1d64	0.08355215
176	0xbe30ff45	-0.17284878
177	0xbe054831	-0.1301582
178	0x3d92b2b5	0.07162992
179	0x3e1a9716	0.15096697
180	0x3c859474	0.01630614
181	0xbc9b0741	-0.018924357
182	0x3d37c483	0.044865143
183	0x3d9e138b	0.07718571
184	0x3db3a891	0.08772386
185	0x3d3bfaa0	0.04589331
186	0xbcb63df3	-0.022246337
187	0xbd38d563	-0.045125376
188	0xbdf5f0f3	-0.12008848
189	0x3e06480e	0.13113424
190	0x3d895967	0.06706505
191	0x3e0175be	0.12642571
192	0xbd5fee54	-0.054670647
193	0xbd45bedd	-0.048277725
194	0xbbe178f0	-0.006880872
195	0xbd7daaf2	-0.061930604
196	0xbd64c186	-0.05584862
197	0xbd06e227	-0.03293052
198	0x3da3067d	0.07960222
199	0x3e08ff16	0.13378558
200	0xbd4e7646	-0.050405763
201	0x3dfff9ee	0.12498842
202	0xbd9f60c6	-0.0778213
203	0xbd52bb39	-0.05144808
204	0xbd05209a	-0.032501794
205	0xbcad9ab3	-0.02119193
206	0x3c9b8356	0.018983524
207	0xbcbb1f73	-0.022842145
208	0xbda49db6	-0.080378935
209	0x3e27b261	0.1637664
210	0x3c045420	0.008076698
211	0xbd071692	-0.03298051
212	0xbdc90eaa	-0.0981725
213	0x3d7c0097	0.061524
214	0x3cda1d2b	0.026625236
215	0xbc77f237	-0.015133432
216	0xbdb26cc8	-0.087121546
217	0xbaedf524	-0.0018154723
218	0x3e49cff5	0.19708236
219	0xbd03465e	-0.03204953
220	0xbdb1201c	-0.086487025
221	0x3d0e5f2e	0.03475874
222	0x3e617017	0.22015415
223	0x3c8c8553	0.017153418
224	0x3d69bcd0	0.05706483
225	0x3e124b96	0.14286646
226	0xbb9cea4e	-0.0047886735
227	0xbc49e2c6	-0.012322133
228	0xbde4d200	-0.11172867
229	0xbd24e838	-0.040260524
230	0xbc8cf764	-0.017207809
231	0xbc13a249	-0.00901086
232	0xbcb638c0	-0.022243857
233	0xbd867778	-0.065657556
234	0x3d4b4ca4	0.049633637
235	0x3dc461a5	0.09588937
236	0x3bc0f4f4	0.0058885757
237	0x3c9c2ca8	0.019064263
238	0x3d9d8189	0.076907225
239	0xbd18bd52	-0.037289925
240	0x3d1ca616	0.03824433
241	0x3d0746da	0.033026554
242	0x3d25477d	0.04035138
243	0xbcb22da2	-0.021750275
244	0x3db8e978	0.09028906
245	0xbdfdd9f2	-0.123950854
246	0xbc43d10d	-0.011951697
247	0xbdf0deb2	-0.11761226
248	0xbce8b739	-0.02840768
249	0x3da21dc4	0.079158336
250	0xbd96f8be	-0.073716626
251	0x3d4b7f79	0.049682114
252	0x3ce834c1	0.028345468
253	0xbc91b875	-0.017788151
254	0x3e516777	0.20449625
255	0xbb875329	-0.0041297865

network_body._body_endoder.seq_layers.2.bias f4 [128]
0	0xbb9274c9	-0.0044694883
1	0xbc17641c	-0.0092401765
2	0x3d840c18	0.06447619
3	0xbc5593dc	-0.013035741
4	0x3c7a83ef	0.0152902445
5	0x3ce43283	0.027856117
6	0x3ce7f1c3	0.028313523
7	0x3c373e6a	0.011184314
8	0x3d324bd8	0.04352936
9	0xbb994810	-0.00467778
10	0x3d5651c3	0.052324068
11	0x3af7f4e1	0.0018917584
12	0xbb3bcd53	-0.0028656318
13	0x3d2916a1	0.041281346
14	0x3bdc16fe	0.006716608
15	0xbcb98bde	-0.022649702
16	0xbd0f439b	-0.034976583
17	0x3b6015e1	0.0034192728
18	0x3c839cb9	0.016065942
19	0x3c3743b1	0.0111855725
20	0x3cff5cac	0.03117212
21	0x3c4b36a8	0.012403168
22	0x39657339	0.00021882066
23	0xbc944f8b	-0.018104335
24	0xba6694d4	-0.0008795981
25	0x3d89ca7b	0.06728073
26	0x3bc382e2	0.00596653
27	0x3cb43b08	0.022000805
28	0x3c82b600	0.015955925
29	0x3ac190f6	0.0014767933
30	0x3c0634fb	0.008191342
31	0x3bf3798c	0.007430261
32	0x3c638826	0.013887441
33	0x3d3a1d25	0.04543795
34	0xbc538682	-0.012910487
35	0x3bed2778	0.007237371
36	0xbc8441b0	-0.016144603
37	0x3c59da44	0.0132966675
38	0xbc0d9332	-0.008641051
39	0x3b79430b	0.0038034345
40	0x3b1377ec	0.00225019
41	0xbccadd3d	-0.024763698
42	0x3b904e0a	0.004403834
43	0x3b06976d	0.0020537034
44	0xb9afd19b	-0.0003353477
45	0xbb6376f5	-0.0034708355
46	0x3b4ae75f	0.0030960662
47	0xbc976013	-0.018478429
48	0xbc31c22a	-0.010849515
49	0xbb315b49	-0.0027062467
50	0x3b310b9e	0.002701498
51	0xbb97270d	-0.0046128095
52	0x3bf64ae5	0.0075162523
53	0x3aa0a857	0.00122572
54	0xbd1d264d	-0.038366605
55	0x3ba6f0ce	0.005094624
56	0xbc09d36f	-0.008412226
57	0x3a6422e5	0.00087027095
58	0x3c4cadbc	0.012492593
59	0xbc33a959	-0.010965669
60	0xbc9c1139	-0.019051181
61	0xbbf4f863	-0.007475899
62	0xbc029628	-0.00797037
63	0xbc8b9939	-0.017040836
64	0x3b7b7b95	0.0038373221
65	0x3cbc02cd	0.022950554
66	0xba3363de	-0.00068431895
67	0x3c2cc649	0.010545322
68	0xbced62f8	-0.028977856
69	0x3bd3665f	0.0064514126
70	0xbbe99c36	-0.0071292175
71	0xbb42aeef	-0.002970632
72	0xbc8ee424	-0.01744277
73	0x3c97f6bc	0.01855027
74	0x3950c194	0.00019908539
75	0x3d3661ed	0.044526983
76	0x3a375169	0.0006993027
77	0xbaedf1e1	-0.001815375
78	0x3c09c43d	0.008408603
79	0x3bd4992b	0.0064879856
80	0xbc92318a	-0.017845888
81	0x3b93421f	0.0044939662
82	0xbbd8953b	-0.0066095865
83	0x399abcbd	0.0002951379
84	0xbce8ff5c	-0.028442077
85	0x3c057fc7	0.00814814
86	0xbc4d1460	-0.012517065
87	0x3bce5618	0.0062968843
88	0xbc6e9be2	-0.014563533
89	0x3bb5b932	0.0055457586
90	0x3b0091d5	0.0019618173
91	0x3b4ac587	0.003094049
92	0x3c5ba1a0	0.013405234
93	0xbb880f7b	-0.004152236
94	0xbcc8fc11	-0.024534257
95	0xbb946573	-0.0045286953
96	0xbc5dc286	-0.0135351475
97	0x3b198b96	0.0023429147
98	0x3c70a1ac	0.014686983
99	0x3c30d5ca	0.010793159
100	0x3b18319a	0.0023222924
101	0x3ce73475	0.028223256
102	0xbbad88f7	-0.0052958685
103	0x3bd17f97	0.0063933837
104	0xbbe3ff02	-0.0069578895
105	0xbcc9fb84	-0.024656065
106	0x398bd3c3	0.0002666992
107	0x3b8853b9	0.004160371
108	0xbc1be2d2	-0.009514527
109	0xbca389ae	-0.019963112
110	0xbc6b8793	-0.014375585
111	0x3ccbe402	0.024888996
112	0x3b39d422	0.00283552
113	0x3994d517	0.00028387524
114	0xba2d847f	-0.000661917
115	0x3c1835d0	0.009290174
116	0xbc18988f	-0.009313717
117	0x3c7e892c	0.015535634
118	0x3d61c32f	0.055117782
119	0xbc3c1a14	-0.011480827
120	0x3ba9438e	0.005165524
121	0xbc350590	-0.0110486895
122	0xbbff93d6	-0.007799606
123	0x3cb4c2aa	0.02206548
124	0x3bf9108b	0.007600849
125	0x393b5bf7	0.0001786797
126	0x3aab1c33	0.0013054669
127	0x3c81e3c8	0.015855685

action_model._continuous_distribution.log_sigma f4 [1, 2]
0	0x3d58d2eb	0.052935522
1	0x3c3f0417	0.01165869

action_model._continuous_distribution.mu.weight f4 [2, 128]
0	0x3b615e25	0.003438839
1	0x3c61fe29	0.013793507
2	0xbd4d4445	-0.050113935
3	0xb96eb2ee	-0.00022764105
4	0x3d26744b	0.04063825
5	0xbd0b5757	-0.03401884
6	0xbcfa7826	-0.03057487
7	0xbccab310	-0.024743587
8	0xbcabae89	-0.020957248
9	0x3ccf36cc	0.025294684
10	0xbd1b7156	-0.037949882
11	0xbb132a82	-0.0022455757
12	0x3b9086d4	0.004410604
13	0xbcf06baa	-0.029348213
14	0xbbcd5c7c	-0.0062671285
15	0x3ca1abe7	0.01973529
16	0x3cabc2af	0.020966856
17	0x3c493409	0.012280473
18	0xbcea908f	-0.028633384
19	0x3c7324ac	0.014840286
20	0xbd3faad7	-0.046793785
21	0xbc88850a	-0.016665
22	0xbcc51be3	-0.024061149
23	0x3c06dec4	0.008231822
24	0xbc012a19	-0.007883572
25	0xbd3e4b3e	-0.046458475
26	0x3b214e93	0.0024613484
27	0xbd2ee897	-0.042702284
28	0xbced4d1c	-0.028967433
29	0xbc0ebef2	-0.008712517
30	0xbd015a96	-0.03158053
31	0xbc9487ee	-0.018131223
32	0xbced3d82	-0.028959993
33	0xbd1203c9	-0.03564814
34	0x3c95be8d	0.018279338
35	0xbc7fbc7c	-0.015608903
36	0x3d7bca16	0.06147202
37	0xbd14a4f5	-0.036290128
38	0x3cb6bfce	0.022308256
39	0xbc8ff066	-0.017570686
40	0xbc734759	-0.014848554
41	0x3d1db5f8	0.038503617
42	0xbb7d9a94	-0.0038696872
43	0xbc8c06d2	-0.017093096
44	0x3aed712e	0.0018115395
45	0x3aba3f8e	0.0014209615
46	0xbb14359a	-0.0022614957
47	0x3c2f9940	0.01071769
48	0x3c10a3df	0.008828132
49	0x3a93a2af	0.0011263693
50	0xbbf52014	-0.0074806307
51	0x3cde59e0	0.027142465
52	0xbc9e6ce8	-0.01933904
53	0xbb32f5e9	-0.0027307218
54	0x3c8b6016	0.01701359
55	0xbba08e9b	-0.0048998124
56	0x3c8e73c6	0.01738919
57	0x3bf70f8d	0.0075396956
58	0xbc132109	-0.008980044
59	0x3d2fec27	0.04294982
60	0x3b69855e	0.0035632472
61	0x3b34e2e7	0.0027601065
62	0x3c6bea3f	0.01439911
63	0x3cadb99c	0.02120667
64	0xbb23f310	-0.0025016703
65	0xbcd31c0d	-0.025770212
66	0x3b81864a	0.003952776
67	0xbc5bc6f5	-0.013414134
68	0x3d7ac22a	0.061220326
69	0xbb332507	-0.0027335302
70	0x3c37a558	0.011208855
71	0x3c81ebdf	0.015859542
72	0x3c31d062	0.010852905
73	0xbc75d702	-0.015004875
74	0xbb9773e8	-0.0046219714
75	0xbd6e99ff	-0.05825233
76	0xbc21cf72	-0.009876119
77	0xba0b83a4	-0.0005322045
78	0xbc685f2b	-0.014182846
79	0xbc7115cf	-0.014714672
80	0x3ce681c8	0.028138056
81	0xbc3b6c23	-0.011439356
82	0x3cf51cdc	0.029920988
83	0x3a35e9c1	0.0006939434
84	0x3d06bb90	0.032893717
85	0xbc03203e	-0.008003293
86	0x3c8670b4	0.016411163
87	0xbc350a3c	-0.011049803
88	0x3c736d5a	0.014857614
89	0xbb1f654c	-0.0024321852
90	0xbc7ef5e7	-0.015561557
91	0xbb182a01	-0.0023218396
92	0xbc9730d3	-0.018455898
93	0x3bb5fcd7	0.0055538225
94	0x3cfd39f3	0.030911421
95	0x3c9596dc	0.018260412
96	0x3d176dd8	0.03696999
97	0x3b5625f5	0.0032676433
98	0xbc564f24	-0.013080392
99	0xbc35ea6f	-0.011103257
100	0x3c04b8d0	0.008100703
101	0xbd26bf4f	-0.04070979
102	0x3c1b744f	0.009488179
103	0xbbd5e33b	-0.006527332
104	0xbbc2f0cd	-0.005949116
105	0x3c8e6de2	0.01738638
106	0x3c0914b0	0.008366749
107	0x3b2c8717	0.0026325637
108	0x3c04b9e2	0.008100959
109	0x3c881621	0.016612114
110	0x3b94b0f2	0.004537695
111	0xbc88ac9c	-0.016683869
112	0xba82164f	-0.0009924861
113	0xbc5c39cb	-0.013441513
114	0xbc53febe	-0.012939153
115	0xbc2bb5d3	-0.010480362
116	0x3ccd4509	0.025057333
117	0xbd1ae1d0	-0.037813008
118	0xbd4b8a30	-0.049692333
119	0x3cf4d70a	0.029887695
120	0x397adab9	0.00023923338
121	0x3cb1404b	0.021637103
122	0x3a833d50	0.0010012779
123	0xbbc18cc9	-0.0059066755
124	0xbc4114aa	-0.011784712
125	0xbb47609a	-0.003042257
126	0xbbf25ca2	-0.0073962966
127	0xbc6858c2	-0.014181318
128	0xbc4ae371	-0.012383328
129	0x3b81ef61	0.003965304
130	0xbd5d0916	-0.053963743
131	0xbbe76fc1	-0.0070628827
132	0x3d7fa05e	0.062408797
133	0xba936907	-0.001124651
134	0xbd2c15ee	-0.0420131
135	0xbd5f9cfa	-0.054593064
136	0xbc15932d	-0.009129328
137	0x3c5b7a0b	0.0133957965
138	0xbd3b3d9e	-0.04571306
139	0x3c633ada	0.013869012
140	0x3b844337	0.004036333
141	0xbc0e75e1	-0.008695097
142	0x3c1c9021	0.009555847
143	0x3c3f6854	0.011682589
144	0x3c320d21	0.010867388
145	0x3d3fa022	0.046783574
146	0xba9e5929	-0.0012081015
147	0x3d8d2d7c	0.06893441
148	0xbd1609a5	-0.03663029
149	0x3badbc84	0.005302014
150	0xbd11042b	-0.035404366
151	0xbcd07abb	-0.025449147
152	0xbcf53c4f	-0.029935984
153	0xbd58f994	-0.05297239
154	0x3cff2048	0.031143323
155	0x3a4e0e2e	0.00078603893
156	0x3bb8f9e5	0.005645024
157	0xbbddd065	-0.0067692273
158	0xbb5ecef1	-0.0033997858
159	0xbc21b677	-0.009870163
160	0x3b6a759b	0.0035775665
161	0xbd8afe76	-0.06786816
162	0xbc2ba3f0	-0.010476097
163	0xbcdcbb81	-0.026944878
164	0x3cc689a8	0.024235561
165	0x3b1d7c40	0.0024030358
166	0xbc9e4823	-0.019321507
167	0xbcb03260	-0.021508396
168	0xbc980fa5	-0.018562147
169	0x3c3c89e9	0.01150749
170	0xbbf90b65	-0.0076002353
171	0xbc56ef36	-0.013118556
172	0xbc9cfb63	-0.01916284
173	0xbb2cb0ae	-0.0026350426
174	0xbc5f25c2	-0.013619842
175	0xbc820647	-0.015872134
176	0x3b33295d	0.0027337887
177	0xbcabad90	-0.020956784
178	0xbcacfa19	-0.02111535
179	0x3d2b8f73	0.04188485
180	0x3a9bfd70	0.0011901092
181	0x3d1611bd	0.03663801
182	0x3c023be8	0.007948853
183	0x3bc8a63c	0.0061233323
184	0x3a327a42	0.0006808379
185	0x3cc8dba1	0.02451879
186	0xbc711618	-0.01471474
187	0x3c9b4263	0.018952554
188	0xbb913776	-0.0044316603
189	0x3b5ba82b	0.0033516984
190	0xbc1a9508	-0.009434946
191	0xbb84eb51	-0.004056372
192	0xbbd35927	-0.006449837
193	0x3c93b0ad	0.018028582
194	0x3baadbb9	0.0052141813
195	0x3a8dd61f	0.0010821259
196	0xbc0e5035	-0.008686115
197	0x3b20381c	0.0024447506
198	0xbbf7af48	-0.007558737
199	0xbcf612e4	-0.030038305
200	0xbb4151f5	-0.0029498313
201	0xbc2a984f	-0.01041229
202	0xbcc67981	-0.02422786
203	0xbd11cdc7	-0.035596635
204	0xbce3663b	-0.027758708
205	0xbcc6d6c5	-0.024272332
206	0x3c1f0c15	0.00970747
207	0x3c5c8e7b	0.013461704
208	0x3c492274	0.012276281
209	0xbc89d7ab	-0.016826471
210	0xbd4c0d9d	-0.04981767
211	0x3c5fedd2	0.013667541
212	0xbbe740dc	-0.0070572924
213	0x3b76677c	0.0037598303
214	0x3cb6b7fe	0.022304531
215	0x3c3bc3c4	0.011460248
216	0x3c964211	0.01834205
217	0xba8763e6	-0.0010329455
218	0xbcd086d3	-0.025454914
219	0xbc3c3ead	-0.011489552
220	0x3c37410b	0.011184941
221	0xbc629d9d	-0.013831523
222	0xbbced8bc	-0.006312458
223	0x3c2d06d9	0.010560715
224	0x3b4020e0	0.002931647
225	0x3d0a3904	0.03374578
226	0x39597569	0.00020738471
227	0x3d2d8c19	0.042369936
228	0x3c9f4a59	0.019444631
229	0xbbf36d1e	-0.0074287793
230	0xbc80b260	-0.015710056
231	0xbb972c03	-0.004613401
232	0xbcc83e1a	-0.024443675
233	0xb91bfe80	-0.0001487676
234	0x3d030088	0.03198293
235	0x3c51a33a	0.012795264
236	0xba762d87	-0.00093909394
237	0x3c522e45	0.012828414
238	0xba5b3517	-0.0008362098
239	0x3c90f6f8	0.017695889
240	0xbc59d46b	-0.013295273
241	0xbca6badd	-0.020352775
242	0xbcd81965	-0.026379297
243	0x3c122d66	0.008921957
244	0xbd15abb7	-0.036540713
245	0xba03da9b	-0.0005029828
246	0xbcaaecfe	-0.02086496
247	0xbb31e234	-0.0027142884
248	0xbc932bbb	-0.017965188
249	0xbd23c24e	-0.039980225
250	0xba8088ee	-0.0009806433
251	0x3c72eb61	0.0148266265
252	0x3be1f7c1	0.0068959896
253	0x3c841aa3	0.016125983
254	0xbc644f11	-0.0139348665
255	0x3cc9e8b6	0.024647098

action_model._continuous_distribution.mu.bias f4 [2]
0	0xbc83477d	-0.0160253
1	0x389464b0	7.0759444e-05

action_model._discrete_distribution.branches.0.weight f4 [1, 128]
0	0x3b71340f	0.003680471
1	0xbbcb7cfd	-0.006209968
2	0x3c9e9a01	0.019360544
3	0x3a987061	0.0011630171
4	0x3ae156bb	0.0017191985
5	0x3aad1013	0.0013203643
6	0xbb0430aa	-0.0020170608
7	0x3c3b010d	0.011413825
8	0xbc0a22b3	-0.0084311245
9	0x3c9b238d	0.01893785
10	0xbc2508b3	-0.010072875
11	0xbb9c7cb9	-0.0047756103
12	0x3c2bef1e	0.010494022
13	0x3be5ee3f	0.0070169265
14	0xbc155f4e	-0.009116961
15	0xbbcd5e67	-0.006267357
16	0xbb9f974b	-0.0048703304
17	0xbca8a359	-0.020585703
18	0xbc4baa33	-0.012430715
19	0x3c690bb7	0.014223984
20	0xbb8986dd	-0.004196985
21	0xbc00af3d	-0.00785428
22	0x3c4d7c6d	0.012541872
23	0x3bfb0745	0.0076607787
24	0x3b5fd700	0.003415525
25	0x3b225aa4	0.0024773264
26	0x3c809fff	0.015701292
27	0x3b895ed7	0.004192214
28	0xbb973655	-0.004614631
29	0x3ced0397	0.028932376
30	0xbc220461	-0.009888739
31	0x3b0dc75d	0.0021633722
32	0x3c341bae	0.0109929275
33	0x3b8b1216	0.0042440994
34	0x3ba150b5	0.004922951
35	0xbc1112be	-0.008854566
36	0xbaa00d96	-0.001221108
37	0x3c48a694	0.012246747
38	0xbc00c34e	-0.007859064
39	0x3c4cbafb	0.0124957515
40	0xbc3c6c6b	-0.011500458
41	0xbc73b095	-0.014873643
42	0xbb4ea70f	-0.003153268
43	0xbbbec16f	-0.005821399
44	0xbc89d089	-0.01682307
45	0xbc24a9bb	-0.0100502325
46	0xbc32f737	-0.010923198
47	0x3c626a5d	0.013819304
48	0x3ad37620	0.0016133226
49	0x3b739e62	0.003717326
50	0x3b50d98a	0.0031867945
51	0xbbfb35dd	-0.007666333
52	0x3b9bd44d	0.004755533
53	0x3b15622c	0.002279411
54	0xba99d746	-0.001173713
55	0xbc60ec40	-0.013728201
56	0x3b80e31d	0.003933324
57	0xbb3dc73f	-0.0028957871
58	0xbb19a217	-0.002344256
59	0x3b2cc7d3	0.0026364222
60	0x3b9d9587	0.004809085
61	0xbc212027	-0.009834326
62	0xbbfc66f0	-0.007702701
63	0x3be6f57d	0.0070483075
64	0x3c1799c0	0.009252965
65	0xbc58a0ea	-0.013221959
66	0xbbea61fd	-0.0071527944
67	0xbb23b778	-0.0024981182
68	0x3c0480ef	0.008087381
69	0x3c15cc2e	0.0091429185
70	0xbb0c45ef	-0.0021403988
71	0x3b853f41	0.0040663783
72	0xbb189747	-0.0023283528
73	0x3c097146	0.008388823
74	0xbbdfe4f7	-0.0068327147
75	0x3c2a07ee	0.010377867
76	0xbb88d892	-0.004176208
77	0x3c4dae90	0.012553826
78	0xbb403e7b	-0.0029334116
79	0xbc7041c0	-0.0146641135
80	0x3c8579cd	0.01629343
81	0x3aaaafbd	0.0013022345
82	0x3af71755	0.0018851558
83	0xbb8290f4	-0.003984565
84	0x3cc225a4	0.02369959
85	0xbbc12000	-0.0058937073
86	0xbb24d1e8	-0.0025149528
87	0x3ca7ba73	0.020474648
88	0xbc2b2a27	-0.010447062
89	0xbb683ed0	-0.003543783
90	0x3b93b7cb	0.004507994
91	0x3b24cc80	0.0025146306
92	0x3c5395e3	0.012914154
93	0xbb898da6	-0.004197794
94	0x3bfe96b8	0.007769432
95	0x3c0989da	0.008394683
96	0xbc249dc5	-0.010047381
97	0xbc0129c9	-0.0078834975
98	0x3c2f15f3	0.010686385
99	0x3bcd65cd	0.006268239
100	0xbb3e0514	-0.0028994726
101	0xbb944001	-0.0045242314
102	0xbb87a049	-0.0041389805
103	0xbca49a3d	-0.020093078
104	0x3b39fdbd	0.002838
105	0xbb9597d1	-0.004565217
106	0x3c335ef2	0.01094793
107	0x3c374124	0.011184964
108	0xbc3f9d4f	-0.01169522
109	0xbc023377	-0.0079468405
110	0xbb83280e	-0.0040025776
111	0xbc5d3fa0	-0.013503939
112	0x3b7a5b9d	0.0038201578
113	0x3c22316a	0.009899477
114	0xbb57646b	-0.003286625
115	0xbb8e8888	-0.004349772
116	0x3c25fb32	0.01013069
117	0x3c711e07	0.014716632
118	0xbb0d58f6	-0.0021567917
119	0xbc069364	-0.008213852
120	0xbb8220eb	-0.0039712093
121	0x3c0fda59	0.0087800855
122	0xbc348637	-0.011018327
123	0x3995f6c2	0.00028603344
124	0xbc35f84c	-0.011106562
125	0x3c39f910	0.011350885
126	0xbc11e3cb	-0.008904408
127	0x39998b26	0.00029286108

exp_avg f4 [128, 21]
0	0x3115399b	2.1715099e-09
1	0xb6a6bfdb	-4.9695204e-06
2	0x2db84834	2.0950443e-11
3	0xb681723a	-3.8577973e-06
4	0xaf601eb4	-2.0383589e-10
5	0xb75bff17	-1.311281e-05
6	0x2d9dfd6b	1.7961374e-11
7	0xb70ffea7	-8.582755e-06
8	0x2d8f1c83	1.626988e-11
9	0xb748bc73	-1.1964806e-05
10	0x2d8a320f	1.5711014e-11
11	0xb7161e76	-8.947789e-06
12	0xb2bae5af	-2.1757698e-08
13	0xb8249bbc	-3.9245686e-05
14	0x2d89c691	1.5663278e-11
15	0xb76a7903	-1.3975662e-05
16	0xb68b4dd6	-4.151584e-06
17	0xb87b054f	-5.9848007e-05
18	0x38fe8e08	0.00012138119
19	0x370462ab	7.890786e-06
20	0x383cade2	4.4984634e-05
21	0x2d9274b1	1.66501e-11
22	0x35dbd36a	1.6378301e-06
23	0xabaf1d26	-1.2442588e-12
24	0x35f35513	1.8129671e-06
25	0xaf5552f9	-1.9401715e-10
26	0x36897231	4.096212e-06
27	0xaba1d90d	-1.1499982e-12
28	0x3658daa7	3.231378e-06
29	0xabc3bf8f	-1.3908752e-12
30	0x3615acdc	2.2303348e-06
31	0xab8815ed	-9.669467e-13
32	0x369e49c4	4.7173544e-06
33	0x336528e6	5.3355414e-08
34	0x3669f914	3.4864688e-06
35	0xab89b764	-9.785337e-13
36	0x36b2239b	5.3089584e-06
37	0x33e50ec4	1.0666329e-07
38	0xb4e07110	-4.1805515e-07
39	0xb7397c73	-1.1055835e-05
40	0xb5aa4568	-1.2686187e-06
41	0x3698e337	4.5564043e-06
42	0x2f92fd2b	2.6737132e-10
43	0x357ca520	9.4117604e-07
44	0x2ab1464a	3.149029e-13
45	0x368e1c42	4.2352194e-06
46	0x2ee0dded	1.02257626e-10
47	0x36050558	1.9821655e-06
48	0x2ab86fd2	3.2762557e-13
49	0x3738702a	1.099337e-05
50	0x2a311eee	1.5731489e-13
51	0xb6b4f82b	-5.3933086e-06
52	0x2a684988	2.063125e-13
53	0x378b179c	1.6581085e-05
54	0x31ab9112	4.9932476e-09
55	0xb75000d4	-1.2397959e-05
56	0x2a150348	1.3234997e-13
57	0x37a8eabb	2.0136466e-05
58	0xb4ebe251	-4.3936828e-07
59	0xb868833c	-5.5435332e-05
60	0x367f2900	3.8021826e-06
61	0x34cfb010	3.8684857e-07
62	0x37415de8	1.1525561e-05
63	0xaf3851fc	-1.6763829e-10
64	0xb5e882b4	-1.7323387e-06
65	0xac1a6b27	-2.1944198e-12
66	0xb60348ee	-1.9562972e-06
67	0x2f461b90	1.8017787e-10
68	0xb6988058	-4.544894e-06
69	0xac405c7e	-2.7336185e-12
70	0xb6504f6d	-3.1040647e-06
71	0xab3688b0	-6.484908e-13
72	0xb5e259a0	-1.6864396e-06
73	0xac57383b	-3.0584552e-12
74	0xb6b2fe3c	-5.33441e-06
75	0xb098f27d	-1.1128375e-09
76	0xb5978fc6	-1.129222e-06
77	0xac539ff2	-3.007369e-12
78	0xb6c6b16e	-5.9215154e-06
79	0x354fa6ee	7.7356424e-07
80	0x35a3cb11	1.2203546e-06
81	0xb7259a9a	-9.870762e-06
82	0x35dd8770	1.6505201e-06
83	0xb71d9b92	-9.394151e-06
84	0xb1d69648	-6.2453047e-09
85	0x36c927d3	5.994903e-06
86	0xad9f0f6c	-1.8083056e-11
87	0x36c4ed78	5.8689e-06
88	0x3075eec3	8.946978e-10
89	0x3772bc1c	1.4468122e-05
90	0xad78dd55	-1.41463135e-11
91	0x37962026	1.7896364e-05
92	0xad3b27b1	-1.0638533e-11
93	0x378c6e2f	1.6740609e-05
94	0xad5ff236	-1.2729864e-11
95	0x3780b80a	1.5344489e-05
96	0x333a5ee7	4.3392813e-08
97	0x3896da8c	7.193265e-05
98	0xad5e3ebb	-1.2633168e-11
99	0x37e190c8	2.688951e-05
100	0x3735881a	1.0820129e-05
101	0x38debc66	0.00010620877
102	0xb9a20637	-0.00030903678
103	0xb7575eae	-1.2837043e-05
104	0xb922e41e	-0.00015534504
105	0x2ead5f9e	7.884114e-11
106	0xb6e5c622	-6.8477975e-06
107	0xab6b7fe1	-8.366624e-13
108	0xb658ae44	-3.2287944e-06
109	0xaf0b4837	-1.2667632e-10
110	0xb78d39c1	-1.6835404e-05
111	0xab29af02	-6.0283733e-13
112	0xb5968068	-1.1213242e-06
113	0xab14dfcc	-5.2890743e-13
114	0xb7a2696e	-1.9361e-05
115	0xab17668d	-5.3788294e-13
116	0xb52383f0	-6.0914226e-07
117	0xb37ad883	-5.8404577e-08
118	0xb82a7b26	-4.064585e-05
119	0xab1c9945	-5.563504e-13
120	0xb653ab34	-3.1541103e-06
121	0xb64aefc8	-3.0239917e-06
122	0xb8a6b4fc	-7.949208e-05
123	0x37703070	1.43163925e-05
124	0x3708d49c	8.155734e-06
125	0xb7bee1e4	-2.2754954e-05
126	0x2fbb84c0	3.4109426e-10
127	0xb5bb3a00	-1.3949466e-06
128	0x2cc6757e	5.6405427e-12
129	0x35f8fa78	1.8550336e-06
130	0xb019b572	-5.5918925e-10
131	0xb6b1f815	-5.3038916e-06
132	0x2cb0fc98	5.0302644e-12
133	0x36d2093d	6.259563e-06
134	0x2bf39e38	1.7310103e-12
135	0xb7189365	-9.094224e-06
136	0x2cb7c7a8	5.223339e-12
137	0x3717e002	9.052457e-06
138	0xb1f8e1d0	-7.243422e-09
139	0xb7c2e0c8	-2.3231274e-05
140	0x2cb1506b	5.0395708e-12
141	0x373f02f4	1.1385175e-05
142	0xb6622f5a	-3.3704187e-06
143	0xb88e78a1	-6.7935565e-05
144	0xb753d4e8	-1.2626151e-05
145	0x3672c84e	3.6177403e-06
146	0xb7678640	-1.37999305e-05
147	0xb121544c	-2.34765e-09
148	0x35f9beb8	1.8607452e-06
149	0xac34bcff	-2.5684452e-12
150	0x34ababc0	3.1976197e-07
151	0x301d1f02	5.716033e-10
152	0x33355a00	4.22242e-08
153	0xac2dbf70	-2.4691048e-12
154	0x3566d2c4	8.598838e-07
155	0x2c447fac	2.7924147e-12
156	0x371c6b31	9.323282e-06
157	0xac9073e1	-4.1055913e-12
158	0xb68e3863	-4.238494e-06
159	0xb23fc32d	-1.1162041e-08
160	0x380ef12c	3.4080047e-05
161	0xac88a1c2	-3.883311e-12
162	0x352fcef0	6.5493714e-07
163	0x3697d7ec	4.5252873e-06
164	0x386ff9a8	5.721455e-05
165	0xb8a0032a	-7.629984e-05
166	0xb67dfd0a	-3.7847226e-06
167	0xb8155a7d	-3.5608642e-05
168	0xb107bb62	-1.97516e-09
169	0x35e976c2	1.7394416e-06
170	0xad254d56	-9.396336e-12
171	0x35e0c158	1.6745571e-06
172	0x2ff3324a	4.4237175e-10
173	0x368a7c47	4.1271883e-06
174	0xad0eca59	-8.116696e-12
175	0x36ea1c0c	6.9770085e-06
176	0xac9da726	-4.4807656e-12
177	0x36d66011	6.3888806e-06
178	0xad10c33e	-8.228805e-12
179	0x36a4a1f4	4.9064347e-06
180	0x323a35d2	1.0838862e-08
181	0x3801ab88	3.0915748e-05
182	0xad0bfa5a	-7.9568244e-12
183	0x372605bc	9.895706e-06
184	0x36bd381a	5.63917e-06
185	0x384b4cb0	4.8470392e-05
186	0xb8fda13d	-0.00012094013
187	0xb6ae1d76	-5.189034e-06
188	0xb8755a4c	-5.8496647e-05
189	0x3123027c	2.3721034e-09
190	0xb6856de4	-3.976502e-06
191	0x2ce1df40	6.4196704e-12
192	0xb61b9bfc	-2.3187595e-06
193	0xaff9289e	-4.5321696e-10
194	0xb7203df2	-9.551166e-06
195	0x2cb18426	5.045314e-12
196	0xb696162e	-4.4729304e-06
197	0x2c45ffbc	2.8137345e-12
198	0xb750f89c	-1.245565e-05
199	0x2ca8ba17	4.7955073e-12
200	0xb62260bc	-2.4196188e-06
201	0xb31f87e3	-3.714366e-08
202	0xb82928fe	-4.0330917e-05
203	0x2ca7a262	4.7644536e-12
204	0xb6e803de	-6.914589e-06
205	0xb6babc1d	-5.5651312e-06
206	0xb88f3b71	-6.829843e-05
207	0x38db764e	0.0001046477
208	0x36e2c9cd	6.7588176e-06
209	0x3846b7e8	4.7378155e-05
210	0x3127686b	2.4361053e-09
211	0x35340e00	6.70756e-07
212	0x2c6bd7b1	3.3515241e-12
213	0x35ba3cf6	1.3875822e-06
214	0xb0065bc6	-4.8879334e-10
215	0x3414cfd0	1.3859176e-07
216	0x2c61b136	3.2072795e-12
217	0xb3cb9090	-9.47922e-08
218	0x2bb1e1a9	1.263924e-12
219	0xb6c59e89	-5.8895134e-06
220	0x2c6b43b4	3.3433091e-12
221	0x36902ad6	4.296521e-06
222	0x3297f252	1.7688908e-08
223	0xb7cf3c01	-2.4704264e-05
224	0x2c6a801a	3.332451e-12
225	0x357ab5a8	9.33966e-07
226	0xb669ffa3	-3.4868506e-06
227	0xb83c8358	-4.4945016e-05
228	0x38eacc29	0.00011196017
229	0x362df891	2.5923694e-06
230	0x388f9966	6.847344e-05
231	0xb0d339c8	-1.5368693e-09
232	0xb686a4b7	-4.0126865e-06
233	0x2b3f28c9	6.791343e-13
234	0xb666f2a2	-3.4413902e-06
235	0x303668c3	6.636009e-10
236	0xb7257587	-9.86213e-06
237	0xaa63f36a	-2.0246101e-13
238	0xb69c7d88	-4.663776e-06
239	0xaa78bb19	-2.2091737e-13
240	0xb61877b4	-2.2719441e-06
241	0xab29b1c0	-6.028754e-13
242	0xb715dc7d	-8.9324285e-06
243	0xb3987f11	-7.101165e-08
244	0xb5eb237e	-1.7519194e-06
245	0xab25910b	-5.8821063e-13
246	0xb6e61566	-6.8570253e-06
247	0xb4ac1758	-3.205448e-07
248	0xb6cfc118	-6.19156e-06
249	0xb80dd5fc	-3.3816308e-05
250	0x3646fad1	2.9650294e-06
251	0xb80bdf3c	-3.3348086e-05
252	0xb21285b8	-8.528723e-09
253	0x370c2f07	8.3556e-06
254	0xadcdc274	-2.3392156e-11
255	0x3712d494	8.751773e-06

exp_avg_sq f4 [128, 21]
0	0x2fd62c7a	3.8957976e-10
1	0x313b1065	2.72214e-09
2	0x2f993187	2.786573e-10
3	0x3105c1b1	1.9464148e-09
4	0x2fe8b940	4.2332182e-10
5	0x317fec04	3.7241543e-09
6	0x2f83913b	2.3931954e-10
7	0x310659bc	1.9550574e-09
8	0x2f4655f6	1.8038535e-10
9	0x31d02f93	6.0590053e-09
10	0x2f84f649	2.4185656e-10
11	0x310d0152	2.051895e-09
12	0x2f2ad564	1.5537222e-10
13	0x3232d0cf	1.0408441e-08
14	0x2f938a13	2.6837252e-10
15	0x312dc733	2.5288045e-09
16	0x30183c7d	5.5383237e-10
17	0x32602cfb	1.3048743e-08
18	0x3424d764	1.5352049e-07
19	0x2f91d1d1	2.652443e-10
20	0x34311af9	1.6494222e-07
21	0x3207f87b	7.914532e-09
22	0x320a9564	8.066625e-09
23	0x3209213c	7.982006e-09
24	0x320b829f	8.120565e-09
25	0x3208b530	7.957439e-09
26	0x320bc500	8.1356575e-09
27	0x32087258	7.942241e-09
28	0x320b487e	8.107348e-09
29	0x3208f144	7.971099e-09
30	0x320d9673	8.241488e-09
31	0x32091487	7.979117e-09
32	0x320c5c27	8.1700255e-09
33	0x32093cbb	7.988258e-09
34	0x320f1b3b	8.329887e-09
35	0x3208cea7	7.963229e-09
36	0x320d77fe	8.234563e-09
37	0x32090e1f	7.97766e-09
38	0x3212ac89	8.5375484e-09
39	0x34a73e6c	3.1151592e-07
40	0x3a70ef7d	0.000919096
41	0x34582a76	2.0132015e-07
42	0x2fae274e	3.1678343e-10
43	0x3139222c	2.6940468e-09
44	0x2f36573a	1.6583793e-10
45	0x312a2760	2.4760638e-09
46	0x2faa32e2	3.0958974e-10
47	0x31835887	3.822666e-09
48	0x2f20449f	1.4576294e-10
49	0x312ee97b	2.545305e-09
50	0x2f5f8904	2.033041e-10
51	0x31bfc612	5.5813496e-09
52	0x2e9ebad5	7.218196e-11
53	0x3148ff6f	2.9249028e-09
54	0x301e07cb	5.749114e-10
55	0x320c5441	8.16823e-09
56	0x2f2bee99	1.5637126e-10
57	0x3188b362	3.9785144e-09
58	0x2f8da5d2	2.5765573e-10
59	0x323c039d	1.0943862e-08
60	0x344cf651	1.908859e-07
61	0x2f9f91fd	2.9025662e-10
62	0x3413eeee	1.3777364e-07
63	0x2e0e6a6d	3.2381587e-11
64	0x2fdee120	4.0541526e-10
65	0x2dc52a32	2.2415046e-11
66	0x2fdfcf82	4.0710907e-10
67	0x2e9211e3	6.6424886e-11
68	0x301c4858	5.6855276e-10
69	0x2dc0f442	2.1936345e-11
70	0x2fdc5098	4.0075032e-10
71	0x2d8636ab	1.5258314e-11
72	0x305722b6	7.826587e-10
73	0x2e17e0be	3.4533036e-11
74	0x2fd6cfff	3.9074163e-10
75	0x2e14bbe7	3.3818195e-11
76	0x30a909ef	1.2299192e-09
77	0x2e209be1	3.6518236e-11
78	0x2ff5148d	4.4579843e-10
79	0x2f015e1a	1.1765913e-10
80	0x30fc64bb	1.8364043e-09
81	0x330153c0	3.0111323e-08
82	0x2e4c63d4	4.6472895e-11
83	0x32edef21	2.7699175e-08
84	0x33734fe9	5.6650524e-08
85	0x337fa2b0	5.9519778e-08
86	0x33704c9f	5.594904e-08
87	0x33773451	5.755675e-08
88	0x33729ac4	5.6485774e-08
89	0x3382c049	6.088573e-08
90	0x3370a029	5.602502e-08
91	0x3377f9ac	5.7736244e-08
92	0x336fe0a0	5.585082e-08
93	0x338bb5f1	6.505787e-08
94	0x3370e08e	5.6083586e-08
95	0x3379f7da	5.820025e-08
96	0x33713e7f	5.6169025e-08
97	0x33a12fad	7.505819e-08
98	0x337043e5	5.5941104e-08
99	0x337e5510	5.9216347e-08
100	0x337b9d79	5.8583712e-08
101	0x33b40775	8.3832596e-08
102	0x36238a6d	2.4369467e-06
103	0x3c00fb14	0.007872362
104	0x35eb12cf	1.7514338e-06
105	0x30120dc7	5.313407e-10
106	0x3188f031	3.9854275e-09
107	0x2fece933	4.3093848e-10
108	0x3187fcdb	3.9577635e-09
109	0x30060af8	4.8764504e-10
110	0x31a329ec	4.7486903e-09
111	0x2ff011d7	4.3668422e-10
112	0x31902021	4.194604e-09
113	0x30029199	4.750063e-10
114	0x31de8d0a	6.4770846e-09
115	0x2fbd6769	3.4452377e-10
116	0x31a754a1	4.869961e-09
117	0x306bce4d	8.5785673e-10
118	0x3226edb8	9.716523e-09
119	0x2fe06955	4.0820206e-10
120	0x31cf6442	6.035891e-09
121	0x302ac628	6.2127237e-10
122	0x3252145e	1.222824e-08
123	0x34680690	2.1609071e-07
124	0x2fbabfb4	3.3969416e-10
125	0x344a1e87	1.8823822e-07
126	0x30633291	8.265398e-10
127	0x31843702	3.8479593e-09
128	0x304f8fb3	7.551037e-10
129	0x3188af6c	3.978064e-09
130	0x307fd517	9.307128e-10
131	0x3195399b	4.3430197e-09
132	0x3048a2ae	7.299076e-10
133	0x3197e675	4.4208783e-09
134	0x304cd14a	7.4512185e-10
135	0x31bc3b8b	5.4782894e-09
136	0x2fcaefa7	3.691387e-10
137	0x31b1a524	5.1701523e-09
138	0x302f829d	6.385024e-10
139	0x320586ab	7.772239e-09
140	0x2fec0161	4.292913e-10
141	0x31f4dd32	7.1264816e-09
142	0x302d230c	6.298684e-10
143	0x32491a6c	1.17057475e-08
144	0x34420e75	1.8072917e-07
145	0x2fd257f8	3.8261283e-10
146	0x346e6fb6	2.2206117e-07
147	0x30932fdf	1.0709263e-09
148	0x311fe2f5	2.3266555e-09
149	0x307c6900	9.182628e-10
150	0x310efcd8	2.0807445e-09
151	0x30995508	1.1156382e-09
152	0x315a591e	3.1773832e-09
153	0x307f3be9	9.2853597e-10
154	0x3115e1aa	2.1810629e-09
155	0x30785cb1	9.0353597e-10
156	0x31a48d40	4.7890865e-09
157	0x3075790f	8.9302515e-10
158	0x312d5b82	2.522683e-09
159	0x3077f667	9.0208235e-10
160	0x320586e8	7.772293e-09
161	0x30826e84	9.490155e-10
162	0x317bd667	3.664718e-09
163	0x30c5cc12	1.4391637e-09
164	0x3247c62b	1.1628383e-08
165	0x3406d915	1.2558696e-07
166	0x39b97895	0.0003537579
167	0x34249842	1.5329081e-07
168	0x2edcb13c	1.0035925e-10
169	0x304b1fb9	7.389605e-10
170	0x2df2f555	2.7621164e-11
171	0x3009cda9	5.013257e-10
172	0x2f0a796d	1.2594166e-10
173	0x309852e9	1.108302e-09
174	0x2de5ba8e	2.6117133e-11
175	0x301e5ebd	5.7614696e-10
176	0x2dd05cbd	2.3688046e-11
177	0x30f0d434	1.752261e-09
178	0x2e677d7b	5.2634768e-11
179	0x3050655d	7.5814005e-10
180	0x2e013fc6	2.9387846e-11
181	0x316b8ece	3.4278176e-09
182	0x2e1f5223	3.6225366e-11
183	0x30a16eda	1.1745798e-09
184	0x3006d354	4.904923e-10
185	0x31c83a2b	5.827379e-09
186	0x333fa76f	4.4622933e-08
187	0x353287ca	6.6507766e-07
188	0x33aedb3f	8.142387e-08
189	0x30aa6741	1.2398474e-09
190	0x310cb997	2.0478177e-09
191	0x309c67b9	1.1379974e-09
192	0x30edb4d1	1.7295411e-09
193	0x30a8f28b	1.2292544e-09
194	0x312523ad	2.403094e-09
195	0x309deee2	1.1491148e-09
196	0x30f0e296	1.7526698e-09
197	0x309b3984	1.1294081e-09
198	0x31614aba	3.2784286e-09
199	0x3097432c	1.1005787e-09
200	0x30fec53c	1.853699e-09
201	0x309c6fae	1.1382235e-09
202	0x31be8771	5.5451257e-09
203	0x3097578c	1.1011578e-09
204	0x3117a538	2.2067308e-09
205	0x30d05a5f	1.5159677e-09
206	0x31fdcd22	7.38659e-09
207	0x33d8170b	1.0062475e-07
208	0x392f741a	0.00016732552
209	0x33d59d0f	9.947154e-08
210	0x3031f6d3	6.4742983e-10
211	0x3107cd53	1.9761799e-09
212	0x2fff37d2	4.6423893e-10
213	0x30fd2c48	1.8420758e-09
214	0x3024f370	6.00088e-10
215	0x311c1b19	2.271639e-09
216	0x2fa52ef6	3.0046693e-10
217	0x31061ffb	1.9517745e-09
218	0x2ffaf899	4.5651374e-10
219	0x3146c27b	2.8923341e-09
220	0x2f39fadd	1.6914777e-10
221	0x310fbfec	2.0918334e-09
222	0x300fd04c	5.2319105e-10
223	0x318fb157	4.182009e-09
224	0x2f9ca762	2.8495167e-10
225	0x312bf96b	2.5025553e-09
226	0x3001d554	4.7233084e-10
227	0x31c251ca	5.6554414e-09
228	0x33b1307a	8.2510226e-08
229	0x2f2db120	1.5797186e-10
230	0x33d03521	9.695419e-08
231	0x318c9604	4.091591e-09
232	0x319df108	4.5967035e-09
233	0x3188ad55	3.9778265e-09
234	0x31986609	4.4353823e-09
235	0x318da81e	4.122753e-09
236	0x31a89f71	4.90757e-09
237	0x318659c4	3.9101185e-09
238	0x3195e684	4.3626773e-09
239	0x31874c74	3.937709e-09
240	0x31b0c2e8	5.1444324e-09
241	0x318501ad	3.871e-09
242	0x31968960	4.3811923e-09
243	0x31893bf8	3.9940424e-09
244	0x31cb4b35	5.9166276e-09
245	0x318647ee	3.9080907e-09
246	0x319b6a9b	4.5232134e-09
247	0x318884d9	3.973224e-09
248	0x31e1fd83	6.577183e-09
249	0x34502a5d	1.9386921e-07
250	0x3a1c71d2	0.0005967888
251	0x340b333b	1.2964021e-07
252	0x31837d13	3.826821e-09
253	0x32439bd4	1.1385925e-08
254	0x31316ce7	2.5818794e-09
255	0x31dfc830	6.512913e-09

exp_avg f4 [128]
0	0xb8a6906c	-7.9423975e-05
1	0x3757c4c8	1.2860815e-05
2	0xb65a4800	-3.252644e-06
3	0xb78af94f	-1.6566975e-05
4	0x39080cac	0.00012974691
5	0xb8ab8bc4	-8.179949e-05
6	0xb815789c	-3.5636695e-05
7	0x382124d4	3.841969e-05
8	0x385c66c5	5.25478e-05
9	0xb88e985b	-6.799466e-05
10	0xb7db9477	-2.6175969e-05
11	0xb7f7a3fa	-2.9521052e-05
12	0x39636b58	0.00021688396
13	0x378b77b7	1.6625838e-05
14	0xb8b3b6e6	-8.5694526e-05
15	0x380f8b5a	3.4223638e-05
16	0xb82b4251	-4.083134e-05
17	0xb6a41cc4	-4.8909296e-06
18	0x389b3e76	7.40261e-05
19	0xb960ffde	-0.00021457623
20	0xb940a7db	-0.00018373078
21	0x378fca22	1.7141054e-05
22	0x389c2b81	7.446763e-05
23	0x36e41c08	6.7981928e-06
24	0xb7afd8e8	-2.096263e-05
25	0x3914a9f5	0.00014177694
26	0x37b82722	2.1952732e-05
27	0x3845b9fa	4.7141664e-05
28	0xb80c6c8c	-3.3479693e-05
29	0xb90e967f	-0.0001359824
30	0x3899c8ea	7.333032e-05
31	0xb7ec60f8	-2.8178547e-05
32	0xb6b1a300	-5.2939868e-06
33	0x38883dce	6.4964974e-05
34	0x38c600cc	9.441524e-05
35	0xb79ebed1	-1.8923924e-05
36	0xb8c2bd0c	-9.2858536e-05
37	0x390783dc	0.00012923725
38	0xb82be119	-4.0979216e-05
39	0x38419801	4.615635e-05
40	0x391cdbe6	0.00014959238
41	0x38ae9768	8.325168e-05
42	0x383eb2be	4.5465997e-05
43	0xb8048506	-3.159514e-05
44	0xb7974872	-1.8034338e-05
45	0x3876849b	5.877447e-05
46	0x379adcd6	1.8461065e-05
47	0x383f8cbb	4.5669014e-05
48	0x37a264a9	1.9358778e-05
49	0x38ad4d9a	8.263737e-05
50	0x389cb4f6	7.472366e-05
51	0x37b0d920	2.1081942e-05
52	0xb8f36e62	-0.00011607703
53	0x36a128d0	4.802925e-06
54	0x38ad6788	8.268567e-05
55	0x38a2e0be	7.7666235e-05
56	0x3788b1ec	1.6295315e-05
57	0xb8290dbe	-4.030554e-05
58	0x3800e7c2	3.073342e-05
59	0x38425dd8	4.6340603e-05
60	0xb8ee66b6	-0.00011367856
61	0x37941b8d	1.7655804e-05
62	0x390784ba	0.00012924048
63	0xb77cfa12	-1.50785945e-05
64	0xb8bdf54c	-9.0579124e-05
65	0x379a6989	1.8407374e-05
66	0x3840ab48	4.5935885e-05
67	0xb6974563	-4.5082284e-06
68	0xb8529538	-5.0206872e-05
69	0x38559dc9	5.0930106e-05
70	0xb89bc1e2	-7.4270894e-05
71	0x3800e90c	3.073462e-05
72	0x38aa90e3	8.133219e-05
73	0xb987267c	-0.0002577788
74	0x383f53d6	4.5616027e-05
75	0xb8b47798	-8.605345e-05
76	0x37b2fa34	2.1335763e-05
77	0xb853cc40	-5.0496543e-05
78	0xb7807774	-1.5314414e-05
79	0x3887006a	6.437379e-05
80	0xb84633a0	-4.725496e-05
81	0x38c1d5f8	9.242812e-05
82	0xb82083f6	-3.826987e-05
83	0xb83fae92	-4.570053e-05
84	0x3893fc14	7.0564594e-05
85	0xb7d1ca90	-2.5009067e-05
86	0x36df9574	6.6633165e-06
87	0x385608ee	5.1029892e-05
88	0xb8b4ca62	-8.6207656e-05
89	0x374af20c	1.2096494e-05
90	0xb8ef68bc	-0.000114159164
91	0xb86f2b94	-5.7022626e-05
92	0xb798b8e6	-1.8205912e-05
93	0x389fc77c	7.618868e-05
94	0x3906f358	0.00012869888
95	0x38b00a33	8.394234e-05
96	0xb88725cb	-6.444341e-05
97	0x36862010	3.9972438e-06
98	0x38c0bbb8	9.190239e-05
99	0x3796b250	1.7964427e-05
100	0xb81f256b	-3.7943402e-05
101	0xb8eff768	-0.00011442491
102	0x38e96862	0.000111297486
103	0xb9213a58	-0.00015375891
104	0xb8676083	-5.5164575e-05
105	0x393ff18d	0.00018305164
106	0xb8936358	-7.0280104e-05
107	0xb81b4142	-3.7015656e-05
108	0x37c72b4a	2.3742807e-05
109	0x39213983	0.00015375581
110	0xb890acfa	-6.8986745e-05
111	0x3819f549	3.6706482e-05
112	0xb89dbb1a	-7.521194e-05
113	0x384075db	4.588613e-05
114	0xb822aed2	-3.8786624e-05
115	0x38bcad26	8.99679e-05
116	0xb62a6820	-2.5392583e-06
117	0x37fa93b8	2.987111e-05
118	0xb7d68795	-2.5573923e-05
119	0xb7f2e4b7	-2.8955152e-05
120	0x38abbd61	8.18919e-05
121	0x381dda0e	3.7634796e-05
122	0x385b3836	5.226602e-05
123	0x38200dc0	3.815978e-05
124	0xb89f5a10	-7.598486e-05
125	0x370d2fa9	8.415352e-06
126	0x389a021e	7.3436866e-05
127	0xb8899fcd	-6.562434e-05
