V1/results/1/MoveToGoal/MoveToGoal-233581.onnx (onnx, 75062 bytes, 7 tensors)

network_body._body_endoder.seq_layers.0.weight f4 [128, 6]
000000 07 17 71 be a8 46 92 3f 3f a0 b6 3d ae 52 eb be
       -0.2354394 1.1427813 0.08917283 -0.45961517
000010 cd 93 92 3e a1 90 0c bf 00 b7 09 3e fe 7f 87 be
       0.28628388 -0.54908186 0.13448715 -0.26464838
000020 87 9a fb 3e 08 3a b3 3e 22 5c 38 3e a7 bf 1c 3f
       0.49141333 0.35005212 0.18003896 0.6122994
000030 35 c3 a9 bd a2 22 37 be f9 97 b6 bc de 66 09 3f
       -0.08289186 -0.17884305 -0.022289263 0.5367259
000040 71 32 a3 be 03 82 4e be a6 cd 2d bf 88 d0 32 3e
       -0.3187442 -0.20166783 -0.6789192 0.17462361
000050 fb fc 24 bd 1d 23 be 3c 0e 3e 80 be 79 ea 4c 3e
       -0.040280323 0.023210103 -0.25047344 0.20011319
000060 e8 1f 0c be 1a 43 a6 3e cc 09 88 3d 4d 3e eb be
       -0.13684046 0.3247307 0.066424936 -0.4594597
000070 a6 40 d4 bd 5b 35 47 bc 86 79 6a 3e 0c 64 f7 3d
       -0.10363893 -0.012158717 0.2289792 0.12079629
000080 d7 ef 9d 3e b5 25 49 3e 15 8c 60 3e 43 e2 19 3e
       0.30847046 0.1964329 0.21928437 0.15027718
000090 46 e2 b1 be ad d7 5f be 0a 9d f6 be c8 0c af 3e
       -0.34742945 -0.21859618 -0.48166686 0.3418944
0000a0 69 0a bb 3e c7 20 e6 3e 9d 8d cb be 0a 90 3b be
       0.3653138 0.44946882 -0.3975648 -0.18316665
0000b0 6f 18 63 be 23 fd ff 3e 91 43 1a 3f 2c e1 c8 be
       -0.2217729 0.49997815 0.6025935 -0.39234293
0000c0 73 fc 40 3e 01 4c c2 be 6a 5f 3f 3e a3 4d 10 3e
       0.18846302 -0.3794861 0.18688741 0.14092116
0000d0 d7 0f ba be b4 fc 26 be 35 ea 28 bf 46 46 0e 3f
       -0.3634021 -0.16307336 -0.6598237 0.5557598
0000e0 14 b7 1a bc 12 eb 3c bf d1 21 1b 3f b0 e1 1a 3f
       -0.009443063 -0.7379619 0.60598475 0.6050062
0000f0 44 8d 7b be b4 35 19 bf 3d 5e 04 be 8b 5c 63 3e
       -0.24565607 -0.5984757 -0.12926574 0.22203271
000100 4a f0 3e be aa 9b 8e be 20 99 09 3d eb 83 e8 3e
       -0.1864635 -0.27853137 0.033593297 0.45413145
000110 17 ac a0 3d 2e a6 b5 3e fa b8 be 3d b4 c5 1e 3e
       0.078453235 0.35478348 0.09312625 0.15505105
000120 53 c4 6e bd 8e 42 53 bf 03 83 7a 3e 93 f8 e1 be
       -0.058292698 -0.8252343 0.2446404 -0.4413496
000130 47 d0 fa 3d 2e b8 e0 3e 8a 31 bd be 7c 97 53 bd
       0.12246757 0.43890518 -0.36951858 -0.05165814
000140 14 70 01 bf 09 9c 15 3e 86 99 4a bf ee 37 1a bf
       -0.5056164 0.14610304 -0.7914051 -0.6024159
000150 75 0d 3e bf 9b 12 53 bd d1 67 07 be 8e b0 c8 be
       -0.74239284 -0.051531415 -0.13223197 -0.391972
000160 e0 ce 7b 3e 16 84 3d bf 1f e1 2d 3f d7 c5 f2 be
       0.24590635 -0.7402967 0.6792163 -0.47416565
000170 43 b8 66 be 6c 7e 34 be 4c ad ce 3e 5b b5 ea 3d
       -0.22531228 -0.17626351 0.4036659 0.11460372
000180 cf db 90 3e 72 8f 61 3e 2b 33 4a 3e 05 4d c4 be
       0.282927 0.22027376 0.19746082 -0.3834001
000190 07 b6 9e 3e 33 74 19 3f 88 d0 17 3f 2d bc 6e bd
       0.3099825 0.5994293 0.5930257 -0.058284927
0001a0 c0 20 d3 3e 08 fd 06 3d 94 3a be 3d 69 f3 76 be
       0.41235924 0.032956153 0.09288517 -0.24116291
0001b0 3c 27 84 be c0 8b 4f be ac 1e c0 be 54 7e f9 bd
       -0.25811183 -0.20268154 -0.375234 -0.12182298
0001c0 ed 8d 03 bf b4 6b b1 3d f2 78 8e bd 87 8d 0b 3f
       -0.51388437 0.08663121 -0.06956662 0.5451283
0001d0 35 41 37 be fd 69 54 be 73 15 1f be ce 22 f0 3d
       -0.17895968 -0.20743556 -0.15535526 0.117253885
0001e0 89 c9 3e bf 4e 6c c9 bd 12 bc 3d bf 43 26 aa 3d
       -0.7452627 -0.098351106 -0.741151 0.08308079
0001f0 a5 c1 a2 bc 23 6d 0a 3e 67 93 c2 be a4 89 f9 3d
       -0.019867728 0.13518195 -0.38003084 0.12184456
000200 c5 1a c4 3e 6f a1 c5 bc 7b e7 6b 3e d2 dc de 3d
       0.38301674 -0.02412483 0.23037522 0.10881962
000210 c5 28 f9 3e d4 eb 8f bf 1b 16 b7 3e 5e 6e 96 3e
       0.48663917 -1.1243844 0.35759053 0.29381078
000220 02 ee af 3e 3e 86 75 3e 6b 64 43 3f 6a 6b 87 be
       0.34361273 0.2397699 0.763251 -0.26449138
000230 b6 fb 4d 3e e4 e5 82 3f ac 73 74 3e 74 a4 21 3e
       0.20115551 1.0226407 0.2387225 0.1578539
000240 be 62 44 3e 1a d6 d1 be 0a 11 ba bb 79 bc a8 bd
       0.19178292 -0.4098366 -0.0056783007 -0.08239073
000250 81 dc 81 be 4f 80 9f be c7 0a 08 3e ed a3 3e 3f
       -0.25363544 -0.3115258 0.13285361 0.7446888
000260 cc e8 9b 3e 86 bd 22 bf ba 9a 46 3e 22 91 0e bf
       0.30451047 -0.6357044 0.19394961 -0.55690205
000270 a9 cc dc 3e d1 cd 0f bf 11 09 77 bf 7b 95 eb 3c
       0.43124893 -0.56173426 -0.9649821 0.028757801
000280 46 30 2c 3f 7b a9 0c 3f d7 21 65 3c 9a 3f 2e be
       0.6726116 0.54946107 0.013985119 -0.1701645
000290 db d8 0f be bc 5d ce be 40 c8 83 3e 98 44 10 3f
       -0.14047568 -0.4030589 0.25738716 0.56354666
0002a0 fb f8 93 3d 38 25 86 3e 8b b9 1a bf d0 d7 a5 bd
       0.07225224 0.2620027 -0.60439366 -0.080978036
0002b0 95 93 44 bf 98 e3 d0 bd 18 fb e2 bd 10 b8 5c be
       -0.7678769 -0.1019966 -0.110830486 -0.2155459
0002c0 e5 bb 79 3e 33 71 f5 be b6 36 fe 3d f7 f8 05 bd
       0.24388082 -0.47937927 0.12412779 -0.032708135
0002d0 91 f8 74 3f e3 08 fa bd cb 38 ce be c4 4d de 3d
       0.9569178 -0.12208726 -0.40277705 0.10854676
0002e0 3d aa 3a bf 57 b9 63 be 86 f9 0a bf d6 4a 0a 3d
       -0.72916013 -0.2223867 -0.5428699 0.033762775
0002f0 e5 5d b0 bc 30 20 d8 3e 88 37 31 3f e6 ca 02 be
       -0.021529147 0.42212057 0.6922536 -0.12772712
000300 d1 f9 9c 3e 8f 05 5e 3e 7b 60 28 be 36 2b c7 be
       0.30659345 0.21681808 -0.16443054 -0.38900155
000310 97 27 98 3e 97 ac 8f be 5f 02 8e 3e 08 b4 b0 3e
       0.29717705 -0.28061363 0.27736184 0.34512353
000320 02 24 ff 3e 51 18 b1 3e 5f b4 21 be 90 5a ec be
       0.4983216 0.34588864 -0.15791462 -0.46162844
000330 13 ac fc bd 5b db 84 be 01 e3 60 be 19 5f 14 bf
       -0.12337508 -0.25948605 -0.21961595 -0.5795761
000340 dd 6e ae bd 9b 9b 8b 3c cb 16 e0 3d bc 07 09 3f
       -0.08517239 0.017041972 0.109418474 0.53527427
000350 8b ad 6c 3e 34 b9 30 bf c1 ee c5 3e fa ef 8e 3f
       0.23113076 -0.690326 0.38658717 1.1166985
000360 92 38 02 3d 7a b5 15 3f 83 fe 10 3f e6 dc f6 bc
       0.03179223 0.58480036 0.56638354 -0.03013463
000370 ba 9d f0 3e 2e b1 87 3e 48 10 40 be fc ff 41 3d
       0.46995336 0.26502365 -0.18756211 0.047363266
000380 95 28 e9 bc dc e7 7c 3e 1d e4 0c bf 36 13 fc 3e
       -0.028461734 0.24697822 -0.55035573 0.49233407
000390 da 68 c1 be 8c b2 07 3e 95 6b b9 bc 9d b0 95 3d
       -0.37775308 0.13251704 -0.022634307 0.07309077
0003a0 a6 b4 95 be 3c ce c5 3e b7 28 93 3e ff f5 36 3f
       -0.29239386 0.38633907 0.28742 0.7146911
0003b0 ac a2 37 be e0 9d 66 be 57 6a 15 bf dd ef 1d bf
       -0.17933148 -0.22521162 -0.58365387 -0.6169413
0003c0 0b 3e 9d be c9 2e 3b 3f df 89 e0 be cb 00 de 3e
       -0.30711398 0.73118263 -0.43855187 0.4335998
0003d0 39 65 78 bd d9 f4 ab 3e 85 f9 19 bf 21 dc f0 bd
       -0.06064341 0.3358524 -0.6014636 -0.11760736
0003e0 0a df 23 3f d6 50 bf be a9 e3 af be 4f 30 13 be
       0.64012206 -0.3736636 -0.34353378 -0.14373897
0003f0 29 51 ef be 47 41 c1 3d 2a 0e 5f 3d f3 8b 18 3d
       -0.46741608 0.09436279 0.054456867 0.03724284

network_body._body_endoder.seq_layers.0.bias f4 [128]
000000 cc 37 1e 3c c2 7a 23 bc ba b2 6f 3c 3d 5c 94 3b
       0.009656858 -0.009977998 0.014630014 0.004527597
000010 44 60 65 3b c8 08 91 3c 00 47 5d 3c 2d 92 36 3b
       0.0035000006 0.017704383 0.013505697 0.0027858124
000020 9f f1 49 bb a0 8b 13 bc 66 be 0c 3c 6b a8 af 3b
       -0.0030814183 -0.009005457 0.008590316 0.005360653
000030 1b 0f 0a 3c 9f 6e b3 bb 39 f6 86 3b 20 95 02 3c
       0.008426453 -0.0054758335 0.0041187075 0.0079701245
000040 dc 06 0d bc 7b 63 9a bb 32 7a 92 3c 22 6f 6e 3b
       -0.008607592 -0.004711566 0.017880533 0.0036382158
000050 a5 83 26 3c 66 22 97 bc 8f c1 df 3b e9 a3 62 3b
       0.010163222 -0.01844902 0.006828494 0.0034582561
000060 1f 4a 12 3c 17 d0 44 3b 64 37 0d 3d d4 98 e9 ba
       0.008928805 0.0030031258 0.034476653 -0.0017822036
000070 67 28 36 3c ae c4 29 bc 5a 9f 16 3c 7a a0 85 bc
       0.011118031 -0.0103618335 0.009193266 -0.016311873
000080 95 6b b5 bb a7 28 da bb 04 69 bc 3b bd 6d e9 bb
       -0.0055365064 -0.006657678 0.0057498235 -0.0071236775
000090 95 db 47 3c fd db 22 3c f2 3f 62 3c 1e fe b2 3b
       0.0121983485 0.009940145 0.013809191 0.005462422
0000a0 22 1d 26 3c 4c dd 43 bc 23 71 26 3c 24 e2 9e 3b
       0.010138782 -0.011954617 0.01015881 0.0048487354
0000b0 5b 8b d1 3b 48 a3 38 bc 4d b2 0c bc 8d 44 55 bc
       0.0063947863 -0.011269398 -0.008587432 -0.013016832
0000c0 7d 31 91 bc cd 31 66 3c 39 a9 28 bc 70 5f 2a bc
       -0.017723793 0.014049959 -0.010294252 -0.010398731
0000d0 3c 8c 5f b9 06 a9 10 3c da 42 96 3b 10 cb ad bb
       -0.00021319179 0.008829361 0.004585606 -0.005303748
0000e0 9b 99 60 3c 58 a9 04 3b 82 b3 09 39 15 d8 c7 3a
       0.013708497 0.0020242538 0.0001313221 0.0015246893
0000f0 db 81 18 3c e0 81 a0 3b 0d 32 48 3b 33 a1 fb ba
       0.009308304 0.004898295 0.003054741 -0.0019197821
000100 e9 2e 8e bc 82 fe b4 3b 3e 7f e0 3c f1 3f 3a 3a
       -0.017356353 0.0055235038 0.027404424 0.0007104865
000110 d6 b3 93 3b 1b 67 0d bc 54 1e 6d bc 61 67 90 3c
       0.004507522 -0.008630539 -0.014472563 0.01762742
000120 4d 6f d0 ba 37 0c a7 3c cb 44 b3 3c 47 10 50 bc
       -0.0015902311 0.020391567 0.021883389 -0.012699193
000130 3b ff ef bb 63 b8 3b 3b 93 1f 07 bc f5 63 04 3c
       -0.007324127 0.0028643839 -0.008247274 0.008080472
000140 5e 0b 11 3c 0d fe 87 bc 0e fa 09 3b 08 41 3b 3c
       0.008852808 -0.016600633 0.0021053585 0.011429079
000150 a3 df f7 39 1b a4 86 bc 04 9c 43 3b ea 04 ee 3a
       0.00047278134 -0.016435673 0.0029847631 0.0018159423
000160 4b e5 8c 3b c0 69 27 3c 02 53 ff bb 9a 51 4b bc
       0.004299795 0.010218084 -0.0077918777 -0.012409592
000170 ec 15 0d bc e3 00 ea bb d2 4e 14 bc 5c 9e 3c bc
       -0.008611184 -0.007141219 -0.009051995 -0.011512365
000180 81 10 e4 3c c9 00 b7 bb a8 16 74 bb 12 9d 79 bc
       0.0278399 -0.0055848104 -0.003724495 -0.015235202
000190 07 15 ae 3b 53 70 1c bc e7 c6 b5 3c ed 9f 39 bb
       0.0053125652 -0.009548265 0.02218957 -0.0028324083
0001a0 60 b6 2b bb 77 67 5f bc de f7 09 bb 97 98 d2 bb
       -0.0026201233 -0.013635508 -0.0021052281 -0.0064268815
0001b0 47 52 40 bc 14 d2 0b 3c e0 d5 1b 3c c5 67 22 3c
       -0.011738366 0.008533973 0.009511441 0.009912436
0001c0 f2 b7 83 bb 4b 66 47 bc 28 56 2a bc 1e ed 8a 3b
       -0.0040197307 -0.012170385 -0.010396518 0.0042396924
0001d0 09 23 56 bc ef 73 68 3b 78 75 6d bc 3f 6b 87 3b
       -0.0130698765 0.0035469492 -0.014493339 0.004132658
0001e0 eb b6 1e 3b 4c 92 0b bc 46 e3 28 bc 98 df e1 bb
       0.0024217914 -0.008518767 -0.010308092 -0.0068931095
0001f0 f5 65 e9 3b f8 ed db 3b 9c ba 5f 3c f8 50 4d bc
       0.00712275 0.0067117177 0.013655331 -0.0125315115

network_body._body_endoder.seq_layers.2.weight f4 [128, 128]
000000 c2 18 11 bd 45 7e 93 3c 3a 9f ac bd 96 c3 39 bd
       -0.035424 0.018004546 -0.084288076 -0.04535254
000010 35 71 48 be 8d 87 7a 3d 90 89 1b bd 6a 7a bc 3c
       -0.19574435 0.061164428 -0.037972987 0.02300759
000020 03 68 f0 3d 20 36 1e 3d cc 8d 38 3e 52 14 31 3e
       0.11738589 0.038625836 0.18022841 0.17292908
000030 0f d5 10 3c 67 6a 13 bc 20 b0 52 3d 3a 6c bd 3c
       0.00883986 -0.008997536 0.051437497 0.023122896
000040 64 01 12 be 9f ae d1 bd cd 39 0c 3d cb 25 1a be
       -0.14258343 -0.102383845 0.03423481 -0.1505348
000050 b8 ec 53 bc 22 3c a1 3d ff 74 25 3d 76 39 23 bd
       -0.012934856 0.078727975 0.04039478 -0.03984972
000060 00 0e 8e 3d 79 a1 48 bd 0c 74 2a bd 70 6b b5 3d
       0.06936264 -0.048982117 -0.041614577 0.08858383
000070 d3 9c 83 bd 75 71 91 3d ec 03 31 bd 91 b8 81 bd
       -0.06426396 0.07101718 -0.04321663 -0.063340314
000080 f6 b9 23 3d 0b 54 21 3d bd 66 15 be 72 25 e6 bd
       0.039972268 0.03938679 -0.14589973 -0.11237611
000090 30 85 97 3c c6 49 37 3d 20 9d 09 be d5 f4 d8 3d
       0.018496126 0.04474809 -0.13438845 0.10593573
0000a0 c7 01 13 3d 3a 0e f7 3c d5 f5 62 bd 2d 8c b4 bd
       0.035890367 0.030158151 -0.055410225 -0.08815799
0000b0 0e 33 8b 3d 35 c0 17 3a 2c a3 01 3d 10 15 45 3d
       0.06796847 0.0005788834 0.031649753 0.04811579
0000c0 c4 d5 ee 3d 78 77 75 bd de 37 de 3d 28 ab 47 bb
       0.11661866 -0.059928387 0.108504996 -0.0030467007
0000d0 e3 63 66 3c f9 58 bc 3c 8f 34 08 3d fd ad 8e bd
       0.014061901 0.022991644 0.03325325 -0.069667794
0000e0 2e 3d 27 3b d8 43 03 3e 93 f9 23 3e e1 53 a1 3c
       0.0025518644 0.12818849 0.16013174 0.019693317
0000f0 0d c0 56 bd 13 32 ba 3d 59 bc cb 3c be bd a9 3d
       -0.052429248 0.09091582 0.024870085 0.082881436
000100 ce bf e9 3d 0f c7 6b 3d 33 03 ad 3d 67 2c d3 bd
       0.11413537 0.057562884 0.08447876 -0.103112034
000110 91 d3 06 bd 93 6e a6 3d f4 a8 52 3e e6 5a 5c 3c
       -0.03291661 0.08126559 0.20572263 0.013449406
000120 12 c9 92 bd d7 cb 06 3e a2 de 8d bd f2 e9 af 3d
       -0.07167257 0.13163696 -0.069272295 0.085895434
000130 15 cc a7 3d 47 ea a3 3c 5d b6 6a 3d a5 1a aa bd
       0.081932224 0.020009173 0.05730282 -0.08305863
000140 ef 37 21 3e 17 9a 48 3e 32 74 39 bd 25 e3 25 bd
       0.15743993 0.1959003 -0.045276828 -0.040499825
000150 85 03 e3 bd c6 ba ae 3d d0 08 d8 bd 64 6e 26 3d
       -0.11084656 0.08531718 -0.10548556 0.04063262
000160 8d e5 8c 3c 5d 4d 0a be c9 f0 76 bd 31 22 d5 bd
       0.017199302 -0.13506074 -0.060288224 -0.10406912
000170 1b d7 01 3e 47 df d9 3d 4b 5b 25 3d 23 76 ea bc
       0.12679712 0.1063829 0.040370267 -0.028620785
000180 a2 9e 4d bd 60 b5 3e bd 65 a3 93 bd a7 86 32 bd
       -0.050200112 -0.04655969 -0.072088994 -0.043585446
000190 7f 97 1f bd d0 13 92 3c b6 3e 58 3b 77 a3 a2 3d
       -0.038962837 0.017831713 0.0032996363 0.07941335
0001a0 6e 85 55 3d 77 52 81 3d ac aa 9c 3d b2 b5 e6 bd
       0.0521292 0.06314557 0.076497406 -0.112651244
0001b0 b2 f8 c5 bd ca 8c 4c bd 8e 66 df bd 85 06 80 bc
       -0.096665755 -0.049938954 -0.10908233 -0.015628109
0001c0 20 98 bb 3d 96 22 55 be 93 ae 68 bd b9 17 d4 3d
       0.09159875 -0.20813975 -0.056807112 0.10356087
0001d0 b2 11 05 3e 49 f9 a8 3d 8f 3b 9a 3c f9 5e 04 bd
       0.12995031 0.08250672 0.018827228 -0.032317135
0001e0 5f 04 bd 3c 07 bf 4b 3d c4 f9 87 3d f8 4b 14 bd
       0.023073373 0.049742725 0.06639436 -0.036205262
0001f0 74 2f d8 bc 17 8d 2e bd 85 3c 71 bd 6e b0 e1 bc
       -0.026389815 -0.042615023 -0.058895607 -0.027549949
000200 0a 90 17 3e 45 20 74 3d 86 2e 04 3c e2 20 13 3e
       0.1480104 0.059601087 0.008067733 0.14368013
000210 bf 6c 0b bd 43 cd e8 3d ec f5 e6 3a d3 8c 31 3c
       -0.034039255 0.113672756 0.0017620898 0.010836798
000220 50 84 b3 bd d3 59 49 3c 78 86 1c 3e 9b 6c f5 3c
       -0.08765471 0.012289482 0.15285671 0.029959014
000230 75 f5 19 be cd 9b 3a bc 82 4a be 3d d0 20 9d 3d
       -0.1503504 -0.011389685 0.09291555 0.07672274
000240 bc f6 8e bc 0c 7c 0e be 95 1b e5 3d db ca 21 3d
       -0.017451636 -0.13914508 0.111869015 0.0395001
000250 40 b6 cb bc 4e 33 27 3c 7e a3 54 3e c8 2f a9 3d
       -0.024867177 0.010205103 0.20765492 0.08261067
000260 ff 53 c1 bd 1f 0e 99 3d fb ef ef 3d 22 61 0e 3e
       -0.09439849 0.074733965 0.117156945 0.1390424
000270 e7 66 a4 3b 2a 5d 90 3d 4a 6e 9f 3d d1 db 34 bd
       0.0050171497 0.0704902 0.07784708 -0.044154946
000280 f9 71 ba ba 2d 03 48 bd 2e c3 18 bd d6 f1 f8 3d
       -0.001422464 -0.048831154 -0.037295513 0.121555015
000290 cd b6 9e bd 66 3d 9d bb aa 9b 95 bd 66 6e 6f bd
       -0.0774971 -0.004798579 -0.07305081 -0.058454894
0002a0 2f d9 9b 3c 01 88 c7 3b cb 2a 6e 3d c5 81 d6 3d
       0.01902446 0.006089211 0.05814628 0.1047397
0002b0 21 b6 8b 3d 2c 47 8f 3d 1c 5d cd 3d a8 49 d4 3d
       0.06821848 0.06995997 0.10027525 0.10365611
0002c0 0d 2a 96 3c 99 af 74 bc a9 ab be bd db cf 1d 3e
       0.018330598 -0.014934444 -0.09310085 0.15411322
0002d0 e9 b8 09 bd ce 56 b3 3c 67 53 83 bc c1 12 42 3a
       -0.03362361 0.021891978 -0.01603098 0.0007403307
0002e0 02 fc 43 be fc ce b2 3d 10 e4 2e bd 6a b3 a8 bd
       -0.19139102 0.087308854 -0.042697966 -0.082373455
0002f0 8a fa 63 bc 5c 29 c7 bd b5 f9 ea bd 98 fe 3c bd
       -0.013914714 -0.097246855 -0.11473409 -0.046141237
000300 79 13 05 bd ac 50 23 be 8e 8f c9 3c 65 60 60 bc
       -0.032489274 -0.15948743 0.024604585 -0.013694857
000310 8f 58 df bd 0f 6a 05 3e 09 67 25 3d b1 13 73 b9
       -0.10905563 0.1302874 0.040381465 -0.00023181622
000320 37 d2 07 be d9 7e 86 3d e7 5e a4 3d af b3 3e 3d
       -0.13263784 0.06567163 0.08025914 0.04655808
000330 8d fc 96 3c 54 87 ff bc 34 2f af 3c 7b 40 53 3d
       0.018430972 -0.03119246 0.021384813 0.051575165
000340 a0 52 2b bd 67 4f f3 3c 33 b2 15 be 4f d4 2a 3b
       -0.041826844 0.029700948 -0.14618759 0.0026066487
000350 14 d6 e0 bd 06 cf 4a 3d d4 bc cb 3d 2b 14 91 bd
       -0.10978332 0.04951384 0.099481255 -0.07083925
000360 50 59 97 bd 83 e0 09 3d 3c 6c 1f bd c2 57 85 3d
       -0.07390082 0.033661377 -0.03892158 0.06510879
000370 b7 b2 b8 bd 9d 9d 15 be e2 72 03 bd 82 46 b3 bd
       -0.09018462 -0.14610906 -0.032091983 -0.08753683
000380 0b d1 2a bc 79 ed cd bb 77 69 3b 3e d0 fb 1d 3e
       -0.010425816 -0.0062844125 0.1830195 0.1542809
000390 96 09 e9 3d 6b 5a 88 bb 8d e3 d3 bd 55 af 0d bb
       0.113787815 -0.0041611693 -0.10346136 -0.0021619399
0003a0 92 5e 7e bd 31 07 4a 3d 6b c2 89 bb b3 69 ab 3c
       -0.062101908 0.049323265 -0.0042040846 0.020924425
0003b0 f8 1e 30 be a1 2d 50 3d 8b 97 1d bb b6 80 1f bd
       -0.17199314 0.050824765 -0.0024046625 -0.038941108
0003c0 38 5b 6d 3d 1e 7a 40 3e 44 6b 1f bd 2c ed bf 3d
       0.05794832 0.18796584 -0.038920656 0.09371409
0003d0 12 60 26 3e 50 1b ff bc cb b8 2d be 40 8e 0e 3d
       0.16247585 -0.031140953 -0.16965024 0.03480363
0003e0 15 29 ce 3d 56 8f 8d 3d fc 90 93 3d eb 68 f2 3d
       0.100664295 0.06912105 0.07205388 0.11836418
0003f0 a2 91 51 bd f4 4d a0 bd 1e a4 21 be d1 e7 d2 3d
       -0.051164277 -0.078273684 -0.15785262 0.10298122

network_body._body_endoder.seq_layers.2.bias f4 [128]
000000 0b c5 b5 bb 91 18 f0 bb ce 3a f2 bb 6d 84 ec bb
       -0.005547171 -0.0073271473 -0.007392264 -0.007217935
000010 bd 88 0f bc e8 3d be 3b cd 17 f0 3b 1e bf cd bb
       -0.008760628 0.0058057196 0.007327056 -0.0062788865
000020 a7 c9 95 bc 27 b3 b2 3b 02 f7 fa bb 50 56 cd 3b
       -0.018284632 0.0054534855 -0.00765884 0.006266393
000030 42 8f 21 bc 95 22 37 3b 5e b7 c0 bb 26 7b d6 3a
       -0.0098608155 0.0027944196 -0.005881234 0.0016363605
000040 f3 53 7a 3a 1b ea c3 3b bc a1 c6 bb eb 5b 17 3c
       0.00095492526 0.0059788353 -0.0060617607 0.009238224
000050 e1 79 28 3c 6e 06 1c bc a7 a4 38 bc 36 ce 19 bc
       0.010282964 -0.009523017 -0.011269725 -0.009387543
000060 32 43 3e bb a0 22 1a 3c 69 49 bc bb f1 8e 0b bc
       -0.002903175 0.009407669 -0.005746056 -0.008517967
000070 17 7c 26 bc 1f 80 39 bc 70 e9 d8 3a 89 37 8e bb
       -0.010161421 -0.01132205 0.0016549062 -0.0043401164
000080 0b 93 af 3b 82 bc 24 3c 51 e5 72 3c 5c 84 3f 3b
       0.005358105 0.010054709 0.014825181 0.002922318
000090 0d cd 93 bb 89 cf 0e bb 1f 34 39 bc ab b9 28 bc
       -0.004510528 -0.002179118 -0.011303931 -0.010298173
0000a0 cf 76 02 bc fe 35 e5 3b e3 d6 5c bb 0a ef 33 3c
       -0.0079628965 0.0069949618 -0.0033697418 0.010982284
0000b0 4e 37 40 3c 9e 87 7d b7 85 64 80 3b d5 71 f2 bb
       0.011731936 -1.5111551e-05 0.003918233 -0.0073988237
0000c0 84 f0 4b bc 1d 56 b9 3b 40 b5 af 3b 1d 64 3f ba
       -0.01244748 0.0056560175 0.005362183 -0.000730099
0000d0 85 27 00 3c 19 2b 01 bb de 30 08 bc 6c 5f f9 3a
       0.007821922 -0.0019709526 -0.008312432 0.001902563
0000e0 d1 38 ef 3b cd aa e0 3b 8f 24 f8 ba f8 2c 0a 3c
       0.007300474 0.0068562985 -0.0018931794 0.008433573
0000f0 1f 6b 62 bb 1a ed 88 3b 1b 0d 3b bc c8 ba 8b bb
       -0.0034548712 0.0041786553 -0.011416699 -0.0042642094
000100 f8 6a 1f bb 93 e9 ea 3b 6e c3 c7 ba 52 fa 2d 3c
       -0.0024325233 0.0071689575 -0.0015240738 0.010618763
000110 8e 7d 25 3c b8 9c 2a 3c 66 6c 09 bc cf d7 29 bb
       0.010100735 0.010413341 -0.008387661 -0.0025915985
000120 5b 80 23 bc 70 f0 57 3c 66 0d 8a 39 99 df 3d bc
       -0.009979333 0.013179883 0.00026331394 -0.011588954
000130 26 96 78 ba 02 83 9c 3b b7 07 cb bb 20 a8 2d 3c
       -0.0009482823 0.0047763595 -0.006195988 0.010599166
000140 12 39 81 3c ab 42 b8 3b cf ac 90 ba 0a 5f fa bb
       0.015774284 0.005623182 -0.0011037829 -0.007640724
000150 42 84 58 bb 4c 59 12 3b a2 ce dc bb 16 8a c0 3b
       -0.0033037816 0.0022331057 -0.0067384997 0.005875836
000160 cc 24 61 3b b0 15 cc bb a0 65 8d 3b 29 e2 b8 bb
       0.0034354208 -0.0062281713 0.004315093 -0.0056421948
000170 13 14 20 bc 04 55 29 bb 1f 82 0d bc 40 41 c2 bb
       -0.009770411 -0.0025838027 -0.00863698 -0.0059281886
000180 04 0d 21 b9 ad 5b 4b 3c b8 54 33 bb 8b a6 9f 3b
       -0.00015359005 0.012411994 -0.0027363729 0.0048721484
000190 21 f9 63 3c 86 d2 77 39 96 af 97 bb 29 fc e4 bb
       0.013914377 0.00023634182 -0.004629086 -0.0069880676
0001a0 5a 9d 30 3c ec 36 32 bc bc 54 a8 3c 92 1c 65 39
       0.010779703 -0.010877352 0.020548217 0.00021849785
0001b0 27 8b f0 3b 98 97 c1 ba d9 18 8f bb 6d 82 48 ba
       0.007340807 -0.001476991 -0.0043669757 -0.00076488295
0001c0 02 8b 19 bc b1 99 e9 ba d9 4f 34 bc 39 95 28 3c
       -0.009371521 -0.0017822293 -0.011005365 0.010289484
0001d0 0a 6d f5 3b 81 b4 11 bc b6 27 95 3b 1c b4 7e 3c
       0.007489805 -0.008893133 0.004551853 0.015545871
0001e0 bc 1f 13 3c d4 16 7b 3b b8 cc f9 bb b4 c1 1e 3c
       0.008979734 0.0038313167 -0.0076232813 0.009689737
0001f0 ba 0f e8 3b cf c6 32 bc f1 e1 d0 3b 78 87 c4 3b
       0.007081953 -0.0109116575 0.0063745906 0.0059975944

action_model._continuous_distribution.log_sigma f4 [1, 2]
000000 63 cb c3 bb 74 13 c4 bc
       -0.0059751733 -0.023935057

action_model._continuous_distribution.mu.weight f4 [2, 128]
000000 cd 3f 52 3a 3a 54 a4 bb 65 10 2d 3d bc fe 67 3b
       0.00080203713 -0.0050149234 0.042251963 0.0035399636
000010 cf 11 b1 39 0d dd 00 bb 29 8b 5f 3d 1d bf 35 3d
       0.0003377334 -0.0019663007 0.054576073 0.044371713
000020 97 ea 9f bc 69 f9 17 bd 04 cc ab 3c 67 77 3b 3c
       -0.01952104 -0.03710309 0.020971306 0.011442042
000030 72 50 dd 39 d5 d7 54 3b ea 4c 12 bc 1e 12 35 3c
       0.0004221234 0.0032477279 -0.008929471 0.011051683
000040 30 1b 64 bc 38 36 97 bc 0a 62 d7 3c 9f cf 8e bc
       -0.013922498 -0.01845847 0.026291866 -0.017432986
000050 7c 79 12 3c f7 36 09 bb 37 bf 9d bc c4 be 99 3a
       0.008940097 -0.0020937303 -0.019256217 0.0011729826
000060 2e 23 51 3c f0 c6 a9 bc 0d 0d 12 3b ce ac 4d 3c
       0.012764735 -0.020724744 0.002228561 0.012553407
000070 ae fa 97 3b 35 5b cc b8 e2 3b 8d 3b b1 4e 9c 3c
       0.0046380376 -9.744467e-05 0.004310117 0.019080492
000080 22 36 f7 3b 1d 3e e6 bc 4a e0 0f bd ec 6f cb bc
       0.007544295 -0.02810579 -0.035126008 -0.024833642
000090 ae 69 c9 3b 22 22 0a ba 6a 67 da bc b8 05 32 3c
       0.006146631 -0.00052693684 -0.02666064 0.010865621
0000a0 7d c4 af bc b9 54 66 bc a2 71 8c 3c 28 e6 e1 bc
       -0.021455998 -0.014058285 0.017144028 -0.027575567
0000b0 a6 2a 24 3c e9 bd 08 3d 5f 08 2a 3b 87 5a 07 ba
       0.010019934 0.033384237 0.002594493 -0.0005163331
0000c0 ee 6f a6 3c bc 4f 0c 3b dd 18 08 3d f1 3e 92 3c
       0.020317044 0.002140983 0.033226836 0.017852278
0000d0 31 84 79 3c fe b0 18 3c cf 8e aa 39 53 05 c6 3b
       0.015229271 0.009319542 0.00032531327 0.006043115
0000e0 d1 76 ee bc a3 b8 41 bd 37 7f 9c 3c a9 71 9e bc
       -0.02910939 -0.047295224 0.01910363 -0.019341307
0000f0 5b 50 8b 3c d9 1b 30 bc a5 76 4d bc 01 28 e0 3b
       0.01700609 -0.010748827 -0.012540494 0.0068407063
000100 4b 66 41 bb 20 6a 38 bc 5d e3 ac bb 78 54 a2 3b
       -0.0029510434 -0.011255771 -0.0052761273 0.004953917
000110 8e e4 8c 3c c8 d3 0b bd de 83 82 bc 56 b2 42 3d
       0.017198827 -0.034137517 -0.01593202 0.047533356
000120 98 a5 94 3c cf 3b 0b bd d4 d1 9f 3c 5b 33 ca 3c
       0.018145368 -0.033992585 0.019509234 0.024682691
000130 01 a0 db 3c 44 87 5d bc f2 9d 0d bd c3 4e 31 bd
       0.026809694 -0.013521019 -0.034574457 -0.043288004
000140 61 29 17 bd bf 41 35 3c 48 4c 4d 3c 2d 2c 1e 3b
       -0.036904696 0.011063038 0.012530394 0.0024135218
000150 a3 b4 1b 3c 45 38 9d bb 9c 7a ba 3c 2d 35 d0 bb
       0.009503516 -0.0047979676 0.022763543 -0.0063539953
000160 97 4a 5c bc d8 d7 92 3c 0b ac 96 3c f7 b8 0e 3d
       -0.013445518 0.017925188 0.018392583 0.034844365
000170 49 f0 2e 3b 45 d5 ad 3c f1 7c f9 3b b4 8e 6f bc
       0.0026693514 0.021219859 0.007613771 -0.014621425
000180 59 ab 80 3c 8d 8f 24 bd e2 09 f1 3c 10 03 21 3b
       0.015706705 -0.040175963 0.029423658 0.0024568476
000190 25 f6 db bc 1d 5a 3f 3d 19 6f 27 3c 28 13 65 bc
       -0.02685077 0.046716798 0.010219359 -0.013981618
0001a0 94 33 fe bc d7 ff 14 bc 8c a6 39 39 ab 8b 24 3c
       -0.031030454 -0.0090942 0.00017705018 0.010043065
0001b0 38 c4 9a bb c0 ab 0c bc 54 2b 6f bc 11 0e c9 bc
       -0.004723098 -0.00858587 -0.014597733 -0.02454284
0001c0 3e ec c1 3c ce 01 b6 3c 07 bf 05 3b 08 be 2e bc
       0.02367222 0.022217657 0.002040805 -0.010665424
0001d0 7c a4 07 bd b6 1a 6b 3c 40 2d ea 3b 16 03 61 3a
       -0.03311585 0.01434963 0.0071465075 0.00085835287
0001e0 d0 27 ba bc 85 35 9c bb 1d 88 31 3c f8 67 f3 38
       -0.022724062 -0.004767122 0.010835675 0.000116065086
0001f0 0d a5 a5 bb f7 8d 56 3c fb ae 2b bd fe 2f 79 bb
       -0.005055076 0.0130953705 -0.04191492 -0.003802299
000200 6a 7c 65 3c 1d 6a 9c 3c 45 ba 16 3c 30 3b 18 3d
       0.014006713 0.019093568 0.009199684 0.03716582
000210 13 88 16 bb e0 e2 ed bc 74 19 01 3c 1a 6e c1 3c
       -0.002296929 -0.029038846 0.007879604 0.02361207
000220 e2 ec 92 bc 4e 17 1a 3b 95 5f f6 3c 58 cf ce 3b
       -0.01793522 0.0023512426 0.030074874 0.0063113384
000230 90 05 8c bc 00 1f d8 ba 33 5e a1 3c ca 11 07 bc
       -0.017092496 -0.0016488731 0.019698238 -0.008243987
000240 77 8e 5c 3c 6d 45 e5 3c fc e4 8e 3c 35 0f 9c bc
       0.013461701 0.027987206 0.017443173 -0.01905022
000250 aa fc f3 3c 60 e7 14 3d 36 4a 2b 3c 0f cf 59 3c
       0.029783566 0.03635347 0.010454705 0.0132939955
000260 fb 68 f3 3a 56 3d be bc 86 0b e2 3c 5e 57 32 3c
       0.0018570715 -0.023222607 0.027593385 0.010885088
000270 f9 73 1a 3c cf 04 e8 3b cd ea bf 3c eb 36 a7 bc
       0.009427064 0.0070806514 0.023427391 -0.02041193
000280 78 93 96 bc 19 bd 6e bc 2b ec 00 bb d8 17 8f 3a
       -0.018380865 -0.014571452 -0.0019672017 0.001091714
000290 61 96 14 bc d7 b0 4c 3c 4c ab ba bc 82 14 a1 bb
       -0.009069056 0.012493334 -0.022786759 -0.004915775
0002a0 5e 90 a7 3b 70 ac b5 3c f3 a1 82 3c 0a b7 09 bd
       0.0051136455 0.022176951 0.015946364 -0.033621825
0002b0 c1 ad 60 3c a8 82 cf 3a d1 be 82 bc d3 b1 b5 3c
       0.013713301 0.0015831785 -0.015960129 0.02217952
0002c0 26 a8 d9 3b 8b 3f 0b bd 7e a5 f3 3b 73 1b 95 3c
       0.0066423593 -0.033996146 0.0074354997 0.018201565
0002d0 9a 69 f7 bc ff fb dc b9 4d 74 ec 3c af 6d 0d 3d
       -0.030201722 -0.00042149422 0.02886405 0.03452843
0002e0 3a 6a 1a bc 58 d8 f6 bb 0d ff 37 bb 00 cb a3 bc
       -0.00942474 -0.0075331144 -0.0028075606 -0.019994259
0002f0 a7 0e 00 3d 0d b3 58 3c d3 22 31 bc c3 25 1e 3d
       0.031263974 0.013226283 -0.010811525 0.03861023
000300 ab c5 16 bb 7b 0d 75 ba a5 34 42 3c c0 a2 ab 3c
       -0.0023006003 -0.0009348017 0.011853372 0.020951629
000310 01 e3 8e 3c 1e f2 6a bc bf 24 c9 bb fb 51 9f bc
       0.017442228 -0.014339952 -0.0061384137 -0.019448271
000320 27 84 f0 3b 11 5f c8 3a da 72 47 3d b5 ab 0c 3c
       0.0073399725 0.0015287121 0.048693515 0.00858586
000330 0e 32 0a 3d 4c ee dc bb 4e f8 c2 3c cb 53 2a bd
       0.033739142 -0.0067422744 0.023800042 -0.041583817
000340 2d 32 89 3c 11 ab 59 bd 4a fe ce 3a 74 be 5c 3d
       0.016747558 -0.053141657 0.0015792337 0.053892568
000350 bb 5d eb ba bc e1 a8 3c 61 d9 0b bc c4 72 96 bc
       -0.0017957011 0.020615451 -0.008535714 -0.018365271
000360 f6 a8 11 bb 70 93 0a bc a0 ec e2 ba 55 15 0b 3c
       -0.0022225953 -0.008458003 -0.0017312951 0.008488973
000370 e1 52 70 bb 0f 97 4a 3d ce b5 a2 3c a8 58 eb 3b
       -0.0036670493 0.049460467 0.019862082 0.0071821995
000380 46 b1 a6 bc 61 7a 55 bd 24 b7 60 3d 43 a0 cb bc
       -0.020348202 -0.052118663 0.054862157 -0.024856692
000390 46 58 2c bc 0c 3b 00 3d a3 5c 8a bb 18 eb bd 3b
       -0.010519093 0.03130631 -0.004222469 0.0057958476
0003a0 ef 5f 0f 3d 31 80 70 3a 91 5f 34 3d 0a 94 1a 3d
       0.0350036 0.00091743754 0.04403645 0.037738837
0003b0 f2 2f ef bc b0 41 fa 3c 9e 42 73 3c 2b bc d9 3b
       -0.029197667 0.0305489 0.014847426 0.006644746
0003c0 49 7b 9f 3c 69 3e e4 3c da d8 fa 3b d1 2b 43 bc
       0.019467967 0.02786179 0.0076552453 -0.011912302
0003d0 55 a6 01 bd ba 4c 50 3c a2 70 08 bd 82 17 d0 3c
       -0.031652767 0.012713606 -0.03331054 0.025401834
0003e0 4d ec 19 bc 0b 4c 92 bc 89 b7 f7 bc dd c8 ec 3b
       -0.009394717 -0.017858526 -0.030238884 0.007226093
0003f0 49 f5 ad bc e0 9b a6 3b 0b 17 85 3c a8 a2 ee 3c
       -0.021235125 0.0050844997 0.01624634 0.029130295

action_model._continuous_distribution.mu.bias f4 [2]
000000 94 4f d5 bb 9a 41 fa bb
       -0.0065097306 -0.007637215
