V1/results/1/MoveToGoal/MoveToGoal-26455.onnx (onnx, 75062 bytes, 7 tensors)

network_body._body_endoder.seq_layers.0.weight f4 [128, 6]
0	0x3c7f2f5e	0.015575258
1	0xbea1d858	-0.3161037
2	0xbe30337b	-0.17207138
3	0xbe1dc033	-0.1540535
4	0x3ef25dc9	0.47337177
5	0xbe2e94c3	-0.17048936
6	0x3f8b5d28	1.0887804
7	0xbebdf626	-0.3710186
8	0xbec0de92	-0.37669808
9	0x3e035fcc	0.12829512
10	0xbe12b796	-0.14327845
11	0xbf10873f	-0.5645637
12	0xbf892aaa	-1.0716145
13	0x3e9e3dcc	0.30906522
14	0x3f086db1	0.53292376
15	0x3f2adbd6	0.66741693
16	0x3ec2a5a0	0.38016987
17	0xbd0f92c1	-0.035052065
18	0xbe54ee5d	-0.20794053
19	0x3ed9eea7	0.4256489
20	0x3eecd8e2	0.46259218
21	0xbef5a0c7	-0.47974226
22	0xbf3c9696	-0.73667276
23	0x3eba9432	0.3644119
24	0x3ec00ed7	0.37511322
25	0x3e7ca867	0.24673615
26	0xbd81b48c	-0.06333265
27	0x3f2598b0	0.6468611
28	0xbe9acd0a	-0.30234557
29	0x3ee9bb35	0.4565064
30	0xbc6040be	-0.013687311
31	0xbd8c7d9d	-0.06859896
32	0xbece904c	-0.40344465
33	0x3d7349f1	0.059396688
34	0x3e0019a2	0.12509778
35	0x3e90f932	0.2831512
36	0xbd704865	-0.05866279
37	0x3effe775	0.49981275
38	0xbeec6f70	-0.4617877
39	0xbf03d826	-0.5150169
40	0xbec9cf3f	-0.3941593
41	0xbf5976dc	-0.8494699
42	0x3e6de6aa	0.23232523
43	0xbd31853f	-0.043339964
44	0x3f3e0d0a	0.74238646
45	0x3dbb7cfc	0.09154698
46	0xbea080aa	-0.31348163
47	0x3f21e838	0.6324496
48	0xbe868256	-0.26271313
49	0xbe305dd4	-0.17223293
50	0xbf243694	-0.6414578
51	0xbd78d5bb	-0.060750704
52	0xbf0d2391	-0.55132395
53	0x3e41ab4e	0.18913004
54	0xbd14af2c	-0.03629987
55	0xbe1f0fcb	-0.15533368
56	0xbe81675b	-0.25274166
57	0x3ee88eec	0.4542154
58	0xbe37e4bf	-0.17958353
59	0xbf114102	-0.5673982
60	0x3df8ae46	0.12142615
61	0x3f8a4d0c	1.0804763
62	0x3ef707ca	0.4824813
63	0x3f763584	0.9617541
64	0xbefa4c50	-0.48886347
65	0x3eb79c6e	0.35861534
66	0x3d48d223	0.049028527
67	0x3b589363	0.0033046834
68	0xbef5a0ac	-0.47974145
69	0x3ea00472	0.31253392
70	0xbf88a2eb	-1.0674719
71	0xbe64be40	-0.223382
72	0x3f324fdf	0.69653124
73	0xbf302036	-0.6879915
74	0x3dfac12c	0.12243876
75	0xbe9e20d7	-0.3088443
76	0xbf45ca44	-0.7726176
77	0x3edee7cc	0.43536222
78	0xbf1bcdc8	-0.6086087
79	0xbecada11	-0.39619496
80	0x3e947598	0.28995967
81	0xbeaa0c25	-0.3321239
82	0x3eb20966	0.34772795
83	0x3ae86e38	0.0017733043
84	0xbd8cabb4	-0.06868687
85	0x3e0cdbde	0.13755748
86	0xbe9eb465	-0.30997005
87	0xbf358899	-0.70911556
88	0x3e70157f	0.234457
89	0xbe95206d	-0.291263
90	0x3b3c0973	0.0028692156
91	0xbe0476a2	-0.1293588
92	0x3f000e0a	0.5002142
93	0xbe2726a0	-0.16323328
94	0xbe6ce84a	-0.23135486
95	0x3f3d7e84	0.7402117
96	0x3ee057aa	0.43816882
97	0x3f145b5e	0.57951915
98	0xbeeb4fdf	-0.45959374
99	0x3e86843b	0.2627276
100	0xbedc441b	-0.4302071
101	0x3e3b4297	0.18287121
102	0xbefcd6dc	-0.49382675
103	0x3e27e54d	0.16396065
104	0xbebec189	-0.3725703
105	0x3f5d3b5f	0.8641872
106	0x3cca9598	0.024729535
107	0xbe54ae1f	-0.20769547
108	0x3e7fd011	0.24981715
109	0xbc9bba7e	-0.019009825
110	0x3e15cf6d	0.14629908
111	0x3deb6956	0.114947006
112	0xbe42f5fd	-0.1903915
113	0x3f596d28	0.84932184
114	0x3dc4965f	0.095989935
115	0xbe4bda4f	-0.19907497
116	0xbec3d4ea	-0.38248378
117	0xbe0d0ede	-0.13775203
118	0x3edf9850	0.43670893
119	0x3b7ec65d	0.0038875558
120	0xbe3741af	-0.1789615
121	0xbf3ed857	-0.7454886
122	0x3f1b5edc	0.6069162
123	0xbe7b1f26	-0.24523601
124	0xbf5d5ac4	-0.8646662
125	0x3e8461aa	0.25855762
126	0x3dcd3911	0.1002065
127	0xbe8623ab	-0.26199088
128	0x3eedca07	0.46443197
129	0x3da035bb	0.07822748
130	0x3ee25840	0.44207954
131	0x3e5008f7	0.2031592
132	0x3c9277eb	0.017879447
133	0xbe12fafa	-0.14353552
134	0xbf569bc8	-0.83831453
135	0x3e461b6e	0.19346401
136	0x3e73e79e	0.23818824
137	0xbef354fd	-0.47525778
138	0xbf335bd8	-0.7006202
139	0xbe734abb	-0.23758976
140	0x3f2eba82	0.6825334
141	0xbe4ef7cb	-0.20211713
142	0x3ea930a2	0.33044916
143	0xbe31579f	-0.17318581
144	0xbe90c25d	-0.28273287
145	0x3e17400a	0.14770523
146	0xbe55d6f4	-0.2088278
147	0xbef52c61	-0.4788542
148	0x3f333d1d	0.70015126
149	0xbea04eee	-0.3131022
150	0x3f02e228	0.5112634
151	0xbf581cf7	-0.84419197
152	0xbd9cb74b	-0.07652148
153	0x3ec2918d	0.3800167
154	0xbea18854	-0.31549323
155	0x3d9e747d	0.07737062
156	0x3e442db7	0.19158064
157	0xbeafcdc2	-0.34336668
158	0x3e2caa85	0.16861923
159	0x3c846ee5	0.01616616
160	0x3db25b7e	0.08708857
161	0xbdfe059a	-0.12403412
162	0xbef58ca4	-0.47958863
163	0xbe9a67cd	-0.3015732
164	0x3e97e18a	0.2966426
165	0x3f1e5538	0.61848783
166	0xbd77f146	-0.06053283
167	0xbe53a25f	-0.20667408
168	0xbeddbace	-0.43306583
169	0x3d5cdddb	0.053922515
170	0xbef1cd0f	-0.4722676
171	0x3eb53df3	0.35398826
172	0x3ee6a055	0.450442
173	0xbf36a007	-0.7133793
174	0x3ef93697	0.4867446
175	0xbf26b3fb	-0.6511838
176	0x3f1b771d	0.6072863
177	0x3e28b183	0.16473965
178	0xbf754340	-0.9580574
179	0x3e7f110c	0.24908847
180	0x3eb3261a	0.34990007
181	0x3e5bbee3	0.21459536
182	0x3d669dfc	0.05630301
183	0x3f2ce172	0.675315
184	0x3ed1a9f0	0.40949965
185	0x3cb0732a	0.02153929
186	0xbebaa2f9	-0.36452463
187	0xbdfc74d3	-0.1232697
188	0x3f132581	0.574791
189	0xbddef924	-0.108873636
190	0x3f136704	0.57579064
191	0x3f3a72d7	0.7283148
192	0xbece6b5d	-0.40316287
193	0xbcf4f998	-0.029904172
194	0xbe8201b8	-0.25391936
195	0xbdbccc6e	-0.09218679
196	0x3f553a5f	0.8329219
197	0xbe93949a	-0.28824311
198	0x3f2c7da1	0.67379194
199	0x3e9a3f06	0.30126208
200	0x3dbf2e82	0.093350425
201	0xbf341345	-0.703419
202	0xbf26ee33	-0.65207213
203	0x3d23aaca	0.0399578
204	0x3f1eb8b6	0.62000597
205	0xbf3077a9	-0.68932587
206	0x3f2ad7bc	0.66735435
207	0x3f11ea40	0.5699806
208	0x3de0a397	0.10968702
209	0xbe7bc0d6	-0.2458528
210	0xbea111d6	-0.3145892
211	0xbd78d067	-0.060745623
212	0x3ed2d958	0.41181445
213	0xbf00d06a	-0.50318015
214	0xbec10da1	-0.3770571
215	0x3ef1493e	0.47126192
216	0x3e91a20b	0.2844394
217	0x3ed97db9	0.4247873
218	0xbe8de941	-0.2771702
219	0xbe90e43e	-0.28299135
220	0x3e2d2b14	0.16910964
221	0x3e416426	0.1888586
222	0xbf03e2ed	-0.51518136
223	0x3eb7f493	0.35928783
224	0x3e05d44c	0.13069266
225	0x3f0df823	0.5545675
226	0xbf3f0c65	-0.7462829
227	0x3e5cedb5	0.21575053
228	0xbf091000	-0.5354004
229	0xbe5ef6b4	-0.21773797
230	0x3ee98f62	0.45617205
231	0xbf269b59	-0.6508079
232	0xbe1587ba	-0.14602557
233	0xbd5eb598	-0.0543724
234	0xbdbc08f4	-0.09181395
235	0x3e375a37	0.17905508
236	0x3e8e37b0	0.2777686
237	0xbef6f714	-0.4823538
238	0x3f09125a	0.5354363
239	0xbd96749b	-0.073464595
240	0x3eac6390	0.3366971
241	0x3c5912c6	0.013249105
242	0xbe2e69ad	-0.170325
243	0xbe25de7a	-0.1619815
244	0x3e524113	0.20532636
245	0x3f203e6e	0.6259526
246	0x3ed0a5f4	0.40751612
247	0x3c891060	0.016731441
248	0xbe0ae52e	-0.13563988
249	0xbe431135	-0.19049533
250	0xbdec2939	-0.115313
251	0xbf37cd68	-0.717978
252	0x3dc7930d	0.097448446
253	0xbea3d730	-0.32000113
254	0x3f58ab55	0.8463643
255	0xbe67890d	-0.22610874

network_body._body_endoder.seq_layers.0.bias f4 [128]
0	0xbc062c94	-0.008189339
1	0xbc787b4c	-0.015166115
2	0xbdbede28	-0.09319717
3	0xbc7cf0e0	-0.015438288
4	0xbb6a2be0	-0.0035731718
5	0x3d284d92	0.0410896
6	0xbced2fac	-0.028953396
7	0xbaf220e4	-0.0018472937
8	0xba5682fe	-0.00081829715
9	0x3d9cc3e2	0.07654549
10	0xbca555b0	-0.02018246
11	0x3d3c44c2	0.04596401
12	0x3d18db9c	0.03731881
13	0xbc0eeefb	-0.00872397
14	0xbd9a227c	-0.075261086
15	0x3c0276c8	0.00796289
16	0x3c294c19	0.0103330845
17	0xbd57cda8	-0.052686363
18	0xbcf96d9e	-0.030447777
19	0xbd3f6023	-0.046722542
20	0x3c1193e3	0.008885357
21	0xbce3830d	-0.02777245
22	0x3b70006f	0.0036621352
23	0xbccdd0f3	-0.025124049
24	0xbae0f0dc	-0.0017161625
25	0xba9c11e5	-0.0011907188
26	0xbd155ceb	-0.036465567
27	0xbbfb12c0	-0.0076621473
28	0xbcb1548b	-0.021646759
29	0x3b8b6311	0.004253753
30	0xbcd9a180	-0.026566267
31	0xbdf5d668	-0.12003785
32	0xbc8c8364	-0.017152496
33	0xbd0cb3c8	-0.03435114
34	0xbb14e586	-0.0022719814
35	0xbcd2c6e6	-0.025729608
36	0xbb582df0	-0.0032986365
37	0x3d856d8f	0.06515037
38	0xbc87f742	-0.016597394
39	0xbd369117	-0.044571962
40	0xbd19e184	-0.037568584
41	0xbd8b1deb	-0.06792816
42	0x3c850ae7	0.01624055
43	0x3d09f29a	0.03367863
44	0x3d22d868	0.039757162
45	0x3cc2b04a	0.023765702
46	0x3cea7c17	0.028623624
47	0xbd31e363	-0.043429743
48	0xbc9c15d3	-0.019053375
49	0xba340882	-0.0006867723
50	0xbd88e13a	-0.066835836
51	0x3cc416be	0.023936626
52	0xbd35a089	-0.04434255
53	0x3c02031f	0.007935314
54	0xbca34dec	-0.019934617
55	0xbc4441e1	-0.011978597
56	0x3c50a09a	0.012733603
57	0x3ca80716	0.020511191
58	0x3d002b07	0.031291034
59	0x3c865c10	0.01640132
60	0x3bb007d5	0.0053720274
61	0xbd8113f6	-0.06302635
62	0xbc41cd91	-0.011828796
63	0x3d5d71e1	0.05406368
64	0x3c8e9b5e	0.01740807
65	0x3dfb1a85	0.122609176
66	0xbc8ccb8e	-0.017186906
67	0xbd296d4a	-0.04136399
68	0xbd00066c	-0.031256124
69	0xbd292a78	-0.041300267
70	0x3c889b75	0.01667569
71	0xbd2f0889	-0.04273275
72	0x3c16558d	0.00917567
73	0xbcb57440	-0.022150159
74	0x3d137d96	0.03600844
75	0x3c7cdcdb	0.015433515
76	0xbc9ba1e3	-0.018998092
77	0xbc0ec94d	-0.008714986
78	0xbae7b9d2	-0.001767928
79	0xbcc741fd	-0.024323458
80	0xbc9a5c41	-0.018842818
81	0xbc377022	-0.011196168
82	0xbbbddafa	-0.0057939263
83	0xbbf85710	-0.007578738
84	0xbca26a2f	-0.019826023
85	0xbc9167b7	-0.01774965
86	0x3db8967a	0.09013076
87	0xbd09a17c	-0.03360127
88	0x3bb51276	0.0055258824
89	0xbd7cfb62	-0.061763175
90	0xbc10fae9	-0.008848884
91	0xbd064b57	-0.032786693
92	0xbc5f2c4f	-0.013621404
93	0x3cab9a4f	0.020947604
94	0x3d2acfdb	0.041702133
95	0xbc97b201	-0.018517496
96	0xbdc55c01	-0.09636689
97	0xbc0d96bd	-0.008641896
98	0xbd611b6b	-0.05495779
99	0xbd4cf882	-0.050041683
100	0x3b8c0684	0.0042732377
101	0xbbc00e17	-0.0058610546
102	0x3d925003	0.07144167
103	0xbba500e5	-0.005035507
104	0xbc076f14	-0.008266229
105	0x3d0fc172	0.035096593
106	0x3d488ac1	0.04896045
107	0xbb155218	-0.0022784527
108	0xbcc5832e	-0.024110403
109	0xbd00831e	-0.031375043
110	0xbc39023e	-0.0112920385
111	0xbc38aa8b	-0.011271129
112	0xbd37d751	-0.044883076
113	0xbca58520	-0.02020508
114	0xbd50634f	-0.050875958
115	0xbd28efbc	-0.041244254
116	0xbd121d82	-0.035672672
117	0x3d043721	0.032279138
118	0xbc783e99	-0.015151643
119	0xbae143e4	-0.0017186371
120	0xbd035fc3	-0.032073747
121	0xbda802aa	-0.08203633
122	0xbc6ffc15	-0.014647503
123	0xbc163490	-0.009167805
124	0xbd213a11	-0.039362017
125	0xbbe9c362	-0.007133887
126	0xbbe6ffba	-0.007049528
127	0xbdc0e3ad	-0.09418426

network_body._body_endoder.seq_layers.2.weight f4 [128, 128]
0	0x3da757e1	0.081710584
1	0x3cc19c8f	0.023634223
2	0xbdfc5d21	-0.123224504
3	0xbc91952b	-0.017771324
4	0x3dc67e92	0.0969211
5	0x3e02cb65	0.12772901
6	0x3dbdcd7f	0.09267711
7	0x3de74cdd	0.112939574
8	0xbcb1a177	-0.021683438
9	0xbc0aa5c7	-0.008462376
10	0xbd86b765	-0.065779485
11	0xbd51bb8b	-0.051204246
12	0x3d0bfc73	0.0341763
13	0xbd7bf3aa	-0.061511673
14	0xbdd6d74d	-0.10490284
15	0x3dc6b9cb	0.09703406
16	0x3da8e337	0.08246463
17	0x3dbb4259	0.09143514
18	0xbd46113d	-0.048356283
19	0x3cbd0858	0.023075268
20	0x3db3bc15	0.08776108
21	0xbcf01bcc	-0.02931013
22	0xbe175ae9	-0.14780773
23	0x3c13cd59	0.009021127
24	0x3cebbcf2	0.02877662
25	0xbe02941d	-0.12751813
26	0x3d31ad05	0.043377895
27	0xbe14b19f	-0.14520882
28	0xbe080ad7	-0.13285385
29	0x3b41fb32	0.0029599187
30	0xbda1e7a6	-0.079055116
31	0x3cf19017	0.029487653
32	0xbe03bb68	-0.12864459
33	0xbd89fa41	-0.06737185
34	0x3d34790f	0.044060763
35	0xbdbed3eb	-0.09317764
36	0x3a7d0653	0.00096521265
37	0x3d9ae8c7	0.0756393
38	0x3d8b5c80	0.06804752
39	0xbe14971c	-0.14510769
40	0x3dd4e0af	0.103944175
41	0x3bcd2f45	0.0062617385
42	0xbd91e62c	-0.0712398
43	0xbe5a67a6	-0.21328601
44	0x3daf6b3b	0.085653745
45	0xbd84bd40	-0.06481409
46	0x3d0abadf	0.03386962
47	0xbe2eabe1	-0.17057754
48	0x3d9ab37e	0.07553767
49	0x3dc001bd	0.093753316
50	0xbd80ff37	-0.06298678
51	0x3da503f8	0.080573976
52	0xbcdbf3c0	-0.026849627
53	0x3d2fc1ed	0.04290955
54	0xbd02b828	-0.031913906
55	0x3d0421ca	0.032258786
56	0xbd89fe5b	-0.067379676
57	0xbd13690b	-0.03598885
58	0x39d04688	0.000397254
59	0x3e2e14a2	0.17000058
60	0xbd841168	-0.064486325
61	0x3cb89365	0.02253122
62	0x3d4b3f49	0.0496209
63	0x3abdca35	0.0014479818
64	0xbd2e7e09	-0.042600665
65	0xbac84e06	-0.0015282042
66	0xbd58bc16	-0.052913748
67	0xbd1781ec	-0.036989138
68	0xbd900e18	-0.07033938
69	0xbbd5d9c8	-0.0065262057
70	0x3d5fc257	0.054628696
71	0xbdad642f	-0.08466374
72	0xbda0dd01	-0.07854653
73	0xbc1e7b3e	-0.009672938
74	0xbd2da2d9	-0.04239163
75	0x3d61c47b	0.05511902
76	0xbbd528d4	-0.006505111
77	0xbc50004f	-0.012695386
78	0xbd0ac3e0	-0.033878207
79	0xbb7041f3	-0.0036660403
80	0x3e65885d	0.224153
81	0xbcdb393b	-0.026760688
82	0xbd737805	-0.05944063
83	0x3c9a5f93	0.018844401
84	0xbd12f3e8	-0.03587714
85	0x3d8d08cb	0.06886443
86	0x3e04a8af	0.12954973
87	0x3d51c1c3	0.051210176
88	0xbe0d0fc9	-0.13775553
89	0xbb30c73f	-0.0026974229
90	0x3e123144	0.14276606
91	0x3d991d98	0.07476348
92	0x3d4d50e1	0.05012596
93	0xbdde7f25	-0.10864095
94	0x3e3c34d7	0.18379532
95	0xbdd28b8e	-0.10280524
96	0xbce692ee	-0.028146233
97	0xbc85922e	-0.016305055
98	0xbdee2e21	-0.11629892
99	0x3d007e3f	0.031370398
100	0xbdb3cf62	-0.087797895
101	0xbd29c1de	-0.04144465
102	0xbc556c41	-0.013026298
103	0xbd9000d8	-0.07031411
104	0x3c028f7f	0.007968782
105	0x3c3fe000	0.011711121
106	0x3e1bd263	0.15216975
107	0x3d9a63f7	0.07538598
108	0xbe1c78ce	-0.15280458
109	0xbc64194b	-0.013922046
110	0xbdb3d5ae	-0.087809905
111	0x3c0aaf35	0.008464624
112	0xbdf34cb5	-0.11879865
113	0x3ab7482f	0.0013983304
114	0xbc295b7e	-0.010336755
115	0x3d1470a6	0.036240242
116	0x3d84574a	0.064619616
117	0xbc36a3e5	-0.011147474
118	0xbd739d55	-0.059476215
119	0xbe8ee316	-0.27907628
120	0x3d942d56	0.0723521
121	0xbda1afb3	-0.0789484
122	0x3dd77bef	0.10521685
123	0x3d8cdfd6	0.06878631
124	0x3ce7fd74	0.028319098
125	0xbe104ec7	-0.14092551
126	0xbd4a9543	-0.049458753
127	0x3c34c20c	0.0110325925
128	0x3d082446	0.033237718
129	0x3c8eb854	0.017421879
130	0x3e39b058	0.18133676
131	0x3e0813de	0.13288829
132	0xbd49bb59	-0.049250934
133	0xbe00e081	-0.12585641
134	0x3cc02403	0.023454672
135	0x3b29669d	0.0025848516
136	0x3da8b44f	0.08237516
137	0x3ce9cf59	0.028541254
138	0xbd7464c9	-0.05966643
139	0xbd3ea222	-0.04654134
140	0xbdbe1c0d	-0.09282694
141	0x3d1b0812	0.037849493
142	0x3dc7d156	0.097567245
143	0x3bd54817	0.006508838
144	0xbd912f51	-0.07089103
145	0x3da3080a	0.07960518
146	0xbe170db8	-0.14751327
147	0xbd9aea59	-0.075642295
148	0x3cbbf7e4	0.022945352
149	0xbdcba9cd	-0.09944496
150	0x3d53c567	0.05170193
151	0xbe90b1ac	-0.28260553
152	0x3d8a886c	0.06764302
153	0x3dfdf4b3	0.12400188
154	0xbc48015e	-0.012207357
155	0xbacae9f0	-0.0015481096
156	0xbd2b05f2	-0.041753717
157	0x3d6d0af3	0.05787177
158	0x3d4b823f	0.04968476
159	0x3beb7d32	0.0071865553
160	0x3e1da9b6	0.15396771
161	0x3de0f7d0	0.109847665
162	0x3dce763e	0.10081147
163	0xba205302	-0.0006115885
164	0xbce641d4	-0.028107561
165	0xbd950fcd	-0.072784044
166	0xbd2749b9	-0.04084179
167	0x3dc69551	0.096964486
168	0xbd7afc1b	-0.061275583
169	0x3d4f0918	0.05054578
170	0xbd28595b	-0.04110084
171	0xbb5b0fc1	-0.0033426138
172	0xbe115de5	-0.14195974
173	0xbcaceda7	-0.021109415
174	0xbd2fde2b	-0.042936485
175	0x3e48a216	0.19593081
176	0xbd725252	-0.059160538
177	0xbdee810c	-0.116457075
178	0xbcc8e7f6	-0.02452467
179	0xbe568407	-0.20948802
180	0x3dd4b5e8	0.10386258
181	0x3e2088aa	0.15677133
182	0x3db5f69b	0.08884927
183	0x3d998744	0.07496503
184	0x3dd4173f	0.10355996
185	0x3b81886b	0.00395303
186	0x3e0b0fdc	0.13580269
187	0x3c5deed1	0.013545708
188	0x3d30201e	0.04299938
189	0x3d61e6bb	0.055151682
190	0x3d232f77	0.039840188
191	0xbe0f2605	-0.13979347
192	0xbddcfca4	-0.10790375
193	0xbded5fc8	-0.115905344
194	0xbc99d874	-0.01877997
195	0xbd4998ee	-0.04921811
196	0xbe10b3ea	-0.14131132
197	0x3e015136	0.12628636
198	0xbe060fdd	-0.13091989
199	0xbe1cdd2f	-0.1531875
200	0xbd0e9637	-0.034811225
201	0x3d4b9744	0.049704805
202	0x3e22ed40	0.15910816
203	0xbdec88e3	-0.115495466
204	0x3d3962c3	0.045260202
205	0xbe6effda	-0.23339787
206	0xbe299da5	-0.16564043
207	0x3e2cd2c6	0.16877279
208	0x3daea7aa	0.08528073
209	0xbd8f489d	-0.06996272
210	0xbdb226c2	-0.08698799
211	0xbad68469	-0.0016366366
212	0xbd1f3d60	-0.03887689
213	0xbe375f79	-0.17907514
214	0x3dce13e2	0.10062386
215	0x3df011a3	0.11722114
216	0xbd854a45	-0.065083064
217	0xbdcaf855	-0.09910647
218	0xbc6109e7	-0.013735271
219	0xbc7d7ab4	-0.015471149
220	0x3bbed0e5	0.005823242
221	0x3c824a7f	0.015904663
222	0x3db29d0a	0.08721359
223	0x3dd2da10	0.10295498
224	0xbc0edfef	-0.008720382
225	0xbe048528	-0.1294142
226	0x3dd1078d	0.10206518
227	0xbe10c417	-0.14137302
228	0x3d2290fb	0.039689045
229	0xbd91b1c8	-0.07113987
230	0x3e306424	0.172257
231	0xbe2ba55c	-0.16762298
232	0xbd69d53b	-0.057088118
233	0xbd7b8c24	-0.061412945
234	0x3ca03d90	0.019560605
235	0x3d66693e	0.05625271
236	0x3e53255f	0.20619725
237	0xbdbf0e0a	-0.093288496
238	0xbda18076	-0.0788583
239	0xbdb85f42	-0.09002544
240	0xbe09dcbe	-0.13463113
241	0xbc9c685b	-0.01909273
242	0x3c3c62fb	0.011498208
243	0x3da2f75f	0.079573385
244	0x3d979dc3	0.074031375
245	0xbd45d1ea	-0.048295893
246	0xbd882481	-0.066475876
247	0xbdfbf441	-0.12302447
248	0xbc5d56d1	-0.013509468
249	0x3e00d5ed	0.12581606
250	0xbd6cfdba	-0.05785916
251	0xbd4ce188	-0.05001977
252	0x3d2374e6	0.039906405
253	0xbd9e0b40	-0.077169895
254	0x3be3d8a8	0.0069533177
255	0xbd67a0a8	-0.056549698

network_body._body_endoder.seq_layers.2.bias f4 [128]
0	0xbd019ab3	-0.031641673
1	0x3c1be7bf	0.009515702
2	0xbc561bb4	-0.013068128
3	0xbcb0a615	-0.02156357
4	0xbd5faeba	-0.05460999
5	0x3796674d	1.7929497e-05
6	0xbd57b423	-0.052662026
7	0xbd0f989a	-0.03505764
8	0xbce219d8	-0.027600214
9	0xbc616ab6	-0.013758352
10	0xbd0adb1d	-0.03390037
11	0xbd13b51f	-0.036061402
12	0x3b8e9c5e	0.0043521365
13	0xbcaa69e3	-0.020802444
14	0x3be11d49	0.006869946
15	0xbc8eab15	-0.017415563
16	0xbc99b9b1	-0.018765302
17	0xbb17dec8	-0.002317356
18	0xba92d305	-0.0011201805
19	0xbd4cd4ae	-0.050007515
20	0xbcf72e92	-0.030173574
21	0x3c383090	0.011242047
22	0xbc816bd3	-0.015798485
23	0xbc1f2a2e	-0.009714646
24	0xbc318258	-0.010834299
25	0xbc8f0ab4	-0.017461158
26	0xbcace2d0	-0.021104246
27	0xbcae8631	-0.021304222
28	0x3be13d2e	0.0068737483
29	0x3bbb5125	0.0057164603
30	0xbbfedf3f	-0.007778078
31	0xbd098118	-0.03357038
32	0xbaf27c92	-0.001850026
33	0xbcd5c7ca	-0.026096243
34	0x3bceb23f	0.0063078697
35	0xbc746e62	-0.014918895
36	0xbcb0d997	-0.02158813
37	0xba1b286c	-0.0005918804
38	0xbbf5d7eb	-0.007502546
39	0xbd23f74b	-0.04003076
40	0xbae87f1c	-0.0017738077
41	0xbb27dae0	-0.0025612637
42	0xbcba52ba	-0.022744525
43	0xbbd71167	-0.006563354
44	0xbc8c3d1e	-0.017118987
45	0xbc9e8570	-0.019350737
46	0xbca9c1da	-0.020722318
47	0xbce61447	-0.02808584
48	0xbd0fd1f0	-0.03511232
49	0xbce72e4b	-0.028220316
50	0xbccaa445	-0.024736533
51	0xbca80369	-0.020509439
52	0xbceb8579	-0.028750168
53	0xbcdd1515	-0.026987592
54	0xbc6c0dfc	-0.014407631
55	0xbc6efde3	-0.0145868985
56	0x3c05ebff	0.008173942
57	0xbca52907	-0.020161165
58	0xbc4edf2a	-0.012626449
59	0xbbf68596	-0.007523249
60	0xbcaac220	-0.02084452
61	0xbd209309	-0.039202724
62	0xbce7885b	-0.028263262
63	0xbbfe88c8	-0.0077677704
64	0x3b8f267b	0.004368601
65	0xbbf51e4e	-0.0074804192
66	0xbbad9bc1	-0.0052981083
67	0xbd0b1605	-0.033956546
68	0xbc1771b4	-0.0092434175
69	0xbbdc30c4	-0.0067196805
70	0x3a87694a	0.0010331061
71	0x3a9ee4b3	0.0012122601
72	0xbce856f5	-0.028361777
73	0xbc30144e	-0.0107470285
74	0xbcbdbc16	-0.023160975
75	0xbc8bf8da	-0.017086435
76	0xbc807b38	-0.015683755
77	0xba8dacc0	-0.001080893
78	0xbcd9bcf6	-0.026579361
79	0xbcabf6f8	-0.020991787
80	0xbc0802b0	-0.008301422
81	0x3b3b7ecc	0.0028609512
82	0xbce50b0e	-0.027959373
83	0xbc8ae327	-0.016954018
84	0xbd00e7bc	-0.031471
85	0xbc9e90d8	-0.019356176
86	0xbb9ffa06	-0.0048821
87	0xbb82cbb6	-0.0039915694
88	0xbc0b996a	-0.0085204635
89	0xbc32a1d7	-0.010902843
90	0xbcec9a5b	-0.028882196
91	0xbcbedf71	-0.023299905
92	0xbd3df7b2	-0.0463788
93	0x3c09a41a	0.008400941
94	0xbc247c0c	-0.010039341
95	0xbcbb0bc6	-0.022832762
96	0xbc60209d	-0.013679651
97	0xbcca7e54	-0.024718441
98	0xbc982499	-0.018572139
99	0x3c6bf003	0.014400485
100	0xbcf076c8	-0.029353514
101	0xbc93bf98	-0.018035695
102	0xb9883ac3	-0.00025983722
103	0xbc84702a	-0.016166765
104	0xba890224	-0.0010452908
105	0x3bfe101f	0.0077533866
106	0xbb8d4999	-0.004311752
107	0xbcbb7b2a	-0.022885878
108	0xbca5474f	-0.020175604
109	0xbbc70a51	-0.006074228
110	0xbc2eed3d	-0.010676679
111	0xba8b8185	-0.0010643458
112	0x3b91cdca	0.004449581
113	0xbd8427a0	-0.0645287
114	0xbca86983	-0.020558124
115	0xbd058b27	-0.03260341
116	0x3b94aa2d	0.004536888
117	0xbb537735	-0.0032267098
118	0xbd09d12c	-0.033646747
119	0xbb9118bb	-0.004427997
120	0xbccdbaa3	-0.02511341
121	0x38008c8e	3.064848e-05
122	0xbc950bd0	-0.01819411
123	0xbd00bfd3	-0.031432938
124	0xbcc85c0f	-0.02445796
125	0xba3ddef4	-0.00072430004
126	0x3bd50afd	0.006501554
127	0xbcd15c62	-0.025556747

action_model._continuous_distribution.log_sigma f4 [1, 2]
0	0xbdcbc735	-0.09950105
1	0xbd840f8b	-0.06448277

action_model._continuous_distribution.mu.weight f4 [2, 128]
0	0x3c2d77c7	0.010587639
1	0xbb3feb30	-0.002928447
2	0x3cc51f12	0.024062667
3	0xbbd5051c	-0.006500853
4	0x3acb6bb5	0.001551977
5	0x3d5baea2	0.05363334
6	0x3a14994e	0.0005668596
7	0x39a7df5c	0.00032019138
8	0xbcc385a0	-0.023867428
9	0xbabd18ab	-0.0014426907
10	0x3b0a2150	0.0021076985
11	0xbbd578fe	-0.0065146675
12	0x3cf192ee	0.029489007
13	0x3b12c7d7	0.0022396946
14	0xb9f06b54	-0.00045856333
15	0xbc3212a9	-0.010868707
16	0x3cfdf6b8	0.031001434
17	0xbb892fde	-0.0041866144
18	0xbb8a3496	-0.0042176945
19	0xbb91e32a	-0.004452129
20	0x3c822909	0.015888708
21	0xbb99f6af	-0.0046985964
22	0x3c019d75	0.007911076
23	0x3bda65a8	0.0066649504
24	0x3cc940f8	0.024567112
25	0xbcb63ec8	-0.022246733
26	0xbc9de797	-0.01927547
27	0x3a20a0ae	0.0006127459
28	0xbcf71c4d	-0.030164862
29	0xbb1b1902	-0.002366603
30	0xbb17722c	-0.0023108823
31	0xbb9132b0	-0.0044310912
32	0xba34ad26	-0.0006892256
33	0x3c1a8811	0.009431855
34	0xbb034d5f	-0.002003513
35	0x3a7b275b	0.00095807546
36	0x3c8f6bb8	0.017507419
37	0xbc3c272e	-0.011483951
38	0xbbdf11cb	-0.006807541
39	0x3aa06ba4	0.0012239111
40	0x3c817bbd	0.015806073
41	0xbafe9494	-0.0019422942
42	0xbc039ea2	-0.0080334265
43	0x3b9a8af8	0.0047162734
44	0x3b5c5c66	0.003362441
45	0x3ba28e94	0.0049608443
46	0x3ce5e8ce	0.028065111
47	0xbc564a04	-0.01307917
48	0xb88b5e20	-6.645569e-05
49	0x3bddfe5c	0.0067747068
50	0xbb4986bf	-0.003075048
51	0x3c4d56aa	0.012532869
52	0x3b172edf	0.0023068709
53	0xbb3bced4	-0.0028657215
54	0xba05fed9	-0.00051115226
55	0xbb7101b2	-0.0036774692
56	0xbbea9cf7	-0.007159825
57	0x3cb71352	0.02234808
58	0x3d073f01	0.03301907
59	0x3ba07900	0.004897237
60	0xbbdc4d32	-0.0067230696
61	0x3a2fb662	0.00067028974
62	0xbc0408df	-0.008058756
63	0x3a35964a	0.0006926997
64	0x3c01f7bc	0.0079326
65	0x3b2a49cc	0.0025983928
66	0xbc49f008	-0.012325294
67	0xbb833c0a	-0.00400496
68	0x3a5e6e74	0.0008485087
69	0xbd405d1b	-0.046963792
70	0xbb864c3d	-0.004098444
71	0xbcd83a2a	-0.026394922
72	0xbb06a521	-0.0020545202
73	0x3d12f301	0.035876278
74	0xbca429d8	-0.020039484
75	0x3c4fa346	0.012673205
76	0x3cd43b79	0.025907265
77	0xbab75e5e	-0.0013989916
78	0x3b31dcb9	0.0027139618
79	0xbcced8d6	-0.02524988
80	0xbd053a0f	-0.032526072
81	0xbbd8561f	-0.0066020633
82	0x3aa4b913	0.0012567363
83	0x3c5a2200	0.01331377
84	0x3c6f38b1	0.014600919
85	0xbc41d61f	-0.011830836
86	0x3c321128	0.010868348
87	0x3a0672c2	0.00051287946
88	0xbab31b22	-0.0013664702
89	0xbad533bc	-0.0016266028
90	0x3c0a8a1c	0.008455779
91	0xba901877	-0.0010993619
92	0x3b895214	0.0041906927
93	0xbb2eaab0	-0.002665203
94	0x3c1e9a59	0.009680354
95	0xbcbe2c27	-0.023214413
96	0xbc441b4b	-0.011969398
97	0xbb545112	-0.0032396954
98	0xbb10fe62	-0.002212428
99	0xbd302fe4	-0.043014422
100	0xbc78f9b9	-0.015196257
101	0xbb84177f	-0.0040311213
102	0x3a9a3546	0.0011765144
103	0x3c910008	0.01770021
104	0x3b32a59b	0.0027259353
105	0xbb0435e5	-0.0020173725
106	0xbb80cb5c	-0.0039304923
107	0x3ceaf9ff	0.02868366
108	0xba2df454	-0.0006635834
109	0xbccea7fa	-0.025226582
110	0x3ce95278	0.028481707
111	0xbaebc470	-0.001798762
112	0xbadf3d2c	-0.001703178
113	0xb9b86e07	-0.00035177192
114	0x3c773cd5	0.015090187
115	0x3b73e9b8	0.0037218165
116	0xbb837113	-0.004011282
117	0xbd45f70c	-0.048331305
118	0x3b258f95	0.0025262584
119	0xbb1708c0	-0.0023045987
120	0xbaeec0f7	-0.0018215467
121	0x3c985b0d	0.018598104
122	0x3cdb7cd0	0.026792914
123	0xba33a11b	-0.00068523147
124	0x3c44893e	0.011995612
125	0x39efcab8	0.0004573667
126	0x3c16c599	0.009202384
127	0xbc81b0bb	-0.015831342
128	0x39eccb55	0.00045164922
129	0x3b757acd	0.0037457228
130	0xbbefbbf5	-0.0073161074
131	0x3be53d56	0.006995837
132	0xbb65b5de	-0.0035051028
133	0xbcdbdce6	-0.026838731
134	0xbb8a465c	-0.0042198133
135	0xbac16597	-0.0014755008
136	0xbb76fa27	-0.0037685724
137	0x3b4a0496	0.0030825487
138	0x3c05e5ef	0.008172496
139	0x3b3d8c55	0.0028922756
140	0xbc933ef9	-0.017974364
141	0xbb747106	-0.0037298813
142	0x3982c1ca	0.00024939916
143	0x3b161277	0.002289919
144	0xbcb58a3c	-0.022160642
145	0xbb476f0c	-0.003043118
146	0x3bf3b4bb	0.0074373162
147	0x3b4c48be	0.0031171287
148	0x3c434498	0.0119182095
149	0x3c106614	0.0088134
150	0xbc915ce0	-0.017744482
151	0xbc4e459c	-0.012589838
152	0xbc398572	-0.01132332
153	0x3ca84f9e	0.020545777
154	0x3c54b529	0.012982645
155	0xbaab2388	-0.0013056854
156	0x3cfabe68	0.03060837
157	0x3b48fc2e	0.003066789
158	0xbb049383	-0.0020229525
159	0x3b87e0bc	0.0041466635
160	0xbc0aa7ae	-0.0084628295
161	0xbc8685a0	-0.01642114
162	0x3c43e222	0.01195577
163	0xbcf67a31	-0.030087562
164	0x3ce31321	0.027719082
165	0x3c902a06	0.017598163
166	0x3c33ba59	0.010969722
167	0x3aae74df	0.0013309977
168	0xbb9144c3	-0.004433246
169	0xba0f1021	-0.00054574205
170	0x3b7e8e29	0.0038842058
171	0xbb9c3911	-0.004767545
172	0x3bed719f	0.0072462107
173	0x3c936bfd	0.017995829
174	0xbc836e97	-0.016043944
175	0x3bc8c30b	0.0061267666
176	0x39cd74d2	0.00039187685
177	0x3c8909e2	0.016728345
178	0xbc1eb797	-0.009687326
179	0xbc70a6f9	-0.014688247
180	0xbba29485	-0.0049615526
181	0x3c7ba43a	0.015358979
182	0xba7c5b36	-0.00096266286
183	0x3b9c12b1	0.0047629704
184	0x3c65543f	0.013997137
185	0x3b83339a	0.004003954
186	0x3cd838bb	0.026394239
187	0xbcc3de4d	-0.023909712
188	0xbaef8fac	-0.001827707
189	0xbb8c5501	-0.004282594
190	0x3c033f3f	0.0080106845
191	0x39c4c116	0.00037527893
192	0xbbf46dcd	-0.0074593783
193	0x39fca78b	0.00048190015
194	0xbc317539	-0.010831171
195	0xbb418a9c	-0.002953208
196	0x3a085453	0.00052005536
197	0x3b84737f	0.0040420885
198	0xbb188c29	-0.0023276901
199	0x3c4341ee	0.011917574
200	0x3c342d05	0.010997062
201	0xbbdf05db	-0.006806118
202	0x386b6317	5.612065e-05
203	0xbc71fc62	-0.014769645
204	0xbc483761	-0.012220235
205	0xbaf2aa93	-0.001851397
206	0xbc17732f	-0.0092437705
207	0x3be1ed01	0.006894708
208	0x3ce0978a	0.02741601
209	0x3c1ab34e	0.009442164
210	0xba395f86	-0.0007071424
211	0x3c5fafd8	0.013652764
212	0xbb5cc78b	-0.0033688273
213	0xbaa09602	-0.0012251737
214	0xbc40184c	-0.011724543
215	0xbb5367c6	-0.0032257899
216	0xba6fe644	-0.0009151439
217	0xbad7683c	-0.0016434263
218	0xbbf42bbf	-0.007451504
219	0xbb68b3b6	-0.0035507507
220	0xbb7135b4	-0.0036805691
221	0x3bae2539	0.005314496
222	0xbc1cd5fd	-0.009572503
223	0x3c076b95	0.008265396
224	0x3c807fa5	0.015685866
225	0x3c36f87e	0.011167644
226	0xbbc048c3	-0.005868049
227	0x3d34fe7a	0.044188
228	0xbaa47db7	-0.0012549673
229	0xbb52ce7f	-0.0032166538
230	0x3a28c2f1	0.000643774
231	0xbd2cf0d2	-0.04222185
232	0xba43190f	-0.00074423937
233	0x39f2af74	0.0004628856
234	0xbb394e4f	-0.0028275435
235	0xbc19ab25	-0.009379183
236	0xbadd55e6	-0.0016886562
237	0xbcfd6d35	-0.030935863
238	0xbcf43029	-0.02980812
239	0x3ba8afd2	0.0051479125
240	0x38dedfba	0.00010627457
241	0xbaed4dca	-0.0018104848
242	0xbba442c2	-0.005012841
243	0xbbf983e7	-0.007614601
244	0x3c08faab	0.008360545
245	0x3c273907	0.0102064675
246	0x39b2b9c7	0.0003408922
247	0xbbe4898d	-0.006974405
248	0xbb404136	-0.0029335744
249	0xbc752b79	-0.014963978
250	0xbc7d212b	-0.015449802
251	0xbb11b577	-0.0022233406
252	0xbc178990	-0.009249106
253	0xba8ad10c	-0.0010590865
254	0xbc832a7f	-0.016011475
255	0xbc99a886	-0.018757116

action_model._continuous_distribution.mu.bias f4 [2]
0	0xbb67b9b6	-0.0035358495
1	0x3aa6c77b	0.0012724245
