V3/results/Simple11/AgentControl/AgentControl-499965.pt (torch, 446049 bytes, 39 tensors)

network_body._body_endoder.seq_layers.0.weight f4 [128, 6]
0	0x3ef7ef11	0.4842458
1	0xbee191e3	-0.44056615
2	0xbf5c2ef7	-0.8600916
3	0xbebd77f3	-0.37005576
4	0x3d97bddf	0.07409262
5	0x3e3404c9	0.1757995
6	0xbe134919	-0.14383353
7	0xbe27bf23	-0.16381507
8	0xbe7c5ac6	-0.24644002
9	0xbf2a8329	-0.66606385
10	0xbe2d1177	-0.16901194
11	0x3cda1cab	0.026624998
12	0xbe82074f	-0.253962
13	0xbd86011f	-0.065431826
14	0xbdcd342c	-0.100197166
15	0x3daf506a	0.0856026
16	0xbe7de69f	-0.24795006
17	0x3e7c6f80	0.24651909
18	0xbed5fad5	-0.41792932
19	0xbd8b0f34	-0.06790009
20	0x3eee1a3b	0.46504387
21	0x3d14c857	0.03632387
22	0xbf3b06a2	-0.73056996
23	0x3f555271	0.8332892
24	0x3dbdf7d9	0.09275789
25	0x3e757a8b	0.23972528
26	0x3e62430a	0.22095886
27	0x3f2eb0c2	0.6823846
28	0xbe2bee01	-0.1679001
29	0x3d1a2de5	0.037641425
30	0x3f15d48d	0.5852745
31	0xbf54abfa	-0.83074915
32	0x3d81f3eb	0.06345352
33	0x3efb32da	0.49062234
34	0xbc28c947	-0.0103018945
35	0x3e613f00	0.21996689
36	0x3e1a146e	0.15046856
37	0xbdeb7750	-0.114973664
38	0xbe4b69e9	-0.1986462
39	0xbf2d3ade	-0.6766795
40	0xbf264371	-0.6494666
41	0x3ee488b4	0.44635546
42	0xbed7c39e	-0.42141432
43	0x3eb5a5ba	0.35478002
44	0xbf2c71db	-0.6736123
45	0xbe91dc00	-0.2848816
46	0xbe2b0e3e	-0.16704652
47	0x3e1262b3	0.14295463
48	0xbe4b8a45	-0.19876964
49	0x3e633cf7	0.22191225
50	0xbe09147a	-0.13386717
51	0x3c9837d7	0.018581314
52	0xbf824f44	-1.018044
53	0xbf05e115	-0.5229657
54	0x3f4a2322	0.7895986
55	0x3ecdc764	0.40191185
56	0x3ed61597	0.41813347
57	0x3db488c8	0.088151515
58	0xbd5d4de5	-0.054029364
59	0xbc831381	-0.016000511
60	0xbe1b9b97	-0.15196072
61	0x3f30f22a	0.69119513
62	0x3d817c72	0.06322564
63	0xbe231c5f	-0.15928791
64	0xbe822c64	-0.25424492
65	0x3d977f5b	0.07397338
66	0xbe80d73d	-0.25164214
67	0x3e8756f3	0.26433524
68	0x3da8366d	0.08213506
69	0x3f234315	0.63774234
70	0xbec725fd	-0.3889617
71	0x3e461c26	0.19346675
72	0xbe6bec5d	-0.23039384
73	0xbf8b9332	-1.0904295
74	0xbf2d1e69	-0.6762453
75	0x3f06e183	0.52687854
76	0xbf0be1de	-0.5464152
77	0xbf2a7f26	-0.66600263
78	0x3f22f590	0.6365595
79	0x3e26e086	0.16296586
80	0xbd3151aa	-0.04329077
81	0xbd86a478	-0.06574339
82	0x3d8e0cbc	0.06936023
83	0xbd306b2d	-0.04307096
84	0x3e73ac94	0.23796302
85	0xbec876e1	-0.39153197
86	0xbe249e81	-0.1607609
87	0xbb86af3d	-0.0041102455
88	0x3d1f2b2b	0.038859528
89	0x3f02a7dc	0.51037383
90	0x3f6ae334	0.91752934
91	0xbe187515	-0.14888413
92	0x3dd52e03	0.10409167
93	0x3dfae7b0	0.12251222
94	0xbf27bfc6	-0.65527
95	0x3ea92260	0.3303404
96	0xbcd79c73	-0.026319718
97	0x3ef8c5d3	0.48588428
98	0x3d53a242	0.051668413
99	0x3ed1ab5d	0.40951052
100	0x3f117772	0.56822884
101	0xbf349bc2	-0.7055017
102	0xbe4f04e7	-0.20216714
103	0xbe1fdb87	-0.15611087
104	0x3f3631c0	0.7116966
105	0xbe8eb77b	-0.2787436
106	0x3de79f5d	0.11309693
107	0xbee44955	-0.44587198
108	0x3e89ed29	0.2693875
109	0x3e89856f	0.26859614
110	0xbc4e6a10	-0.012598529
111	0x3c0cb5d3	0.008588272
112	0xbcfc0953	-0.030766165
113	0xbc11a5ef	-0.008889659
114	0x3ee985a7	0.4560978
115	0x3f406a79	0.75162464
116	0xbe5a3b3c	-0.21311659
117	0xbd3ff889	-0.04686788
118	0x3e11dafd	0.14243694
119	0x3ec956df	0.3932409
120	0x3eb95356	0.36196393
121	0xbe49cbb9	-0.1970662
122	0xbca71ba2	-0.020398919
123	0xbf1d6cf0	-0.6149435
124	0x3e403d05	0.18773277
125	0x3ee515c6	0.44743174
126	0x3e18f796	0.14938197
127	0x3ee3c7df	0.44488427
128	0xbee17a85	-0.44038787
129	0x3e80542b	0.25064215
130	0x3bdc1599	0.006716442
131	0xbe2879df	-0.1645274
132	0x3f62e041	0.88623434
133	0x3e2212d4	0.15827495
134	0x3f2da772	0.67833626
135	0xbe6086d3	-0.21926431
136	0xbe2060f6	-0.15661988
137	0xbe98f881	-0.29877093
138	0xbf36b04f	-0.71362776
139	0x3e8901e3	0.26759252
140	0x3f244bfc	0.6417844
141	0xbebf849e	-0.37405866
142	0x3cc0bcf9	0.02352761
143	0x3ec2c915	0.38044038
144	0x3ebb7e20	0.36619663
145	0xbe222143	-0.15833001
146	0xbf046d76	-0.51729524
147	0xbe9394c7	-0.28824446
148	0xbe22f0db	-0.15912192
149	0xbee44b25	-0.4458858
150	0xbf56ab22	-0.8385488
151	0x3f6067f1	0.876586
152	0xbe9a4dc3	-0.30137452
153	0xbe22c8d4	-0.15896922
154	0xbe9de4ea	-0.3083871
155	0xbd151674	-0.036398366
156	0x3f16fcbb	0.58979386
157	0xbf1c6c8d	-0.61103135
158	0xba82df35	-0.0009984734
159	0xbcf0d038	-0.029396161
160	0x3d83d4fd	0.06437109
161	0xbf35a178	-0.70949507
162	0x3e71847b	0.23585694
163	0x3f454fd4	0.77074933
164	0xbe7b1a68	-0.24521792
165	0x3e2ae688	0.16689503
166	0x3f0e3353	0.55547065
167	0x3e972ff4	0.29528773
168	0x3e1ef25b	0.15522139
169	0x3ed4d16a	0.4156602
170	0x3d501571	0.050801698
171	0xbe930a72	-0.28718907
172	0x3f15ecf1	0.5856467
173	0x3e6c2d34	0.23064119
174	0xbc8e04d9	-0.017336296
175	0x3edd7507	0.43253347
176	0x3e177e1b	0.14794199
177	0xbf06d7bd	-0.5267294
178	0x3d43868e	0.047735743
179	0x3d895e74	0.06707469
180	0xbe1274fe	-0.14302441
181	0xbd98cc9b	-0.074609004
182	0xbeda871a	-0.426812
183	0xbf1eab7f	-0.6198043
184	0xbebd62b9	-0.36989382
185	0xbf48a118	-0.7837081
186	0xbe023492	-0.12715366
187	0x3e0b41f0	0.13599372
188	0xbf212f53	-0.62962836
189	0x3f3d993b	0.74061936
190	0xbfade11c	-1.3584323
191	0xbef0b1f4	-0.47010767
192	0x3e8fc0e2	0.28076845
193	0x3eaef646	0.34172267
194	0x3f279f8a	0.6547781
195	0x3f24c5c2	0.64364254
196	0x3ecc22c6	0.3987028
197	0xbd672aee	-0.056437425
198	0xbee3da11	-0.4450231
199	0xbe95aa4d	-0.29231492
200	0xbd99c508	-0.07508284
201	0x3e30624c	0.17224997
202	0xbf107d2c	-0.56441
203	0x3e7a2943	0.24429803
204	0x3f03d9dc	0.515043
205	0x3e8d4bab	0.27596793
206	0x3e96db48	0.29464173
207	0x3e747225	0.23871668
208	0x3e88e6e9	0.2673867
209	0x3dd8a2df	0.1057794
210	0xbf4075e8	-0.7517991
211	0x3f829e45	1.020455
212	0x3e5ac24a	0.21363178
213	0x3b031d8a	0.002000662
214	0xbe0468b5	-0.12930568
215	0xbed47c5f	-0.41501138
216	0xbf5b7bff	-0.8573608
217	0x3cb53210	0.022118598
218	0x3ec16922	0.37775522
219	0xbf31f44f	-0.6951341
220	0x3a38bce4	0.000704719
221	0x3e4a2f95	0.19744714
222	0xbf16a2bd	-0.5884207
223	0x3e808bb8	0.25106597
224	0xbdc545aa	-0.09632428
225	0xbe505c68	-0.2034775
226	0x3e201978	0.15634716
227	0x3ef2f0f3	0.47449455
228	0xbc94c728	-0.018161371
229	0xbd437b73	-0.047725152
230	0x3ecf40a4	0.40479004
231	0xbef27fc3	-0.473631
232	0x3db57466	0.08860092
233	0x3ef0ff9b	0.47070011
234	0xbf67d6fe	-0.9056243
235	0xbcea484d	-0.028598929
236	0xbeabfae3	-0.3358985
237	0xbdbbd1bb	-0.09170862
238	0xbdae1d99	-0.08501739
239	0xbf03ee28	-0.5153527
240	0x3f21a4e1	0.6314221
241	0xbf5021bd	-0.8130148
242	0xbe251d6f	-0.1612451
243	0x3eb94913	0.36188564
244	0x3c12a0ba	0.008949453
245	0x3f251c0b	0.64495915
246	0xbf122eb8	-0.5710254
247	0xbf28959f	-0.65853304
248	0x3e7f125b	0.24909346
249	0x3f09736b	0.5369174
250	0x3f59d945	0.8509715
251	0x3efda5e8	0.4954064
252	0xbdb1168e	-0.0864688
253	0xbf05b0f8	-0.5222316
254	0xbe7083aa	-0.23487726
255	0xbf1508f6	-0.582168

network_body._body_endoder.seq_layers.0.bias f4 [128]
0	0x3d881e79	0.06646437
1	0x3ce5eb01	0.02806616
2	0x3ca64de1	0.020300807
3	0xbad44d47	-0.0016197347
4	0x3d09eb42	0.033671625
5	0x3cde7d14	0.027159251
6	0x3d91dd4e	0.07122289
7	0x3ca174aa	0.01970895
8	0x3db5e7e6	0.08882122
9	0x3d274578	0.040837735
10	0x3c807f1b	0.015685609
11	0x3a719ac6	0.00092164834
12	0x3bee5ca5	0.0072742277
13	0x3c7d6159	0.015465104
14	0x3cf6174a	0.030040402
15	0x3d847560	0.064677
16	0x3d3ef5db	0.046621185
17	0x3cba14dc	0.022715025
18	0xbd1ada07	-0.037805583
19	0x3ca5c5c9	0.020235913
20	0x3d6c9fdb	0.057769638
21	0x3b40f4c9	0.0029442778
22	0xbc267c2b	-0.01016144
23	0x3cf730cd	0.030174637
24	0x3c1d3f04	0.009597544
25	0x3c58c106	0.013229614
26	0x3d036922	0.032082684
27	0x3cb91a38	0.02259551
28	0x3d2ef2f2	0.04271216
29	0x3c96091c	0.01831489
30	0x3ce740b6	0.028229099
31	0x3d1a53f2	0.037677713
32	0x3d5f1257	0.05446085
33	0x3d07a7b0	0.033118904
34	0x3c795759	0.015218579
35	0x3c3bfa97	0.0114733195
36	0x3c356d88	0.011073478
37	0x3ccc439f	0.024934588
38	0x3cb31b4e	0.021863606
39	0x3c99ecdf	0.018789707
40	0x3c8db710	0.017299205
41	0xbba86e54	-0.0051401053
42	0x3d506b32	0.05088348
43	0x3d2f7dd4	0.04284461
44	0x3d2e5cc5	0.04256894
45	0xbd1b791e	-0.037957303
46	0x3cc6cb1e	0.024266776
47	0x3d257c1c	0.040401563
48	0x3cf92a2c	0.030415617
49	0xbccee526	-0.02525575
50	0x3c86d786	0.016460191
51	0x3ce3179a	0.027721215
52	0xbce40d75	-0.027838448
53	0x3c7fcb0e	0.015612377
54	0x3c645c1e	0.013937978
55	0xbc0fd751	-0.008779363
56	0x3b9708ff	0.0046092267
57	0x3cd10577	0.025515301
58	0xba0e6d7d	-0.0005433185
59	0xbd2d9185	-0.042375106
60	0x3c8e5aa2	0.017377201
61	0xbb642296	-0.0034810654
62	0x3c7d1fcc	0.0154494755
63	0x3d8f6457	0.0700156
64	0xbc67b7a7	-0.014142907
65	0x3c52a0dc	0.012855735
66	0x3cc5b974	0.024136283
67	0x3b7669c5	0.0037599665
68	0x3ca36af3	0.019948458
69	0x3d2e561c	0.04256259
70	0x3d5b692a	0.05356709
71	0x3d109168	0.03529492
72	0x3d05e39c	0.03268777
73	0x3c112ef9	0.008861297
74	0x3d51e5b3	0.05124445
75	0x3c8f740a	0.017511386
76	0x3d83f96a	0.06444056
77	0xbce91cf4	-0.028456189
78	0x3ab9dc26	0.0014179989
79	0xbb7d700f	-0.0038671528
80	0x3c0159e7	0.00789497
81	0x37579e26	1.285182e-05
82	0x3d10e2e7	0.03537264
83	0x3d98650b	0.074411474
84	0xbbfa5b61	-0.0076402877
85	0x3d48b54b	0.04900102
86	0x3d03b64c	0.032156274
87	0xbc3e82aa	-0.011627832
88	0x3d616de6	0.055036448
89	0x3cbb1e91	0.022841724
90	0x3d390188	0.045167476
91	0x3b34f61c	0.0027612513
92	0x3d8a2a19	0.06746311
93	0x3c3edef3	0.011649835
94	0xbcaefa18	-0.021359488
95	0xbc0610c1	-0.008182705
96	0x3c2bf31b	0.010494973
97	0xbc0b08dc	-0.008485999
98	0x3d97848c	0.07398328
99	0x3d089977	0.03334948
100	0x3cd500cd	0.026001358
101	0x3d2020da	0.03909383
102	0xbcbb3691	-0.022853168
103	0x3d4f3ce6	0.050595187
104	0x3d0fd379	0.035113785
105	0xbc057246	-0.008144921
106	0x3ce275f1	0.02764413
107	0x3c33e416	0.010979673
108	0xbcac8ec9	-0.021064179
109	0x3d4bb8cf	0.049736794
110	0x3cc1b5af	0.023646204
111	0x3db7c3aa	0.08972867
112	0x3cdb35d2	0.026759062
113	0xbc09b5fd	-0.008405206
114	0x3cebc3e7	0.028779937
115	0xba26444e	-0.00063425757
116	0x3ca23ee6	0.019805383
117	0x3c98c1f2	0.018647168
118	0x3d1b99af	0.03798836
119	0x3c35ae39	0.011088901
120	0x3dd89798	0.10575789
121	0xbc89c584	-0.016817816
122	0x3d088a6f	0.033335146
123	0x3cb5d953	0.022198355
124	0xbb8306c4	-0.0039986093
125	0xbc009d19	-0.007849955
126	0x3d382cba	0.04496453
127	0xbca1f210	-0.019768745

network_body._body_endoder.seq_layers.2.weight f4 [128, 128]
0	0xbe7a857a	-0.2446498
1	0xbc723621	-0.014783413
2	0xbd83983a	-0.06425519
3	0xbd9d27bf	-0.076735966
4	0x3d72748f	0.05919319
5	0x3dbff832	0.093735114
6	0xbe07b416	-0.13252291
7	0xbe4ce984	-0.20010954
8	0xbd606cc4	-0.054791227
9	0xbd612370	-0.054965436
10	0xbca0a2f1	-0.019608947
11	0x3d8c6c29	0.068565674
12	0xbcb28497	-0.02179174
13	0x3d0ea29f	0.034823056
14	0xbd8686a1	-0.06568647
15	0x3df6bf00	0.12048149
16	0xbd8ceb6a	-0.06880839
17	0xbd65da06	-0.056116126
18	0xbd996ac4	-0.07491067
19	0xbc42957a	-0.011876458
20	0xbe2a7d15	-0.16649278
21	0x3d601ee4	0.05471696
22	0x3ca49f96	0.020095628
23	0xbcd646c9	-0.0261568
24	0xbd08ff07	-0.033446338
25	0xbdfb3476	-0.122658655
26	0xbd561dba	-0.052274443
27	0xbdb3a152	-0.08771004
28	0xbd96dcf8	-0.07366365
29	0xbdf956b2	-0.12174739
30	0x3d78a36b	0.060702723
31	0xbd848c8b	-0.06472119
32	0x3dc9ab0c	0.09847078
33	0xbdb949bd	-0.090472676
34	0x3d829512	0.06376089
35	0xbce43342	-0.027856473
36	0xbb897a73	-0.0041955053
37	0xbcc7e5f5	-0.024401644
38	0x3d90d583	0.07071974
39	0xbe6cbfee	-0.2312009
40	0x3d713feb	0.058898848
41	0x3dec66a6	0.11543016
42	0x3cb89afc	0.02253484
43	0x3cab5983	0.020916706
44	0x3d8f9aae	0.07011925
45	0x3cb94f36	0.022620779
46	0x3d07ca84	0.03315212
47	0x3de2ad3c	0.11068198
48	0x3d744081	0.05963183
49	0xbd2a32bf	-0.0415523
50	0x3c119018	0.008884452
51	0xbe0b6955	-0.136144
52	0x3c76fe0b	0.015075217
53	0xbddb5d5e	-0.10711168
54	0xbdc73fb4	-0.09728947
55	0xbdeac793	-0.11463847
56	0x3d44af0a	0.048018493
57	0xbbdac661	-0.0066764806
58	0xbe04f77e	-0.12985036
59	0x3db1ca32	0.08681144
60	0x3dae87e4	0.08522013
61	0x3d36e764	0.044654265
62	0xbd09e443	-0.033664953
63	0xbd733272	-0.05937428
64	0xbe379b3a	-0.17930308
65	0xbc87ed05	-0.016592512
66	0xbdcb0dce	-0.099147424
67	0xbd973133	-0.07382431
68	0x3e2fd6db	0.17171805
69	0xbd159b4a	-0.03652505
70	0xbc029d43	-0.007972064
71	0x3d1aa13f	0.037751433
72	0x3d8440c9	0.06457669
73	0xbdf775c7	-0.12083011
74	0x3d607ac1	0.054804567
75	0xbe5cda02	-0.21567538
76	0xbdef1079	-0.11673064
77	0x3d65be4c	0.056089684
78	0xbd38fec3	-0.045164835
79	0xbc88790d	-0.016659284
80	0xbccd8181	-0.025086166
81	0xbd6a38cd	-0.057183076
82	0xbbeaa5e7	-0.0071608904
83	0xbdb14e6e	-0.086575374
84	0x3d0d1f31	0.034453575
85	0xbe687c2b	-0.22703616
86	0xbd4cf4ae	-0.050038032
87	0x3e0a7b89	0.13523687
88	0x3d1ee79f	0.03879511
89	0xbd6e16ba	-0.058127142
90	0xbd950c16	-0.07277696
91	0xbdd84364	-0.10559729
92	0x3d769b87	0.060206916
93	0xbd26f08c	-0.040756747
94	0x3c90bfac	0.017669521
95	0xbda54c53	-0.08071198
96	0xbdbecb5b	-0.09316131
97	0xbd3802f3	-0.044924688
98	0x3d3e7af0	0.04650396
99	0xbdf04ba2	-0.11733176
100	0xbcef5fa0	-0.029220402
101	0xbd902977	-0.07039159
102	0xbd215721	-0.039389733
103	0xbd9fe71a	-0.07807751
104	0x3e2c6317	0.16834675
105	0xbbdaade6	-0.0066735623
106	0x3d6d7e6d	0.057981897
107	0xbdae82c7	-0.085210375
108	0xbd065d90	-0.032804072
109	0x3e488ef5	0.19585784
110	0xb90c10b5	-0.00013357664
111	0xbd87cb2c	-0.06630549
112	0xbe0e06ac	-0.13869733
113	0xbd2f48c5	-0.042794008
114	0xbbec3d65	-0.0072094672
115	0xbdbf7ca5	-0.09349946
116	0xbe181dc4	-0.14855105
117	0xbdd7d762	-0.10539128
118	0x3cae8997	0.021305842
119	0xbe08ed4d	-0.13371773
120	0xbc928656	-0.017886322
121	0xbdf5fd09	-0.12011153
122	0x3d8aa298	0.067692935
123	0x3d7174e8	0.05894938
124	0xbcb0d2c0	-0.021584868
125	0xbd5a1e1f	-0.053251382
126	0xbc0b4c30	-0.008502051
127	0x3cd9c027	0.026580883
128	0x3e4584b8	0.1928891
129	0x3dc30a30	0.095234275
130	0x3dd39064	0.10330275
131	0x3e389aad	0.18027754
132	0x3cfee156	0.031113308
133	0xbc974491	-0.018465312
134	0x3e9327b4	0.2874123
135	0x3e108370	0.1411264
136	0x3d6f9b32	0.058497615
137	0x3d82df09	0.06390197
138	0xbe1fe2af	-0.15613817
139	0x3d96a346	0.07355361
140	0xbdae8a35	-0.08522455
141	0x3d66e3f0	0.056369722
142	0x3e1607a7	0.14651357
143	0x3c969182	0.01837993
144	0xbc9ce268	-0.019150928
145	0xbd93055b	-0.07178756
146	0xbca777c3	-0.020442849
147	0x3d523b44	0.05132605
148	0x3dadf947	0.084948115
149	0x3bff59d0	0.007792689
150	0x3d55f34c	0.05223398
151	0x3d674973	0.05646653
152	0xbd7724a7	-0.06033769
153	0xba978d7e	-0.0011562554
154	0xbe26f859	-0.16305675
155	0xbda4d2be	-0.080480084
156	0x3d185853	0.037193608
157	0xbd81ac2b	-0.063316666
158	0x3e5dea82	0.21671489
159	0xbc537053	-0.012905198
160	0xbdbcbb4c	-0.092154115
161	0x3d0de922	0.03464616
162	0xbd6f69f1	-0.058450643
163	0xbbf81650	-0.007571019
164	0x3c9ac52f	0.018892853
165	0x3d2e5f86	0.042571567
166	0x3d890ea2	0.06692244
167	0xbc385ebd	-0.011253056
168	0x3ce665c5	0.0281247
169	0x3d0c0aa4	0.034189835
170	0x3d35bde5	0.04437055
171	0x3c050d3a	0.008120829
172	0x3e11f94e	0.14255258
173	0x3bad947a	0.005297241
174	0x3dc3fcec	0.095697254
175	0x3dcdb7e4	0.1004484
176	0x3d9da456	0.0769736
177	0xbcf4c497	-0.029878898
178	0xbdd4e4e2	-0.103952184
179	0xbe169c8b	-0.14708154
180	0xbcaf0cf9	-0.02136849
181	0xbd0f3568	-0.03496304
182	0xbbe63b2a	-0.007026096
183	0xbddf9ff3	-0.1091918
184	0xbbaea915	-0.0053302147
185	0x3d524000	0.051330566
186	0xbda5b315	-0.08090798
187	0xbd38fb13	-0.045161318
188	0xba9a87f3	-0.0011789784
189	0x3e22b4ee	0.15889332
190	0xbdb3573c	-0.08756873
191	0xbdb635e6	-0.08896999
192	0xbdd46ca2	-0.103722826
193	0xbcae8e79	-0.02130817
194	0x3e12590b	0.1429178
195	0xbc9746ff	-0.01846647
196	0x3d9780bf	0.07397603
197	0x3cf272b0	0.029595703
198	0xbe02b50a	-0.12764373
199	0xbc360827	-0.011110342
200	0x3dfea231	0.12433279
201	0x3cf53791	0.029933723
202	0xbd34b2ea	-0.04411594
203	0x3c0c41ee	0.008560641
204	0xbd03e0be	-0.032196753
205	0xbd32144c	-0.043476388
206	0xbc1f8a83	-0.009737614
207	0xbc608078	-0.013702504
208	0xbd2b6dc5	-0.04185273
209	0xbe0be115	-0.1366008
210	0x3e695854	0.22787601
211	0x3dca04f8	0.09864229
212	0x3e042917	0.129063
213	0xbe010804	-0.12600714
214	0xbda21d2c	-0.0791572
215	0x3d65ee89	0.056135688
216	0x3d83fd36	0.064447805
217	0xbe1a7195	-0.1508239
218	0x3d28c780	0.041205883
219	0x3cf70343	0.030152922
220	0x3ccd8426	0.025087427
221	0xbd104ffe	-0.035232536
222	0x3d9ed1b7	0.07754844
223	0x3e0a5afa	0.13511267
224	0x3d4cd72a	0.050009884
225	0x3e2dfacf	0.16990207
226	0xbd8ed6f3	-0.06974592
227	0x3e3d682c	0.1849677
228	0x3e126c89	0.14299215
229	0xbd9c2d20	-0.076257944
230	0xbd8e114c	-0.06936893
231	0x3c8eaab4	0.017415382
232	0x3b8ed2d4	0.0043586288
233	0xbde92c5a	-0.113854125
234	0x3c942075	0.018081883
235	0x3e0b6b9e	0.13615271
236	0x3d88bf58	0.06677121
237	0x3db4297c	0.08796975
238	0x3da379a7	0.07982188
239	0x3e3bcdd2	0.18340233
240	0x3db4dad0	0.08830798
241	0xbe1315ad	-0.14363737
242	0x3d97c203	0.07410052
243	0xbba1a192	-0.0049325908
244	0xbd3ea2f2	-0.046542116
245	0x3d1f95f8	0.03896138
246	0x3d975fc5	0.073913135
247	0x3bbcdf2d	0.0057639093
248	0x3e9d9cf4	0.30783808
249	0xbc6fe701	-0.014642478
250	0x3b6b8760	0.0035938844
251	0x3da73c4c	0.081657976
252	0x3bce6b0f	0.0062993835
253	0x3d4224e7	0.047398474
254	0xbda12415	-0.0786821
255	0xbbec235b	-0.007206363

network_body._body_endoder.seq_layers.2.bias f4 [128]
0	0x3c809331	0.015695186
1	0x3ce87c8f	0.028379707
2	0x3d1284d0	0.03577119
3	0x3c5be7e5	0.013421987
4	0x3b2f90bd	0.0026789152
5	0x3b91b863	0.0044470294
6	0x3cc16e38	0.023612127
7	0xbc203224	-0.009777579
8	0x3d3e16f7	0.04640862
9	0x3c98d0cb	0.018654248
10	0x3aefe1c3	0.0018301535
11	0x3d2bcda5	0.041944165
12	0x3bae1c8f	0.005313463
13	0x3d12ecef	0.03587049
14	0x3d3d4b7d	0.04621457
15	0x3d3e01e4	0.04638852
16	0x3baed562	0.005335496
17	0x3b1d906c	0.002404238
18	0x3d2730c7	0.040818002
19	0x3cb15d36	0.021650892
20	0x3c88a7da	0.0166816
21	0xbc177a59	-0.009245479
22	0x3c78c660	0.015184015
23	0x3d61ced5	0.05512889
24	0x3cc1ab62	0.023641292
25	0x3ce2afa5	0.027671644
26	0x3c9561e1	0.018235149
27	0x3b6152a3	0.003438153
28	0x3d764a61	0.060129527
29	0x3b9d66d0	0.004803516
30	0xbb367e6e	-0.0027846354
31	0x3c5a5a20	0.013327152
32	0xbb319ec8	-0.0027102698
33	0x3d2dfebc	0.04247926
34	0x3d037122	0.032090314
35	0x3cdd86e0	0.027041852
36	0x3d30ce8e	0.043165736
37	0x3d0ea8a6	0.034828804
38	0x3cd2e1fa	0.02574252
39	0x3d816e6c	0.063198894
40	0x3c8d6cff	0.017263887
41	0x3cffa4d3	0.031206524
42	0x3d3a979e	0.04555475
43	0x3c8d48d2	0.017246637
44	0x3c9c3971	0.019070359
45	0x3cb4afe6	0.022056531
46	0xbc2a4f8d	-0.010394943
47	0x3ca35176	0.019936305
48	0xbbb335de	-0.005469068
49	0x3d1c8b14	0.038218573
50	0x3bf36b87	0.0074285897
51	0x3c246b20	0.010035306
52	0x3cbe2635	0.023211578
53	0x3c8afe6f	0.016967027
54	0x3c9dfc65	0.01928539
55	0x3cab549c	0.020914368
56	0xba1ca7b6	-0.00059759186
57	0x3d2946b2	0.041327186
58	0x3b44fee0	0.0030059144
59	0x3b23abb4	0.002497417
60	0x3cce9a42	0.02522004
61	0xbc25970f	-0.010106816
62	0x3cb812fd	0.022469992
63	0xba78d8a3	-0.00094927306
64	0x3d121f40	0.035674334
65	0x3c80825c	0.01568716
66	0x3d0bd0a4	0.034134522
67	0x3cdd01ea	0.026978452
68	0x3c7f6659	0.015588366
69	0x3c739aa6	0.014868414
70	0x3d1ef381	0.038806442
71	0x3cb5637a	0.02214216
72	0x3c7ef52c	0.015561383
73	0x393cacd8	0.00017993466
74	0x3cd2755b	0.025690725
75	0x3cc9c8d4	0.024631895
76	0x3d427f56	0.04748472
77	0xbbdd1ac0	-0.0067475736
78	0x3d1c329c	0.038134202
79	0x3d22dd49	0.039761815
80	0x3baaa17a	0.005207238
81	0x3cc13b2a	0.023587782
82	0x3d5a7ca1	0.05334151
83	0xb91a0606	-0.00014688828
84	0x3c4327fc	0.0119113885
85	0x3cfc3dd9	0.03079121
86	0xbbb136e9	-0.005408157
87	0x3ccb1b11	0.02479318
88	0x3cb0f87b	0.02160286
89	0x3a9cf31c	0.0011974308
90	0x3ccc50b9	0.024940835
91	0x3c4bfbe8	0.012450196
92	0x3bad0b6a	0.0052809017
93	0xbb24b2d4	-0.0025131004
94	0x3c56b8a7	0.013105548
95	0x3d450ede	0.04810988
96	0x3cc895ab	0.02448543
97	0x3c25dab9	0.010122948
98	0x3c06e607	0.008233554
99	0xbbf931c6	-0.0076048104
100	0x3c76c8fb	0.015062566
101	0x3cbe2250	0.02320972
102	0x3d0f136e	0.03493064
103	0x3d2f2b44	0.04276587
104	0x3c95f0b4	0.018303253
105	0x3c2c0662	0.010499569
106	0x3d53428c	0.051577136
107	0x3d4da90a	0.050210036
108	0x3c8102f5	0.01574848
109	0x3cea108c	0.028572343
110	0x3d418e5b	0.0472549
111	0x3d4bd2e2	0.04976166
112	0x3d38e63c	0.045141444
113	0x3cb63d87	0.022246135
114	0x3cc9c2a3	0.024628943
115	0x3ca27e0d	0.019835496
116	0x3d181c84	0.03713657
117	0x3d832309	0.06403167
118	0x3d0be133	0.034150314
119	0x3d01b860	0.031669974
120	0x3cc1349c	0.023584656
121	0x3cb97d81	0.022642853
122	0x3c6222db	0.0138022555
123	0x3d07bb3b	0.03313754
124	0x3d5d5eea	0.054045595
125	0x3c92d6dc	0.017924719
126	0x3c30191e	0.010748176
127	0x3d48f834	0.04906483

action_model._continuous_distribution.log_sigma f4 [1, 2]
0	0xbd007f37	-0.03137132
1	0xbd4c1d64	-0.049832717

action_model._continuous_distribution.mu.weight f4 [2, 128]
0	0x3d21812f	0.03942984
1	0xbcdbc551	-0.026827486
2	0x3d92e737	0.07173007
3	0x3d173325	0.03691401
4	0xbbc8dadc	-0.0061296057
5	0x3cb5f722	0.022212569
6	0xbb8f7d8b	-0.0043789796
7	0xba2bb866	-0.000655061
8	0x3dca5cd7	0.09880989
9	0x3d5ef22b	0.054430168
10	0xbd242c50	-0.040081322
11	0xbd4afe0f	-0.049558695
12	0xbbd92467	-0.006626654
13	0x3c579657	0.013158402
14	0xbd8ca960	-0.06868243
15	0x3d10f59f	0.035390493
16	0xbd322a3f	-0.04349732
17	0x3cfebbf3	0.03109548
18	0x3d97d722	0.0741408
19	0x3c8ad400	0.016946793
20	0x3c21205e	0.009834377
21	0x3c59030f	0.013245358
22	0x3c9e9ab8	0.019360885
23	0x3d95f5c5	0.073222674
24	0xbd6443ce	-0.055728726
25	0x3cc30f3c	0.023810975
26	0x3d235159	0.0398725
27	0x3b1984ac	0.0023425026
28	0xbce07c8e	-0.027403142
29	0x3b5fc04b	0.0034141715
30	0xbc8594f7	-0.016306384
31	0xbd176f13	-0.036971163
32	0x3b3b3db9	0.0028570725
33	0xbd4db1ea	-0.0502185
34	0x3d5f87d0	0.05457288
35	0x3d1ed17c	0.038774
36	0xbd2ec638	-0.042669505
37	0xbd4a3a7c	-0.04937218
38	0x3ca46c2a	0.020071108
39	0x3d8d677b	0.06904503
40	0xbd9955f0	-0.074870944
41	0x3d35b356	0.04436048
42	0x3db2bff8	0.087280214
43	0x3d2c870e	0.042120986
44	0xbd1949d9	-0.037423942
45	0x3bc8c490	0.0061269477
46	0x3c345ed1	0.011008934
47	0x3bddea46	0.0067723123
48	0xbd062362	-0.032748587
49	0xbd30050a	-0.042973556
50	0x3d455ead	0.048185993
51	0x3b1d05bc	0.0023959717
52	0xbb7b0a30	-0.0038305633
53	0x3c9aa00d	0.018875146
54	0xbc18b07c	-0.009319421
55	0x3d6ba364	0.05752887
56	0x3b7b34a3	0.0038330934
57	0xbd728d49	-0.05921677
58	0xbd283a50	-0.041071236
59	0x3bb3ac02	0.0054831514
60	0x3d0c10bf	0.034195658
61	0x3cbb3930	0.022854418
62	0xbd353c65	-0.04424705
63	0x3ca89f78	0.020583853
64	0xbd03393f	-0.032037016
65	0x3cc3f315	0.023919621
66	0x3cd5ac7a	0.02608322
67	0x3c4f28b2	0.01264398
68	0xbd5aa9c9	-0.053384576
69	0xbcb393d1	-0.02192107
70	0xbcfb9c41	-0.030714156
71	0xbc3f156a	-0.01166282
72	0xbd2e997b	-0.04262684
73	0x3d17d5d3	0.037069153
74	0xbca44e1d	-0.020056779
75	0x3d4f2c75	0.050579507
76	0x3d1213e2	0.035663493
77	0x3d1f9be4	0.03896703
78	0x3c54d828	0.012990989
79	0xbc9ce209	-0.01915075
80	0xbc16de35	-0.009208252
81	0xbcab1de0	-0.020888269
82	0xbd3782f2	-0.044802614
83	0x3cc4497e	0.023960825
84	0xbc51461d	-0.012773064
85	0x3d4cefe3	0.05003346
86	0xbcde617c	-0.027146094
87	0xbd6b031a	-0.057376005
88	0xbd6130f0	-0.05497831
89	0x3c74c677	0.014939896
90	0xbcff5b9a	-0.031171609
91	0xbc60bbaa	-0.013716618
92	0xbd282c2d	-0.041057754
93	0xbbeb9cd9	-0.0071903286
94	0x3d54518c	0.05183558
95	0x3dc89f39	0.09795994
96	0xb94a6291	-0.0001930094
97	0xbd47a828	-0.04874435
98	0x3d161b54	0.036647156
99	0xbc9a1fba	-0.018813957
100	0xbd7cbded	-0.061704565
101	0xbda7e9d2	-0.081988946
102	0xbd2fb3bb	-0.042896014
103	0x3d55de04	0.052213684
104	0x3ceb97b9	0.02875887
105	0xbbaa253e	-0.005192428
106	0x3cfc072b	0.030765137
107	0xbdbec0b9	-0.09314103
108	0x3d35c0b3	0.044373225
109	0xbd9a793a	-0.075426534
110	0xbd3d32b2	-0.046190925
111	0x3d8d5ca6	0.06902437
112	0x3daf3759	0.085554786
113	0x3c64ef59	0.013973081
114	0xbd04d788	-0.03243211
115	0xbd3c45ec	-0.04596512
116	0x3cd63fd7	0.026153488
117	0x3d83e7f6	0.064407274
118	0xbdb76293	-0.089543484
119	0x3c51e2a2	0.012810381
120	0x3d35623c	0.044283137
121	0x3ccaafbc	0.024742
122	0x3d0238f7	0.031792607
123	0xbcd0f3b1	-0.025506826
124	0x3dbd82fc	0.09253499
125	0xbd57d0cf	-0.05268937
126	0x3cccb16b	0.024986943
127	0x3d4903a9	0.049075756
128	0x3cfe25f4	0.031023957
129	0x3c96172f	0.018321602
130	0xbd0ca22b	-0.034334343
131	0xbd32e7ab	-0.043677967
132	0xbd01d769	-0.03169957
133	0xbc88d5aa	-0.016703445
134	0x3d92b138	0.07162708
135	0x3c2765fd	0.010217187
136	0xbcbcc240	-0.023041844
137	0x3c942c48	0.018087521
138	0xbbf657b7	-0.0075177806
139	0xbd57bac4	-0.052668348
140	0x3c4777be	0.012174545
141	0x3ccd44a5	0.025057146
142	0xbb841134	-0.004030371
143	0x3daab75a	0.08335753
144	0x3ad0574b	0.0015895156
145	0xbd3b8e12	-0.045789786
146	0xbc9a20ba	-0.018814433
147	0xbcc6c059	-0.02426164
148	0x3c30f57f	0.010800718
149	0x3d037a69	0.03209916
150	0x3d885b49	0.06658036
151	0x3d1ac88e	0.03778892
152	0x3d1f1efa	0.0388479
153	0x3cdb4966	0.026768398
154	0xbd0e7846	-0.03478267
155	0xbc295b0d	-0.01033665
156	0xbdbec36d	-0.09314618
157	0x3cbdd729	0.023173885
158	0xbbb47401	-0.005506993
159	0xbcc0c104	-0.023529537
160	0x3c92e8de	0.017933305
161	0x3cb763ff	0.022386549
162	0x3ae2c833	0.0017302096
163	0x3d204da6	0.03913655
164	0xbd6b3e84	-0.057432666
165	0xbd29e27c	-0.041475758
166	0x3cf72e1f	0.03017336
167	0x3cbb0c55	0.022833029
168	0xbcb3a197	-0.021927638
169	0x3d845f85	0.064635314
170	0xba0090af	-0.0004904372
171	0xbc5ba526	-0.013406074
172	0x3d350145	0.044190664
173	0x3d962549	0.0733133
174	0x3cc0ace6	0.023519944
175	0xbd201c1c	-0.039089307
176	0x3b8fdf4f	0.004390634
177	0xbddb063d	-0.10694549
178	0xbcabc294	-0.020966806
179	0x3c7a3686	0.015271788
180	0x3d506b1d	0.0508834
181	0xbd657f67	-0.056029703
182	0x3d213029	0.03935257
183	0x3c68ce15	0.01420929
184	0xbbc36a13	-0.0059635728
185	0xbd7170fb	-0.058945637
186	0xbcc64438	-0.024202451
187	0x3c4efcea	0.012633542
188	0x3d778ec4	0.060438886
189	0xbd134acf	-0.035960015
190	0xbc835f95	-0.016036788
191	0xbbbd8c66	-0.005784559
192	0x3d5c2a7a	0.053751446
193	0xb9b003fd	-0.00033572307
194	0x3d85b4e9	0.065286465
195	0x3d4fbb7e	0.050715916
196	0xbc973d8a	-0.018461961
197	0x3c9b58ae	0.018963184
198	0xbdabb841	-0.08384753
199	0x3c69cddb	0.014270271
200	0x3d1c5ba3	0.03817333
201	0x3c9d6b5b	0.01921623
202	0xbcc8b66f	-0.024501054
203	0xbd25d28d	-0.040484
204	0xbd94f661	-0.072735555
205	0xbc589614	-0.013219375
206	0x3d7b0d89	0.061292205
207	0x3d58d072	0.052933164
208	0xbd0a943b	-0.03383277
209	0x3db2329e	0.08701061
210	0x3c8adcfb	0.016951075
211	0x3a250dad	0.00062962883
212	0xbd3095a3	-0.043111455
213	0x3ce9a3ec	0.028520547
214	0xbc20d511	-0.009816424
215	0xbc410e57	-0.011783204
216	0xbcc30cf8	-0.023809895
217	0x3b47db1f	0.0030495597
218	0xbc9df47c	-0.019281618
219	0x3d0387e5	0.03211202
220	0xbca28495	-0.01983861
221	0x3cfeed9d	0.031119162
222	0xbd2ab0e5	-0.041672606
223	0x3d95a3de	0.07306646
224	0x3d01aa4e	0.031656556
225	0x3cb9c327	0.022676064
226	0xbc859443	-0.016306048
227	0xbd041f7f	-0.0322566
228	0x3cafa3e4	0.021440454
229	0x3d2db176	0.042405568
230	0x3d98c24d	0.07458935
231	0x3da4e914	0.080522686
232	0x3d11ae96	0.03556689
233	0xbd307f7e	-0.043090336
234	0x3d4ae52a	0.049534954
235	0x3cfd56bb	0.030925145
236	0x3d715504	0.058918968
237	0x3cb351a2	0.021889511
238	0xbd9901ea	-0.07471068
239	0x3cf6bdd5	0.030119816
240	0x3c89e0cc	0.016830824
241	0xbd6301db	-0.05542169
242	0xbd3a089a	-0.04541836
243	0x3b5bc3c4	0.0033533433
244	0x3d7b8fc7	0.061416414
245	0x3db5e69c	0.08881876
246	0xbc536fae	-0.0129050445
247	0xbd2662e8	-0.040621668
248	0xbd959e6f	-0.073056094
249	0xbd74ff2f	-0.059813675
250	0xbc0d317d	-0.008617756
251	0xbd4abb0f	-0.0494948
252	0x3d1dda0f	0.038538035
253	0xb9134e98	-0.00014048291
254	0xbcf35789	-0.029704826
255	0x3d8f0b00	0.0698452

action_model._continuous_distribution.mu.bias f4 [2]
0	0x3b5779ee	0.0032879072
1	0x3ac33dea	0.0014895771

action_model._discrete_distribution.branches.0.weight f4 [1, 128]
0	0xbc996d5f	-0.01872891
1	0xbbf06b3d	-0.0073370025
2	0xbc780e7a	-0.01514017
3	0x3b5c6e08	0.003363492
4	0x3c96a93b	0.018391242
5	0xbc34e7d3	-0.011041599
6	0xbbb5585b	-0.0055342144
7	0x3930d063	0.00016862298
8	0xbc234d89	-0.009967216
9	0x3c1d10e3	0.009586546
10	0x3c552847	0.013010091
11	0x3c8039f9	0.015652644
12	0xbc8b333d	-0.016992206
13	0xbb20cde4	-0.0024536783
14	0x3c22b705	0.009931331
15	0x3c8cd797	0.017192645
16	0x3c81f838	0.01586543
17	0x3b4494d7	0.0029995942
18	0x3b8cc3bc	0.0042957943
19	0x3b8cd9af	0.004298411
20	0x3c5ecaca	0.013598153
21	0xbb0b2f17	-0.0021237785
22	0x3bcf354d	0.0063234926
23	0xbb8cd5d0	-0.0042979494
24	0xbc2ff561	-0.010739655
25	0x3b91ef64	0.0044535864
26	0x3bd3620d	0.0064508975
27	0xbbbed307	-0.0058234963
28	0x3c3c63d9	0.011498415
29	0xbb3f8aaf	-0.002922695
30	0x3ac83e67	0.0015277386
31	0xba822468	-0.0009929063
32	0x397e089f	0.00024226539
33	0x3cad56b4	0.021159507
34	0x3c0d5792	0.008626835
35	0x3c5fb173	0.013653147
36	0xbc66eca0	-0.014094502
37	0xbbedea8f	-0.0072606276
38	0x3b85e572	0.00408619
39	0x3b93526b	0.004495909
40	0x3a894149	0.0010471727
41	0xbbd579ab	-0.006514748
42	0x3ba25227	0.004953641
43	0xbc01fcab	-0.007933776
44	0xbca02589	-0.019549148
45	0xbbf2516a	-0.007394959
46	0xb69fb274	-4.759344e-06
47	0x3c771747	0.015081233
48	0x3b58c183	0.0033074326
49	0x3c7d248b	0.015450607
50	0xbcb8d1a5	-0.022560904
51	0xbc390d20	-0.011294633
52	0xbb00e2ad	-0.001966636
53	0xbb15c25f	-0.002285145
54	0x3ba5039b	0.00503583
55	0xbc1abda1	-0.009444625
56	0xbc7359e5	-0.0148529755
57	0xbc1e298f	-0.009653463
58	0x3c37ffe4	0.011230443
59	0xbb706d78	-0.0036686342
60	0x3bafb763	0.0053624376
61	0xbc6b26d8	-0.014352523
62	0x3b5b87e5	0.0033497747
63	0x3c619033	0.01376729
64	0xbc673b73	-0.014113295
65	0xbc3454f0	-0.011006579
66	0x3b2405b6	0.0025027818
67	0x3b8a7edb	0.004226548
68	0xbc4006af	-0.0117203435
69	0xbbd0777f	-0.0063619013
70	0x3c413f51	0.011794881
71	0xbbdd0278	-0.006744679
72	0xbc53e9da	-0.0129341725
73	0xbb6d1c9a	-0.0036180378
74	0xbcc053f9	-0.023477541
75	0x3bb1c1e7	0.0054247263
76	0x3b386fc3	0.0028142787
77	0x3bcc1409	0.0062279743
78	0x3b845384	0.004038276
79	0xb87f6e30	-6.0899358e-05
80	0xbc4f911f	-0.012668877
81	0x3a6fadc3	0.0009143019
82	0x3b806314	0.003918061
83	0xb9badd4c	-0.00035641564
84	0x3a5f9685	0.0008529204
85	0xbc6649e0	-0.014055699
86	0x3a3ffd35	0.00073238026
87	0x3c04848b	0.008088241
88	0xbc861200	-0.016366005
89	0xbc10f9d9	-0.008848631
90	0xbb7bc4b8	-0.0038416814
91	0xbaa4785d	-0.0012548078
92	0x3c63f057	0.013912282
93	0xba36a3a4	-0.00069671334
94	0xbc1cf961	-0.009580941
95	0x3b6d83dd	0.0036241927
96	0x3aef0ee3	0.001823869
97	0xbb51d26f	-0.0032016297
98	0x3bafff4d	0.0053710104
99	0x3a72343d	0.00092393515
100	0xbb916c37	-0.004437949
101	0xbc47d436	-0.012196591
102	0xbca4aec4	-0.020102866
103	0x39f9c207	0.00047637543
104	0x3c7669a3	0.015039834
105	0xbc2034df	-0.00977823
106	0xbb1c2cdf	-0.0023830456
107	0xbb047623	-0.0020212017
108	0xbc34aebb	-0.011027987
109	0x3b067e7d	0.002052217
110	0xbb5a0577	-0.0033267417
111	0x3b927760	0.004469797
112	0x3c35cef5	0.011096706
113	0x3b1f2f13	0.0024289533
114	0xbc6f52d3	-0.014607149
115	0xbca50825	-0.020145485
116	0xbb8e6f69	-0.004346777
117	0xbace1db8	-0.001572541
118	0x3c8cc354	0.017182983
119	0xbc9be30d	-0.019029165
120	0xbc63e92d	-0.013910574
121	0x39384f30	0.00017577107
122	0x3b6bb248	0.0035964418
123	0x3b1d0dd3	0.0023964539
124	0x3b215bea	0.0024621435
125	0x3a432125	0.00074435986
126	0x3ad72738	0.0016414886
127	0xbbfe8fdb	-0.0077686138

exp_avg f4 [128, 6]
0	0xb7da89a4	-2.6051719e-05
1	0xb545d51b	-7.369833e-07
2	0xb94f89ff	-0.00019792466
3	0xb804a11e	-3.1621305e-05
4	0x00000000	0.0
5	0xb9cdb250	-0.000392335
6	0x37dcd346	2.6324426e-05
7	0xb28defa2	-1.6523533e-08
8	0x3708e4ec	8.159532e-06
9	0x389be509	7.433637e-05
10	0x00000000	0.0
11	0xb8cac1a8	-9.668182e-05
12	0x3a20938e	0.0006125503
13	0x3500f6fc	4.8043125e-07
14	0x3a37b42e	0.0007007745
15	0x39a68dae	0.00031767547
16	0x00000000	0.0
17	0x390cfb9c	0.00013445172
18	0x390f55ce	0.00013669507
19	0x344236fa	1.8087658e-07
20	0x38f1dcb2	0.00011532883
21	0xb88a3d6d	-6.591794e-05
22	0x00000000	0.0
23	0xb815e9c5	-3.5742083e-05
24	0x38a94338	8.0710684e-05
25	0x3432a760	1.6638432e-07
26	0x3997ded7	0.00028966993
27	0xb8ea4db0	-0.0001117246
28	0x00000000	0.0
29	0xb7df0260	-2.6584778e-05
30	0xb89f15ce	-7.585772e-05
31	0x345b045c	2.039755e-07
32	0xb896d725	-7.192631e-05
33	0xb95f73fe	-0.00021310148
34	0x00000000	0.0
35	0xb99d1a0d	-0.00029964783
36	0xba098c66	-0.0005247056
37	0xb571943b	-8.99952e-07
38	0xba24a805	-0.00062811404
39	0xb9bce225	-0.00036026645
40	0x00000000	0.0
41	0xb9f61bb7	-0.00046941426
42	0x3a18cc9b	0.00058288284
43	0x35749c26	9.112431e-07
44	0x39fc45fc	0.00048117328
45	0x398d7f48	0.00026988448
46	0x00000000	0.0
47	0xb88a5aa2	-6.5972345e-05
48	0x387a37d2	5.965663e-05
49	0x35385243	6.866505e-07
50	0x393cb967	0.00017998145
51	0x3970c17f	0.00022960267
52	0x00000000	0.0
53	0x39ad33c7	0.00033035708
54	0xb90d9c33	-0.00013504997
55	0x34ddbd6f	4.130229e-07
56	0xb94dbef3	-0.00019621458
57	0xb9171a4a	-0.00014410276
58	0x00000000	0.0
59	0xb9303dbd	-0.00016807667
60	0xb88b135a	-6.631641e-05
61	0x32959952	1.7415605e-08
62	0xb80d2402	-3.3650555e-05
63	0x37b72fd4	2.1837572e-05
64	0x00000000	0.0
65	0xb66a955c	-3.4955656e-06
66	0x393873ba	0.00017590719
67	0x34b234d6	3.3193527e-07
68	0x3973386a	0.00023195302
69	0xb8b3f66e	-8.581286e-05
70	0x00000000	0.0
71	0xb8234310	-3.8924685e-05
72	0x3a1c6dac	0.000596727
73	0x35ac17cc	1.2821924e-06
74	0x3a148211	0.00056651334
75	0x39556cac	0.00020353746
76	0x00000000	0.0
77	0x3908cf88	0.00013047282
78	0xb983d015	-0.000251413
79	0x34af9d30	3.271066e-07
80	0xb9a85bb9	-0.00032111796
81	0x33068000	3.131572e-08
82	0x00000000	0.0
83	0xb90d3368	-0.00013465958
84	0xb962b32c	-0.00021619786
85	0xb469e9b6	-2.178484e-07
86	0xb8e2c641	-0.000108134474
87	0x38e7aac6	0.000110467474
88	0x00000000	0.0
89	0xb826d628	-3.9776933e-05
90	0xb92de298	-0.00016582978
91	0x34e3af7f	4.2409735e-07
92	0xb936df91	-0.00017440158
93	0xb9983e4c	-0.00029038114
94	0x00000000	0.0
95	0xb9b3e99f	-0.00034315602
96	0x398e5f57	0.00027155384
97	0x35f7dd64	1.8467367e-06
98	0x3a22a7fd	0.0006204842
99	0x38fe727a	0.00012132987
100	0x00000000	0.0
101	0x3a51e6ea	0.0008007126
102	0xba18c2f4	-0.000582739
103	0xb2e9f350	-2.7235416e-08
104	0xb9c8bbff	-0.0003828704
105	0x3912c41f	0.00013996706
106	0x00000000	0.0
107	0x39a5213d	0.00031496017
108	0xb9439132	-0.00018650739
109	0xb4e412ec	-4.2482077e-07
110	0xb9be117b	-0.00036252648
111	0xb88d6be4	-6.7435e-05
112	0x00000000	0.0
113	0xb92fdc14	-0.00016771286
114	0xb98aa7a2	-0.00026446307
115	0x32ade910	2.0245835e-08
116	0xb984f0fa	-0.00025356543
117	0xb85bb3ec	-5.2381234e-05
118	0x00000000	0.0
119	0xb9472680	-0.00018992461
120	0xba295f9f	-0.0006461087
121	0x335cc1c0	5.1398956e-08
122	0xba43a676	-0.0007463464
123	0xb9d7fafb	-0.0004119499
124	0x00000000	0.0
125	0xba0a1abb	-0.00052682654
126	0x3930c8ea	0.00016859514
127	0x3484353a	2.4625643e-07
128	0x39173a41	0.00014422183
129	0x37871fa1	1.6107982e-05
130	0x00000000	0.0
131	0xb879f96e	-5.9598526e-05
132	0xb990aa1c	-0.00027592562
133	0x358904f1	1.0208734e-06
134	0xba08ab37	-0.0005213501
135	0xb9117a60	-0.00013873866
136	0x00000000	0.0
137	0xb9a5628b	-0.00031544673
138	0xb787281e	-1.6111935e-05
139	0x3454bb90	1.9812273e-07
140	0xb8084a01	-3.249385e-05
141	0xb87c32c7	-6.0128772e-05
142	0x00000000	0.0
143	0xb89e60fc	-7.552092e-05
144	0xba00a3c9	-0.00049072184
145	0xb550edc6	-7.7832044e-07
146	0xb9f2f299	-0.00046338586
147	0xb93359c2	-0.00017104208
148	0x00000000	0.0
149	0xb92ffb0c	-0.00016782823
150	0x3a0734e9	0.00051577255
151	0x358e83d5	1.0618193e-06
152	0x3a0bff14	0.0005340439
153	0x398c2c24	0.00026735768
154	0x00000000	0.0
155	0x3961cd69	0.00021534193
156	0xb8c09bea	-9.184315e-05
157	0x350e9e46	5.312944e-07
158	0x389116ba	6.918372e-05
159	0x39eb6403	0.00044897207
160	0x00000000	0.0
161	0x39d9bede	0.00041531672
162	0xb8cc1ce6	-9.732861e-05
163	0x34a804c4	3.1295906e-07
164	0xb83d3558	-4.511079e-05
165	0xb8d2d1b5	-0.00010052641
166	0x00000000	0.0
167	0xb9247ca2	-0.00015686688
168	0xba402dcc	-0.0007331043
169	0xb43acf10	-1.7397929e-07
170	0xba6ce1a7	-0.00090363104
171	0xb9c84032	-0.00038194802
172	0x00000000	0.0
173	0xba16c961	-0.00057520537
174	0xba2f1c41	-0.00066799304
175	0xb563c00e	-8.4843566e-07
176	0xba306fde	-0.00067305367
177	0xb9ca6d20	-0.00038609747
178	0x00000000	0.0
179	0xb9a81211	-0.00032056918
180	0x39b4ef4e	0.0003451057
181	0x33f26576	1.1287459e-07
182	0x3959b1d2	0.00020760976
183	0x39022fa6	0.00012415517
184	0x00000000	0.0
185	0xb8b05a83	-8.409193e-05
186	0x3a12f156	0.000560542
187	0x35e48e56	1.7028749e-06
188	0x3a27b592	0.00063976005
189	0x37edcff8	2.8349445e-05
190	0x00000000	0.0
191	0x392327ca	0.00015559714
192	0xb84c8230	-4.8758637e-05
193	0x34d58c81	3.9776572e-07
194	0x36cf4340	6.1769097e-06
195	0xb92b05d1	-0.00016309998
196	0x00000000	0.0
197	0xb90b90ec	-0.0001331006
198	0x3a91e37a	0.0011130415
199	0x360497c2	1.9757867e-06
200	0x3a99dee6	0.0011739403
201	0x3919d265	0.00014669595
202	0x00000000	0.0
203	0x38e45fca	0.00010889729
204	0xb8a0a8f4	-7.6608645e-05
205	0xb4db07bc	-4.0797556e-07
206	0xb7de5c0a	-2.6507321e-05
207	0xb7cdeda8	-2.4548572e-05
208	0x00000000	0.0
209	0xb8e50afa	-0.000109216155
210	0x39dd1103	0.0004216508
211	0x359ba824	1.1597335e-06
212	0x3a001c88	0.0004887064
213	0x398eabec	0.00027212442
214	0x00000000	0.0
215	0x3a07ddac	0.0005182873
216	0x3961b74c	0.00021525956
217	0x34ca1d92	3.7646947e-07
218	0x391e2998	0.00015083549
219	0x3891c3e6	6.950628e-05
220	0x00000000	0.0
221	0xb88511d3	-6.345254e-05
222	0x3a231aa8	0.00062219286
223	0x354f142c	7.7142863e-07
224	0x3a2b6dae	0.0006539476
225	0x39a2857f	0.0003099851
226	0x00000000	0.0
227	0xb8100470	-3.4336408e-05
228	0xb9c5e6ca	-0.0003774672
229	0x349916d8	2.8515092e-07
230	0xb9ce5ab4	-0.0003935896
231	0xb9158ff6	-0.00014263377
232	0x00000000	0.0
233	0xb942fda4	-0.0001859577
234	0x39c8470b	0.00038199904
235	0x357ab74b	9.3398984e-07
236	0x3a007e31	0.00049016165
237	0x39a4fc69	0.00031468578
238	0x00000000	0.0
239	0x39de81d5	0.00042439872
240	0xb982e5fd	-0.00024966887
241	0xb4405ca1	-1.7915092e-07
242	0xb8e1c03b	-0.00010764642
243	0x37a51274	1.9678126e-05
244	0x00000000	0.0
245	0xb8e1c3f4	-0.00010765335
246	0x39dd9375	0.0004226227
247	0x3421f290	1.5082537e-07
248	0x3a0619fe	0.00051155675
249	0xb88dcd84	-6.761684e-05
250	0x00000000	0.0
251	0x3900703c	0.00012248842
252	0x39162cbc	0.0001432178
253	0x335505c2	4.9598164e-08
254	0x390107a2	0.00012305242
255	0x3856fcf7	5.1257168e-05

exp_avg_sq f4 [128, 6]
0	0x35988dd4	1.136616e-06
1	0x2cb20383	5.059454e-12
2	0x35b6e158	1.362564e-06
3	0x35ad5e9b	1.2917038e-06
4	0x00000000	0.0
5	0x35cf8caa	1.546364e-06
6	0x34cb3688	3.7851373e-07
7	0x2c2568cf	2.350609e-12
8	0x34f94b12	4.6434485e-07
9	0x351ec597	5.914712e-07
10	0x00000000	0.0
11	0x352d561f	6.4572845e-07
12	0x35d7476a	1.6039533e-06
13	0x2cda84b6	6.2106665e-12
14	0x35e12e3a	1.677726e-06
15	0x35fc0214	1.8776068e-06
16	0x00000000	0.0
17	0x35ffbaf6	1.9053393e-06
18	0x34040455	1.2295034e-07
19	0x2b15b9d4	5.319332e-13
20	0x34037fad	1.2246774e-07
21	0x341dede7	1.4708313e-07
22	0x00000000	0.0
23	0x341f423d	1.4832126e-07
24	0x35f2abdc	1.8080423e-06
25	0x2ced11cd	6.7379214e-12
26	0x35cc4220	1.5218429e-06
27	0x361963cd	2.2856868e-06
28	0x00000000	0.0
29	0x35ffd5ba	1.9061183e-06
30	0x3516d37e	5.6187116e-07
31	0x2c35af56	2.5818978e-12
32	0x350d3967	5.2610125e-07
33	0x35580290	8.047e-07
34	0x00000000	0.0
35	0x354e6959	7.689428e-07
36	0x36676241	3.4478874e-06
37	0x2d7aee64	1.4263788e-11
38	0x366d4c5b	3.5360197e-06
39	0x36909bb1	4.3096593e-06
40	0x00000000	0.0
41	0x368ab4c8	4.133766e-06
42	0x35d1c8c5	1.5630145e-06
43	0x2cd8e0b2	6.1640354e-12
44	0x35e8674d	1.7315411e-06
45	0x35ccd6f6	1.5261746e-06
46	0x00000000	0.0
47	0x35e63a1b	1.7153246e-06
48	0x3415ec17	1.3962595e-07
49	0x2b62a98b	8.0526617e-13
50	0x340cd9b9	1.3117723e-07
51	0x34579b55	2.0079945e-07
52	0x00000000	0.0
53	0x34820efd	2.4225292e-07
54	0x349b3907	2.8912493e-07
55	0x2b7aff86	8.917245e-13
56	0x348533a7	2.4810763e-07
57	0x348edded	2.6611033e-07
58	0x00000000	0.0
59	0x347aa1f8	2.3341988e-07
60	0x33895524	6.3950466e-08
61	0x2aa6ef96	2.965377e-13
62	0x334e39a0	4.8015522e-08
63	0x33bc5b44	8.771033e-08
64	0x00000000	0.0
65	0x338914fd	6.3833774e-08
66	0x3524472d	6.1198335e-07
67	0x2c0df994	2.0175849e-12
68	0x350df333	5.2880495e-07
69	0x353f74b6	7.132288e-07
70	0x00000000	0.0
71	0x352455fb	6.121988e-07
72	0x35e5e764	1.7129173e-06
73	0x2cf49340	6.951245e-12
74	0x35f5ceb5	1.8314082e-06
75	0x35f92b2f	1.8564514e-06
76	0x00000000	0.0
77	0x360255f6	1.9421545e-06
78	0x359ba323	1.1595879e-06
79	0x2c7a625d	3.558174e-12
80	0x35814f00	9.634241e-07
81	0x35a558df	1.2319323e-06
82	0x00000000	0.0
83	0x358d734d	1.0538876e-06
84	0x35cdc3e0	1.5330697e-06
85	0x2ccacc3c	5.76386e-12
86	0x35cfa69d	1.5471193e-06
87	0x35f6723b	1.8361674e-06
88	0x00000000	0.0
89	0x360255b5	1.9421398e-06
90	0x34bba5ca	3.4952092e-07
91	0x2c056c37	1.8960508e-12
92	0x34d603c2	3.986334e-07
93	0x34fd223d	4.7149834e-07
94	0x00000000	0.0
95	0x351ec028	5.913921e-07
96	0x360f3112	2.1337223e-06
97	0x2d1651d7	8.544685e-12
98	0x360f2d32	2.1334968e-06
99	0x361cf0ff	2.338609e-06
100	0x00000000	0.0
101	0x362c98c2	2.5718914e-06
102	0x3602caa7	1.9489469e-06
103	0x2d07a3f2	7.710265e-12
104	0x3609fee0	2.0562948e-06
105	0x360e3eaa	2.1196124e-06
106	0x00000000	0.0
107	0x3613e4d3	2.20379e-06
108	0x35887730	1.0167478e-06
109	0x2c5c0f2b	3.12723e-12
110	0x355b8799	8.178118e-07
111	0x35964a61	1.1197518e-06
112	0x00000000	0.0
113	0x35790395	9.276494e-07
114	0x358a163e	1.0288275e-06
115	0x2c81c7f9	3.688602e-12
116	0x3585c645	9.966976e-07
117	0x359f714c	1.1879397e-06
118	0x00000000	0.0
119	0x35a060cc	1.19491e-06
120	0x3648e39f	2.9934815e-06
121	0x2d38b694	1.04997296e-11
122	0x365aeb6a	3.262156e-06
123	0x36618776	3.3606461e-06
124	0x00000000	0.0
125	0x366fc5c0	3.572888e-06
126	0x342e21d2	1.6217317e-07
127	0x2b4a605f	7.189856e-13
128	0x3459199c	2.0219017e-07
129	0x344411f1	1.826045e-07
130	0x00000000	0.0
131	0x346be39a	2.1968881e-07
132	0x3675e2d7	3.6639883e-06
133	0x2d472774	1.1320601e-11
134	0x3666e578	3.440624e-06
135	0x3681180f	3.8473004e-06
136	0x00000000	0.0
137	0x36758d65	3.6590147e-06
138	0x333cc432	4.39506e-08
139	0x2a922101	2.595771e-13
140	0x32fde531	2.95573e-08
141	0x33ade2e3	8.097211e-08
142	0x00000000	0.0
143	0x3360fd37	5.238436e-08
144	0x35a9458b	1.2611721e-06
145	0x2cdbc94a	6.246702e-12
146	0x35c2920b	1.449663e-06
147	0x35ccb53c	1.525193e-06
148	0x00000000	0.0
149	0x35df9cbc	1.666041e-06
150	0x354a1aa1	7.5289614e-07
151	0x2c58b579	3.0796184e-12
152	0x3562e99c	8.4531507e-07
153	0x35487745	7.4679366e-07
154	0x00000000	0.0
155	0x356006dc	8.3456484e-07
156	0x35bb691a	1.3963174e-06
157	0x2ccc5967	5.8079544e-12
158	0x35c41d9f	1.4611759e-06
159	0x35db8f94	1.6358558e-06
160	0x00000000	0.0
161	0x35e84442	1.7305213e-06
162	0x33eefbe5	1.1128558e-07
163	0x2b0c801b	4.9915774e-13
164	0x340a7fac	1.2898698e-07
165	0x341f8e06	1.4859697e-07
166	0x00000000	0.0
167	0x34361db5	1.6960878e-07
168	0x36942fae	4.4162944e-06
169	0x2d830bb1	1.4898168e-11
170	0x369e4088	4.7162794e-06
171	0x36a1b56c	4.819294e-06
172	0x00000000	0.0
173	0x36ac64d8	5.137739e-06
174	0x35fc1f22	1.8784524e-06
175	0x2d04ae83	7.542081e-12
176	0x35e0b7c7	1.6742787e-06
177	0x361f08b6	2.3697917e-06
178	0x00000000	0.0
179	0x36023dde	1.940752e-06
180	0x35160fc7	5.5902314e-07
181	0x2c3d3501	2.6887938e-12
182	0x3523acbc	6.0973593e-07
183	0x3536a232	6.803631e-07
184	0x00000000	0.0
185	0x3534f89d	6.7417005e-07
186	0x35b6bd36	1.3615124e-06
187	0x2cc82aea	5.6891063e-12
188	0x35ddc083	1.6521811e-06
189	0x35bfb160	1.4282232e-06
190	0x00000000	0.0
191	0x35ebd1b0	1.7569891e-06
192	0x33ff942d	1.1901316e-07
193	0x2b8c5077	9.969932e-13
194	0x33f53259	1.141786e-07
195	0x349394bb	2.74891e-07
196	0x00000000	0.0
197	0x348fa622	2.6756703e-07
198	0x364a7f36	3.0174392e-06
199	0x2d4e3dce	1.1723468e-11
200	0x3644d6f5	2.9331397e-06
201	0x36646002	3.4030531e-06
202	0x00000000	0.0
203	0x3655f380	3.188121e-06
204	0x35e029f4	1.670151e-06
205	0x2ccffc46	5.911302e-12
206	0x35d4da63	1.585879e-06
207	0x35f5d979	1.8317215e-06
208	0x00000000	0.0
209	0x35ed597d	1.768392e-06
210	0x357ea02c	9.4855454e-07
211	0x2ca181eb	4.590319e-12
212	0x359136da	1.0819306e-06
213	0x35968ad1	1.1216272e-06
214	0x00000000	0.0
215	0x35b426e9	1.3422369e-06
216	0x348ff4e0	2.6813996e-07
217	0x2b9bc080	1.1066842e-12
218	0x34959ee1	2.7869012e-07
219	0x349ac4a4	2.882781e-07
220	0x00000000	0.0
221	0x349d6044	2.931357e-07
222	0x3605e54d	1.9952015e-06
223	0x2d001150	7.279802e-12
224	0x35faa670	1.8674891e-06
225	0x36153406	2.2233012e-06
226	0x00000000	0.0
227	0x360d37b5	2.1043063e-06
228	0x354c1c63	7.603723e-07
229	0x2c3ad8e0	2.655258e-12
230	0x3571b4e7	9.0042744e-07
231	0x355a41b5	8.1306945e-07
232	0x00000000	0.0
233	0x3580aabc	9.586433e-07
234	0x353e76a0	7.095314e-07
235	0x2c4bb009	2.8945754e-12
236	0x3554bbdb	7.924952e-07
237	0x3539a45f	6.915706e-07
238	0x00000000	0.0
239	0x3559c694	8.112777e-07
240	0x360e00bc	2.1160076e-06
241	0x2d0de76b	8.066307e-12
242	0x36102e60	2.1484666e-06
243	0x3625785b	2.4656972e-06
244	0x00000000	0.0
245	0x36278a5f	2.4965482e-06
246	0x35d28110	1.5683781e-06
247	0x2cbfb20a	5.448313e-12
248	0x35d70f79	1.6023251e-06
249	0x35e6c6f8	1.7194243e-06
250	0x00000000	0.0
251	0x35e995ea	1.7403484e-06
252	0x3403eca7	1.228642e-07
253	0x2b79c5c5	8.873703e-13
254	0x33f95c0c	1.1611709e-07
255	0x346cac22	2.2041834e-07

exp_avg f4 [128]
0	0x39413306	0.00018424922
1	0x368a9b04	4.1307667e-06
2	0xb8fbe311	-0.00012010907
3	0xb83daa57	-4.5219753e-05
4	0xb82e77d4	-4.159643e-05
5	0xb855e2ba	-5.0994313e-05
6	0x396beba3	0.00022499128
7	0xb96ee13e	-0.00022781358
8	0xb9340109	-0.00017166523
9	0xb8d88be5	-0.0001032574
10	0xb6921a06	-4.3541686e-06
11	0xb8ae0818	-8.298474e-05
12	0xb9a80fc4	-0.00032055203
13	0xb8ab8078	-8.1778446e-05
14	0x38646fcb	5.446355e-05
15	0xb8de5a1f	-0.00010602571
16	0xb9f20f3d	-0.0004616919
17	0x36e47490	6.808499e-06
18	0x38debb40	0.00010620663
19	0xb6a9d2b0	-5.0611197e-06
20	0xb7579700	-1.2850156e-05
21	0xb8811c31	-6.1564504e-05
22	0xb985cf72	-0.00025522296
23	0xb84fc00a	-4.9531496e-05
24	0x394c08ae	0.0001945819
25	0xb98b2d30	-0.00026545813
26	0xb90b478d	-0.00013282728
27	0xb8a4152c	-7.824073e-05
28	0x38366e88	4.349512e-05
29	0x395e6a40	0.00021211151
30	0xb7ecb7ae	-2.8218925e-05
31	0xb9df33bd	-0.00042572423
32	0xb8d08bf2	-9.94428e-05
33	0xba017ca0	-0.000493953
34	0x38d5e6dc	0.000101996324
35	0xb99802ae	-0.00028993696
36	0xb8c56190	-9.4118644e-05
37	0xb94a3a94	-0.00019286043
38	0xb89580fc	-7.128899e-05
39	0xb974d7c6	-0.00023350035
40	0x383bdb8d	4.4788747e-05
41	0xb81e270c	-3.77065e-05
42	0xb7500868	-1.2399723e-05
43	0xb824fe45	-3.9337454e-05
44	0x39ba9134	0.0003558487
45	0x377d202d	1.5087467e-05
46	0x39af7594	0.00033466204
47	0xb8adfc02	-8.296223e-05
48	0xb79b3b98	-1.850519e-05
49	0xb8852e18	-6.35052e-05
50	0xb93f10fa	-0.00018221504
51	0xb8e9bfa2	-0.00011146
52	0x390965de	0.00013103287
53	0x37e4dd7a	2.7282851e-05
54	0x370b7520	8.312316e-06
55	0xb7f2f012	-2.896044e-05
56	0xb7394fc8	-1.1045435e-05
57	0xb8f7f211	-0.00011822966
58	0x377604f0	1.4663892e-05
59	0x3805387b	3.1762273e-05
60	0xb76558a8	-1.3670106e-05
61	0x392fdf5b	0.00016772507
62	0xb7889484	-1.6281621e-05
63	0xb90efbac	-0.0001363593
64	0xb8c1a4a0	-9.233621e-05
65	0xb79c5e38	-1.8640523e-05
66	0x3919b65a	0.00014659148
67	0x392b75bf	0.00016351695
68	0xb9671635	-0.0002203815
69	0xb80e8be7	-3.3985732e-05
70	0xb9b24bd8	-0.00034007314
71	0xb8c3dc36	-9.339342e-05
72	0xb934199f	-0.00017175682
73	0x38943fd0	7.069076e-05
74	0xb94c4774	-0.00019481574
75	0xb86f7ae8	-5.7096506e-05
76	0xba061be7	-0.0005115852
77	0xb7da2338	-2.6004025e-05
78	0xb8f44282	-0.00011647215
79	0xb84ef3ab	-4.934116e-05
80	0xb8b3138e	-8.5390275e-05
81	0xb962ab4f	-0.00021616857
82	0x38b514da	8.6346365e-05
83	0xb9a6f8a0	-0.00031847227
84	0xb901390d	-0.00012323652
85	0xb8e7b048	-0.00011047773
86	0xb92a1cdf	-0.00016223219
87	0x38b0954e	8.420144e-05
88	0xb903e21b	-0.00012577364
89	0xb917d3a7	-0.00014479329
90	0x38ccb16f	9.7605276e-05
91	0xb8153b30	-3.557949e-05
92	0xb9b7d8b3	-0.00035065933
93	0x38ba05ba	8.870238e-05
94	0xb72d7a18	-1.0340031e-05
95	0xb93cc775	-0.0001800338
96	0xb97db160	-0.00024194038
97	0xb852fb38	-5.0301867e-05
98	0xb8e9a4ac	-0.00011140978
99	0xb7a46a59	-1.9599845e-05
100	0x38b47246	8.604354e-05
101	0xb9c4619a	-0.00037456752
102	0xb70912b8	-8.170195e-06
103	0xb90730da	-0.00012892802
104	0xb91bbf92	-0.00014853317
105	0xb9d52900	-0.00040657073
106	0xb8bfa208	-9.1377704e-05
107	0xb908d231	-0.00013048273
108	0x3854c424	5.072741e-05
109	0xb921af5f	-0.00015419487
110	0x38ace245	8.243745e-05
111	0x390b2cdf	0.00013272789
112	0xb8ee2a16	-0.000113565635
113	0xb876b2bc	-5.881743e-05
114	0x39527867	0.00020072014
115	0xb7988160	-1.8180057e-05
116	0xb9023b81	-0.00012419933
117	0x392c5dee	0.0001643819
118	0xb8895c22	-6.54983e-05
119	0xb872eb60	-5.7916506e-05
120	0x39de9f06	0.0004246162
121	0xb8558d4c	-5.091475e-05
122	0xb91cd8e8	-0.00014958123
123	0xb8cbb650	-9.713753e-05
124	0xb808f56c	-3.2653494e-05
125	0x38c20316	9.251216e-05
126	0xb982f2d2	-0.00024976447
127	0x38e03fac	0.00010693012
