results/MultipleTargetFloatingText/AgentControl/AgentControl-7999966.onnx (onnx, 596867 bytes, 10 tensors)

network_body._body_endoder.seq_layers.0.weight f4 [256, 57]
00000000: 84c6 aaba 5145 163d a5da 403d 9681 313e
00000010: 1d2a bcbc 0094 9b3e 1138 49be a06a 50be
00000020: e5df a0bd 09bf 18be 313c 7c3e b4e2 073e
00000030: c17e e8bc adc2 173e 241a 97bd 61f6 c4bd
00000040: 7d00 233c 5428 5c3e 4e37 153e fa05 b8bd
00000050: 06bf 053c 08b5 543c afd0 15be 1255 0ebe
00000060: d492 f0bd 7d58 f23d fea5 47bc 256f d0be
00000070: 84b8 543e b734 f13d 6d90 793d b10f d4bd
00000080: 7de0 b93d 642f 6abd 35fc c9bd 78cf 0b3c
00000090: 9592 9a3d 71af c1bc 53f1 0cbd 4dca 293c
000000a0: ff0a 213e 5848 493d f602 9d3d 6724 19be
000000b0: a0af 00be 0a92 ef3d 13e4 8abc 59da b0be
000000c0: dc67 69be 4a2d b93e 0c3a c63c 0e78 49bd
000000d0: 037b 393c 71ef 8a3e de8f 11be a619 52bc
000000e0: 90bb 853e 6d95 aa3e ac20 6e3e c32b 563d
000000f0: c0fe 5c3c a31f 30be 0691 443e 8ead f0bd
00000100: bd1f 13bd 5428 6b3d 6081 78be 82f3 89bd
00000110: 9ca6 c9bd fbab 16bd bd35 9c3c 53d3 c63c
00000120: b9a3 23bd 7a14 a43d 172b 393e 62ec 463e
00000130: 480a fc3d 93a1 1abe 5c08 22be d010 a6bd
00000140: 91ad a3bc 95d6 47be 53a3 3abe 4234 51bd
00000150: 025d 8d3c 3d65 37bd 9aa0 ee3d cefc 2d3d
00000160: 7efc 223e adfa 8cbd f2e1 76be 4fff 523d
00000170: e5c7 49be 8e47 37be 6304 2bbe b461 643e
00000180: 97ed 3e3e bddd 32bc d220 2f3d e926 73bd
00000190: 89a9 043e 0fea 31bb fb2e a5bc 08fb 82bd
000001a0: af89 9b3d 3015 85be f368 9cbe eb72 383e
000001b0: 9a7b 0fbd 8f60 5d3e 2249 493b 4c4a 5e3e
000001c0: 1d38 403d 7997 0f3e 6c79 80be d059 bd3b
000001d0: a0ee 8c3d 52f0 3fbe 4f24 a83d f163 49be
000001e0: 5533 e93c abdf 73bd eb07 183e 16bf 87bc
000001f0: 12c7 f53d c465 7c3d 5b12 a4bd 5b7c 86bd
00000200: 71b0 313e 37cb 093e 5d02 1dbd 9e28 28be
00000210: be7f cfbd 5e88 46be 74de 323d 84d2 9e3d
00000220: d674 a1bd fe83 5bbc f124 28be 2d64 f23d
00000230: 2984 1d3e 39ae 283e 62b3 093d f2ba c3bd
00000240: dcae 933d 29fa 7abd d97b 6b3e 7124 dd3d
00000250: e9d1 3abd eda5 073d 8bb2 713d 1bba 253e
00000260: 3ff4 c83d 8feb 90bd 9391 65bd 5677 fc3a
00000270: ace9 bdbd 4fd8 e93d f92b d33d 6f32 02be
00000280: ad8b 53be 96ee c0bd f961 043e bf7b f03d
00000290: ce3a 54bd d653 d73d 0315 253e 5938 3d3d
000002a0: 51bb 913d 381b 063e 4107 c83d d2ad 313c
000002b0: 8993 603d 0ee0 5bbd eb19 383d 4567 7dbc
000002c0: 5834 933e 21df c53c 91e2 6ebd bf18 b7b8
000002d0: 37c9 203e b028 403d 72c8 73be 3910 613b
000002e0: dbb1 adbd da20 553d 8955 88be 0aca 56bc
000002f0: f3e7 9b3d d3de 683d 9bff b9bd ba9e 88bd
00000300: 81b7 d83d 0625 053e 284c 523e 73e4 fbbd
00000310: 2a60 06bd b42f dabc dd79 50bd 3e0f 603d
00000320: f5b8 a23d f209 4c3e 2a13 43bd da27 853d
00000330: 6d61 843e 945f d13d a0cb 29bd b6ca 98bd
00000340: 9a9d 943e e61b 783c 2557 143e 1699 683e
00000350: 9048 553d 3cfe 84bd 8f60 36bd abff c63d
00000360: 84d2 b03d 513d 693e b56f 90be 4ecc 1bbd
00000370: 6671 433e 75e3 51bd 303d 72bd b5bf d93b
00000380: 6d8e f33d be2f 653e 0dc9 56bc 448b 1bbe
00000390: 6461 063d 2ad2 84bc de0c 343d 19f1 053e
000003a0: 59a4 103e cf1d c0bd dd85 9e3a 4b82 eb3c
000003b0: 85fe 933d e5e5 15be 3df5 02be eb16 613e
000003c0: 0fec 95be a2b6 443d 807c 65be fdae 313e
000003d0: 139a 263e 5c53 02bd 89ae 283e a237 083d
000003e0: 03c2 f83d 5b18 0bbe 04ad 4cbe fcf7 9abc
000003f0: dfc7 c13d d632 6bbd 6717 ddbd a05e 69be
-0.0013029133 0.0366872 0.047083516 0.1733459 -0.0229693 0.30386353 -0.19650294 -0.20353174
-0.078552045 -0.14916624 0.24632336 0.13270074 -0.028380753 0.14820357 -0.07378033 -0.096173055
0.009948847 0.21499759 0.14571878 -0.08985515 0.008163219 0.012982614 -0.14630388 -0.13899639
-0.11746755 0.11833284 -0.012185572 -0.40709797 0.20773512 0.11777633 0.06092875 -0.103545554
0.09076021 -0.0571741 -0.09862558 0.008533351 0.075474896 -0.023643227 -0.034409832 0.010363174
0.15726851 0.049141258 0.076665804 -0.14955293 -0.12566996 0.116977766 -0.016954457 -0.34541586
-0.22793525 0.36167365 0.0241976 -0.04918676 0.011320832 0.27135804 -0.14215037 -0.012823498
0.2611966 0.33317128 0.23254651 0.05228783 0.0134884715 -0.17199568 0.19195947 -0.11751853
-0.03591894 0.057411507 -0.24268103 -0.067358986 -0.09846231 -0.036785107 0.019068593 0.02427069
-0.03995106 0.08011718 0.18082844 0.1942611 0.123066485 -0.15100698 -0.15823501 -0.081086755
-0.019980224 -0.1951545 -0.18226366 -0.051075228 0.017256264 -0.044774283 0.11651726 0.04247742
0.1591663 -0.0688375 -0.24109629 0.051513012 -0.1970516 -0.1789839 -0.16700892 0.22302896
0.18645321 -0.010917124 0.04275591 -0.05936328 0.12955298 -0.0027147566 -0.020164004 -0.06395537
0.075946204 -0.25992727 -0.3054882 0.18012588 -0.035029985 0.21618865 0.0030713757 0.2170803
0.046928514 0.14022626 -0.25092638 0.0057785287 0.068814516 -0.18744019 0.0821005 -0.19667031
0.02846686 -0.05953948 0.1484677 -0.016570609 0.1200086 0.06162049 -0.080113135 -0.06566688
0.17352463 0.13456427 -0.038332332 -0.16421744 -0.10131787 -0.19387957 0.04366918 0.077549964
-0.07883613 -0.013398169 -0.16420342 0.11835513 0.15382446 0.1647271 0.03361834 -0.09557141
0.07211086 -0.061273728 0.22996463 0.10797966 -0.045610342 0.033117224 0.059008162 0.16184275
0.09812211 -0.07076179 -0.056047034 0.0019261639 -0.09273085 0.11418211 0.103111215 -0.12714551
-0.20658751 -0.09420507 0.12927999 0.11742353 -0.051813893 0.10514037 0.16121297 0.046196315
0.07115806 0.1309632 0.097670086 0.010844665 0.0548282 -0.053680472 0.044946592 -0.015466516
0.28750873 0.024154248 -0.05832154 -8.730729e-05 0.15701757 0.046913803 -0.23806933 0.0034341945
-0.08481189 0.052033283 -0.26627758 -0.013109693 0.076126 0.056853127 -0.09081956 -0.066709
0.105818756 0.13002405 0.20536864 -0.122994326 -0.032806553 -0.026634075 -0.050897468 0.054702036
0.07945434 0.19925669 -0.0476257 0.06501742 0.2585558 0.10223308 -0.041453958 -0.07460539
0.2902649 0.01514337 0.14486368 0.22714648 0.052071154 -0.06493804 -0.04452568 0.097167335
0.08633903 0.22777297 -0.28210226 -0.038036637 0.19086227 -0.05124231 -0.059140384 0.0066451677
0.118924 0.22381493 -0.013109458 -0.15189844 0.032807723 -0.016213495 0.043957584 0.13080253
0.14125194 -0.093806855 0.0012094338 0.028748652 0.0722628 -0.14638479 -0.12788863 0.21981399
-0.2928166 0.048025735 -0.22410774 0.17351909 0.16269712 -0.03181778 0.1647283 0.03325618
0.1214638 -0.1358351 -0.19987875 -0.018917076 0.094619505 -0.057421528 -0.10795479 -0.22790003

network_body._body_endoder.seq_layers.0.bias f4 [256]
00000000: 97cf ab3b 47c2 11bc 0f9b e3ba 9136 8abb
00000010: 87bd 823c 8b3a 2d3b b380 dd3b fc8a 8e3c
00000020: 6564 4fbc 658c 75bc ec63 813b 7058 d6bc
00000030: aabc 9b3c 555c 4bbc 03a8 b23c b7d7 9abc
00000040: c694 6ebb 2fb1 463b eed4 3d3d 25ba 003c
00000050: 037d 92bc c9a4 8b3c d2b0 8b3c 7c96 e1ba
00000060: bf4a a9ba c2e5 0b3b 3112 97bc df07 4c3c
00000070: 47c1 9e3b 0c4c 28bc 24af 02bd e7ad 84ba
00000080: 1e3a 8c3a 085a a53c f6df 9c3b 45aa b4bc
00000090: 46b8 973b e7ac 9c3c 5c27 cbbc 1f90 da3c
000000a0: 5493 6dbb 3a01 bb3a f2ae b7bb 30d4 fabb
000000b0: 63b0 193c 19b1 0e3b d045 a4bb 3199 dd3b
000000c0: 842e 3839 9c90 f23c f1bf 113c f12e c3bc
000000d0: 94df a73b d2a0 033c d1ae bcbb 8aef 8cbb
000000e0: b137 afbc cdd9 c0bc 40a6 0e3c 68a4 cd3b
000000f0: 50cd 44bc 6ed7 9bbb 9138 ba3c bcef ccba
00000100: 5029 273c 8925 613c c503 46bc 68b3 2fbd
00000110: 20d0 463c a36e 0f3b a703 103c 39f4 723b
00000120: 07ec 39bc 7dea 0abc 60f6 c4bb 5ced ce3b
00000130: 53bb 7ebc b8c8 abbc a490 c33b d62e fc3c
00000140: 544a 3d3c 2491 04bc cb32 783c bd17 763c
00000150: 8b42 803c 2532 a5bc 3f31 c0bb 65cb 9f39
00000160: 6573 11ba d10a edbc b9ed 0b3d bc85 60ba
00000170: 292b 0a3c e985 333d 74c5 703b cdf3 20bc
00000180: 3349 ca3b f3cb 203d 94fc 82bc 3850 d0bb
00000190: d81e b93b 970b 3bbc 822e e5bc fa7e c7bc
000001a0: d66b 14bc a983 013c 22d0 19bb 57f5 91bc
000001b0: 0a1d 063d d55e b4bb 86be 01bb 9d8f a63c
000001c0: db33 89bc ad37 a5bb 25ec a5bc b318 23bb
000001d0: baf5 acbc 65c6 2d3a 170d 68bc 02d5 20bc
000001e0: 3ebd 0b3d 8901 993c 7aca d2bb 425e 153c
000001f0: b118 fc3c 74d4 ae3c c01a 113c 7068 53bc
00000200: 7732 f0bb 6952 37bc 5e11 373c 7cf3 d1bc
00000210: 9132 c4bc 51df 993c 246c 0ebc 47a9 893b
00000220: 7757 e93b cf36 01bd 93b5 94bc 43d2 84bb
00000230: 0a83 e4b9 2857 d4bc b0e8 a93c 996d 143d
00000240: 0929 ddbb d6b7 4c3c a861 a9b9 c0b1 41bb
00000250: ff1e efbc de0d f7ba cf50 c03b 2ce1 3dba
00000260: fb5a 7abc f926 a23c f81d 3abc 9b96 70ba
00000270: 3669 e7bc bb25 82bb b957 c5bc 343e 9d3b
00000280: 869a 313c 2718 ecbb 7cff 113c 9d8c 65bc
00000290: 37ae c7bc e6cb c23b 855a 6abb 0e3c 3abc
000002a0: 0a49 853c 6a6a 76bb 6c31 a13c c255 e03b
000002b0: c69d c83c 501a 843c 7312 a03c 39cc 7e3c
000002c0: 3cf3 fb3c 3903 98bb 7a3a 023c e808 a1bc
000002d0: bf6f edbc 2c19 383c 2200 983c eb6e d13b
000002e0: e018 1abc c67b efbc 0eb1 c93b 2dc0 9f3c
000002f0: f0df a5bb ad8d b9bc b529 cb3c c190 3dbb
00000300: b66a 163c c9ab 5f3c 00c1 00bc c862 833c
00000310: ba6c fb3c 97d2 083c c303 a93c 39a2 93bc
00000320: 2e97 40bc 7f72 e3bc 4af3 89bc bc7b febc
00000330: 7e81 bb3b ad0f 823c 7693 4bbc 99ff 30bc
00000340: 150f cbbb 768d 893c 5ae3 26bc 123d 033c
00000350: 6e0e 323c 585b af3c e364 c03c b5c2 6e3c
00000360: 41e1 75ba 2125 a6bc b51b a8bc 93b6 b3bc
00000370: 20ea a2bc 929a 393c 7980 f83a 9cc0 bfbb
00000380: 1938 4cbc ad51 623c 27ab 8d3c 55d5 393c
00000390: dfcd 2bbc 8641 73bc 3b16 00bc 81ba e63b
000003a0: f3d5 fc3c c5a1 f6bc a43c f23b 1a6e b33c
000003b0: fae2 bb3b c1d6 903c 30f7 f53b 5342 adbc
000003c0: 35a0 eabc 08d7 26bc 8596 b63a 0cd0 d53c
000003d0: e0c5 91bc d0c8 a3bc afbc 1a3c 900e d2bc
000003e0: f852 af38 d685 adbc a601 093b 993e b0bb
000003f0: 1804 23bc 1b47 96bc aa0b 39bc 7388 2f3c
0.0052432525 -0.008896417 -0.0017364937 -0.0042179306 0.015959514 0.00264326 0.006759727 0.017400257
-0.012658213 -0.014987086 0.003948679 -0.026165217 0.01901086 -0.01241215 0.02180863 -0.018901689
-0.0036404594 0.0030318012 0.046345644 0.00785688 -0.017881876 0.01704635 0.017052088 -0.0017210986
-0.0012915953 0.0021346663 -0.018441292 0.0124530485 0.004844818 -0.010272037 -0.03190531 -0.0010122628
0.0010698473 0.020184532 0.0047874404 -0.022053847 0.0046301214 0.019125415 -0.024799041 0.02668005
-0.0036251144 0.0014267333 -0.005605572 -0.0076546893 0.009380433 0.002177304 -0.005013205 0.0067626466
0.00017564936 0.02960997 0.00889586 -0.023826094 0.005123088 0.008033948 -0.0057581444 -0.004301016
-0.02138886 -0.023541356 0.008706629 0.0062757023 -0.012011841 -0.004755906 0.022732051 -0.0015635411
0.010202721 0.013741859 -0.01208586 -0.042895705 0.012134582 0.0021886013 0.008789933 0.0037071838
-0.011347777 -0.008478758 -0.0060108155 0.0063149165 -0.015547591 -0.020969734 0.0059681702 0.030784052
0.011553366 -0.008091245 0.015148829 0.015020308 0.01565673 -0.020165512 -0.0058652456 0.00030478384
-0.0005548506 -0.028935822 0.034162257 -0.000856485 0.008433142 0.04382888 0.0036738785 -0.009823752
0.006173277 0.039257 -0.01598958 -0.006357219 0.005649429 -0.011416337 -0.027976278 -0.02435254
-0.009058913 0.007904925 -0.0023470004 -0.017817182 0.032742538 -0.005504469 -0.0019797399 0.020332152
-0.01674836 -0.0050420375 -0.020254204 -0.0024886548 -0.021113265 0.00066289894 -0.014163277 -0.00981641
0.034116022 0.01867749 -0.0064328285 0.009116711 0.030773493 0.02134154 0.008856475 -0.012903318
-0.0073302346 -0.011189082 0.011173574 -0.025628798 -0.023949893 0.018783243 -0.008692775 0.0042010876
0.0071210223 -0.03154641 -0.018152988 -0.0040533855 -0.0004358518 -0.025920466 0.020740837 0.036237333
-0.0067492765 0.012495002 -0.00032306951 -0.002955541 -0.029189585 -0.0018848737 0.005869008 -0.0007243331
-0.0152804805 0.019793974 -0.011359684 -0.00091777154 -0.02824841 -0.003971783 -0.024089681 0.004798675
0.010840064 -0.0072050276 0.00891101 -0.014010576 -0.024375064 0.0059447167 -0.003575952 -0.011366857
0.01627018 -0.0037600049 0.019676886 0.0068461606 0.024489295 0.016125828 0.019540047 0.01555162
0.030755632 -0.004639056 0.007948512 -0.019657567 -0.028983949 0.01123647 0.01855475 0.0063913963
-0.009405345 -0.029233824 0.0061551398 0.019500816 -0.005062096 -0.022650564 0.02480016 -0.0028925391
0.009180715 0.013651797 -0.007858515 0.016038314 0.030691493 0.00835099 0.020631677 -0.01802169
-0.011754794 -0.027764557 -0.016839642 -0.03106486 0.005722224 0.015876615 -0.012425294 -0.010803127
-0.0061968663 0.016791087 -0.010186041 0.008010166 0.010867698 0.02140586 0.023485607 0.014572789
-0.0009379574 -0.020281376 -0.020521024 -0.021937644 -0.01988703 0.011328356 0.0018959186 -0.0058518182
-0.012464547 0.013813418 0.017293526 0.011342366 -0.010486095 -0.014847165 -0.0078178 0.007041276
0.030863738 -0.030106435 0.007392483 0.021903086 0.005733845 0.017680528 0.0075062737 -0.02114979
-0.028640846 -0.010183103 0.0013930356 0.026100181 -0.01779455 -0.019993216 0.0094444 -0.02564171
8.3601044e-05 -0.021181982 0.0020905524 -0.005378556 -0.0099497065 -0.018344453 -0.011294285 0.010713684

network_body._body_endoder.seq_layers.2.weight f4 [256, 256]
00000000: 2f83 8439 ae47 743d 8154 263d a750 d93c
00000010: 7b52 c1bc 2f17 823d 85a3 b33c 3ae4 24bc
00000020: 1a0b af3d 146e d6bd 88e3 a3bd c627 1a3d
00000030: 24ff 8cbc 7c00 3b3d 7b59 2cbd aae7 c93d
00000040: 59be 4c3d d5c0 5cbd 2580 2d3d 4dc6 a1bd
00000050: 27b7 953d 8fe5 c23d 23f9 96ba 2119 52bc
00000060: 1fc8 f7bd f66d 99bd fdd9 2e3e a32b bfbc
00000070: e585 b8bd 3a16 073e 46b6 a33d 4100 233b
00000080: 92a1 8e3d d1b0 4c3d 8412 63bd 1fe7 df3d
00000090: 0ee6 e0bd f9af 283d 1d81 023e 7afd 5dbd
000000a0: 06e9 12bd a390 38bd e53e cd3d bfb4 743d
000000b0: c7a2 a639 9286 8b3d 2d3c d4bc bb79 12be
000000c0: 7a03 7f3c 7651 58bd 1223 dcbb f164 b8bb
000000d0: 5ec2 b7bd 9875 88bd d7e5 623c 44c6 a83b
000000e0: d681 cf3c 8256 053d 9319 7a3d 8c52 43be
000000f0: 4423 3a3d 1082 723d 4d9b 253c 84f7 7d3c
00000100: d272 d5bc c93d a83d 34a8 a13b d50a 1b3e
00000110: 07a4 573d 9d79 07bc 6842 a73c cd21 a4bd
00000120: 9dae f93b 7228 67bd 6a65 023e c73b 11bc
00000130: 5538 5e3d 0839 b2bc f941 33bd 2175 9f3d
00000140: e03c 893d 7ecd 923d c79c 563d 7abe 043c
00000150: 82bc d03d 32f2 7d3d 5f96 4e3d a75e 90bd
00000160: b811 733b 2845 9cbc c7ef 3d3c 9d6c af39
00000170: a4f1 cd3d 3a1b 043e a53b f13b f764 10be
00000180: 3273 afbc 755c 24be 293f 36bd d5d5 2f3d
00000190: e0e9 f8bc 395b 04bd a7c5 31bd 9586 dabb
000001a0: 9faf a3bd 7a72 92bd a3fc e9bd cd49 803d
000001b0: e436 4c3d 3177 ed3d 3bd2 13bc aad7 96bd
000001c0: 0438 8a3d d551 b43c 5c3b 3f3c e728 623d
000001d0: 4f0d 7a3d f19b afbd 92d0 94bd 0f67 12bd
000001e0: 83ce e4bd 4ddc 7d3d 15f3 a3bd 1630 0c3d
000001f0: c90d 463d 96c9 c4bd 947d 0fbd 5bb8 c9bd
00000200: cad3 47bd e61d cdbc 52a6 463d aae4 a83d
00000210: 7b77 9fbd 2b8b e9bd a22e d13c abf9 993c
00000220: 7f2d a8bd a642 853d 3462 423d f46d ee3b
00000230: be3b a4bd 3897 413c 549a 9abd 8f90 abbb
00000240: eccb debd a2e7 cc3d dfca 633d a0e5 bcbd
00000250: b233 283e a3b2 833d 4b1b 7ebd f625 263d
00000260: 8812 8cbd f802 4ebb 3132 9f3d f40e 843d
00000270: cbe9 2fbd b210 863d ee07 693c 32f8 cb3c
00000280: f7b1 cbbd a777 b3bb 132f c33d 032e ddbc
00000290: 8ffc 80bb cea0 003c 4f30 b5bc afd9 e5bd
000002a0: 833e 2c3d 66c8 c13c ff71 7d3b 60ea 3d3d
000002b0: 77fc 0a3d 5521 3fbc 9bdd a0bd ca6d ee3c
000002c0: 5587 993c 261b 00bd 1c9a 83bd c32b 7cbd
000002d0: e49b 5d3a 8049 b8bd 33e9 253b 648d 653d
000002e0: d1d9 babc 400d 0bbd 3628 7b3d bd6e 90bd
000002f0: 2d12 953d 4d83 dfbd 2d64 c8bd be2d 7abd
00000300: 704d 2cbd b795 c3bc dc03 6ebd 9b9e 05bc
00000310: 88ed 593d 86d8 763d ef85 2fbe 99bc 27bc
00000320: 1f62 033d 9b83 13bd d97b 313e 5014 02be
00000330: 4760 a3bd 4f08 7f3d f59a b33d bcaa 4b3d
00000340: 8ac8 7bbd 8fb1 09bd 4d0a 853d e557 79bd
00000350: 0287 8e3d e774 1e3e 1517 af3d 5892 3b3d
00000360: 1a22 e3bd 2693 c23c 952e 51bd 75ba 533d
00000370: c816 02be 1345 063d 6bea b13b 527f 87bd
00000380: 8684 b03d 3993 ce3d bc51 ddbc c55a 9b3d
00000390: 8cc5 dbbc 9278 27be e573 ba3c 9230 1f3d
000003a0: 3613 8fba b641 c5bd 5309 0abc 33ff dbbc
000003b0: e49b 3ebd 2e76 163e 5294 e73d bd85 343d
000003c0: c0d1 ca3c 903e 7bbb 6aa2 d13c ef9c 0e3d
000003d0: f202 b73c ffd7 fabd c301 2a3d 61b5 0e3e
000003e0: 643b 26bc 4a89 3d3e e00a 7e3c d6b1 cbbc
000003f0: 383a da3c eadc cdbc 74eb 50bd 8231 2f3d
0.0002527474 0.05963867 0.040607933 0.026527716 -0.0235989 0.06352078 0.021928558 -0.010064179
0.08547039 -0.104702145 -0.080023825 0.037635587 -0.017211504 0.04565476 -0.042077523 0.098586395
0.049986217 -0.053894836 0.042358536 -0.07899151 0.07310324 0.09516441 -0.001151834 -0.012823374
-0.12098717 -0.074916765 0.17075343 -0.023336237 -0.09009913 0.13192073 0.0799375 0.0024871978
0.06964411 0.049973313 -0.05543758 0.10932755 -0.109813794 0.041183446 0.12744565 -0.054196812
-0.03586676 -0.04505981 0.10021762 0.059742685 0.00031783266 0.068127766 -0.0259076 -0.14304249
0.015564794 -0.052812062 -0.006718048 -0.0056272675 -0.089726195 -0.06663054 0.013848743 0.005150588
0.025330465 0.032553203 0.061059546 -0.19074458 0.04544379 0.05920607 0.010107827 0.015500907
-0.026055727 0.082149096 0.0049333815 0.15140851 0.052646663 -0.008268741 0.020417407 -0.080142595
0.0076196925 -0.056435056 0.12733999 -0.00886435 0.05425294 -0.02175571 -0.04376409 0.077860124
0.06701064 0.07168101 0.05239561 0.008102054 0.10192205 0.061998554 0.050436374 -0.070493035
0.0037089419 -0.019075945 0.011592812 0.00033459524 0.10055855 0.12901011 0.0073618465 -0.14101015
-0.021417234 -0.16050895 -0.044493828 0.042928535 -0.030384958 -0.03231356 -0.043401387 -0.0066688755
-0.079924814 -0.07150741 -0.1142514 0.062640764 0.049857035 0.115949996 -0.009022291 -0.073653534
0.067489654 0.022011677 0.011671867 0.05521479 0.06104785 -0.08574665 -0.07266344 -0.035742816
-0.111722015 0.061977673 -0.080053486 0.034225546 0.04835299 -0.09608762 -0.03503187 -0.09849616
-0.048785962 -0.02503867 0.04849846 0.08246739 -0.07786461 -0.11403497 0.025534932 0.018795809
-0.08211803 0.06506853 0.047456935 0.007276291 -0.080192074 0.0118158385 -0.07548967 -0.0052357386
-0.10878739 0.10005118 0.055613395 -0.09223485 0.1642597 0.064305566 -0.062037747 0.040563546
-0.06839472 -0.0031434875 0.07773245 0.064481646 -0.04294757 0.06546153 0.014223082 0.024898622
-0.099460535 -0.00547691 0.09530463 -0.02699948 -0.0039363573 0.007850839 -0.022117762 -0.112231605
0.042051803 0.023655128 0.0038672683 0.046366096 0.033932175 -0.011665662 -0.07854768 0.029105086
0.01874129 -0.03127589 -0.064258784 -0.061565172 0.00084537105 -0.08998394 0.0025316 0.056043044
-0.022808941 -0.033948183 0.061317645 -0.07052372 0.072788574 -0.109137155 -0.09784732 -0.06107878
-0.042066038 -0.0238751 -0.05810915 -0.00815549 0.053205043 0.060265087 -0.17140935 -0.010237836
0.032075997 -0.03601418 0.173324 -0.12703061 -0.07977348 0.062263783 0.0876979 0.049723372
-0.061470546 -0.0336166 0.06496105 -0.06087484 0.069593444 0.15474282 0.085493244 0.04579386
-0.11090489 0.023751806 -0.051069815 0.05169149 -0.12704003 0.032780718 0.005429556 -0.06616081
0.08619027 0.10086674 -0.027016513 0.07585672 -0.026827596 -0.16354588 0.022760341 0.03886468
-0.001091576 -0.09631674 -0.008425075 -0.026855087 -0.046535388 0.1469352 0.11307587 0.044072855
0.02475822 -0.003833685 0.02559014 0.034817632 0.022340272 -0.12248229 0.041505586 0.13936378
-0.010145996 0.18509403 0.0155055225 -0.024865072 0.026639089 -0.025129754 -0.051005796 0.042771824

network_body._body_endoder.seq_layers.2.bias f4 [256]
00000000: 34b5 5dbd a4da 6f3c bfa4 c63c 8a05 5fbc
00000010: 8c65 d2bc 1757 01bd 2e31 21bc f577 6d3c
00000020: 5987 6f3c 04ef 473c a49b a53c b75b 20bc
00000030: 77b2 6db9 a738 853c 35fc d03c dee7 4cbc
00000040: 7f7c b83b 0870 febc 33e8 31bc 6172 3a3c
00000050: 2343 503c 5c85 113c 67ff febc d0ee 3d3c
00000060: a450 08bd 9f14 8ebc 6e53 66bc a948 123c
00000070: 3da6 f23c 3189 71bc b908 1b3c 72b8 3b3c
00000080: 6eef b53c 022a 4b3c f7eb b53c f4bc 66bc
00000090: 8661 c63c bdbf 853b 2cc2 fb3c ce4f 93bb
000000a0: c3bf e93c f061 483c e822 d1bb 62ed 7f3c
000000b0: a913 fd3c 3ba0 0d3d 1e74 efbb adeb 583c
000000c0: f652 603b efa2 a0bb da00 a93c fea6 fe3b
000000d0: 0b6e d43c 14ad 0cbb 4a22 053a f6a7 f33c
000000e0: bee7 6aba b5b7 763c 0771 bfbc f66a e93c
000000f0: bc2a e93b f150 47bc 5f29 0a3c b736 85bc
00000100: 7edd 3cbc d737 02bd 2e67 f63c fbfd ce3c
00000110: 1a03 99bb d045 9bbc 1238 d73c 965f 073c
00000120: 7ca0 79bb 0ea0 0b3c 9295 d63b a44f ab3c
00000130: 2173 6c3c 9e4d 05bc 67ae 67bd 4afe c2bc
00000140: 75b7 773a f708 09bd 4415 f73c 4e4e d0bc
00000150: 8420 fb3b c3ed 0f3d ee1b 0b3d 3973 6a3c
00000160: cbe1 413c 5156 fb3a d9e7 3b3c 0256 c63c
00000170: a69d 253c bfed a73c 1b6e 8ebc 2a82 9d3c
00000180: a3f5 f83c 3cab e43c d3dd 13bc 319f b13a
00000190: 45e0 873c 1d10 353b 7e3f 09bd 819f 90ba
000001a0: 7c7d 36bc 0c6c 313c 485e 783b a367 cdbb
000001b0: 94af bf3c 4059 c5bb 5022 ab3c 5ee8 863c
000001c0: a31f ab3c fc5d d83b c02f f93a bd29 39bb
000001d0: 5202 f13c fd50 9c3c ece1 ee3c f511 183c
000001e0: 23e9 fc3a 4d3c 883c 4f82 98bb 1c88 523c
000001f0: 4b09 983c cb31 aebb bffc 8139 a2c6 ab3c
00000200: 4d34 d4bb b524 853c 7f2a 9f3b a857 bb3c
00000210: f847 cd3c 8107 22bd 6fae 21bd e9d0 cf3b
00000220: 15be bf3b 7400 c5bc d79c c33c f8f4 43bc
00000230: e673 f8bc 3968 923c d65f 80bb d22e c33c
00000240: 659c e5bc 28b0 283c f2b1 94bb 250c 8dbc
00000250: 7b91 7bbb df39 8c3c 8115 95bc 330a 23bc
00000260: a66e 0a3b fc78 5e3c c799 fe3b fb0c e7bb
00000270: b58b 30bd 70da 4839 7089 2b3b 33b0 dc3b
00000280: 25fc c6bc bc5a 903b fd89 37bd 6691 53bc
00000290: b57e d0bc 0fdc 863c 7ca5 38bd 8fc2 64bc
000002a0: 1a98 be3c 6da8 823c 479d 9e3b 03d0 d13c
000002b0: d4a1 623c 2ceb 383c 5ee4 09bc 1d3a e53c
000002c0: 0e03 943a d2d7 073b fe35 a63a 7634 9dba
000002d0: 41d9 fcbc 4e51 8a3c ed7c 433b 1aaa 903c
000002e0: e83a b3bc d6f8 113d 4344 e1bb c3d3 8f3c
000002f0: 94f8 47bd 63c9 a0bc 22c6 40bc c727 ccbb
00000300: c725 023c 0a0c c73b e9a4 803b f7a3 123c
00000310: dd89 d4ba 9edc bdbc 19e7 f93c 3a36 2ebb
00000320: fb36 323c 737e 72bb 0814 0bbd fb29 c03c
00000330: 8107 4f3c abef c03c b644 763c cc24 ac3c
00000340: 89cc 1d3c 6201 773c 164c 423c 6462 723c
00000350: 2410 5cbd 105d c6bc 09eb b03c 726d 883c
00000360: aa40 383c d04c 84bc 8dcb e2bc 779d ae3c
00000370: 767a e1bc 7463 02bd 7a1f 0dbc 082f a6bc
00000380: f777 f1bb 503b 41bb 1b4a 4e3c a054 a1bc
00000390: 6e18 bf3c ac90 d5bc 6b94 083d 619c 823b
000003a0: ed9c 06bd fe5b 3d3c 1cbb 4bbc b5ab 953c
000003b0: b444 d8bc 5ebf 3e3c 233d 583c d017 01bd
000003c0: f154 293b 7cb5 24bd cc1c 363c 7216 f63b
000003d0: 0082 643b 669a d23c 40e4 993c 17da 9e3b
000003e0: 7239 0ebc df43 3e3c 730b 83bc 31db a83c
000003f0: 40b4 1a3b 4d66 ea3c 4820 1e3c e63f 693c
-0.054127887 0.01463953 0.024248479 -0.01361216 -0.025683187 -0.031577196 -0.0098383855 0.014493932
0.014619672 0.012202982 0.020215817 -0.0097874915 -0.00022668565 0.016262366 0.025510887 -0.012506453
0.0056300755 -0.03105928 -0.010858583 0.011379809 0.012711319 0.008881893 -0.031127645 0.011592582
-0.03328003 -0.017343817 -0.014057977 0.008928456 0.029620284 -0.014742182 0.009462529 0.011457549
0.022208896 0.012400152 0.022207243 -0.014083136 0.024216425 0.004081695 0.030732237 -0.0044955974
0.028533822 0.012230381 -0.006382335 0.015620561 0.030893164 0.034576636 -0.0073075434 0.013239783
0.0034229136 -0.0049022357 0.020630289 0.007771372 0.025931379 -0.0021465467 0.0005078657 0.029743176
-0.0008960924 0.015058448 -0.023369325 0.028493386 0.00711569 -0.012165294 0.008432715 -0.016261442
-0.011527417 -0.031791534 0.030078497 0.025267592 -0.004669559 -0.018954188 0.026271854 0.008262536
-0.003809004 0.008522047 0.006548592 0.020911999 0.014431746 -0.008136181 -0.056562807 -0.023802895
0.00094496395 -0.033455815 0.030161507 -0.025427964 0.0076637883 0.035138857 0.033962183 0.014309698
0.011833618 0.0019175505 0.011468851 0.024210934 0.010108387 0.020499108 -0.017386487 0.019227106
0.030390566 0.027913682 -0.009025055 0.0013551471 0.016586432 0.0027628012 -0.033507816 -0.0011033864
-0.011138316 0.010828983 0.0037897993 -0.006268458 0.023399152 -0.0060226023 0.020890385 0.016468223
0.020889109 0.0066030007 0.0019011423 -0.0028253638 0.029420052 0.019081587 0.029160462 0.009281625
0.0019295554 0.016630316 -0.004654206 0.012849834 0.018559119 -0.0053159944 0.00024793108 0.020968739
-0.0064759613 0.016252855 0.004857361 0.022868946 0.025058731 -0.039557938 -0.039472993 0.0063420427
0.005851517 -0.024048068 0.023878498 -0.011960261 -0.030328702 0.017871963 -0.0039176745 0.023826037
-0.028028676 0.010295905 -0.0045378143 -0.017217705 -0.0038386274 0.017117439 -0.01819873 -0.009951162
0.002112308 0.01357865 0.0077697965 -0.007051108 -0.043101985 0.0001915486 0.0026174448 0.006734872
-0.024290154 0.0044053476 -0.04480933 -0.012913084 -0.025451044 0.016462354 -0.045079693 -0.013962402
0.023265887 0.015949452 0.0048405263 0.025611883 0.013832528 0.011286538 -0.008416263 0.027981812
0.0011292414 0.0020728004 0.0012680886 -0.0011993784 -0.030865313 0.016884472 0.00298291 0.017659236
-0.021878675 0.0356377 -0.0068745925 0.01755703 -0.048821047 -0.019627279 -0.011765989 -0.0062303278
0.007943577 0.006074433 0.003925909 0.008950225 -0.0016215403 -0.023176488 0.030505704 -0.0026582615
0.010877366 -0.003700164 -0.03395465 0.023457518 0.012636066 0.023551783 0.01503103 0.02101364
0.0096312845 0.015076013 0.011858961 0.014793966 -0.05372633 -0.024214298 0.021596448 0.01665375
0.011245886 -0.016149908 -0.027684951 0.02131532 -0.027524214 -0.031833127 -0.008613462 -0.020286098
-0.0073690373 -0.0029484816 0.01259091 -0.019693673 0.023327079 -0.026069961 0.033344667 0.003985927
-0.0328645 0.011557577 -0.012434747 0.018270353 -0.026399948 0.011642305 0.01319817 -0.03151685
0.0025837983 -0.04021214 0.011115264 0.00751 0.0034867525 0.025708389 0.018785596 0.0048477757
-0.008680688 0.011612861 -0.01599667 0.020612331 0.0023605973 0.028613234 0.009651251 0.014236426

network_body._body_endoder.seq_layers.4.weight f4 [256, 256]
00000000: b4c6 823c 6667 efbd 2c08 99bc a444 5abd
00000010: 5b5c 6abd 02a0 83bd 6d85 9fbd d6b1 fbbb
00000020: b6ba b13d c703 583d 8c0d 153e 89c3 8639
00000030: 9e5c fabd 3f35 90bc 9c8c 363c e9e0 72bb
00000040: 053f ac3c 5734 e8bc bb02 cf3b 8ead 2b3d
00000050: 6f12 56bd d0e7 bcbd 2957 8f3c 8361 51bd
00000060: 42a3 4e3d 421d 733d b0f0 6abd 4bdc 85bd
00000070: 9ced e7bc e4c8 2e3d 575d 41be d271 a8b8
00000080: 460a 2d3c 2781 103d 4024 78bd c3c8 90bd
00000090: b9b2 59bd a40b 5a3d 9b17 72bc cc61 b4bd
000000a0: bf75 9a3c cd91 05bc 3c28 fc3c f130 313d
000000b0: 5f2a 173d a818 503d 6b67 43ba 6d0a f2bd
000000c0: d16e 2ebd 80a5 b13c 2afc 963d d65e 2a3e
000000d0: 8659 003d a043 0bbd ec31 003d 9391 693a
000000e0: 3e20 113d 1cc1 953d 0e53 92bc 6e15 05bd
000000f0: 33e9 bc3b 3f8e 5dbd af1e 823d 1912 65bc
00000100: a64e 2ebc f892 ddbd 473b 433d 6430 b83c
00000110: 912a bfbc 1438 1bbd d0ca 373d 5e89 78bd
00000120: 9d2f 653d 10ef e5bb a23e 0bbe c014 84bd
00000130: 6197 9fbb 571a 12bd a13d e53d 7c65 60bd
00000140: e624 12bb 90f8 4f3d 1115 d4bc e439 b03d
00000150: 0115 8d3d 393a acbc dc7f d43c 43a0 3c3d
00000160: 3de5 b73b 1224 64bd fb6d 913c b65e 9fbc
00000170: 23c7 dabc 4108 c93a e74f 413e 3f55 3bbd
00000180: d3bd 5f3c 5134 8b3c be70 aa3c 49bd d23c
00000190: e5f3 3a3c 6925 00be 845c bebc 4032 1abd
000001a0: 1bfd 763b 9c25 543d 1c79 57bd b140 cfbd
000001b0: f992 0f3c 900d 173b 0a5c 87bd 867b 92bb
000001c0: eb76 3a3e 1830 44bd fdcc 813d f718 9cbd
000001d0: 1dd3 253e 0827 013d 7292 8cbc 8c38 36be
000001e0: 8c93 9bbd ad45 be3d db62 77bd ee39 29bd
000001f0: dc94 2fbd 06e6 88bd edb2 8c3d 6319 843c
00000200: 9276 0fbd 0ba0 5e3c 7110 9bbd d054 68bb
00000210: adcc 8b3d 468b 513d 26e9 16bd 7d3e b73c
00000220: 41d9 75bd 2260 b63b 1bc9 15bc 9a0a 1a3d
00000230: f702 24bd 45a3 813d d0bd 8f3c a52a abbd
00000240: 51ae e1bc f669 7d3d 4d64 6f3c 37b1 b3bd
00000250: 22df acbc 3a7f a83d 0a4f d13d 3148 053d
00000260: 0ad7 91bd e911 dbbc 2f8a d1bd fa0f fcbc
00000270: 68e5 3c3d 9299 793d a90f 873d cb48 193d
00000280: 70dc 853c 6484 a93d 2b1e d6bc 1298 5a3d
00000290: 63a7 3ebd 4694 7dbd 8fe1 89bd 47a3 21bd
000002a0: e8ab b3bd dcb9 0fbd de36 08bd 0c0c da3c
000002b0: 3bce 803d 3342 9cbd 5882 0dbc 682f c03d
000002c0: 9ed9 99bc 82ed 7f3d 0367 633d b4ef e03b
000002d0: 1fa5 253d 0262 0a3e 6c02 493c 5179 8cbd
000002e0: a015 93bd 3079 d73d 3b52 c03c 8a91 043d
000002f0: 0244 9a3d cb18 bfbd f9f4 543c 1c29 cb3c
00000300: 472a cd3d f6dc 5dbc 2261 afbd 151a 1fbd
00000310: b30b 413d d677 6cbd 3853 003c 2d2e 3fbd
00000320: 02a7 a4bc 137e 87bd 565c 5abd 90b5 1b3d
00000330: db19 22bc 353e 14be 97ea 25bd ac00 713d
00000340: 0354 df3c f8b1 a2bd 0934 a83d cc76 c43d
00000350: 64a2 2c3d ec66 b0bb 2f8f f03b a571 5bbc
00000360: 3034 393d b7f3 8bbd 71b7 e33d 7935 1cbc
00000370: 83be 05be 7c6f 70bd 1a2b c3bd a2eb fdbc
00000380: 7111 01bd 3427 6c3c 131c 573d bd90 debb
00000390: 4278 193d 694e 7bbd 27da a73d 907a 09be
000003a0: cc31 45bc 8914 1fbc 1add 53bd 155b 18bc
000003b0: ae74 82bd 1993 05be b7b8 0d3d c58b 22bd
000003c0: 5058 4bbd 310c a33d a6f0 05be 060a 96bc
000003d0: 4242 be3c c30d b3bb cd13 843b 1b44 d9bd
000003e0: 33aa 74bc 3a2a 2c3c e0ba 84bd 4e15 c3bb
000003f0: 42da 2f3d 8165 f6ba 6d28 9a3d 1110 61bd
0.01596389 -0.116896436 -0.018680654 -0.053288117 -0.057216983 -0.064270034 -0.07789121 -0.007681112
0.086781904 0.052737977 0.14555949 0.00025704157 -0.122246966 -0.017603515 0.011141922 -0.0037060326
0.021026144 -0.02834527 0.006317464 0.04191356 -0.052263673 -0.09223902 0.017497616 -0.051118385
0.050448664 0.059354074 -0.057358444 -0.06536158 -0.028311543 0.042672053 -0.18883263 -8.032065e-05
0.010561531 0.03527942 -0.060581446 -0.07069542 -0.05314896 0.053233758 -0.014776136 -0.08807716
0.018854974 -0.008152437 0.030780904 0.043259565 0.036905643 0.050804764 -0.000745407 -0.11818395
-0.04258615 0.021685362 0.07372315 0.1663774 0.031335376 -0.03400004 0.03129761 0.0008909937
0.03543114 0.07312223 -0.01786187 -0.03249114 0.005765104 -0.054090735 0.06353509 -0.013981366
-0.010638868 -0.10819048 0.047663953 0.022484012 -0.023335727 -0.037895277 0.04487115 -0.06067788
0.05595361 -0.007017024 -0.13598111 -0.0644927 -0.0048703407 -0.03566965 0.111933954 -0.054784283
-0.0022299825 0.050774157 -0.025888951 0.08604792 0.06888772 -0.021023856 0.025939874 0.046051275
0.005612044 -0.05569846 0.017752638 -0.019454341 -0.026706284 0.0015337543 0.18878137 -0.045735594
0.013656097 0.01699272 0.020805713 0.025725024 0.011410688 -0.12514271 -0.023237474 -0.03764558
0.0037687484 0.05179368 -0.052605733 -0.10119761 0.008763068 0.0023048855 -0.06609352 -0.0044702915
0.18209426 -0.04789743 0.063379265 -0.07621949 0.16193815 0.031531364 -0.017159674 -0.17795008
-0.07596502 0.09290633 -0.06039701 -0.04131501 -0.042866573 -0.066844985 0.06870065 0.016125387
-0.035025187 0.013587962 -0.07571495 -0.0035450943 0.06826148 0.051158212 -0.03684344 0.022368664
-0.060021643 0.005565659 -0.009142186 0.037607767 -0.04004189 0.06329969 0.017546564 -0.08357743
-0.02754894 0.06186863 0.014611316 -0.087740354 -0.021102492 0.082273915 0.10220154 0.03253955
-0.071210936 -0.026741939 -0.102314346 -0.030769337 0.046117216 0.06093747 0.06594784 0.037422936
0.016340464 0.08277205 -0.026137432 0.05336768 -0.04654635 -0.061908983 -0.06732475 -0.039462354
-0.08773023 -0.03508936 -0.03325545 0.026617073 0.06289335 -0.07629814 -0.008637033 0.09384042
-0.018780526 0.062482364 0.05551816 0.0068645123 0.040440675 0.1351395 0.012268644 -0.06859077
-0.07181859 0.105211616 0.02347671 0.03236536 0.07532503 -0.09330901 0.012997859 0.024799876
0.100178294 -0.013541451 -0.085634485 -0.038843233 0.047130298 -0.057731472 0.007832341 -0.046674896
-0.020099167 -0.066158436 -0.053310715 0.03801495 -0.00989386 -0.14476855 -0.040506925 0.05883853
0.02726174 -0.07944101 0.0821305 0.09592971 0.042147055 -0.005383363 0.0073412876 -0.013393794
0.045215786 -0.06833594 0.11118973 -0.009534233 -0.13060956 -0.05870007 -0.09529705 -0.030996148
-0.031510774 0.014413644 0.052517008 -0.0067921565 0.037468202 -0.061354075 0.08195906 -0.1342566
-0.012035798 -0.009709486 -0.05172453 -0.009299059 -0.06369911 -0.13044395 0.034599986 -0.039684076
-0.04964477 0.0796131 -0.13080081 -0.018315326 0.023224954 -0.005464287 0.0040306807 -0.10608693
-0.014933157 0.0105081145 -0.06480956 -0.0059534675 0.042932756 -0.0018798561 0.07527242 -0.054946963

network_body._body_endoder.seq_layers.4.bias f4 [256]
00000000: e586 7c3b 28bc c33c 2d8d 13bc ae24 d53c
00000010: fbaf 973c a98a c6bc c566 983c 37a0 5b3c
00000020: 8bcb 03bd a85f 42bd bdb4 143c 1f55 803b
00000030: d044 d03c 559f 313d 9c10 1abd 0b49 ee3c
00000040: fe9b 0d3d 4a32 7bbc bbd6 003d 9e87 a0bc
00000050: 8188 103d c1c5 5c3c 7de6 1a3d 84c6 ce3c
00000060: 8edf 4bbc f97e 2b3d d633 5c3c d210 b83c
00000070: e76a 1ebd 1245 d9bc 717f 863c 77f5 113d
00000080: 2eff a7bb 6333 d5bc 37f2 23bc 3de3 abbc
00000090: a3d0 103b d3c7 af3c 0a51 ddbc fa26 183d
000000a0: ad74 573c 07d0 013d 13f5 043c 88ae d5bc
000000b0: b5e8 cb3c 8bb4 103d 2aeb e03c ab61 163d
000000c0: 06ba 8c3c 8042 163c f580 e83c 2991 9cbc
000000d0: 19b4 c33c 45c8 983b 5f77 b33c a4cf 08bd
000000e0: aec7 efbc ff99 093c ca57 2039 e671 25bc
000000f0: eaa6 113d fd9e d63b 0a6c 7e3c 1829 ef3b
00000100: a98a d2bb 76f5 293d 2a99 783c 82da d53c
00000110: f87e 443b 08d3 c53c 4bc1 e93c 3483 a03c
00000120: e984 a63c a6da a03c 86cd 983c 78c9 eabc
00000130: 5a4a e03c a978 c73c 39a4 f03c ecae 893c
00000140: 0cc4 21bd 010e 223c 38e1 443c adae ad3c
00000150: 8856 a73c 95af ce3c 15f6 64bc 45ff 873c
00000160: 4bc9 5cbc 6862 753c e495 0fbd 1e78 9aba
00000170: ba94 123c c0c4 dbbb 8a79 e33c 9c61 80ba
00000180: 100c 993c b3e5 083d 439e 453c 1a29 cb3c
00000190: a99b f93c 64d9 e83c 3284 9b3c cff3 e03c
000001a0: 9cd3 863c cac5 4bbd ee15 0f3d 7d05 2939
000001b0: d73c 5c3c 1860 1bbd 4c0b c6bc c2c8 e03c
000001c0: cab5 f43c ba9b 2a3d 9e8b d03c 39d5 013d
000001d0: ef28 d9ba 0225 01bd bb97 883c 4987 20bd
000001e0: 4bb7 e53c a5cb d73c bdb9 b33c 699d 103d
000001f0: e072 18bc 0175 c43c 503a 45bc 735e a4bb
00000200: 7eff f63b 8e85 3e3a c723 643c 2c8e 003d
00000210: 4c71 c7bc e01b 90bc 6e54 2abd 573f 2c3d
00000220: 5c54 ac3c 9532 3e3a a499 853c bce0 c13c
00000230: bd99 e2bc ea8b d7ba e8ec 143d e15a aebc
00000240: 0e83 563c e752 3f3b e3bb 8a3c 4c5e debb
00000250: 0206 33bd 78ff 5c3c c94f fd3c 823e 42bc
00000260: 521c 073d 4a44 083d bde3 b0bc 5e8a f4bc
00000270: 9a29 67bc 817d 08bc bb15 a43c 4d36 fbbc
00000280: 2312 8a3b a4cc ed3c 5531 363d 98f5 0a3d
00000290: 3b47 1d3c b279 4a3c 6227 eabc f5f0 063d
000002a0: 07b4 fcbc ef4c 51bb 2da2 003d cb10 54ba
000002b0: 3c65 10bd 639b 073d e304 943c 6a6b 1b3d
000002c0: 0747 f03c a7cc 25bd c1a2 203d 9e2d a3bc
000002d0: c9f4 bf3c 5219 82bc 2e2e b9bb a15d 22bd
000002e0: ded2 ed3c 57f3 9c3c 9346 003d 812e 7a3c
000002f0: 6096 19bd 5756 d83c 05f3 f93a ed65 133d
00000300: 3705 8b3c e45f 023d cfd7 1a3c 7789 3cbd
00000310: 9c40 2dbd 404b bdbc 562b 82bc 1a26 ba3c
00000320: a3a5 363c 8bb1 2b3d b910 c2bc 36cf e9b9
00000330: f95c 0a3d 9fbf 373c c2c5 08bd 619f 0c3d
00000340: 791c a73a 8af9 423c 47f4 eebc f237 d03c
00000350: e402 cf3c 3e97 d53c ba8f bb3c 5f63 2c3c
00000360: b95f 1f3d 1604 003d 23c6 e0bc 0d2e 41bd
00000370: a005 f93c f645 ba3c bbc7 153d 53a5 07bd
00000380: 4bd6 89ba 2172 55bb b588 bbbc 475b 383b
00000390: 75fa 943c 0b5b 97bc 07e9 a23c d386 0e3d
000003a0: 57db fc3c 278d 0c3d ef34 a03c 6a8f 3c3b
000003b0: e466 33bc ab62 e6bc b2a5 1c3c 3c46 18bd
000003c0: 2070 ad3c a8b6 c03c 0645 0b3d 2dda d33a
000003d0: 8c88 2c3d 1105 bc3c 4b36 6c3c d31f 023c
000003e0: 798e ed3c 8f2a ebbc d092 063d 3c16 fb3c
000003f0: 9953 353d b5d8 24bd a692 25bd 3359 1dbd
0.0038532552 0.02389343 -0.009005827 0.026018467 0.018516531 -0.02423604 0.018603692 0.013404897
-0.032176536 -0.047454506 0.0090762945 0.003916397 0.025423437 0.04336484 -0.037613496 0.029087564
0.034572594 -0.015331814 0.031454783 -0.019595917 0.03528643 0.013474883 0.037817467 0.025241144
-0.012443436 0.041869137 0.013440093 0.022468958 -0.03867617 -0.026522193 0.01641819 0.035634484
-0.0051268553 -0.02602548 -0.010006479 -0.02098238 0.0022097013 0.021457588 -0.027016181 0.037146546
0.013150376 0.03169253 0.008115071 -0.0260842 0.024891237 0.03532843 0.027455885 0.036714237
0.017178547 0.009171128 0.028381804 -0.019112187 0.023889588 0.004662546 0.021907507 -0.033401147
-0.02927002 0.008398532 0.00015291493 -0.010097956 0.035559572 0.0065497146 0.015528688 0.0072986
-0.006425221 0.041493855 0.015173236 0.02610517 0.0029982906 0.02414848 0.028534552 0.019593813
0.020327048 0.01963551 0.018652689 -0.02866052 0.027379204 0.024349527 0.029375182 0.016807042
-0.039493605 0.009891034 0.012016587 0.021201456 0.020427004 0.025230208 -0.013974686 0.016601214
-0.013475726 0.014977075 -0.035055056 -0.0011785065 0.008946592 -0.006706804 0.027767915 -0.0009794715
0.01868251 0.033422183 0.012061658 0.024799872 0.030469732 0.028423972 0.018983934 0.027460007
0.016458325 -0.049749173 0.034933023 0.0001611914 0.01344224 -0.03793344 -0.024175309 0.027439479
0.02987184 0.04165242 0.0254572 0.031697486 -0.0016567985 -0.031529434 0.016673913 -0.039191518
0.028041502 0.026342222 0.021939153 0.035306368 -0.009304732 0.023981573 -0.012037829 -0.005016142
0.0075377813 0.0007267826 0.013924546 0.031385586 -0.024346016 -0.017591417 -0.041584425 0.042052593
0.02103632 0.0007255462 0.016308613 0.023666732 -0.027661199 -0.0016444896 0.036358744 -0.021283569
0.013092769 0.00291937 0.016935294 -0.0067861434 -0.0437069 0.013488643 0.030921834 -0.011855723
0.032985993 0.03326825 -0.02159297 -0.029851135 -0.01410904 -0.008330704 0.020029893 -0.030665541
0.004213588 0.029028244 0.04448064 0.033925623 0.009599502 0.012358116 -0.028583232 0.03294464
-0.030847562 -0.0031936725 0.031404663 -0.00080896606 -0.035252795 0.033107173 0.018068736 0.037944235
0.029330743 -0.040478375 0.039217714 -0.019919213 0.023432152 -0.015881214 -0.005651257 -0.039640073
0.029031213 0.019159002 0.031317305 0.015269876 -0.037496924 0.026408358 0.0019069618 0.035985876
0.01697026 0.03182973 0.009450867 -0.046029534 -0.042297944 -0.023107171 -0.015889805 0.022723246
0.011147889 0.041917365 -0.023689615 -0.00044595607 0.033780072 0.01121512 -0.03339172 0.034331683
0.0012749574 0.011900315 -0.029169215 0.025417302 0.025269933 0.026073094 0.022895683 0.010521739
0.038909648 0.031253897 -0.027438229 -0.047163058 0.03039819 0.022738438 0.03656743 -0.03311665
-0.0010516135 -0.0032569247 -0.022892335 0.0028130577 0.018185833 -0.01847603 0.019886507 0.034796547
0.030866308 0.0343143 0.01955649 0.0028772005 -0.010949824 -0.02812322 0.009560989 -0.037176356
0.02117163 0.023524597 0.034001373 0.0016163044 0.04212241 0.022951635 0.014417241 0.007942158
0.0289986 -0.028706817 0.032854855 0.03065025 0.044269178 -0.04024573 -0.040423058 -0.038415145

action_model._continuous_distribution.log_sigma f4 [1, 2]
00000000: 7e91 cfbd cffb 82bd
-0.10135172 -0.06395685

action_model._continuous_distribution.mu.weight f4 [2, 256]
00000000: 9bd3 3a3c 6946 2dbd 1dec 02bd 137a 753d
00000010: 7549 d1bc 216d 3a3d 76e7 9a3d 5f0e 72bd
00000020: 1d4d 80bc 2b2a 333d 9ab4 5c3d 7cc0 63bc
00000030: c8db 1fbd 62bd a3bc f96e 613a cf10 80bc
00000040: 1b63 43bd f8ce 793d 02c3 513c 08e3 9abc
00000050: b770 c0ba 11f7 1cbd 5088 52bc 65f3 2b3d
00000060: 1aaa f4bc ec8c ccba 572b 58bd 586f 84bd
00000070: be8c fb3c 30c1 b4bb 0c9c ed3a a180 9eb8
00000080: ffdd 2bbd b869 f33c e55b 413d 48c6 9dbc
00000090: 8f8f b73d 75f7 f23b 4c32 ed3c 3856 dc3b
000000a0: a4c0 95bd a3eb e0bc cc44 8dbd 02e9 91bc
000000b0: 8cdd 56bc b8e8 12bc 0132 24bd 4fc2 343c
000000c0: 472f a83d f919 cd3c 91d9 88bc 8e73 c93c
000000d0: fd50 74bd f331 a0bc df03 b23d 225c 3f3c
000000e0: b5e4 05bc e31f 363d 763a b83d 9400 5b3d
000000f0: 5d9f 5a3c a413 24bd d843 58bd 442b a63d
00000100: 1378 803d 0c4e fe3b ea68 03bd 0cd1 803c
00000110: 3cb7 3dbd 6f44 903d 01d1 26bc f950 8ebd
00000120: 414b 0f3d 7589 053a 9d1a 64bd 784d 16bb
00000130: 8f3a 343c 4086 cbbc 3b43 adbc f327 c93c
00000140: c348 c43c 429b 4cbd 8ae6 09bd 83e7 fbbc
00000150: f3ee b33c e7f9 09bc ab84 30bc bc99 493d
00000160: 91ef 573d 908e 49bc bc6e 093b a4a4 7b3d
00000170: a1cb 583d 61a4 783d 2b6f 773b 725c ff3d
00000180: 7938 1bbd a80c 0abd db6c ba3d 38f5 8fbd
00000190: 405d 8e3c 88cc 40bd 90ee d3bc cd34 27bd
000001a0: a3a0 d93c 4614 0d3b 30da 96bc f375 90bb
000001b0: f057 9e3d a6ed 463c b21e 17bd 16f4 df3c
000001c0: aa90 14bc 1458 123c 62f2 47bd 5bf5 0e3c
000001d0: 2b79 9a3d 15ef 7b3c faa1 cf3c 0f72 963c
000001e0: 2358 aebc dd3f 3fbd 1cbf 693d 925f 43bb
000001f0: f574 07bd 3ea0 953c 6fec 02bd b9d6 383d
00000200: 3752 813d a095 47bd 773f ba3d 7f03 86bb
00000210: 9ba1 5f3d 7455 ffbc 2059 ba3a c02c 87bb
00000220: c657 383d 85c3 2bbd 762a b33d 3ad5 a43c
00000230: fa1b 123d b09a de3d 108a 41bd 5f4d f2bc
00000240: 9aec 423d 7849 9e3d 0347 563d 7b63 2ebd
00000250: 37fb 813c 5705 cabc 519b c6bc 4dd5 cdbc
00000260: 30a0 3fbc 0875 26bd afeb 5ebc 251e d0bc
00000270: 77bc 1e3d f4ae 573d 2d29 97bd 3b33 b0bc
00000280: 5703 1cbd c082 47bc 362d f7ba f59c 28bd
00000290: ee86 dcbc 9b57 963d dd88 143d 36e7 8c3c
000002a0: 637b 213b 1468 9a3d 6820 b4bc b94c 5dbd
000002b0: 586c 323c f7ff 623d 161d 903d b640 753b
000002c0: 42d0 ddbc 5275 d1bb 0c13 a5bc 25a2 dfbc
000002d0: 0b40 773d 6069 dcbc 4419 3b3d 6a1f 86bb
000002e0: 722d 9ebc dff5 b1bb 597d 12bb e534 4f3c
000002f0: 1c9f a3bc e856 023d c5ea 58bd bba2 ffbb
00000300: aa65 7f3d 6a07 9b3c f208 5fbd e860 9c3c
00000310: 445d 9abb 3b11 4d3d 26b6 4e3d 6dd5 753c
00000320: 5278 ae3c d0d8 d63b 76c6 323d 932e 913d
00000330: 5081 30bd 05f1 bebc d27b 34bc 314f 2b3c
00000340: 164e c8bc f31f 13bd b18c 153d 090f 9dbc
00000350: c5aa 42bd 2fb6 33bc bff5 3cbd 452c 80bd
00000360: 7cdb a4bc e996 87bc 4bc6 4a3b f707 293c
00000370: d653 ec3a 587c 563d 4372 21bd 2f16 d3bb
00000380: 8e69 153d 7dad 2dbd 8266 fdbb 9219 49bc
00000390: 2441 163b 7068 ca3c 74fe 093d 9522 39bd
000003a0: c943 82bd 4dce 4e3b a50c 843d 0445 64bd
000003b0: d7f0 8b3d 2fdf 1c3d 0791 b53c 7cde f73c
000003c0: f62d ebbb 6cb5 01bd 76cd 90bd 4a61 993b
000003d0: c0e4 be3b 24cc cd3c bf93 f63c 81b0 8cbd
000003e0: 9236 4cba ccbb 64bc bc8b 4dbc 45d3 0d3c
000003f0: af2d 173c c81b c73c 61b0 093d e01a ba3c
0.01140299 -0.042303476 -0.031963456 0.059930872 -0.025547722 0.04551423 0.07563679 -0.059095737
-0.01566177 0.043741386 0.053883173 -0.013900872 -0.03902796 -0.019987766 0.0008599605 -0.015633015
-0.047701936 0.060988396 0.012802841 -0.018907085 -0.0014682029 -0.03832156 -0.012849882 0.041980166
-0.029866267 -0.0015605963 -0.052775707 -0.0646655 0.03070676 -0.005516194 0.0018128171 -7.557986e-05
-0.04195976 0.029713497 0.047206778 -0.019259587 0.089629285 0.007414753 0.028954647 0.0067241453
-0.07312134 -0.02745611 -0.068978876 -0.017811302 -0.013114344 -0.008966617 -0.04008675 0.011032655
0.082121424 0.025036799 -0.016705306 0.024591234 -0.05964755 -0.019555068 0.086921446 0.011679681
-0.008172204 0.044464003 0.089955255 0.05346735 0.013343659 -0.040057793 -0.052799076 0.08113721
0.06272902 0.0077607688 -0.032082476 0.015724681 -0.046317324 0.07044303 -0.010181666 -0.06949038
0.034983877 0.000509403 -0.055689443 -0.0022934359 0.01100029 -0.024844289 -0.021150222 0.024555182
0.023960477 -0.049952753 -0.033667125 -0.030750042 0.021964526 -0.008421398 -0.010773818 0.04921888
0.052718703 -0.012302056 0.0020970544 0.06143631 0.05292857 0.06070364 0.003775547 0.124688044
-0.037895653 -0.033703476 0.09102794 -0.07029194 0.01737845 -0.047070056 -0.025870591 -0.04082184
0.026565855 0.0021526976 -0.018414587 -0.004408592 0.077316165 0.012141621 -0.036894508 0.027338069
-0.009067694 0.008932132 -0.04881514 0.0087254895 0.07542642 0.015376826 0.025345791 0.018364934
-0.021282261 -0.046691764 0.05706702 -0.0029811603 -0.033070523 0.018264886 -0.031963762 0.04512665
0.06314509 -0.048726678 0.09094136 -0.0040897722 0.05459748 -0.031168677 0.0014217235 -0.0041252077
0.045005582 -0.04193451 0.08748333 0.020121206 0.03567121 0.10869348 -0.047250807 -0.029577909
0.047588922 0.07728857 0.052313816 -0.04257534 0.015866859 -0.02466075 -0.024243983 -0.025126124
-0.0116959065 -0.040638953 -0.013605996 -0.025404999 0.038753953 0.052657083 -0.073809005 -0.021508804
-0.038089123 -0.012177169 -0.0018858078 -0.04116531 -0.026919808 0.07340928 0.036263335 0.017200094
0.0024640195 0.075393826 -0.021988109 -0.054028247 0.010890089 0.05541989 0.07036798 0.0037422604
-0.027076844 -0.0063921595 -0.020150684 -0.027298996 0.06036381 -0.026905715 0.045678392 -0.0040931003
-0.01930878 -0.0054309214 -0.0022352545 0.012646888 -0.01997333 0.03182116 -0.05295827 -0.0078013814
0.062352814 0.018924434 -0.05445189 0.019089177 -0.004710825 0.05006526 0.05046668 0.015004498
0.021297608 0.006556608 0.0436463 0.070889615 -0.043092072 -0.023308286 -0.011015849 0.010455892
-0.024451297 -0.03591914 0.036511127 -0.019172208 -0.04752614 -0.010968729 -0.0461328 -0.06258444
-0.02012419 -0.016551452 0.0030940946 0.01031684 0.0018030356 0.052364677 -0.03941561 -0.0064418535
0.036477618 -0.04240178 -0.007733167 -0.012274163 0.002292701 0.024708003 0.03368993 -0.045198996
-0.06360585 0.003155607 0.06447724 -0.05572988 0.06833046 0.038298782 0.022163881 0.030257456
-0.00717711 -0.031667158 -0.070704386 0.004680787 0.005825609 0.025121756 0.030099748 -0.06869603
-0.0007790114 -0.01396079 -0.012545522 0.008656328 0.0092272 0.02430524 0.033615474 0.022717893

action_model._continuous_distribution.mu.bias f4 [2]
00000000: a901 42bc e745 3d3d
-0.011841216 0.046209242
