results/MultipleTargetFloatingText/AgentControl/AgentControl-9499994.onnx (onnx, 596867 bytes, 10 tensors)

network_body._body_endoder.seq_layers.0.weight f4 [256, 57]
000000 3f d5 58 bb 2c ce 1f 3d f4 54 42 3d 0a ad 38 3e
       -0.003308609 0.03901498 0.0474443 0.18034759
000010 10 c9 8d bc dd 95 9b 3e 5b a1 49 be d5 4f 56 be
       -0.017307788 0.30387774 -0.19690458 -0.20928891
000020 fe 04 9d bd a6 d4 15 be f6 61 76 3e a5 f7 06 3e
       -0.07666968 -0.146319 0.24060807 0.13180406
000030 bc 06 e4 bc a6 ad 16 3e 2e 37 90 bd 9f 3a d6 bd
       -0.027835242 0.14714679 -0.07041775 -0.104604
000040 50 31 65 3c f0 2e 5e 3e a6 58 16 3e 8c 05 b7 bd
       0.013988808 0.21697593 0.14682254 -0.08936605
000050 6a 42 38 3c 56 53 8b 3b 88 85 0f be 88 75 0f be
       0.011246303 0.004251878 -0.14015782 -0.14009678
000060 7c 9b ef bd 2b 1d 06 3e 4d bb 72 bc 53 51 d3 be
       -0.11699578 0.13097064 -0.014815164 -0.41272983
000070 bf 4e 59 3e 1c b4 f5 3d 5b 21 81 3d 0e 01 ec bd
       0.21221446 0.11997244 0.0630519 -0.11523639
000080 bc 88 ac 3d 5c d5 80 bd f5 9e c0 bd 5f 67 18 3c
       0.084245175 -0.06290695 -0.09405319 0.009301989
000090 f1 bb 9e 3d 1c dd 83 bc 0b 7d 34 bd ae 0f e5 3a
       0.07750691 -0.016096644 -0.044064563 0.0017475986
0000a0 81 9a 1e 3e 2d 3d 4e 3d c1 89 9c 3d b9 e8 19 be
       0.15488626 0.05035131 0.07643462 -0.15030183
0000b0 b9 9b f5 bd 4a e2 eb 3d fd 20 8b bc 2c 8a b0 be
       -0.11992592 0.115177706 -0.016983503 -0.34480417
0000c0 a5 16 6a be 4c 5e bc 3e 17 1a eb 3c e4 5b 4e bd
       -0.228602 0.36790693 0.028698964 -0.050380602
0000d0 56 58 82 3c 53 14 8b 3e 24 3d 11 be b0 42 52 bc
       0.015911262 0.27163944 -0.1418348 -0.012833282
0000e0 25 47 85 3e c1 0c ab 3e 48 55 6d 3e 1f 7b 44 3d
       0.2603084 0.33408168 0.23177063 0.04796898
0000f0 66 e0 05 3c 75 3d 37 be 28 60 43 3e db 8b ed bd
       0.008171177 -0.17894538 0.1907965 -0.11598941
000100 d4 52 09 bd ed 7b 5c 3d 3b 4d 82 be 67 3b 8f bd
       -0.033526257 0.053829122 -0.25449547 -0.06993752
000110 95 f5 c9 bd 17 03 1c bd 40 8e 94 3c c1 ce b3 3c
       -0.09861294 -0.038088884 0.018134236 0.021949174
000120 66 b4 24 bd e8 cb 9c 3d e8 fd 36 3e 60 12 45 3e
       -0.040211104 0.076560795 0.17870295 0.19245291
000130 59 eb f5 3d da f2 13 be 68 eb 1e be b8 e5 af bd
       0.1200778 -0.1444811 -0.15519488 -0.08588737
000140 34 03 a6 bc ba 4d 49 be 73 1d 42 be 27 7d 34 bd
       -0.0202652 -0.19658557 -0.18956546 -0.044064667
000150 00 1c 9d 3c 67 1b 4a bd 49 18 ed 3d c6 af 28 3d
       0.01917839 -0.04934254 0.11576898 0.041183256
000160 c3 9b 28 3e 03 21 7f bd 88 8a 78 be c6 53 60 3d
       0.16465668 -0.06228734 -0.24271595 0.054767393
000170 e6 2f 49 be 3d d6 39 be 7d 7f 2f be 0a 45 6f 3e
       -0.19647178 -0.18148132 -0.17138477 0.2336618
000180 c8 17 42 3e ea 6d 16 bc 73 fd 2a 3d 36 ac 74 bd
       0.18954384 -0.009181479 0.041745614 -0.059734546
000190 96 79 00 3e aa 1a 14 bc 98 8a 5c bc e7 dc 85 bd
       0.12546381 -0.00903956 -0.013460778 -0.065362744
0001a0 ba 25 9b 3d ac ed 85 be 8b 7b 9a be 47 59 3a 3e
       0.07575555 -0.26157892 -0.3017238 0.18198119
0001b0 fa 03 f8 bc e3 dd 5d 3e 5b 1e 04 3b 27 c2 5c 3e
       -0.030275334 0.21666674 0.0020159695 0.21558438
0001c0 ea 5b 41 3d d7 f0 0d 3e 2b 69 82 be 0c 19 21 3c
       0.047206797 0.13861404 -0.25470862 0.009832632
0001d0 5f 78 90 3d 49 a2 40 be 57 a8 ad 3d d5 a3 49 be
       0.07054209 -0.18811907 0.08479374 -0.19691403
0001e0 31 0e fa 3c 36 62 75 bd e4 a6 17 3e 1f 47 c1 bc
       0.030524345 -0.059908114 0.14809757 -0.023593483
0001f0 ea 3c f1 3d b0 2d 7b 3d 67 eb a8 bd 8b 92 83 bd
       0.117791966 0.061322868 -0.082480244 -0.06424435
000200 c0 28 36 3e f0 6c 04 3e 57 4c 1c bd dd c0 27 be
       0.17788982 0.12932181 -0.03815874 -0.16382165
000210 7b 0b cc bd 6e ad 44 be 30 fd 34 3d 5e e9 88 3d
       -0.09963127 -0.19206783 0.04418677 0.06685136
000220 f3 53 a5 bd 80 6e 53 bc fe 42 26 be 4b 82 ec 3d
       -0.08072653 -0.012904763 -0.16236493 0.11548289
000230 b2 c4 1c 3e ce b2 21 3e b2 2e 0c 3d 71 f5 bd bd
       0.15309408 0.15790865 0.03422422 -0.0927533
000240 5a 6f 95 3d 76 88 8b bd a1 45 6c 3e c4 16 cb 3d
       0.07296629 -0.06813137 0.23073436 0.099164516
000250 10 5d 33 bd c9 23 10 3d 66 80 76 3d 6a 6a 21 3e
       -0.043789923 0.035190377 0.060181044 0.1576325
000260 ce 26 cd 3d 79 77 aa bd ab 48 5a bd 6c 6a 5c 3b
       0.10017167 -0.08323569 -0.053291958 0.0033632768
000270 8d a6 be bd 5a 57 ef 3d 5a fe d4 3d ec bf 06 be
       -0.09309111 0.11686583 0.10400076 -0.1315915
000280 d8 f4 51 be f1 5e bd bd 0a 79 03 3e a0 3b fa 3d
       -0.20503557 -0.09246624 0.12839141 0.12218404
000290 5a 34 4c bd 6b 1f d9 3d a2 3d 2b 3e b1 eb 3d 3d
       -0.049854614 0.106016956 0.1672273 0.04636735
0002a0 b5 f4 97 3d b4 78 06 3e 2b 8a c7 3d 41 79 0b 3c
       0.07419721 0.13131982 0.0974315 0.008512796
0002b0 0a ba 5b 3d 55 fe 48 bd f5 b1 54 3d c9 7d 5e bc
       0.053644218 -0.049070675 0.051927526 -0.013579794
0002c0 10 52 93 3e f9 60 c7 3c 9e 6b 85 bd 29 2a 55 3b
       0.28773546 0.024338232 -0.06514667 0.003252635
0002d0 70 d9 23 3e 22 69 35 3d b4 c3 73 be a5 9f 82 3b
       0.16000915 0.044289716 -0.23805124 0.0039863163
0002e0 68 15 b8 bd 4a 5e 5b 3d 1f b0 88 be 6d 84 59 bc
       -0.08988458 0.053556718 -0.2669687 -0.013276202
0002f0 e5 c8 a0 3d 77 38 70 3d 2b 36 bc bd e4 24 8e bd
       0.078508176 0.0586476 -0.09190019 -0.0694063
000300 72 d2 cd 3d 00 19 06 3e 9c 75 51 3e fd e3 fb bd
       0.10049905 0.13095474 0.2045502 -0.12299345
000310 1a 12 02 bd 34 d4 d9 bc 71 a2 56 bd e0 46 76 3d
       -0.031755544 -0.026590444 -0.05240101 0.060126185
000320 d2 4c a7 3d a1 74 4b 3e 9d 17 3a bd b3 82 70 3d
       0.08168949 0.19868709 -0.045432676 0.058718394
000330 96 14 86 3e f5 f4 db 3d 04 7b 2d bd f0 4a 96 bd
       0.2618758 0.10740081 -0.042353645 -0.07338512
000340 8e 38 97 3e 1a 7b 16 3c d5 45 0c 3e 48 9c 65 3e
       0.29535335 0.009184623 0.13698514 0.22422898
000350 e2 bf 5f 3d 0f 38 86 bd d8 4e 1d bd f9 c7 ce 3d
       0.054626353 -0.06553661 -0.03840527 0.100967355
000360 67 eb ac 3d 98 76 64 3e d7 c0 90 be 7a c4 19 bd
       0.08443337 0.22310865 -0.28272125 -0.03754089
000370 3d 35 44 3e cc eb 51 bd ee 1c 81 bd 92 dd 6b 3a
       0.19160934 -0.051250264 -0.06304346 0.0008997555
000380 dc 7c f8 3d 68 5d 64 3e 69 26 50 bc 32 62 19 be
       0.1213319 0.22301257 -0.01270447 -0.14978865
000390 83 d5 f8 3c e0 da 85 bc 6d c1 37 3d 59 dc 0c 3e
       0.030375248 -0.01633972 0.0448622 0.13755931
0003a0 d7 49 12 3e fa 4c be bd 5d f8 ad ba 00 25 c8 3c
       0.1428598 -0.09292026 -0.001327287 0.024431705
0003b0 7a a3 a6 3d 11 ec 0a be dc d3 02 be 7f 3c 62 3e
       0.081366494 -0.13566615 -0.1277613 0.2209339
0003c0 44 fa 94 be f3 8b 49 3d 73 0e 6d be 20 e2 32 3e
       -0.29097188 0.04920573 -0.23150043 0.17469072
0003d0 a9 f2 29 3e ab f9 e9 bc 4d 55 29 3e cd 94 0f 3d
       0.16596474 -0.028561434 0.16536446 0.035054017
0003e0 8b 58 fb 3d 68 5f 0e be 06 e6 47 be 05 ba a3 bc
       0.122727476 -0.13903582 -0.1952134 -0.019986162
0003f0 17 d2 bf 3d 8b ce 43 bd d9 01 e4 bd 3b f6 62 be
       0.09366243 -0.047804397 -0.11133165 -0.22164242

network_body._body_endoder.seq_layers.0.bias f4 [256]
000000 41 fc b0 3b 8b a6 16 bc 68 a3 00 bb 38 74 94 bb
       0.0054011648 -0.00919498 -0.0019628648 -0.004530456
000010 9d 13 88 3c 0a 7d 5a 3b ec 3d f4 3b 25 d7 99 3c
       0.016610915 0.003333869 0.0074536707 0.018779347
000020 1a 6b 46 bc 4e 9a 71 bc f2 18 94 3b 52 c5 f2 bc
       -0.012110496 -0.014746262 0.0045195753 -0.029635105
000030 c7 c5 9e 3c 30 e1 51 bc f0 13 b5 3c 2c 02 9d bc
       0.019381417 -0.012810037 0.022104234 -0.019166075
000040 ae 04 7e bb 5d 5b 45 3b 6e 1d 40 3d be 70 09 3c
       -0.0038760114 0.0030114271 0.046903066 0.008388696
000050 47 eb 98 bc a7 4f 8f 3c 7d ef 8d 3c d7 75 e2 ba
       -0.018666876 0.017494036 0.017326111 -0.0017277551
000060 c4 5d 01 ba 6c c1 3b 3b b0 da 96 bc 6a da 51 3c
       -0.00049349316 0.0028649224 -0.018414825 0.012808422
000070 bd eb b6 3b 4d 32 3a bc 42 6d 05 bd c7 9c ae ba
       0.0055823014 -0.011364532 -0.0325749 -0.001332187
000080 f9 f8 be 3a b5 30 a8 3c 75 c8 a9 3b 49 75 c1 bc
       0.0014570049 0.020531038 0.005181367 -0.023615496
000090 4c 25 91 3b 91 1e af 3c 47 65 db bc cb 55 df 3c
       0.004429495 0.02137688 -0.026781691 0.027262589
0000a0 54 b7 a1 bb 91 4c 9b 3a ca ab 6c bb 8d ed fe bb
       -0.0049351845 0.001184838 -0.0036113136 -0.007779783
0000b0 d0 05 18 3c 25 5f 46 3b 84 f5 bb bb c5 f4 dd 3b
       0.00927873 0.0030269113 -0.005736055 0.0067735636
0000c0 07 17 1a 3b d1 66 ef 3c aa 5c 1a 3c 66 8d c2 bc
       0.002351226 0.029223831 0.009421507 -0.023749065
0000d0 dd da f6 3b 7a 1b 00 3c f5 84 a9 bb 31 a5 81 bb
       0.0075334148 0.007819051 -0.0051733204 -0.00395646
0000e0 4c 60 c7 bc a7 44 d0 bc c8 46 1c 3c 37 66 eb 3b
       -0.02433791 -0.025423361 0.00953836 0.007183816
0000f0 d6 31 42 bc b6 0d 85 bb 31 4e be 3c 1f 49 d6 ba
       -0.011852702 -0.0040604724 0.023230644 -0.0016348696
000100 54 92 1d 3c 50 7c 5a 3c 68 0c 4b bc 70 91 37 bd
       0.009617407 0.0133353025 -0.012393095 -0.044816434
000110 93 08 4c 3c 58 d6 43 3a b2 92 16 3c 89 7a 80 3b
       0.012453216 0.00074705994 0.009190248 0.0039208573
000120 7d 9a 54 bc d6 42 ed bb e9 50 cb bb c2 23 03 3c
       -0.012976286 -0.0072406335 -0.0062047136 0.008004131
000130 a8 4e 84 bc bf c5 af bc 27 07 02 3c c5 35 01 3d
       -0.016150787 -0.021456597 0.007936276 0.03154542
000140 f1 a2 3b 3c 34 eb 13 bc 0b 5c 80 3c 5c 67 81 3c
       0.0114524225 -0.009028245 0.01566889 0.015796356
000150 af 3b 7c 3c f7 45 b2 bc 99 32 9c bb 2c 13 1f 3a
       0.015395089 -0.021761877 -0.004766774 0.00060682255
000160 e3 79 32 b9 87 f8 ed bc c8 c0 09 3d 15 cb 66 ba
       -0.00017020809 -0.029049171 0.033631116 -0.00088040653
000170 7c 2e 07 3c b3 ae 3a 3d 9c 97 2e 3b 0a d0 22 bc
       0.008250829 0.045576762 0.002664066 -0.009937296
000180 55 62 c4 3b bc 71 1e 3d 3a 78 91 bc 4f 84 fd bb
       0.0059931674 0.038682684 -0.017757524 -0.0077367197
000190 0b ef a6 3b bc 36 3b bc 44 60 e4 bc 9f d3 d6 bc
       0.005094414 -0.011426624 -0.027877934 -0.026223956
0001a0 44 2e 02 bc 12 86 e8 3b 82 34 01 bb 37 f9 bc bc
       -0.007945601 0.0070960606 -0.0019715135 -0.023068054
0001b0 73 2a 05 3d 9b 57 22 bc 7a d2 06 bb bf e0 a1 3c
       0.032511186 -0.009908582 -0.002057223 0.019760488
0001c0 39 e6 87 bc 0d c4 eb bb 66 01 af bc 4f df 89 ba
       -0.01658927 -0.007195002 -0.021362972 -0.0010518822
0001d0 47 75 ae bc 2f 72 8f 3a 1b 8b 82 bc 2c e5 2d bc
       -0.021296157 0.0010944064 -0.015935471 -0.010613721
0001e0 e4 0b 13 3d d7 3a 95 3c 54 21 8b bb 48 eb 16 3c
       0.03590001 0.018216534 -0.0042459164 0.009211369
0001f0 2c 4b fd 3c ee 02 b0 3c d1 a1 25 3c 5e ae 60 bc
       0.030919634 0.021485772 0.010109381 -0.013713447
000200 d6 3a fc bb ec ab 33 bc 85 82 46 3c 71 84 db bc
       -0.0076974435 -0.010966282 0.012116079 -0.026796551
000210 0c 8b c1 bc 63 59 9e 3c 0a da 08 bc 25 e7 b1 3b
       -0.023625873 0.019329732 -0.008352766 0.005429166
000220 0b c8 e6 3b 85 b0 09 bd 58 b1 a0 bc 28 ef 91 bb
       0.00704289 -0.033615608 -0.019615814 -0.0044535585
000230 6e d7 0c ba ea f8 dc bc 70 3a b6 3c 43 9c 15 3d
       -0.00053726777 -0.02697416 0.022244662 0.036525976
000240 9f 00 f2 bb d0 69 51 3c 80 2a 87 b9 ce cf 0d bb
       -0.007385328 0.012781575 -0.00025780872 -0.0021638754
000250 9d 76 e5 bc 85 ff 03 3a 90 2d ca 3b 07 77 03 bb
       -0.02801066 0.0005035329 0.0061699823 -0.002005996
000260 9f 72 8e bc 84 d5 a4 3c 0a 73 23 bc 9d ec 91 ba
       -0.01738864 0.020121343 -0.009976158 -0.0011133138
000270 38 77 ea bc d6 ca 6a bb 64 82 be bc 49 1e af 3b
       -0.028621301 -0.0035826466 -0.023255534 0.0053441864
000280 22 c2 2a 3c c3 1e e2 bb 93 99 14 3c 80 7f 72 bc
       0.010422261 -0.0069006397 0.009069818 -0.014800906
000290 63 fb c1 bc ca 21 a9 3b d2 6d 81 bb 1f 57 2b bc
       -0.02367944 0.0051614987 -0.003949859 -0.010457783
0002a0 4a 18 59 3c f2 c5 2c bb 4b 01 a5 3c 39 80 db 3b
       0.01325042 -0.0026363102 0.020142218 0.006698635
0002b0 32 6b cd 3c c6 8d 85 3c 08 da a6 3c 38 2d 80 3c
       0.025075529 0.016302954 0.020367637 0.015646562
0002c0 7f 6f 04 3d a9 95 57 bb e4 99 b2 3b e0 c8 9a bc
       0.032332893 -0.00328956 0.005450474 -0.018894613
0002d0 70 a1 f0 bc d1 9d 33 3c b1 e8 94 3c db 4d c7 3b
       -0.029373854 0.010962919 0.018177362 0.006082279
0002e0 f1 6d 1b bc 71 5c f5 bc c3 e0 d5 3b 02 ca ad 3c
       -0.009486661 -0.029951306 0.006527038 0.021214489
0002f0 01 76 c1 bb a6 30 b2 bc 56 f2 d2 3c e6 11 59 bb
       -0.0059039597 -0.021751713 0.02575032 -0.003312224
000300 66 9b 20 3c a2 a4 5e 3c 58 86 eb bb 2a e4 86 3c
       0.009802675 0.013589056 -0.007187646 0.016466219
000310 c5 18 00 3d 2c dd 13 3c 57 5b b0 3c fe 5c 9b bc
       0.031273622 0.009024899 0.02152793 -0.01896524
000320 7a 8a 43 bc 80 96 e2 bc c1 56 8b bc 62 5f f7 bc
       -0.011934871 -0.027659655 -0.01700914 -0.03019685
000330 54 19 bc 3b cb 0c 88 3c 58 89 6a bc f6 f6 24 bc
       0.005740324 0.016607663 -0.014314972 -0.010068646
000340 c4 25 d8 bb d4 70 8b 3c 62 53 20 bc f7 be 1e 3c
       -0.006596299 0.017021574 -0.009785505 0.009689084
000350 6c 18 43 3c cc a1 ad 3c 3d 13 c0 3c 23 c5 70 3c
       0.011907678 0.021195315 0.023446674 0.014695439
000360 2e 86 b4 b8 59 17 a8 bc 73 3c 9f bc 4b 34 c9 bc
       -8.608062e-05 -0.020518946 -0.019438004 -0.024561068
000370 82 fc a2 bc 75 df 3b 3c 60 03 19 3b 8c bb ba bb
       -0.019895796 0.0114668505 0.002334796 -0.005698627
000380 96 e4 4e bc 25 19 50 3c 41 b6 8b 3c 61 ba 3c 3c
       -0.012627741 0.012701307 0.017054679 0.011519046
000390 b4 06 31 bc ba 55 78 bc a0 da fc bb 38 4c fd 3b
       -0.010804821 -0.015157158 -0.007716492 0.0077300332
0003a0 f0 b0 00 3d 13 7d f7 bc e6 24 e1 3b 36 7b b8 3c
       0.03141874 -0.030211007 0.0068708537 0.022519689
0003b0 ff c5 bb 3b 79 28 98 3c 9b 12 df 3b 4c 0e ba bc
       0.00573039 0.018573986 0.006807638 -0.022711895
0003c0 26 4b ea bc 06 5c 35 bc aa db 63 3a 78 48 d1 3c
       -0.028600287 -0.011069303 0.0008692095 0.025547251
0003d0 70 a6 91 bc bd 6a a4 bc 71 38 12 3c b6 91 d6 bc
       -0.017779559 -0.020070428 0.0089245895 -0.026192527
0003e0 9a e1 24 3a 37 fe b6 bc fb e8 2f 3b 26 96 90 bb
       0.0006289721 -0.022338016 0.0026841748 -0.0044124303
0003f0 d5 50 18 bc 0c da a4 bc cc 4d 41 bc 5a 4e 28 3c
       -0.009296616 -0.020123504 -0.011798333 0.010272587

network_body._body_endoder.seq_layers.2.weight f4 [256, 256]
000000 a2 ee da b9 b0 8f 8b 3d 7e ae 36 3d c5 8f d9 3c
       -0.00041757995 0.068145156 0.044600002 0.026557812
000010 20 cd b8 bc 35 1c 86 3d a8 6f a3 3c b4 87 a2 bc
       -0.022558749 0.06548349 0.019950703 -0.019840099
000020 21 08 b5 3d f3 f7 ce bd e1 e8 9b bd 99 96 04 3d
       0.08839441 -0.10105886 -0.076127775 0.032370184
000030 21 cb 88 bc d3 b9 34 3d e8 5b 36 bd 97 82 d9 3d
       -0.016698422 0.04412253 -0.044521242 0.10620611
000040 27 d4 4f 3d cf 66 5d bd ec 3b 2a 3d 7c ba a4 bd
       0.050739434 -0.054053124 0.041561052 -0.080433816
000050 6a f1 8f 3d 91 fe c5 3d 3c 0e ae bb af d4 17 bc
       0.07028468 0.09667695 -0.0053117555 -0.009267016
000060 44 64 01 be 1d 68 94 bd 73 14 2d 3e bd 5e b8 bc
       -0.12635905 -0.072464205 0.16902332 -0.022506112
000070 b1 fe af bd 5c 60 09 3e 12 50 9e 3d 1b 43 1f ba
       -0.085935004 0.13415664 0.07730116 -0.0006075368
000080 c0 29 8f 3d 8a 44 59 3d 56 25 5c bd ac 5c e1 3d
       0.06990385 0.05304388 -0.053746544 0.11004004
000090 14 74 d8 bd 22 e9 30 3d 80 07 09 3e be 73 7d bd
       -0.10569015 0.043191083 0.13381767 -0.06187796
0000a0 12 73 20 bd 8b eb 24 bd e9 2f d7 3d 33 f5 68 3d
       -0.03917224 -0.040263694 0.10507185 0.056874465
0000b0 fc 04 21 3b 4d a2 8b 3d 2d 42 03 bd 02 56 15 be
       0.0024569621 0.06818066 -0.032045532 -0.1458359
0000c0 ea 26 81 3c 07 64 76 bd fc 46 12 bc 39 ac ca bb
       0.015765626 -0.060153987 -0.008928057 -0.0061850813
0000d0 fa bc b3 bd 11 21 85 bd 3d a2 2e 3c 36 63 d5 3b
       -0.08776279 -0.065004475 0.010658798 0.006512071
0000e0 d6 ab bf 3c 4f dd 08 3d 92 85 6e 3d d6 89 47 be
       0.023397367 0.03341418 0.05823285 -0.19486174
0000f0 d3 9c 4a 3d dd c0 73 3d ef 44 1c 3c 66 44 77 3c
       0.049465965 0.0595101 0.009537919 0.015091991
000100 1e 26 01 bd d5 e2 b0 3d 3a 7e 97 3b 82 5f 18 3e
       -0.031530492 0.08637015 0.0046232017 0.14880183
000110 d2 35 5f 3d ca ed 05 bc fb 80 af 3c 04 9c 9b bd
       0.054494686 -0.008174369 0.021423807 -0.07598117
000120 6e 95 22 3c f3 96 71 bd 5f 34 00 3e 69 70 d5 bb
       0.009923322 -0.058981847 0.12519978 -0.0065136445
000130 80 ce 62 3d 92 15 c8 bc 97 bd f7 bc 8b 5c 9d 3d
       0.055372715 -0.024424348 -0.03024177 0.07683667
000140 73 6a 87 3d 3d fc 88 3d 8e 0e 45 3d 87 1a 40 3c
       0.066121005 0.06688736 0.048109584 0.011725075
000150 c7 f8 d5 3d 6a 1a 6b 3d f7 3d 6c 3d 8b 43 8c bd
       0.10447841 0.057398237 0.05767628 -0.0684882
000160 cb fc 01 3c 0c 9f c6 bc 35 1e 76 3c 56 a4 f8 3a
       0.007933806 -0.024245761 0.01502185 0.0018969874
000170 92 eb d2 3d a9 8d 01 3e 26 09 43 3c 41 ce 11 be
       0.10298838 0.12651695 0.011904037 -0.14238836
000180 59 3b b7 bc 3b fa 25 be a7 44 19 bd 3f 3a 3e 3d
       -0.022367166 -0.16208737 -0.037418988 0.046442267
000190 64 26 0d bd 67 bb 0e bd 44 f7 21 bd d0 df 98 bb
       -0.03446044 -0.03484669 -0.03954245 -0.0046653524
0001a0 3b 51 a9 bd 14 7e 8c bd 10 78 e8 bd 7b 24 73 3d
       -0.082674466 -0.06859985 -0.11351025 0.059360962
0001b0 06 94 45 3d 67 ac e8 3d a0 9c 26 bc 2b 22 98 bd
       0.04823687 0.11361008 -0.010169178 -0.07428392
0001c0 16 a5 82 3d cf 54 aa 3c 96 cc 45 3c 7d 8e 47 3d
       0.06379144 0.020792393 0.012072703 0.04871987
0001d0 46 db 84 3d 9e b7 a6 bd c7 20 94 bd 6d e5 24 bd
       0.064871356 -0.08140491 -0.07232814 -0.04025786
0001e0 28 6d ea bd 26 6e 90 3d ae c8 a0 bd a6 11 19 3d
       -0.11446601 0.07052259 -0.078507766 0.037370346
0001f0 ee b0 59 3d 5f e4 ca bd 4e 17 13 bd 4a 90 c7 bd
       0.05314725 -0.099068396 -0.035910897 -0.09744318
000200 70 7d 4e bd c0 18 c9 bc b0 07 25 3d d5 66 b1 3d
       -0.050412595 -0.024547935 0.040290534 0.08662192
000210 01 14 9e bd 20 4e e7 bd f8 2e f9 3c 25 16 b1 3c
       -0.07718659 -0.11294198 0.030417904 0.021617005
000220 c1 72 ab bd 03 0b 83 3d 35 98 2e 3d d6 e8 9e 3a
       -0.08371497 0.06398585 0.042625625 0.0012123834
000230 31 dc a9 bd bd 11 5f 3c 1c 14 9a bd 06 fb e7 bb
       -0.08293951 0.013615069 -0.07523367 -0.007079485
000240 68 08 d5 bd 6f 6f c8 3d 6d fe 4e 3d 38 e9 ca bd
       -0.10401994 0.09786879 0.050535608 -0.09907764
000250 7d c6 25 3e c0 73 78 3d 57 f0 73 bd d6 ec 13 3d
       0.16188999 0.060657263 -0.059555378 0.036114536
000260 06 ec 8e bd b9 11 8a bb 29 0d b3 3d 4a b5 83 3d
       -0.06978612 -0.0042135385 0.087427445 0.064310625
000270 b3 6e 37 bd e8 1b 95 3d 26 fd 52 3c 3b d7 e6 3c
       -0.044783305 0.07280713 0.012877738 0.028178802
000280 cc cb d1 bd b5 04 dc bb c5 07 d4 3d 11 ca b9 bc
       -0.10243949 -0.0067144283 0.103530444 -0.02267936
000290 69 ea 2c bc ad a9 c1 3b 00 9d 90 bc 57 fa dc bd
       -0.010553935 0.0059101195 -0.017652988 -0.10789936
0002a0 e7 9a 24 3d a1 d5 aa 3c bd dd 3e 3b 65 86 44 3d
       0.04018679 0.02085382 0.0029123866 0.04797973
0002b0 b3 87 0e 3d 30 27 2c bc fd 55 a5 bd 55 60 db 3c
       0.03479738 -0.01050739 -0.080730416 0.026779333
0002c0 8c 18 7c 3c c8 08 07 bd c0 11 8a bd 0c 00 88 bd
       0.015386712 -0.03296736 -0.06741667 -0.06640634
0002d0 b2 41 f3 ba 81 fd af bd f5 48 37 bb bc 3d 61 3d
       -0.0018559007 -0.08593274 -0.002796707 0.054990515
0002e0 0e 2a 98 bc 6e 48 0b bd dd 62 74 3d 58 33 93 bd
       -0.01857474 -0.03400462 0.059664596 -0.071875274
0002f0 24 b5 94 3d 6b d4 e6 bd 5f 81 d1 bd 07 75 7f bd
       0.07261112 -0.11270984 -0.10229754 -0.062367465
000300 96 82 12 bd b7 a1 d1 bc 0a 2e 50 bd 9e 11 48 bc
       -0.035769068 -0.025589807 -0.050825156 -0.0122112315
000310 1d 6e 46 3d 24 47 4d 3d 04 23 31 be 8c dc 6c bc
       0.048444856 0.050116673 -0.17298514 -0.014456879
000320 09 e7 dd 3c f5 24 f2 bc ff 69 30 3e 31 29 07 be
       0.027087705 -0.029558638 0.17227934 -0.13199307
000330 ca eb ae bd 69 0e 79 3d bd bf b0 3d 2c 1f 54 3d
       -0.08541067 0.06080476 0.08630321 0.05178754
000340 f0 d4 55 bd b7 c3 17 bd dd 13 83 3d 05 27 85 bd
       -0.052205026 -0.037051883 0.06400273 -0.06501583
000350 31 44 8b 3d d0 ec 23 3e 50 e4 b4 3d 31 11 30 3d
       0.06800116 0.16008306 0.0883261 0.042985145
000360 9a 15 db bd aa 5e c0 3c b8 81 5f bd 19 e5 4a 3d
       -0.106974795 0.02348264 -0.05456707 0.04953489
000370 dc 79 fd bd e7 4a 1d 3d 7c 6e e6 3b 4e dd 83 bd
       -0.123767585 0.03840151 0.0070322137 -0.06438695
000380 94 28 be 3d 13 6a d3 3d 02 f9 c3 bc b6 bf 91 3d
       0.092850834 0.103229664 -0.023922447 0.07116644
000390 23 70 ba bc c2 22 28 be 48 aa cb 3c 1e 56 2d 3d
       -0.02275855 -0.16419509 0.02486147 0.042318456
0003a0 39 06 88 bb 35 b7 d2 bd e7 03 2f bc 4f 4d ec bc
       -0.0041511324 -0.1028885 -0.010682083 -0.028845457
0003b0 fd 06 4a bd 50 39 19 3e e5 14 ed 3d 31 7f 33 3d
       -0.04932307 0.14963269 0.11576251 0.04382247
0003c0 05 18 a3 3c bc 47 df bb 77 ed d1 3c 60 f0 10 3d
       0.019908914 -0.0068139713 0.025625927 0.03538549
0003d0 20 8f 92 3c b1 38 e9 bd 4f c4 46 3d 62 f0 14 3e
       0.017890513 -0.11387766 0.04852706 0.14544824
0003e0 26 2e 17 bc dc 51 3d 3e 5d 28 14 3c 24 22 d2 bc
       -0.009227311 0.18488258 0.0090428265 -0.025651045
0003f0 88 42 d4 3c ba 82 e7 bc c7 c7 61 bd b7 91 2f 3d
       0.02591063 -0.028260577 -0.055122163 0.042863574

network_body._body_endoder.seq_layers.2.bias f4 [256]
000000 87 45 63 bd a9 82 66 3c 50 e0 cf 3c bf 05 64 bc
       -0.05548623 0.014069238 0.025375515 -0.013917386
000010 5a 5e db bc 7f 83 04 bd 99 65 26 bc 51 72 71 3c
       -0.026778389 -0.032351967 -0.010156059 0.014736728
000020 4b 08 6c 3c c8 75 51 3c b1 57 ac 3c 33 3f f3 bb
       0.014406274 0.012784429 0.021037908 -0.0074233054
000030 f9 b3 5d b8 3d cf 78 3c cf ca d8 3c d1 67 5b bc
       -5.285812e-05 0.015186128 0.026463894 -0.013391451
000040 ff 9d b5 3b b0 bf 09 bd 81 cb 33 bc c3 45 40 3c
       0.0055425162 -0.033630073 -0.010973812 0.0117353825
000050 b4 d5 68 3c 91 ed 1c 3c 4c 86 05 bd ee 2a 3b 3c
       0.014211107 0.009578125 -0.03259878 0.011423809
000060 54 2f 0d bd 0c 48 99 bc 6c fa 68 bc 3e 65 30 3c
       -0.034468964 -0.018711112 -0.0142198615 0.0107663255
000070 1d 68 fb 3c 24 e0 89 bc cb 22 08 3c a1 40 46 3c
       0.030689294 -0.016830511 0.008309077 0.01210037
000080 0f a9 ba 3c 0c 70 5f 3c 5c 8f b9 3c ae f9 6d bc
       0.022785692 0.013637554 0.022651367 -0.01452486
000090 51 c5 cb 3c 9b 04 6e 3b 17 02 03 3d c5 11 d8 bb
       0.024874361 0.0036318663 0.031984415 -0.006593915
0000a0 e5 d4 f5 3c 75 bc 50 3c 21 20 de bb b5 e7 74 3c
       0.030008743 0.012740244 -0.0067787324 0.014947821
0000b0 c1 d8 fb 3c 5f db 0f 3d 59 f6 d6 bb 7f 00 7b 3c
       0.030743005 0.035121318 -0.0065601286 0.0153199425
0000c0 43 5a 4f 3b c9 b6 80 bb 5c 88 a9 3c a8 3d 0e 3c
       0.0031639494 -0.0039280397 0.020694904 0.008681692
0000d0 b3 be d9 3c 4d 5e 8e bb 42 4a 62 3a 42 7a fc 3c
       0.02658019 -0.0043447376 0.0008632281 0.030820016
0000e0 ee 9f 36 bb 66 d5 75 3c 0d c5 bc bc cf b8 f4 3c
       -0.0027866322 0.015004491 -0.02304318 0.02987328
0000f0 17 6f e7 3b f0 73 43 bc 5b e1 0f 3c 8d b5 83 bc
       0.0070628035 -0.011929497 0.008781756 -0.016077781
000100 ba 11 43 bc 99 32 13 bd 05 2b fc 3c 80 a4 d1 3c
       -0.011906082 -0.035936926 0.030782232 0.025591135
000110 5f 17 6c bb 91 13 bc bc 50 b0 dc 3c 5d e1 26 3c
       -0.0036024672 -0.022958549 0.026939541 0.010185567
000120 90 80 3a bb d6 7f 1e 3c d1 1b e7 3b 8a ae b2 3c
       -0.0028457977 0.009674033 0.0070528765 0.021811742
000130 1e 9b 79 3c 0f 0f 06 bc 36 bb 82 bd 40 e7 d5 bc
       0.015234737 -0.008182301 -0.06383364 -0.026111245
000140 af 88 83 3b 59 cf 12 bd 6c a5 01 3d 86 33 ee bc
       0.0040140967 -0.035842273 0.0316519 -0.029077303
000150 63 d0 e4 3b 8c 3f 12 3d 5b 01 10 3d bb 64 66 3c
       0.0069828494 0.035705134 0.035157543 0.014062102
000160 2b 2a 4f 3c ed 41 2a 3b 65 8e 5c 3c a5 82 cb 3c
       0.012644331 0.0025979236 0.013461684 0.02484257
000170 3f d1 4a 3c b3 72 bb 3c 90 32 9b bc e4 87 a1 3c
       0.01237899 0.022881841 -0.018945009 0.019718118
000180 24 ac 01 3d d7 8d e9 3c 5d c0 24 bc 65 d9 ed 3a
       0.031658307 0.028510017 -0.010055629 0.0018146454
000190 40 df 88 3c a4 bb a3 3b 2b b0 11 bd f8 5b 04 bb
       0.016708016 0.0049967337 -0.035568397 -0.002019642
0001a0 d8 4e 4b bc f2 f5 41 3c 83 6b 86 3b b1 c5 b5 bb
       -0.0124089345 0.011838423 0.004102172 -0.0055472483
0001b0 b1 ee c4 3c 33 2d cc bb 7c 49 b4 3c 57 ab 86 3c
       0.024039598 -0.006230974 0.022007696 0.016439123
0001c0 54 96 b3 3c fb e6 f1 3b 13 cc fe 3a f3 d8 26 bb
       0.021922268 0.0073822713 0.0019439481 -0.0025458902
0001d0 0b 90 fc 3c 38 94 a2 3c 68 b1 f5 3c 68 28 21 3c
       0.030830404 0.019846067 0.02999182 0.009836294
0001e0 ba 61 bc 3a a2 26 78 3c f0 f2 91 bb 34 02 66 3c
       0.0014372387 0.0151459295 -0.0044540092 0.014038611
0001f0 7b 4d 9c 3c d1 d6 46 bb 44 18 ce 39 07 9e af 3c
       0.019079914 -0.0030340443 0.0003930946 0.021437658
000200 2b 37 ad bb 8f b3 8b 3c 36 14 99 3b f3 a2 bb 3c
       -0.0052861175 0.017053394 0.004671599 0.022904849
000210 22 f7 d2 3c 3a c2 31 bd 7d 87 31 bd 5c ae e7 3b
       0.025752608 -0.04339812 -0.043342102 0.007070346
000220 01 ff de 3b 95 3a c8 bc 19 36 c4 3c 87 84 2d bc
       0.006805301 -0.024441997 0.023951577 -0.010590679
000230 35 8f 05 bd 2c e9 98 3c 74 20 61 bb 76 85 cb 3c
       -0.032607276 0.018665873 -0.003435162 0.024843913
000240 9f 9a f6 bc 32 90 32 3c 84 92 3a bb 4e d4 8a bc
       -0.030103026 0.010898637 -0.0028468678 -0.016946938
000250 77 91 92 bb a2 65 90 3c 66 5f 94 bc 3c 27 18 bc
       -0.004472907 0.017626587 -0.018111896 -0.009286698
000260 47 99 3e 3b c7 c3 60 3c 67 98 0c 3c 77 24 c1 bb
       0.002908306 0.013718552 0.008581257 -0.0058942395
000270 fb 31 40 bd f4 eb 70 3b 48 91 fc 3a 18 46 e9 3b
       -0.046922665 0.0036761733 0.0019269371 0.0071189515
000280 f0 b2 d3 bc 9e 2a c7 3b ff bf 3a bd 98 48 4c bc
       -0.02584216 0.0060780784 -0.045593258 -0.01246848
000290 c3 5f d2 bc aa 4b 86 3c 3e c2 3c bd 09 cd 78 bc
       -0.025680428 0.016393501 -0.04608368 -0.015185603
0002a0 92 87 c4 3c 64 f0 88 3c 42 48 a8 3b 13 02 d6 3c
       0.023990426 0.01671619 0.005135567 0.026124036
0002b0 19 fa 60 3c bb 35 50 3c b1 54 02 bc ba 5a ef 3c
       0.013731503 0.012708123 -0.007954762 0.029218066
0002c0 fa 67 b8 3a 5d b0 32 3b a4 e6 12 3b e0 ac 2f bb
       0.0014069073 0.0027265765 0.0022415305 -0.0026805922
0002d0 ed 17 16 bd e7 c8 8a 3c 8e 4f 96 3b f3 18 94 3c
       -0.03664391 0.0169415 0.0045871204 0.018078303
0002e0 e4 15 a8 bc f1 99 16 3d 4c 80 1d bc e5 6d 8f 3c
       -0.02051825 0.036767904 -0.009613108 0.017508456
0002f0 1f de 56 bd ad a4 9b bc 00 61 1f bc ee c7 e7 bb
       -0.052457925 -0.018999422 -0.009727716 -0.007073394
000300 2e 3a 0b 3c 84 20 d3 3b e6 7d 71 3b 03 ed 0d 3c
       0.008497758 0.006443085 0.0036848723 0.008662465
000310 aa 4a 13 bb 7c 93 b9 bc dd 94 fa 3c a4 93 38 bb
       -0.0022474923 -0.022653334 0.030588562 -0.0028164173
000320 93 3c 4b 3c ba 80 33 bb 37 e6 17 bd bb d0 bc 3c
       0.012404579 -0.002738996 -0.037084784 0.02304875
000330 0f 24 4c 3c d1 20 c4 3c 7a f3 77 3c 15 5d b4 3c
       0.012459769 0.02394143 0.015133733 0.022017041
000340 c9 0f 22 3c 7e 12 7b 3c c1 e0 4d 3c fb 13 71 3c
       0.009891459 0.015324233 0.012565793 0.014714236
000350 1f 6f 5b bd 34 af d9 bc 78 1f b4 3c 5c 69 94 3c
       -0.05357277 -0.026572801 0.021987662 0.018116646
000360 be 2b 44 3c 5f d2 7c bc df a6 d4 bc e4 b1 b6 3c
       0.01197332 -0.015431016 -0.025958477 0.022301622
000370 9c 62 ff bc d8 b6 06 bd 03 e3 12 bc f0 33 9a bc
       -0.03117495 -0.032889217 -0.008965257 -0.018823594
000380 84 01 01 bc f1 36 5b bb 62 4f 4e 3c 15 5e b2 bc
       -0.0078738965 -0.0033449496 0.0125921685 -0.021773377
000390 ca 3d c5 3c ce 14 d2 bc f9 2f 15 3d 95 12 80 3b
       0.024077315 -0.025644686 0.036422703 0.003908465
0003a0 8e 59 09 bd 13 75 48 3c b0 b3 60 bc bd 98 98 3c
       -0.03353267 0.012234944 -0.013714716 0.018627519
0003b0 11 85 f3 bc 51 bb 53 3c d5 97 63 3c a2 15 fe bc
       -0.029726537 0.012923078 0.01389118 -0.031016175
0003c0 4d 6e b2 39 c1 bc 21 bd 44 a7 37 3c b2 95 fb 3b
       0.00034032986 -0.03948665 0.011209313 0.007677757
0003d0 65 4d 8a 3b 9e e8 d8 3c 5c 07 a5 3c 9c 10 b3 3b
       0.004220652 0.026478108 0.02014511 0.0054646265
0003e0 26 ae 18 bc 26 67 49 3c d8 5d 7f bc 37 c0 aa 3c
       -0.009318864 0.012292659 -0.015586339 0.020843608
0003f0 4d 01 4f 3b 1f 7c f4 3c 2f 1b 2a 3c f2 a2 73 3c
       0.0031586469 0.029844342 0.010382458 0.014870392

network_body._body_endoder.seq_layers.4.weight f4 [256, 256]
000000 fa 3e 8b 3c dc 5a f4 bd 2c 82 99 bc d4 4b 58 bd
       0.016997803 -0.119313926 -0.018738829 -0.05280669
000010 6f c6 69 bd 1b 06 81 bd ee 5a 9e bd 4d 57 0a bc
       -0.057074007 -0.06299993 -0.07732187 -0.008443666
000020 bb 8a af 3d 73 8a 58 3d cc 2f 14 3e c9 a2 c9 3a
       0.085713826 0.05286641 0.14471358 0.0015383597
000030 7d 7e f8 bd 85 26 a3 bc 3b a9 34 3c ed 2b 8b bb
       -0.12133501 -0.019915828 0.011026676 -0.0042471797
000040 13 3a af 3c 85 f8 e1 bc c7 72 e5 3b e4 e9 36 3d
       0.021389997 -0.027584324 0.007002208 0.04465665
000050 c7 8c 4f bd 23 af b9 bd dd 79 94 3c 72 6c 56 bd
       -0.050671365 -0.09066608 0.018124515 -0.052349515
000060 d9 ac 50 3d cf bb 78 3d 36 19 5e bd 0a 11 86 bd
       0.05094609 0.060725983 -0.05422326 -0.06546219
000070 1c 89 f3 bc 2e d4 44 3d 82 64 42 be 49 d9 ae 3a
       -0.029728465 0.048053913 -0.18983653 0.0013339903
000080 00 de 33 3c 17 10 19 3d 29 d4 77 bd dc 5a 8d bd
       0.010978222 0.03736886 -0.060505066 -0.06902096
000090 ac 93 5e bd 83 ed 57 3d 4d d9 80 bc 3b a2 bb bd
       -0.05434005 0.052716743 -0.015728617 -0.091618024
0000a0 9b 84 8f 3c 98 b8 1d bc 7b 78 07 3d 1b 4f 23 3d
       0.017519286 -0.00962653 0.033073884 0.039870363
0000b0 ae 8d 17 3d be dd 48 3d 7a c8 c9 39 e2 93 f2 bd
       0.03700035 0.049039595 0.00038487074 -0.11844613
0000c0 34 42 3a bd 09 05 c7 3c bc 4e 8f 3d 43 a5 28 3e
       -0.045473292 0.024294393 0.06997439 0.16469292
0000d0 ef 65 fd 3c 85 97 0c bd 28 29 fa 3c dc f5 60 ba
       0.030932395 -0.034324188 0.030537203 -0.0008581558
0000e0 dc b5 07 3d b9 95 91 3d 6c 13 8e bc 61 a0 07 bd
       0.03313242 0.071086355 -0.017343245 -0.033111934
0000f0 da 1a 42 3b 91 89 56 bd 38 91 85 3d e7 be 45 bc
       0.0029618056 -0.052377287 0.06521839 -0.01206944
000100 39 66 14 bc 6e 11 db bd c3 12 3a 3d 5a 82 a2 3c
       -0.009057575 -0.10696684 0.04542805 0.019837547
000110 d9 ad b5 bc be 73 0e bd 15 f3 31 3d 4c f3 77 bd
       -0.022177624 -0.03477835 0.04344471 -0.06053476
000120 33 b6 68 3d b5 0b aa bb 41 e3 07 be 37 44 87 bd
       0.056814384 -0.005189384 -0.13270284 -0.06604808
000130 c2 a8 b5 bb ed 07 0d bd d7 d7 e5 3d 62 44 5c bd
       -0.005543799 -0.034431387 0.11222809 -0.053776152
000140 8c 16 03 bb 36 5e 52 3d d3 8d d5 bc 93 a0 b2 3d
       -0.0020002453 0.051359378 -0.026068604 0.08722033
000150 d8 e7 89 3d 05 b2 b4 bc 0d 92 cc 3c ae 0d 3a 3d
       0.06733674 -0.022057543 0.024971986 0.045423202
000160 cb 84 c6 3b 5d a5 65 bd 81 00 84 3c 74 cc 9e bc
       0.0060583106 -0.056065906 0.016113522 -0.0193846
000170 96 a2 ca bc 9f da 5f 3b a4 25 46 3e 7d f8 25 bd
       -0.02473573 0.0034157408 0.19350296 -0.04052018
000180 04 b6 41 3c d6 4c 85 3c 32 20 a7 3c 39 67 d6 3c
       0.011823181 0.01627199 0.020401094 0.026172267
000190 ec 52 72 3c 2a c3 00 be 66 2e ad bc 45 0c 17 bd
       0.014790278 -0.12574449 -0.021140289 -0.036876936
0001a0 c2 12 d5 3b 6f 6e 51 3d dd 14 68 bd bf 76 d0 bd
       0.0065024802 0.05113071 -0.05666052 -0.10178899
0001b0 65 f2 9c 3b f9 f6 81 b8 9a e3 85 bd 5a 0e c0 bb
       0.004789638 -6.1972016e-05 -0.06537552 -0.005861086
0001c0 5b 15 38 3e 59 d4 5c bd ed 3e 78 3d 0a 24 96 bd
       0.17976896 -0.053913448 0.060606886 -0.07331093
0001d0 09 61 23 3e 0f f1 f5 3c 51 32 8f bc e7 35 38 be
       0.15954985 0.030022172 -0.017480047 -0.17989312
0001e0 36 c3 9d bd ba aa bd 3d da 0b 71 bd 51 55 22 bd
       -0.07703249 0.09261079 -0.058849193 -0.039632145
0001f0 60 9d 2f bd 08 9c 84 bd 69 c2 90 3d 1a e5 71 3c
       -0.042874694 -0.06475073 0.07068331 0.014764095
000200 8b 4b 10 bd a9 18 48 3c 06 f3 a5 bd 8b 73 67 ba
       -0.035228293 0.012212911 -0.08102994 -0.0008829168
000210 f4 25 8a 3d ef 24 56 3d c4 55 16 bd cd c1 b7 3c
       0.0674552 0.052281316 -0.036702886 0.022431279
000220 a2 fc 67 bd 2f 05 b5 3b 14 39 bb bb eb 0e 22 3d
       -0.056637414 0.0055242996 -0.0057135914 0.039565008
000230 c4 f7 22 bd 4c dc 7e 3d 12 42 94 3c 64 c0 aa bd
       -0.03978707 0.06222181 0.018097911 -0.08337477
000240 be f9 dc bc 93 5e 75 3d dc 15 93 3c 24 23 b3 bd
       -0.026974555 0.059904646 0.01795476 -0.08746937
000250 ec f4 89 bc 4f 82 aa 3d 84 9d d5 3d 75 c1 0e 3d
       -0.01684042 0.08325636 0.10430434 0.034852464
000260 31 0b 8c bd 03 0b c2 bc ae 1e cf bd 8d d1 ed bc
       -0.06838072 -0.023686891 -0.101132736 -0.029030586
000270 e0 a2 3c 3d 1b 78 80 3d 59 cb 84 3d ce a4 12 3d
       0.046053767 0.06272908 0.06484098 0.0358017
000280 38 a0 8a 3c f1 af aa 3d b8 7f cc bc d2 b0 5f 3d
       0.016922101 0.083343394 -0.024963245 0.05461199
000290 77 ab 33 bd a4 d4 7b bd b2 72 89 bd 42 26 18 bd
       -0.043864693 -0.061482087 -0.067113295 -0.03714586
0002a0 89 da ae bd db ec 14 bd 5e 21 06 bd 19 08 c8 3c
       -0.08537776 -0.036358695 -0.032746665 0.024417924
0002b0 4f df 78 3d 00 9d 9b bd f4 34 04 bc 2f cf be 3d
       0.06075984 -0.07598305 -0.008069266 0.09316861
0002c0 c2 30 8d bc 1a 7c 80 3d 37 fa 68 3d 71 cc a9 3b
       -0.017235164 0.062736705 0.05687925 0.005181842
0002d0 d4 42 27 3d 54 61 04 3e f3 4f 79 3c 91 56 8c bd
       0.040835217 0.12927753 0.015216815 -0.06852449
0002e0 da 4d 8e bd db ac d7 3d 2e 34 a1 3c 79 93 00 3d
       -0.06948443 0.105310164 0.019678202 0.03139064
0002f0 dc 6c 9a 3d 14 01 c0 bd fb 18 6f 3c 80 c5 d1 3c
       0.075402945 -0.09375206 0.014593358 0.02560687
000300 65 65 cc 3d fe 8f 36 bc d8 86 b3 bd d5 a3 27 bd
       0.09980277 -0.011142729 -0.08765954 -0.040927727
000310 f4 2a 33 3d c4 2b 6c bd 34 e6 c7 3b 42 83 46 bd
       0.043742135 -0.057658926 0.0061004404 -0.04846502
000320 70 ad 88 bc 25 07 86 bd 7d 64 57 bd 0f 01 14 3d
       -0.016684264 -0.065443315 -0.052586067 0.036133822
000330 af d5 56 bc 7c 1d 13 be 3e b4 2c bd 2e 1c 66 3d
       -0.01311247 -0.14366716 -0.04216408 0.056179218
000340 ce 74 db 3c 02 3b a6 bd 6e b7 a4 3d 4e 34 c3 3d
       0.026789095 -0.081167236 0.08042799 0.09531461
000350 0c 61 2f 3d af 55 46 bb f3 47 ad 3b 31 cc 59 bc
       0.04281716 -0.0030263474 0.005288118 -0.013293312
000360 aa da 30 3d 30 bd 86 bd 50 85 e5 3d 66 ad 55 bc
       0.043177284 -0.065790534 0.11207068 -0.01304183
000370 78 82 04 be 4e 57 71 bd de 82 c1 bd ea 06 f3 bc
       -0.12940395 -0.05892115 -0.09448789 -0.029666383
000380 ba 96 ef bc a7 33 4f 3c 1b 16 50 3d 9c cb 00 bc
       -0.029246677 0.012646592 0.05080233 -0.007861044
000390 91 1f 18 3d 89 42 77 bd 03 9f a7 3d 34 cc 07 be
       0.03713948 -0.060366187 0.08184626 -0.13261491
0003a0 c3 b9 3b bc 62 f3 15 bc 64 98 5b bd 7d 18 2e bc
       -0.011457863 -0.009152265 -0.053612128 -0.010625956
0003b0 00 cc 7e bd 71 cd 06 be ed 8a 07 3d e5 1b 1e bd
       -0.06220627 -0.13164307 0.033091474 -0.03860082
0003c0 1f e8 51 bd 31 e9 a4 3d 29 c1 06 be 8d 51 75 bc
       -0.05124676 0.0805229 -0.13159622 -0.0149730565
0003d0 bb 7b bc 3c e7 c1 c6 bb 8f 6d 6a 3b dd 64 d8 bd
       0.023008218 -0.0060655954 0.0035770868 -0.10566113
0003e0 e8 85 8b bc 1f 0e 21 3c e9 2e 7e bd 89 0c 0d bc
       -0.017031625 0.009830027 -0.062056456 -0.008608946
0003f0 36 47 3d 3d ea e3 47 bb 2e 86 99 3d b3 0c 68 bd
       0.04621049 -0.0030500838 0.07496296 -0.056652736

network_body._body_endoder.seq_layers.4.bias f4 [256]
000000 d8 2b 7b 3b dc ce cf 3c bc 14 16 bc c7 45 da 3c
       0.0038325693 0.025367193 -0.009160217 0.0266446
000010 8e 4d a5 3c 4a 85 cc bc 29 32 a0 3c 50 5f 66 3c
       0.020178583 -0.0249659 0.019555168 0.01406081
000020 26 bf 04 bd ff b6 36 bd 1c fa 18 3c db 09 ac 3b
       -0.032408856 -0.044608112 0.0093369745 0.0052501983
000030 cc d6 dc 3c 01 88 3a 3d 37 58 03 bd 25 d8 fd 3c
       0.026957892 0.04553986 -0.03206655 0.030986855
000040 c7 b8 13 3d f3 a8 80 bc 41 61 06 3d a1 1f 8d bc
       0.03606489 -0.015705561 0.032807592 -0.017226996
000050 76 cd 18 3d 9e e0 5e 3c 03 1f 24 3d 0f 9b d5 3c
       0.037305318 0.013603358 0.040068638 0.026074914
000060 2b c6 61 bc 5e b8 34 3d c5 2c 6e 3c 87 8f bf 3c
       -0.013780157 0.04412114 0.014537041 0.023383869
000070 9e ed 13 bd 36 ac db bc b9 44 95 3c d5 9d 1a 3d
       -0.03611528 -0.026815515 0.018221246 0.037748177
000080 17 fe cf bb 5d 23 d4 bc b2 8e 32 bc 12 77 af bc
       -0.0063474285 -0.025895769 -0.010898279 -0.021419082
000090 07 80 42 3b 1d 2d be 3c 26 38 d2 bc 60 f9 1f 3d
       0.002967836 0.023214871 -0.02566154 0.039056182
0000a0 4e 77 61 3c 2b d1 08 3d 23 b3 f7 3b 10 05 c3 bc
       0.013761355 0.033402603 0.0075591966 -0.023806125
0000b0 63 ef d7 3c da eb 18 3d 79 0a f0 3c c3 fe 1d 3d
       0.026359266 0.0373343 0.029301869 0.038573038
0000c0 18 c0 97 3c 6a 5e 25 3c c1 22 f5 3c 1f da ab bc
       0.018524215 0.010093311 0.029923799 -0.020978032
0000d0 4c 97 ce 3c 97 21 0c 3b 45 56 bb 3c a4 05 eb bc
       0.025218628 0.0021382326 0.022868285 -0.028689213
0000e0 d2 92 d8 bc 40 ca 10 3c 51 51 01 3a 08 7b 18 bc
       -0.026437197 0.008837283 0.00049330766 -0.009306677
0000f0 b5 f7 18 3d 60 dc e4 3b ef e6 87 3c 58 34 08 3c
       0.037345607 0.0069842786 0.01658961 0.008313261
000100 43 d1 ca bb 10 0d 33 3d ce 06 87 3c 9e ba e0 3c
       -0.0061894967 0.04371363 0.016482737 0.027432736
000110 28 7e 72 3b c0 01 ca 3c 9d dd f9 3c 63 6d a8 3c
       0.0037001465 0.024659038 0.030501181 0.020559972
000120 b3 06 ad 3c 17 ef ad 3c fe 7c 9d 3c 5b 7d e6 bc
       0.021121358 0.021232171 0.01922464 -0.028135946
000130 1f e6 ef 3c c9 08 d4 3c 48 b8 fd 3c 17 f6 91 3c
       0.029284535 0.025883095 0.030971661 0.01781754
000140 b8 fc 13 bd f1 41 32 3c 1f 5a 5a 3c 0d 26 ba 3c
       -0.036129683 0.0108799795 0.013327151 0.022723222
000150 42 5f ac 3c c1 5f dd 3c 94 af 75 bc dc 8b 8f 3c
       0.021041516 0.027023198 -0.014995474 0.017522745
000160 e0 0b 68 bc d9 01 8a 3c c2 fa ec bc fe 7c 33 ba
       -0.0141629875 0.016846584 -0.028928164 -0.00068469334
000170 e8 14 23 3c bf 22 ca bb 1b bd f0 3c 56 33 0a ba
       0.009953715 -0.006168693 0.029387048 -0.0005271932
000180 0a 48 a8 3c 5e 6d 10 3d 7a 1a 50 3c 86 ba d2 3c
       0.020542163 0.03526055 0.012701625 0.025723707
000190 f1 46 02 3d 13 0b f4 3c 17 bb a5 3c 0b 92 e9 3c
       0.031805936 0.029790437 0.020230813 0.028512022
0001a0 7b 68 8f 3c 96 41 36 bd d9 96 16 3d 33 c2 8d 3a
       0.017505875 -0.04449614 0.036764953 0.0010815322
0001b0 2b 8c 65 3c 22 78 06 bd c8 3f cd bc d7 13 e6 3c
       0.014010469 -0.03282941 -0.025054827 0.028085632
0001c0 45 e3 02 3d 0d 10 34 3d bb 65 dd 3c da 1b 07 3d
       0.031955022 0.04396062 0.027026048 0.032985546
0001d0 68 8b 85 ba 07 86 df bc 38 9e 8e 3c a7 cd 28 bd
       -0.0010188641 -0.027285589 0.017409429 -0.04121175
0001e0 bb ad f4 3c 16 f9 e3 3c 46 14 bb 3c 56 0d 1a 3d
       0.029867997 0.027828734 0.022836816 0.037610374
0001f0 e2 7a 47 bc 55 46 d0 3c 84 37 5e bc 97 9b 96 bb
       -0.012175294 0.025424162 -0.013563041 -0.0045961845
000200 54 40 08 3c c7 7d 56 3a 67 d3 7b 3c 21 16 08 3d
       0.008316118 0.00081821944 0.015370226 0.03322423
000210 63 7f cd bc 42 5b 95 bc 8f 0c 0d bd 30 08 36 3d
       -0.025085157 -0.018231992 -0.034435805 0.044441402
000220 63 16 b5 3c 85 fd 90 ba 05 53 8c 3c 81 01 ca 3c
       0.022105401 -0.0011061883 0.01712943 0.02465892
000230 7c 8a e9 bc db d8 8f ba 05 0f 1c 3d 97 96 bd bc
       -0.028508417 -0.0010974662 0.03810026 -0.023143096
000240 0d 59 5f 3c 6e 1f 64 3b 03 e1 91 3c b3 85 f4 bb
       0.013632071 0.0034808773 0.01780749 -0.0074622273
000250 d6 42 1e bd 0b 99 67 3c 81 60 05 3d a1 13 66 bc
       -0.03863796 0.014135609 0.032562736 -0.014042766
000260 eb ed 0f 3d ab 77 0f 3d 52 92 cb bc 1a 71 eb bc
       0.035139006 0.035026234 -0.024850044 -0.028740454
000270 70 ae 77 bc 0c db 12 bc e1 b3 a4 3c 70 4b f0 bc
       -0.015117273 -0.008963358 0.020105304 -0.029332846
000280 8d 6a 55 3b 3b 29 fa 3c f7 c9 3e 3d 42 0c 12 3d
       0.003256473 0.030537238 0.046579327 0.03565622
000290 71 48 1a 3c 97 e5 57 3c da 71 e0 bc ef 84 0e 3d
       0.009416685 0.013177297 -0.027398039 0.034794744
0002a0 a9 c0 c6 bc 94 ca 23 bb de dc 07 3d ff bf ca ba
       -0.02426179 -0.0024992572 0.03316962 -0.0015468596
0002b0 92 25 ea bc a4 4b 0a 3d 50 17 99 3c 20 d4 21 3d
       -0.028582368 0.033763543 0.018687874 0.03950894
0002c0 d3 9e fd 3c e8 bf 0f bd a9 65 29 3d c0 b9 bb bc
       0.030959522 -0.035095125 0.041356716 -0.022915721
0002d0 08 08 c6 3c 86 75 91 bc 45 21 a6 bb a0 98 1c bd
       0.024173751 -0.017756235 -0.005069884 -0.038231492
0002e0 91 45 fc 3c cd 67 a8 3c 06 e5 06 3d 6f b3 88 3c
       0.03079489 0.020557309 0.032933258 0.016687123
0002f0 57 8b 16 bd b0 a3 e1 3c b6 5d 03 38 83 4f 19 3d
       -0.03675398 0.027543873 3.132011e-05 0.037429344
000300 54 47 8c 3c 28 23 0a 3d fb 70 17 3c 3f f0 38 bd
       0.017123856 0.033724934 0.009243245 -0.04515099
000310 d2 f2 1b bd 43 19 a7 bc 16 ae 85 bc ee e1 c9 3c
       -0.03807337 -0.020397788 -0.016318362 0.024643864
000320 ac 82 43 3c 25 76 34 3d fd 6d b6 bc 19 14 a2 b9
       0.01193301 0.044057984 -0.022269243 -0.00030914022
000330 77 94 10 3d 74 05 49 3c ed a6 03 bd 43 b6 13 3d
       0.035297837 0.0122693665 -0.032141615 0.03606249
000340 7a c4 d9 3a b7 ab 40 3c 21 aa ed bc ae 9a db 3c
       0.0016614341 0.01175969 -0.029011788 0.026807155
000350 f8 4c d9 3c 51 3b e3 3c 38 18 c6 3c 2c 92 22 3c
       0.02652596 0.027738245 0.02418147 0.009922545
000360 e6 b7 27 3d 71 de 06 3d e6 56 d3 bc 31 f0 3f bd
       0.040946864 0.03292698 -0.025798272 -0.046859924
000370 5b 58 04 3d 7b 7a c1 3c 6d 35 1d 3d 5d ff ea bc
       0.032310825 0.023617974 0.03838103 -0.02868622
000380 06 ee cf ba 90 0b ad bb 69 f4 90 bc c6 3e 85 3b
       -0.0015863783 -0.0052809194 -0.017694669 0.004066321
000390 78 2b 9b 3c 49 d5 9c bc ff 4b ab 3c a3 fe 14 3d
       0.018941626 -0.019144671 0.020910261 0.036375653
0003a0 9c f3 02 3d 08 be 14 3d a2 1c a4 3c 27 f0 e6 3a
       0.031970605 0.03631404 0.020033184 0.0017619178
0003b0 58 5f 34 bc 54 e3 ec bc 88 78 25 3c 20 c8 15 bd
       -0.01100906 -0.028916992 0.010099538 -0.036567807
0003c0 c2 65 bd 3c 0b b7 ce 3c 20 1a 11 3d 44 e4 d3 39
       0.023119811 0.025233766 0.035425305 0.00040415127
0003d0 f8 63 36 3d 82 7c c3 3c 5c e4 71 3c 8b 1c 00 3c
       0.04452893 0.02386308 0.014763918 0.007819305
0003e0 b2 f2 fb 3c ee 72 dd bc 54 f9 0d 3d 56 f9 03 3d
       0.030755375 -0.027032342 0.034661606 0.032220207
0003f0 ce 3e 40 3d 23 30 14 bd ac 1a 25 bd 02 55 17 bd
       0.046934895 -0.03617872 -0.04030864 -0.036946304

action_model._continuous_distribution.log_sigma f4 [1, 2]
000000 02 41 eb bd 17 a6 a8 bd
       -0.11487009 -0.08234804

action_model._continuous_distribution.mu.weight f4 [2, 256]
000000 85 fd 2e 3c 30 48 2f bd c1 11 fd bc 26 f5 79 3d
       0.010680561 -0.042793453 -0.030892255 0.061024807
000010 c2 a9 d9 bc c9 4c 3f 3d 04 0c 9f 3d 16 02 78 bd
       -0.026570205 0.046704087 0.07765964 -0.060548864
000020 c9 44 64 bc bb d6 34 3d b7 8f 61 3d 30 c5 67 bc
       -0.013932415 0.044150095 0.055068698 -0.014146134
000030 f6 84 23 bd 63 99 aa bc b4 95 21 3b ee 3d 85 bc
       -0.039921723 -0.020825094 0.002465588 -0.016264882
000040 ab 74 45 bd 33 4a 7f 3d 47 4f 50 3c b8 42 8e bc
       -0.048206966 0.06232662 0.012714214 -0.017365798
000050 42 06 18 bb 10 d5 20 bd d4 c8 62 bc a4 3f 2f 3d
       -0.002319709 -0.039265692 -0.0138418265 0.0427853
000060 5b 5f e8 bc 59 9d 0d bb fc 3d 5e bd 0c 6f 86 bd
       -0.028365782 -0.002160868 -0.05425833 -0.06564149
000070 f8 4e 02 3d 5d 50 83 bb fc 48 b3 3a a0 e1 46 ba
       0.03181359 -0.004007383 0.0013678367 -0.00075867213
000080 13 40 2c bd 08 35 01 3d da 67 49 3d 42 38 91 bc
       -0.042053293 0.031544715 0.049171306 -0.017727021
000090 71 f7 bb 3d e8 61 eb 3b be 10 f9 3c 73 61 ce 3b
       0.09178055 0.007183302 0.030403491 0.006298238
0000a0 01 b0 97 bd b8 86 e4 bc 7d d6 8e bd 33 4b 80 bc
       -0.07406617 -0.02789627 -0.06974504 -0.015660858
0000b0 dd a6 55 bc 51 59 1c bc d8 b2 24 bd cc 6b 38 3c
       -0.013040272 -0.009542779 -0.04020962 0.0112561695
0000c0 a8 0a ae 3d 52 26 d4 3c 94 4d 8b bc 2b 30 d2 3c
       0.08498126 0.025897179 -0.017004766 0.025657734
0000d0 db 70 7c bd bc 9c 99 bc 4a 01 b7 3d 56 b5 5e 3c
       -0.061631065 -0.018751495 0.08935793 0.013593039
0000e0 fc 9f b0 bb 8f 7f 39 3d c4 1d be 3d e5 8b 64 3d
       -0.0053901654 0.045287665 0.09283021 0.055797476
0000f0 98 fe 4b 3c 5a 04 23 bd 97 b4 5b bd ae 03 ab 3d
       0.012450837 -0.03979907 -0.05363902 0.08350311
000100 bd 2e 84 3d 1c 3c fa 3b d6 8f 04 bd b7 c6 81 3c
       0.06454227 0.00763656 -0.032363735 0.015841825
000110 a6 01 41 bd 74 85 93 3d 79 4c 42 bc d4 56 91 bd
       -0.047120713 0.072031885 -0.011859053 -0.07096639
000120 f0 0d 11 3d e8 76 93 39 4f a1 64 bd e2 56 89 ba
       0.035413682 0.00028126617 -0.0558179 -0.0010478164
000130 86 65 36 3c 53 74 ce bc 7e 1b b1 bc 0b 2c ca 3c
       0.0111326035 -0.025201952 -0.021619555 0.024679204
000140 ea 55 d1 3c e3 23 53 bd 45 82 10 bd d2 33 04 bd
       0.025553662 -0.051547896 -0.035280485 -0.032275982
000150 8d 80 b3 3c 94 83 12 bc 87 e1 33 bc 44 53 4f 3d
       0.021911884 -0.0089425035 -0.010979063 0.050616518
000160 a1 ec 63 3d 9e 9c 68 bc aa c1 8a 3b 96 80 81 3d
       0.05564559 -0.014197497 0.0042345123 0.06323354
000170 64 c7 62 3d 73 3b 80 3d c9 41 50 3b a9 7e 02 3e
       0.055365935 0.06261339 0.0031777492 0.1274363
000180 ae a6 1f bd 7d 8e 0c bd e3 12 be 3d 78 e2 90 bd
       -0.038977318 -0.034315575 0.09280946 -0.070744455
000190 fb 44 8f 3c a0 4a 41 bd 16 a8 e5 bc 88 ca 24 bd
       0.017488947 -0.04719031 -0.028034251 -0.04023221
0001a0 e7 1a d8 3c 15 3c 5e 3b cb 56 9f bc 34 97 2b bb
       0.026380016 0.0033910323 -0.019450566 -0.0026182653
0001b0 aa 77 a0 3d 94 e5 59 3c e1 4b 15 bd ec 02 ea 3c
       0.07835324 0.013299365 -0.036449317 0.028565846
0001c0 fe 81 2d bc 88 e2 11 3c 16 3d 4a bd e2 d7 02 3c
       -0.010590075 0.008904107 -0.049374662 0.007986041
0001d0 1f 41 9f 3d 78 a7 7f 3c 1a 5e d5 3c ea b5 9b 3c
       0.07776093 0.0156038925 0.026045848 0.019007642
0001e0 12 28 b1 bc 7f bb 45 bd 90 86 6e 3d be 50 6c bb
       -0.021625552 -0.048274513 0.058233798 -0.0036058868
0001f0 29 90 01 bd f7 6d 91 3c 0f 18 fa bc ff ff 3e 3d
       -0.031631622 0.01775263 -0.03052905 0.046630856
000200 e1 d2 85 3d 74 be 4e bd 7f af bf 3d 13 03 92 bb
       0.065343626 -0.0504746 0.09359645 -0.004455933
000210 85 2f 69 3d 6b bd f3 bc b6 d6 26 3b ea 56 9a bb
       0.056930084 -0.029753407 0.0025457568 -0.004710068
000220 c5 c0 3a 3d 54 55 2f bd f4 fb b7 3d db 6f a6 3c
       0.045593996 -0.042805985 0.08983603 0.020317009
000230 7d 01 16 3d 5b dc e3 3d 1b 99 45 bd e4 1c e9 bc
       0.036622513 0.11126014 -0.048241716 -0.028456159
000240 e0 8a 47 3d eb c1 a1 3d d1 2e 59 3d 37 81 32 bd
       0.048716426 0.07898315 0.053023163 -0.04358026
000250 13 e9 8d 3c 4f 34 c2 bc 6f 3c cd bc 09 f1 c9 bc
       0.017323053 -0.023706583 -0.025053231 -0.024651067
000260 3e 50 4b bc 3e 50 27 bd 91 98 4c bc 23 7c bc bc
       -0.012409268 -0.04084801 -0.012487547 -0.023008412
000270 6f 7d 22 3d 95 ef 5a 3d 36 26 98 bd 67 d2 9e bc
       0.039670404 0.05345114 -0.07429163 -0.019387437
000280 ea 89 1b bd b5 2f 49 bc d6 60 05 bb 6f f0 2c bd
       -0.037973322 -0.012279441 -0.0020351908 -0.042221483
000290 06 14 d9 bc 74 42 9b 3d 26 2d 1d 3d f9 86 8e 3c
       -0.026498806 0.07581034 0.038373135 0.017398344
0002a0 e1 46 6e 3b 72 fa a0 3d f9 1e bb bc 66 2c 63 bd
       0.0036358165 0.07860269 -0.022841917 -0.055462264
0002b0 b8 30 46 3c 46 25 67 3d ea 9e 93 3d 9d 70 84 3b
       0.012096576 0.05643203 0.07208045 0.004041745
0002c0 b9 5e eb bc 3e 6f 95 bb 2e ca ab bc 26 71 d8 bc
       -0.02873169 -0.0045603802 -0.02097043 -0.02642114
0002d0 eb 3f 7a 3d 84 1a d1 bc 96 4f 3e 3d 32 4b 28 bb
       0.061096113 -0.025525339 0.046462618 -0.0025679586
0002e0 65 1f a3 bc b0 b0 d1 bb 52 3c 53 bb 78 0d 51 3c
       -0.019912431 -0.0063992366 -0.0032231999 0.012759559
0002f0 0d ec 91 bc 14 ed 01 3d 9e 8c 56 bd 5b ca fe bb
       -0.017812753 0.031720236 -0.052380197 -0.0077755875
000300 9e c3 82 3d 9f ec 97 3c 92 45 62 bd 66 54 a2 3c
       0.06384967 0.018545447 -0.05524213 0.019815635
000310 6d 78 4e bb 81 f2 51 3d fd 0a 56 3d 40 b5 71 3c
       -0.0031504885 0.05125666 0.052256573 0.014752686
000320 24 ea ad 3c 66 80 cc 3b fe 73 3a 3d ff 89 94 3d
       0.021229811 0.006240892 0.045520775 0.07252883
000330 d9 b1 31 bd 53 55 c9 bc d9 ff 09 bc 1a bf 28 3c
       -0.0433825 -0.024576819 -0.008422815 0.010299468
000340 33 8d d7 bc e9 4b 16 bd 80 ee 19 3d 67 65 9c bc
       -0.026312446 -0.036693487 0.037580967 -0.019091321
000350 a0 54 49 bd c1 b9 41 bc f5 d3 45 bd 1d 55 7f bd
       -0.04915297 -0.011824072 -0.04829784 -0.06233703
000360 8c e3 a5 bc f1 2b 8b bc 2a e4 a5 3b 90 e1 35 3c
       -0.020250104 -0.016988726 0.0050625997 0.011101142
000370 d2 aa aa 3a ed 75 5a 3d b0 a5 23 bd be 29 a4 bb
       0.0013020879 0.05333512 -0.039952934 -0.005009859
000380 0b 50 17 3d 30 69 2d bd b7 7f c8 bb 80 d8 63 bc
       0.03694157 -0.042336643 -0.0061187404 -0.013906598
000390 4b c3 b2 3a 1d bf cd 3c 15 40 0a 3d be 15 3c bd
       0.0013638524 0.025115544 0.03375252 -0.045919172
0003a0 ab a8 84 bd 41 14 34 3b 90 f9 87 3d 81 cf 6d bd
       -0.06477483 0.0027477893 0.06639397 -0.05805922
0003b0 6a cd 90 3d db 12 23 3d cb c4 b6 3c c3 75 fc 3c
       0.070704296 0.039812904 0.022310635 0.030817872
0003c0 fd 44 f4 bb c5 eb 04 bd f8 ca 93 bd 3c e1 d3 3b
       -0.007454513 -0.03245141 -0.072164476 0.006466059
0003d0 e4 1d ae 3b 55 27 d1 3c b4 06 fb 3c 29 7c 8e bd
       0.005313622 0.02553145 0.030642845 -0.069572754
0003e0 e2 cf a0 ba 3d 6a 37 bc 72 56 54 bc 39 6c 13 3c
       -0.0012268985 -0.011194763 -0.012960063 0.00899797
0003f0 85 3b 13 3c 72 22 d2 3c ab f9 11 3d 0c 9a c0 3c
       0.0089863585 0.02565119 0.035638493 0.023510955

action_model._continuous_distribution.mu.bias f4 [2]
000000 c2 b9 46 bc 2a 65 48 3d
       -0.012129249 0.048924603
