results/MultipleTargetFloatingText/AgentControl/AgentControl-13312.pt (torch, 602906 bytes, 39 tensors)

network_body._body_endoder.seq_layers.0.weight f4 [128, 57]
0	0xbe04bc75	-0.12962516
1	0x3d899548	0.06717926
2	0xbd33e8f5	-0.043923337
3	0x3d9e3d13	0.07726493
4	0x3d9714ba	0.07377
5	0x3e88ab0d	0.26693
6	0x3e27bd50	0.1638081
7	0xbc562ad0	-0.013071731
8	0x3e879f91	0.26488927
9	0xbd24718c	-0.04014735
10	0xbd96260b	-0.07331475
11	0x3d96751e	0.07346557
12	0xbe360e5d	-0.17778917
13	0x3d4d5dc1	0.05013824
14	0xbcb34c10	-0.021886855
15	0xbd6ce2f0	-0.057833612
16	0xbe882980	-0.26594162
17	0x3bb8d5ec	0.005640736
18	0x3d581d5c	0.052762374
19	0x3cb89d42	0.022535924
20	0xbe5e1838	-0.21688926
21	0x3d4a3179	0.049363587
22	0x3c71d43f	0.014760076
23	0x3e31481e	0.17312667
24	0xbdf45637	-0.11930507
25	0x3cfee7db	0.031116417
26	0x3e324e0a	0.17412582
27	0xbd68f768	-0.05687657
28	0x3d8c97bd	0.06864879
29	0x3c714676	0.014726272
30	0xbd4f768d	-0.05065017
31	0xbd94e8a6	-0.07270937
32	0x3dffb43d	0.124855496
33	0xbe6eb421	-0.23310901
34	0x3d606ff6	0.054794274
35	0x3da5de62	0.08099057
36	0x3db61cf6	0.088922426
37	0xbd57ec1b	-0.052715402
38	0xbe22df17	-0.15905415
39	0x3d2469a2	0.0401398
40	0xbe5e9547	-0.21736632
41	0x3dcb0311	0.09912694
42	0xbc5fce47	-0.01366002
43	0x3bc9606e	0.0061455285
44	0xbe385244	-0.18000132
45	0xbeaa70ce	-0.33289188
46	0x3e52572d	0.20541067
47	0x3e3eb570	0.186239
48	0x3d5c5dc4	0.05380036
49	0xbe30dde1	-0.1727214
50	0xbc4414d1	-0.011967854
51	0xbe08c5c0	-0.13356686
52	0x3eee1ce0	0.46506405
53	0x3ca29aad	0.019849146
54	0x3d3363ce	0.043796353
55	0x3d47cabe	0.048777334
56	0x3df66f63	0.12032964
57	0xbe34b656	-0.1764768
58	0xbe6470db	-0.22308676
59	0x3de069cb	0.109576784
60	0x3e475169	0.1946465
61	0xbe5444b4	-0.20729333
62	0x3e38770f	0.18014167
63	0xbd366f5f	-0.044539806
64	0x3db6744d	0.08908901
65	0x3e2a088b	0.16604821
66	0xbe99288b	-0.29913744
67	0x3e0ebdbf	0.1393957
68	0x3e07f7ae	0.13278076
69	0x3e5b3c85	0.21409805
70	0xbe2ead17	-0.17058216
71	0xbd0baaa7	-0.034098294
72	0x3dffac24	0.12484005
73	0xbd782395	-0.06058081
74	0xbcf8e462	-0.030382339
75	0xbd198169	-0.03747693
76	0x3e70891e	0.23489806
77	0x3e81d3e1	0.25356963
78	0xbc2e2463	-0.010628792
79	0xbe14693a	-0.14493266
80	0xbde9c8b8	-0.11415237
81	0xbe8d7499	-0.2762802
82	0x3e02ce7f	0.12774085
83	0xbca9412c	-0.02066096
84	0xbdda79f9	-0.10667796
85	0xbe1b7d54	-0.15184528
86	0x3da9d139	0.08291859
87	0xbdf74a9b	-0.12074777
88	0xbdedfd8e	-0.11620627
89	0xbadc0f3f	-0.0016789212
90	0x3d970ef3	0.07375898
91	0xbd9423ca	-0.07233389
92	0xbd417f54	-0.04724057
93	0x3d695bda	0.056972362
94	0xbd22c4e7	-0.039738562
95	0x3d224b7b	0.039622765
96	0x3db2b04d	0.08725033
97	0x3e32df1e	0.17467925
98	0x3de2bb1c	0.110708445
99	0xbd598abe	-0.05311083
100	0xbd6cbe70	-0.057798803
101	0x3e4475c8	0.19185555
102	0x3dd829ff	0.10554885
103	0x3e9645cb	0.29350123
104	0x3d3af40e	0.045642905
105	0x3df04436	0.1173176
106	0xbb6c8514	-0.0036090063
107	0x3d0ae919	0.033913705
108	0x3c320a0a	0.010866651
109	0x3d46491a	0.04840956
110	0x3e325eab	0.17418925
111	0xbd34d05e	-0.044144027
112	0x3e696964	0.2279411
113	0x3e3307eb	0.17483489
114	0x3d294cf8	0.04133317
115	0xbea27561	-0.31730178
116	0xbe40c52b	-0.18825214
117	0x3d25a0d5	0.040436585
118	0xbe26be02	-0.1628342
119	0x3a8f0d9a	0.0010914088
120	0xbe1eb097	-0.15497051
121	0x3dd9f3cd	0.106422044
122	0xbc6b62a2	-0.014366778
123	0x3cf1e665	0.029528806
124	0x3de5d41a	0.11222096
125	0x3e26bc25	0.16282709
126	0x3dd8bb8c	0.10582647
127	0x3e1aec4e	0.15129206
128	0xbcbc498c	-0.022984289
129	0xbdd7326d	-0.10507665
130	0xbd2b0204	-0.04174997
131	0xbcfac8a1	-0.030613245
132	0x3dca62a8	0.098820984
133	0x3d8d7be2	0.069083944
134	0x3e6f24f8	0.23353946
135	0xbd82570f	-0.06364261
136	0x3e6ff40d	0.23432942
137	0xbdecd88a	-0.11564739
138	0x3e1fab53	0.15592699
139	0x3d5a0df6	0.05323597
140	0x3dbf231f	0.09332871
141	0x3dcad1f2	0.09903325
142	0x3d357c79	0.04430816
143	0xbe3939b3	-0.18088417
144	0x3e7476e1	0.23873474
145	0x3d0e2004	0.0346985
146	0xbd45caae	-0.048288994
147	0x3e47bb6e	0.19505093
148	0x3d333d1e	0.043759458
149	0x3e115f12	0.14196423
150	0x3d854e13	0.06509032
151	0x3dd5f7dd	0.10447667
152	0x3cd4d665	0.025981138
153	0x3dec3ad6	0.115346596
154	0x3d369fe3	0.044586074
155	0x3e60c9c0	0.21951962
156	0xbe40bc17	-0.1882175
157	0xbd049a7c	-0.03237389
158	0x3d8b8631	0.06812704
159	0x3de8d11d	0.1136801
160	0x3dd259f8	0.102710664
161	0xbe1896d5	-0.14901288
162	0xbd7440cf	-0.05963212
163	0x3e1247f5	0.14285262
164	0xbe7a58d6	-0.2444795
165	0xbde301b3	-0.110843085
166	0xbe21e455	-0.15809758
167	0x3ca532f0	0.02016589
168	0xbcffd168	-0.031227782
169	0x3dfb0b1e	0.1225798
170	0x3d7d318a	0.061814822
171	0x3d2a8209	0.041627917
172	0xbe179b57	-0.14805351
173	0x3d6d38e3	0.05791558
174	0x3d7a7420	0.0611459
175	0xbe3b9ddc	-0.18321937
176	0xbe0e663f	-0.13906191
177	0x3e30ad14	0.17253524
178	0xbcc93842	-0.024562959
179	0xbddd389d	-0.10801814
180	0xbd0793ea	-0.033100046
181	0xbe157531	-0.14595486
182	0xbe77a0ca	-0.2418243
183	0xbd0fa24f	-0.0350669
184	0x3d9b4cfd	0.07583044
185	0x3d073751	0.03301174
186	0xbce5bf43	-0.028045302
187	0xbe324664	-0.17409664
188	0x3dd3e5a9	0.103465386
189	0x3dc435d5	0.0958058
190	0xbe42ebc2	-0.19035247
191	0xbe7505f0	-0.23928046
192	0x3cad84e4	0.021181531
193	0xbe261268	-0.16217959
194	0x3d78e5d2	0.06076605
195	0xbbf6bd38	-0.007529881
196	0xbd505d19	-0.050870035
197	0x3ddcc233	0.10779228
198	0x3ee45f42	0.44603926
199	0x3cdf9082	0.027290586
200	0x3dcb641e	0.09931205
201	0xbe1907ab	-0.14944331
202	0x3e16ad6f	0.14714597
203	0xbd869655	-0.06571642
204	0x3d1ed966	0.038781546
205	0x3e018712	0.12649181
206	0xbd526e72	-0.05137486
207	0xbdc0b3fe	-0.09409331
208	0xbdfde065	-0.123963155
209	0xbd8b805f	-0.06811594
210	0xbd703465	-0.058643717
211	0x3dbf0df0	0.0932883
212	0x3e23d4b4	0.15999109
213	0xbdb7b0c4	-0.08969262
214	0xbd5c89f3	-0.053842496
215	0xbea42620	-0.32060337
216	0x3e09216a	0.13391653
217	0x3d92fe70	0.07177436
218	0xbd466022	-0.048431523
219	0xbd9f5458	-0.07779759
220	0x3e13797b	0.1440181
221	0x3dc14231	0.09436453
222	0xbd958e61	-0.07302547
223	0x3dce94bb	0.10086962
224	0xbdd41002	-0.10354616
225	0xbd8b4ae0	-0.06801391
226	0x3d875038	0.066070974
227	0x3ce1268e	0.027484205
228	0xbdaa978c	-0.083296865
229	0xbe48a124	-0.1959272
230	0xbdd0ab7e	-0.101889595
231	0xbe4f3e10	-0.20238519
232	0xbe0faa6f	-0.14029859
233	0xbe2a073c	-0.16604322
234	0x3e0f0731	0.13967587
235	0xbd843ec5	-0.06457285
236	0xbc274c29	-0.010211029
237	0xbdd2dcdb	-0.10296031
238	0x3c5419ac	0.012945574
239	0x3da0fed3	0.07861104
240	0x3d86c68b	0.06580838
241	0x3d91c53d	0.07117698
242	0x3daadb69	0.083426304
243	0xbc6e78d0	-0.014555171
244	0x3d8d5122	0.069002405
245	0x3e56d784	0.2098065
246	0xbeabc900	-0.33551788
247	0x3d98daf4	0.07463637
248	0xbe82940f	-0.25503585
249	0xbcb9be50	-0.022673756
250	0xbe4f6bce	-0.20255968
251	0xbe30a9f8	-0.17252338
252	0xbdb0b434	-0.08628121
253	0x3dda7a1c	0.10667822
254	0x3e4dfd3c	0.20116132
255	0xbdc771d5	-0.097385086

network_body._body_endoder.seq_layers.0.bias f4 [128]
0	0x3b2bc16b	0.0026207815
1	0xb9e91e41	-0.00044463764
2	0xbb2acb5c	-0.0026061153
3	0xb9735ee0	-0.0002320963
4	0x3b5ee0cc	0.00340085
5	0xbaa91248	-0.0012899125
6	0xbb95db68	-0.0045732744
7	0xbb402fd7	-0.002932539
8	0xbb95f5f6	-0.00457644
9	0xbb2f4faf	-0.0026750376
10	0xbb2fbd1f	-0.0026815606
11	0xbb901011	-0.0043964465
12	0x3b4450cb	0.0029955383
13	0xba1dd5a6	-0.0006020911
14	0x3b2770d1	0.0025549422
15	0xbb6c7133	-0.0036078214
16	0x3af4e72c	0.0018684617
17	0x3a8f4b22	0.0010932426
18	0x39e1fbd4	0.0004310297
19	0xb9b2d5b8	-0.00034110039
20	0xbabb4b23	-0.001428936
21	0xbb3e094c	-0.002899724
22	0xbb8eb23e	-0.004354744
23	0x3b98d9fd	0.004664658
24	0x3a97dc0f	0.0011585968
25	0xbb90a62b	-0.00441434
26	0xbb6a6506	-0.003576578
27	0xb87a87de	-5.973118e-05
28	0xbb30ca76	-0.0026976145
29	0xbb4a96ab	-0.003091256
30	0xbb701de4	-0.003663891
31	0x3b812c8f	0.0039420794
32	0xbb776087	-0.0037746744
33	0xbaac9c69	-0.0013169172
34	0xbb21e723	-0.0024704419
35	0x3acbc3b2	0.0015545993
36	0xba6be3b4	-0.0008998469
37	0x3b12ee98	0.0022420045
38	0xbb0582ee	-0.002037223
39	0x3b8c0853	0.0042734533
40	0x3b14e42a	0.0022719004
41	0xba5ea40b	-0.0008493072
42	0xbaa3be71	-0.0012492669
43	0x38f508d8	0.00011684158
44	0x3b266705	0.0025390994
45	0x3995474f	0.00028472624
46	0x3a8145b0	0.0009862687
47	0x3b7e1cb8	0.0038774442
48	0xbb0e541c	-0.0021717614
49	0x3b49dd21	0.003080197
50	0xbb87a1b8	-0.0041391514
51	0x3b1b39ef	0.0023685654
52	0xbb8797bb	-0.0041379607
53	0xbb8c12f6	-0.0042747213
54	0x3b40b766	0.002940619
55	0xb9ffb893	-0.0004877491
56	0xbb80cac0	-0.0039304197
57	0x3af52f98	0.0018706201
58	0xbb6b281d	-0.0035882064
59	0xbb29a083	-0.0025883026
60	0xbb8593b0	-0.0040764436
61	0x39b30c44	0.0003415068
62	0x39a53859	0.00031513235
63	0xbaf928b6	-0.0019009325
64	0x3afa9283	0.001911715
65	0x3a5b6aee	0.0008370121
66	0xbae5ccac	-0.001753231
67	0xbb57aea5	-0.0032910493
68	0x3aef925a	0.0018277869
69	0x3aed2af0	0.0018094461
70	0x3b089371	0.0020839835
71	0xbb2e49c0	-0.0026594251
72	0x3b26f0f8	0.0025473218
73	0xbb90c1c9	-0.0044176322
74	0x3b34f96a	0.0027614483
75	0xbba5a0bd	-0.005054562
76	0x3b38091b	0.00280816
77	0x3a5b6fb8	0.00083708344
78	0x39b02463	0.00033596446
79	0x3b973c19	0.0046153185
80	0x3b868274	0.0041049067
81	0x3b3c4496	0.0028727404
82	0x3ae3b4da	0.0017372624
83	0x3b818f04	0.0039538164
84	0xbb32e540	-0.0027297288
85	0x3ab79532	0.0014006256
86	0x3ac89e72	0.001530601
87	0x3b89c736	0.004204656
88	0x3b69d358	0.003567895
89	0xba1fc8d1	-0.00060952926
90	0x3ab1b75a	0.0013558671
91	0x3abfd542	0.0014635699
92	0x3ba63ed0	0.005073406
93	0xba75ac72	-0.00093717047
94	0x37c41f84	2.3379696e-05
95	0x3bc04691	0.005867787
96	0xba2fc871	-0.00067055883
97	0xbabeb0cd	-0.001454854
98	0x3aa70c09	0.0012744676
99	0x3b20d373	0.0024540096
100	0x3b40806e	0.0029373425
101	0x3b91cca8	0.0044494458
102	0x3adcf6cf	0.0016858223
103	0x3b595e1c	0.0033167666
104	0x3b82eef8	0.0039957725
105	0xbb7c3d01	-0.003848851
106	0x3b1161a8	0.0022183452
107	0xbb024200	-0.0019875765
108	0xbb9a2a07	-0.004704717
109	0x3b39fd5f	0.002837978
110	0x3b59ffe3	0.0033264093
111	0xbb4e3e23	-0.0031470142
112	0x3b1031bc	0.00220023
113	0x3b28ee41	0.0025776776
114	0x3b5b372a	0.0033449628
115	0xb9d7898a	-0.0004111047
116	0xba696598	-0.0008903383
117	0x3938c09d	0.00017619361
118	0xbb065d24	-0.0020502293
119	0xbb5f485b	-0.0034070227
120	0xbb662cdc	-0.0035121953
121	0x3b84bd56	0.004050891
122	0x3ba1afcc	0.0049342867
123	0x3b8525e0	0.004063353
124	0xbb5f1964	-0.0034042234
125	0x3b652166	0.0034962534
126	0x3b28e3a0	0.002577044
127	0xbb665d12	-0.003515069

network_body._body_endoder.seq_layers.2.weight f4 [128, 128]
0	0xbd858655	-0.065197624
1	0xbd8fbcbb	-0.07018419
2	0x3c1755a5	0.009236728
3	0x3dc1c2ef	0.09461009
4	0x3d2dac24	0.042400494
5	0x3cb4d6e9	0.022075133
6	0xbcbcfef2	-0.023070786
7	0xbd2c8e5f	-0.042127963
8	0xbd56a5b7	-0.05240413
9	0x3d8905ea	0.06690581
10	0x3c450e0b	0.012027274
11	0x3dc8907f	0.097931854
12	0x3d8c842e	0.06861149
13	0x3d923252	0.07138504
14	0xbd89c902	-0.06727792
15	0xbd98a6ef	-0.07453715
16	0x3ccae326	0.024766516
17	0x3df1b719	0.11802501
18	0x3dae29f8	0.08504099
19	0x3dad7e0c	0.08471307
20	0xbcc06a7c	-0.023488276
21	0xbd02e9f4	-0.031961396
22	0x3d538195	0.05163725
23	0xbc8b5d02	-0.017012123
24	0xbdaf7fdd	-0.0856931
25	0xbe037f72	-0.12841585
26	0xbe304612	-0.1721423
27	0x3d1c69f5	0.038186986
28	0x3cad13d1	0.021127613
29	0x3d0c503c	0.034256205
30	0x3b1d9d6b	0.0024050127
31	0xbd7498d6	-0.05971607
32	0x3cae6411	0.02128795
33	0x3d1eb50b	0.038746875
34	0xbe021781	-0.12704279
35	0x3e461ae5	0.19346197
36	0x3dbb7610	0.09153378
37	0xbe147eec	-0.14501542
38	0xbd219386	-0.03944733
39	0x3e65f723	0.22457556
40	0xbd730cc3	-0.059338342
41	0x3d6c72dd	0.05772673
42	0xbdc6e00f	-0.097107045
43	0x3d4754a7	0.048664715
44	0xbdcffdd2	-0.10155834
45	0xbd993146	-0.07480101
46	0x3e0ebf56	0.13940176
47	0x3d46c4a8	0.04852739
48	0xbd10888d	-0.035286475
49	0xbbd0ff31	-0.0063780774
50	0x3dafd977	0.085864
51	0x3e024cf4	0.12724668
52	0x3dc56cbb	0.09639879
53	0xbdea5403	-0.11441805
54	0x3e159be8	0.14610255
55	0x3cd3836c	0.025819503
56	0x3dd76aff	0.10518455
57	0x3b451a27	0.0030075402
58	0xbd554924	-0.052071705
59	0xbd3ce491	-0.046116415
60	0xbe2db3e9	-0.16963162
61	0x3cf8a214	0.030350722
62	0x3d2eb031	0.042648498
63	0xbd3df6a9	-0.04637781
64	0xbd5c5761	-0.05379427
65	0xbcc25302	-0.023721222
66	0x3d17499f	0.036935445
67	0xbd11fddc	-0.03564249
68	0x3d243748	0.040091783
69	0x3dcff39c	0.10153887
70	0x3c09e84b	0.008417199
71	0xbe4c6b89	-0.19962896
72	0x3dc5d428	0.09659606
73	0x3d40dad1	0.04708368
74	0xbd8e92e7	-0.06961613
75	0x3db0152b	0.085977875
76	0xbd6f89f4	-0.05848117
77	0xbdf53626	-0.119732186
78	0x3d9f8cab	0.07790502
79	0x3d19d586	0.037557147
80	0x3ce5616c	0.028000556
81	0x3e1d16a4	0.15340668
82	0x3c10cae3	0.008837434
83	0xbd132a8b	-0.035929244
84	0xbcf40edf	-0.029792247
85	0xbccc1937	-0.024914367
86	0xbdeaca4c	-0.11464366
87	0xbe046e75	-0.12932761
88	0xbdebfff2	-0.11523427
89	0x3d12d42a	0.035846867
90	0xbd8c221e	-0.06842445
91	0xbd011cab	-0.03152148
92	0xbd9e76db	-0.07737514
93	0x3de2e16b	0.11078151
94	0xbd3bd8b7	-0.045860972
95	0x3deec869	0.11659319
96	0xbdd73cf4	-0.10509673
97	0xbe731d12	-0.23741558
98	0x3be842ff	0.0070880647
99	0xbc842fae	-0.016136017
100	0x3d8afbb5	0.067862906
101	0x3dcbe056	0.09954898
102	0xbe259029	-0.16168274
103	0x3e231b0a	0.15928283
104	0x3d51e1ee	0.051240854
105	0xbba0b6f9	-0.0049046245
106	0x3e343c0c	0.17601031
107	0xbd68b47a	-0.05681274
108	0xbd98d180	-0.07461834
109	0x3db0786b	0.08616718
110	0x3d686192	0.056733675
111	0x3c2761a6	0.010216152
112	0xbd1358a5	-0.03597321
113	0xbcdcc327	-0.026948525
114	0xbd547bb5	-0.05187579
115	0xbe207f44	-0.15673548
116	0xbd9b316d	-0.075777866
117	0x3d41d0d7	0.047318306
118	0xbd698db6	-0.05701991
119	0xbd706204	-0.058687225
120	0xbdd1b4ae	-0.1023954
121	0xbcfa5888	-0.030559793
122	0x3d04edc6	0.03245332
123	0x3e3b122b	0.1826865
124	0xbd53561f	-0.051595803
125	0x3cd2ddb5	0.025740484
126	0xbbfcc286	-0.0077136187
127	0xbdeb3c6a	-0.114861324
128	0x3d9a51f6	0.07535164
129	0xbcbb891b	-0.022892525
130	0xbd7411b1	-0.059587184
131	0x3c2f7774	0.010709632
132	0x3db7ad15	0.0896856
133	0xbc4888d4	-0.012239654
134	0xbdd3ff2f	-0.10351407
135	0xbd9a2a2a	-0.075275734
136	0xbd0650ac	-0.03279178
137	0x3e5d731b	0.2162594
138	0xbd1686cf	-0.036749657
139	0x3e0793d8	0.13239992
140	0x3e487bef	0.19578527
141	0x3bd2eff0	0.006437294
142	0xbaf58453	-0.0018731452
143	0xbbaf840f	-0.005356319
144	0xbd1b2615	-0.037878115
145	0x3ca582f1	0.02020404
146	0xbe0770bc	-0.13226599
147	0xbcca802d	-0.024719322
148	0x3e37cac2	0.1794844
149	0x3cfac88a	0.030613203
150	0xbe0f18c3	-0.1397429
151	0xbdce2ca2	-0.10067107
152	0x3cbf328c	0.023339532
153	0xbe891b9b	-0.26778874
154	0xbca037c7	-0.019557847
155	0x3da407bd	0.080092885
156	0xbd4c27d0	-0.049842656
157	0xbe003956	-0.12521872
158	0xbb7da484	-0.0038702795
159	0xbc01fbfe	-0.007933615
160	0x3d915300	0.07095909
161	0x3e3e675d	0.18594117
162	0xbd90652e	-0.070505485
163	0x3ca4ec13	0.0201321
164	0xbd5ac0a7	-0.053406384
165	0x3d808dba	0.06277032
166	0x3d7777d5	0.060417015
167	0xbdfa2af8	-0.12215227
168	0xbca98ebe	-0.020697948
169	0xbd819eb2	-0.06329097
170	0x3d80e43f	0.062935345
171	0xbda258dc	-0.07927105
172	0xbd40d3e4	-0.047077075
173	0xbdf35794	-0.118819386
174	0x3deb988d	0.11503706
175	0xbbb40175	-0.0054933378
176	0x3ce35f86	0.02775551
177	0xbd97d8ed	-0.07414422
178	0x3d8adccc	0.06780395
179	0xbe777d7b	-0.24168961
180	0xbd366f08	-0.04453948
181	0xbe1701dc	-0.14746803
182	0xbdde8b4d	-0.10866413
183	0xbda62431	-0.08112372
184	0x3d9d6c3d	0.076866604
185	0x3cbfd910	0.023418933
186	0xbc681c1f	-0.014166861
187	0x3d5c445a	0.053776123
188	0x3d07c4ee	0.03314679
189	0xbd6e2c42	-0.058147676
190	0x3dcaf770	0.09910476
191	0xbde77aed	-0.11302743
192	0xbd1335a4	-0.035939828
193	0xbd2564f9	-0.0403795
194	0x3d2cc3a5	0.04217877
195	0x3d36dfba	0.044646956
196	0xbd330af7	-0.04371163
197	0x3dc20aaf	0.09474694
198	0x3caf8b30	0.021428674
199	0x3b6e8781	0.0036396685
200	0x3db74bba	0.089499906
201	0x3e399a20	0.181252
202	0xbdd9c610	-0.106334805
203	0xbd3ea51d	-0.046544183
204	0x3da411c5	0.08011202
205	0xbb39fffb	-0.0028381336
206	0x3de92131	0.11383284
207	0x3d22b4f8	0.039723366
208	0x3d88cc06	0.066795394
209	0x3d1ec3d6	0.038760982
210	0xbc3171e5	-0.010830377
211	0xbda4b19a	-0.08041687
212	0xbad068cd	-0.0015900374
213	0x3d9a1cb3	0.07525005
214	0xbd35b57c	-0.04436253
215	0xbbf419bb	-0.0074493564
216	0xbdd287c9	-0.10279805
217	0x3e14d2f4	0.14533597
218	0x3c630f88	0.013858683
219	0x3d8166c2	0.063184276
220	0xbbaf5039	-0.0053501395
221	0x3d72791c	0.05919753
222	0xbcd32daf	-0.02577862
223	0x3b6f2ff9	0.00364971
224	0x3cf5c37a	0.030000437
225	0xbd4e60cd	-0.050385285
226	0x3bb67bc6	0.005568954
227	0xbe1c527e	-0.15265843
228	0xbe0ba031	-0.13635327
229	0x3d250f1e	0.04029762
230	0xbdcaac78	-0.09896177
231	0xbc53589c	-0.012899544
232	0x3d11c660	0.035589576
233	0xbcca7d7c	-0.024718039
234	0x3dd71afb	0.10503193
235	0x3e86729e	0.2625932
236	0x3e4f1a23	0.20224814
237	0x3c2267b7	0.009912423
238	0x3d9671fd	0.0734596
239	0xbd3d100a	-0.046157874
240	0xbded2eb1	-0.11581171
241	0xbdf68a31	-0.12038077
242	0xbdaa2ea8	-0.0830968
243	0x3da7d48d	0.08194838
244	0x3d97cadb	0.074117385
245	0xbc48d38f	-0.012257471
246	0xbe8878c2	-0.2665463
247	0x3ce967d0	0.028491884
248	0x3c48a6ac	0.012246769
249	0xbb213cb2	-0.0024602828
250	0x3d9e662d	0.07734332
251	0x3e209197	0.15680538
252	0xbca71eb0	-0.020400375
253	0x3cb6d341	0.02231753
254	0xbd8d3974	-0.06895724
255	0x3d4af2ab	0.049547832

network_body._body_endoder.seq_layers.2.bias f4 [128]
0	0x3b954fbe	0.004556625
1	0xbb908841	-0.004410774
2	0x38eb3fcc	0.00011217556
3	0xbb9ab7f9	-0.0047216383
4	0x3b1b15a4	0.0023664022
5	0xbb59fd1a	-0.0033262433
6	0xbb69280c	-0.0035576848
7	0xb9996691	-0.00029258852
8	0xbb8f5044	-0.004373582
9	0x3b775ebc	0.0037745675
10	0xba345150	-0.00068785716
11	0xbacd4199	-0.0015659808
12	0xbb86efd8	-0.004117947
13	0x3b79d5e5	0.0038121876
14	0x3b1ee826	0.0024247258
15	0x3aa3f846	0.0012509904
16	0x3b55f2df	0.0032645983
17	0x3a1ad11c	0.00059057935
18	0xbb403695	-0.0029329408
19	0x39fa02e0	0.00047685858
20	0x3b844fcf	0.0040378342
21	0x3b19c5fa	0.002346395
22	0xba80c523	-0.0009824376
23	0xbb27645e	-0.0025542001
24	0x3b2a38a4	0.0025973702
25	0x3b3be684	0.0028671334
26	0xbb880c00	-0.004151821
27	0x3b3674c1	0.0027840587
28	0x3adfd70f	0.0017077642
29	0x3a2b95a5	0.0006545431
30	0xbb2816cb	-0.0025648351
31	0x3b793b20	0.0038029626
32	0x3b2bcd6c	0.002621497
33	0x3b6536d3	0.0034975305
34	0x3a9b1be8	0.0011833878
35	0xbb8f5803	-0.0043745055
36	0x3b910d4e	0.004426635
37	0xbb52b06a	-0.0032148608
38	0xbb38ebe5	-0.0028216776
39	0xbb427854	-0.0029673772
40	0xba7e6c13	-0.00097054354
41	0xbb7afdde	-0.003829829
42	0x3b831476	0.004000242
43	0x3a4a4f3f	0.0007717497
44	0xb97a2eb5	-0.00023859258
45	0x395eaffa	0.00021237126
46	0x3a787135	0.00094773184
47	0xbb6f5ba5	-0.003652313
48	0xbb7359b5	-0.0037132327
49	0x3b96fc04	0.0046076793
50	0x3b95608d	0.004558629
51	0xbb6021f3	-0.0034199923
52	0x3b8cc0e1	0.004295454
53	0x3b931700	0.004488826
54	0x3ab479c3	0.0013769198
55	0xba522043	-0.00080156716
56	0x3b48be3e	0.0030630971
57	0xbb9208df	-0.004456624
58	0x3a6840dd	0.0008859763
59	0xbb16c675	-0.0023006473
60	0x3ac5645e	0.0015059819
61	0xba7861a0	-0.00094749965
62	0x3aebaf60	0.0017981343
63	0xbb73ea36	-0.0037218458
64	0x3ac88430	0.0015298184
65	0x3b9322ce	0.004490233
66	0xba5f1031	-0.00085091876
67	0x3b1d06ee	0.002396043
68	0x3aca7c20	0.0015448369
69	0x3b1f8d18	0.0024345573
70	0xbb3edd1c	-0.002912349
71	0x3b185e6b	0.0023249637
72	0xbb8f3925	-0.004370826
73	0x3ace4382	0.0015736672
74	0x3b9ae3ee	0.0047268784
75	0xbb91184b	-0.004427945
76	0xbad34b8c	-0.0016120537
77	0x3b4b3279	0.0031005426
78	0xbb869925	-0.0041076117
79	0xbb69e0bf	-0.0035686938
80	0xbb08abca	-0.0020854347
81	0x3b7a2efc	0.0038174978
82	0x3b248fff	0.0025110242
83	0xbb197a71	-0.0023418928
84	0xbb91c354	-0.0044483338
85	0xbb432aec	-0.0029780222
86	0xbb2fe5bf	-0.002683982
87	0x3b1a8132	0.0023575542
88	0xbb04e0a6	-0.0020275502
89	0x3aff19ee	0.0019462684
90	0xbb0d6611	-0.002157573
91	0x3b2268a2	0.0024781604
92	0x3b1dfc95	0.002410685
93	0xbb7b33f5	-0.003833053
94	0x3ad98b92	0.0016597381
95	0x397c4262	0.00024057322
96	0x3b5ac50d	0.0033381612
97	0xbb8a5fc6	-0.004222843
98	0xbb08439b	-0.002079225
99	0xbb2cfe46	-0.0026396676
100	0x3b868982	0.0041057477
101	0x3b923d3d	0.0044628666
102	0x3b93f896	0.0045157177
103	0x3aa107f5	0.0012285697
104	0x3b8b0dcc	0.004243588
105	0xbb8a67ea	-0.0042238133
106	0xbb032473	-0.002001074
107	0xb9c33254	-0.00037230796
108	0x3adc1ad5	0.0016792665
109	0xba6358d0	-0.0008672597
110	0xbb8b1fd8	-0.0042457394
111	0x3b9497ba	0.004534689
112	0xbb724b6b	-0.0036971222
113	0xbb46e689	-0.0030349812
114	0xbb603eb4	-0.0034217061
115	0xbb0075a5	-0.0019601372
116	0x3b0c30f1	0.0021391476
117	0xba696dd0	-0.0008904608
118	0x3b7a81f2	0.0038224426
119	0xbb4b3958	-0.0031009521
120	0x3b28afb0	0.0025739484
121	0xbb881ab9	-0.004153576
122	0x3b8f301f	0.00436975
123	0xbb894935	-0.004189635
124	0xbb5f6f6d	-0.0034093515
125	0xbaa8de88	-0.0012883702
126	0x3b99cbc8	0.004693482
127	0xbb7eb391	-0.0038864354

action_model._continuous_distribution.log_sigma f4 [1, 2]
0	0xb9a4fd2d	-0.00031469148
1	0xb993699c	-0.0002811671

action_model._continuous_distribution.mu.weight f4 [2, 128]
0	0x3cece5c6	0.028918158
1	0xbc2737ec	-0.010206204
2	0xbcad9784	-0.021190412
3	0xbbd6feac	-0.006561121
4	0x3c9884cf	0.018618016
5	0xbc0eea18	-0.0087228045
6	0xbcb0d0ba	-0.021583904
7	0xbd03cffc	-0.03218077
8	0xbb5d2561	-0.0033744203
9	0x3be55d51	0.0069996496
10	0xbc76a208	-0.01505328
11	0x3b5db834	0.0033831717
12	0xbca0e595	-0.019640723
13	0x3cfa3e6b	0.030547341
14	0x3968b441	0.00022192394
15	0xbacd23f3	-0.0015650972
16	0x3ce74d96	0.028235238
17	0xbc37f21c	-0.011227157
18	0xbc038617	-0.008027575
19	0x3a90c45d	0.0011044849
20	0x3c7f57f8	0.015584938
21	0x3ccababa	0.024747241
22	0xbbd4aaf1	-0.0064901044
23	0xbb9df26f	-0.00482016
24	0x3cae3c63	0.021269029
25	0x3c75fcfb	0.0150139285
26	0xbcac0330	-0.020997614
27	0x3ca9a296	0.02070741
28	0xbb9cbaa8	-0.0047829933
29	0xbca81c59	-0.02052133
30	0xbb2ceba0	-0.002638556
31	0x3d069889	0.032860313
32	0xba3d1352	-0.0007212657
33	0x3cb0169a	0.021495152
34	0xbc075078	-0.008258931
35	0xbc17d88e	-0.009267939
36	0x3bf59b81	0.007495344
37	0xbccbd3fc	-0.024881355
38	0xbc67c2fc	-0.014145609
39	0xbd0f9959	-0.035058353
40	0x3bb49994	0.005511472
41	0xbb02152f	-0.0019849052
42	0x3c17aaad	0.009257001
43	0x3c3e010f	0.011596932
44	0x3b2d9b59	0.00264903
45	0xbbe5e036	-0.0070152534
46	0x3cd39f09	0.02583267
47	0xbccc98c7	-0.024975194
48	0xbc815d4f	-0.015791563
49	0x3adceb47	0.0016854786
50	0x3cc9769d	0.024592692
51	0xbcad75eb	-0.021174392
52	0x3c9bde5a	0.019026924
53	0x3bb478d9	0.00550757
54	0xbc5b2f38	-0.013377957
55	0xbb81d142	-0.003961713
56	0x3c15bd3e	0.009139357
57	0xbd1d6040	-0.03842187
58	0x3c8174e5	0.01580281
59	0x3b062d62	0.0020473828
60	0x3c7600a4	0.015014801
61	0x3b917419	0.0044388887
62	0x3c9d3ee1	0.019195022
63	0xbc13febc	-0.009032901
64	0x3d04c400	0.032413483
65	0x3cd86612	0.026415858
66	0x3b85e7e1	0.00408648
67	0x3bc8c3d9	0.0061268625
68	0x3b34c597	0.0027583593
69	0x3c85f6ab	0.016352972
70	0xbcb838e4	-0.022488065
71	0x3caaa7c2	0.020831946
72	0xbb2a15eb	-0.0025953006
73	0x3c454b3e	0.012041865
74	0x3c2b4ed6	0.010455808
75	0xbc8e5da7	-0.017378641
76	0xb8a01209	-7.632754e-05
77	0x3d42ab63	0.04752673
78	0xbc2825b8	-0.010262899
79	0xbcfea00c	-0.031082176
80	0x3bc463ad	0.0059933276
81	0x3c50e74a	0.012750456
82	0xbaec5a85	-0.0018032348
83	0xbd2c0d1f	-0.0420047
84	0xbc689293	-0.014195102
85	0xbc93fdff	-0.01806545
86	0xbc2a172c	-0.010381501
87	0x3b8ba4de	0.004261597
88	0xbc76097b	-0.015016909
89	0x3c70a371	0.014687405
90	0x3b8acfe7	0.0042362097
91	0xb947387b	-0.0001899916
92	0x3afdfb17	0.0019377199
93	0xbc988c09	-0.018621461
94	0xbc8a7ee1	-0.016906204
95	0xbc9cfa3c	-0.01916229
96	0x3ba2a3d8	0.0049633794
97	0xbb5a57bd	-0.0033316456
98	0xbc5b6265	-0.013390158
99	0xbcb33dde	-0.021880087
100	0x3c1fabf9	0.009745591
101	0x3cc2c626	0.023776125
102	0x3c8b080b	0.016971609
103	0xbb714fdb	-0.003682128
104	0x3c0f4158	0.0087436065
105	0xbc9424dd	-0.018083984
106	0xbb769f8d	-0.003763172
107	0x3c63d18c	0.01390494
108	0xba17342e	-0.0005767968
109	0xbccbb439	-0.02486621
110	0xbba5e53e	-0.005062728
111	0x3bbcc3e1	0.0057606553
112	0xbcfac5fd	-0.030611986
113	0xbbd0c8c8	-0.0063715912
114	0xbbee01cd	-0.0072633983
115	0xbcc68cce	-0.024237063
116	0xbb043e5d	-0.0020178773
117	0xbc46ec2a	-0.012141267
118	0x3b96bede	0.00460039
119	0xbbe6a0b2	-0.0070381993
120	0x3cddd43d	0.027078742
121	0xbc98c2be	-0.018647548
122	0x3beba0da	0.007190806
123	0xbcb0bd64	-0.021574683
124	0xbb2ab9bd	-0.002605065
125	0xbbfea9b1	-0.0077716936
126	0x3cb9cbd7	0.022680206
127	0xbd49d8be	-0.049278967
128	0x3c833b4c	0.016019486
129	0xbb94d4ee	-0.0045419848
130	0x3d141d66	0.03616085
131	0xbc1ecbf5	-0.009692182
132	0xbad064b0	-0.0015899148
133	0x3ae62cbb	0.0017560938
134	0xbd04eae7	-0.032450583
135	0x3d2af5aa	0.04173819
136	0xbbbce28b	-0.0057643107
137	0x3d3e4364	0.046450987
138	0xbcbe60bc	-0.023239486
139	0xbb0a2e01	-0.002108455
140	0xbb8cb492	-0.0042939866
141	0x3c6ee551	0.0145810405
142	0x3c1adb34	0.009451676
143	0x3a33eb3b	0.000686336
144	0x3bb6cbd2	0.0055784965
145	0x3d027976	0.031854115
146	0xbc50ce64	-0.01274452
147	0x3a4e34a6	0.00078661216
148	0x3bf0e752	0.0073517943
149	0xbba9b645	-0.005179199
150	0x3c2e5e11	0.010642544
151	0xbce89786	-0.028392565
152	0xb95e0e7a	-0.00021176963
153	0xbc25fe95	-0.010131498
154	0xbc16dad0	-0.009207442
155	0xbbb078cf	-0.0053854953
156	0x3c4869f0	0.012232289
157	0x3d140f0e	0.03614717
158	0xbd00beb9	-0.031431887
159	0x3b7ae2cd	0.0038282156
160	0x3d0a44f0	0.03375715
161	0x3b8c16a2	0.004275159
162	0x3cd3fabe	0.0258764
163	0xbbb235e9	-0.0054385555
164	0x3c1f164a	0.009709904
165	0x3a4facd2	0.00079221756
166	0x3a85db3d	0.0010212433
167	0xba2f49f8	-0.00066867424
168	0xbc8d4d77	-0.017248852
169	0xbc0c0e7d	-0.008548376
170	0x3ba827ff	0.005131721
171	0xbc2dbdcc	-0.010604333
172	0xbbdc3d76	-0.006721194
173	0x3c5fd241	0.013660968
174	0xbd007dd3	-0.031369995
175	0xbbe0d45a	-0.006861252
176	0xbc787eb3	-0.015166926
177	0x3b956107	0.0045586857
178	0x3c744f10	0.014911428
179	0xbbf1f8cd	-0.0073843957
180	0x3c6dd516	0.014516136
181	0x3b7ff826	0.003905782
182	0x3d261ac7	0.04055288
183	0x3b1c2200	0.0023823977
184	0x3ca98be5	0.02069659
185	0xbd1e996e	-0.03872054
186	0xbc6f2f88	-0.014598735
187	0xbca61d03	-0.020277506
188	0xbc7b64cd	-0.015343857
189	0xbbadcc58	-0.0053039007
190	0xbb0c8ee1	-0.0021447467
191	0xbcc096d0	-0.023509413
192	0xbc5ee294	-0.013603825
193	0x3c7e87c0	0.015535295
194	0xbc74af0d	-0.0149343135
195	0xbc65bf76	-0.014022699
196	0xbc0836cb	-0.008313845
197	0x3d1f44cf	0.03888398
198	0xbc7aac2f	-0.015299841
199	0xbbb1c76b	-0.005425384
200	0xbc446374	-0.011986602
201	0xbc18ec6b	-0.00933371
202	0x3c4c78c3	0.012479964
203	0xbbe3ffec	-0.0069579985
204	0xbd09c6e2	-0.033636935
205	0x3b948f3f	0.004533678
206	0xbc8798ce	-0.016552355
207	0xb84dabfa	-4.9035974e-05
208	0xbcd2d27a	-0.025735129
209	0xbafbe24d	-0.0019217223
210	0x3cfa301d	0.03054052
211	0xba06d1b2	-0.00051429414
212	0xbce1b765	-0.02755327
213	0x3b7e2098	0.0038776752
214	0xbd315f50	-0.043303788
215	0x3cb123b0	0.021623462
216	0x3c1b456c	0.009477001
217	0xbc3b762a	-0.011441747
218	0xbc023f76	-0.007949701
219	0x3cc63700	0.024196148
220	0x3cc6df99	0.024276542
221	0xbb5b2a76	-0.0033442057
222	0x3d48ac10	0.048992217
223	0x3cf7fd32	0.0302721
224	0x3c8ec765	0.017429063
225	0xbcc0bb06	-0.02352668
226	0x3ace4a3b	0.0015738675
227	0x3b89eec8	0.004209373
228	0x3b8b38e8	0.004248727
229	0x3d2a3ded	0.041562963
230	0x3c611f97	0.013740442
231	0x3cb294a0	0.021799386
232	0x3d007151	0.031358067
233	0xbb4ef94f	-0.0031581705
234	0x3b2e6d6b	0.002661551
235	0xbd116206	-0.035493873
236	0x3c491706	0.012273556
237	0x3c4fd760	0.012685627
238	0xbc863634	-0.016383268
239	0x3c5be880	0.013422132
240	0xbb47165b	-0.0030378315
241	0x3b19f967	0.0023494603
242	0x3b51dafe	0.0032021399
243	0x3c329a88	0.010901101
244	0xba60864c	-0.00085649337
245	0x3c19309e	0.00934997
246	0x3ce2d978	0.027691588
247	0x3ac6c864	0.0015165922
248	0x3ae708ae	0.0017626488
249	0xbc6373cf	-0.013882591
250	0x3bd8d11c	0.0066167247
251	0xbc121c9e	-0.008917956
252	0xbb9ed214	-0.0048468206
253	0x3b65a25a	0.0035039396
254	0x3c8fe288	0.017564073
255	0xbcecc6a7	-0.028903319

action_model._continuous_distribution.mu.bias f4 [2]
0	0x3b5153b1	0.0031940753
1	0x3b260e60	0.0025338158

action_model._discrete_distribution.branches.0.weight f4 [1, 128]
0	0xbb9ff9c5	-0.00488207
1	0xbc0fe65f	-0.008782952
2	0xbc6ad8f7	-0.014333955
3	0xbaa2f884	-0.0012433683
4	0x38757fa0	5.8531412e-05
5	0xbc77ea30	-0.015131518
6	0xba0146f9	-0.0004931535
7	0xbad6a948	-0.0016377354
8	0x3c28bfad	0.010299605
9	0x3bc4b788	0.006003324
10	0xbc6facfa	-0.014628643
11	0x3ac3e6d0	0.0014946107
12	0x39c69097	0.0003787323
13	0x3b7a4c3a	0.0038192407
14	0x3aa415c4	0.0012518694
15	0x3c5b21c3	0.013374749
16	0x3b975d11	0.0046192487
17	0x3bfda803	0.007740976
18	0xbc820029	-0.015869217
19	0xb91f9af7	-0.0001522115
20	0x3c323c31	0.010878609
21	0xbb8ec70e	-0.0043572253
22	0xbad2aad7	-0.0016072643
23	0xbbc24caf	-0.0059295516
24	0x3a08d2fb	0.0005219427
25	0x3b522fb2	0.0032071886
26	0xbbfabd60	-0.00765197
27	0x3c9d1b08	0.019177929
28	0xbbd941f5	-0.006630177
29	0x3bcf29d3	0.0063221245
30	0x3bcc9907	0.006243828
31	0x3bbe08c5	0.0057993853
32	0xba8b646f	-0.001063479
33	0xbc5d2573	-0.013497698
34	0x3c76013b	0.015014942
35	0x3c07908c	0.008274209
36	0x3c00c351	0.007859067
37	0x3c09c9c3	0.00840992
38	0xbb976351	-0.0046199937
39	0xbc11ec4c	-0.008906435
40	0xbba9a150	-0.0051767007
41	0x3c8a0528	0.016848162
42	0xbca62027	-0.020279003
43	0x3b0e88fb	0.0021749127
44	0x3b43001e	0.0029754709
45	0x3a9b760d	0.0011860743
46	0x3c138d90	0.009005919
47	0x3ab52bd3	0.0013822265
48	0xba237037	-0.0006234678
49	0xba2b1f12	-0.0006527762
50	0xbb8124f2	-0.003941172
51	0x3ca7ab2b	0.020467361
52	0xbb090c35	-0.0020911817
53	0xba966eb3	-0.0011477083
54	0xbc9dcf89	-0.019264
55	0x3b68f585	0.0035546732
56	0x3a79527f	0.0009510889
57	0xbb4f0903	-0.0031591065
58	0xbb41d3cd	-0.0029575706
59	0xbc793a0d	-0.015211594
60	0xbc30e204	-0.010796074
61	0x3b9e787a	0.0048361393
62	0xbc2182e5	-0.009857868
63	0xba39de0b	-0.0007090277
64	0x3b642c7d	0.0034816556
65	0xb9aa6794	-0.00032502098
66	0xbc268f8e	-0.010166062
67	0x3c73bf80	0.0148772
68	0x3a571b4f	0.00082056684
69	0x3b5f3fcb	0.0034065123
70	0xbb87ea64	-0.0041478146
71	0x3c6a0ec5	0.014285748
72	0xbc35fb5d	-0.011107293
73	0xbba688b6	-0.005082215
74	0x3aa788c7	0.0012781852
75	0xbb2ab231	-0.0026046152
76	0x3c385a5b	0.011252011
77	0xbc224f76	-0.00990664
78	0xbb0da10d	-0.0021610886
79	0xbb8a09e3	-0.0042126044
80	0xb9129ff6	-0.00013983235
81	0x3b5f54a0	0.003407754
82	0x3ac22a32	0.00148136
83	0x39808e50	0.00024520094
84	0x374f064d	1.23396285e-05
85	0x3be2b40f	0.0069184373
86	0x3b2b3de3	0.0026129417
87	0x3c70ab4b	0.014689277
88	0xbb21180d	-0.0024580986
89	0x3b229194	0.002480601
90	0x3bd8dce0	0.006618127
91	0x3c0285c7	0.007966465
92	0xbbfaa7af	-0.007649384
93	0x3c379fe3	0.011207554
94	0x3b882e57	0.0041559148
95	0xbb9dffae	-0.004821739
96	0xbc43b8c0	-0.011945903
97	0xbc083770	-0.008313999
98	0xbc1bb5cf	-0.009503796
99	0xbc9f8a97	-0.019475264
100	0xb9b95a4c	-0.00035353226
101	0xbb6f10b2	-0.0036478457
102	0x3a31ea15	0.0006786895
103	0xbc720540	-0.0147717595
104	0x3adacbe3	0.0016692843
105	0xbc548b67	-0.012972689
106	0x3a6c2d10	0.00090094004
107	0x3b2d5695	0.0026449312
108	0x3c51d1b2	0.012806343
109	0xbbce2fd0	-0.006292321
110	0xb94658d0	-0.00018915837
111	0xbc92507d	-0.017860645
112	0x3c09b25f	0.008404343
113	0xbb8490db	-0.0040455884
114	0xbbc8aa85	-0.006123843
115	0xbc258d34	-0.010104466
116	0x3b9aab9f	0.004720166
117	0x3c0a457f	0.008439421
118	0x3a39ed1e	0.0007092523
119	0xbc3d5ad6	-0.0115573015
120	0x3b613cf0	0.0034368597
121	0x3b5bd653	0.0033544495
122	0x3bff0660	0.0077827424
123	0xbc89609b	-0.016769698
124	0xbbc26d02	-0.005933405
125	0xb98dbb9f	-0.00027033404
126	0xbc35d355	-0.011097749
127	0xbb6d6c72	-0.0036227969

exp_avg f4 [128, 57]
0	0x36aac694	5.0895123e-06
1	0xb6690855	-3.4724555e-06
2	0x34fdc822	4.7270538e-07
3	0x353f2fa9	7.12224e-07
4	0x32b1836f	2.0665281e-08
5	0xb5d089a9	-1.5537272e-06
6	0x37074e4c	8.064857e-06
7	0xb6c65aa1	-5.9114104e-06
8	0xb525014d	-6.146918e-07
9	0xb5c88092	-1.493858e-06
10	0xb38fec89	-6.701982e-08
11	0xb63f5156	-2.8508562e-06
12	0x377e3919	1.5152874e-05
13	0xb6f63135	-7.3370998e-06
14	0x36087bae	2.033757e-06
15	0xb59b6fd2	-1.1580944e-06
16	0x32b1836f	2.0665281e-08
17	0x35413076	7.196862e-07
18	0x36af30c1	5.221082e-06
19	0xb6b5c596	-5.4172224e-06
20	0xb4fabee8	-4.670503e-07
21	0xb5dd1038	-1.6470503e-06
22	0x33e000e4	1.0430975e-07
23	0xb68d0a44	-4.2033225e-06
24	0xb79b7045	-1.852972e-05
25	0x367646aa	3.6697988e-06
26	0x364eafff	3.0798835e-06
27	0xb474553f	-2.2755283e-07
28	0xb4245b19	-1.5306831e-07
29	0xb64cea5a	-3.053478e-06
30	0x35d9b069	1.6219102e-06
31	0xb6a661fd	-4.958593e-06
32	0x3450626d	1.9407317e-07
33	0x358c52e7	1.0454941e-06
34	0xb43ca7f5	-1.7569967e-07
35	0xb622c3d9	-2.425388e-06
36	0x36fd0555	7.5406083e-06
37	0xb7221242	-9.660203e-06
38	0x351c9b3b	5.834042e-07
39	0xb531128c	-6.596463e-07
40	0x302861d6	6.1257077e-10
41	0x34ca1db4	3.7647044e-07
42	0xb6273e46	-2.4921187e-06
43	0x35c91163	1.4980727e-06
44	0xb5c0273b	-1.4316532e-06
45	0x34beb7a8	3.5523885e-07
46	0xb45efa56	-2.0766433e-07
47	0xb674a804	-3.6456631e-06
48	0xb6349aba	-2.6912153e-06
49	0x3605ffad	1.9967367e-06
50	0xb652f065	-3.1432367e-06
51	0x3545a9a9	7.3635107e-07
52	0x357b5ac2	9.3636856e-07
53	0x360ce776	2.0996354e-06
54	0xb765b6b6	-1.3692004e-05
55	0x345f8301	2.0816152e-07
56	0x3798ba67	1.8206612e-05
57	0x36ce7ff6	6.154175e-06
58	0x35a4f3a5	1.2289862e-06
59	0x305b5100	7.9786844e-10
60	0xb3fd22fb	-1.17875935e-07
61	0xb4fd50de	-4.718376e-07
62	0xb63910f8	-2.7577025e-06
63	0x3736b802	1.0890888e-05
64	0xb64c8639	-3.0476497e-06
65	0xb5b8f872	-1.3781375e-06
66	0xb5e68f2f	-1.7178007e-06
67	0xb505081b	-4.9558156e-07
68	0xb64e362a	-3.072792e-06
69	0x36bc31a6	5.6086164e-06
70	0xb61cbaa2	-2.3354446e-06
71	0x35ca08ce	1.5052735e-06
72	0xb434cf33	-1.6839185e-07
73	0xb4fd50de	-4.718376e-07
74	0xb631dc05	-2.6503124e-06
75	0x36d771b5	6.4207366e-06
76	0x36439f6a	2.9150056e-06
77	0xb5e80dba	-1.7289342e-06
78	0xb5e7f780	-1.7282873e-06
79	0xb478ee6f	-2.3183541e-07
80	0xb6934248	-4.3886575e-06
81	0xb6e8f3fa	-6.9425414e-06
82	0x36b2b0eb	5.3254093e-06
83	0x34a15c9e	3.0055975e-07
84	0x33fc3825	1.1744877e-07
85	0xb50e2c91	-5.2963975e-07
86	0xb68a01af	-4.1129165e-06
87	0x36dac3fa	6.519721e-06
88	0xb54207c8	-7.2281955e-07
89	0xb5196d91	-5.715638e-07
90	0x356b6614	8.7692865e-07
91	0xb50f554f	-5.339579e-07
92	0xb59135a3	-1.0818952e-06
93	0x3662d4a8	3.3800407e-06
94	0x364b42f5	3.0288331e-06
95	0x3581d2bd	9.672582e-07
96	0xb5b7672a	-1.3664587e-06
97	0xb4c27c73	-3.6225865e-07
98	0xb62e62ca	-2.5985523e-06
99	0x3705788f	7.9554875e-06
100	0x357f376a	9.507554e-07
101	0xb61f27f2	-2.3716098e-06
102	0xb584844c	-9.87327e-07
103	0xb2ea8ca2	-2.7305138e-08
104	0x368816a8	4.0557534e-06
105	0x36abcdeb	5.120169e-06
106	0x353ec96c	7.1073623e-07
107	0xb53b52d2	-6.978345e-07
108	0x35632a49	8.462562e-07
109	0xb4dd786f	-4.1252085e-07
110	0xb44b392c	-1.8926647e-07
111	0x37d92394	2.5884983e-05
112	0xb50ee55f	-5.32329e-07
113	0xb5aca6b8	-1.286352e-06
114	0xb62e3cec	-2.5963482e-06
115	0x35d0a2b9	1.5544566e-06
116	0xb58910ef	-1.0212224e-06
117	0xb47e24b5	-2.3668947e-07
118	0x3268c80d	1.3549664e-08
119	0x369e2804	4.7134254e-06
120	0xb7418040	-1.1533557e-05
121	0x36ae07da	5.186518e-06
122	0x3604221e	1.9689392e-06
123	0x36a65e41	4.958158e-06
124	0x34312c21	1.6500464e-07
125	0x36b52e6d	5.399625e-06
126	0xb70fa1e2	-8.5611555e-06
127	0x36cb8f4a	6.0665525e-06
128	0xb5f29313	-1.8073209e-06
129	0x35e1b7c0	1.6817285e-06
130	0x3268c80d	1.3549664e-08
131	0x3674618b	3.641561e-06
132	0xb6c4ae51	-5.8615483e-06
133	0x36a6d71c	4.9722275e-06
134	0x35d76d34	1.6050531e-06
135	0x3665a447	3.421928e-06
136	0xb5466252	-7.390382e-07
137	0x36ebf81d	7.03243e-06
138	0x3756223f	1.27633675e-05
139	0xb571f547	-9.013642e-07
140	0xb5dcb774	-1.6444669e-06
141	0xb4207603	-1.4944094e-07
142	0x34046783	1.2331115e-07
143	0x36c8c2f6	5.983161e-06
144	0x358863c6	1.0161828e-06
145	0x367bbb1e	3.751083e-06
146	0xb4168401	-1.4017861e-07
147	0xb5afae7b	-1.3089297e-06
148	0x34118fb7	1.355646e-07
149	0x36c3cd6c	5.835367e-06
150	0xb6dbc45f	-6.549569e-06
151	0x3718b930	9.103023e-06
152	0xb55929ca	-8.089961e-07
153	0x35fdef45	1.8919606e-06
154	0xb48441d3	-2.463481e-07
155	0x3622afb8	2.4242163e-06
156	0x35d49dcf	1.5841159e-06
157	0xb5c4c357	-1.4659989e-06
158	0x3652bb53	3.1401476e-06
159	0x33d69808	9.992806e-08
160	0x343097f0	1.6446552e-07
161	0x36c3be0b	5.833577e-06
162	0x36a1f90e	4.8271677e-06
163	0xb62520b8	-2.460596e-06
164	0x3636a975	2.721875e-06
165	0xb592dad1	-1.0941532e-06
166	0xb5131077	-5.4785727e-07
167	0xb5977bec	-1.1286443e-06
168	0x37e2bbbf	2.7028726e-05
169	0xb4b6c2b9	-3.404182e-07
170	0xb79c4210	-1.8627412e-05
171	0xb7862a19	-1.5993648e-05
172	0x364b2058	3.0268184e-06
173	0xb528cf19	-6.2886244e-07
174	0xb6042748	-1.9692397e-06
175	0x32f180da	2.8114687e-08
176	0xb4ae432c	-3.24589e-07
177	0xb7a693a5	-1.9857494e-05
178	0x363aab78	2.7815968e-06
179	0x35a65b11	1.2394468e-06
180	0x3553fafc	7.8968856e-07
181	0x3454489a	1.9770451e-07
182	0x35bfbfb0	1.4286397e-06
183	0xb7aef432	-2.0856129e-05
184	0x36a4a001	4.906208e-06
185	0xb6853e6e	-3.9709766e-06
186	0x3623e6c0	2.4423207e-06
187	0x32f180da	2.8114687e-08
188	0xb6378936	-2.7348992e-06
189	0xb794a903	-1.7721677e-05
190	0x36394b42	2.7610954e-06
191	0x34762a1a	2.2925852e-07
192	0x36825489	3.884143e-06
193	0xb3fd8039	-1.1804554e-07
194	0x3641121d	2.8769784e-06
195	0x3645aefe	2.9457146e-06
196	0xb5fe5560	-1.8949322e-06
197	0xb6a09a10	-4.786307e-06
198	0xb4f0e874	-4.4872615e-07
199	0x3342f0f0	4.5388276e-08
200	0xb620f3ac	-2.3983694e-06
201	0xb741db97	-1.1554824e-05
202	0x368c8cc4	4.1887124e-06
203	0xb58f5fec	-1.0682247e-06
204	0xb6242d0d	-2.4464127e-06
205	0x337c37d8	5.8724112e-08
206	0x3605ac94	1.9918998e-06
207	0xb7988007	-1.817943e-05
208	0x37012b37	7.699061e-06
209	0xb5abc199	-1.2796837e-06
210	0x35bd283d	1.4093308e-06
211	0xb527e12a	-6.2540005e-07
212	0xb7051117	-7.931397e-06
213	0xb7134d3a	-8.7798635e-06
214	0xb5a22d2d	-1.2083088e-06
215	0x35912301	1.0813529e-06
216	0xb60be67e	-2.0846778e-06
217	0x33e8ef71	1.0846896e-07
218	0x3652cc40	3.1411328e-06
219	0xb6c13568	-5.7580655e-06
220	0xb6b770ba	-5.466948e-06
221	0x368d7864	4.2161428e-06
222	0xb5c49201	-1.4645631e-06
223	0xb6320434	-2.6526513e-06
224	0xb7398e92	-1.1060054e-05
225	0x3887ddeb	6.478637e-05
226	0x359279d8	1.0913309e-06
227	0xb6b97702	-5.527284e-06
228	0x371d04de	9.3590625e-06
229	0xb6444b16	-2.9249982e-06
230	0x3520e85a	5.994276e-07
231	0x34e7c84e	4.3172844e-07
232	0x34344608	1.6789284e-07
233	0x35c31126	1.4533623e-06
234	0x370b0ec9	8.288488e-06
235	0xb6b856ee	-5.4937473e-06
236	0xb42808b7	-1.564939e-07
237	0xb496912e	-2.804531e-07
238	0x3457e9e0	2.0108519e-07
239	0x34aaa48b	3.1784688e-07
240	0x3731146e	1.0554779e-05
241	0xb6b84618	-5.4917873e-06
242	0x35e22b9c	1.6851004e-06
243	0x349e444a	2.947948e-07
244	0x34344608	1.6789284e-07
245	0x36256ae6	2.464914e-06
246	0x374ba1ca	1.2137412e-05
247	0xb7122dde	-8.712957e-06
248	0xb4643ff2	-2.1257418e-07
249	0xb595956a	-1.114485e-06
250	0xb3699463	-5.4384497e-08
251	0xb416cc5a	-1.4044181e-07
252	0xb6b56208	-5.4056327e-06
253	0x348fdbbc	2.6795703e-07
254	0x36925f6d	4.362248e-06
255	0xb4298481	-1.5787556e-07

exp_avg_sq f4 [128, 57]
0	0x2ed2a3b6	9.578775e-11
1	0x2cfaa76e	7.124016e-12
2	0x2b201dda	5.6884846e-13
3	0x2ac80a36	3.5534222e-13
4	0x29e51e23	1.0174871e-13
5	0x2c865179	3.8175543e-12
6	0x2f1118d1	1.319649e-10
7	0x2db6edcb	2.0796606e-11
8	0x2b34a322	6.417524e-13
9	0x2b0d12cc	5.011935e-13
10	0x29ee6e6e	1.058848e-13
11	0x2ccfa3f1	5.901495e-12
12	0x2e5bf553	5.0012727e-11
13	0x2dd4fd3a	2.4214065e-11
14	0x2b4e505a	7.329741e-13
15	0x29e95a0c	1.0362899e-13
16	0x29e51e23	1.0174871e-13
17	0x2c344bed	2.5621686e-12
18	0x2f0f85df	1.3053335e-10
19	0x2e0dc17f	3.2231547e-11
20	0x293a72e8	4.1399962e-14
21	0x2a809693	2.284185e-13
22	0x29e21583	1.0040148e-13
23	0x2d2070e7	9.120016e-12
24	0x2ecc9efa	9.305086e-11
25	0x2df661a5	2.8010325e-11
26	0x2b62c088	8.055852e-13
27	0x298364db	5.835064e-14
28	0x29c669d6	8.811326e-14
29	0x2c44f46e	2.798896e-12
30	0x2f3878e8	1.6777657e-10
31	0x2d3435df	1.0243777e-11
32	0x29b64e85	8.0960446e-14
33	0x2a143878	1.3164632e-13
34	0x29c9695e	8.9444714e-14
35	0x2e05c6da	3.0417315e-11
36	0x2ebe7506	8.660987e-11
37	0x2ea8e32c	7.680109e-11
38	0x2a926422	2.600429e-13
39	0x2a951d14	2.6487894e-13
40	0x29c8f54c	8.9243364e-14
41	0x2c3d0e3b	2.6866415e-12
42	0x2f308618	1.6054746e-10
43	0x2ad31a9a	3.7499588e-13
44	0x29f9e7f2	1.10980574e-13
45	0x29e2a13d	1.00643865e-13
46	0x27e6f6c4	6.4105368e-15
47	0x2ee5c008	1.0447826e-10
48	0x2f1e5415	1.4399888e-10
49	0x2b20bf01	5.710849e-13
50	0x2b9f8298	1.1333877e-12
51	0x2bab1084	1.2154865e-12
52	0x2b09e32a	4.898743e-13
53	0x2c87f513	3.8641395e-12
54	0x3103cffc	1.9181234e-09
55	0x2bd7d47e	1.5335647e-12
56	0x3033a665	6.535628e-10
57	0x2e3eea5e	4.3409158e-11
58	0x2c609588	3.191532e-12
59	0x2b6f2cec	8.49722e-13
60	0x2b494620	7.1506863e-13
61	0x2a290b89	1.5014217e-13
62	0x2c0d7862	2.010413e-12
63	0x2e453cb5	4.4846533e-11
64	0x2d0f4872	8.144695e-12
65	0x2b5cf0e4	7.8494004e-13
66	0x2a83496b	2.3321219e-13
67	0x2a2a7fdc	1.5143393e-13
68	0x2c172cd6	2.148328e-12
69	0x2e0ae519	3.1581047e-11
70	0x2d1e6777	9.004234e-12
71	0x2ac213e9	3.4475138e-13
72	0x28b6e14f	2.0303771e-14
73	0x2a290b89	1.5014217e-13
74	0x2bf38823	1.7303974e-12
75	0x2e220310	3.6837255e-11
76	0x2dd38226	2.404572e-11
77	0x2a9533fd	2.650379e-13
78	0x2ab923f3	3.2887546e-13
79	0x2a281a0a	1.4930432e-13
80	0x2c526686	2.9899707e-12
81	0x2d39c5ca	1.05599505e-11
82	0x2dd6aec4	2.4406595e-11
83	0x2bec3075	1.6782258e-12
84	0x29d7e80d	9.5881724e-14
85	0x2a25f7b3	1.4740882e-13
86	0x2bc328f7	1.3866953e-12
87	0x2e60a1cb	5.1075404e-11
88	0x2d0b6fc6	7.926054e-12
89	0x29ec473f	1.04928646e-13
90	0x29ed9d95	1.05522504e-13
91	0x2a266ff7	1.4782607e-13
92	0x2d2667d5	9.459063e-12
93	0x2e147358	3.375375e-11
94	0x2dbcf248	2.148072e-11
95	0x2abe79bf	3.3835258e-13
96	0x2b121976	5.1904954e-13
97	0x2a2010c3	1.421667e-13
98	0x2bea1dc1	1.6634958e-12
99	0x2e664fbe	5.236677e-11
100	0x2acf9521	3.6874066e-13
101	0x2a9ec8c7	2.8205755e-13
102	0x2acd2acf	3.644502e-13
103	0x26cf279f	1.437425e-15
104	0x2e0beea6	3.1816903e-11
105	0x2e4f06a4	4.707225e-11
106	0x2b950c82	1.0590558e-12
107	0x2b27f9fb	5.9677236e-13
108	0x2bce9cbc	1.4680683e-12
109	0x2ab285c6	3.1711976e-13
110	0x2c1556c7	2.1222345e-12
111	0x302e44e2	6.339872e-10
112	0x2b09e5c3	4.8991036e-13
113	0x2f74f62b	2.2279127e-10
114	0x2e6fd4ff	5.4531487e-11
115	0x2c15f198	2.1308285e-12
116	0x2b8b26ff	9.887368e-13
117	0x2b43807a	6.9456214e-13
118	0x29249b6a	3.6550115e-14
119	0x2ca56d6e	4.701731e-12
120	0x2e9195cd	6.6204466e-11
121	0x2d95a062	1.7010563e-11
122	0x2be7aed6	1.6462064e-12
123	0x2be78ec0	1.6453158e-12
124	0x294ce21a	4.549321e-14
125	0x2cc5aa6a	5.6179965e-12
126	0x2e214612	3.6669397e-11
127	0x2dab7125	1.9490696e-11
128	0x2b828ca5	9.276092e-13
129	0x2a96cfaa	2.6789448e-13
130	0x29249b6a	3.6550115e-14
131	0x2c88b0d4	3.8849843e-12
132	0x2e9e64af	7.202893e-11
133	0x2dd6779b	2.4382099e-11
134	0x2af6b13d	4.3821362e-13
135	0x2b9d0ad6	1.1158529e-12
136	0x2a25e945	1.4735876e-13
137	0x2d11130e	8.246527e-12
138	0x2e702de5	5.4610445e-11
139	0x2dca6556	2.3009743e-11
140	0x2b9d2f74	1.1168692e-12
141	0x2a227bfa	1.4431503e-13
142	0x290ff136	3.1961596e-14
143	0x2ca7cdf9	4.769293e-12
144	0x2edaa14c	9.942144e-11
145	0x2cf9d98c	7.101158e-12
146	0x298d481c	6.274167e-14
147	0x2a77255f	2.1950973e-13
148	0x2912527d	3.249006e-14
149	0x2da41a68	1.8656368e-11
150	0x2e5e0440	5.048073e-11
151	0x2e4c80d2	4.6498645e-11
152	0x2ad619d0	3.8031947e-13
153	0x2b402835	6.82679e-13
154	0x29519c0a	4.6542665e-14
155	0x2c9b8f74	4.4212915e-12
156	0x2ed58041	9.708901e-11
157	0x2b0e255d	5.0500386e-13
158	0x2b24a126	5.8488143e-13
159	0x2b112a2c	5.1572874e-13
160	0x27857679	3.7043364e-15
161	0x2e7b86e1	5.719059e-11
162	0x2eb25923	8.110337e-11
163	0x2bf1f79d	1.7192806e-12
164	0x2c014788	1.837171e-12
165	0x2c6120c2	3.1992607e-12
166	0x2aaae9f5	3.0360407e-13
167	0x2cb51ba0	5.1473964e-12
168	0x3091c175	1.0605122e-09
169	0x2b854de0	9.471833e-13
170	0x2fcffea7	3.7834022e-10
171	0x2e3b72d8	4.262088e-11
172	0x2b97af2c	1.0777815e-12
173	0x2b90f4ba	1.0299741e-12
174	0x2be894c7	1.6525885e-12
175	0x28ef7b33	2.658776e-14
176	0x2c2f42a7	2.4905995e-12
177	0x2e5b16e9	4.9815183e-11
178	0x2bc5e6d2	1.4061757e-12
179	0x2b35f6ac	6.4646444e-13
180	0x2c0681ca	1.9114593e-12
181	0x292cb9d4	3.8352852e-14
182	0x2c3dfc34	2.6998516e-12
183	0x2e2b34ec	3.8927903e-11
184	0x2c5815ce	3.070755e-12
185	0x2c0e69ba	2.0238104e-12
186	0x2ac7c152	3.5483644e-13
187	0x28ef7b33	2.658776e-14
188	0x2c27678c	2.3789607e-12
189	0x2e6b81de	5.354816e-11
190	0x2c2e46ec	2.4766257e-12
191	0x29978b73	6.7299377e-14
192	0x2b88b75c	9.714274e-13
193	0x291c594e	3.4716418e-14
194	0x2c897b22	3.9074447e-12
195	0x2dea8447	2.6661463e-11
196	0x2c1be23d	2.2152412e-12
197	0x2c0c87de	1.9970618e-12
198	0x2aa2fe23	2.8953324e-13
199	0x28ee4e54	2.6457277e-14
200	0x2c103ceb	2.0497447e-12
201	0x2e4abdc2	4.609802e-11
202	0x2cfa2cd3	7.110404e-12
203	0x2a3e6107	1.6909053e-13
204	0x2b36d3d1	6.4953343e-13
205	0x28f1de84	2.6852876e-14
206	0x2d268c30	9.467135e-12
207	0x2e1dd1c7	3.5883987e-11
208	0x2daaeaf9	1.9431111e-11
209	0x2acf04bf	3.677388e-13
210	0x2b81dcee	9.227322e-13
211	0x29b686a2	8.105779e-14
212	0x2c941e54	4.20978e-12
213	0x2e4eb692	4.7001132e-11
214	0x2ac01984	3.4123756e-13
215	0x29a03d65	7.1160776e-14
216	0x2b3b88c6	6.6625557e-13
217	0x271184d6	2.0194803e-15
218	0x2df6a4e3	2.8040186e-11
219	0x2e1eb051	3.608164e-11
220	0x2c859feb	3.797842e-12
221	0x2c8d84d1	4.0222066e-12
222	0x2c29e417	2.414296e-12
223	0x2be88169	1.652051e-12
224	0x2ce75d09	6.575744e-12
225	0x3058edc7	7.8918244e-10
226	0x2afc6249	4.4832391e-13
227	0x2f621225	2.0561026e-10
228	0x2dcf93f5	2.3598882e-11
229	0x2d0e488d	8.087875e-12
230	0x2ab62e97	3.2362023e-13
231	0x2a334674	1.5922837e-13
232	0x2a2614d1	1.4750984e-13
233	0x2b6c7c64	8.401667e-13
234	0x2e27299e	3.8008367e-11
235	0x2ddf983e	2.5419774e-11
236	0x29f6106a	1.0927442e-13
237	0x2a10b672	1.2853068e-13
238	0x2a2618bf	1.4752347e-13
239	0x2bc97450	1.4314192e-12
240	0x2d885026	1.5497003e-11
241	0x2de8b76c	2.6456802e-11
242	0x2b121029	5.1892046e-13
243	0x27a46bcb	4.5636013e-15
244	0x2a2614d1	1.4750984e-13
245	0x2b648e74	8.1199565e-13
246	0x2e1f461a	3.6214677e-11
247	0x2e2a31cd	3.8697757e-11
248	0x2879acec	1.3859773e-14
249	0x2a92d437	2.6082063e-13
250	0x2a0be166	1.2423881e-13
251	0x2c15f787	2.1311579e-12
252	0x2de40005	2.5920608e-11
253	0x2e0af4e6	3.159508e-11
254	0x2c16c374	2.142478e-12
255	0x2911938f	3.2324454e-14

exp_avg f4 [128]
0	0xb6135195	-2.1952194e-06
1	0x36bd7ee8	5.6474128e-06
2	0x366380fa	3.390071e-06
3	0xb7382614	-1.097612e-05
4	0x3609b65f	2.0520745e-06
5	0x363d9910	2.8252289e-06
6	0x367d4dbc	3.7745185e-06
7	0x36f14bd3	7.191187e-06
8	0x370b057a	8.286321e-06
9	0x36999280	4.57681e-06
10	0xb67cc650	-3.766636e-06
11	0x3717bbc3	9.044018e-06
12	0xb755da8a	-1.2746672e-05
13	0x3540d428	7.18343e-07
14	0x36f6aafe	7.3512774e-06
15	0x3649035c	2.995329e-06
16	0x359e69b2	1.1802679e-06
17	0x353c365c	7.011456e-07
18	0x36cd8046	6.124409e-06
19	0xb50061cc	-4.782603e-07
20	0xb6abb600	-5.1173847e-06
21	0x36b07567	5.258876e-06
22	0x3639514c	2.761447e-06
23	0xb75fd92e	-1.3342402e-05
24	0xb63a858c	-2.7793894e-06
25	0x364b5d7c	3.0303772e-06
26	0x36d528d6	6.3526486e-06
27	0x350973d8	5.120505e-07
28	0xb4490ab9	-1.8723485e-07
29	0x3578985c	9.260891e-07
30	0x34a43cce	3.0591622e-07
31	0xb6bc8964	-5.618831e-06
32	0x35bb4bc2	1.3954634e-06
33	0xb67e56a8	-3.789939e-06
34	0x36874578	4.0314007e-06
35	0xb6b1a5e8	-5.294325e-06
36	0x359465e5	1.1056514e-06
37	0x35c2e06e	1.4519444e-06
38	0xb5a802b8	-1.2517767e-06
39	0xb79599fc	-1.7833889e-05
40	0x3500d5c9	4.7994814e-07
41	0xb761b326	-1.3452756e-05
42	0xb6a8c647	-5.0298727e-06
43	0x3728e9ad	1.0067987e-05
44	0xb509ac70	-5.1287407e-07
45	0xb5ac69eb	-1.2845825e-06
46	0x35b23b28	1.327925e-06
47	0xb5dcff78	-1.6465629e-06
48	0xb5927ddc	-1.0914478e-06
49	0xb58050e0	-9.560281e-07
50	0x36fa800a	7.4654863e-06
51	0xb73488dc	-1.0760701e-05
52	0x371c7313	9.325117e-06
53	0x36499a2e	3.0041078e-06
54	0xb50e93ba	-5.311409e-07
55	0xb6406bd0	-2.8672985e-06
56	0x34b63c1d	3.394388e-07
57	0x35d32f47	1.5734485e-06
58	0x343e96ac	1.7749943e-07
59	0x3665acb7	3.4224192e-06
60	0xb4c2ab3c	-3.6259905e-07
61	0xb747ff6c	-1.1920794e-05
62	0xb596f35a	-1.1246696e-06
63	0x368b3798	4.148995e-06
64	0x364694fa	2.9591015e-06
65	0xb67ecfbe	-3.7969871e-06
66	0xb5d5dc12	-1.5933786e-06
67	0xb6a1d3bc	-4.822823e-06
68	0xb5f3a3da	-1.8152598e-06
69	0xb647f349	-2.9794921e-06
70	0x3613cf69	2.2025436e-06
71	0xb6a83fb8	-5.014208e-06
72	0xb6a1487c	-4.806612e-06
73	0x376a4f92	1.3966013e-05
74	0xb75803f6	-1.28755255e-05
75	0x36a76f10	4.989917e-06
76	0x351a7738	5.7542957e-07
77	0xb60b419e	-2.0750808e-06
78	0xb76fa359	-1.4283542e-05
79	0xb6d26014	-6.2696727e-06
80	0xb732a338	-1.0647629e-05
81	0xb573b3d4	-9.078624e-07
82	0xb6a5bbd9	-4.9392515e-06
83	0xb700595e	-7.650202e-06
84	0x36c196c1	5.7693983e-06
85	0x35b980bb	1.382104e-06
86	0xb669e31e	-3.4851905e-06
87	0xb60f2b23	-2.133377e-06
88	0x367148e6	3.595423e-06
89	0xb65863ff	-3.2244714e-06
90	0xb6bd1776	-5.63537e-06
91	0xb584e413	-9.901145e-07
92	0xb720a37c	-9.574807e-06
93	0x34d5ca92	3.982173e-07
94	0xb662a596	-3.3773008e-06
95	0xb6e7a836	-6.903919e-06
96	0xb7000774	-7.63113e-06
97	0xb756c233	-1.28006095e-05
98	0x3644115e	2.9216385e-06
99	0xb5d92745	-1.6179189e-06
100	0xb71aba19	-9.2224445e-06
101	0xb7617c05	-1.3439921e-05
102	0xb5c1c782	-1.4437685e-06
103	0xb6f41954	-7.2747152e-06
104	0xb73cd44e	-1.1255104e-05
105	0x35b4b525	1.3463765e-06
106	0xb4872c50	-2.517795e-07
107	0x35be6530	1.4185553e-06
108	0x36611890	3.354191e-06
109	0xb72bbf32	-1.023691e-05
110	0xb62951e4	-2.523063e-06
111	0xb4d40b80	-3.9496445e-07
112	0xb6c23051	-5.7872753e-06
113	0xb6512bcf	-3.1168927e-06
114	0xb63ce6c2	-2.8148502e-06
115	0x36c135f5	5.7581296e-06
116	0xb4af765e	-3.2682414e-07
117	0xb67016cb	-3.5776054e-06
118	0x36f78994	7.37719e-06
119	0xb5fbd639	-1.8763304e-06
120	0xb628b95b	-2.5141842e-06
121	0xb673311c	-3.6238407e-06
122	0xb67b49ac	-3.7444797e-06
123	0x362d04fc	2.578191e-06
124	0xb64b10d8	-3.0259162e-06
125	0xb657e63f	-3.2171517e-06
126	0xb724ece2	-9.830315e-06
127	0xb664e912	-3.4110312e-06
