results/1/MoveToGoal/MoveToGoal-41338.pt (torch, 441756 bytes, 36 tensors)

network_body._body_endoder.seq_layers.0.weight f4 [128, 6]
000000 13 6c c6 bc 0f 74 a2 3e b5 16 7c 3e 47 d1 0d be
       -0.024221456 0.3172917 0.24618037 -0.13849364
000010 2d 8a f6 3e 94 73 8e 3f ee a5 f7 3d 41 9a 22 3f
       0.48152295 1.1129022 0.120921955 0.6351662
000020 7c 15 2a bf 6e e4 b8 3e 48 aa ea 3e b9 3c 8d 3e
       -0.6643903 0.36111778 0.4583304 0.2758539
000030 20 f8 64 bf 20 82 35 3c 8c cc ec 3e b1 ea 2b 3e
       -0.8944111 0.0110783875 0.46249807 0.16788746
000040 16 d9 52 be 62 a9 fb 3e 7e 3f b5 bd 5b fc 70 3e
       -0.20590624 0.49152666 -0.08850001 0.23533766
000050 aa c3 61 3f dc 2b 92 3e a2 95 56 be d5 d5 cf 3e
       0.88189185 0.28549087 -0.20955518 0.40592828
000060 26 f8 90 3f 00 29 6d bf b6 de ec be 28 07 a9 bf
       1.1325729 -0.92640686 -0.46263665 -1.3205309
000070 7e fa bf bf d9 ea 84 bf e4 4f 84 be 17 94 8a bc
       -1.4998319 -1.038417 -0.25842202 -0.016916318
000080 54 31 bc 3e 42 e9 82 3f 73 33 91 be 42 96 fe be
       0.36756384 1.0227435 -0.28359565 -0.49724013
000090 f9 6c b1 3e fd e5 78 be 69 c9 a0 be 9c 7b 91 be
       0.34653452 -0.24306484 -0.31403664 -0.2841462
0000a0 13 45 90 bb d6 37 1f 3e fc 20 e7 3f 41 a0 af bf
       -0.0044027655 0.15548643 1.8056941 -1.3720781
0000b0 b4 96 e4 be bb fa 85 bf 39 37 b6 bd 72 7c 4f bf
       -0.44646227 -1.0467142 -0.08897252 -0.81049263
0000c0 94 67 9d 3f eb e5 7b bf 68 c8 26 bf 8b 2f aa bf
       1.2297235 -0.983977 -0.65149546 -1.3295759
0000d0 96 3f 5b bf 19 e1 22 bf 14 23 8f 3f d5 76 85 be
       -0.856439 -0.6362472 1.118258 -0.26067224
0000e0 b0 2d 40 bf d2 f7 6c bf 12 a8 6e be 19 be 84 bf
       -0.75069714 -0.92565644 -0.23306301 -1.0370513
0000f0 35 61 69 3e be e0 41 be c7 1c ac 3e b8 27 bf bf
       0.22790988 -0.18933389 0.33615705 -1.4933996
000100 61 3a a0 bf 4e c5 3a bf 74 bb 45 3f 27 32 15 bf
       -1.2517816 -0.72957313 0.77239156 -0.5827965
000110 93 84 ee bd 24 21 95 bf 31 4e b2 be cb c0 54 bf
       -0.1164638 -1.1650739 -0.3482528 -0.8310668
000120 04 1f 22 3e f5 4d ae bb f2 39 11 3f bf 62 4e 3f
       0.15832144 -0.005319352 0.5672904 0.80619425
000130 dd e4 b8 3e 8d 56 8c be a6 a8 1a 3e 33 c9 1d 3f
       0.3611211 -0.27409783 0.15103397 0.6163513
000140 14 12 72 3e 97 13 00 3e 76 ca 6f 3e 84 17 5a 3f
       0.23639709 0.12507473 0.23417076 0.8519213
000150 2b 8e b7 3e be b3 be be 73 a7 32 3f 4e 67 bc 3e
       0.35850653 -0.37246507 0.6978676 0.36797565
000160 7f cc 7b 3f c6 4e c1 be fb 1c 7e 3f 90 cb 37 be
       0.9835891 -0.37755412 0.9926297 -0.17948747
000170 71 9b f1 bd bf 2c 4a 3d 7a ee d5 be 8b 70 27 3e
       -0.11797226 0.04935908 -0.41783506 0.16351525
000180 dc 47 0c 3f 07 6b cb 3e fc 4f 15 bf b9 87 c7 3e
       0.5479715 0.39730093 -0.5832517 0.38970736
000190 34 df ef 3e 70 84 40 3e b5 ad c2 3f af f0 be bf
       0.46849978 0.18800521 1.5209261 -1.4917201
0001a0 33 83 2b be d5 2f a6 bf 59 34 62 bf db 76 67 bf
       -0.16749267 -1.2983347 -0.88361126 -0.90415734
0001b0 af 21 53 3f 8b b9 5a bf 54 3a 2d be d0 8a 68 bf
       0.8247327 -0.85439366 -0.16916782 -0.9083681
0001c0 53 0c 9e be c0 c0 8f bf 69 c6 9e 3e 03 f1 76 3e
       -0.30868778 -1.1230698 0.3101075 0.24115376
0001d0 d8 3c 8e bf d2 d7 ca 3d 06 0a a6 3e 7c 1a 00 3f
       -1.1112318 0.09904446 0.32429522 0.5004041
0001e0 ec 32 1c 3f f5 66 42 bf 83 95 19 bf 79 11 0d be
       0.610152 -0.7593835 -0.5999376 -0.13776197
0001f0 85 f2 9e be 3f 86 31 be e3 20 f4 3d 19 81 b3 3e
       -0.31044403 -0.17336367 0.11920335 0.3505943
000200 25 49 6a 3f 72 8e 1c 3e 88 c5 ab be fb c8 25 3f
       0.9151786 0.15288714 -0.33549142 0.64759797
000210 f3 95 97 3f a4 a3 ad bf 3a 25 aa 3e 21 0b ad bf
       1.1842636 -1.3565564 0.33231527 -1.3519021
000220 56 86 3d ba 54 3f 28 bf 98 1e e0 3e 4f e2 20 bf
       -0.00072297954 -0.6572163 0.4377334 -0.6284532
000230 e0 a9 01 bf 7d 8a a3 bf 9a e6 6b bf 57 b2 f1 be
       -0.50649834 -1.2776638 -0.92148745 -0.47206375
000240 e5 3a af bd 8f 31 8d bb 11 b5 21 3f dc 91 af 3e
       -0.08556155 -0.0043088864 0.6316691 0.3429097
000250 2a 46 cb 3e 4c 29 d1 3e df 8d 7d be 8c 08 58 3e
       0.39701968 0.4085182 -0.24761151 0.2109701
000260 c3 60 2b bf 50 8f 0a 3f d6 7d cb 3e 67 23 00 be
       -0.6694452 0.5412493 0.39744443 -0.12513505
000270 c3 b1 24 3f 4f b1 9b bf b7 ec 36 be 29 01 0a bf
       0.6433374 -1.2163485 -0.17863737 -0.5390802
000280 48 f7 90 bf db ca d6 bf 8b 2e cf 3d 30 ef 0a bf
       -1.1325464 -1.6780657 0.10116299 -0.5427122
000290 79 7d 27 3f 47 16 df 3d 0a 65 85 bf ee 04 56 3e
       0.6542583 0.10892921 -1.042146 0.20900318
0002a0 05 4b d1 be f7 16 91 3c ec d0 4c be 77 48 8c 3e
       -0.40877548 0.017711146 -0.20001572 0.27399036
0002b0 d4 48 78 3e 73 45 ee 3e f2 c6 fb 3e ee b2 60 bf
       0.24246532 0.4653736 0.4917522 -0.87773025
0002c0 9b 24 c7 be 37 78 65 bf 20 a5 ef be ec 9f 4c bf
       -0.38895115 -0.8963656 -0.46805668 -0.7993152
0002d0 55 f6 92 3f 2e 15 d2 bf 68 e3 8b be 84 18 dd bf
       1.1481425 -1.6412714 -0.27321935 -1.7273107
0002e0 5e c0 b5 bf 90 e1 69 bf 5a 38 f1 3e 07 55 43 bf
       -1.4199331 -0.91359806 0.47113305 -0.76301616
0002f0 f9 e2 43 bf 5a 59 a8 bf f0 4f d7 be 8c 80 1d bf
       -0.7651821 -1.3152268 -0.42053175 -0.6152427
000300 8c e5 7e 3d 70 cc 43 bf 88 3d 68 be 4c a1 df 3a
       0.06223063 -0.7648382 -0.22679722 0.001706162
000310 21 d9 04 bf cb 3e f0 be 3b 79 4b bf b3 1f ac be
       -0.5189381 -0.46922907 -0.7948186 -0.33617935
000320 19 d4 62 3f 3e 13 ad 3e af ea 8f 3e ce 8f 8d 3e
       0.88604885 0.33803743 0.28108737 0.27648777
000330 ef f9 09 bf 5f 0d 0d 3f 6d 38 d8 3e b5 70 a4 3c
       -0.53896993 0.5509853 0.4223055 0.020073274
000340 c1 de 93 be 6b 11 8a 3f 19 07 43 be 23 95 dc be
       -0.28880885 1.0786566 -0.19045676 -0.43082532
000350 63 d7 ad 3e 31 d2 a5 bc 6e be 22 be 9e b3 af 3d
       0.3395339 -0.020241829 -0.15892956 0.08579181
000360 ac 33 48 3f 62 fc d9 bf c3 33 04 bd 57 ca b7 bf
       0.78203845 -1.7030146 -0.032275926 -1.4358624
000370 db 5d 90 bf 59 4d bb bf d6 d4 3b 3f 64 21 e7 bf
       -1.1278642 -1.463298 0.73371637 -1.8057065
000380 f4 1c 0f 3e eb dc b0 bf 01 69 28 be d1 47 79 bf
       0.13975888 -1.3817419 -0.16446306 -0.9737521
000390 78 dd 89 be 11 72 21 3f d5 d1 f7 be a2 f6 24 3f
       -0.2692678 0.63064677 -0.48402277 0.6443883
0003a0 50 b8 17 3d 82 09 35 be 1d 2a 4e 3f e4 d6 a9 be
       0.03704101 -0.17679408 0.8053301 -0.3317176
0003b0 15 10 9d be fe 77 a7 bf e8 34 06 bf 2c 8e 06 bf
       -0.30676332 -1.3083494 -0.5242448 -0.5256069
0003c0 ef 39 40 3f c8 55 46 bf eb a6 11 3b ba 53 82 bf
       0.750884 -0.7747464 0.0022224735 -1.0181801
0003d0 c6 6b 6d be c8 04 9b bf 44 7d 49 be 71 15 53 3e
       -0.23185644 -1.2110834 -0.19676691 0.20613648
0003e0 61 5b 38 3f c0 f5 0f 3f 07 d9 84 be 21 31 f9 bd
       0.72014433 0.5623436 -0.2594683 -0.12167574
0003f0 76 a2 41 3f bb dc 80 be de a8 0c be 4f fd ad bf
       0.7563852 -0.25168404 -0.13736293 -1.3592929

network_body._body_endoder.seq_layers.0.bias f4 [128]
000000 bb da 29 be 74 be b8 be ec f7 85 bd b9 d6 21 be
       -0.16587345 -0.36082804 -0.06541428 -0.15804566
000010 d5 31 5c 3f e4 65 bb be f3 e4 67 3e 01 48 39 3f
       0.8601354 -0.36601174 0.22645931 0.72375494
000020 84 86 80 3f 7a 4e 27 3f ea 19 66 3f ae ac 4a 3f
       1.0041051 0.6535412 0.8988329 0.7916974
000030 83 80 80 3c ba e0 be be e3 87 c7 bd f2 4b 3d 3e
       0.01568628 -0.37280828 -0.09742715 0.18486002
000040 a7 3e 85 3c 4f 22 8a 3f a5 d4 23 3f f1 a5 b9 bd
       0.016265227 1.079172 0.63996345 -0.09064854
000050 1e a1 db 3e 89 9f 95 be 63 4c 3b 3f 0c 26 4e 3f
       0.4289636 -0.29223278 0.7316343 0.80526805
000060 6c 8a 95 3d 47 5d cb bd 7d 08 39 3f b8 40 0d 3f
       0.073017925 -0.099299006 0.7227858 0.5517688
000070 03 50 9e be d7 cb 25 3f d3 d8 88 3f e3 9a 18 3f
       -0.3092042 0.6476416 1.069117 0.5961134
000080 19 f3 f8 3e 08 8c f2 3d 95 b8 01 be 35 b3 3b 3d
       0.4862297 0.11843115 -0.12668069 0.045825202
000090 59 5a 9e 3f b3 6e 33 3f 3c 52 b3 be 04 6c 38 3f
       1.2371322 0.7009079 -0.35023677 0.7203982
0000a0 00 f8 7b 3f cf 4f 4f 3d 82 33 13 3f 17 3f 6a 3f
       0.9842529 0.05061322 0.5750047 0.9150252
0000b0 00 44 8e be 45 68 53 3f 97 96 10 3f 73 15 9e 3f
       -0.27786255 0.8258098 0.5647978 1.2350296
0000c0 01 99 0e bf 66 23 e4 bc 13 e3 3d 3f d7 42 0f 3f
       -0.55702215 -0.02784891 0.7417461 0.55961365
0000d0 83 8c a4 3d 5a 21 c8 bd 27 c1 5c 3f c7 01 98 bc
       0.08034613 -0.09771986 0.8623223 -0.018555535
0000e0 65 8f cc 3d e8 5f 99 3f f6 16 5c be 26 b4 8e 3f
       0.09988288 1.1982393 -0.21493134 1.1148727
0000f0 3c 9a 98 3f 23 7a 8f be 4e 09 90 bb 72 4e 31 3f
       1.1922069 -0.2802287 -0.0043956405 0.69260323
000100 52 c2 8a bd 10 9d 4f 3f 03 b1 9c be ad 93 1b 3e
       -0.06775345 0.81099033 -0.306038 0.15193053
000110 4c b5 e0 be 97 6e 34 3f 71 ee 97 3f 9c 31 28 be
       -0.4388832 0.70481247 1.1869642 -0.16425174
000120 fd 09 2f bd be 90 a8 3e 9f 99 32 3f 07 b5 78 3f
       -0.042734135 0.3292293 0.6976566 0.97151226
000130 76 89 90 3f 03 15 1e 3b 3c 30 3d 3f 1d 83 4b 3f
       1.129195 0.002412141 0.73901725 0.7949694
000140 06 d8 48 be 4d e9 40 3e 59 14 80 be 44 fc 85 3f
       -0.19613656 0.18838997 -0.25015524 1.046761
000150 1f df 80 3f 85 12 b8 bd 11 a6 64 3f b0 f8 9a 3f
       1.0068091 -0.08987907 0.893159 1.2107143
000160 04 0c 87 3f a7 6d 39 3f 40 9c 17 3f 03 7f 25 3f
       1.0550542 0.7243294 0.59222794 0.6464693
000170 91 ad 7d 3c e2 f2 c2 3d e5 4a 99 3f 39 02 89 3f
       0.015483276 0.095189825 1.1975981 1.0703803
000180 bf 66 83 be 6a 4d 8a 3f cd a8 88 3e 1a 73 41 3e
       -0.25664327 1.0804875 0.26691285 0.18891564
000190 06 75 b7 be 92 82 91 3f c2 78 3a 3f ae a9 56 be
       -0.3583147 1.1367972 0.7284051 -0.20963165
0001a0 86 af 4c be 00 d1 00 3f dc 9f e4 bd 9f 37 25 3f
       -0.19988832 0.5031891 -0.11163303 0.64537996
0001b0 91 d4 83 3f b6 43 0f 3e 96 50 49 3f dc 62 7b 3f
       1.0299245 0.13990673 0.7863859 0.9819772
0001c0 fe 85 ea bc 30 4a 6f bd 41 48 8f bd 7d 93 6f be
       -0.028628346 -0.05842036 -0.06996203 -0.23396106
0001d0 a2 24 57 3f 0f 8a 82 be 25 68 73 be 14 27 9c 3f
       0.8404027 -0.25495955 -0.23770197 1.2199426
0001e0 c5 08 05 3f e6 a1 82 3f c9 de 6a be 12 1c 12 3e
       0.51966506 1.0205657 -0.22936548 0.1426852
0001f0 61 81 85 3f 6e c8 57 3f a2 2f 23 3f 11 ee 97 3f
       1.0430108 0.84290206 0.63744557 1.1869527

network_body._body_endoder.seq_layers.2.weight f4 [128, 128]
000000 58 92 68 be 89 2a 0b 3e f7 3f 79 be 43 83 9a be
       -0.22712076 0.13590445 -0.24340807 -0.3017827
000010 97 b2 84 3f 1b 87 22 bf d0 e5 06 bf 35 4c 4a 3f
       1.0367001 -0.63487405 -0.52694416 0.7902253
000020 c8 20 9e 3f ad 50 3e 3f 8d 93 93 3f 69 53 6a 3f
       1.2353754 0.7434185 1.1529404 0.91533524
000030 13 80 9f be d5 d3 d0 be 6c 0f 36 be d4 af 17 bf
       -0.311524 -0.40786615 -0.1777932 -0.5925267
000040 8e 19 e8 bc 17 80 8e 3f 92 01 3a 3f 73 cf dc be
       -0.028332498 1.113284 0.72658646 -0.4312702
000050 41 35 25 bf 98 bb 0a bf 6e 96 75 3f 3e c7 42 3f
       -0.64534384 -0.54192495 0.9593266 0.7608527
000060 19 27 4e be cb 20 5c be a5 fe 73 3f 9c 35 91 bf
       -0.20132102 -0.21496885 0.9531043 -1.1344485
000070 87 1d 26 be e1 c0 36 3f b0 c7 95 3f 4f 36 4b 3f
       -0.16222201 0.7138806 1.1701565 0.79379743
000080 a3 7c 0a bf 69 aa a4 be bb 64 10 bf de 21 03 bf
       -0.5409643 -0.32161263 -0.564037 -0.5122355
000090 0c 4e 8e 3f eb 76 49 3f 14 2d 23 3e 2c 74 7a 3f
       1.1117568 0.7869708 0.15935165 0.97833514
0000a0 bc be a2 3f 67 23 02 be 01 4e 77 3f 93 8d 76 3f
       1.2714458 -0.12708817 0.966034 0.96309775
0000b0 81 dd 20 bf 74 98 6f 3f e1 10 17 3f f9 08 81 3f
       -0.6283799 0.93592 0.5901013 1.0080863
0000c0 e0 49 61 3e b9 70 8c bd 3c d5 54 3f 38 41 0b 3f
       0.22000837 -0.06857438 0.8313787 0.5439639
0000d0 b6 fe a7 be 91 ce c1 bd 1c b0 64 3f 6e 07 55 bf
       -0.32811517 -0.094632275 0.8933122 -0.8321446
0000e0 97 84 93 be 2e 2a 82 3f c6 f1 7f 3d 59 20 9b 3f
       -0.28812096 1.0169122 0.062486432 1.2119247
0000f0 83 de 98 3f 3e 13 67 bd 32 7e 81 be 19 8b 44 3f
       1.1942905 -0.056414835 -0.25291592 0.76774746
000100 77 b8 1d be 93 05 78 3f 18 11 15 bf e3 d6 d3 be
       -0.15402399 0.96883506 -0.5822921 -0.41374883
000110 ec ab 48 be 04 bb 5f 3f 1d 07 b2 3f c2 40 df be
       -0.19596833 0.8739474 1.3908421 -0.43604094
000120 65 04 ad be be 1a c5 be 5b dd 60 3f 61 8e 82 3f
       -0.33792415 -0.38496965 0.8783776 1.01997
000130 b0 66 88 3f 55 3f 2d be 16 88 7d 3f 74 52 5a 3f
       1.0656338 -0.1691869 0.99035776 0.85282063
000140 d4 b0 50 be f7 9a 31 bf 4c 24 f8 be e7 c1 89 3f
       -0.20379955 -0.6937708 -0.48465192 1.0762299
000150 85 bd 93 3f 25 76 e9 be 16 75 90 3f 44 bc 90 3f
       1.1542212 -0.4559795 1.1285732 1.1307454
000160 79 ef 9c 3f d9 07 82 3f 39 ab 1c 3f 16 a1 52 3f
       1.2260581 1.0158645 0.61198765 0.8227705
000170 29 19 0e bf 15 fc a9 bd ca 24 91 3f ec 54 8c 3f
       -0.5550714 -0.08300034 1.1339352 1.0963416
000180 fd f8 4f be 86 43 70 3f cc 7f 2a bf f3 29 4e bf
       -0.20309825 0.9385303 -0.6660125 -0.8053276
000190 8f f1 a4 be a5 33 8c 3f d3 f2 41 3f 0f f4 da bd
       -0.32215545 1.0953261 0.75761145 -0.10691082
0001a0 0e 54 0c bf 62 d2 d8 be b4 16 1a be c6 d9 4e 3f
       -0.5481576 -0.4234801 -0.15047723 0.80801046
0001b0 73 5d 60 3f c5 b8 bd be 3e 45 4f 3f f5 cc 88 3f
       0.8764259 -0.3705503 0.8096503 1.0687548
0001c0 3d 45 e2 be f5 30 2f bf bc a5 11 be 45 81 04 bf
       -0.4419345 -0.6843408 -0.14223379 -0.5175975
0001d0 07 81 67 3f 78 be bf be 0a 29 49 bf 13 06 7a 3f
       0.90431255 -0.37450004 -0.78578246 0.9766552
0001e0 b6 c7 3e bf ff f5 91 3f 1d c7 80 bd e4 36 78 be
       -0.74523485 1.1403197 -0.06287978 -0.24239689
0001f0 bf 9d a0 3f e4 6c 89 3f af ec 52 3f 3f 77 98 3f
       1.254814 1.0736356 0.823924 1.1911391
000200 f4 e7 e4 3d 23 72 c2 bc 26 2c d1 3d 42 25 e9 3e
       0.11177054 -0.023736065 0.10213499 0.45536238
000210 5e d2 9a be a6 de f8 bb a5 56 90 3e 51 15 91 bb
       -0.30238622 -0.007594901 0.28191105 -0.00442759
000220 ad 9a 95 be 5b 0f 8c be 57 0a 92 bd c2 03 8b be
       -0.2921957 -0.27355465 -0.071308784 -0.27151304
000230 70 99 72 3e 49 e6 ba bd 76 51 7c bd f1 3d ab 3e
       0.23691344 -0.09125955 -0.061601125 0.33445695
000240 e5 95 2e 3e c9 6c 56 be 19 18 71 be ef a9 65 3e
       0.17049368 -0.20939936 -0.23544349 0.22428106
000250 be 5e 93 3d 83 c5 29 3e 75 08 25 be ff 94 93 be
       0.07195805 0.16579251 -0.16116507 -0.28824612
000260 d6 28 69 3e 9b 1b c2 3e a4 04 aa bd f5 04 53 3e
       0.22769484 0.37911686 -0.083016664 0.2060736
000270 53 64 89 3e b8 9a 9d bd 9d 56 d2 bd 28 58 d5 3c
       0.26834354 -0.07695526 -0.102704264 0.026043013
000280 02 e0 92 3e 82 2b dd 3d 33 9b 41 3e 96 9b 3e 3e
       0.2868653 0.10799314 0.1890686 0.18614039
000290 7c 59 5e be 05 7d 8a be 43 8d 0d bc 88 57 ba bd
       -0.21713823 -0.27048507 -0.008639636 -0.090987265
0002a0 d6 01 b1 bc 2b f7 08 3e d1 ee 47 be 7e c1 92 bd
       -0.02160732 0.13375537 -0.19524695 -0.07165812
0002b0 cd 34 07 3e 79 6a 88 3a 61 2d 05 bc fa 8a 65 be
       0.13203736 0.0010407708 -0.008128495 -0.22416297
0002c0 a0 8f 8f 3c c8 01 71 3e 12 c0 84 be 7e 5a 7c be
       0.01752454 0.23535836 -0.25927788 -0.24643895
0002d0 70 25 21 3e da 86 8a 3e 26 d5 2c be ba 02 31 3e
       0.15736938 0.2705601 -0.16878185 0.17286196
0002e0 a3 f6 4f 3e 04 b7 4f be 52 0e 8a 3e 2e 4c 63 be
       0.20308928 -0.20284659 0.2696405 -0.22197029
0002f0 05 bb 58 be 31 91 12 3e 8a 5c 06 3e bb 99 56 bd
       -0.21165092 0.14313199 0.13121238 -0.052392703
000300 b3 4c 8f 3d 20 f6 3e be 59 bc 5d 3e 00 a2 e9 3d
       0.06997051 -0.18648577 0.2165388 0.11407852
000310 57 1f f3 3e 03 2a 26 be cb 49 80 be b1 ef dc 3d
       0.47484848 -0.16226964 -0.250563 0.10787905
000320 60 95 07 3e dc f7 36 3e 08 fb 4d be 0a 9e 26 be
       0.13240576 0.17867988 -0.20115292 -0.16271225
000330 35 94 84 be ef 27 58 3e d8 15 59 be 4b 71 45 be
       -0.25894323 0.21108983 -0.21199739 -0.19281499
000340 b3 4b cd 3d b4 5b f8 3d 23 54 1b 3e 65 f4 98 bd
       0.10024204 0.12126866 0.15168814 -0.074684896
000350 e9 e7 9b be 1e 10 1f 3e 63 c0 6e be 67 00 97 be
       -0.3045037 0.15533492 -0.23315577 -0.29492494
000360 2b 9e 43 bd 85 c1 7a be 20 95 ff bd 15 3b 73 be
       -0.047758263 -0.24487884 -0.12479615 -0.23753007
000370 8d eb f0 3d 62 c2 c7 3e db 6f 92 be 60 c7 09 be
       0.11763678 0.3901549 -0.28600964 -0.13454962
000380 a2 66 d4 3c 70 62 c2 bd cb 11 57 3e 0e ab 8a 3e
       0.025927845 -0.09491432 0.21002881 0.2708363
000390 48 9d 21 be 9c 48 89 be 18 0d 7e be 7f 4c cd bd
       -0.15782654 -0.2681321 -0.24809682 -0.10024356
0003a0 aa 7f 91 3e ef b0 a1 bd 6a 27 1a 3e 59 e3 da bd
       0.28417712 -0.078950755 0.15054098 -0.106878944
0003b0 ab 7c e0 bd 95 0b 86 3d 59 65 0e be 07 5d 68 bd
       -0.109612785 0.06545178 -0.13905849 -0.056729343
0003c0 ac 50 34 3e c4 11 30 3e a3 fa b8 3e a6 ae ca 3e
       0.17608899 0.17194277 0.3612872 0.3958637
0003d0 04 ef 4d be b8 50 83 3e 4b 89 84 be 6d 73 56 be
       -0.20110708 0.2564752 -0.25885996 -0.20942469
0003e0 79 96 31 3e 57 be 4c be ee 7e 38 3e 61 1d a7 3e
       0.17342557 -0.19994484 0.1801717 0.32639602
0003f0 e2 2e 26 be 4b 5c 55 be 73 9c 7b be e0 3e 25 be
       -0.16228822 -0.20835988 -0.245714 -0.16137266

network_body._body_endoder.seq_layers.2.bias f4 [128]
000000 78 78 50 3f df cd 3b be b6 0c 7e be e4 53 33 be
       0.8143382 -0.18340252 -0.24809536 -0.1751247
000010 7b d0 59 3f 6a f5 6a be 42 83 2c be f4 2c 48 be
       0.8508374 -0.2294518 -0.16846946 -0.19548398
000020 28 8b 7e be f8 d5 45 3f 13 a3 08 be a5 23 0c be
       -0.24857771 0.77279615 -0.13343458 -0.13685472
000030 74 5b 94 bd 94 09 17 be 6b 7d 64 be 96 41 79 3f
       -0.07244006 -0.14749748 -0.22313468 0.973657
000040 3d 00 44 be 9d c7 b8 bd a4 b4 ea be d7 6d 6b 3f
       -0.19140716 -0.09022448 -0.45840943 0.9196448
000050 0c a2 51 be b6 67 08 be d6 ed 48 be 06 0a fc bd
       -0.20471972 -0.13320813 -0.19621977 -0.12306599
000060 37 1e 5e 3f 10 ea 49 be 3b de 2d be 39 8f 80 be
       0.86764854 -0.19718194 -0.16979305 -0.2510927
000070 23 35 94 be e7 ac 69 3f a1 0f 64 be 8b 5f 40 be
       -0.2894679 0.91279453 -0.22271587 -0.18786447
000080 4e d5 5a 3f 4b 17 a9 be 5e 6b 33 be 78 81 6c be
       0.8548173 -0.33025584 -0.17521426 -0.23096263
000090 d0 9c 6f 3f fa 0b 30 be 7b 92 3a be 2d c1 6b 3f
       0.9359865 -0.17192069 -0.1821994 0.9209164
0000a0 e8 2e 5b 3f 4e 44 48 be b9 c7 73 be b4 54 7f be
       0.8561845 -0.19557306 -0.23806657 -0.24934655
0000b0 c9 ac 58 3f d6 69 b3 be 61 53 38 3f 58 c7 3e be
       0.8463865 -0.35041684 0.72002226 -0.18630731
0000c0 ff fe 6a 3f 17 cb 14 be af 83 3c 3f 5b 73 29 be
       0.91795343 -0.14530598 0.73638433 -0.16547911
0000d0 12 e2 5b 3f f3 79 34 be 2c 16 1f be be 91 80 be
       0.8589183 -0.17624645 -0.15535802 -0.25111192
0000e0 0d b5 07 be 4b bb 30 be 46 fa 25 be 7f 7a 58 3f
       -0.13252659 -0.17258947 -0.16208753 0.84561914
0000f0 4b 55 32 be 48 46 69 3f 9a 3e 68 be 1c 06 c2 be
       -0.17415349 0.91122866 -0.2268013 -0.37895286
000100 3f ba 50 be d8 52 4a 3b 36 b9 78 be 01 76 45 be
       -0.20383547 0.0030872133 -0.24289402 -0.19283296
000110 93 99 2c be 70 39 33 be 63 81 37 be d1 5d 51 3f
       -0.16855459 -0.1750238 -0.17920451 0.8178378
000120 7c 09 4b 3f b4 00 69 be ed 24 52 3f 28 b8 46 be
       0.79311347 -0.22754174 0.82087594 -0.19406188
000130 35 31 09 be 61 96 80 be 68 2e 81 be 6b 78 26 3f
       -0.13397677 -0.2511473 -0.25230718 0.65027493
000140 56 ff 58 be 98 04 79 be 4a 50 66 3f 61 74 88 be
       -0.21191153 -0.24318159 0.8996626 -0.2665129
000150 55 c8 5e be 3c d3 64 3f a4 fd 50 3f c0 4e 53 3f
       -0.21756108 0.8938482 0.81637025 0.8254204
000160 2a 96 7f be c3 51 5a 3f 9b 48 3c 3f dc 1c 52 3f
       -0.24959627 0.8528101 0.7354829 0.82075286
000170 dc 3e 19 be ea a7 77 be cf 6d 60 3f d1 15 57 3f
       -0.14965385 -0.24185148 0.87667555 0.84017664
000180 1c d6 e4 be 40 48 c0 be 82 22 55 be d2 ed 39 be
       -0.44694602 -0.37555122 -0.20813945 -0.18157127
000190 35 2d 09 be 31 38 a8 be 9f 77 55 3f 91 12 df bd
       -0.13396151 -0.3285537 0.8338565 -0.10892213
0001a0 86 3e bd be 82 e3 4d 3f b0 16 56 be eb 19 61 be
       -0.36961764 0.80425274 -0.20907092 -0.21982543
0001b0 bf e6 6d be 99 0d 03 be 8c 7b 28 be 91 ae 7c 3f
       -0.23232554 -0.12798156 -0.1645338 0.9870387
0001c0 f4 26 64 be 06 ca 98 be 27 dc 3c be a8 47 79 be
       -0.22280484 -0.29841632 -0.18443356 -0.24343741
0001d0 9a ce 75 be f6 6c 2a be a0 70 6c be 8f 4a 46 3f
       -0.24004593 -0.16643128 -0.23089838 0.7745752
0001e0 7d af 66 3f 58 9f 2c be 7c b0 32 be ef c8 1f be
       0.90111524 -0.1685766 -0.17450136 -0.15603994
0001f0 5f e7 70 3f d2 96 48 be 80 22 66 be 8f 28 49 be
       0.94103044 -0.19588783 -0.22474098 -0.19644378

action_model._continuous_distribution.log_sigma f4 [1, 2]
000000 b5 c4 30 40 da e0 26 40
       2.762006 2.6074739

action_model._continuous_distribution.mu.weight f4 [2, 128]
000000 48 ac 19 3f 02 dd 1e 3c ff 19 4b 3e b4 56 19 be
       0.60028505 0.009696247 0.19834135 -0.14974481
000010 8c d4 16 3f fa 1c 29 3e b1 47 52 3d 65 60 53 be
       0.5891807 0.1651496 0.0513379 -0.2064224
000020 7a 52 13 3e 32 ac 0e 3f 87 0f 28 be 44 06 fd 3c
       0.14386931 0.557315 -0.16412173 0.030886777
000030 bb 6f c1 3d 1a 34 4c 3d 06 b5 2b 3e 09 ef 0a 3f
       0.09445139 0.049854375 0.16768274 0.5427099
000040 2a 2c 16 be 31 99 01 3d fc 0f b4 be f9 ee 0e 3f
       -0.14665285 0.031640235 -0.35168445 0.55833393
000050 72 67 34 3e 66 09 35 be 5a 3c 1d bd 37 72 00 3d
       0.17617586 -0.17679366 -0.038387634 0.031358924
000060 a2 5e 14 3f 20 73 53 be d4 6f 31 3d 41 76 20 3e
       0.579569 -0.20649385 0.04331954 0.1567011
000070 5a 97 d7 3d 6c a4 0a 3f 2f 28 1a be 63 e2 2f 3e
       0.10526915 0.5415714 -0.15054391 0.17176203
000080 48 58 13 3f 63 15 08 bf 69 31 7e 3d 8f 1f 45 3e
       0.5755658 -0.53157634 0.06205884 0.1925032
000090 30 eb 17 3f 34 86 18 3d 37 29 68 3d ba a3 0b 3f
       0.5934324 0.03723736 0.05667993 0.545467
0000a0 83 03 15 3f 63 34 22 3d e1 f0 2b 3e 6e 58 36 3e
       0.58208483 0.03960074 0.16791107 0.17807171
0000b0 77 4c 18 3f dd 1d 91 3d f8 95 27 3f 17 44 59 3e
       0.59491676 0.07085774 0.6546321 0.2121738
0000c0 82 90 11 3f f8 19 29 be 4d 65 f4 3e 80 76 11 3d
       0.56861126 -0.16513813 0.47733536 0.0355134
0000d0 5a da 1b 3f 6c 87 35 3e b5 9f 1b be 51 e4 2c 3e
       0.60880053 0.1772744 -0.15197642 0.16883971
0000e0 39 31 26 be b8 1d 28 be bd 59 73 3d ba 77 16 3f
       -0.16229714 -0.16417587 0.059411753 0.5877644
0000f0 23 2c 8b 3d d2 8d 16 3f a0 a8 34 3e 32 c4 bb 3d
       0.06795528 0.5881015 0.1764245 0.09168281
000100 4d 00 3e 3e 17 95 f9 3d 9d bc 3e 3e b5 30 8a bd
       0.18554802 0.1218664 0.18626638 -0.067475714
000110 74 ab a5 3c 56 93 0b be 93 ee 34 3d 9b 52 18 3f
       0.020223357 -0.13630423 0.044172835 0.59501046
000120 5b bf ea 3e 2d 0c 2c 3e 5a 6e 15 3f 40 f3 1a 3e
       0.45849118 0.1680152 0.5837151 0.15131855
000130 79 bf fd 3b 06 ab 2a 3e 94 a1 33 3e 14 9f 24 3f
       0.0077437726 0.16666803 0.17542106 0.64305234
000140 4a b8 19 3e dc 68 33 3e 8e 16 0e 3f ba 74 3e be
       0.15011707 0.1752047 0.55503166 -0.18599215
000150 6c b8 ae 3d a5 80 0f 3f 78 e9 16 3f e0 3e 1c 3f
       0.085312694 0.5605567 0.58949995 0.6103344
000160 62 46 2a 3e d2 48 16 3f 36 bb 21 3f fd c0 09 3f
       0.16628411 0.58704865 0.63176286 0.538101
000170 10 7d 1d 3d 76 48 16 be 2c 09 08 3f 2f 0b 11 3f
       0.038449347 -0.14676079 0.53138995 0.5665769
000180 32 d6 ce be 52 af a6 3d be 4b 1c 3e 5e b1 26 be
       -0.40397793 0.081389084 0.15263268 -0.16278598
000190 cb 33 29 be 89 79 1e bf c4 3b 04 3f 30 58 87 3d
       -0.16523664 -0.619042 0.51653695 0.06608617
0001a0 fa 99 1d bf 2c 29 1a 3f 18 a7 24 3e 9c f6 72 3d
       -0.61563075 0.60219073 0.16079366 0.059317216
0001b0 60 d5 44 3e 9e f2 34 be 49 42 07 be e5 4b 0a 3f
       0.19222021 -0.17670676 -0.1320888 0.54022056
0001c0 f2 1b 36 3e 5c eb be 3d 5e 98 72 3a ae 34 0e 3e
       0.17784098 0.09322235 0.0009254272 0.13887283
0001d0 9e b7 43 3e de 67 1d be f6 3b 36 3e 65 47 1d 3f
       0.19113013 -0.15371653 0.17796311 0.61437064
0001e0 91 e1 18 3f 51 9b 01 be 26 fe 06 3e 79 cd 3c 3d
       0.5971919 -0.12656905 0.13182887 0.04609439
0001f0 29 89 16 3f 1a e9 3c 3e 61 4e d3 3d e0 f1 60 be
       0.5880304 0.18448296 0.10317684 -0.21967268
000200 45 83 69 bf a7 03 a2 bd 54 ad 0f be 04 15 31 3e
       -0.91215926 -0.07910853 -0.14030963 0.17293173
000210 eb e9 62 bf f7 3f b9 bd 1b 34 ec bd a1 43 b7 3d
       -0.8863818 -0.090454035 -0.11533376 0.08948446
000220 65 c2 3c bd a6 2c 79 bf 9a 28 67 3e 6f d8 f0 bd
       -0.046083827 -0.97333753 0.22574082 -0.117600314
000230 11 41 30 be 7d e8 14 be 54 b6 25 be 41 cd 56 bf
       -0.17212321 -0.14541812 -0.16182834 -0.8390694
000240 5d 82 0b 3e 9e bc 1b be 46 ca 05 be aa 3c 5d bf
       0.13623948 -0.1520867 -0.13065442 -0.8642069
000250 79 70 be 3d 9e 43 7b 3e 7f 93 c1 bd bb a2 d7 bd
       0.09298796 0.24537513 -0.09451961 -0.10529085
000260 ce 83 65 bf 53 e0 ac 3d 4c 07 ed bd 1a f0 c2 bd
       -0.89654243 0.08441224 -0.115736574 -0.09518452
000270 72 df 76 bd a3 20 5a bf 7a 47 1b 3e 1c d9 27 be
       -0.060271688 -0.8520605 0.15163985 -0.16391414
000280 ac 7b 6f bf 4d 48 5d be e8 6f ec bd b8 e1 dc bd
       -0.93548083 -0.21609612 -0.11544782 -0.1078524
000290 6f f3 6b bf 57 af e1 bd 90 1a d8 bd 78 d9 57 bf
       -0.92168325 -0.110197715 -0.105519414 -0.84316206
0002a0 ab 5c 5b bf 1c e7 c7 bd 51 ed 2e be bc 72 f3 bd
       -0.85688275 -0.097608775 -0.17082717 -0.11887118
0002b0 50 32 61 bf cd ac a7 3e 04 90 6b bf f1 76 b6 bd
       -0.87967396 0.32749024 -0.92016625 -0.08909405
0002c0 b7 6a 6b bf 2f 66 47 3e b5 14 53 bf f7 29 89 bd
       -0.9195971 0.19472574 -0.8245347 -0.06697457
0002d0 cd a5 6d bf 02 fa 01 be 47 43 4f 3e f9 aa 29 be
       -0.92831117 -0.12693027 0.20240508 -0.16569127
0002e0 3d 62 56 3e ba 96 37 3e 30 83 e7 bd 59 7a 5e bf
       0.20935912 0.17928591 -0.11304319 -0.8690544
0002f0 17 f1 ff bd e3 66 65 bf 43 93 23 be e3 aa 87 3e
       -0.12497156 -0.8961012 -0.15974145 0.26497564
000300 58 a6 f7 bd 8c b2 34 be 17 ee 34 be 09 2e c5 bd
       -0.120922744 -0.17646235 -0.17668949 -0.09627921
000310 b3 aa d3 bd 52 9f 2c 3e 01 c1 4a bd 65 8a 60 bf
       -0.10335293 0.16857651 -0.04950047 -0.87711173
000320 0c 09 55 bf fb 8c 31 be 83 ff 69 bf 9a 00 36 be
       -0.8321693 -0.17338936 -0.91405505 -0.17773667
000330 29 8f 03 be 08 fb 16 be 35 9b 0e be 70 17 43 bf
       -0.1284758 -0.14744198 -0.13926394 -0.7620764
000340 e6 e7 08 be 47 15 29 be 09 77 62 bf 68 1a 53 3e
       -0.13369712 -0.16512023 -0.88462883 0.20615542
000350 cf a5 91 3d 3e 40 5c bf 8b 70 70 bf 88 55 6d bf
       0.071117036 -0.86035526 -0.93921727 -0.92708635
000360 c2 24 5a bd 1d f7 5b bf da 2f 62 bf 78 fa 43 bf
       -0.05325771 -0.8592394 -0.88354266 -0.7655406
000370 8a 0d da bd e1 e3 12 bd 5f dc 6f bf 74 82 66 bf
       -0.106471136 -0.035861854 -0.93695635 -0.90042806
000380 46 a7 2a be d7 8f 26 3d 32 14 29 be 7b 22 57 3e
       -0.16665372 0.04066452 -0.1651161 0.21009247
000390 7c a4 7d 3e f3 3c 4b be 51 73 5d bf 39 01 21 be
       0.24769777 -0.19847469 -0.86504084 -0.15723123
0003a0 c6 06 67 be 65 ba 70 bf 73 ea 2f be 70 34 fc 3c
       -0.22561178 -0.94034415 -0.17179279 0.030786723
0003b0 83 6e 10 be 71 b3 40 3e 99 85 59 3e 3c fc 57 bf
       -0.14104657 0.18818451 0.2124237 -0.84369254
0003c0 b4 af 05 be 95 81 d9 bd 8e a8 a8 3d 20 42 ad bd
       -0.13055307 -0.10620419 0.08235274 -0.08459878
0003d0 65 e7 0b be a2 1a 37 3e 59 fd 1b be 7e 8b 5e bf
       -0.13662489 0.17881253 -0.15233363 -0.869316
0003e0 ce 44 69 bf de 7c 49 3e 73 fd fd bd 28 17 d9 bd
       -0.9112061 0.1967654 -0.12401857 -0.1060012
0003f0 64 f6 70 bf 17 3f 0f be be e7 ad bd d5 dc ee bd
       -0.9412596 -0.1398891 -0.08491467 -0.11663214

action_model._continuous_distribution.mu.bias f4 [2]
000000 ea 1b d5 3d e6 cc 31 be
       0.10405715 -0.17363319

exp_avg f4 [128, 6]
000000 b0 c0 9e 31 7c 1f 61 b1 29 c2 9e b1 e6 6f 19 b4
       4.6203112e-09 -3.2759706e-09 -4.6204787e-09 -1.4289944e-07
000010 d0 9a 79 b0 3a 58 ce b3 de 22 f2 2f 11 92 20 af
       -9.0805674e-10 -9.608671e-08 4.4044318e-10 -1.4603808e-10
000020 54 20 f2 af e9 8f b1 b1 d9 6c 10 ae e4 c9 6e b1
       -4.4042514e-10 -5.1677387e-09 -3.2838485e-11 -3.474832e-09
000030 1c 42 19 af 8f 21 b7 2e 5a 44 19 2f fa 42 5f 31
       -1.3938756e-10 8.327838e-11 1.3939552e-10 3.2488843e-09
000040 98 98 b5 2d 75 1f 16 31 91 1a b6 31 28 ae 91 b0
       2.0645083e-11 2.1845754e-09 5.2999174e-09 -1.0599637e-09
000050 24 1b b6 b1 07 78 01 b3 3b 9d 52 af a8 1c ae b2
       -5.2999827e-09 -3.0144317e-08 -1.9155248e-10 -2.0269297e-08
000060 57 21 8d b2 89 2f ef 31 22 22 8d 32 a1 44 95 34
       -1.6429722e-08 6.9612196e-09 1.6430082e-08 2.7803347e-07
000070 9f d2 f2 30 f4 bc 48 34 08 97 23 31 4c 42 fa b0
       1.766768e-09 1.8695192e-07 2.3805473e-09 -1.8208737e-09
000080 ac 98 23 b1 7c 7c a9 b3 3c db 09 b0 84 ed 63 b3
       -2.3806406e-09 -7.892319e-08 -5.015186e-10 -5.3068575e-08
000090 df 1a 5d b0 f2 ac dc 2f a6 1c 5d 30 7e 2e 8e 32
       -8.043752e-10 4.0140652e-10 8.0440044e-10 1.6552118e-08
0000a0 79 4b e7 2e 48 35 3f 32 9d 42 3b b2 9f 44 a5 31
       1.05180704e-10 1.1129778e-08 -1.0899979e-08 4.8099333e-09
0000b0 b4 43 3b 32 17 a2 50 34 96 b2 a9 30 5c 49 0c 34
       1.09002265e-08 1.9430477e-07 1.2347126e-09 1.3065204e-07
0000c0 7d 6f a3 b2 36 3d 0d 32 74 70 a3 32 a8 ea b0 34
       -1.9026396e-08 8.221198e-09 1.9026835e-08 3.295329e-07
0000d0 67 e6 0f 31 8e eb 6d 34 a1 aa 38 b2 20 c8 a4 31
       2.0940207e-09 2.215804e-07 -1.0749006e-08 4.7957798e-09
0000e0 b6 ab 38 32 e2 47 50 34 39 69 a9 30 bd 0c 0c 34
       1.0749252e-08 1.939766e-07 1.2326274e-09 1.304315e-07
0000f0 5b 11 97 b2 09 fc fe 31 33 12 97 32 e1 09 9f 34
       -1.7586606e-08 7.421026e-09 1.758699e-08 2.9623246e-07
000100 c2 5b 01 31 ac e0 55 34 9a 59 80 b2 9b e1 df 31
       1.882413e-09 1.9918906e-07 -1.4941907e-08 6.5158026e-09
000110 55 5a 80 32 4d 5d 8c 34 b6 56 e4 30 b0 c3 3c 34
       1.494224e-08 2.6144917e-07 1.6613828e-09 1.7580055e-07
000120 f0 1d 18 32 27 0f df b0 64 1e 18 b2 e3 b9 59 b3
       8.8543715e-09 -1.6229692e-09 -8.8544745e-09 -5.0693313e-08
000130 f4 17 b1 af 8f 66 12 b3 44 03 67 30 de dc 31 b0
       -3.2213132e-10 -3.408655e-08 8.404195e-10 -6.4706096e-10
000140 b3 05 67 b0 2f cb f4 b2 1c 1c 47 af ea 99 a4 b2
       -8.404541e-10 -2.8497736e-08 -1.8108931e-10 -1.9162105e-08
000150 b0 53 ac 2e 75 cc f6 2e 3b 51 ac ae 3a fd ba 31
       7.83652e-11 1.1223104e-10 -7.836084e-11 5.442101e-09
000160 c5 17 18 2e 49 77 7b 31 0f 5e 8e b0 2d 3d f0 2f
       3.458191e-11 3.6593113e-09 -1.0358593e-09 4.3699214e-10
000170 40 5f 8e 30 5d d7 99 32 1d 43 fa 2e 5c e3 4e 32
       1.0358931e-09 1.790948e-08 1.13806055e-10 1.2042474e-08
000180 e3 20 41 32 ae 83 2e b1 90 21 41 b2 68 4f ae b3
       1.1241556e-08 -2.5395184e-09 -1.124171e-08 -8.11695e-08
000190 b3 c7 0d b0 47 6a 6a b3 65 37 9f b2 df d9 06 32
       -5.157929e-10 -5.457903e-08 -1.8535227e-08 7.849365e-09
0001a0 4a 38 9f 32 02 b6 a8 34 d0 39 09 31 9c e2 62 34
       1.8535633e-08 3.1424867e-07 1.9968986e-09 2.113033e-07
0001b0 c4 29 42 b2 06 6a aa 31 e9 2a 42 32 46 47 56 34
       -1.1301783e-08 4.9597046e-09 1.1302043e-08 1.9956232e-07
0001c0 11 4a ae 30 20 15 10 34 d4 97 9f af 26 14 15 2f
       1.2681217e-09 1.341873e-07 -2.9029812e-10 1.3558629e-10
0001d0 5a 98 9f 2f 1c 2d c4 31 bb 90 1f 2e 12 e9 83 31
       2.9030184e-10 5.709479e-09 3.628096e-11 3.839099e-09
0001e0 02 61 92 b0 62 56 12 30 f5 61 92 30 b0 00 bd 32
       -1.0650469e-09 5.323725e-10 1.0650739e-09 2.2002808e-08
0001f0 09 bb 19 2f 7f 2c 7e 32 43 72 3a 31 f2 aa d8 af
       1.3981717e-10 1.4794863e-08 2.7131513e-09 -3.9411635e-10
000200 bb 72 3a b1 65 fa 1c b2 7d 5d 7f ae 67 1b d3 b1
       -2.713178e-09 -9.137328e-09 -5.806332e-11 -6.1440235e-09
000210 c7 86 7e b2 42 8a d7 31 3d 88 7e 32 62 c9 86 34
       -1.4815391e-08 6.2730416e-09 1.4815723e-08 2.510597e-07
000220 d4 43 db 30 69 43 35 34 35 e7 f1 b1 15 15 6b 31
       1.5953625e-09 1.6881462e-07 -7.0403083e-09 3.4208985e-09
000230 cf e8 f1 31 63 88 17 34 bb 81 76 30 9b c8 cb 33
       7.0404904e-09 1.4112588e-07 8.9678637e-10 9.489414e-08
000240 e0 bc 12 32 fd c0 e1 b0 48 bd 12 b2 82 96 52 b3
       8.541264e-09 -1.6425755e-09 -8.541356e-09 -4.903132e-08
000250 92 49 ab af d6 99 0d b3 c7 52 9a ae 92 cb 3b 2e
       -3.1156994e-10 -3.2969034e-08 -7.0178134e-11 4.2699684e-11
000260 dd 53 9a 2e 65 31 fa 30 59 80 4b 2d 4e 3b a8 30
       7.018006e-11 1.8203933e-09 1.1567713e-11 1.2240464e-09
000270 3d b5 52 b2 e0 1c b8 31 70 b6 52 32 02 2f 67 34
       -1.2264818e-08 5.3583875e-09 1.226509e-08 2.1530653e-07
000280 28 0a bc 30 1f 73 1b 34 ba 22 15 b0 b5 e0 35 2f
       1.3681687e-09 1.4477381e-07 -5.4255234e-10 1.6541686e-10
000290 93 23 15 30 62 ff 6c 32 c0 c4 c0 2e e8 5b 1f 32
       5.425644e-10 1.3795075e-08 8.766099e-11 9.275915e-09
0002a0 9a c7 03 32 56 21 c0 b0 f4 c7 03 b2 7a 11 40 b3
       7.670588e-09 -1.3979313e-09 -7.670668e-09 -4.471938e-08
0002b0 5f 39 9c af ea 25 01 b3 65 1e e8 b1 33 77 54 31
       -2.8417e-10 -3.0069636e-08 -6.755544e-09 3.0917817e-09
0002c0 c8 1f e8 31 3e ee 06 34 c2 7f 5b 30 f2 74 b5 33
       6.7557018e-09 1.2566395e-07 7.985329e-10 8.4497415e-08
0002d0 20 97 a2 b2 58 b1 07 32 05 98 a2 32 24 22 a9 34
       -1.8928006e-08 7.8983575e-09 1.8928413e-08 3.1503544e-07
0002e0 c4 91 09 31 0f 74 63 34 b9 ec 60 b2 53 e8 c3 31
       2.0018982e-09 2.1183244e-07 -1.30923405e-08 5.701659e-09
0002f0 0a ee 60 32 51 60 75 34 67 95 c7 30 32 fe 24 34
       1.309264e-08 2.2852443e-07 1.4521618e-09 1.5366166e-07
000300 25 f8 5e b0 76 52 02 30 e1 f9 5e 30 d9 e2 a7 32
       -8.1115764e-10 4.741091e-10 8.111823e-10 1.9544517e-08
000310 08 8e 08 2f 9d c6 61 32 33 aa ec 31 95 36 dc b0
       1.2419588e-10 1.3141883e-08 6.8878534e-09 -1.602262e-09
000320 c9 aa ec b1 61 59 33 b3 f2 e0 91 af 14 31 f1 b2
       -6.88792e-09 -4.1757975e-08 -2.653518e-10 -2.807841e-08
000330 7a 85 fd 30 f8 b1 bb b0 ea 87 fd b0 41 7d 81 b3
       1.8446109e-09 -1.3656622e-09 -1.8446802e-09 -6.029814e-08
000340 c0 a5 d2 af a5 23 2e b3 0a b8 06 b0 4f c3 a6 2f
       -3.831655e-10 -4.054495e-08 -4.901045e-10 3.0334e-10
000350 03 b9 06 30 58 f6 4d 32 71 86 a7 2e 9f 7d 0a 32
       4.9011833e-10 1.1988583e-08 7.6181624e-11 8.06122e-09
000360 ec 85 a4 b2 18 a7 09 32 d5 86 a4 32 ef 89 ab 34
       -1.9153013e-08 8.012442e-09 1.9153427e-08 3.1951592e-07
000370 a3 86 0b 31 37 b0 66 34 fa a0 79 b2 f6 b8 d3 31
       2.0303694e-09 2.1484526e-07 -1.4530309e-08 6.161936e-09
000380 5b a2 79 32 31 f7 83 34 ff ac d6 30 31 78 31 34
       1.4530623e-08 2.4580507e-07 1.5619718e-09 1.6528135e-07
000390 2c 33 10 30 07 de 4a af 0b 33 10 b0 09 22 ef b1
       5.2459614e-10 -1.8450673e-10 -5.245943e-10 -6.959685e-09
0003a0 62 81 42 ae 80 cb a0 b1 f8 27 59 b2 08 21 c0 31
       -4.4225408e-11 -4.679748e-09 -1.264015e-08 5.5916907e-09
0003b0 46 29 59 32 45 b5 71 34 9d 99 c4 30 cd 86 22 34
       1.2640447e-08 2.251082e-07 1.4304536e-09 1.5136466e-07
0003c0 92 19 98 b2 51 c2 03 32 6f 1a 98 32 81 32 a5 34
       -1.7706757e-08 7.669386e-09 1.770715e-08 3.077039e-07
0003d0 29 5e 06 31 f1 28 5e 34 35 be 3b 32 ce 22 22 b1
       1.955309e-09 2.0690256e-07 1.0928081e-08 -2.3593887e-09
0003e0 d7 be 3b b2 38 36 9c b3 44 1e fe af 7d 13 52 b3
       -1.09282245e-08 -7.2741784e-08 -4.6223836e-10 -4.891216e-08
0003f0 df d3 73 b2 2e 95 d0 31 44 d5 73 32 9a 20 82 34
       -1.41926355e-08 6.0705565e-09 1.4192953e-08 2.4238108e-07

exp_avg_sq f4 [128, 6]
000000 28 b9 d7 32 22 b3 29 32 50 ca d7 32 47 d6 99 37
       2.5113494e-08 9.877825e-09 2.5121295e-08 1.8338802e-05
000010 58 8d 4b 30 01 1c 0b 37 31 35 f9 30 d5 49 88 2f
       7.405183e-10 8.291566e-06 1.8132252e-09 2.4790717e-10
000020 6b f0 4e 31 b7 59 5c 35 b7 c7 11 2e 50 41 c7 34
       3.0113607e-09 8.208694e-07 3.3146565e-11 3.711416e-07
000030 49 b4 34 32 be 16 e2 30 11 e9 15 2f d2 6f c2 36
       1.0518371e-08 1.6450128e-09 1.3634273e-10 5.794668e-06
000040 da a2 80 2f 89 d2 2f 36 ac 70 66 34 9e ae 35 32
       2.3398777e-10 2.619958e-06 2.1461409e-07 1.057529e-08
000050 4f 1d 66 34 a0 88 26 37 24 5a dc 2f 3b 97 96 36
       2.1431082e-07 9.9261815e-06 4.0081816e-10 4.487954e-06
000060 22 29 1b 35 bc 1f 5c 33 bd 15 21 35 2f 78 ad 38
       5.7801856e-07 5.1251604e-08 6.000881e-07 8.271669e-05
000070 77 87 65 31 c7 dc 1c 38 41 05 27 32 be d1 56 31
       3.3400889e-09 3.7398913e-05 9.721874e-09 3.1260323e-09
000080 bc a7 16 32 6f f1 c2 36 9b f8 80 2f c0 47 30 36
       8.7692875e-09 5.809757e-06 2.345971e-10 2.6267808e-06
000090 b4 5f 23 31 a2 6e 25 2f 9c 17 4f 31 0b cc 92 34
       2.3774023e-09 1.5045967e-10 3.0135885e-09 2.734308e-07
0000a0 a1 3c 42 2d 4e be 04 34 71 d1 74 34 e6 20 c4 32
       1.1041086e-11 1.236269e-07 2.2800465e-07 2.2832364e-08
0000b0 90 d6 85 34 b6 a1 1f 38 21 38 d3 30 6e 59 90 37
       2.4929295e-07 3.805916e-05 1.5368223e-09 1.7207782e-05
0000c0 21 84 43 35 5e f2 8c 33 ca 89 49 35 a0 c2 d3 38
       7.2835434e-07 6.5633444e-08 7.5078844e-07 0.00010097516
0000d0 de 18 8c 31 c2 7c 3f 38 96 31 62 34 25 f6 be 32
       4.0773633e-09 4.565414e-05 2.106593e-07 2.2230845e-08
0000e0 61 5a 7d 34 eb c7 1e 38 fc 17 d2 30 7d 94 8f 37
       2.3595341e-07 3.7856324e-05 1.5286328e-09 1.7116074e-05
0000f0 6b 03 37 35 02 e3 77 33 c5 3f 35 35 b6 71 bd 38
       6.8177786e-07 5.771563e-08 6.752055e-07 9.0334026e-05
000100 89 aa 7a 31 cc 4e 2b 38 63 26 ee 34 b9 31 34 33
       3.6476726e-09 4.0842962e-05 4.4358885e-07 4.195474e-08
000110 d8 d9 f4 34 b9 70 8d 38 31 26 3b 31 95 cc ff 37
       4.5607044e-07 6.7444e-05 2.723379e-09 3.0493635e-05
000120 8e 8a 1b 35 d4 95 c6 32 97 94 1b 35 ed b1 ce 37
       5.7943623e-07 2.3118368e-08 5.7958226e-07 2.4639967e-05
000130 ff be 88 30 24 e8 3a 37 0e 14 33 31 c1 e7 0d 30
       9.949587e-10 1.1140513e-05 2.6059328e-09 5.1624843e-10
000140 31 6a d0 30 33 7d 7d 35 45 b4 27 2e ab 38 e5 34
       1.5164173e-09 9.4432033e-07 3.8131515e-11 4.2695805e-07
000150 09 1e 48 31 37 32 3c 2f 1c 41 b5 30 d1 65 9e 34
       2.9120903e-09 1.711634e-10 1.3187988e-09 2.9503875e-07
000160 2f 96 51 2d c6 3b 0f 34 5b d8 3b 31 07 38 d6 2f
       1.1913622e-11 1.3339658e-07 2.7335065e-09 3.8966183e-10
000170 e8 3c 21 33 9b 19 72 35 66 2b 20 2e 33 ec da 34
       3.7541128e-08 9.0189286e-07 3.6418334e-11 4.0777522e-07
000180 5a b5 66 35 19 26 27 33 43 7a 5f 35 9a 99 1f 38
       8.594558e-07 3.8917367e-08 8.325189e-07 3.8051607e-05
000190 6e 2d d3 30 19 52 90 37 c5 3a 44 35 69 f9 86 33
       1.5365182e-09 1.7204367e-05 7.310121e-07 6.285229e-08
0001a0 8d 9a 48 35 6b 96 cf 38 2d 56 89 31 d5 b6 3b 38
       7.4730707e-07 9.898547e-05 3.997022e-09 4.475455e-05
0001b0 f7 86 87 34 d1 b9 d2 32 74 b5 8c 34 15 f8 29 38
       2.524391e-07 2.4531717e-08 2.6209057e-07 4.0523784e-05
0001c0 bd e5 e0 30 70 b2 99 37 57 7f 3c 32 88 aa 08 31
       1.6363441e-09 1.8322113e-05 1.0971994e-08 1.988754e-09
0001d0 9b b4 1e 32 69 a2 fb 36 26 7a a6 2f 49 8b 63 36
       9.237875e-09 7.49929e-06 3.0282016e-10 3.390671e-06
0001e0 82 30 d6 30 64 88 82 2f 01 b0 d2 30 5f 4b e9 34
       1.5584336e-09 2.3743774e-10 1.5329534e-09 4.3454472e-07
0001f0 03 58 9a 2d c4 f5 52 34 e3 e7 8f 33 d4 53 54 31
       1.7546858e-11 1.9647183e-07 6.7011364e-08 3.089771e-09
000200 7f 33 90 33 53 fd 50 36 99 43 0a 2f 69 fb bc 35
       6.7148896e-08 3.114187e-06 1.2575042e-10 1.4080262e-06
000210 48 76 fb 34 7b e4 30 33 9b e7 02 35 3c 9f 8b 38
       4.6838454e-07 4.1185995e-08 4.8765804e-07 6.657696e-05
000220 3f be 38 31 ab 82 fc 37 9c aa 93 33 68 14 20 32
       2.6883666e-09 3.0101588e-05 6.8762546e-08 9.317866e-09
000230 e9 ae 99 33 fa fe 84 37 d9 f9 2f 30 05 87 f0 36
       7.156434e-08 1.5854359e-05 6.4019684e-10 7.1682757e-06
000240 1f 25 13 35 7f 1e d4 32 6c 36 13 35 8e fb cf 37
       5.4815786e-07 2.4693916e-08 5.484096e-07 2.4793462e-05
000250 07 99 89 30 3f 12 3c 37 a3 7f 1b 2f 7a 1e 21 31
       1.0011555e-09 1.12099215e-05 1.4142514e-10 2.3445907e-09
000260 99 e0 13 2e 72 5d 11 37 98 57 c0 2f d8 72 83 36
       3.3623413e-11 8.66443e-06 3.4986836e-10 3.917474e-06
000270 d0 a3 9e 34 92 f7 f4 32 b1 f2 9f 34 c8 b9 43 38
       2.9548983e-07 2.851792e-08 2.979264e-07 4.6664645e-05
000280 27 7d 01 31 e2 fc b0 37 54 8a 17 30 57 e8 54 30
       1.8843112e-09 2.1098593e-05 5.5130056e-10 7.7455325e-10
000290 5d 9b 0f 30 77 2a 24 35 09 38 d9 2d 18 73 94 34
       5.224388e-10 6.1156555e-07 2.4694928e-11 2.765089e-07
0002a0 81 9a e5 34 86 8c 8b 32 08 9c e5 34 f3 e7 94 37
       4.276699e-07 1.6245632e-08 4.2768102e-07 1.7750985e-05
0002b0 0d 07 45 30 83 a6 06 37 8f 31 a9 33 0a 77 0c 32
       7.16782e-10 8.025791e-06 7.8786904e-08 8.176139e-09
0002c0 5c af a3 33 7a f6 55 37 df 8d 0d 30 9b 7a c1 36
       7.622177e-08 1.2753177e-05 5.149711e-10 5.7661214e-06
0002d0 7f 84 56 35 23 d8 8e 33 61 40 5c 35 82 8e db 38
       7.991402e-07 6.651705e-08 8.205007e-07 0.00010469278
0002e0 48 41 91 31 98 89 46 38 64 e0 b5 34 a3 37 13 33
       4.227477e-09 4.7335023e-05 3.3877143e-07 3.4276706e-08
0002f0 e3 a0 c1 34 eb 08 77 38 23 6f 23 31 87 62 df 37
       3.6066112e-07 5.8897695e-05 2.3782796e-09 2.6629552e-05
000300 29 45 91 30 32 bd 40 2f e5 55 1b 30 60 5f a4 34
       1.0569795e-09 1.7529514e-10 5.6510735e-10 3.0616775e-07
000310 fd 7d 59 2d df a2 14 34 b7 cb c4 34 fc ad cc 32
       1.2362997e-11 1.3842826e-07 3.6656067e-07 2.3827845e-08
000320 ca bf c4 34 de de a2 37 4b 81 57 30 3b 47 13 37
       3.664739e-07 1.9415686e-05 7.840028e-10 8.778467e-06
000330 37 22 a2 31 41 06 fd 30 c5 bc a1 31 8c 4a 62 36
       4.7187103e-09 1.840995e-09 4.7071773e-09 3.3720016e-06
000340 e1 b5 15 2f 90 a0 cc 35 d9 ff c0 2f 33 c4 d6 2e
       1.3616087e-10 1.5245914e-06 3.5106387e-10 9.766445e-11
000350 0a 29 e8 2f f3 58 84 34 29 1e 2f 2d bd 5a ef 33
       4.2229714e-10 2.4651635e-07 9.954295e-12 1.114581e-07
000360 75 a9 58 35 53 4d 8f 33 3b d0 5e 35 2d 7b d6 38
       8.0712863e-07 6.6730216e-08 8.300446e-07 0.000102272585
000370 b6 e5 8d 31 ad f2 41 38 3a d1 f1 34 7d d0 2d 33
       4.129755e-09 4.6240795e-05 4.504198e-07 4.046932e-08
000380 b9 88 fd 34 23 34 89 38 1c 8b 35 31 10 23 f8 37
       4.72244e-07 6.54238e-05 2.641804e-09 2.9580231e-05
000390 a1 90 af 30 f9 4d 20 30 43 ad a5 31 97 62 00 36
       1.2774032e-09 5.8318467e-10 4.8218296e-09 1.9130873e-06
0003a0 fa df a9 2e 3a 30 68 35 aa f9 a0 34 c9 14 02 33
       7.7250165e-11 8.6496914e-07 2.9983977e-07 3.0286888e-08
0003b0 ef 63 a9 34 9d 76 51 38 dd 93 0a 31 15 69 bd 37
       3.1551414e-07 4.993995e-05 2.0165694e-09 2.2579488e-05
0003c0 49 6d 28 35 ee 25 72 33 bd c1 2a 35 b8 1d b5 38
       6.274391e-07 5.6379513e-08 6.361186e-07 8.636288e-05
0003d0 95 a5 6f 31 e4 c6 23 38 18 f4 5e 35 5d 40 27 33
       3.48732e-09 3.904746e-05 8.305665e-07 3.8941256e-08
0003e0 9f f8 5e 35 80 6f 1c 38 86 fd ce 30 8f 75 8d 37
       8.3063236e-07 3.729714e-05 1.5060528e-09 1.6863252e-05
0003f0 cf 2d e3 34 91 aa 2e 33 3f 56 f1 34 b6 a9 91 38
       4.2315375e-07 4.066766e-08 4.49525e-07 6.94575e-05

exp_avg f4 [128]
000000 5b 44 cd 32 95 8a 6d 30 c0 56 15 b0 d9 33 ad 31
       2.3896225e-08 8.6417035e-10 -5.4329163e-10 5.040857e-09
000010 95 b0 47 b3 c8 bc 62 32 a3 35 3e b1 cc 8d 0b b3
       -4.64939e-08 1.3197855e-08 -2.7679128e-09 -3.2492423e-08
000020 7e ad 6c b3 79 51 0b b3 b4 c2 54 b3 4d c7 3b b3
       -5.5105822e-08 -3.243756e-08 -4.9537178e-08 -4.3720593e-08
000030 d6 a2 11 32 d5 bd a3 31 21 27 7a b0 c1 ce 4d b1
       8.477135e-09 4.7655058e-09 -9.1005076e-10 -2.9948952e-09
000040 de 30 69 32 43 b3 61 b3 77 54 0f b3 bb 38 83 b0
       1.3573496e-08 -5.2549932e-08 -3.3371602e-08 -9.547628e-10
000050 b8 d8 7c b1 10 01 d2 30 10 51 34 b3 30 b8 ca b2
       -3.6794017e-09 1.5279813e-09 -4.198324e-08 -2.3599654e-08
000060 7d dc 0c 32 6a 5a a7 af 4c a3 1a b3 da 86 1e b1
       8.199206e-09 -3.0441366e-10 -3.6004437e-08 -2.306868e-09
000070 47 79 00 32 59 82 b4 b2 f4 43 62 b3 99 21 24 b3
       7.478156e-09 -2.1014033e-08 -5.268153e-08 -3.8214782e-08
000080 bc 98 60 b1 93 ee ef 31 d9 3a 2d 32 77 c4 09 b1
       -3.268311e-09 6.9829382e-09 1.0083306e-08 -2.0047801e-09
000090 c4 7b 65 b3 e3 8a 30 b3 83 f4 9f 30 79 ad 21 b3
       -5.343078e-08 -4.110451e-08 1.1638267e-09 -3.7643506e-08
0000a0 f4 ff 5c b3 9c fa 50 32 61 15 2e b3 50 21 22 b3
       -5.145553e-08 1.21641754e-08 -4.0531976e-08 -3.7748862e-08
0000b0 77 ea f5 30 79 51 0b b3 78 91 ae b2 63 c2 5e b3
       1.7892735e-09 -3.243756e-08 -2.0322418e-08 -5.1865197e-08
0000c0 7a b2 bd 30 5b 8d 24 2e c3 56 38 b3 bb 06 30 b2
       1.3802286e-09 3.741483e-11 -4.2919748e-08 -1.0246079e-08
0000d0 49 13 06 33 a0 bf a8 af 0b be c7 b2 92 59 4b 31
       3.1216846e-08 -3.069518e-10 -2.325307e-08 2.9591303e-09
0000e0 70 03 17 32 26 71 65 b3 91 37 0c 30 db f8 61 b3
       8.790138e-09 -5.3421125e-08 5.101067e-10 -5.2613228e-08
0000f0 45 ad 64 b3 da ae 24 32 2d c7 1a 32 fd 4d d4 b2
       -5.3242974e-08 9.585813e-09 9.009267e-09 -2.4715513e-08
000100 fe 73 6f af 21 f1 4c b3 92 a4 8a 31 32 d2 1f 33
       -2.1778132e-10 -4.7716757e-08 4.035038e-09 3.7211244e-08
000110 f4 11 93 31 c9 71 db b2 12 ad 6d b3 a6 4d bd af
       4.280304e-09 -2.5546699e-08 -5.533827e-08 -3.4434072e-10
000120 e8 33 c0 32 35 03 3e 33 44 26 38 b3 3f 01 4f b3
       2.2375346e-08 4.424074e-08 -4.287564e-08 -4.8197077e-08
000130 1c f3 57 b3 75 10 5a 32 af b1 33 b3 2d 1f 4c b3
       -5.0279695e-08 1.2693012e-08 -4.1838288e-08 -4.7525806e-08
000140 70 89 10 32 57 39 63 b1 89 b2 26 2f ae 85 5e b3
       8.413153e-09 -3.3065441e-09 1.516104e-10 -5.1809984e-08
000150 98 ac 53 b3 68 b2 91 b0 a4 d6 4e b3 b5 e4 65 b3
       -4.928424e-08 -1.0600845e-09 -4.8158327e-08 -5.3526225e-08
000160 da c2 6c b3 18 95 3f b3 b1 20 79 b2 87 ea 37 b3
       -5.512525e-08 -4.4606253e-08 -1.4501141e-08 -4.282131e-08
000170 fb 6d 0f b1 1e 05 4b 32 d7 42 62 b3 0a 9e 66 b3
       -2.0871755e-09 1.1817319e-08 -5.2680516e-08 -5.3694784e-08
000180 97 14 4a 32 55 52 58 b3 c6 f7 8e b0 5a c0 8f b1
       1.1762629e-08 -5.03663e-08 -1.0402281e-09 -4.1837156e-09
000190 39 89 97 31 fe 94 63 b3 c8 60 35 b3 92 b6 71 af
       4.410279e-09 -5.2988064e-08 -4.223037e-08 -2.1983684e-10
0001a0 35 98 8f 30 43 aa 3a af 76 c6 bd ae d9 c1 98 b2
       1.0447879e-09 -1.697709e-10 -8.629979e-11 -1.778328e-08
0001b0 b8 0d 4e b3 8d cc 3c 32 a3 de de b2 3e 90 6d b3
       -4.797559e-08 1.098955e-08 -2.5945445e-08 -5.531205e-08
0001c0 0d bc cf af 3f d2 f1 2f 84 70 99 2f 81 57 29 31
       -3.77867e-10 4.3987033e-10 2.7910485e-10 2.4642477e-09
0001d0 57 3c ac b2 00 73 b2 ae be ee 2d b0 3f d3 62 b3
       -2.0050875e-08 -8.114931e-11 -6.3276306e-10 -5.2811853e-08
0001e0 81 29 52 b1 4f 25 5e b3 26 c0 41 ad 64 6b 6b 32
       -3.0582614e-09 -5.1722335e-08 -1.1013445e-11 1.3703218e-08
0001f0 2a a4 6a b3 2c c1 45 b3 30 39 1e b3 b5 fb 75 b3
       -5.4631677e-08 -4.6043326e-08 -3.6839253e-08 -5.7272434e-08
