results/1/MoveToGoal/MoveToGoal-11880.onnx (onnx, 75062 bytes, 7 tensors)

network_body._body_endoder.seq_layers.0.weight f4 [128, 6]
0	0x3cef17ae	0.029186096
1	0xbf009fc4	-0.50243783
2	0x3eac8b2d	0.33699933
3	0xbf2451f7	-0.6418757
4	0xbdedd27d	-0.11612413
5	0x3da81113	0.08206382
6	0xbd4f93cc	-0.05067806
7	0x3f01e481	0.50739294
8	0x3d28f15c	0.041245803
9	0x3c992f0e	0.018699195
10	0x3d5b826c	0.053591177
11	0xbe53f85e	-0.20700213
12	0xbf0bb7a1	-0.5457707
13	0x3ebae610	0.3650365
14	0x3e730c58	0.23735178
15	0x3dd6390c	0.104600996
16	0x3f2cbf8f	0.67479795
17	0x3e9e651d	0.30936518
18	0xbeb914f5	-0.361488
19	0xbe984c03	-0.29745492
20	0xbf41829b	-0.75589913
21	0xbc8e81fa	-0.017395962
22	0x3f101ead	0.5629681
23	0xbeb505b0	-0.35355902
24	0x3ea714fd	0.326332
25	0x3e881254	0.26576483
26	0x3de1e1c4	0.110293895
27	0xbe479b51	-0.19492842
28	0xbdeec758	-0.116591156
29	0x3daf41c8	0.08557469
30	0x3ce0d2d4	0.02744428
31	0xbed3e37c	-0.41384494
32	0xbf11d091	-0.5695887
33	0xbec20d2f	-0.37900683
34	0x3eaacfec	0.33361757
35	0x3ee50123	0.4472743
36	0xbe43dce4	-0.19127232
37	0xbdbf3f9e	-0.09338306
38	0xbefb9f38	-0.49144912
39	0xbebe157d	-0.3712577
40	0xbda1963b	-0.07889982
41	0xbd8b00c2	-0.06787254
42	0x3ed9ebd7	0.42562744
43	0x3e903f22	0.28173167
44	0x3c859b29	0.016309338
45	0xbd99ae65	-0.07503966
46	0x3e00351c	0.1252026
47	0x3f1112c8	0.5666928
48	0x3f75c5ef	0.9600515
49	0xbd771d27	-0.060330536
50	0x3ec9fdbe	0.39451402
51	0x3f1a7e65	0.6034911
52	0x3d1c6fe1	0.038192634
53	0xbcb75de6	-0.022383641
54	0x3eef338a	0.4671901
55	0xbe3481a4	-0.17627579
56	0x3f05242c	0.5200832
57	0xbead5717	-0.33855507
58	0x3e9c7143	0.30555162
59	0x3f01e918	0.507463
60	0x3e929013	0.28625545
61	0xbec07f4b	-0.37597117
62	0xbef70b22	-0.4825068
63	0xbf0a97b8	-0.54137754
64	0xbeb27f88	-0.34862924
65	0x3db23f01	0.08703423
66	0xbe7060cb	-0.23474424
67	0xbde9b98a	-0.11412342
68	0xbed80c1c	-0.4219674
69	0x3f22ac00	0.635437
70	0xbf348c86	-0.7052692
71	0x3e827295	0.25478044
72	0x3e42c084	0.19018751
73	0xbf0be700	-0.54649353
74	0xbe6a5cb8	-0.22886932
75	0xbe9437cd	-0.28948823
76	0x3f50cc40	0.8156166
77	0x3ed335a8	0.41251874
78	0x3ecd1ff5	0.40063444
79	0xbe7b895f	-0.24564122
80	0x3e84a2ae	0.25905365
81	0xbe29f647	-0.16597854
82	0x3e32ff2a	0.1748015
83	0x3f4055d9	0.75130993
84	0x3e9feb97	0.31234428
85	0xbf04036e	-0.51567733
86	0x3ec83b7b	0.3910788
87	0xbdba6945	-0.0910211
88	0xbf388694	-0.7208035
89	0x3cf0327b	0.029320946
90	0x3eb45b2d	0.35225812
91	0x3eacf946	0.3378393
92	0xbf2fd68e	-0.6868676
93	0xbeadeddc	-0.33970535
94	0x3e966efe	0.29381555
95	0xbea92132	-0.3303314
96	0x3f02dca2	0.5111791
97	0x3e405bf2	0.18785074
98	0xbe0bf521	-0.13667728
99	0x3dd6691f	0.10469269
100	0xbf06f3fa	-0.5271603
101	0x3e716b00	0.23575974
102	0x3ebb2b2c	0.36556375
103	0x3e8bd305	0.27309433
104	0xbdfefe8a	-0.12450893
105	0x3c9eac0d	0.01936915
106	0x3e86fd8a	0.2636531
107	0xbef15f91	-0.47143224
108	0xbe02c8b6	-0.12771878
109	0xbe124cd6	-0.14287123
110	0xbde23534	-0.11045304
111	0xbeae78c1	-0.34076503
112	0x3f0c27c1	0.5474816
113	0x3bd4cf27	0.006494421
114	0x3e99ee35	0.3006455
115	0xbec129cb	-0.37727198
116	0x3e95f9bd	0.29292098
117	0x3e12d36a	0.1433846
118	0x3eb92ac9	0.36165455
119	0xbf3b705e	-0.73218334
120	0x3ec6ce13	0.38829097
121	0xbdda2489	-0.106515
122	0xbe96ea8c	-0.2947582
123	0x3f02b48f	0.5105676
124	0xbed5f713	-0.41790065
125	0xbd7e7db5	-0.062131602
126	0x3e7b5973	0.24545841
127	0x3e3b763b	0.1830682
128	0xbea04aae	-0.31306976
129	0x3d1998fd	0.037499417
130	0x3f0c579d	0.5482119
131	0x3f786236	0.9702486
132	0x3f802fb0	1.0014553
133	0x3e3d25fa	0.18471518
134	0xbe33e043	-0.17566018
135	0x3f772844	0.96545815
136	0x3eeddbfc	0.46456897
137	0x3e9d531d	0.30727473
138	0x3f0181af	0.50588506
139	0x3ca8bf7f	0.020599125
140	0x3ed71cce	0.42014164
141	0xbf34ad15	-0.705766
142	0x3e16bf61	0.14721443
143	0xbe5617de	-0.20907542
144	0x3e9f0a84	0.3106271
145	0xbe2faa36	-0.17154774
146	0x3f0303ea	0.5117785
147	0xbeb3326d	-0.3499941
148	0xbe47f88f	-0.19528411
149	0xbf20ca3d	-0.6280859
150	0xbd2fe329	-0.042941246
151	0xbe965ea5	-0.29369083
152	0x3e26f472	0.16304186
153	0xbe9ca9dd	-0.30598345
154	0x3f187186	0.59548223
155	0x3e82b0f4	0.2552563
156	0x3e470a8b	0.19437616
157	0xbcbf07c1	-0.023319127
158	0xbe7fd32a	-0.24982896
159	0xbe0c5c0e	-0.13706991
160	0x3d862c50	0.06551421
161	0xbeb26842	-0.34845167
162	0xbe8f091e	-0.27936643
163	0xbe6e3017	-0.23260532
164	0x3f011b12	0.5043193
165	0x3d2ec54a	0.04266862
166	0xbe3ca094	-0.1842063
167	0x3d95f4f3	0.07322111
168	0x3e50c190	0.20386338
169	0xbe9c8297	-0.30568382
170	0xbf6bb7e5	-0.92077476
171	0xbe290951	-0.1650746
172	0xbe36cb2b	-0.1785094
173	0x3e5ac9ec	0.2136609
174	0x3e9b5438	0.3033769
175	0xbf17a95a	-0.59242785
176	0x3e447589	0.19185461
177	0xbe935d36	-0.28782052
178	0xbe68b20e	-0.22724172
179	0x3f548109	0.8300939
180	0xbd9fe157	-0.07806652
181	0xbee5204a	-0.44751197
182	0x3e061a50	0.13095975
183	0x3f62ced9	0.88596874
184	0x3f81c986	1.0139625
185	0xbe834586	-0.2563898
186	0xbe4d71a7	-0.20062886
187	0x3f217b68	0.6307893
188	0xbe470112	-0.19434002
189	0xbec830d8	-0.39099765
190	0x3f07d871	0.5306464
191	0xbd747e01	-0.05969048
192	0x3ebfafe3	0.37438878
193	0xbecc791b	-0.39936146
194	0x3eaddfb7	0.33959743
195	0x3e557e74	0.2084902
196	0x3e0e13ef	0.13874792
197	0x3f564a05	0.83706695
198	0x3f61ea6c	0.88248324
199	0x3ed178a6	0.4091236
200	0x3efeac36	0.49740762
201	0x3df15957	0.11784618
202	0x3f4b5c97	0.79438156
203	0xbd7543d6	-0.059879147
204	0xbe6f2ab0	-0.23356128
205	0xbdf73ecb	-0.12072524
206	0xbf382e47	-0.71945614
207	0xbf16eb09	-0.58952385
208	0xbf4adba7	-0.7924141
209	0xbf0811e7	-0.53152317
210	0x3eca9cad	0.3957266
211	0x3e417502	0.18892291
212	0x3ec854dd	0.39127246
213	0xbeea78a9	-0.4579518
214	0x3e61e49f	0.22059868
215	0x3ebe45c0	0.3716259
216	0xbe0cc0c2	-0.13745406
217	0x3db24145	0.087038554
218	0x3dc5b5e2	0.09653832
219	0xbf00a200	-0.5024719
220	0xbecddddc	-0.40208328
221	0xbd45b7fc	-0.048271164
222	0xbdda506e	-0.10659872
223	0xbee2429c	-0.44191444
224	0xbf3caead	-0.73704034
225	0xbdf2e2fa	-0.118596986
226	0xbea23d11	-0.31687215
227	0x3e97235b	0.29519162
228	0xbeb9a3d3	-0.362578
229	0x3ecadadb	0.39620098
230	0x3ebec139	0.37256792
231	0x3e09a265	0.13440855
232	0xbd276d1a	-0.04087553
233	0x3e826d67	0.25474092
234	0xbddd0931	-0.10792769
235	0xbf47e091	-0.78077036
236	0xbf086b70	-0.53288937
237	0x3e8e98b6	0.27850884
238	0xbf38cd08	-0.7218785
239	0x3df64bfe	0.12026213
240	0x3f118012	0.56836045
241	0x3d5a7301	0.053332333
242	0x3de3f32e	0.11130367
243	0x3f2fa224	0.6860678
244	0x3e22a661	0.15883781
245	0xbf299c43	-0.6625406
246	0x3ed12d39	0.40854815
247	0x3f08fd0d	0.53511125
248	0x3dd5e3be	0.10443829
249	0xbe1037f0	-0.14083838
250	0xbec58767	-0.38579866
251	0x3f405561	0.7513028
252	0xbe292d99	-0.165213
253	0xbeb55f86	-0.3542444
254	0x3cdd29d6	0.026997488
255	0x3f15164f	0.58237165

network_body._body_endoder.seq_layers.0.bias f4 [128]
0	0x39bcf79e	0.00036042643
1	0xb95b27aa	-0.00020900244
2	0xba44c96a	-0.00075068197
3	0x38f44630	0.000116479
4	0x3a003640	0.00048908964
5	0x3a078506	0.00051696633
6	0xba2850f3	-0.0006420754
7	0x3a8d029d	0.0010758225
8	0x3a31df47	0.0006785285
9	0x3b04b85b	0.0020251486
10	0x39e2b27f	0.0004323907
11	0xba116cb1	-0.00055475073
12	0xba24c108	-0.00062848674
13	0x38b1d437	8.479546e-05
14	0xba1f60ba	-0.0006079782
15	0xba6a415e	-0.0008936132
16	0x3a6d2cbf	0.00090475
17	0x39cc95ec	0.00039021613
18	0xba594675	-0.0008288392
19	0xbb2820c5	-0.0025654298
20	0x399cbbcb	0.00029894555
21	0xba3d8311	-0.0007229308
22	0x3a0a2a75	0.0005270609
23	0xbad20f34	-0.0016026259
24	0xbb492143	-0.0030689992
25	0x39582bd9	0.000206157
26	0x3a0abc54	0.00052923453
27	0x39d853ea	0.0004126125
28	0xb9b4b473	-0.0003446672
29	0xb83a73b4	-4.4453613e-05
30	0xbaa2a742	-0.0012409466
31	0xb9a23c66	-0.00030944048
32	0x39a9d90c	0.00032395904
33	0x39fff3fb	0.0004881917
34	0x39fe10a7	0.00048459062
35	0x3a11c716	0.0005560977
36	0xba591b81	-0.00082819915
37	0x39853dfa	0.00025413913
38	0xba492879	-0.00076735724
39	0x3a8dca6c	0.0010817773
40	0xba3aab84	-0.0007120895
41	0x396867f4	0.0002216397
42	0xbab6cf08	-0.0013947198
43	0x3a2380f0	0.000623717
44	0xba15ef8b	-0.00057195936
45	0xb9f9df0c	-0.00047659164
46	0xba49623f	-0.00076821813
47	0xba7641aa	-0.000939394
48	0xb9b98c74	-0.00035390595
49	0x3a1cda28	0.00059834355
50	0x3a193002	0.00058436405
51	0xb9922a41	-0.00027878772
52	0x399361a5	0.00028110776
53	0x39cbb63c	0.00038854952
54	0x3a8a5307	0.0010553309
55	0xba46142e	-0.00075561076
56	0x3a047ab1	0.0005053683
57	0x39d472d1	0.00040521336
58	0x39b49538	0.00034443452
59	0x3a1a6b83	0.0005890654
60	0xbb1cafc7	-0.0023908482
61	0x390a74c1	0.000132042
62	0x3927e15a	0.00016010311
63	0x397b5c93	0.00023971712
64	0xba39881f	-0.00070774736
65	0xba427922	-0.0007418563
66	0x396f59b2	0.0002282623
67	0x399fd95d	0.00030488792
68	0x3a297875	0.0006464788
69	0xba427f98	-0.00074195256
70	0x38f9d839	0.0001191352
71	0xb9fa04d2	-0.00047687307
72	0x3930bdf4	0.00016855431
73	0xba302246	-0.00067189743
74	0x39a96021	0.00032305814
75	0x391b0f18	0.00014787575
76	0x3a5a7b02	0.00083343696
77	0x3980f9e8	0.00024600257
78	0xbaac509e	-0.0013146584
79	0x399b1a97	0.00029583715
80	0xba71d66e	-0.0009225373
81	0x3a22808e	0.0006198966
82	0x3a012ce9	0.00049276516
83	0x39af58f9	0.0003344489
84	0x37bce786	2.2519158e-05
85	0xba735f5b	-0.00092839234
86	0xb9e1534e	-0.0004297741
87	0x39b15848	0.00033825845
88	0xba93b327	-0.0011268602
89	0xba8d0838	-0.0010759896
90	0xba9337f5	-0.0011231886
91	0xb98c2c88	-0.0002673606
92	0xb87e070c	-6.0564882e-05
93	0xb91c195c	-0.00014886766
94	0x3994be41	0.0002837051
95	0xba232d7f	-0.0006224736
96	0xba4898ad	-0.0007652145
97	0x39aede41	0.00033353458
98	0xba7b539a	-0.0009587348
99	0xb9b97546	-0.00035373325
100	0x39d884c1	0.0004129764
101	0x39c1498e	0.0003686663
102	0xb98588f0	-0.00025469763
103	0x39eaffef	0.00044822643
104	0xba4d3984	-0.00078287
105	0xba2e5201	-0.0006649793
106	0x39ac8cb0	0.00032911217
107	0xba17bc3f	-0.0005788244
108	0x392be819	0.00016394294
109	0xba3b8a24	-0.00071540684
110	0x39fe8462	0.00048545288
111	0xbab5b009	-0.0013861667
112	0xba3d61fd	-0.0007224379
113	0xb9d94421	-0.00041440225
114	0xba144cc3	-0.00056571903
115	0xba17898a	-0.0005780688
116	0xb9e8748f	-0.0004433733
117	0xbb23d8fc	-0.002500116
118	0xba712a29	-0.0009199703
119	0xba380a25	-0.00070205546
120	0x3a253bc3	0.00063031557
121	0x3a1747a7	0.000577087
122	0x39b7093b	0.00034911357
123	0xba0f3080	-0.0005462244
124	0x398719ff	0.00025768575
125	0xbb0c6cae	-0.0021427083
126	0xba4f990e	-0.000791923
127	0x39b24e01	0.00034008923

network_body._body_endoder.seq_layers.2.weight f4 [128, 128]
0	0x3e91e3b6	0.28494042
1	0x3c902062	0.017593566
2	0xbd844cb1	-0.0645994
3	0xbd7f8458	-0.062382072
4	0x3d3965dc	0.045263156
5	0xbdd590ec	-0.10428032
6	0x3b36b654	0.0027879672
7	0x3dfe8ddf	0.124294035
8	0x3ca7ea0c	0.020497344
9	0xbb86ebd1	-0.004117467
10	0x3cfe68dd	0.031055862
11	0xbd8add5b	-0.067805015
12	0xbe091543	-0.13387017
13	0x3cc294b5	0.02375255
14	0x3d33e315	0.043917734
15	0x3d2b7206	0.041856788
16	0x3d25ecd7	0.04050907
17	0x3df5de16	0.1200525
18	0x3d7dc8aa	0.061958946
19	0xbce0461f	-0.027377186
20	0x3d8b8651	0.06812728
21	0xbe001624	-0.12508446
22	0x3db1bea7	0.08678942
23	0x3cadf18e	0.021233346
24	0xbc94331e	-0.01809078
25	0xbd3b8e7e	-0.045790188
26	0x3df4e1a0	0.11957097
27	0x3b133c01	0.0022466185
28	0xbc9e8812	-0.019351993
29	0x3dae91b3	0.08523884
30	0xbd5ea2e7	-0.054354575
31	0xbda378e7	-0.07982045
32	0x3d61767f	0.055044647
33	0xbda5eb3d	-0.08101509
34	0x3d9c5099	0.0763256
35	0xbdc64686	-0.0968142
36	0xbdf6b2da	-0.12045832
37	0x3d0e5ccd	0.03475647
38	0x3cfdb497	0.030969901
39	0x3cfe4feb	0.031043967
40	0x3db054da	0.08609934
41	0xbdb2ce35	-0.08730737
42	0x3d16f39a	0.03685341
43	0x3e3e0af9	0.18558873
44	0x3cf3a6d4	0.029742636
45	0x3dac5e98	0.0841648
46	0xbdec7663	-0.11546018
47	0x3d42bb3e	0.04754185
48	0xbd8ebeb1	-0.06969965
49	0xbdd9f179	-0.106417604
50	0x3cce66e8	0.025195554
51	0xbc70ef1d	-0.014705447
52	0xbd196a8c	-0.037455127
53	0x3d0cf5f4	0.034414247
54	0x3c2a1f63	0.01038346
55	0x3d4f4deb	0.050611418
56	0x3bda1de7	0.0066563967
57	0xbdbb3041	-0.09140063
58	0x3dc4a98c	0.09602651
59	0xbd8c62ea	-0.06854804
60	0x3c31d375	0.010853638
61	0x3d347ccd	0.04406433
62	0xbe1330a8	-0.1437403
63	0xbc62abbe	-0.013834892
64	0x3dc8409d	0.09777949
65	0xbdb32aaa	-0.08748372
66	0x3d0fe4a0	0.035130143
67	0xbd9116b1	-0.07084406
68	0xbcd06b16	-0.025441688
69	0xbdcb07a2	-0.09913565
70	0x3d86a12b	0.06573709
71	0xbe078e1f	-0.13237809
72	0x3cec4ebc	0.028846137
73	0x3d86775b	0.06565734
74	0xbe244f6a	-0.16045919
75	0xbb820884	-0.0039683003
76	0x3db44c5b	0.08803626
77	0x3db19803	0.08671572
78	0x3da14ad3	0.078756
79	0x3c5f4a7f	0.013628601
80	0xbd2893c7	-0.041156556
81	0xbdf6e373	-0.12055101
82	0x3d3cc8e8	0.046090037
83	0xbd81bfb5	-0.06335393
84	0xbdae8ecf	-0.08523332
85	0xbe1b1c15	-0.15147431
86	0xbd06f1e2	-0.03294552
87	0xbd2a2609	-0.04154018
88	0x3d5cbf8a	0.053893603
89	0xbd973787	-0.07383638
90	0xbdc64402	-0.0968094
91	0xbd638c72	-0.05555386
92	0x3c1d7d59	0.009612405
93	0x3da781e1	0.08179069
94	0xbd690f18	-0.05689916
95	0xbd3d094a	-0.046151437
96	0x3ce3dcec	0.027815305
97	0xbc3bcdf3	-0.011462676
98	0x3d98de2f	0.07464253
99	0x3dca5c23	0.09880855
100	0x3e9e1582	0.30875784
101	0xbb386a8b	-0.0028139676
102	0xbd0de39b	-0.03464089
103	0x3d9fd73f	0.07804727
104	0x3c3e945b	0.01163205
105	0x3d4ce417	0.05002221
106	0xbd4f4e51	-0.050611798
107	0xbd54d250	-0.051958382
108	0xbdc4a687	-0.09602075
109	0x3e482ce7	0.19548379
110	0xbcaeebe3	-0.021352714
111	0xbce9fa2c	-0.028561674
112	0x3e7801d3	0.24219446
113	0xbc530bfc	-0.012881275
114	0xbd9c3f9d	-0.07629321
115	0x3dc435c3	0.09580567
116	0x3df42b15	0.1192228
117	0xbda4bb66	-0.08043556
118	0xbd588993	-0.052865576
119	0xbdf8975f	-0.12138247
120	0x3c783811	0.015150086
121	0x3e13aa78	0.14420497
122	0x3e543211	0.20722224
123	0xbd8edf66	-0.069762036
124	0x3e05ddaa	0.1307284
125	0xbdba684e	-0.09101926
126	0xbe149034	-0.14508134
127	0x3d3ee58a	0.046605624
128	0x3d323dd8	0.04351601
129	0x3e1cab22	0.15299657
130	0xbe2c8dee	-0.16851017
131	0xbdf83579	-0.12119574
132	0x3ccfa29f	0.025346098
133	0xbc03608b	-0.008018623
134	0xbd14da6c	-0.036341116
135	0x3ce655d5	0.0281171
136	0x3e4fc527	0.20290051
137	0xbdc1cf80	-0.094634056
138	0xbc359511	-0.0110829035
139	0xbe4e5019	-0.20147742
140	0x3df90c74	0.12160578
141	0x3ca71c26	0.020399164
142	0xbe0b821c	-0.13623852
143	0xbd93c1a7	-0.07214671
144	0x3c5fa315	0.013649722
145	0x3d4896d6	0.048971973
146	0x3e0c37f8	0.13693225
147	0xbc2a04e5	-0.0103771435
148	0xbe2ae5c1	-0.16689207
149	0xbd1ed916	-0.038781248
150	0x3dd4d001	0.10391236
151	0xbcfdc9fc	-0.030980103
152	0x3e1c858a	0.15285316
153	0x3c455b1f	0.012045651
154	0x3bc3c7ef	0.0059747617
155	0xbe0fb1d6	-0.14032683
156	0xbdb9cc54	-0.090721756
157	0x3d8311c3	0.06399872
158	0xbc5c74aa	-0.013455549
159	0x3d40ade8	0.04704085
160	0xbcc2551e	-0.023722228
161	0xbd2457f9	-0.04012296
162	0x3bfbb4c2	0.00768146
163	0x3e33af43	0.17547326
164	0x3c71f439	0.0147677
165	0x3dc1d6ec	0.09464821
166	0xbda6282e	-0.081131324
167	0x3d980fdc	0.074249
168	0xbd8717a5	-0.06596307
169	0xbd35c244	-0.04437472
170	0xbda51012	-0.08059706
171	0x3e24fde2	0.16112474
172	0x3d97fa3f	0.074207775
173	0x3d60d43a	0.054889895
174	0xbdac619a	-0.084170535
175	0x3da55bc4	0.080741435
176	0x3e162aff	0.14664839
177	0x3d0d1ca5	0.034451146
178	0x3df4f393	0.119605206
179	0x3c47a3ce	0.01218505
180	0xbe0db450	-0.13838315
181	0xbd95d07e	-0.07315157
182	0xbe11f144	-0.14252192
183	0xbbb77181	-0.0055982475
184	0xb8bfbbb1	-9.14255e-05
185	0x3cfd0934	0.030888177
186	0x3dc136ef	0.09434306
187	0xbd2b23a3	-0.041782033
188	0x3cd4319b	0.02590256
189	0xbc8b5865	-0.017009923
190	0xbd6f6fbc	-0.058456168
191	0x3da187bf	0.0788722
192	0x3e485502	0.19563678
193	0x3dd5b580	0.10435009
194	0xbdf47761	-0.11936832
195	0xbcb2374d	-0.021754885
196	0x3cdd65fd	0.02702617
197	0xbdd2073c	-0.10255286
198	0x3dba6681	0.09101582
199	0x3b99c196	0.0046922667
200	0x3c499638	0.012303881
201	0x3e5164cf	0.20448612
202	0xbd0f406a	-0.03497354
203	0xbd5d25fd	-0.053991307
204	0x3db1da37	0.08684199
205	0xbe346096	-0.1761497
206	0x3d682ab2	0.056681342
207	0xbcf2341a	-0.02956586
208	0xbba2ed6b	-0.00497215
209	0xbcab14d6	-0.020883959
210	0x3d908676	0.070568964
211	0xbdd0a000	-0.101867676
212	0x3e7c87e6	0.24661216
213	0x3c010f52	0.007877188
214	0xbd15c291	-0.036562506
215	0x3e09d26a	0.13459173
216	0xbdf19564	-0.11796072
217	0x3d96b3a1	0.0735848
218	0x3df399f1	0.11894596
219	0x3de291b2	0.110629454
220	0xbc72cf9e	-0.014820008
221	0x3c30627d	0.010765669
222	0x3d5b693c	0.053567156
223	0x3aa4078d	0.0012514457
224	0xbd30de23	-0.043180596
225	0xbe1a9c35	-0.15098651
226	0x3d5be8e8	0.053688914
227	0xbd965a56	-0.07341449
228	0x3d96df26	0.07366781
229	0xbd43cb06	-0.04780104
230	0xbb9340b7	-0.0044937986
231	0x3c82ec88	0.015981928
232	0x3db0bf70	0.08630264
233	0x3d2556e5	0.040366072
234	0x3db46f58	0.088103
235	0xbdafc07c	-0.08581635
236	0x3bb62187	0.005558196
237	0xbd053d69	-0.03252927
238	0x3e2b2835	0.16714557
239	0x3daaf09e	0.08346675
240	0x3c8b6669	0.017016606
241	0xbd2fc6d6	-0.042914234
242	0x3cae1288	0.02124907
243	0xbe07376b	-0.13204734
244	0xbde65fd6	-0.11248748
245	0xbc0c0a02	-0.008547308
246	0x3e15aaef	0.14615987
247	0x3b1dfb9f	0.0024106277
248	0x3e097cf9	0.1342658
249	0x3c000db5	0.007815768
250	0xbc154043	-0.0091095595
251	0x3d048b2d	0.03235929
252	0xbd0ac527	-0.033879425
253	0x3c1bb800	0.009504318
254	0x3c9ec9a1	0.019383254
255	0xbad27e17	-0.0016059306

network_body._body_endoder.seq_layers.2.bias f4 [128]
0	0xba8d62e3	-0.0010786917
1	0xba41ff2d	-0.000740039
2	0x3b5676d3	0.0032724633
3	0xba3bad84	-0.000715934
4	0xba1a97b2	-0.0005897238
5	0x39c43086	0.00037420186
6	0xba0b88c8	-0.0005322811
7	0xba4890a0	-0.00076509453
8	0x39b35108	0.00034201914
9	0x390fea1c	0.00013724755
10	0xba2a7225	-0.0006501994
11	0xb7018358	-7.71958e-06
12	0x37e933ec	2.7799942e-05
13	0x3a01439c	0.0004931034
14	0x3a7c3a2b	0.0009621705
15	0xb9275d5b	-0.00015961139
16	0x38c411a6	9.3492956e-05
17	0xba2ca662	-0.0006586072
18	0xba52cbf0	-0.00080412533
19	0xba2553b6	-0.00063067244
20	0x3ab9eebd	0.001418553
21	0x399976d0	0.00029270956
22	0xb9eface1	-0.00045714437
23	0xba4e519a	-0.0007870436
24	0xba539183	-0.0008070694
25	0xba4e76a8	-0.00078759575
26	0x39cbef70	0.00038897572
27	0xb917d1e9	-0.0001447868
28	0x3a014a3e	0.00049320224
29	0xba396aeb	-0.0007073122
30	0x3a072abf	0.0005156211
31	0xb934e50c	-0.00017251464
32	0xbaa42710	-0.0012523849
33	0x39a9ae67	0.00032364132
34	0x39c8ad8c	0.00038276275
35	0xbb0c1963	-0.0021377436
36	0x3a5a616f	0.0008330559
37	0xba2bea00	-0.0006558001
38	0xb62f8a00	-2.6157359e-06
39	0x3a0fe7af	0.00054895406
40	0x39c2839a	0.00037100614
41	0x39ef37c5	0.00045627184
42	0xba287481	-0.0006426052
43	0x3a18bae5	0.00058261893
44	0x39f08c7b	0.00045881033
45	0x39b8b862	0.0003523259
46	0xba563894	-0.0008171883
47	0x39a20772	0.00030904595
48	0xba5bdd0a	-0.00083871244
49	0x39ada092	0.00033116766
50	0x39f512a5	0.00046743933
51	0x39866042	0.0002563019
52	0xb9c27dd9	-0.00037096327
53	0xb94b65e0	-0.0001939754
54	0xb9760eee	-0.0002346595
55	0xba364b0b	-0.00069539313
56	0xba31dac5	-0.00067846134
57	0x3a1b5618	0.000592561
58	0x39c3ae02	0.00037322944
59	0x38c23272	9.260037e-05
60	0x39c0cb40	0.00036772527
61	0x3a1e9161	0.0006048885
62	0xba475b19	-0.0007604822
63	0xba82eba8	-0.0009988444
64	0xba4bd85f	-0.0007776077
65	0xba33a117	-0.00068523124
66	0x39d5894e	0.00040728826
67	0xba794041	-0.0009508171
68	0xba2320de	-0.0006222854
69	0x3a8019b1	0.0009773282
70	0x39b80139	0.00035096126
71	0x389152af	6.92954e-05
72	0x39c61b31	0.00037785762
73	0x3a10f24e	0.000552927
74	0x3a0e7e29	0.00054356694
75	0x3a9fd985	0.0012195563
76	0xb96d3ba7	-0.00022624304
77	0xba356390	-0.0006919438
78	0x3a619caa	0.00086064136
79	0x39eae338	0.0004480125
80	0xba4c23c7	-0.00077873137
81	0x38954cbe	7.119168e-05
82	0x3a085e39	0.00052020286
83	0x399fa783	0.0003045165
84	0x39dfbd15	0.00042674752
85	0x39924c20	0.00027904008
86	0x39eb6616	0.00044898753
87	0x387a5e0b	5.969223e-05
88	0xba40bcdd	-0.00073523616
89	0x39d9a735	0.00041514044
90	0xba978f6b	-0.0011563128
91	0x39bf1766	0.00036447792
92	0xba463787	-0.0007561375
93	0xba65d1ed	-0.0008766938
94	0xba37c66e	-0.00070104643
95	0x39c6630e	0.00037839304
96	0xba018b92	-0.0004941757
97	0xba2b524a	-0.00065353944
98	0xba4c6b1a	-0.0007797942
99	0x3a16c0d6	0.00057507807
100	0x39378624	0.00017502211
101	0x3b2c53db	0.00262951
102	0x3a47ae22	0.00076171954
103	0x39408431	0.00018359792
104	0xb9adffbe	-0.00033187674
105	0x39de3599	0.00042383073
106	0xb9ef2819	-0.00045615507
107	0xba1fbe2a	-0.00060937053
108	0x39e72450	0.00044086808
109	0x3a15dc5c	0.0005716735
110	0x39a3cff2	0.00031244714
111	0x39ca0c08	0.00038537406
112	0x39bf802c	0.00036525854
113	0xba3023d4	-0.0006719206
114	0x39b73fca	0.00034952007
115	0x39eeacd4	0.00045523664
116	0xba856c1b	-0.0010179313
117	0xba619d0a	-0.00086064695
118	0xba2576f2	-0.0006311975
119	0xbab911ed	-0.0014119722
120	0x39ed81b9	0.00045300814
121	0xba9470ab	-0.0011325082
122	0x39eb1ace	0.00044842664
123	0x39f193d5	0.00046077245
124	0xba6d371c	-0.00090490445
125	0x39c0cb31	0.00036772483
126	0x39eecef9	0.00045549104
127	0xba42d8d7	-0.00074328243

action_model._continuous_distribution.log_sigma f4 [1, 2]
0	0xbbbd0f4b	-0.0057696453
1	0xbb3e96be	-0.0029081549

action_model._continuous_distribution.mu.weight f4 [2, 128]
0	0xb98f41dd	-0.00027324157
1	0xbba995b9	-0.005175319
2	0xbd1498b0	-0.036278427
3	0x3b5a7c11	0.003333811
4	0x3d099f78	0.033599347
5	0xbb6ef74c	-0.0036463318
6	0xbd2c37e5	-0.042045493
7	0xbbc0cf5b	-0.0058840937
8	0x3cd33de2	0.025786344
9	0x3ca35b7b	0.019941082
10	0xbc14337b	-0.009045477
11	0x3c9ebe34	0.019377805
12	0xba57364e	-0.0008209691
13	0xbc17cfd7	-0.0092658615
14	0xbcf62060	-0.030044734
15	0xbaf3ec4e	-0.0018609853
16	0x3ce01fac	0.027358852
17	0xbc9e6925	-0.019337246
18	0xbc5f7f38	-0.013641171
19	0xbcd8d868	-0.026470378
20	0xbcb01952	-0.021496449
21	0x39b592a0	0.00034632254
22	0x3ad6e409	0.0016394864
23	0x3c7e8ba2	0.015536221
24	0xbbaf5fa6	-0.0053519784
25	0xbab613b8	-0.0013891375
26	0xbc53008b	-0.012878547
27	0xbca6c315	-0.020356694
28	0xbb8eb850	-0.004355468
29	0xbbd7af23	-0.006582157
30	0x3ba52426	0.0050397096
31	0xbc06e75b	-0.00823387
32	0x3b460ced	0.0030220107
33	0x379cbfd2	1.8685972e-05
34	0x3cbb87c6	0.02289189
35	0xbd4094a4	-0.047016755
36	0x3c419e0b	0.011817466
37	0xbcfa2f11	-0.030540021
38	0x3cb4cfcf	0.022071747
39	0xbc79a4eb	-0.015237073
40	0x3b07dcec	0.0020731045
41	0x3a38dbb0	0.0007051779
42	0xbc79bcff	-0.015242814
43	0x3b2fdc16	0.0026834062
44	0x3d0e2480	0.034702778
45	0xbcb25d60	-0.02177304
46	0x3a59ca47	0.0008308035
47	0xbc270458	-0.010193907
48	0x3c56920e	0.013096346
49	0xbc963a59	-0.01833837
50	0xbab40187	-0.0013733365
51	0x3c8d37cc	0.01723852
52	0xbc318b89	-0.01083649
53	0xbcac735a	-0.021051098
54	0x3b76351d	0.003756828
55	0xbc54dce5	-0.0129921185
56	0xbc4ee3b0	-0.012627527
57	0x3bdb154e	0.0066858893
58	0x3c8bddfe	0.017073628
59	0x3c15ac6a	0.009135345
60	0x3c828d3f	0.015936492
61	0x3ca32122	0.01991326
62	0xbb9b3afc	-0.004737256
63	0x3cf2e23f	0.029648898
64	0xbcb0a9d5	-0.021565357
65	0xbc173600	-0.009229183
66	0x3d16250d	0.036656428
67	0xbaa49042	-0.0012555199
68	0xbc90f6aa	-0.017695744
69	0x3c697552	0.014249163
70	0x3ca025de	0.019549306
71	0x3c069ea6	0.008216536
72	0x3c882d78	0.016623244
73	0x3b994bf6	0.0046782447
74	0xbc1b4e22	-0.0094790775
75	0xbb1d3478	-0.0023987573
76	0xbc9b5118	-0.018959567
77	0x3c7c8e5a	0.015414799
78	0x3c84eb32	0.016225431
79	0x3c66e81e	0.014093427
80	0x3b87434f	0.004127897
81	0x3cb13fc5	0.021636853
82	0xbba5b293	-0.005056688
83	0x3d092685	0.033484
84	0x3ca944b0	0.020662636
85	0x3c623c5e	0.013808338
86	0x3bdc5715	0.006724248
87	0xbb4b5284	-0.0031024525
88	0xbc9f8f11	-0.019477399
89	0x3bfcc8b7	0.0077143568
90	0xbb2b0f30	-0.0026101582
91	0x3a8fe874	0.0010979311
92	0xbcbead05	-0.023275862
93	0xbae58a36	-0.0017512504
94	0x3c81728c	0.01580169
95	0xbc10897e	-0.008821843
96	0x3d2b67b1	0.041846935
97	0xbc97b280	-0.018517733
98	0x3c037a68	0.008024789
99	0xbbcedd97	-0.0063130367
100	0x3b2ab5be	0.0026048268
101	0xbc36b5d1	-0.011151747
102	0xbca80833	-0.020511722
103	0x3c3ae98b	0.01140822
104	0xbccee846	-0.025257241
105	0x3c5a9a65	0.013342475
106	0x3cb8078e	0.02246454
107	0xbcd8e42d	-0.02647599
108	0x3b6ba2b9	0.0035955145
109	0x3a45beb8	0.0007543373
110	0x3c95bffe	0.018280026
111	0xbc46f405	-0.01214314
112	0xbb64c03d	-0.0034904622
113	0x3b5b9b42	0.003350929
114	0xbc27b021	-0.0102348635
115	0x3a0049b0	0.0004893793
116	0xbc295b35	-0.010336687
117	0xb995fb77	-0.0002860685
118	0xbcb604b4	-0.02221904
119	0x3b7e61bb	0.0038815576
120	0x3baadf74	0.005214626
121	0xbb00100c	-0.0019540815
122	0x3c0db0e0	0.008648127
123	0x3ce345de	0.027743276
124	0xbab36cff	-0.00136891
125	0x3d0784e3	0.033085715
126	0x3cd77a3a	0.0263034
127	0xba4013b0	-0.00073271524
128	0x3b9ad1f3	0.004724735
129	0x3c75127e	0.014958022
130	0xbc4438d0	-0.011976436
131	0x3d0f204f	0.03494292
132	0x3c495359	0.012287938
133	0xbc85a997	-0.016316218
134	0xbbe297be	-0.0069150617
135	0x3cbc902b	0.023017963
136	0xbc84ba8c	-0.016202234
137	0x3c5326eb	0.012887697
138	0xbabaa935	-0.0014241101
139	0x3c7c6e1e	0.015407113
140	0xbb71af9e	-0.0036878358
141	0xbc8f102e	-0.01746377
142	0x3c72d59a	0.014821434
143	0x3ac3255a	0.0014888451
144	0xbc21660e	-0.009850992
145	0x3c5370f4	0.012905348
146	0xbb6c8c3f	-0.0036094335
147	0xbbf7d30e	-0.0075630015
148	0xbc194f24	-0.0093572475
149	0xbc243320	-0.010021955
150	0xbca9a983	-0.020710712
151	0x3cddc74d	0.027072573
152	0x3d2c023f	0.04199433
153	0x3c981a88	0.018567339
154	0xbc87cade	-0.016576227
155	0xbcda56c0	-0.026652694
156	0xbc893f1e	-0.01675373
157	0x3c3b96af	0.0114495
158	0xbc8e85e3	-0.017397827
159	0xbbadbc54	-0.0053019915
160	0x3d17fcf8	0.037106484
161	0x3c1c652b	0.009545605
162	0x3abb8200	0.0014305711
163	0xbd02583c	-0.031822428
164	0x3bef9ff5	0.0073127695
165	0xbc128dfe	-0.008944986
166	0x3ce8e631	0.028430076
167	0xbd21e22b	-0.03952233
168	0xbbd8c740	-0.0066155493
169	0xbc29c970	-0.010362968
170	0x3c0e9e05	0.008704667
171	0xbd07377d	-0.033011902
172	0xbbca02ba	-0.006164876
173	0xbc95a3ad	-0.018266523
174	0x3c6d7b3c	0.014494713
175	0xbb5888a1	-0.0033040422
176	0x3c857f0b	0.01629593
177	0xbbb7a3f3	-0.005604261
178	0xbc9cad1d	-0.019125516
179	0x3b7c71f5	0.0038520072
180	0xbc50de68	-0.012748338
181	0xbc0a0d80	-0.00842607
182	0x3ba7ee2a	0.005124827
183	0x3aa96534	0.0012923838
184	0x3bbd9b8f	0.0057863663
185	0xbd3f65c3	-0.046727907
186	0xb9eb8983	-0.00044925147
187	0xbaacd582	-0.0013186189
188	0x3ccc258a	0.024920244
189	0x3ccf0d05	0.025274763
190	0x3becef80	0.007230699
191	0x3cfc3d33	0.0307909
192	0x3c01b991	0.007917778
193	0x3c318185	0.0108341025
194	0xbac5269d	-0.0015041415
195	0x3b9faf41	0.004873187
196	0x3a90b717	0.0011040893
197	0x3cc21118	0.023689792
198	0xba28ca7c	-0.0006438864
199	0xbcac4780	-0.021030188
200	0xbab7cb0e	-0.0014022307
201	0xbd011e24	-0.031522885
202	0x3b168947	0.0022970007
203	0x3b34f68e	0.0027612778
204	0x3cfd5f56	0.030929249
205	0x3ca332c2	0.019921664
206	0xbc8267e5	-0.015918681
207	0xbbf6150d	-0.0075098337
208	0x3ca2715d	0.019829446
209	0x3c640aa1	0.01391855
210	0xbd12ac1a	-0.03580866
211	0x3be78b22	0.0070661465
212	0xbb59fa2e	-0.003326069
213	0xbc594162	-0.013260217
214	0xbd16c583	-0.036809456
215	0xba19ceca	-0.0005867301
216	0x3c4b3262	0.012402149
217	0xbc9848de	-0.018589433
218	0x3a3cbe5f	0.00071999984
219	0x3c221e08	0.009894855
220	0x3bdf55bd	0.0068156407
221	0xbc9af73c	-0.018916719
222	0xbb29e4a5	-0.0025923636
223	0x3cdbc74b	0.026828429
224	0xbc25c868	-0.010118581
225	0x3c851c66	0.016248893
226	0xbc5ad488	-0.013356335
227	0x3b16c28e	0.0023004147
228	0xbb469f2b	-0.0030307274
229	0xba94bbe3	-0.0011347499
230	0x3c6b7cda	0.014373029
231	0x3bb17b83	0.005416335
232	0xbc8ac3c2	-0.016939048
233	0xbbbe42ca	-0.0058063017
234	0x3ba4410e	0.005012638
235	0x3b2f7a57	0.00267758
236	0xbca577d8	-0.020198748
237	0xbc313cf6	-0.010817757
238	0xbc07b6e2	-0.008283349
239	0x3b3ea67d	0.0029090934
240	0x3bf890c9	0.007585619
241	0xbcbc7e66	-0.02300949
242	0x3b83ac34	0.004018331
243	0xbc811887	-0.015758766
244	0x39f6dfcd	0.0004708752
245	0x3c258f04	0.010104898
246	0xbb8ce6bd	-0.004299967
247	0x3b686ef6	0.0035466528
248	0xbc001b4b	-0.007819007
249	0x3b16c7d8	0.00230073
250	0xbc813bec	-0.015775643
251	0xbbd5bb01	-0.0065225367
252	0x3c4e206d	0.012580973
253	0xbb03e552	-0.00201257
254	0xbc116bef	-0.008875831
255	0x3c49ac80	0.012309194

action_model._continuous_distribution.mu.bias f4 [2]
0	0x3a025d6c	0.00049730274
1	0xba288b89	-0.0006429484
