results/1/MoveToGoal/MoveToGoal-162252.pt (torch, 441819 bytes, 36 tensors)

network_body._body_endoder.seq_layers.0.weight f4 [128, 6]
0	0x3de1298d	0.10994253
1	0xbe05f547	-0.13081847
2	0xbe8cc07d	-0.27490607
3	0xbe5906ad	-0.21193953
4	0xbe88a00d	-0.2668461
5	0xbe2d1713	-0.16903333
6	0x3f5a0b42	0.8517343
7	0xbcf58ffe	-0.029975887
8	0xbddeb7c2	-0.10874893
9	0xbf0044aa	-0.50104773
10	0x3e980b4b	0.29696116
11	0x3be85b60	0.007090971
12	0x3e71fa54	0.23630649
13	0xbf0f3329	-0.5593744
14	0xbf6acbf5	-0.91717464
15	0x3e0350b8	0.1282376
16	0xbe7b86ac	-0.24563092
17	0xbf2d5ff3	-0.6772453
18	0xbf655211	-0.8957835
19	0x3e5feef2	0.21868494
20	0x3ef69b29	0.48165253
21	0xbd8adb47	-0.06780105
22	0xbf2510e6	-0.6447891
23	0xbef76de1	-0.48326018
24	0x3f2c1f7a	0.6723553
25	0xbe8dcede	-0.2769689
26	0xbe346f13	-0.17620496
27	0x3e2b05c0	0.16701412
28	0xbe9aa406	-0.30203265
29	0xbe7c0f60	-0.2461524
30	0xbe08d46c	-0.13362283
31	0xbe8d9dbf	-0.27659413
32	0x3f21595d	0.6302698
33	0xbf3df5ba	-0.74203074
34	0xbf10bde9	-0.5653978
35	0xbe681064	-0.22662503
36	0xbf4c3258	-0.7976432
37	0x3f0cacec	0.5495136
38	0x3f0d48bf	0.55189127
39	0x3eec8a0b	0.46199068
40	0x3f3ab32a	0.7292963
41	0xbf18554e	-0.59505165
42	0x3e4050dc	0.18780845
43	0x3e43a82e	0.19107124
44	0xbeb046b3	-0.3442894
45	0x3f83b0bb	1.0288309
46	0x3e8ae2a7	0.27126047
47	0xbe918f24	-0.2842952
48	0xbf15b902	-0.58485425
49	0xbf070c04	-0.5275271
50	0x3d4ae8a4	0.04953827
51	0xbd38f3d6	-0.045154415
52	0xbd1c890a	-0.038216628
53	0xbef20f75	-0.47277418
54	0xbece7495	-0.4032332
55	0xbe30edce	-0.17278215
56	0x3e9cb281	0.30604938
57	0xbcf59a9a	-0.029980946
58	0xbeb8b7bf	-0.36077687
59	0xbd76b3f3	-0.060230207
60	0xbe8a399c	-0.26997077
61	0xbee7c153	-0.45264682
62	0x3e1cc9cd	0.15311356
63	0xbec96735	-0.39336553
64	0x3f1b4140	0.6064644
65	0x3c7f6f63	0.0155905215
66	0x3b130c7c	0.0022437861
67	0xbd3b5614	-0.045736387
68	0x3f6553b6	0.8958086
69	0xbeec3c2e	-0.46139663
70	0xbe0abca5	-0.13548525
71	0xbe8192fd	-0.25307456
72	0x3f6a9974	0.916404
73	0x3f2bb696	0.6707548
74	0xbe7f6f84	-0.24944884
75	0xbe537f90	-0.2065413
76	0x3ebdcede	0.3707189
77	0x3f2df218	0.6794753
78	0xbc050ae5	-0.008120273
79	0x3db4801e	0.08813499
80	0x3e54b66b	0.20772712
81	0xbe429e07	-0.19005595
82	0x3e02a4b6	0.12758145
83	0x3ec0a413	0.3762518
84	0x3e772a0a	0.2413713
85	0x3e98850d	0.2978901
86	0x3e9bd1e5	0.30433574
87	0x3e7b38f3	0.24533443
88	0x3d94fe10	0.07275021
89	0xbbebc549	-0.007195149
90	0x3f093adc	0.5360544
91	0xbf438992	-0.7638179
92	0xbe002d2b	-0.1251723
93	0x3ef074c8	0.46964097
94	0x3dc0d77a	0.09416099
95	0x3ef59de7	0.47972032
96	0xbed5f71f	-0.417901
97	0x3dd22b31	0.10262144
98	0x3e90a914	0.28253996
99	0xbf4ae076	-0.7924875
100	0x3ec192b6	0.37807244
101	0x3cb4286f	0.021991936
102	0xbe319447	-0.1734172
103	0xbf313634	-0.6922333
104	0x3edda0e5	0.43286815
105	0x3f8228ad	1.0168663
106	0x3f3d42c9	0.7393003
107	0xbe700970	-0.234411
108	0xbf0b70bb	-0.5446889
109	0xbe40bf80	-0.18823051
110	0x3f07adbe	0.52999485
111	0x3e258e3e	0.16167542
112	0xbdf1a0e6	-0.11798267
113	0x3f63a589	0.8892446
114	0x3bcb2668	0.0061996467
115	0x3f557c33	0.8339264
116	0x3eb3928e	0.3507275
117	0x3e873a98	0.2641189
118	0x3e3f2ed5	0.18670209
119	0x3e75439b	0.2395157
120	0x3ee28ecb	0.44249567
121	0x3f0eec2c	0.5582912
122	0xbebe4f00	-0.37169647
123	0x3ee8fba8	0.45504498
124	0xbf153977	-0.5829081
125	0x3da808be	0.082047924
126	0x3eee8ac3	0.46590242
127	0x3ab23c8e	0.0013598369
128	0x3f25ab3d	0.64714414
129	0x3ec4a649	0.38408116
130	0xbf03f88d	-0.51551133
131	0xbc6deb5a	-0.014521444
132	0x3e45c148	0.19312012
133	0xbeb9534a	-0.36196357
134	0xbe38efd3	-0.18060236
135	0xbe465573	-0.19368534
136	0xba51677d	-0.0007988138
137	0x3e280e01	0.16411592
138	0xbef49c5f	-0.47775552
139	0x3e8a4e12	0.27012688
140	0x3dfc9fcd	0.12335167
141	0x3d5fe565	0.054662127
142	0x3e194746	0.14968595
143	0xbe49fc8f	-0.1972525
144	0xbd9ac948	-0.075579226
145	0x3f84e428	1.0382128
146	0x3f3489a0	0.705225
147	0xbe6b359b	-0.22969668
148	0xbd4601ef	-0.048341688
149	0x3edf3f7d	0.43603125
150	0xbd368124	-0.04455675
151	0x3d907021	0.07052637
152	0xbf4dfa9f	-0.8046054
153	0xbd4a21b2	-0.04934854
154	0x3d1ae2e3	0.037814032
155	0x3d191fae	0.037383728
156	0x3d85f8c9	0.06541593
157	0x3f01d74a	0.5071913
158	0x3e1fc3d0	0.1560204
159	0x3ef752d8	0.48305392
160	0xbf885b94	-1.0652947
161	0x3e156d10	0.14592385
162	0xbd9c76d2	-0.07639851
163	0x3e582464	0.21107632
164	0xbd4f9051	-0.05067474
165	0x3e1a4884	0.15066725
166	0x3f47c58c	0.7803581
167	0x3e20b1f1	0.1569288
168	0x3f1cb923	0.61219996
169	0xbec68b25	-0.38778034
170	0x3dd43df5	0.1036338
171	0x3eb5aa35	0.3548142
172	0xbf0795ac	-0.52962756
173	0xbcbf5beb	-0.02335926
174	0xbd18f3c9	-0.037341867
175	0xbe8f1338	-0.2794435
176	0xbe753b1a	-0.23948327
177	0x3f1a5bb7	0.60296196
178	0x3f4f86a4	0.8106482
179	0x3dd2c091	0.102906354
180	0x3f486a4e	0.7828721
181	0xbf503c1f	-0.8134174
182	0xbef736f2	-0.48284107
183	0x3e7f7c03	0.2494965
184	0xbde03fe8	-0.10949689
185	0xbe0a7459	-0.13520946
186	0xbea54abc	-0.3228358
187	0x3ee32a56	0.44368237
188	0x3f284523	0.65730494
189	0xbe637ed2	-0.22216347
190	0xbe7edd64	-0.24889141
191	0x3d71f3f9	0.05907056
192	0x3ce61b32	0.02808914
193	0xbe483590	-0.19551682
194	0xbe37d9c2	-0.17954162
195	0xbddb93ce	-0.10721551
196	0xbeb810ea	-0.35950404
197	0xbed94d3f	-0.42441747
198	0x3efb5afb	0.4909285
199	0xbf4db4be	-0.80353916
200	0xbf308cef	-0.6896505
201	0xbfb31f07	-1.3993844
202	0xbc3504a1	-0.011048467
203	0xbe894b90	-0.26815462
204	0x3e208497	0.15675579
205	0x3e8f11e5	0.2794334
206	0xbf454cc1	-0.7707024
207	0x3e4adab3	0.1980999
208	0xbe29f4e5	-0.16597326
209	0x3dc33890	0.09532273
210	0xbe77b0d9	-0.24188556
211	0x3eddd804	0.4332887
212	0x3c9910d8	0.01868479
213	0xbe81ae88	-0.2532847
214	0xbe298080	-0.16552925
215	0x3e1a5b89	0.1507398
216	0x3f3ce777	0.7379069
217	0x3f55aebd	0.83469754
218	0x3f675b29	0.90373474
219	0xbd699821	-0.057029847
220	0x3d6b0239	0.057375167
221	0xbf82b868	-1.0212526
222	0x3d19ac9a	0.03751812
223	0x3e8c048b	0.27347216
224	0xbea4e1ed	-0.32203618
225	0xbeabc785	-0.3355066
226	0x3ea7b1bc	0.32752788
227	0x3edeee45	0.4354116
228	0xbf0d59c3	-0.5521509
229	0x3eb6d72f	0.35711047
230	0xbddbd1bf	-0.10733365
231	0xbf5c6291	-0.860879
232	0x3e8ada24	0.27119553
233	0x3f016eb2	0.5055953
234	0x3f760825	0.9610618
235	0xbd084828	-0.03327194
236	0xbdc8a559	-0.097971626
237	0x3d8de93f	0.06929254
238	0x3d461fe1	0.048370246
239	0xbd17d03f	-0.037063833
240	0xbf0eee82	-0.55832684
241	0xbf177942	-0.591694
242	0xbe901db6	-0.28147668
243	0x3ebfa7a8	0.374326
244	0xbe643c59	-0.22288646
245	0xbea86fff	-0.32897946
246	0xbeb20172	-0.34766728
247	0xbec338fd	-0.38129416
248	0x3eb2822f	0.34864947
249	0xbf4ecc8b	-0.8078086
250	0xbe9d9818	-0.307801
251	0x3a03d357	0.00050287455
252	0xbeabbc45	-0.33542076
253	0xbcd0a82c	-0.025470816
254	0xbc3c8bf5	-0.011507978
255	0x3ec302ad	0.3808798

network_body._body_endoder.seq_layers.0.bias f4 [128]
0	0x3b0862ef	0.0020810922
1	0xbbd3df6e	-0.006465844
2	0x3bb39d38	0.0054813884
3	0xbb084c27	-0.0020797343
4	0xbc092633	-0.008370924
5	0xbaa8857f	-0.0012857168
6	0xbb01c8ef	-0.0019803604
7	0xbb097e38	-0.0020979773
8	0xbbb01a29	-0.0053742123
9	0xbba087c3	-0.0048989966
10	0x3a7e7ca4	0.0009707904
11	0xbbc62f2b	-0.0060481033
12	0x3bc23598	0.005926799
13	0x3bdec048	0.006797824
14	0x3b03c3e8	0.0020105783
15	0x3baeb8f6	0.0053321077
16	0x3a195d54	0.0005850394
17	0x3b0b0e4f	0.0021218245
18	0xba8421de	-0.0010080894
19	0xbb0e7cf9	-0.002174197
20	0xbbd2d3f3	-0.0064339577
21	0x3c3f2178	0.011665694
22	0xbbba15c6	-0.005678865
23	0x3b1fc4bc	0.0024378737
24	0x39498027	0.00019216594
25	0xbb2f872b	-0.0026783447
26	0xbab09c82	-0.0013474377
27	0x3b56ca7f	0.0032774506
28	0x3b87288a	0.0041247057
29	0xbc165340	-0.009175122
30	0x3c7c8afe	0.015413998
31	0x3b0a6279	0.0021115823
32	0x38adf519	8.294936e-05
33	0xba958140	-0.0011406317
34	0xbad177b0	-0.0015981104
35	0xba5b7238	-0.0008371207
36	0x3ab14514	0.0013524615
37	0xb9cdcf59	-0.00039255133
38	0x3a759988	0.0009368886
39	0xbb1c9afe	-0.0023896093
40	0xbb9af0a4	-0.0047283936
41	0xbbed8af4	-0.0072492305
42	0xba9af2ec	-0.0011821664
43	0xbc011a04	-0.007879738
44	0x3b233fe0	0.0024909899
45	0x3958b4ec	0.00020666764
46	0xbb4f1856	-0.0031600199
47	0xbb35b95f	-0.0027728898
48	0x3a9dbb88	0.0012034038
49	0xbb34ee45	-0.002760784
50	0x3a045964	0.00050487206
51	0xbc083306	-0.008312946
52	0xbc992d91	-0.018698486
53	0xba70a4ca	-0.0009179829
54	0xbbf3b6ee	-0.0074375784
55	0xbad445b0	-0.0016195085
56	0xbb22721e	-0.0024787257
57	0xba98fd6c	-0.0011672205
58	0x3b2b66f4	0.0026153894
59	0x3c59ed7b	0.013301249
60	0x3a72c8e5	0.0009261503
61	0xbbbf71a1	-0.005842403
62	0xbb1c9dcb	-0.0023897763
63	0xbc07d657	-0.008290849
64	0x3b370f4d	0.0027932704
65	0xbb92c1b9	-0.00447866
66	0xbb61863a	-0.003441228
67	0x3be9c059	0.0071335253
68	0xbbb951bb	-0.005655495
69	0xbb0d305b	-0.0021543715
70	0x39db5070	0.00041830866
71	0xbb97d034	-0.004632974
72	0xbaa48709	-0.0012552451
73	0xb9df9848	-0.00042647333
74	0x3bbef4bc	0.0058275145
75	0x39083fba	0.0001299371
76	0xbac1c8b2	-0.0014784543
77	0xbb0d2313	-0.0021535798
78	0x3c284ac3	0.010271731
79	0x3a90620c	0.0011015548
80	0xbb5b550b	-0.0033467438
81	0xbb0e8a85	-0.0021750045
82	0x3b85b396	0.004080246
83	0x3bb77447	0.005598578
84	0xbb885b8c	-0.004161304
85	0x39e98d2d	0.00044546407
86	0x3b7a5797	0.003819918
87	0x3ac29d8d	0.0014847979
88	0xbb56f43f	-0.003279939
89	0xbaebedcc	-0.0017999946
90	0x3889ab67	6.564595e-05
91	0xb9aa3cfc	-0.00032470364
92	0x3bc41094	0.0059834216
93	0x3c1c478b	0.009538542
94	0xbbc6acd5	-0.0060630837
95	0xbbfb6f43	-0.0076731755
96	0xbba5c9c3	-0.0050594523
97	0xbb05ff51	-0.002044637
98	0x3a902611	0.0010997673
99	0x3b8c47f3	0.004281038
100	0xbc384970	-0.011247978
101	0xba1e5b31	-0.000604081
102	0xbb2b8904	-0.0026174197
103	0x3affd7ca	0.0019519266
104	0xb904a7c3	-0.00012650997
105	0xbb207f94	-0.0024490105
106	0xbc00b0fc	-0.007854696
107	0x3adac988	0.0016692141
108	0xbb0ad483	-0.0021183796
109	0x3aca5139	0.0015435583
110	0xbb4170fe	-0.0029516811
111	0xb92eff01	-0.0001668893
112	0xba6e7a1d	-0.0009097176
113	0xbbd4f471	-0.0064988662
114	0xbc0b14a4	-0.008488808
115	0xbbf9cf43	-0.0076235845
116	0xba1d0bef	-0.0005990853
117	0xbc0a5e55	-0.008445342
118	0xbb5a3c72	-0.0033300188
119	0x3b4071d5	0.0029364724
120	0xbb297e73	-0.0025862723
121	0x3bdb151a	0.006685865
122	0xba7e052f	-0.00096901035
123	0x3bc2d192	0.005945393
124	0xbaa295e9	-0.0012404296
125	0xbb86e965	-0.0041171783
126	0xbab46d04	-0.0013765399
127	0x3b77b893	0.0037799224

network_body._body_endoder.seq_layers.2.weight f4 [128, 128]
0	0x3dccc32c	0.099981636
1	0x3dd90cc2	0.105981365
2	0xbe152b4f	-0.14567302
3	0xbd3df5c2	-0.04637695
4	0x3d851c18	0.06499499
5	0xbd9e5864	-0.07731703
6	0xbdc7836f	-0.09741866
7	0xbd9bdc0b	-0.07610329
8	0x3db77bbc	0.08959147
9	0x3da23d99	0.07921905
10	0xbcba5110	-0.022743732
11	0x3d74783c	0.059684977
12	0xbcd5998e	-0.026074197
13	0xbe0f726e	-0.14008495
14	0x38be1e31	9.0655296e-05
15	0x3d9abf63	0.07556035
16	0xbe13793c	-0.14401716
17	0x3bfaf0b2	0.0076580876
18	0x3dc69456	0.096962616
19	0xbdd83d08	-0.10558516
20	0xbc001f97	-0.007820032
21	0xbde53fef	-0.11193835
22	0x3dac0f75	0.08401386
23	0x3c86cf28	0.016456202
24	0xbd5f99b2	-0.054589935
25	0xbd87e9d8	-0.06636399
26	0xbd7eee1e	-0.062238805
27	0xbcb564c8	-0.022142783
28	0xbe009808	-0.12557995
29	0xbd962969	-0.07332117
30	0x3e5e4ca2	0.2170892
31	0x3ca7a33f	0.020463584
32	0xbc9bc139	-0.019013034
33	0xbdad1cd6	-0.08452766
34	0x3be95793	0.0071210354
35	0x3dcbd596	0.09952848
36	0xbc5cb394	-0.013470549
37	0x3c749bb6	0.0149297025
38	0x3c674caa	0.014117399
39	0x3d34e1ad	0.044160534
40	0x3dd3ad80	0.10335827
41	0x3dab32f2	0.083593264
42	0x3d4a8b9c	0.049449548
43	0x3e629c7d	0.22130008
44	0x3dd29d61	0.10283924
45	0xbe27f7f8	-0.16403186
46	0x3e10343b	0.14082424
47	0x3e3a568b	0.18197076
48	0xbe3f2c08	-0.1866914
49	0x3e27cbb5	0.16386302
50	0x3e1340f1	0.14380242
51	0xbd0a84b2	-0.033817954
52	0xbd807898	-0.062730014
53	0xbdb05179	-0.0860929
54	0x3d648e00	0.055799484
55	0x3da0ac25	0.07845334
56	0xbe4a57cf	-0.19760059
57	0xbb662f3c	-0.0035123369
58	0x3c2b6e36	0.010463288
59	0xbe0957d6	-0.13412413
60	0xbd22a445	-0.03970744
61	0xbd04dc37	-0.032436576
62	0xbc5c4f14	-0.013446588
63	0xbd679df3	-0.056547116
64	0x3ddbdef6	0.10735886
65	0xbd687e39	-0.056761
66	0xbe223d8a	-0.15843788
67	0x3d1b3564	0.037892714
68	0xbcc52cbc	-0.024069183
69	0xbdbd0da3	-0.092311166
70	0xbd33ad5d	-0.043866504
71	0x3cfb7a28	0.030697897
72	0x3df695d9	0.120403
73	0x3da70714	0.08155647
74	0x3cf34d2e	0.029699888
75	0xbd84ab3b	-0.06477972
76	0xbde683ed	-0.112556316
77	0x3c75011e	0.01495388
78	0x3ba42b80	0.0050100684
79	0x3cd05c83	0.025434738
80	0x3d5ccd26	0.053906582
81	0x3d175512	0.036946364
82	0xbdd9dd55	-0.10637919
83	0x3e935549	0.28776005
84	0x3de319c6	0.110889
85	0xbddf29d1	-0.10896648
86	0xbcd598ec	-0.026073895
87	0xbe00f827	-0.12594663
88	0x3e19d556	0.15022787
89	0x3cbaaa94	0.022786416
90	0xbe031d66	-0.12804183
91	0xbd069426	-0.03285613
92	0xbddd54c2	-0.10807182
93	0x3b1f023b	0.0024262804
94	0x3b8ea8a7	0.004353601
95	0x3e09a398	0.13441312
96	0xbe31491e	-0.17313048
97	0xbcd92f63	-0.026511854
98	0xbc6114ec	-0.013737898
99	0x3dd80760	0.10548282
100	0x3dff4f69	0.12466318
101	0xbd160c47	-0.036632802
102	0x3dcc14f4	0.09964934
103	0x3e047071	0.12933518
104	0xbdd62c71	-0.10457695
105	0x3cc4fec8	0.02404727
106	0xba926e53	-0.0011171795
107	0x3d5cf540	0.053944826
108	0x3d9887e4	0.07447794
109	0xbcb30b45	-0.02185596
110	0x3b875a21	0.0041306172
111	0xbcc229e0	-0.023701608
112	0x3de46206	0.11151509
113	0x3db74ef6	0.089506075
114	0xbd37b379	-0.044848893
115	0xbc24c03b	-0.010055597
116	0x3de0457d	0.10950754
117	0x3e1a0a32	0.15042952
118	0x3dfacc94	0.122460514
119	0x3d6df3ba	0.058093764
120	0xbacc5a43	-0.0015590865
121	0x3dcc45d7	0.099742584
122	0xbd461791	-0.04836232
123	0xbdce7cab	-0.10082372
124	0xbde514cf	-0.111856095
125	0xbddaed48	-0.10689789
126	0xbdf3456e	-0.11878477
127	0xbde436c4	-0.11143258
128	0x3dca8a46	0.09889655
129	0xbd716936	-0.058938228
130	0x3c28a160	0.010292381
131	0x3caa0a45	0.02075685
132	0xbd8844b1	-0.06653727
133	0x3c9a8085	0.018860111
134	0x3d264c84	0.040600315
135	0x3d7c5e42	0.06161333
136	0x3c7ed2f9	0.0155532295
137	0x3dff7bf3	0.12474813
138	0xbdd94ec8	-0.106107295
139	0xbd854935	-0.06508104
140	0x3e237b98	0.15965116
141	0x3db737a4	0.089461595
142	0xbd122531	-0.03568
143	0xbcc8cba0	-0.024511158
144	0x3afa0445	0.0019074759
145	0xbe1df6b1	-0.15426137
146	0xbb83de13	-0.004024276
147	0x3dcb2b76	0.09920399
148	0xbd24b1cc	-0.040208623
149	0xbdd6ab8e	-0.1048194
150	0x3d1353d9	0.035968635
151	0x3dac4f1e	0.08413528
152	0x3c927649	0.017878668
153	0x3c966216	0.018357318
154	0xbde4b279	-0.111668535
155	0xbd7c22af	-0.061556514
156	0xbccf62a0	-0.025315583
157	0x3dc4a01a	0.096008494
158	0xbdbdabd8	-0.09261292
159	0xbd6eac17	-0.058269586
160	0x3d90b633	0.07066002
161	0xbccf83df	-0.025331436
162	0xbacb67cc	-0.0015518605
163	0x3d49d2fb	0.049273472
164	0xbe2cfbbe	-0.16892907
165	0x3b736b56	0.0037142835
166	0xbdb0ab1d	-0.08626387
167	0x3ca33f9c	0.019927792
168	0xbe1a7835	-0.15084918
169	0xbd7ce830	-0.06174487
170	0x3de4f5af	0.11179673
171	0xbdaa1501	-0.083047874
172	0x3bbff07c	0.0058575254
173	0xbdc3ef17	-0.09567087
174	0xbd7376a4	-0.059439316
175	0x3db1851b	0.08667966
176	0xbd79d4de	-0.06099402
177	0xbdca3c19	-0.09874744
178	0xbc7e1dc8	-0.01551003
179	0x3a1c3989	0.0005959501
180	0xbcee01a8	-0.029053524
181	0xbdc48bee	-0.09597002
182	0x3e103af8	0.14084995
183	0x3e346f7d	0.17620654
184	0xbdca05cf	-0.09864389
185	0xbdbae0e5	-0.091249265
186	0x3e1fda78	0.15610683
187	0x3d808e1f	0.062771074
188	0x3b8a1766	0.004214215
189	0xbd67981a	-0.05654154
190	0x3e40582b	0.18783633
191	0xbd13ca68	-0.0360817
192	0xbd58c40c	-0.05292134
193	0xbba8007d	-0.0051270113
194	0xbdd5fc32	-0.10448493
195	0x3da90a71	0.08253945
196	0x3da1daa9	0.07903034
197	0x3d4ecae1	0.05048645
198	0xbcad658f	-0.021166591
199	0xbe04332c	-0.12910146
200	0x3e339d85	0.17540558
201	0xbdb81576	-0.08988468
202	0xbd050d49	-0.032483373
203	0xbe1c2079	-0.15246762
204	0xbe4f3f95	-0.20239098
205	0xbd13bf17	-0.03607091
206	0xbce58833	-0.028019046
207	0xbe3d67c8	-0.1849662
208	0x3e1d5d62	0.15367654
209	0x3d8add9d	0.06780551
210	0xbd682ad2	-0.05668146
211	0xbd8da1de	-0.06915639
212	0x3cbd3419	0.023096131
213	0xbd9d6f0e	-0.076871976
214	0x3e7be22d	0.24597998
215	0x3d1d52d4	0.03840907
216	0x3cef6c25	0.029226372
217	0xbd0f0d4e	-0.034924798
218	0xbcf50e02	-0.029913906
219	0x3d259d44	0.040433183
220	0x3c185085	0.009296541
221	0xbda4982d	-0.08036838
222	0xbe227b91	-0.1586745
223	0x3ca1fe1d	0.019774491
224	0x3cd5e59c	0.026110463
225	0x3ddbc4ee	0.10730921
226	0xbdda56be	-0.10661076
227	0xbd132e45	-0.035932798
228	0x3d8f77c8	0.07005268
229	0x3e011169	0.12604298
230	0x3e149ec6	0.14513692
231	0x3cdc84d2	0.026918802
232	0x3d915ad4	0.07097402
233	0xbd9e40ce	-0.07727204
234	0x3d4fd65b	0.050741535
235	0x3d7e67ca	0.0621107
236	0x3d14032a	0.03613583
237	0xbb2feebe	-0.0026845182
238	0x3d4226a4	0.04740013
239	0xbc410a3b	-0.011782224
240	0x3c185620	0.009297878
241	0xbc9ad0b3	-0.018898344
242	0x3d889ae3	0.06670167
243	0xbd5965b8	-0.053075522
244	0xbd3673cc	-0.044544026
245	0xbe0edd42	-0.1395159
246	0xbddc5fdd	-0.10760472
247	0xbd39de0e	-0.045377783
248	0xbd1a88e0	-0.03772819
249	0xbe859b10	-0.26094866
250	0x3d98adc3	0.074550174
251	0x3e239244	0.15973765
252	0x3d204287	0.039125945
253	0xbd9cf1ea	-0.07663329
254	0x3cd560aa	0.02604707
255	0xbd3e9798	-0.04653129

network_body._body_endoder.seq_layers.2.bias f4 [128]
0	0xbbd85465	-0.0066018575
1	0xbb1f626d	-0.002432014
2	0xbaef1497	-0.0018240389
3	0xbbdd8c67	-0.006761122
4	0xbb764396	-0.0037576905
5	0x3bb4af30	0.005514048
6	0x3c224e21	0.009906323
7	0x3bd26a3e	0.0064213565
8	0x3af11452	0.0018392897
9	0xba3703e3	-0.0006981475
10	0x3b180002	0.0023193364
11	0xbb9c960c	-0.004778629
12	0x3a50b585	0.0007961619
13	0x3c84943f	0.01618397
14	0xbaad33a1	-0.0013214239
15	0xbb259565	-0.0025266048
16	0xba33a5fb	-0.0006853041
17	0x3a8c764f	0.0010716411
18	0xbbf1f75e	-0.007384225
19	0x3a9587a6	0.0011408224
20	0xbbbb7d83	-0.0057217493
21	0x3afc0544	0.0019227643
22	0x3aa58c17	0.0012630251
23	0xbaa3526a	-0.0012460474
24	0x3b470cc2	0.0030372594
25	0x3b445539	0.0029958023
26	0x3b8fec81	0.004392207
27	0xbb73223f	-0.003709927
28	0x3b0bb3cc	0.0021316884
29	0xbb89c1d7	-0.0042040157
30	0xbb0ff4b1	-0.0021965916
31	0x3a59c276	0.000830687
32	0x3b28a8d3	0.0025735393
33	0xbbc0a3a3	-0.005878882
34	0xbbf36c0c	-0.0074286517
35	0xba080817	-0.0005189194
36	0xbaec9430	-0.0018049534
37	0x3c443b83	0.011977079
38	0xbbb61cce	-0.005557633
39	0x3a1523b1	0.00056892174
40	0xbb765d02	-0.0037592058
41	0xbacf4ede	-0.0015816351
42	0xbbbf8928	-0.0058452077
43	0xbbe5544a	-0.0069985734
44	0x3c00a44b	0.0078516705
45	0x3b14f2db	0.002272776
46	0x3b8dd470	0.004328303
47	0xb9560d1a	-0.00020413511
48	0xbb11bff7	-0.0022239664
49	0xbb66c9b2	-0.0035215435
50	0x3b5dcde4	0.0033844644
51	0xbb00e099	-0.001966512
52	0x39237ec0	0.0001559211
53	0x3b90d71f	0.0044201757
54	0xbb59b016	-0.0033216528
55	0xbbb9d4b5	-0.0056711086
56	0xbb292dc9	-0.0025814644
57	0xbc1c18b7	-0.009527377
58	0x3aed8f4f	0.0018124374
59	0xbba77455	-0.0051103034
60	0x3b628950	0.0034566708
61	0xbb5c4998	-0.0033613201
62	0xbbe931c3	-0.0071165278
63	0x3a2f5636	0.00066885666
64	0xbba41c95	-0.00500829
65	0x3a97bb81	0.0011576266
66	0xbb1bfa79	-0.0023800416
67	0x3be26b59	0.0069097695
68	0x3b7e558a	0.003880831
69	0xba730640	-0.00092706457
70	0xbbd30f6c	-0.0064410474
71	0x3bb0dbf6	0.005397315
72	0x3c008104	0.00784326
73	0xba63d9d5	-0.00086918223
74	0x3b84fbb1	0.0040583243
75	0xbb122d79	-0.0022304936
76	0xbb7ea944	-0.0038858214
77	0x3af6305f	0.0018782726
78	0xbba01e6d	-0.0048864395
79	0x3c3a9f9a	0.011390591
80	0x3aac2e8c	0.0013136431
81	0xba366e7b	-0.0006959212
82	0xbaf182aa	-0.0018425782
83	0x3a79e50a	0.00095327257
84	0x3aef1d1f	0.0018242932
85	0xbb8c4a7b	-0.0042813397
86	0x39d344cd	0.00040296317
87	0x3a1d0625	0.00059899903
88	0x3b3e8bb1	0.0029074962
89	0x3b3d6293	0.0028897866
90	0xba7cc957	-0.0009643039
91	0xb7606ab2	-1.3376282e-05
92	0x3b9a8f06	0.0047167568
93	0xbbec34e3	-0.007208453
94	0xbbf587c8	-0.007492993
95	0xb98c8ac5	-0.00026806272
96	0xb931cf7c	-0.0001695733
97	0x3ac46ccc	0.0014986037
98	0xbbbe1349	-0.005800639
99	0xb9e2f8fd	-0.0004329159
100	0xbb130b2c	-0.002243708
101	0xbbcbd0f7	-0.006219979
102	0xbbbaad53	-0.0056969314
103	0xbbdd1238	-0.0067465566
104	0x3be18064	0.0068817604
105	0x3b5022c2	0.0031758999
106	0xba8ccb50	-0.0010741744
107	0xbb5c6bf0	-0.0033633672
108	0xbc04758d	-0.008084667
109	0xbb9464a6	-0.0045286
110	0xbbdc1d28	-0.006717343
111	0xbb5f6d1c	-0.0034092134
112	0x392700a4	0.000159266
113	0xb997141d	-0.0002881595
114	0xbc11827c	-0.008881208
115	0xbb58fa22	-0.0033108075
116	0x3aab7acf	0.0013082864
117	0xbb0d23a7	-0.0021536143
118	0xbc078c64	-0.008273218
119	0x3b7b9e59	0.0038393943
120	0xbacc31ef	-0.0015578846
121	0x3b685d0e	0.0035455856
122	0x3bbaf2af	0.0057051997
123	0xbabfb2b5	-0.0014625402
124	0x3b79b8e7	0.0038104595
125	0xbb174663	-0.0023082725
126	0x3b1332ae	0.0022460627
127	0xbb2eefae	-0.0026693153

action_model._continuous_distribution.log_sigma f4 [1, 2]
0	0x3c714edd	0.014728275
1	0x3c2df45b	0.010617341

action_model._continuous_distribution.mu.weight f4 [2, 128]
0	0x3ae013bd	0.0017095726
1	0xbd04fa71	-0.032465402
2	0x3c065b36	0.008200457
3	0xba82a0df	-0.0009966156
4	0xbbaa3e1f	-0.0051953937
5	0x3c841f99	0.016128348
6	0x3bdff6e2	0.0068348506
7	0xbc0cec22	-0.00860122
8	0x3c89813f	0.016785262
9	0x3c771fd3	0.015083271
10	0x3c8f2439	0.017473327
11	0xbd1f7234	-0.038927272
12	0xbd1b2f36	-0.03788682
13	0x3c6d38fd	0.014478919
14	0xbc833994	-0.016018666
15	0xbc5dab77	-0.01352965
16	0xbccfab32	-0.025350187
17	0xbc05fa98	-0.008177422
18	0xbb9db673	-0.0048130094
19	0x3c98a99b	0.018635562
20	0xbccc488c	-0.024936937
21	0x3c907a62	0.017636482
22	0xbce4d89f	-0.027935324
23	0xbcce302e	-0.025169458
24	0x3b548aa1	0.0032431262
25	0xbba48d13	-0.0050217
26	0x3c592f1c	0.013255861
27	0x3c09cece	0.0084111225
28	0xba8bf16f	-0.0010676811
29	0xbb488865	-0.0030598876
30	0x3c0dec37	0.008662275
31	0xbad5f849	-0.0016324605
32	0x3c35537d	0.011067268
33	0xbae30420	-0.0017319955
34	0xbc24ae1a	-0.010051275
35	0xbcc5fc82	-0.024168257
36	0xbcdf5769	-0.02726336
37	0xbc24caa5	-0.01005808
38	0xbc163120	-0.009166986
39	0xbc92ad1d	-0.017904812
40	0x3bdfc330	0.006828688
41	0x3abaaa70	0.0014241468
42	0x3c0eb4ea	0.008710125
43	0x3a2ca4ea	0.00065858534
44	0x3cb3b966	0.02193899
45	0x3d112410	0.035434783
46	0x3c7a80c8	0.015289493
47	0x3c970d62	0.018438999
48	0x3a3c27ec	0.00071775797
49	0xbc982863	-0.018573945
50	0x3c0eca61	0.008715243
51	0xbb8ae2b9	-0.004238453
52	0x3ccbe836	0.024891
53	0x3c683bbe	0.0141744
54	0xbd0b649e	-0.034031503
55	0x3b7f2cb4	0.0038936557
56	0xbd0e7e0e	-0.034788184
57	0xbcb4fd28	-0.02209337
58	0x3c1c9805	0.009557729
59	0xbd19c406	-0.03754046
60	0x3b0736df	0.002063207
61	0xbc8f4352	-0.017488156
62	0xbca9cf02	-0.020728592
63	0x3c83bbeb	0.016080817
64	0xbb7047c6	-0.0036663874
65	0x3cb660a3	0.022262877
66	0xbc4885c8	-0.012238927
67	0xbba0dbbf	-0.0049090083
68	0x3c6db802	0.014509203
69	0xbb2eb7a7	-0.0026659758
70	0x3abbd682	0.0014330896
71	0x3c8f94c7	0.017526997
72	0x3c3e1a25	0.011602913
73	0xbd36b404	-0.04460527
74	0xbb922b8f	-0.004460759
75	0xbca7c59d	-0.020479972
76	0x3cfe03a2	0.031007592
77	0x3c024d0a	0.007952938
78	0xbb6ece06	-0.0036438718
79	0xbc95d7ce	-0.01829138
80	0xbc8840db	-0.016632488
81	0xbbd72f04	-0.006566884
82	0x3bb9f591	0.0056750257
83	0xbc837559	-0.016047167
84	0xbca9b0e1	-0.020714225
85	0x3af24c07	0.0018485793
86	0xbccfc18a	-0.025360841
87	0x3d155f03	0.036467563
88	0x3cd79746	0.02631725
89	0xbc848c1c	-0.01618009
90	0x3c2756cf	0.010213568
91	0x3cbb9120	0.02289635
92	0xbbb78885	-0.005600991
93	0xbacfd20d	-0.0015855447
94	0xbb295f76	-0.0025844253
95	0x3c24faf7	0.0100696
96	0xbb4d34b1	-0.0031311924
97	0xbc2dffdf	-0.010620086
98	0xbc91e3a3	-0.017808741
99	0x3c784c13	0.015154856
100	0xbc825426	-0.015909266
101	0xba6fb79a	-0.0009144485
102	0x3964a66b	0.0002180577
103	0x3b0a7faf	0.0021133234
104	0x3b921467	0.0044579986
105	0x3d0ffb57	0.035151806
106	0xbac5bd91	-0.0015086402
107	0xbc8153c6	-0.015787017
108	0xbb407051	-0.002936382
109	0x3bf56b8b	0.0074896268
110	0xbc4b6039	-0.012413078
111	0xbcbe7edf	-0.023253856
112	0x3c7e7280	0.015530229
113	0x3c926c2a	0.017873842
114	0xbc4b02dc	-0.012390818
115	0x3bb22b73	0.0054373085
116	0x3d039855	0.032127697
117	0x3c26194a	0.010137865
118	0x3a31086d	0.00067532697
119	0xbc86cd70	-0.016455382
120	0xbc82b8c4	-0.015957244
121	0xbb12753e	-0.0022347714
122	0xbb2d33ec	-0.0026428653
123	0x3c0a248a	0.008431563
124	0x3cda7664	0.026667781
125	0xbccaaa5e	-0.02473944
126	0x3c3163ab	0.010826985
127	0xbd0374c3	-0.032093775
128	0xbc74387d	-0.014906046
129	0xba8edbdd	-0.0010899265
130	0xbbf3cfec	-0.0074405577
131	0xbbcf88ed	-0.0063334615
132	0x3cbd88e8	0.023136571
133	0x3ba52642	0.005039961
134	0x3d021bcd	0.031764794
135	0xbd4831cf	-0.048875626
136	0xbb025479	-0.0019886775
137	0xbc011a94	-0.007879872
138	0x3cec8876	0.028873663
139	0xbcb94134	-0.0226141
140	0x3bdf5c57	0.0068164277
141	0x3d444a05	0.047922153
142	0x3c78616a	0.015159944
143	0xbbe52561	-0.0069929813
144	0x3c6c875d	0.01443657
145	0x3bbd46a4	0.0057762433
146	0xbc96cb5d	-0.018407518
147	0x39b9d36e	0.00035443477
148	0xbcbf1610	-0.02332595
149	0x3c92eff1	0.017936679
150	0xbd39149e	-0.045185678
151	0x3cba5959	0.022747682
152	0xbd427ac0	-0.047480345
153	0x3c045a87	0.008078224
154	0x3c5b9583	0.013402346
155	0xbc42a78c	-0.011880767
156	0x3bfed56f	0.007776908
157	0x3cfcc656	0.030856293
158	0x39d22abf	0.0004008617
159	0x3bfd62d8	0.0077327304
160	0x39aedf0e	0.00033354055
161	0xbcd7aea2	-0.026328389
162	0xbbaf40b5	-0.00534829
163	0xbc775a37	-0.0150971925
164	0x3c1cc7a1	0.00956908
165	0x3cdb31cf	0.026757149
166	0xbb97c759	-0.0046319184
167	0x3bd60c20	0.006532207
168	0xbc5edd06	-0.013602501
169	0xba8efe6e	-0.0010909566
170	0xbd1261fa	-0.03573797
171	0x3a1ba0de	0.0005936752
172	0x3d02773b	0.03185199
173	0x3c741939	0.014898592
174	0x3b3217f9	0.0027174933
175	0xbc898dc4	-0.016791232
176	0xbc649efd	-0.013953921
177	0x3cc6af86	0.024253618
178	0x3cf65dd0	0.03007403
179	0xb8c30626	-9.29947e-05
180	0xb9d24efe	-0.00040113175
181	0x3b3df79e	0.0028986703
182	0xbb9a1791	-0.0047025164
183	0xbb8e4ec2	-0.0043428848
184	0xbb89c70a	-0.0042046355
185	0xbd4ba296	-0.0497156
186	0x3b45cae6	0.0030180751
187	0xbc367fbb	-0.011138852
188	0x3cb5ef59	0.022208856
189	0xbcd4454f	-0.025911955
190	0xbceefba1	-0.02917272
191	0x3c25090d	0.010072959
192	0xbccdbb0b	-0.025113603
193	0x3c43dcf3	0.011954534
194	0x3bd871b5	0.006605352
195	0x3cc772c8	0.024346724
196	0x3c06f1d9	0.008236372
197	0xbc2050db	-0.009784902
198	0xbc67f528	-0.014157571
199	0x3cc4e812	0.024036441
200	0x3c051661	0.008123011
201	0x3c8fc8d1	0.017551811
202	0x3cb4755e	0.022028621
203	0x3c1744ba	0.009232694
204	0xbbe9cff4	-0.0071353856
205	0xba6bc280	-0.00089935213
206	0xbc9abd89	-0.018889206
207	0x3d1a002a	0.037597813
208	0x3c53aa17	0.012918971
209	0x3cf734cd	0.030176545
210	0xbb5cdf2e	-0.0033702361
211	0x3cc5abf9	0.024129855
212	0xbc8c8496	-0.017153066
213	0xbb8ee5eb	-0.0043609045
214	0x3c6432eb	0.013928155
215	0xbc53a156	-0.012916883
216	0x3b3b11a9	0.0028544462
217	0x3c6e2cc7	0.014537043
218	0x3d33f574	0.043935254
219	0x3cc1c139	0.023651706
220	0x3cd4e9d5	0.025990406
221	0x3d2d5a23	0.04232229
222	0xbca5b578	-0.020228133
223	0xbcecdd45	-0.028914103
224	0xbc8177c1	-0.015804173
225	0x3c4bae54	0.0124317
226	0xbb023b4a	-0.0019871765
227	0x399d8e8e	0.00030051585
228	0x3b5e4ea7	0.0033921392
229	0xbcafe6e3	-0.0214724
230	0xbbf58967	-0.0074931863
231	0xbcb073f9	-0.021539675
232	0x3c67a72f	0.014138981
233	0x3bad429f	0.005287483
234	0xbb98f035	-0.004667307
235	0x3c5a54e1	0.013325901
236	0xbb147c80	-0.0022657216
237	0xbce79440	-0.028268933
238	0xbc3a46c8	-0.011369415
239	0x3b617067	0.0034399272
240	0xbb85dace	-0.0040849214
241	0xbc644a68	-0.013933755
242	0x3c62ade7	0.013835407
243	0xba55f77b	-0.00081621826
244	0xbbbe4c97	-0.00580747
245	0xbbd7815c	-0.0065767
246	0x3b4279f9	0.0029674752
247	0x3cf499bf	0.029858468
248	0x3c4f1c46	0.012641018
249	0x3b83cc8f	0.004022188
250	0x3ccbb2bc	0.0248655
251	0xbc3f3e16	-0.011672517
252	0x3c2f63aa	0.010704914
253	0x3b6912cc	0.0035564182
254	0x3c8e1e58	0.017348453
255	0xbb083a41	-0.0020786675

action_model._continuous_distribution.mu.bias f4 [2]
0	0x3b260001	0.0025329592
1	0x3bbdb6e9	0.005789627

exp_avg f4 [128, 6]
0	0xb9a92694	-0.00032262935
1	0xbc999edf	-0.018752513
2	0xba85ec6e	-0.0010217556
3	0x3a1ccb72	0.00059812434
4	0xb5058ac8	-4.9748314e-07
5	0x393a702a	0.00017780127
6	0xb9310dc3	-0.00016885162
7	0xbc1653a6	-0.009175217
8	0xba81a7e3	-0.0009891953
9	0x39a35d40	0.0003115926
10	0xb524fb06	-6.146005e-07
11	0xb9b776ad	-0.000349929
12	0xb99dd8e1	-0.0003010696
13	0xbc78f943	-0.015196147
14	0xbaa2fb26	-0.0012434467
15	0x386cd140	5.6461664e-05
16	0xb409ea4c	-1.2844356e-07
17	0x396f413a	0.00022817115
18	0xb5cd996c	-1.5318342e-06
19	0xb80d09ee	-3.3626267e-05
20	0xb82339de	-3.891612e-05
21	0xb927a9bf	-0.00015989596
22	0x344a5e32	1.8846984e-07
23	0x37b9f9b3	2.2169994e-05
24	0xb94d7b14	-0.00019596174
25	0x3c04130c	0.008061182
26	0x39037395	0.00012536191
27	0xb90f4664	-0.00013663765
28	0x33b05ac0	8.212146e-08
29	0xba8573ec	-0.0010181642
30	0x39c36333	0.00037267208
31	0x3c1cc679	0.009568804
32	0x3a947ead	0.0011329256
33	0xb9f65db1	-0.00046990582
34	0x35928b4c	1.0918388e-06
35	0xb8126088	-3.4899014e-05
36	0xb93036ef	-0.00016805132
37	0xb8e7bfc2	-0.00011050656
38	0xba4643d2	-0.00075632066
39	0x3b538769	0.0032276756
40	0xb61c240c	-2.3266794e-06
41	0xb80cb94c	-3.3551172e-05
42	0x3907e0a1	0.00012958284
43	0x3a3fea26	0.00073209626
44	0xb8f90850	-0.000118747936
45	0x3aa7d2f6	0.001280396
46	0xb5782d67	-9.245327e-07
47	0x3a31563d	0.00067648647
48	0x38c927cd	9.59184e-05
49	0x3b23e58a	0.0025008642
50	0x39a1d257	0.00030865028
51	0xba2f525b	-0.0006687992
52	0x34815d81	2.4096155e-07
53	0xb84efd2c	-4.9350012e-05
54	0x39d582c5	0.00040723957
55	0x3cacbaa6	0.021085095
56	0x3add7551	0.0016895925
57	0x391b3b98	0.00014804152
58	0x35767574	9.181306e-07
59	0xb99093a2	-0.00027575815
60	0x39d4a3b4	0.0004055776
61	0x3b93e272	0.0045130784
62	0x3a1f88fa	0.000608578
63	0x39a936f7	0.00032275144
64	0xb437915c	-1.7096085e-07
65	0x38da9a00	0.00010423735
66	0xb8de9ec6	-0.00010615359
67	0xbab73306	-0.0013976998
68	0xb967fe69	-0.00022124652
69	0xb99c86fb	-0.00029855207
70	0x34da195e	4.062412e-07
71	0x38a21ff4	7.730714e-05
72	0x39c273e3	0.00037088906
73	0x39009120	0.00012261095
74	0xb89de688	-7.529283e-05
75	0x3ad20470	0.0016023051
76	0xb52d58ce	-6.457675e-07
77	0x3a022342	0.000496436
78	0x39b2d5c1	0.00034110065
79	0x39f16788	0.0004604424
80	0xb9108ca9	-0.0001378531
81	0xb9b5bc6e	-0.000346634
82	0x359754fa	1.1275108e-06
83	0xba8b5a47	-0.0010631763
84	0x39e618df	0.0004388755
85	0x3ab3eccc	0.0013727187
86	0xba6272fa	-0.00086383487
87	0x39c00830	0.00036627194
88	0x34eccfac	4.4109527e-07
89	0xb9f4487a	-0.00046593306
90	0x3a97dc1c	0.0011585983
91	0x3c1ae69a	0.009454394
92	0x3a937365	0.00112496
93	0x3b88154f	0.004152931
94	0xb62edd62	-2.6056882e-06
95	0x3b24e94e	0.0025163474
96	0x37937205	1.757686e-05
97	0x366c2796	3.5189782e-06
98	0xb82607a2	-3.9584593e-05
99	0xb84f7afb	-4.946718e-05
100	0xb4891fbe	-2.5541334e-07
101	0x375db504	1.32147725e-05
102	0xba4959ac	-0.00076809037
103	0xbc95d986	-0.0182922
104	0xbb04917c	-0.0020228317
105	0x3b0192f0	0.001977142
106	0xb61855b7	-2.2699658e-06
107	0x399d11ce	0.0002995864
108	0x39b637c6	0.000347553
109	0x3bce45fd	0.0062949643
110	0x3a15ada8	0.0005709776
111	0x3b1a3d29	0.002353499
112	0xb5d28d04	-1.568726e-06
113	0x3ab82e6b	0.001405192
114	0xb7468084	-1.1831642e-05
115	0x3a116a06	0.000554711
116	0xb98731f2	-0.0002578642
117	0xb9ccdf0c	-0.00039076095
118	0x34df4a54	4.1591068e-07
119	0xba1952ac	-0.0005848806
120	0x36bf4ce0	5.701193e-06
121	0x3a017f21	0.0004939903
122	0xb9008884	-0.00012257887
123	0x3a25fc56	0.00063318515
124	0xb4947e3a	-2.765899e-07
125	0x39fa7b34	0.0004777551
126	0xb941223f	-0.00018418672
127	0xbaf2c19c	-0.0018520835
128	0xb9c744e5	-0.00038007568
129	0xba2fd6b6	-0.00067077146
130	0x34b5132a	3.372782e-07
131	0x3a493c07	0.0007676486
132	0xbab206b8	-0.0013582325
133	0xbc08e0b2	-0.008354353
134	0xbaee858c	-0.0018197759
135	0x35576000	8.023344e-07
136	0xb543c92c	-7.2935904e-07
137	0x38ea9e00	0.00011187419
138	0x38fad040	0.000119597185
139	0x38c5aa4e	9.425414e-05
140	0x397854e8	0.00023682753
141	0xb8a193f5	-7.7046374e-05
142	0x34c53dd4	3.6739095e-07
143	0x389fb862	7.616055e-05
144	0x38158d69	3.5656067e-05
145	0xb933deb3	-0.00017153732
146	0x36118b20	2.1687665e-06
147	0x3b15ef58	0.0022878256
148	0xb609e3fe	-2.05473e-06
149	0x3b5aa0e5	0.003336006
150	0x3a348f12	0.0006887774
151	0x3b855267	0.004068661
152	0x3a3d498d	0.0007220738
153	0xb94c1a68	-0.00019464793
154	0x35f7ee9a	1.8472376e-06
155	0xbaa01e92	-0.0012216142
156	0xb9b94a22	-0.00035341183
157	0x39bed52d	0.00036398452
158	0xba1a51e1	-0.00058868347
159	0x3ab4a57f	0.0013782232
160	0xb581126e	-9.616613e-07
161	0xb9f772ae	-0.00047196954
162	0xb89b82a1	-7.4153075e-05
163	0x39ff0e46	0.00048648025
164	0xb9651603	-0.00021847342
165	0xbacf21a3	-0.0015802871
166	0x35f1fd98	1.8029705e-06
167	0xbabe1939	-0.0014503367
168	0x3a666a90	0.0008789683
169	0x3bd3764c	0.006453311
170	0x3a70ea1e	0.00091901596
171	0x3ab1d2ee	0.001356689
172	0x34cf2ea0	3.859068e-07
173	0xba4604ca	-0.0007553814
174	0xb989d2af	-0.00026287648
175	0x3c0aff3d	0.008483705
176	0x3a5aef74	0.00083517213
177	0xb964a27b	-0.00021804303
178	0xb4c33944	-3.6363247e-07
179	0x3a76112e	0.0009386715
180	0x388d0420	6.724172e-05
181	0xbb95df9f	-0.004573777
182	0xba8df867	-0.0010831476
183	0xb81f3380	-3.7956517e-05
184	0x34b50399	3.3716495e-07
185	0xba63ce9f	-0.0008690152
186	0x389db8f3	7.520793e-05
187	0xb85010ae	-4.96066e-05
188	0xb4bb9e00	-3.4946424e-07
189	0xb84000e4	-4.5777197e-05
190	0x346d9a54	2.2128489e-07
191	0xb90f01c9	-0.00013638208
192	0xb892fa30	-7.0084236e-05
193	0xbaae8bb0	-0.0013316777
194	0xb8f2d0b8	-0.00011578336
195	0xba649cfd	-0.0008720903
196	0x356f0524	8.904192e-07
197	0x39374182	0.00017476644
198	0x3a2f5d24	0.0006689599
199	0x3c6b02a9	0.014343896
200	0x3ac6a9dc	0.0015156823
201	0xb958de86	-0.00020682262
202	0x35813fdc	9.629834e-07
203	0xb9f2a424	-0.0004628013
204	0xb9a44769	-0.00031333722
205	0x3ad7cea4	0.0016464782
206	0x3a66165a	0.00087771344
207	0xbbb7f40f	-0.005613811
208	0x369e3560	4.7149806e-06
209	0xbb6138be	-0.0034366096
210	0xb9a3f7ee	-0.00031274505
211	0xb83032a4	-4.2008833e-05
212	0xb934832e	-0.00017215006
213	0x3a5bdfc8	0.0008387533
214	0xb5d9b296	-1.6219735e-06
215	0x3b040667	0.0020145418
216	0xb8f3dd5e	-0.00011628376
217	0x39276a2e	0.00015965916
218	0xb8f525ce	-0.00011689552
219	0xb8bb3818	-8.927303e-05
220	0x32565440	1.2475596e-08
221	0xb6958c9c	-4.456915e-06
222	0xb944f0d6	-0.00018781735
223	0x398c346e	0.00026741944
224	0xb8931488	-7.0133305e-05
225	0xb8b87620	-8.795806e-05
226	0x3382a0c0	6.082837e-08
227	0xba6be4f6	-0.00089986564
228	0x38452098	4.6998815e-05
229	0xb84736f8	-4.749649e-05
230	0xb86558e3	-5.4680637e-05
231	0x3a304d14	0.0006725353
232	0xb55d8d11	-8.2534194e-07
233	0x3ac16a7d	0.0014756467
234	0x3ac1d6ef	0.0014788787
235	0x3cd45bf2	0.02592275
236	0x3b40776d	0.0029368058
237	0x3b507259	0.0031806438
238	0xb5e1ba56	-1.6818037e-06
239	0x3bb3848f	0.0054784487
240	0x39090724	0.00013067998
241	0x3b4de906	0.003141941
242	0xb81cddb0	-3.739976e-05
243	0xb8962041	-7.158565e-05
244	0x345bae80	2.0459447e-07
245	0x39019ccc	0.0001236081
246	0xba1a9a86	-0.00058976596
247	0xbbfc7bfd	-0.0077052102
248	0xba935ae4	-0.0011242297
249	0x39d34d15	0.00040302487
250	0xb4d80ab9	-4.0240937e-07
251	0x397b8dc1	0.00023990033
252	0xba0a03ec	-0.00052648666
253	0xbc20455a	-0.00978216
254	0xba7beeae	-0.0009610456
255	0xbb0695dc	-0.00205361

exp_avg_sq f4 [128, 6]
0	0x38c2e1cb	9.292698e-05
1	0x3cc46efd	0.023978705
2	0x38d43238	0.00010118302
3	0x384800ba	4.7684392e-05
4	0x2ea7d89f	7.6327604e-11
5	0x37df7c65	2.6641597e-05
6	0x38a81135	8.014069e-05
7	0x3bf55af8	0.007487651
8	0x380a3403	3.2950204e-05
9	0x371830e3	9.071288e-06
10	0x2ddc964f	2.5077855e-11
11	0x376d5235	1.4145441e-05
12	0x37c2358c	2.3151537e-05
13	0x3bcd26dc	0.006260736
14	0x381d1b47	3.745712e-05
15	0x3804a576	3.162535e-05
16	0x2e0ebeed	3.2456638e-11
17	0x36d8ebbd	6.464745e-06
18	0x35cc2819	1.5210854e-06
19	0x37dee77e	2.657226e-05
20	0x37282ad9	1.0023557e-05
21	0x3575ae9c	9.15237e-07
22	0x2b4b403b	7.2209225e-13
23	0x3490fea6	2.700737e-07
24	0x38300a59	4.1971307e-05
25	0x3c30f81e	0.010801343
26	0x3827bd0c	3.9991966e-05
27	0x38040753	3.1478074e-05
28	0x2e284bc1	3.826606e-11
29	0x3769417e	1.3903131e-05
30	0x371ea868	9.456744e-06
31	0x3bb0766c	0.0053852107
32	0x37ef484f	2.8524692e-05
33	0x371eeebb	9.473118e-06
34	0x2d7d6d03	1.44055904e-11
35	0x36df06a0	6.646689e-06
36	0x35dad5dc	1.6304507e-06
37	0x37e40b4c	2.7184979e-05
38	0x38000410	3.052136e-05
39	0x38cbcf69	9.7184275e-05
40	0x2e364153	4.144003e-11
41	0x37356ed3	1.0814244e-05
42	0x354fa02b	7.7346584e-07
43	0x37d01c3e	2.4808684e-05
44	0x35b7ec91	1.3703412e-06
45	0x37274489	9.969933e-06
46	0x2d02558e	7.408641e-12
47	0x36f3a035	7.260615e-06
48	0x37b897e1	2.2005233e-05
49	0x3bdb0ec7	0.006685111
50	0x38138f0e	3.518076e-05
51	0x37511eba	1.2464525e-05
52	0x2d6543d4	1.3032204e-11
53	0x3713821d	8.792177e-06
54	0x38149a68	3.542975e-05
55	0x3c954f52	0.0182263
56	0x38e144b5	0.00010741634
57	0x3837941d	4.376854e-05
58	0x2e9eb558	7.217221e-11
59	0x37c8f2f0	2.3954984e-05
60	0x389acd53	7.381537e-05
61	0x3c342b75	0.010996689
62	0x38569684	5.1161755e-05
63	0x37afca32	2.095578e-05
64	0x2e0d269a	3.2093973e-11
65	0x379b81ee	1.8537943e-05
66	0x3687a521	4.042537e-06
67	0x3ae20247	0.001724311
68	0x37faedb6	2.9913015e-05
69	0x362ec3a3	2.6041896e-06
70	0x2ca1e0d8	4.600858e-12
71	0x3631551c	2.6424595e-06
72	0x36303dc7	2.6262003e-06
73	0x36982548	4.534293e-06
74	0x351b588b	5.7870847e-07
75	0x373697ee	1.0883419e-05
76	0x2d0a386d	7.856921e-12
77	0x3758ac43	1.2914711e-05
78	0x35b76446	1.3663746e-06
79	0x383e5633	4.537981e-05
80	0x375c6889	1.3137361e-05
81	0x380e6b21	3.395521e-05
82	0x2dcb4318	2.3108224e-11
83	0x38256605	3.943408e-05
84	0x35cf655b	1.54522e-06
85	0x36a2e821	4.8549996e-06
86	0x36be901c	5.679218e-06
87	0x3872f2aa	5.7923295e-05
88	0x2dfa692a	2.8468412e-11
89	0x37b93da4	2.2082422e-05
90	0x38b1ed9d	8.4842766e-05
91	0x3c8ab198	0.016930386
92	0x38a7c422	7.999713e-05
93	0x38c8b04c	9.569581e-05
94	0x2ed7a470	9.806278e-11
95	0x387348c6	5.800349e-05
96	0x348beae7	2.6061682e-07
97	0x37f242ae	2.8879698e-05
98	0x37547477	1.2663301e-05
99	0x3364ea6b	5.329859e-08
100	0x2b4e9daf	7.340473e-13
101	0x3589fb0c	1.028036e-06
102	0x377872da	1.4808693e-05
103	0x3bc5f662	0.006041334
104	0x37fe5e8d	3.0323188e-05
105	0x37cd0870	2.4441833e-05
106	0x2dde08e2	2.5242423e-11
107	0x373a5353	1.1105864e-05
108	0x367f450f	3.8038158e-06
109	0x3abd191f	0.0014427042
110	0x37a7a3ba	1.9984192e-05
111	0x3863962a	5.426087e-05
112	0x2e35119e	4.1170282e-11
113	0x386558a7	5.468042e-05
114	0x347eda7a	2.3735075e-07
115	0x34beb55e	3.552222e-07
116	0x347aed2e	2.336935e-07
117	0x37a8d95d	2.0128378e-05
118	0x2d190c30	8.699749e-12
119	0x36d7ed74	6.4351425e-06
120	0x35113c58	5.410452e-07
121	0x3553e7c3	7.8940883e-07
122	0x349df07f	2.9418513e-07
123	0x3788a01a	1.6287016e-05
124	0x2d2b7afe	9.747534e-12
125	0x36dc9de0	6.57489e-06
126	0x3617841f	2.2577658e-06
127	0x3949d5ff	0.00019248574
128	0x36f216aa	7.2148005e-06
129	0x3770b906	1.4348194e-05
130	0x2d1f9f85	9.073524e-12
131	0x3709dff2	8.217978e-06
132	0x38972661	7.20739e-05
133	0x3c877e21	0.016539635
134	0x38e3c14a	0.000108602064
135	0x3824c9d5	3.9288618e-05
136	0x2e86d00e	6.1305724e-11
137	0x37f45a4d	2.9129116e-05
138	0x33fa2016	1.16473686e-07
139	0x3419a601	1.4309627e-07
140	0x33e82cdf	1.0811504e-07
141	0x365a4ce3	3.2529285e-06
142	0x2bd8f446	1.5415523e-12
143	0x340842db	1.2690309e-07
144	0x34b0182a	3.2800136e-07
145	0x343a771c	1.7365932e-07
146	0x34805aac	2.390783e-07
147	0x37bffc01	2.2886323e-05
148	0x2d86f760	1.5343893e-11
149	0x37cbbb91	2.4286828e-05
150	0x36630384	3.3827682e-06
151	0x394b2664	0.0001937389
152	0x36e0a4d1	6.6949074e-06
153	0x3683c571	3.9270894e-06
154	0x2cb26a7e	5.0708873e-12
155	0x36d9c48d	6.4899855e-06
156	0x34e862eb	4.328534e-07
157	0x35459e33	7.361843e-07
158	0x34c0ec9b	3.593494e-07
159	0x37d1e003	2.5019055e-05
160	0x2d54fce4	1.2106958e-11
161	0x3701f182	7.74523e-06
162	0x34cd19b2	3.820292e-07
163	0x35c0bacd	1.4359481e-06
164	0x353c1a8b	7.007408e-07
165	0x37e5e6f1	2.7406468e-05
166	0x2d7eb124	1.44775615e-11
167	0x373a5767	1.1106814e-05
168	0x388ac88b	6.617707e-05
169	0x3c4a3dc6	0.0123438295
170	0x3861fc02	5.387888e-05
171	0x3849d83b	4.8123515e-05
172	0x2e7bf4b6	5.728814e-11
173	0x382804dc	4.0058847e-05
174	0x3723691c	9.74003e-06
175	0x3b64fde8	0.003494138
176	0x37e89b11	2.7728764e-05
177	0x382fcb07	4.1912335e-05
178	0x2e14ae3d	3.380606e-11
179	0x37b75ab8	2.1857544e-05
180	0x37864790	1.6007369e-05
181	0x39ee6c64	0.00045475655
182	0x3782b4a4	1.5581325e-05
183	0x37b7d0ee	2.191259e-05
184	0x2d7f97c0	1.4528767e-11
185	0x37716382	1.4387888e-05
186	0x35b3dd38	1.3400922e-06
187	0x39044282	0.00012613277
188	0x38b32d81	8.543861e-05
189	0x359ce4c8	1.168949e-06
190	0x2bc678f6	1.410232e-12
191	0x35e3718c	1.6945864e-06
192	0x384b26ca	4.8435097e-05
193	0x3c051b72	0.008124219
194	0x380731f4	3.223303e-05
195	0x376ea6ce	1.4224743e-05
196	0x2dca464f	2.2995965e-11
197	0x37059e22	7.964236e-06
198	0x37f71a79	2.9457022e-05
199	0x3c0cd851	0.008596496
200	0x380fc74b	3.4279463e-05
201	0x3792b7e6	1.749019e-05
202	0x2e071df5	3.0722053e-11
203	0x37381d45	1.09740695e-05
204	0x36e7b9c0	6.9059606e-06
205	0x380d4403	3.368036e-05
206	0x36c4c651	5.8643423e-06
207	0x3917b89e	0.00014469257
208	0x2ea4d26b	7.495234e-11
209	0x387be0f1	6.0052556e-05
210	0x33975494	7.04687e-08
211	0x32faf922	2.9217123e-08
212	0x3383a381	6.129904e-08
213	0x35882b18	1.0145332e-06
214	0x2cda9521	6.2124893e-12
215	0x37514ece	1.2475719e-05
216	0x33be0580	8.848565e-08
217	0x344c1867	1.9007858e-07
218	0x34a18955	3.008851e-07
219	0x3612e40f	2.1888443e-06
220	0x2ba6fcd3	1.1865182e-12
221	0x3280b140	1.4981765e-08
222	0x345b4625	2.0421483e-07
223	0x355a4de4	8.1324674e-07
224	0x349cf47f	2.923516e-07
225	0x3645767c	2.9424255e-06
226	0x2ca0d88b	4.5715146e-12
227	0x3722f89c	9.713836e-06
228	0x33359aee	4.2283254e-08
229	0x339ef706	7.4023816e-08
230	0x33457bf9	4.598039e-08
231	0x3535cd46	6.7726467e-07
232	0x2c3319a8	2.5451672e-12
233	0x36b4b26b	5.3851886e-06
234	0x3986ea80	0.00025733188
235	0x3cf647e6	0.03006358
236	0x3900afbe	0.000122725
237	0x39963a53	0.00028653684
238	0x2f9d0780	2.8563463e-10
239	0x395075c6	0.000198803
240	0x376af2f7	1.40040565e-05
241	0x3b773e0d	0.0037726194
242	0x37b13333	2.1123886e-05
243	0x37a7b698	1.9992978e-05
244	0x2d961b5c	1.7065176e-11
245	0x36cbc833	6.0731777e-06
246	0x36b4fa43	5.3935523e-06
247	0x3ac695b3	0.0015150815
248	0x3762d094	1.3519213e-05
249	0x3680ef98	3.8425896e-06
250	0x2d04ef81	7.556512e-12
251	0x36f7acd0	7.3812917e-06
252	0x36813d88	3.8516628e-06
253	0x3b097219	0.0020972549
254	0x37879625	1.616317e-05
255	0x380870c5	3.252995e-05

exp_avg f4 [128]
0	0x375ba440	1.309166e-05
1	0x3787acc2	1.61737e-05
2	0x3662d5c0	3.3801043e-06
3	0xb6a66bca	-4.959734e-06
4	0xb6110740	-2.1610904e-06
5	0xb7f106ca	-2.87326e-05
6	0x388067c0	6.1228406e-05
7	0x37cc17da	2.4329802e-05
8	0xb6d4c598	-6.3410953e-06
9	0xb7caae13	-2.4161336e-05
10	0x3696f5e8	4.4989756e-06
11	0xb7335b99	-1.0690558e-05
12	0x378e8e15	1.6993881e-05
13	0xb7f8e6b9	-2.9671342e-05
14	0xb742bef7	-1.1607764e-05
15	0x388fcda1	6.857073e-05
16	0x36e1886c	6.721404e-06
17	0x387a8cfb	5.9735943e-05
18	0x382d267d	4.128226e-05
19	0xb737a07c	-1.0945016e-05
20	0x36f43b68	7.2786825e-06
21	0xb714e904	-8.875741e-06
22	0x37a10218	1.919367e-05
23	0xb7223486	-9.6681815e-06
24	0x3862cb36	5.4071854e-05
25	0xb84be437	-4.8611513e-05
26	0x37d44a1a	2.5306876e-05
27	0xb8470164	-4.7446592e-05
28	0xb72a6154	-1.0155451e-05
29	0x37208bb6	9.569272e-06
30	0xb714dc36	-8.872759e-06
31	0xb6c365a4	-5.8232854e-06
32	0xb7c49005	-2.3432085e-05
33	0xb7d494d0	-2.5341666e-05
34	0xb9021b0e	-0.00012407845
35	0x38330714	4.2683518e-05
36	0xb4b041c0	-3.2830394e-07
37	0xb5d6d8f0	-1.600738e-06
38	0x37b63252	2.1719523e-05
39	0x3839a1a8	4.425799e-05
40	0xb6b4a8c4	-5.384065e-06
41	0x3731aa7d	1.0589717e-05
42	0xb84b7a1b	-4.851269e-05
43	0x3878b396	5.929506e-05
44	0x38c0d72e	9.195354e-05
45	0xb881e1b0	-6.193237e-05
46	0xb7905e1f	-1.7209966e-05
47	0xb55d0600	-8.2337647e-07
48	0xb7901ef2	-1.7180548e-05
49	0x3706530c	8.006358e-06
50	0xb7b04885	-2.1014604e-05
51	0x37274d40	9.971962e-06
52	0x35ee73ef	1.7766123e-06
53	0xb7c4aab7	-2.3444516e-05
54	0x384fbaff	4.95268e-05
55	0x3923f673	0.00015636701
56	0x37a5e668	1.9776824e-05
57	0x38983660	7.258053e-05
58	0xb7f21053	-2.885625e-05
59	0x37b671ae	2.1749027e-05
60	0x3625e7e4	2.4721894e-06
61	0x37396279	1.1049787e-05
62	0xb5d9d538	-1.6229815e-06
63	0x36cab5b8	6.041224e-06
64	0x37c62c6a	2.3624121e-05
65	0x3878fe53	5.9364666e-05
66	0xb8ae38d8	-8.3075545e-05
67	0x379fa6d6	1.9031966e-05
68	0x37846891	1.5784319e-05
69	0xb8ccfc56	-9.774479e-05
70	0x333b1900	4.3562068e-08
71	0xb79348c8	-1.7557657e-05
72	0xb740cb81	-1.1491474e-05
73	0xb847cf78	-4.7638518e-05
74	0xb795d7bf	-1.7862649e-05
75	0x3884603c	6.3121755e-05
76	0xb81edb5f	-3.787444e-05
77	0x384b03ce	4.8402515e-05
78	0xb636a3bc	-2.721542e-06
79	0xb720ce35	-9.5847545e-06
80	0xb8583c6a	-5.1554678e-05
81	0xb813042b	-3.5051413e-05
82	0xb6a2d070	-4.8522415e-06
83	0x3782e013	1.560155e-05
84	0x36946666	4.4226645e-06
85	0xb44e5bc0	-1.9218623e-07
86	0xb601b800	-1.93296e-06
87	0xb83cae23	-4.498487e-05
88	0x37946ece	1.7694572e-05
89	0x37bb98aa	2.2363227e-05
90	0x3761c5cc	1.3457098e-05
91	0xb7839a5d	-1.5688298e-05
92	0xb7f93983	-2.9709894e-05
93	0xb5b7debc	-1.3699387e-06
94	0xb66f6910	-3.567493e-06
95	0x35e2aec8	1.688918e-06
96	0x372a3f31	1.01475025e-05
97	0xb87527e2	-5.8449696e-05
98	0xb604d0f5	-1.9791162e-06
99	0x37a25db0	1.9355532e-05
100	0x360e5558	2.1209325e-06
101	0xb6fbb07d	-7.500929e-06
102	0xb88d48f8	-6.7369954e-05
103	0x3876b850	5.8822625e-05
104	0x37ffede8	3.0509153e-05
105	0x37c4df5a	2.3469027e-05
106	0xb787650a	-1.6140304e-05
107	0x365f17fb	3.3243548e-06
108	0xb7b57bac	-2.163447e-05
109	0xb877641a	-5.8982616e-05
110	0x3675312f	3.6536474e-06
111	0x3791330e	1.7309121e-05
112	0x37e0e51f	2.6809574e-05
113	0xb80bf691	-3.3369815e-05
114	0xb5cf5860	-1.5448422e-06
115	0x39026a86	0.00012437449
116	0xb75b9f70	-1.3090539e-05
117	0xb83acae7	-4.4534823e-05
118	0xb7fed654	-3.0378964e-05
119	0x35b30a36	1.3339511e-06
120	0x38d91f28	0.0001035317
121	0xb803f354	-3.145945e-05
122	0x38bc961d	8.992499e-05
123	0xb77dcef4	-1.512816e-05
124	0xb81ec88d	-3.7856913e-05
125	0x3851a5c4	4.9983864e-05
126	0xb8207dc6	-3.826411e-05
127	0xb8a01e89	-7.635082e-05

exp_avg_sq f4 [128]
0	0x3363067a	5.2858447e-08
1	0x32952e4a	1.7366933e-08
2	0x32c11332	2.2476886e-08
3	0x300974e6	5.000643e-10
4	0x32e3a235	2.6500041e-08
5	0x322b63b5	9.976181e-09
6	0x32f683c8	2.8698096e-08
7	0x31b0499e	5.1306435e-09
8	0x321b0cc2	9.025088e-09
9	0x3356aa66	4.9980734e-08
10	0x32beeb08	2.2225791e-08
11	0x315af3ff	3.186187e-09
12	0x31baf449	5.4410845e-09
13	0x328976d5	1.6002938e-08
14	0x32a959ac	1.9714967e-08
15	0x3391d63d	6.7910584e-08
16	0x300bbb7a	5.0834326e-10
17	0x329628ed	1.748091e-08
18	0x32f4e8ee	2.8511263e-08
19	0x31cf0251	6.0247562e-09
20	0x31e7f0df	6.7503687e-09
21	0x31d7e72b	6.2836043e-09
22	0x33365857	4.245552e-08
23	0x3092b957	1.0675575e-09
24	0x32368d77	1.062596e-08
25	0x31715261	3.5116943e-09
26	0x32100a96	8.38431e-09
27	0x322c3ed4	1.0026003e-08
28	0x332a6539	3.967327e-08
29	0x32c91a2c	2.3411381e-08
30	0x322cdad9	1.0061478e-08
31	0x3086399c	9.766157e-10
32	0x3288cbd9	1.5925183e-08
33	0x32b6c1a8	2.1275653e-08
34	0x335eef4f	5.1906053e-08
35	0x3193d33b	4.302277e-09
36	0x3061dd3b	8.216891e-10
37	0x31598e90	3.1658693e-09
38	0x30f23f5c	1.7625825e-09
39	0x34546521	1.9780829e-07
40	0x324b0820	1.1818003e-08
41	0x31b3ce4f	5.2330402e-09
42	0x32aadb2f	1.9890278e-08
43	0x318ec183	4.1547437e-09
44	0x33b293c2	8.315648e-08
45	0x32338c2c	1.0451043e-08
46	0x32d52d75	2.4817135e-08
47	0x339c4794	7.277336e-08
48	0x31e5f940	6.6931136e-09
49	0x33957714	6.9600134e-08
50	0x324e0a4e	1.1993121e-08
51	0x3145c74a	2.8780556e-09
52	0x2ec3d619	8.905605e-11
53	0x3252e384	1.227534e-08
54	0x3180b4ae	3.745831e-09
55	0x332d3dd5	4.0335937e-08
56	0x326db500	1.383637e-08
57	0x3417aaeb	1.412515e-07
58	0x325359b6	1.2302214e-08
59	0x31b35c73	5.220096e-09
60	0x32056ebd	7.766798e-09
61	0x319e63f4	4.6097686e-09
62	0x32d214d4	2.445669e-08
63	0x33b6eab8	8.5177305e-08
64	0x3228314a	9.790094e-09
65	0x338824aa	6.339663e-08
66	0x32b7d3d8	2.140034e-08
67	0x32d4f5b3	2.479178e-08
68	0x32d524f9	2.4813277e-08
69	0x32ddbf7f	2.5814868e-08
70	0x301f7976	5.801647e-10
71	0x3169544b	3.3953877e-09
72	0x332bc350	3.9991676e-08
73	0x31b4760e	5.2521107e-09
74	0x3127f1e1	2.443919e-09
75	0x337b08d8	5.8448535e-08
76	0x3234da7a	1.0527055e-08
77	0x3331c737	4.139221e-08
78	0x2f14b779	1.3525704e-10
79	0x2f1a42d2	1.4029958e-10
80	0x33754ae1	5.711161e-08
81	0x33b44bb0	8.395671e-08
82	0x2fcdc0a2	3.7426157e-10
83	0x328eb489	1.6613074e-08
84	0x3353302a	4.917107e-08
85	0x2d4c0be0	1.1598694e-11
86	0x324b2124	1.18236905e-08
87	0x3382b176	6.085877e-08
88	0x31ada6b9	5.053917e-09
89	0x332dee91	4.0496676e-08
90	0x326a618c	1.3642772e-08
91	0x328ad641	1.6162746e-08
92	0x332c095d	4.0055387e-08
93	0x2e43f27c	4.4553236e-11
94	0x3306ccf7	3.138572e-08
95	0x32228095	9.458877e-09
96	0x32205bd5	9.334106e-09
97	0x32750558	1.4262092e-08
98	0x3013be00	5.3748295e-10
99	0x3157323d	3.1315175e-09
100	0x3254687c	1.2363781e-08
101	0x318af863	4.044567e-09
102	0x330176cc	3.0143198e-08
103	0x33ea55cb	1.091208e-07
104	0x336a3e3c	5.4538972e-08
105	0x327be367	1.4661828e-08
106	0x31abf74a	5.0048685e-09
107	0x30c85506	1.457608e-09
108	0x32ee5cc7	2.7749037e-08
109	0x327962fc	1.4516214e-08
110	0x2f6b0cae	2.137763e-10
111	0x3304786d	3.084317e-08
112	0x32f1a886	2.8132728e-08
113	0x3341c609	4.5116426e-08
114	0x330d4c66	3.2898605e-08
115	0x33058346	3.1085868e-08
116	0x32a1d0e7	1.8837865e-08
117	0x33024b1f	3.0336306e-08
118	0x33c2efef	9.0774726e-08
119	0x2e5e3c18	5.053033e-11
120	0x32b6270d	2.1205347e-08
121	0x34330ab2	1.6674565e-07
122	0x32bf613e	2.2279547e-08
123	0x32313c55	1.0316474e-08
124	0x320009a3	7.452772e-09
125	0x33e346c0	1.05833806e-07
126	0x31085eaa	1.9844415e-09
127	0x323e4dc1	1.1077135e-08
