results/1/MoveToGoal/MoveToGoal-421992.onnx (onnx, 75062 bytes, 7 tensors)

network_body._body_endoder.seq_layers.0.weight f4 [128, 6]
000000 0a d6 13 3f 11 7b 2d be 2f 04 17 3f 5c b9 25 bf
       0.5774847 -0.16941477 0.5899076 -0.6473596
000010 a8 80 17 bf 20 0f f9 bc 28 f3 d5 bd a5 64 77 3e
       -0.5918069 -0.03040272 -0.10446769 0.24159487
000020 e3 ab f3 3e 49 46 3e bd 1e 42 da bc 77 65 92 3c
       0.47592077 -0.046453748 -0.026642855 0.017870648
000030 e0 ea 16 3f a0 7d 24 3f d1 c7 26 3e 32 84 10 3f
       0.5895214 0.6425419 0.16287161 0.56451714
000040 2b d0 1b 3e d1 42 d1 3e 29 f3 ea be 84 45 9f 3e
       0.15216129 0.4087129 -0.4588864 0.31107724
000050 f5 af a4 3d 6d f5 13 3c 4a 5b 2f 3f 1e 0a 2c 3e
       0.08041374 0.009030682 0.6849867 0.16800734
000060 1d ec 25 bf d5 e4 cb bd 6c 8f c7 be 6f 58 29 3e
       -0.64813405 -0.099557556 -0.3897661 0.16537641
000070 40 a0 0a bf a7 63 db be 2a b0 eb 3e 00 5f 72 be
       -0.5415077 -0.42849466 0.4603284 -0.23669052
000080 2d f7 08 bf 5a 98 2d be 8c fa 52 be 97 a8 44 bf
       -0.5350216 -0.16952649 -0.20603389 -0.7681975
000090 aa f5 da be 6d 76 33 be d9 3e 64 3e 43 b3 89 3f
       -0.42765552 -0.17525645 0.222896 1.0757831
0000a0 7d 5d b3 3e 30 f6 df bc a1 4e 82 3e d0 88 a2 be
       0.35032263 -0.027339071 0.25450614 -0.31745005
0000b0 d8 91 cf 3e 7c 42 81 bd 29 37 e3 3d b0 da 5a 3d
       0.40540957 -0.06311509 0.11094505 0.053431213
0000c0 f6 b2 19 3f 51 21 dd be cd c6 52 3f 74 c1 16 3e
       0.600387 -0.4318948 0.82334596 0.14722234
0000d0 c2 fe c2 bd 11 0c cf 3e 22 c1 98 be 27 7c 5a be
       -0.095212474 0.40438893 -0.2983485 -0.21336423
0000e0 50 0e 04 bf 35 ff 28 3e 30 87 ec bd 94 48 66 3e
       -0.5158434 0.16503604 -0.115492225 0.22488624
0000f0 48 06 84 3e f9 37 6f 3e cf 14 a8 be 4c 99 9e be
       0.25786042 0.23361196 -0.32828376 -0.3097633
000100 ec de 84 3e 20 08 95 be 57 25 31 bf 74 24 3a be
       0.25951326 -0.2910776 -0.691976 -0.18177968
000110 62 e5 b4 3c 55 b7 73 be 50 29 c9 3e 8d 2d 72 bd
       0.022082034 -0.23800404 0.3928933 -0.05912547
000120 21 de 88 3f 76 ce c3 be ce 05 15 3f 43 1b 80 3b
       1.0692788 -0.38243455 0.5821198 0.0039095
000130 e1 86 80 be d2 b3 15 3e f4 da 91 bd 8a f9 00 bb
       -0.25102904 0.14619377 -0.0712184 -0.0019679987
000140 f0 7c 6c 3e bf ae 02 bf ae 3b d8 3e de a3 de 3e
       0.23094535 -0.5104789 0.42233032 0.43484396
000150 43 a9 58 be 72 48 fa bd 47 44 ef 3e 9a 96 8e 3e
       -0.21158318 -0.12220849 0.4673178 0.27849275
000160 14 03 58 3e 92 21 bf be 79 c0 d7 be 3e 9d 1f bf
       0.21094924 -0.373303 -0.42139032 -0.6234931
000170 4f 58 55 be 0f d7 81 be e1 07 a5 3e 68 9f 42 3f
       -0.20834468 -0.2535939 0.32232574 0.76024485
000180 0c 72 4f bf 05 55 27 bf af 35 a5 3e f3 07 89 be
       -0.81033397 -0.65364105 0.3226752 -0.26763877
000190 6a a9 c4 be a7 1c 7e bf c6 75 a0 3e 3a b4 a7 3e
       -0.38410503 -0.9926247 0.31339854 0.3275469
0001a0 8e c1 80 3e 1e 36 56 3f da 2b 9a 3e fa bf 24 3f
       0.2514767 0.83676326 0.3011158 0.64355433
0001b0 88 7e 0d 3f 72 a0 ff 3b 5e a2 bc 3e b3 02 1c bf
       0.55271196 0.007801109 0.36842626 -0.6094162
0001c0 db 1d 8b 3e 68 bf 8b be c9 e8 d2 3d a3 49 09 3f
       0.27171215 -0.2729447 0.102983065 0.53627986
0001d0 53 d2 99 3e 9a 54 88 be 81 ce 65 3d f6 da 06 bf
       0.30043277 -0.26627046 0.05610514 -0.5267786
0001e0 53 83 66 3e 8b b8 2e 3f 54 7a 55 be f8 d2 4e 3e
       0.22511034 0.6825034 -0.20847446 0.20197666
0001f0 26 66 0c bf 01 6a 1f bf 12 d4 ee bd be a7 c3 bd
       -0.54843366 -0.62271124 -0.11661543 -0.09553479
000200 5a 91 b2 be 36 f2 9c 3e 37 bc 25 be 01 9b 7d bd
       -0.3487652 0.30653542 -0.1618508 -0.0619154
000210 84 1a a0 bd 0e e1 3a be 4f 6a 1d be 2c 1b 06 bf
       -0.078175575 -0.18249914 -0.15372585 -0.5238521
000220 0f ae 09 3f 61 54 40 3d 95 9a 0f bf 93 ed 73 bd
       0.5378122 0.04695547 -0.5609525 -0.05955274
000230 e8 2f dc bd da 9f b6 3c 2b a7 e9 be 90 f0 44 be
       -0.10751325 0.02229302 -0.45635352 -0.19232392
000240 9a 55 a2 bc 56 ae a5 3e b4 11 28 bf 1f 46 10 3f
       -0.019816209 0.3235957 -0.6565201 0.56356996
000250 45 28 70 3e 05 0a 51 be 1e a8 e2 3e ee 9a 6e bc
       0.23452862 -0.20413978 0.44268888 -0.014563305
000260 b3 0e 10 3f f2 97 d9 be 12 0a 1e 3e 0c 80 af 3e
       0.5627243 -0.42498738 0.15433529 0.3427738
000270 6c e1 0a be 12 61 15 be b8 e5 74 3f b3 13 e7 3e
       -0.13562554 -0.1458781 0.95663023 0.45132217
000280 48 ee 61 3e 21 1e a0 3e 26 1e 27 3b eb 12 b3 3e
       0.22063553 0.31272987 0.0025500148 0.3497537
000290 7b 28 f5 bd 31 6c be be 24 de c1 bd f5 43 2c 3f
       -0.11970612 -0.37191918 -0.09466198 0.67291194
0002a0 8c db 93 3e 6c 42 4a 3b cd a8 0b 3f 3b fc 55 3d
       0.28878438 0.0030862344 0.54554445 0.0522425
0002b0 4a c7 a6 bc 62 d8 bb 3e 90 4a 61 bd f4 e0 9e 3e
       -0.0203587 0.36688524 -0.05500275 0.31031
0002c0 2d ea f9 be 42 0e 65 be 55 2a 0b 3f 9b 8b cb 3e
       -0.48811474 -0.2236872 0.5436147 0.39754948
0002d0 d0 f6 c9 3e 19 d5 1f 3f 1f 40 c9 3d fe 89 6d be
       0.39446115 0.62434536 0.09826683 -0.23197171
0002e0 be 20 27 be 6b 27 f1 3e 35 c0 9c 3e ac ef 05 3f
       -0.16321084 0.47100386 0.30615392 0.52318835
0002f0 58 0d ae 3e cc aa a0 bd ec 2d 39 be 43 27 1a bf
       0.33994555 -0.07845077 -0.18083924 -0.6021616
000300 b9 c2 8c be 1f f4 f2 3c 92 d9 ff 3e 8c 26 36 3f
       -0.27492312 0.029657422 0.4997068 0.7115257
000310 52 33 c2 be b1 a6 1b bf 1f 58 62 be 47 8e 0b 3d
       -0.3792978 -0.60801226 -0.22103928 0.034071233
000320 74 ab 55 bf f6 ea 34 3f 78 61 c6 be f7 2c ff be
       -0.8346474 0.7067102 -0.38746238 -0.49838993
000330 45 e2 6d bf a9 90 4f 3d 52 81 07 3e a8 7f 8b bd
       -0.92923385 0.050675068 0.13232926 -0.06811458
000340 56 53 59 3f d2 da 04 3f 45 1d 82 bf ef 40 0a bf
       0.84892786 0.51896393 -1.0165182 -0.5400533
000350 8d e4 98 3e 37 b2 57 3e 89 9f 1e bf 41 de 1f bf
       0.2986187 0.21064077 -0.6196218 -0.6244851
000360 a8 6a 36 bf 7f 07 10 be c0 f8 06 be fb 7f 8b bf
       -0.71256495 -0.1406536 -0.13180828 -1.0898432
000370 38 4a 23 bf 68 b1 58 3f c9 f2 12 3f a9 c5 d1 3e
       -0.63785124 0.846457 0.5740171 0.40971115
000380 57 c6 b7 bd 95 8f 82 be 0a 27 21 3e 85 b2 06 3f
       -0.08973377 -0.2550017 0.15737548 0.5261615
000390 ed 06 83 3f 30 de b1 3c ce dd d0 3e 37 c5 f1 be
       1.0236489 0.021712393 0.40794224 -0.47220775
0003a0 19 1c 5e 3d 9a 65 84 be d1 7c b8 be d7 25 4d 3f
       0.054226015 -0.25858766 -0.36032727 0.80135864
0003b0 08 55 c6 3e 6c c2 d8 3c 3a e1 2f 3e 9d 67 1d 3d
       0.3873675 0.026459895 0.17175761 0.03842889
0003c0 27 6c 91 be 1f f5 7c be 51 97 04 3e 08 3d a7 be
       -0.28402826 -0.24702881 0.12948348 -0.3266375
0003d0 50 65 8e be bc c1 c5 be 6d ae dd 3e cd 19 12 bf
       -0.2781167 -0.3862437 0.4329714 -0.5707062
0003e0 18 fa 38 3f b2 f0 8a 3c a5 d6 40 3d cb ff 6a bd
       0.7225661 0.016960476 0.0470797 -0.05737285
0003f0 d4 8a b6 be ec 37 31 be f8 c5 81 be 69 f2 c0 be
       -0.35652792 -0.17306489 -0.2534635 -0.37684944

network_body._body_endoder.seq_layers.0.bias f4 [128]
000000 69 8d 0f bc a4 5d 12 bc 97 1e 39 bb b8 6e 35 bc
       -0.008761742 -0.0089334585 -0.0028246993 -0.011073761
000010 ed d6 1f bc 6d 4d 49 bc ad 71 23 3c 75 38 80 3c
       -0.009755832 -0.012286526 0.009975833 0.01565192
000020 fb 2e 05 3b 60 15 40 bc 5d d2 43 bb 79 47 e0 3a
       0.0020322192 -0.011723846 -0.0029880025 0.0017111144
000030 17 2f 62 bc 8d 91 99 3c 26 64 3f bc c7 f7 ab bb
       -0.013805172 0.018746162 -0.011681592 -0.005248043
000040 96 19 4a 39 e7 dc 27 3a 00 a1 d1 3b a1 a1 47 bc
       0.00019273753 0.00064034614 0.0063973665 -0.012184531
000050 ad 06 69 3c 51 54 8f 3b 51 9b e5 bb ae b6 e2 3b
       0.014222783 0.004374065 -0.0070070405 0.00691875
000060 96 23 21 3d 95 3e 0e ba 84 54 0c 3c b5 eb 0a 3d
       0.039340578 -0.00054261956 0.008565072 0.033916194
000070 5b 5e d2 bc 0a 95 1a 3a 21 17 54 3c 85 e1 4c bc
       -0.025679758 0.00058968423 0.0129449675 -0.01250494
000080 70 b4 c0 bb 63 4b a7 b9 ae d5 88 3a c4 1c f6 3b
       -0.005880885 -0.0003190889 0.0010439658 0.0075107533
000090 2a 89 82 bb 25 a8 88 bb 08 2c 10 3c 26 fb 6c 3a
       -0.0039836364 -0.004170435 0.00879956 0.00090401096
0000a0 4e 86 6b 3b 34 ed 95 3c 92 84 21 3c a4 64 29 3c
       0.0035938206 0.018301584 0.009858267 0.010338936
0000b0 0e 0e 13 bc 83 9b b9 3b 8c 8b 0b 3c 60 4b 08 3c
       -0.008975519 0.0056642904 0.008517157 0.008318752
0000c0 88 58 03 bd fe fd f8 3a 81 52 ff 3a 30 ab 04 3d
       -0.03206685 0.0018996594 0.0019479544 0.03238982
0000d0 0e 13 20 3c d5 f6 89 3b 09 29 30 3c 57 1c 14 bc
       0.009770168 0.004210333 0.010751971 -0.00903996
0000e0 03 f7 85 3c 12 95 ac bb f0 12 1e 3c 40 9d 85 ba
       0.016353136 -0.005266794 0.00964807 -0.0010193959
0000f0 e5 46 2f bb 53 75 e1 3b d4 eb 35 3c 4f 26 e1 bc
       -0.0026745137 0.006880441 0.011103589 -0.027484087
000100 39 0a 09 3c 24 a4 7a bc 38 e1 9e 3b 47 7f 11 3b
       0.008364254 -0.015297923 0.0048486255 0.0022201107
000110 6e 4c f9 3b 65 c1 3c 3b 85 55 b3 bb 08 3f 22 3b
       0.007607988 0.0028801796 -0.005472841 0.0024756808
000120 a9 15 43 bc 8b 89 0f 3c 8b 02 16 bb 74 e2 de 3a
       -0.01190702 0.00876082 -0.00228897 0.0017004744
000130 c3 d1 55 3c 5a af 3b 3b ba 33 07 3c f7 d8 11 3b
       0.013050499 0.0028638453 0.008252079 0.0022254565
000140 9c f7 f9 bc 95 4d 83 3c a7 e5 07 3a 17 4e cd bb
       -0.030513577 0.016028205 0.0005184062 -0.0062654126
000150 e2 cf 85 bc e1 39 25 3c 88 49 a7 3b b2 a0 75 bb
       -0.016334478 0.0100846 0.005105201 -0.0037479815
000160 c7 de 05 bc 38 ce 59 3c f3 74 bd 3a d3 b1 ad bc
       -0.00817079 0.013293795 0.0014454409 -0.021202957
000170 ef 0e a4 3c 99 a6 d0 3c 55 4e f2 3a 40 5b 2c 3c
       0.020026652 0.025470065 0.001848648 0.010519803
000180 6e ec 09 3d 41 d5 0c bc 9c 44 82 3c 74 a8 60 3c
       0.033672743 -0.008595766 0.015901856 0.013712037
000190 37 84 1a bb 92 5b 95 39 98 7c d2 3b 3c ee d4 3c
       -0.0023577341 0.0002848772 0.006423544 0.025992505
0001a0 3b b7 8f 3c c1 0b 48 3c cd 63 bf 3b 8a fe 89 bc
       0.017543426 0.012209834 0.0058407546 -0.016845006
0001b0 b1 47 f1 3c 64 66 a4 3c 3a 1f af 3c cd 5e 87 bc
       0.02945313 0.020068355 0.021377195 -0.016524697
0001c0 94 a0 71 3c e5 d8 5b bc 2d 48 05 bc a5 54 20 3d
       0.014747757 -0.013418411 -0.008134884 0.039143223
0001d0 d8 de 07 bc 13 22 78 3c 10 db f3 3b a3 8f 9a 3b
       -0.008292876 0.015144843 0.007441886 0.00471683
0001e0 bf bb 94 bb 5b 0b ba 3b f8 ba 03 3c 1b dd 0a 3c
       -0.0045389826 0.005677623 0.008040182 0.008475567
0001f0 aa 41 c6 ba 62 77 27 3b bc 61 9b 3c 8f 63 b0 3b
       -0.0015125771 0.0025553335 0.018967502 0.005382962

network_body._body_endoder.seq_layers.2.weight f4 [128, 128]
000000 6b 11 0a bd ce 20 26 be d4 f4 a5 bd 5b ff 96 bd
       -0.033708017 -0.16223451 -0.08103338 -0.07372924
000010 00 65 48 3e be 8d 2d be 22 34 06 3d 3a 70 78 3c
       0.19569778 -0.16948602 0.03276456 0.015163476
000020 50 b4 2d 3e bc 71 24 3e af 05 a2 bb 04 cf 00 3e
       0.16963315 0.16059011 -0.004944525 0.1257897
000030 9f 96 50 be 50 82 f2 3d 5c 69 e8 3d e6 3f 42 3e
       -0.20369957 0.118412614 0.11348221 0.18969688
000040 2d 66 bf 3d 66 ee 79 3d a6 82 03 bd f1 46 f4 3d
       0.0934566 0.06101837 -0.032107018 0.119275935
000050 35 ed 53 3e 89 d9 5f bd 70 d2 8d bd cf 6a f3 bc
       0.20695956 -0.054650817 -0.069249034 -0.029714016
000060 c0 48 8e be 5d 9d 71 bd 2a a3 7c 3d 28 fe cc bd
       -0.2778988 -0.058987964 0.061679043 -0.10009414
000070 ce f7 ba bd 6e ce 77 bc 3a 6f e2 bd 08 da 02 3e
       -0.09129296 -0.0151249 -0.11056371 0.12778485
000080 7c 78 74 bd b6 40 ba bd 1d 2a 99 3d 46 1e f7 3d
       -0.059685215 -0.09094374 0.074787356 0.12066321
000090 68 43 77 3e cf a9 26 be c9 81 9a bc 16 e3 d3 bd
       0.24146807 -0.16275714 -0.018860715 -0.103460476
0000a0 09 40 99 3c 1b 56 c0 bd 6c 63 2c 3d cb d7 68 3c
       0.018707292 -0.09391423 0.042087004 0.014211605
0000b0 c2 e4 19 3d 53 ef 95 bd 4b d1 e1 bd c8 c8 fb 3d
       0.037571676 -0.07321038 -0.110262476 0.12294155
0000c0 d1 e7 c3 3d 95 df 13 3d 34 7a 58 3c 91 a2 98 3d
       0.095657 0.036101896 0.013212729 0.07452882
0000d0 7e a1 d1 3d fb a3 19 3d 4e 04 83 bc bb c2 22 3d
       0.1023588 0.0375099 -0.015993264 0.03973649
0000e0 4e 31 94 3d 68 57 8b bd 95 6b b4 3d 5c 1a e7 bc
       0.072359666 -0.06803781 0.08809582 -0.028210811
0000f0 e9 00 07 3b 14 89 ad bc c4 7a 0d 3d f3 85 a0 3c
       0.0020599908 -0.021183528 0.034540907 0.019595122
000100 36 49 e7 3d 22 6c 9b 3c 08 5b 0b bd 3c 4d 60 bd
       0.11293261 0.01897246 -0.03402236 -0.054761156
000110 02 18 1b bc 1e bd 19 be 34 d4 f8 3c c3 10 fd 3c
       -0.009466173 -0.15013549 0.030374624 0.030891782
000120 7e ac 0c bd d5 9a d8 bd cf d1 ae 3d ef 79 a3 bd
       -0.03434419 -0.10576407 0.085361116 -0.07982241
000130 b9 b3 05 3e f9 75 5e bc 06 8f 36 bd a2 e8 ce bd
       0.1305684 -0.013577932 -0.04456999 -0.10102965
000140 1f f3 56 3c 17 34 4b bd db 0c 75 3e e0 db 95 3d
       0.013119488 -0.049610224 0.23930685 0.073173285
000150 a8 8e f7 3d 8f f8 d6 bd 56 a6 59 bd ce 07 86 bc
       0.120877564 -0.104966275 -0.053137146 -0.016361143
000160 63 a1 c9 3d 5a d7 64 bc 50 06 a4 bd 32 0c ac bc
       0.09845235 -0.013967359 -0.080090165 -0.021001909
000170 fa ac 81 bd 40 f8 6a be 2f fd 35 bd 20 1d ff 3d
       -0.06331821 -0.22946262 -0.044430908 0.12456727
000180 d6 eb 02 be d8 cc 0c 3e 93 7f 82 3d 84 13 2d 3e
       -0.12785277 0.13750017 0.06371989 0.16901976
000190 31 df 0b 3e c2 72 b8 bd 8d 2e fe 3c cb 2d b9 3d
       0.1365936 -0.09006263 0.031028057 0.090419374
0001a0 a6 9d 4f bd cd 52 15 be 1f 68 1e 3d 43 e1 85 bd
       -0.050687455 -0.14582367 0.038673516 -0.06537106
0001b0 1b 1c 08 3d 7e e8 a2 bd f5 33 30 be b5 0c b6 3d
       0.03322993 -0.079545006 -0.1720732 0.088891424
0001c0 56 02 72 3d 13 e7 01 be e2 ff 6a bc 1b 5b 13 3e
       0.05908426 -0.12685804 -0.014343234 0.14390223
0001d0 24 9a 17 3d d8 49 d2 3d c2 9e ed bd 5e 60 1f bd
       0.037012234 0.10267991 -0.11602546 -0.038910262
0001e0 16 04 ad 3d c2 2e 38 3c fc a6 a8 bb 85 e3 dd 3d
       0.08448045 0.011241617 -0.005146859 0.108344115
0001f0 82 f1 5a 3d 40 ae 97 3d 43 d9 01 bd 54 b7 be 3c
       0.053452976 0.074062824 -0.031701338 0.023280777
000200 a0 0e 66 3c 11 7e 8b ba cc 7a 09 bc d2 ca 7a bd
       0.014041573 -0.0010642429 -0.008391093 -0.06122858
000210 3a 08 06 3e 52 98 36 3e a8 a5 07 be be fe e5 3d
       0.13089076 0.17831543 -0.13246787 0.11230229
000220 a0 65 cd 3d b0 67 93 3d f3 1e dd ba 97 28 84 3c
       0.10029149 0.07197511 -0.0016870186 0.016132636
000230 61 70 0a be fc 5b a3 3c e5 df ea bc b6 c2 0d 3c
       -0.13519432 0.019941323 -0.028671214 0.00865238
000240 73 35 2e bd cd 3d 24 3d 55 db 61 3d 51 a9 f6 3d
       -0.042531442 0.040098 0.055140812 0.12044013
000250 8d 8c a5 bd 02 e1 d3 3b e3 ad 59 bd 7b 78 a4 bd
       -0.080834486 0.006466032 -0.053144347 -0.08030792
000260 1a de c2 bc 9f 45 b1 bc a3 a2 ea bc aa 6b d8 3d
       -0.023787547 -0.021639643 -0.028642004 0.1056741
000270 b3 d7 be 3c 3e 2d 05 be db 3b f4 bc 2e 07 f9 bc
       0.023296213 -0.1300554 -0.029813698 -0.030398931
000280 ea 49 82 3d 0f dd 34 3e 29 87 55 3c 5b c4 fa 3c
       0.06361754 0.17662452 0.013032713 0.030611208
000290 37 98 8e bd e4 33 4f 3e ab 8a 4a 3d 53 e3 d5 3d
       -0.069626264 0.20234638 0.04944865 0.10443749
0002a0 4c 5c 54 3d 4d 69 81 3d b6 f8 48 be 00 59 90 3c
       0.051845834 0.06318913 -0.19626126 0.017620564
0002b0 3e 34 06 3d 5a ef 68 bd 1b b3 3f 3d 9c 33 f1 3d
       0.032764666 -0.05686889 0.046801668 0.11777422
0002c0 56 f7 2c be 9a 7a 38 3d 36 03 81 bd 22 37 71 bd
       -0.16891226 0.045038797 -0.062994406 -0.05889047
0002d0 a0 b5 55 3e 2f c5 9c 3c 8f a6 60 bd 18 fc b0 bc
       0.20870066 0.019136993 -0.054846343 -0.021604583
0002e0 27 33 bb 3d 11 af 35 3d db c8 a0 3d a5 d3 5d bd
       0.09140616 0.04435641 0.0785081 -0.054156918
0002f0 8e c7 b1 bc 9c e3 8a bd 90 00 ae 3c 3d 37 eb 3d
       -0.0217016 -0.06781694 0.021240503 0.11485145
000300 f5 de 87 bd f1 f1 06 bb 0d ed 96 3d 6d 72 03 3c
       -0.066343226 -0.0020590986 0.073694326 0.008022887
000310 b9 d2 23 bc 8f 05 92 3d db fc bb ba 8a f0 7b bc
       -0.009998971 0.071299665 -0.0014342325 -0.015377173
000320 8f e3 a5 bc 8f 94 3a 3e 47 b3 bf 3c 70 d4 03 3d
       -0.02025011 0.18220733 0.023400916 0.032185018
000330 ac 1e ad 3d e0 36 4a bd ef 77 6c 3b 54 c3 b2 bd
       0.08453116 -0.04936874 0.0036082228 -0.08728662
000340 42 4c 2c 3e fb c5 54 3e 41 9f 0f 3d 8f a7 42 3d
       0.16825965 0.20778649 0.035063986 0.047523078
000350 37 53 8e 3c 75 6c 33 be 58 21 a8 bc fa 17 4a 3d
       0.017373664 -0.17521842 -0.020523712 0.049339272
000360 a1 7e 27 3e 22 a8 3e 3d 3c b1 b5 3d fc 75 77 bd
       0.16356899 0.046547063 0.088716954 -0.060415253
000370 9f 20 40 3d ca 52 05 bd bc 62 02 bd 8c 8b 23 bd
       0.04690611 -0.032549657 -0.03183244 -0.039928004
000380 3a 7d 9c bc ae 39 31 3d 7d d6 81 bd 86 b7 02 3e
       -0.019102681 0.0432679 -0.063397385 0.12765321
000390 4b db 17 3c ee b6 0a be ae c1 e6 bc 2e a9 44 bd
       0.009268592 -0.13546345 -0.028168526 -0.048012905
0003a0 e2 db 89 3c eb 24 1d 3d 45 62 49 bd 9f 6c d1 bd
       0.016828481 0.038365286 -0.049165983 -0.10225796
0003b0 99 29 0d bd d3 77 24 be c7 6d bb bc 14 40 1a 3d
       -0.0344635 -0.16061334 -0.022879494 0.037658766
0003c0 02 86 bd 3c a0 98 69 3e e8 29 ce bd b1 19 7b 3b
       0.023135189 0.22812128 -0.10066587 0.0038314874
0003d0 a1 c9 8a bc 67 23 74 3d 60 ab bf bc ff 0d 11 bd
       -0.016941847 0.059604075 -0.023397148 -0.03541374
0003e0 c8 97 8d 3b 95 67 3f 3c 56 d7 b4 bd 99 02 d2 bc
       0.0043210723 0.011682411 -0.088301346 -0.025636004
0003f0 53 ea f8 bc 83 97 33 3d 29 8a 84 3d e5 85 a3 3d
       -0.030385172 0.043845665 0.064716645 0.07984523

network_body._body_endoder.seq_layers.2.bias f4 [128]
000000 7d 42 32 3c f9 49 c3 bb 8a 34 ce 3c d2 6a 59 3c
       0.01088011 -0.005959746 0.025171537 0.013270097
000010 e6 55 fc 3b 22 de 28 bc 60 9b 20 3c c8 11 25 3c
       0.0077006696 -0.010306867 0.009802669 0.01007504
000020 1a e1 e6 bb d2 3b 05 bc 1c c9 1f ba f9 ce cd 3b
       -0.007045877 -0.008131938 -0.0006095336 0.0062807766
000030 a3 de e6 3b 17 86 fe b9 49 59 4d 3c fe bb de 3b
       0.0070455833 -0.0004854656 0.012533494 0.0067973128
000040 c8 ad 33 3c ff 5d 46 3b 89 2a c4 bb 05 67 eb bb
       0.010966726 0.0030268428 -0.005986516 -0.0071839117
000050 35 9d f8 ba 9b 99 53 3b aa ac 5d 3c 9d ba 27 bc
       -0.001896775 0.00322876 0.013529936 -0.010237363
000060 fe a0 0f 3c 0c ad d4 3a f4 ec 05 3a 8d cd 70 3c
       0.008766411 0.0016225888 0.0005108856 0.014697445
000070 e7 b2 89 3c 86 28 37 3c 19 45 2e 3c da 2f ab 3c
       0.01680894 0.011179095 0.010636591 0.02089684
000080 07 8e 03 3a 31 9b 59 bb f4 d0 49 bb f6 9f 4e bb
       0.0005018417 -0.0033204074 -0.0030794712 -0.003152845
000090 6c d5 44 3c c7 9b b3 bb b0 16 83 3b 58 24 9f 3b
       0.012013774 -0.0054812166 0.0040005073 0.0048566274
0000a0 4c 4b 40 3c 21 06 5c 3c 22 34 1b 3c 45 9c 83 3c
       0.011736702 0.013429196 0.009472879 0.016065726
0000b0 e9 63 62 3c 71 81 0d bc 63 87 6d bc 0f 7c 47 bc
       0.013817766 -0.008636818 -0.014497611 -0.012175574
0000c0 92 a2 f8 ba e4 9e de 3b 65 ad 2d bc 4b c2 09 3c
       -0.0018969348 0.0067938436 -0.0106004225 0.008408139
0000d0 19 b2 85 39 ef f5 42 bb 4d 8e 51 3c cc 3e 49 3c
       0.0002550043 -0.0029748639 0.012790275 0.012283038
0000e0 51 6e 63 3b a7 61 11 3c 64 8c b9 3b bc 26 c9 ba
       0.0034703205 0.00887338 0.005662488 -0.0015346627
0000f0 09 be 2c bc b9 a3 f2 bb 53 b4 06 3c b5 0d 86 3b
       -0.010543355 -0.007404771 0.008221704 0.0040909895
000100 98 9a 23 3b 3d 76 05 3b 23 d2 49 bc 85 29 6a 39
       0.0024963971 0.0020364665 -0.012318167 0.00022331446
000110 06 dc 1e 3c e5 49 79 bb fc f9 8f 3b 3e cb 56 3c
       0.009696012 -0.003803843 0.004393814 0.01310998
000120 d6 2c cd 3b cc f5 64 bc 53 62 f6 bb c5 a5 b2 39
       0.0062614484 -0.013974618 -0.0075190454 0.00034074314
000130 a6 30 d6 ba 80 0f e1 3b 66 ee 93 ba 03 71 0b bc
       -0.0016341403 0.006868303 -0.0011286258 -0.008510831
000140 33 34 35 bb a1 0e 70 bc 2f b4 20 3b 81 b8 68 ba
       -0.0027649521 -0.014651925 0.002452146 -0.0008877591
000150 26 95 67 bc d2 3f 58 bc 9f fe d6 bb 52 7a 34 bc
       -0.014134681 -0.01319881 -0.006561115 -0.011015492
000160 95 50 fe bb 60 71 40 bc b7 9f bc 3b 7e 1d a3 39
       -0.007761071 -0.011745781 0.005756344 0.00031111756
000170 9f 91 cd 3b fd 39 99 3b ae db 03 bc 3a df 16 3c
       0.006273463 0.004676102 -0.008047981 0.009208495
000180 62 24 2d 3c 11 74 3c 3c bf 1a 62 3c 2b f5 4a bc
       0.010567756 0.011502282 0.013800322 -0.012387554
000190 a7 c0 0a 3b 01 94 eb bb 5a f1 0c 39 7b 9a c9 3b
       0.0021171959 -0.0071892743 0.00013441351 0.0061524487
0001a0 a5 67 8e bb 1a 2a 9d ba a2 69 90 3b 1f d2 93 3b
       -0.0043458515 -0.0011990697 0.0044071237 0.0045111324
0001b0 14 af 05 bb 48 48 28 bc 91 99 91 3c 98 da ac b8
       -0.0020398544 -0.010271139 0.017773421 -8.2423154e-05
0001c0 c7 99 c2 ba 01 92 bd 3b 0b 5d bc 3b 05 af 6d 3c
       -0.0014846855 0.0057852273 0.0057483963 0.01450706
0001d0 42 c0 f8 3b 83 f6 88 3c a7 e3 2a 3b 40 f5 43 bc
       0.0075912783 0.016719108 0.0026075633 -0.011960328
0001e0 b6 ba 64 3c c3 2e 95 3c 4f 04 ac bb 23 e0 f0 bb
       0.013960531 0.018210774 -0.005249537 -0.007350938
0001f0 9b fc 12 bc ca 82 7a 3c 1e 18 83 3c 6d e6 40 bc
       -0.008971359 0.015289972 0.01600271 -0.011773688

action_model._continuous_distribution.log_sigma f4 [1, 2]
000000 c9 32 b0 bd 43 33 2d bd
       -0.086034365 -0.042285215

action_model._continuous_distribution.mu.weight f4 [2, 128]
000000 40 ea 89 bc 93 31 90 3c 90 63 f8 bc d0 9a be bc
       -0.016835332 0.017601764 -0.030320913 -0.02326718
000010 24 ff ce 3c 11 2f db bb 49 cf 89 bc 24 14 f0 3c
       0.025268145 -0.0066889604 -0.016822474 0.029306479
000020 14 dd 7a bc b1 dc ab 3b 45 29 6b 3b 6d 46 a8 3c
       -0.015311498 0.0052448143 0.0035882753 0.020541394
000030 d1 55 8b bc 92 0b fa 3c 8c 69 0b bd dc 85 84 3c
       -0.017008694 0.030523095 -0.034036204 0.01617711
000040 b2 75 64 3d 83 31 eb bb 08 ee d0 3c 00 e4 49 bb
       0.055776305 -0.007177533 0.025504127 -0.0030806065
000050 fb 81 36 3c 22 41 e8 3c 28 ac 13 3d c3 06 9f 3b
       0.011139388 0.02835137 0.036052853 0.004853101
000060 89 22 b7 bb 16 5e 85 3c 2c 1b 3a bc 0d cb dd bc
       -0.0055888337 0.016280215 -0.011359017 -0.027074361
000070 08 05 f8 bc 4f 2f ed bc 5d 7c 8e bc ed 50 d5 bc
       -0.030275837 -0.028953223 -0.017393285 -0.026039565
000080 ea 3f 66 3c d8 63 b8 3c 6c 03 93 3c 4b 03 09 3c
       0.014053324 0.022508547 0.017945968 0.0083626015
000090 31 f2 fd bc 8e e2 01 3c ad f2 06 3c 6c 4f ab 3c
       -0.030999275 0.00792755 0.008236569 0.020911895
0000a0 8a 78 ad bc e5 b2 e2 3c 81 02 04 3d e8 25 8f bc
       -0.021175642 0.027673194 0.03222895 -0.01747413
0000b0 82 02 c4 3c 04 8c 33 bb 71 12 38 3c 25 49 47 3c
       0.023926977 -0.0027396688 0.0112348655 0.012163435
0000c0 8f 0c 34 3d 02 4f 66 bb 27 c9 d2 3b 98 1d 39 3d
       0.04395729 -0.0035142307 0.0064326706 0.04519424
0000d0 b5 63 67 3c 72 7a e5 3b 9a b5 30 bd 1e be be bc
       0.014122893 0.007003122 -0.04314194 -0.023284014
0000e0 c1 4c 01 3d e3 b0 96 bc 70 3d 3d bd 68 9b b9 3c
       0.03156734 -0.018394893 -0.04620117 0.022657111
0000f0 cb 12 9e 3b 4f 2c 4e 3c a9 1d e5 3c 3c 71 8d 3c
       0.0048240176 0.012583806 0.027968245 0.017265908
000100 80 bb b4 bb 85 a0 d4 bb a7 5b 37 bc 99 95 23 bc
       -0.005515516 -0.006488862 -0.011191285 -0.009984397
000110 50 38 b0 bc 75 79 9b 3b 79 4b bd bc 4b dd c0 bc
       -0.021511227 0.0047447034 -0.023107277 -0.02354302
000120 93 5a 8d bc 5e ac e3 bb 88 07 39 3d e4 8f 10 3d
       -0.017255103 -0.006948038 0.045173198 0.035293475
000130 21 fa 81 bc 15 a8 07 bc 77 01 db 3c 29 c7 b9 3c
       -0.015866341 -0.00827982 0.026734097 0.022677975
000140 31 8a 2f 3d 19 db 36 3c 82 36 38 3c 55 39 7a 3c
       0.0428564 0.011160635 0.011243464 0.015272458
000150 81 52 94 b9 a7 00 8a 3c d4 90 1e 3c ee b4 38 3b
       -0.0002829023 0.016846014 0.009678084 0.0028184014
000160 27 53 a2 39 76 46 26 3c 15 7f 48 3d 73 c8 b6 3c
       0.00030961 0.010148635 0.04894932 0.022312379
000170 6a 9c 30 bc e5 99 4e bc fb 58 f3 3a 4f d9 ff 3c
       -0.0107794795 -0.0126099335 0.0018565947 0.03123155
000180 1e 17 61 bd 6b be fe bc 65 0f 0e bd a1 64 12 bc
       -0.054953687 -0.031096658 -0.03468265 -0.008935125
000190 98 8f a0 3c 20 19 30 3d 23 e6 11 bc b6 65 1c 3c
       0.01959972 0.04299271 -0.0089049665 0.009545734
0001a0 b2 46 45 bc 3b 55 0d bc 53 67 80 3c a8 55 15 3d
       -0.012040781 -0.008626278 0.015674269 0.03645864
0001b0 3a a3 c2 3c a9 55 ab 3c 6f d5 44 bd 66 44 2e 3d
       0.023759473 0.02091487 -0.04805511 0.0425457
0001c0 c8 ff 64 3d e5 40 9e bc b5 11 0e 3d 25 48 b5 bc
       0.055907995 -0.019318053 0.034684855 -0.022129128
0001d0 74 05 8e bc 61 0c c3 bc 9a 1d 55 3d 96 21 eb 3c
       -0.017336585 -0.023809614 0.052030183 0.028702538
0001e0 34 af 1a bc ae 1c 2b bd 55 09 8b b9 2c db 2f 3b
       -0.009441186 -0.041775398 -0.000265191 0.0026833517
0001f0 07 26 77 bb aa 0c fe bc 37 48 0c bd 65 68 6a bc
       -0.0037711875 -0.031011898 -0.034248557 -0.014307116
000200 3f e1 d2 bc e7 91 15 bd 22 9c 03 bd 88 1c 8f bb
       -0.025742171 -0.036516096 -0.03213132 -0.004367415
000210 f0 82 b3 3c 37 d6 b7 3c da b2 05 3d 18 84 d2 bb
       0.021913022 0.022441013 0.03264127 -0.006424438
000220 61 41 be 3b 68 9b b2 3c 44 10 5e 3d 9c e4 ec bc
       0.0058061336 0.02180262 0.05421473 -0.028917603
000230 c5 02 f5 3b 58 d1 09 bd 1b 16 a8 3c f1 42 51 3c
       0.007477137 -0.03364691 0.020518353 0.012772308
000240 02 87 13 3a 8c d9 e4 bc 24 46 6d bd 79 2e a8 3c
       0.0005627723 -0.027935766 -0.05792822 0.020529972
000250 49 20 16 3c d9 21 70 bd 06 4c d6 3a c1 f5 4e bb
       0.009162971 -0.05862603 0.0016349561 -0.0031579586
000260 f2 cb 90 bc 57 95 83 bc 88 10 8b 3b 41 1f 7f bc
       -0.017675374 -0.016062422 0.004243914 -0.015571416
000270 57 00 2a 3d 16 eb 8b 3c a3 3e a8 bc e4 c4 0f bd
       0.04150423 0.017079871 -0.02053768 -0.03509988
000280 42 c7 6c 3c 8f 59 52 bc ee 46 4b 3c 7e ff 15 bd
       0.014451804 -0.012838735 0.012407048 -0.03662061
000290 4c 5e cc 3c 59 e6 bc bc 92 c3 a7 3c ca c0 17 bd
       0.024947308 -0.023059057 0.020478997 -0.037049092
0002a0 a4 dd d9 b9 37 5e 4f 3c 29 45 43 3d 01 1e 1b bd
       -0.000415546 0.01265674 0.04767338 -0.03787041
0002b0 8c 19 29 3b c2 3d 5b bc 87 01 17 3c c2 99 e4 bb
       0.002580258 -0.013381423 0.009216673 -0.006976337
0002c0 11 8d bf bc 13 5b c1 bc fc e0 5a 3c f1 70 53 bc
       -0.023382695 -0.023602998 0.0133593045 -0.012905345
0002d0 ee 46 4d 3c 2e 65 bd 3b bd 49 52 3c 68 38 b5 bb
       0.012529118 0.005779884 0.012834963 -0.005530406
0002e0 d0 05 04 bd 7d 67 f1 3c ae 67 16 3c 68 a2 94 3c
       -0.032232106 0.029468292 0.009179993 0.018143848
0002f0 86 d9 9e bb df 06 f9 bb ea 91 56 3d 90 b9 aa 39
       -0.004847708 -0.007599696 0.05238525 0.00032563182
000300 40 bb 17 bd aa 04 9d bc 07 b8 db 3c 1c 13 f6 b9
       -0.03704381 -0.019167263 0.02682115 -0.00046935014
000310 47 f6 e3 3a 27 83 1f 3d d3 a0 b3 bb dd 60 c9 bc
       0.0017392122 0.038943436 -0.005481818 -0.02458232
000320 83 c0 2d 3c 39 f4 05 3d 2a b0 0c bc 6a df 18 bd
       0.01060498 0.032703612 -0.008586923 -0.03732244
000330 eb c0 9d 3c 16 45 ed 3c f4 f4 ee bc 72 c9 9c 3c
       0.01925703 0.028963607 -0.029169537 0.019139025
000340 75 92 85 bb 14 fe e5 3b 5b a2 65 bd c1 f1 f1 bb
       -0.004076297 0.007018814 -0.056063037 -0.0073835556
000350 68 9b d2 39 16 85 b8 3c d2 65 00 bd 58 e9 b1 3b
       0.00040170108 0.022524398 -0.031347103 0.005429428
000360 d5 4d 9d 3c ee f3 a7 3c e8 64 70 bd d0 a1 2f 3d
       0.019202152 0.020502057 -0.05868998 0.042878926
000370 44 1a 9d bc e1 46 89 bb b6 da 38 bc 61 55 4c 3c
       -0.019177563 -0.0041893576 -0.0112826135 0.012471528
000380 c6 65 97 3c f3 d6 ba 3c 8a 08 1b 3d 46 5c 6a 3b
       0.018481147 0.022807574 0.03784994 0.0035760566
000390 4e 65 6d 3c 2f e0 86 3b 14 07 f0 3b 0f 3f 11 bd
       0.014489485 0.0041160802 0.0073250625 -0.035460528
0003a0 ee 04 a9 3c 3d 85 d2 bb 79 1b c0 3c 46 1c 45 bd
       0.020632233 -0.0064245746 0.0234506 -0.048122667
0003b0 51 af 88 3c d7 56 5b bc f8 79 23 3b c6 b6 11 3c
       0.01668516 -0.013387403 0.0024944525 0.008893674
0003c0 4a 19 25 3d cc 2e 52 3c 35 46 90 bd 5d cb 24 bd
       0.04030732 0.01282854 -0.07044641 -0.040233005
0003d0 a7 95 c2 3c ed 50 ba 3c 96 93 6e bc ca 80 f6 3c
       0.023753 0.022743667 -0.014561554 0.030090708
0003e0 67 6a 37 3d 2e 0a f9 3b bf ef a8 3c 54 20 2f bb
       0.044779208 0.0076000905 0.020622132 -0.002672215
0003f0 e3 f8 ad 3c a7 62 e6 bc 2a 51 26 bd ad b8 a3 3c
       0.021236842 -0.028123213 -0.040604748 0.019985521

action_model._continuous_distribution.mu.bias f4 [2]
000000 1b ce 51 bc 76 47 f9 bb
       -0.012805487 -0.0076073958
