V3/results/Simple17/AgentControl/AgentControl-500061.pt (torch, 446049 bytes, 39 tensors)

network_body._body_endoder.seq_layers.0.weight f4 [128, 6]
00000000: a20e cfbd 0268 b6be daa8 4b3e bf53 dbbe
00000010: 6ce6 1a3f e56b 1c3f 6e15 443e c744 d33e
00000020: 5b7c 893f 1c33 fc3d acd8 aebe cd47 ce3e
00000030: bf43 7fbd 85b0 82bc c847 89bb f897 6dbe
00000040: 1db4 a9be 0f9b 99bd 5394 653d b227 e63d
00000050: 40f9 943e d482 1f3f ded7 8dbe c661 9dbd
00000060: 1d72 1c3d 627b 473e 4604 223e 9c9f 82be
00000070: 668e d6be 6a47 063e 62a5 8ebe 0ef5 d7bd
00000080: bab7 d5bd 18e3 ecbe f4d8 ea3d 432c bf3e
00000090: e770 8bbe 4304 b53e 9c69 7cbe 9bb9 c63e
000000a0: 4a56 64bd 3ad7 d9be 3b01 243f 1966 053f
000000b0: 782d 26bc 1801 c13d 419b babe 536c 6dbe
000000c0: 00c3 1f3e f2df 033f d02a 353e 502e e03e
000000d0: 5729 273e 073c f43c e9b9 8dbe 6d2a 083e
000000e0: d904 af3e 8fcf 333e 0f10 cabe 559a 9c3e
000000f0: f942 31bf 5e4b 49be a913 d2bc 06f2 fdbd
00000100: 53fa aa3e fec7 263e ad7f 123c 7a95 2e3f
00000110: 2450 b63e b60f 2abe 33a5 febe 7c33 48be
00000120: 6c9c 523e e03b 28be fb58 b43e a313 6bbe
00000130: 251a 07be 195b e83d 9214 cd3e c2f0 7abe
00000140: efa5 af3e 7f06 04be 0d72 a5be 93eb 8c3d
00000150: c2e7 9e3e 29cb 52be 7dbc 9d3e 78e0 9f3e
00000160: bba9 1bbf 3e6a b5bc 5d0b 21bf 7249 bfbd
00000170: 94a7 bdbd f537 b0be 5ae8 afbe 7d03 653f
00000180: 67bf 9c3e 5724 b13b 9aae 04bf c298 393f
00000190: d956 8f3e 8b44 ed3e d54f 3d3e f831 e43e
000001a0: 84cb b9bd 802a dcbe 1f71 db3e f812 9cbd
000001b0: 27f6 23be 5bba 98bf b6cc 5cbe ca65 02be
000001c0: 48d5 3fbe f4ab 44bf 834f 3bbe 9770 503e
000001d0: 9495 d2be 5bca 943e e902 89be a051 febe
000001e0: 57ca 27bf 6c4b f8be 96f1 8d3e d3f5 f93e
000001f0: bae0 11bd 94e7 123f 4d81 a8be 02d5 943e
00000200: 20c6 93bd 90d8 a63e 5cb3 b4be 30dc 51be
00000210: 040a 9d3d 5661 0dbf b7f0 b33e 24c1 f53e
00000220: a09f 2d3f 1514 89be 2591 643d c845 ab3d
00000230: 0ad7 ea3e 2e5e 4a3e ee52 3abe e3bd 35bf
00000240: dbcb b9be 213c 6e3f e4d7 2ebe 4eff 273f
00000250: c6a6 16be 681f 463e 6377 103e e5a2 a1be
00000260: e89a a13e 3a93 18be 1b42 00bf 8eba 16be
00000270: 67e0 9d3d c744 73bf 009a c2be 72d1 8bbd
00000280: 11bc e3bd bdcb 31be 0649 513f bb15 f13e
00000290: 9c46 a13e 7cbe a03e 4eab 7dbe a332 a93e
000002a0: 13b0 953d 2538 a7be ef87 743f 7706 123d
000002b0: aad6 15bf d98c c13d 87c1 a4bd a448 a13e
000002c0: 1c9c d63e 770d 833e 6b52 183e a931 a93e
000002d0: 302e d03d b2a4 90bd 6196 273e 62e7 e73e
000002e0: 916d dabe 1deb eabe 3951 f53e cb2e febe
000002f0: 6420 aa3e 7831 15bf d48f c9be e522 02bd
00000300: fd90 f2bd 2311 7a3e 103e a33e 92db e43d
00000310: ec2b 50be a0ad 813e 484a 38bf 17c6 fdbd
00000320: 35db e6be 378e 95bc 1ce1 313e ed43 753e
00000330: a2a6 0a3e 3a05 be3e abcc 943e 2361 44bf
00000340: da36 843f 8fb3 1c3f 04b6 8f3e f163 413f
00000350: 1652 7bbd 697a 9cbe 98d4 43bd 7db7 03bf
00000360: ae41 123e efe9 7e3c c614 763e 1483 d9be
00000370: 5126 8a3e ef33 1abe 71f1 df3e 9614 0dbf
00000380: 159b 263e 4559 db3e b3eb a53e e80f 563f
00000390: 8eef e9be bac7 ff3e 8152 05bf 6288 46be
000003a0: 1893 aebd 5864 a43e 8e9c 83bd ba34 10be
000003b0: 43f8 3fbe 49a0 82bd cc20 05be 2a61 d13e
000003c0: c336 c73e 498f 0abe ba1c 3d3f d2bb 30bf
000003d0: f6e9 433e def2 a33e c2f9 d3be 2004 003f
000003e0: aca8 943d 9aec e83e 054d c5bd 4749 d33d
000003f0: 74e4 493f 56ce 66be e11e d8bd 0f87 883e
-0.10110213 -0.35626227 0.1988863 -0.4283733 0.60507846 0.61102134 0.191488 0.4126341
1.0741075 0.12314436 -0.34149683 0.40289155 -0.062320467 -0.015953312 -0.004189465 -0.23202503
-0.33145228 -0.07500278 0.056049656 0.1123804 0.29096413 0.62309 -0.27703756 -0.076846644
0.038194764 0.1948066 0.15821943 -0.25512397 -0.41905516 0.1311318 -0.27860552 -0.10544787
-0.10435434 -0.4626701 0.11467162 0.37338457 -0.27234575 0.35354814 -0.24649662 0.3881348
-0.055746354 -0.42547017 0.6406438 0.52108914 -0.0101426765 0.09424037 -0.36446574 -0.23185854
0.1560173 0.5151359 0.17692113 0.43785334 0.16324364 0.02981378 -0.276809 0.13297434
0.34183386 0.17559646 -0.39465377 0.30586496 -0.6924282 -0.19657657 -0.02564414 -0.12399678
0.33394107 0.16287228 0.008941573 0.68196833 0.35608017 -0.16607556 -0.49735412 -0.1955089
0.20567483 -0.1642909 0.35224137 -0.2295671 -0.13193567 0.113455005 0.40054756 -0.24505904
0.34306285 -0.12893103 -0.32313576 0.0688087 0.31036192 -0.20585312 0.30807868 0.31225944
-0.60805863 -0.022145387 -0.62907964 -0.093401805 -0.092604786 -0.34417692 -0.34356958 0.8945845
0.30614778 0.0054059434 -0.5182892 0.72498715 0.27995947 0.46341357 0.18487485 0.44569373
-0.09072021 -0.43001175 0.42859742 -0.076208055 -0.16011868 -1.1931871 -0.21562466 -0.12734142
-0.18733704 -0.7682488 -0.1829205 0.2035545 -0.41129744 0.29060635 -0.26760033 -0.4967165
-0.6554312 -0.48495042 0.27723378 0.48820361 -0.035614707 0.5738461 -0.3291115 0.29068762
-0.07215524 0.325871 -0.3529309 -0.20494151 0.07667926 -0.5522665 0.35144588 0.47998917
0.67821693 -0.26773134 0.055802483 0.08362919 0.45867187 0.19762489 -0.18195698 -0.7099287
-0.36288342 0.930605 -0.17074543 0.6562394 -0.14712057 0.19347918 0.14108042 -0.3156959
0.31563497 -0.14899912 -0.5010087 -0.14719602 0.07708817 -0.9502682 -0.38008118 -0.06827058
-0.11119855 -0.17362876 0.8175205 0.47086892 0.31499183 0.31395328 -0.24772379 0.33046445
0.07308974 -0.32660022 0.9551992 0.035650697 -0.58530676 0.09450693 -0.08044725 0.31500733
0.41915977 0.2559621 0.1487519 0.330457 0.101650596 -0.07062663 0.16365959 0.4529372
-0.42661718 -0.45882502 0.4791353 -0.49645075 0.33227837 -0.5827861 -0.39367545 -0.03177156
-0.118440606 0.244206 0.31883287 0.11174692 -0.20329255 0.25327778 -0.71988344 -0.12391298
-0.45089117 -0.01825629 0.17371029 0.23951693 0.13540128 0.37113363 0.290624 -0.7671072
1.0329239 0.61211485 0.28068554 0.75543123 -0.06135758 -0.30562142 -0.047810167 -0.51451856
0.14282867 0.015558704 0.24031362 -0.42482817 0.26982358 -0.15058874 0.43738893 -0.55109537
0.16270097 0.42841545 0.32406387 0.8361802 -0.45690578 0.49957067 -0.52079016 -0.19387963
-0.0852415 0.32107806 -0.06426345 -0.14082614 -0.18747048 -0.06378228 -0.13000792 0.40894443
0.38908967 -0.13531221 0.7387196 -0.6903659 0.19132218 0.3202123 -0.41401488 0.50006294
0.07258734 0.45493013 -0.09633831 0.10316711 0.78864217 -0.22539648 -0.10552765 0.26665542

network_body._body_endoder.seq_layers.0.bias f4 [128]
00000000: 7744 eb3c 98ec 3e3d cfb8 67bd 4dd2 093c
00000010: abc6 1f3c db3e 153b 9d44 3dbc a7fd a03c
00000020: f5bc a43c 3f4d d23c 4645 67bc 6f6b 933c
00000030: 9da6 bd3c 67bc b03c 8240 bc3d 5486 903d
00000040: 9a3b 403d b898 f93c 7410 b83c 5132 c03c
00000050: f5c9 fd39 c9e5 cf3c 9d6f 133d 190a aa3d
00000060: e938 243d bfb8 acbc 206e 393d e286 a63d
00000070: e079 323d e3a9 893d b07b 843d 8d73 933d
00000080: 195c 1cbb 3765 823b a2cb 833d 6745 543d
00000090: 7c0d 363d 1c39 663d 8622 223c 0fbd 403d
000000a0: 7806 d43c df6d d7bb 95f2 743c fa6b 4d3c
000000b0: 84a4 403d 9792 da3c f900 153d c69a 4a3d
000000c0: 73ba 223d 3486 373d 58a1 02bc dd3b 2539
000000d0: bbea 313d 62ab 893c 8971 ab3c 7cc6 003d
000000e0: ab53 31bd c2c8 1f3d 2e1f 7d3d 4e41 153d
000000f0: 67f3 d23b c6ee 593d 2652 9abc f41b 363c
00000100: 17dd ac3c 3601 4a3d b984 5c3c 4c36 db3c
00000110: 94e8 5d3c a923 433c 7e01 f4bb e9c2 1a3d
00000120: f9c5 aa3b c5ed 953a 153b babb 637c 973d
00000130: 5b18 493c 7d88 963c 0d5a 9e3c 5d58 873c
00000140: 8f65 073d b369 f33c d53d 773d eae6 5c3d
00000150: 946e c7bb 7238 463d cc52 5a3c 23bf c43c
00000160: c95f 953d 36cc 003d b242 cbba 917b 843c
00000170: 2fb4 f03c c809 1d3c e636 643d 1469 8d3d
00000180: ab22 8bbb 03a0 163d 5853 473d f2a5 513d
00000190: 9fcb 823b 2c8f 433d a72c 8b3c 9592 6a3d
000001a0: 2320 ba3c 5ec4 9cbb edc2 8e3d b5c4 3bbc
000001b0: be43 3c3d 31bb fabc ca22 5a3c bd7a 6b3c
000001c0: e7de 593c 730e 103c 3941 3b3b 4f36 0ebd
000001d0: 137d 7ebc e0c3 fbbb b7e7 00bd 7350 a9bb
000001e0: 82ac 603d 2d1a 493c be3a f93c 2673 193b
000001f0: b037 67bc 0ff6 933d 0eeb 9b3c d9d4 b43c
0.02871917 0.046612352 -0.05657273 0.008411956 0.009751956 0.002277306 -0.011552003 0.0196522
0.020109633 0.0256716 -0.014115637 0.017995564 0.023150736 0.021574212 0.091919914 0.07056871
0.04693184 0.03046833 0.022468783 0.023461493 0.0004840639 0.025378125 0.035995115 0.08302707
0.040093336 -0.021084188 0.04527104 0.081311956 0.04357326 0.067218564 0.06468904 0.07199774
-0.0023858605 0.003979351 0.06435324 0.051824 0.044446453 0.056206807 0.009895926 0.0470553
0.02588199 -0.006574377 0.014950414 0.012537951 0.047031894 0.026681228 0.03637788 0.04946401
0.039728593 0.04480572 -0.007973038 0.00015757927 0.043436747 0.016805355 0.020928161 0.03143929
-0.043292683 0.039009817 0.061797313 0.036439233 0.006437707 0.053206228 -0.018838 0.011115063
0.021101518 0.04931756 0.013459378 0.02675929 0.0135442205 0.0119103575 -0.007446467 0.037783537
0.0052115885 0.0011438659 -0.0056833127 0.07396772 0.012273873 0.01837563 0.019330049 0.016521627
0.03305584 0.029713487 0.060361702 0.053931154 -0.00608618 0.048393674 0.013325404 0.024016922
0.0729366 0.03144475 -0.0015507548 0.016172202 0.029382793 0.009584852 0.055716418 0.06904808
-0.004246076 0.036773693 0.048663467 0.05118365 0.0039915587 0.04774396 0.016989065 0.057268698
0.022720402 -0.004784151 0.06970773 -0.011460473 0.04596304 -0.030606838 0.013313958 0.014372525
0.013297773 0.008792507 0.0028572811 -0.03471976 -0.01553275 -0.007683262 -0.03147098 -0.005167061
0.054852016 0.012274307 0.030423518 0.002341458 -0.014112398 0.07224666 0.019032981 0.02207415

network_body._body_endoder.seq_layers.2.weight f4 [128, 128]
00000000: c757 03bd 6b40 b33b 4287 8ebd a6f4 003e
00000010: 372d 063e 9833 bd3c a32f 32be c877 ae3d
00000020: a152 f0bd c6bb cdbd 5bb5 653d 219e 573e
00000030: de06 b9bd 1f86 5ebd f2de d9bd 182b 1ebe
00000040: b2e5 a43d 10c4 b83d 880c 3c3d 2bc2 0b3d
00000050: 75aa a33c 68e0 983d 79ad f53d 6691 81bc
00000060: 3255 bc3c 823d f33b dab8 153d 4101 6a3d
00000070: 1e23 33be f4bf aa3d 557b 9cbd c516 79bb
00000080: aaac 7f3c d47e 9abc d49e d83d 9be7 c93c
00000090: c458 36bd 5231 8b3d 394d 7b3d 8ecd 053e
000000a0: d0f6 9abd a52e 453d 3850 343d 4bb6 cb3d
000000b0: 79a2 51bd 4ec2 393c a7ae 883d 7d06 3f3e
000000c0: d21e 063e 3dd6 f4bd 26cb 0a3e 5b83 acbc
000000d0: d944 b9bc 5657 24be 0a5a 0dbd b19a 823e
000000e0: b679 463e c21b a33d a062 ed3d c16e 9dbb
000000f0: e43f 57bd d6d6 ca3d 3c99 2abd 3b26 f4bd
00000100: 9bde c83c af98 2c3d 8806 8a3b 4263 6fbc
00000110: 298c 3d3d 6730 f1bd 60b4 95bd 4746 8b3d
00000120: 192f 313d 6e07 a9bb 36e7 8ebd 6739 753d
00000130: 3a0c bf3c 1690 09bc 197f ab3d 92ca bd3d
00000140: 3456 1d3c ed43 763d 57e7 07bd 14df 903d
00000150: b8c6 253e e0fc 4d3d 1aa6 c63d a1d4 23bd
00000160: e3d6 623d 220c 853e e57f 17bc 10de 18be
00000170: ecf2 c9bd 19f4 b7bd bde0 80bc 3a09 fdbc
00000180: 4c65 be3d aae6 a03d 300a bdbd e817 d23d
00000190: c2a9 033e 982c 98bb 28c3 ff3d 852d a7bd
000001a0: aff6 2dbd cd1e dcbd a175 c33d 0c87 633d
000001b0: 922f ba3d b65c 6a3e 93fe 0e3d e013 823d
000001c0: 3d76 5cbb 563c 383e ce04 f63c 90f9 d43d
000001d0: 3427 953c 6626 68be 6f04 38bd 04b4 c23c
000001e0: 1c07 973b 9f9a 8239 f948 fbbd 2281 5e3e
000001f0: d162 bebd 7ede 9fbd 322d b3bc 90b8 39bd
00000200: 701a 6bbc 7571 93bd 3539 083c 874b 19bd
00000210: ddc1 82bd 9929 0bbc 6b5c 34be b8fc 7ebc
00000220: 209d 103d ecfb 5abc 655e 263e 3722 e63c
00000230: ca58 143d aa95 ae3d 86c8 5a3c a053 063e
00000240: 867f 103b 1c2e e63d eecf 32bd 4bd9 02bd
00000250: 3279 463b c52e 3cbd 6b8b eabd 493a 03be
00000260: 7da3 0c3c dba4 1fbd f64b 0e3e c251 d53d
00000270: 4b28 93bd b9d1 e23d 04a7 f6bb 9341 9dbc
00000280: b162 c33c 6402 af3d 2e62 833e 5fd5 383d
00000290: bb2b a93d f33c 813d 87cf 393d d519 57bd
000002a0: b6be d53b 7798 28be 0dbc 0f3d 6456 9fbd
000002b0: 25a4 803e f7e8 c03d 51ce e83d 149b b23c
000002c0: dbac 9e3c 9553 35bb dcb2 173b c9a4 ba3d
000002d0: 821f b63b 6f73 f73c 048a 5d3d cf40 bcbd
000002e0: 99f9 a8bc 0e12 a53d 8e41 58bd 8ad0 3a3e
000002f0: 9e14 56bd cad5 383d 3df3 56bd 1b76 6fbd
00000300: b833 8bbc 2431 d5bd a70f d0bd 4a1d 0dbe
00000310: 5ffd f43d 1b5d 903c 036c 023e 8c34 9abd
00000320: b037 4fbd 793e ffbc 934a 5f3e a0ee 743d
00000330: f896 9f3c 0637 70bd a7a0 a63c 770a 12bd
00000340: 35d2 243e 1764 ec3d 12af 663e 3df7 8fbd
00000350: 8cca 57be 0c0d b23b 482c ce3c 3ccb 5cbd
00000360: b712 3abd 2640 e63d 95ea 4f3d 0efa 163d
00000370: b419 c23d 2564 dcbc 43f4 163d bc38 e8bb
00000380: f1bb 21be 19d1 f23c 73f0 9abd af4d 093d
00000390: ad0b ab3d 2f40 fbbd 4ab0 c8bd 0435 fa3d
000003a0: f4d1 83bd 9c15 38bd c571 62bd ea75 093e
000003b0: a6db e2bc f82e 54bd d3c2 853d c43a 39bc
000003c0: ed10 d13d c2b1 0d3e 5391 3ebd 3cd9 083e
000003d0: a8fd 243d a8ea 023c b4fd a0bd 6330 f93d
000003e0: bde9 8d3c 1081 c4bc 60f3 0c3e 47f9 713d
000003f0: 5b2e e4bd ae8d 553e 971f 90bd 3d7d fd3d
-0.032066133 0.0054703257 -0.06959392 0.12593326 0.13103186 0.02309589 -0.17400984 0.0851894
-0.1173451 -0.100455806 0.056081157 0.21056415 -0.09034513 -0.054327127 -0.106382266 -0.15446126
0.080516234 0.09021771 0.04591039 0.03412072 0.019978741 0.07464677 0.11995978 -0.015816402
0.022989843 0.007423104 0.03655324 0.057130102 -0.17493865 0.083373934 -0.07640711 -0.0038007956
0.015605131 -0.018859304 0.10577169 0.02464657 -0.044518247 0.067965165 0.061352942 0.13066694
-0.07566607 0.048140187 0.044021815 0.09946879 -0.051180337 0.01133783 0.06673937 0.18654819
0.13097695 -0.11954925 0.13554057 -0.021058729 -0.022615837 -0.16048941 -0.034509696 0.25508645
0.19382367 0.07964279 0.11591077 -0.0048044627 -0.052551165 0.09904258 -0.041650042 -0.119213544
0.024520209 0.042137798 0.0042122044 -0.014611067 0.046276245 -0.1177681 -0.073097944 0.06800514
0.043257806 -0.0051583564 -0.06977694 0.059869196 0.02332126 -0.008396169 0.08373851 0.09267153
0.009603072 0.060123373 -0.033179607 0.07073799 0.16189086 0.05028999 0.0969965 -0.0399977
0.055380713 0.2598582 -0.009246801 -0.1492846 -0.09860787 -0.08982105 -0.015732164 -0.030888189
0.092966646 0.07856496 -0.09230459 0.10258466 0.12857726 -0.004643988 0.12488395 -0.08162979
-0.042471584 -0.10748062 0.0954392 0.055548713 0.090911046 0.22886929 0.03491075 0.06351447
-0.0033639811 0.17991766 0.030031588 0.10399163 0.01820717 -0.22670898 -0.044926103 0.023767479
0.004609002 0.00024910734 -0.12269778 0.21728948 -0.092961915 -0.07806109 -0.021872137 -0.04534203
-0.014349565 -0.071993746 0.0083144205 -0.037425544 -0.06384633 -0.008493804 -0.1761338 -0.0155631825
0.035306096 -0.013365727 0.16246946 0.028092487 0.03621749 0.0852464 0.013353473 0.13117838
0.0022048666 0.112392634 -0.04365533 -0.031945508 0.003028464 -0.04594304 -0.11452373 -0.12815203
0.0085839005 -0.038975578 0.13896164 0.10415985 -0.0718542 0.11075158 -0.007527234 -0.019196307
0.02385077 0.08545378 0.25660843 0.04512536 0.08260294 0.06310453 0.04536393 -0.05251487
0.0065229787 -0.1646441 0.03509145 -0.077801496 0.25125232 0.094194345 0.11367477 0.021802463
0.019369533 -0.0027668227 0.002314738 0.091134615 0.0055579552 0.03020641 0.0540867 -0.09192049
-0.02062683 0.08060084 -0.052796893 0.18243614 -0.052265756 0.04512576 -0.052478064 -0.058462244
-0.016992435 -0.104097635 -0.101592354 -0.13780704 0.11962389 0.017622521 0.12736516 -0.07529554
-0.050590217 -0.031157719 0.21805792 0.059797883 0.019481167 -0.058646224 0.020340277 -0.03565451
0.16095813 0.11542528 0.22527722 -0.07029579 -0.21073359 0.005433684 0.0251676 -0.053904757
-0.045428004 0.11242704 0.050760824 0.036859564 0.09477559 -0.026903221 0.03685404 -0.0070868414
-0.1579435 0.029640721 -0.07565393 0.03352135 0.08351836 -0.122681014 -0.097992495 0.12217143
-0.0643653 -0.044942483 -0.05528428 0.13423887 -0.027692627 -0.051802605 0.065313004 -0.011305515
0.102083065 0.1383734 -0.04652531 0.13364118 0.040280968 0.007990517 -0.0786089 0.12167432
0.01732337 -0.023987323 0.13764715 0.05907562 -0.11141654 0.20854828 -0.07037275 0.12377403

network_body._body_endoder.seq_layers.2.bias f4 [128]
00000000: 96bd eb3b a9f6 533c 2cae b63c 9327 833b
00000010: 2b31 05bc 3f0a 4c3c bef9 bd3c e574 babb
00000020: 44de 0a3d 60cf aa3b dfc7 a73c 32cf 9a3c
00000030: dedb 8c3c d3e1 c33c a1cb 13ba 5dea 303c
00000040: 935f 0c3d caf0 793c de08 a73c 0c3d 7c3c
00000050: c382 cb3b 476b bd3c ad9d a23c 0bb7 333d
00000060: 4d17 7f3d 8b97 0c3d 5dfc 753d ed5b 493d
00000070: 3d89 493d 336f 033c cc60 4bbb cabb e63c
00000080: 5712 2d3c 4345 093d 20a4 443d d139 8a3c
00000090: 2375 093d 8816 ac3c 9f38 6f3d d6b6 4a3d
000000a0: b771 41bc cd5a 113b 5002 853d f743 4c3b
000000b0: 87a9 033b a125 3c3c c6f6 433d 7b02 4a3d
000000c0: cec0 fd3c f9a3 223c c7e7 3a3d 0096 f5bb
000000d0: b873 a63b 3ccf 073d b644 853c ac11 9b3c
000000e0: 0a20 3dbb b95c 2b3d 6e11 a03c 03d8 d43c
000000f0: 33ed 033d 7457 f93c 20f5 023d f1dc 003d
00000100: f63e 103d 121b 0c3c 0e93 f2bb 10a0 f63c
00000110: f6a3 d83c e0e8 833d 4aaf 093d 3cb0 263d
00000120: d334 d6ba 6d12 ce3c d628 183d 3022 003d
00000130: e2a1 f83c e6a7 883d 05aa 063a bdbc 183d
00000140: a7a9 ad3a e221 40bb 572f fe3a f251 113c
00000150: c3e7 3abc 83e1 203d 9d82 053d 885c f53b
00000160: 5b27 d03b b339 073d 6938 1e3d e622 543c
00000170: a547 323d b6aa 453c d52b baba f26f 623c
00000180: f380 05bc bbec 663d f09c 173c ac4a 963c
00000190: 2dad 5e3c dfca ed3c a748 073d a0ef 533d
000001a0: 3133 9c3a 20ac c93c d632 3ebc dda0 583d
000001b0: 3942 943c c784 ce3c 53ec ed3c f457 853c
000001c0: 7782 1e3c a20e 753b 528d b83c 5b91 c73c
000001d0: 0d6e aa3b c084 5cbb d9da 913c f23d 523c
000001e0: c628 193d ff78 ca3b 84e0 393c 17d1 7c3c
000001f0: 5549 3aba 037d a43c b037 7c3c 33f5 883c
0.0071942313 0.012937226 0.022299848 0.0040025203 -0.008129398 0.012453615 0.023190375 -0.0056902044
0.033903375 0.0052127093 0.020481048 0.018897627 0.017194685 0.023911392 -0.0005637948 0.010798064
0.034270834 0.0152551625 0.02038997 0.015395414 0.0062106564 0.023122443 0.019850576 0.043875735
0.06227808 0.03432421 0.060055126 0.049159933 0.049203146 0.008022117 -0.0031033037 0.028165717
0.010563455 0.03351332 0.048008084 0.016873272 0.033558976 0.021006837 0.058403607 0.049490772
-0.011806897 0.0022179366 0.06494582 0.003116844 0.002009006 0.011483581 0.047842763 0.04931877
0.030975726 0.009926789 0.045631196 -0.007494688 0.0050797127 0.03315662 0.016268115 0.018929325
-0.0028858208 0.041836474 0.019539561 0.025981909 0.032208633 0.030437209 0.03197205 0.031460706
0.035216294 0.008551376 -0.007402784 0.03010562 0.02644537 0.06440902 0.033614434 0.040695414
-0.0016342647 0.02515527 0.03714832 0.031282604 0.03035063 0.06672649 0.0005137029 0.03728937
0.0013249413 -0.002931707 0.001939277 0.008869635 -0.011407795 0.039277565 0.032595266 0.007487837
0.006352348 0.03301401 0.038628016 0.012947774 0.043525357 0.012064626 -0.0014203737 0.013820635
-0.00814842 0.056378108 0.009253725 0.018346153 0.013591093 0.0290274 0.03302827 0.051742196
0.0011917112 0.024618208 -0.0116088 0.052887786 0.018097984 0.025209798 0.029043352 0.01627729
0.00967466 0.0037392755 0.022528324 0.024361303 0.0052011074 -0.003364846 0.01780455 0.012832152
0.0373924 0.0061789746 0.011345033 0.01543071 -0.0007106264 0.020079141 0.015394136 0.016718483

action_model._continuous_distribution.log_sigma f4 [1, 2]
00000000: 052b 92bd b0ab 34bd
-0.071371116 -0.044109046

action_model._continuous_distribution.mu.weight f4 [2, 128]
00000000: b535 0fbb 4df5 8abc 9a47 313d d031 0c3d
00000010: 2191 9fbc a9a2 3ebd 24d7 e13b b6e4 203d
00000020: ec07 51bd 5fcb 1d3d d348 313d 51e0 80bd
00000030: 1e67 683d d038 2a3d a4f6 7abc 9454 673d
00000040: 45f6 f4bc 1f11 abbc a879 07bd 575e 723d
00000050: c14c 7dbb f44b 3f3c a7ec f7bc 6c73 b3bd
00000060: 2919 513d bc03 2f3b 09c5 bb3d 3d2c 96bd
00000070: 6b5f 27bd 79b5 27bd c3d9 fa3c 5ce5 1b3d
00000080: 0140 87bc 24f5 9d3c 9eeb 8cbd c451 b73c
00000090: deff 6abd 8fcd 84bc d122 3c3d 184a 953d
000000a0: 13d1 7b3b 6cf6 16bd faa4 65bd 0746 5d3c
000000b0: d498 2cbd 3dad 1f3d 1ade aa3c affe 18bd
000000c0: 70c9 793d f394 bcbc c793 8dbd ae37 71bc
000000d0: efc0 503c 8236 043d 5bdf c23c 4b06 ebbc
000000e0: 4bd0 8f3c 97e8 343d 507e 02bd be3e 65bc
000000f0: 3550 7f3d 8eb5 4d3d 8ee1 35bd 741b ffbb
00000100: 3469 c6bd eb39 573b 2913 93bc 698b 23bd
00000110: 5b61 0c3d d857 5fbd 2682 57bc ba23 083d
00000120: c7c9 14bd 390e 013d 13f0 c4bc 6987 043c
00000130: b870 71bb c96a ab3d 80a8 cfbb 7971 e3bc
00000140: ef3b b13c 9b8a 483b 74dd 6abd a7cc 153d
00000150: 6297 0e3c 3034 a2bd a252 8e3c 7a26 c93c
00000160: 6ba9 b0bc 80db 9bbc 1976 0d3d 96bf 8a3d
00000170: 04cf a9bd a69c 7ebc 2bc2 333d 32c1 063d
00000180: efc9 bf3c 4790 b33d 2f12 363c 3ebb fbbb
00000190: 4cb2 893c 836a fa3c fc34 493c 0208 81bd
000001a0: 85f0 cdbc ca9c 163d e51c ff3b 469f 96bd
000001b0: d273 023d fd7a 84bd 0417 253d ed55 69bd
000001c0: 982b 63bd b28e c83c 6770 adbd 2ad5 35bd
000001d0: 35c7 18bd 3659 45bd 0b42 533d a8f3 1e3d
000001e0: 1aff f63c cad9 a53b 2817 d3bb 6cc1 4ebd
000001f0: 91b6 72bb 82ab 333d d0ad eebc a2c0 6a3d
00000200: 6726 a5bc 2889 fc3c c10f 733d 49cb 963a
00000210: 1194 eabc 3cf2 1dbd fa98 4cbd e8a9 543d
00000220: fcba 6a3d 373e 3c3d fc06 76bd e479 c63c
00000230: da53 a63b d9e9 3dbd cafb 993c 1e71 5f3c
00000240: 3032 5bbd 2f97 463d 69cd a5bc b514 6c3c
00000250: e13e 15bd 4808 cc3d e63a 1f3b b5d6 3bbc
00000260: 19e3 633d d745 84bd 0341 e73b 7773 94bc
00000270: f5cd bcbc 563a 3ebd cf28 31bb 68f2 f83c
00000280: b1bf 82bc dde2 7a3d 45fa 2fbd f654 2dbd
00000290: 6b67 3bbc 8807 1f3d 04f2 cb3d b383 bd3d
000002a0: 0989 b13c 276c 1abd 86b9 38bd 88e7 073d
000002b0: 4570 08bd a397 afba a9e0 aa3d 681e 5dbd
000002c0: f92a 453b 35f9 a5bc 9e26 5dbd 0e4c 84bb
000002d0: 5b8d ebbb bc1b 5fbd 879d e8bc ce19 21bd
000002e0: 815d 11bc d78c f33c 0e1b aa3c e933 52bd
000002f0: 8f61 29bd 6728 533d c02b e43d 347e 40bd
00000300: 0e8f 8c3a d9f2 453d 0f60 563d 1f41 423c
00000310: 49f6 7abd b696 2cbd af45 82bd d1ba 6d3c
00000320: 49ee 003d 0862 423d f9f0 80bd d896 c13d
00000330: 081e 4dbd b921 2abc 993f f0bc 926a df3d
00000340: d923 993d df33 a7bc e5c3 ab3b 255c 86bd
00000350: 5deb a93c b1a8 a9bb ab4c 8cbd 35ed 803b
00000360: fdf0 3c3d 3bf9 7f3d d8db 82bd 42ad 173d
00000370: 9bdd bbbc c568 d63b d62b 52ba 08a0 3cbd
00000380: 58bf 043c 5bdd 793d 44f8 3a3d f74c 463d
00000390: 4bed f53c d0ad 8bbd b9da 8f3d 35ff 2b3d
000003a0: fd82 973c abc9 32bd 68cf b03c 9a91 293c
000003b0: 5704 9fbc 0000 61bd f52f 08bd c44e 143d
000003c0: 3a93 b83c b7d2 b23c ff1c aa3c e146 11bd
000003d0: f07c b6ba 53ec c33c 32c8 cb3c dfad 2a3c
000003e0: a03a efbc 6f96 4f3d 11ab b6bc bfac 603c
000003f0: a7fc 10bd fa35 2d3d 6a7e d13d 1ff3 033c
-0.002185208 -0.016962672 0.043281175 0.034227192 -0.019478383 -0.046541844 0.006892102 0.039280616
-0.051032946 0.038524028 0.04328234 -0.06292785 0.056738965 0.041558087 -0.015317593 0.056477144
-0.029902587 -0.020882187 -0.033075005 0.059172 -0.0038650485 0.0116758235 -0.030264212 -0.08762249
0.051049385 0.0026705107 0.09168441 -0.073326565 -0.040862482 -0.04094455 0.030621415 0.03806053
-0.016510012 0.019281931 -0.06880878 0.022377856 -0.05737292 -0.0162113 0.04593164 0.07289523
0.0038424178 -0.0368561 -0.056065537 0.013505465 -0.042137936 0.038983572 0.02085786 -0.03735226
0.06098312 -0.023020243 -0.06912952 -0.014722748 0.012741311 0.032278545 0.023788145 -0.028689524
0.017555377 0.044167127 -0.031858742 -0.01399201 0.06233235 0.050221972 -0.04440456 -0.007785255
-0.09688035 0.0032840918 -0.017953472 -0.039927874 0.034272533 -0.054527134 -0.013153588 0.033237197
-0.036325242 0.031507704 -0.024040258 0.008088925 -0.0036840867 0.08369977 -0.0063372254 -0.027764069
0.021635024 0.0030600193 -0.0573401 0.036572125 0.008703085 -0.0792011 0.017373387 0.02455448
-0.02156516 -0.019025564 0.034536455 0.06774823 -0.08291438 -0.015540278 0.043886345 0.03289909
0.02341172 0.08767753 0.011112734 -0.007682233 0.016808651 0.030568367 0.012280699 -0.063003555
-0.025139103 0.03677062 0.007785427 -0.07354598 0.031848736 -0.06468771 0.040305153 -0.05696671
-0.055461496 0.024482105 -0.08468705 -0.044392742 -0.037299354 -0.04818078 0.051576655 0.038806587
0.030150939 0.005061363 -0.0064419694 -0.05047743 -0.0037035088 0.043864734 -0.029135615 0.057312615
-0.020159913 0.03082712 0.059341196 0.0011504675 -0.028635057 -0.03856109 -0.049950577 0.051919848
0.05730723 0.04595777 -0.060065255 0.024228044 0.005075914 -0.046365593 0.01879682 0.013637809
-0.05351466 0.048484024 -0.020239549 0.014409234 -0.03643692 0.09962517 0.002429658 -0.011464764
0.0556365 -0.064586334 0.0070573105 -0.018121464 -0.023047427 -0.046442352 -0.002703238 0.030389026
-0.015960546 0.06125151 -0.042963285 -0.042317353 -0.011438231 0.03882554 0.0995827 0.09253635
0.021671789 -0.0377008 -0.045098804 0.03317979 -0.033310194 -0.0013396632 0.08343632 -0.053984076
0.0030085428 -0.020260433 -0.053991906 -0.0040373867 -0.0071884817 -0.05446981 -0.028395427 -0.03933125
-0.008872391 0.029730244 0.020764854 -0.051319037 -0.041352805 0.051552203 0.11141157 -0.046995357
0.0010723786 0.0483273 0.052337702 0.011856346 -0.061270032 -0.042135917 -0.06360947 0.0145098725
0.031477246 0.04745677 -0.06295962 0.09452599 -0.05007747 -0.010384017 -0.0293272 0.109089985
0.074775405 -0.020410476 0.0052418583 -0.06560544 0.020742113 -0.0051775803 -0.06850561 0.0039345273
0.04612826 0.062493544 -0.06389588 0.037030466 -0.022932818 0.006543251 -0.00080173963 -0.046051055
0.0081022605 0.061002117 0.04564692 0.048413243 0.030020377 -0.068202615 0.0702414 0.04199143
0.018495077 -0.043649357 0.021583274 0.0103496555 -0.01941125 -0.05493164 -0.03324886 0.03620793
0.02253114 0.021828992 0.02076578 -0.035467986 -0.0013922732 0.0239164 0.024875734 0.010417431
-0.02920276 0.050680574 -0.022298368 0.013713061 -0.035397198 0.042287804 0.1022919 0.00805357

action_model._continuous_distribution.mu.bias f4 [2]
00000000: 4f6e c53a 06dc 2ebc
0.0015062782 -0.010672575

action_model._discrete_distribution.branches.0.weight f4 [1, 128]
00000000: c7eb be3b 584c bb3c f2c1 b2ba bf80 1abc
00000010: 0de1 caba 0dcb 36bc 6f5f 223c c105 473b
00000020: ac07 96bb b179 91bb 01f5 a0bb 0613 003a
00000030: c9df a6bb 6032 27bb 2b3d 94ba 5fa1 ce3c
00000040: 6f1f 0dbc eaab 923b b3dd 9ebc 2dd2 60bc
00000050: 59a4 a8bb 31b7 493b 1c3a 2bb8 ac96 133c
00000060: 2e27 8b3b 3a8c b13b 4a13 223c 1b04 8e3c
00000070: 1ce7 183c 0850 de3b 58b7 62bc 3af5 18bc
00000080: 7373 113b 4321 99bb 08d0 153c fa87 4cba
00000090: c64c 98bb d36f 31bb 9f39 e5bb 71a2 873c
000000a0: 26e0 203b c687 91bc 78d3 eabb e798 f03b
000000b0: 3872 ecba f373 253b 2e67 9b3a 3f29 03bc
000000c0: 0859 6abb 1763 cb3b 6b30 e7bb 72d7 ff3b
000000d0: c02b ad3c a271 29bb bec7 80bb 0205 9c38
000000e0: 9f4c a4bb e7d1 2bbb cfee 693b 57ed d93b
000000f0: ce79 a13b f0f3 f73b b7d8 7dbb 8741 e4bb
00000100: 8a64 26bb f01b a33b c217 39ba 97d4 5ebc
00000110: 741b 94bb b6a0 a4bb faaa cd3b e662 3bbc
00000120: d3ad b93a 0af6 26bc 8b97 46bb 127d 87ba
00000130: 6a51 533b 1a99 c63a 0a1f 00bc 207f 883b
00000140: c70f 293c 5c12 99bc 12c7 933b 9eaa 3bbc
00000150: b898 69bc 1f0a 743b 2879 52bc 26e4 923b
00000160: f960 0cbc bfed 3ebb 56ca 30bb 4a1a 7fb9
00000170: 1913 c4bb d550 f53b a0e3 4e3b b3b9 2a3c
00000180: 6f59 c23a 1121 24bc 181c 54ba 8809 73bb
00000190: ab04 59bc c31c 75bc 4598 743b 94c7 1f3c
000001a0: 6e2c 143c 4fc8 0a3c 7682 98bb bdb9 bd3b
000001b0: d1f6 cb3b f766 b7bb e82a 52bc 9d17 303b
000001c0: c8b2 ebba 1f4d c23b d5e3 66ba 93e9 023c
000001d0: 556f b13c c0fb 983a ad93 163c ddf7 dd3a
000001e0: 3e2e 29bb e5b8 063c 42a8 f3bb aa45 e23b
000001f0: 9a02 6bbc 93cb 023c abaf 6dbc 5fe9 333b
0.0058264467 0.022863552 -0.0013638122 -0.0094301095 -0.0015478447 -0.0111568095 0.009910448 0.003036842
-0.0045785513 -0.0044395556 -0.0049120192 0.0004885647 -0.0050925952 -0.0025512204 -0.0011309733 0.025223432
-0.008613451 0.00447606 -0.019392824 -0.013721985 -0.005146545 0.0030779357 -4.0823696e-05 0.009008091
0.004246614 0.0054183276 0.009892294 0.017335942 0.0093324445 0.006784443 -0.013837658 -0.00933581
0.0022194057 -0.0046731546 0.009143837 -0.00078022445 -0.004647824 -0.002707471 -0.0069953944 0.01655695
0.0024547665 -0.017764937 -0.0071663223 0.007342446 -0.0018039411 0.0025246113 0.0011856311 -0.008005439
-0.0035758633 0.006206881 -0.0070553324 0.0078076655 0.021139026 -0.0025855084 -0.003930061 7.4395924e-05
-0.0050140168 -0.002621764 0.003569532 0.0066506076 0.0049278503 0.0075669214 -0.0038733908 -0.0069658193
-0.0025389516 0.0049776956 -0.000706073 -0.01360049 -0.004519874 -0.005024041 0.0062764855 -0.011437153
0.0014166184 -0.010190496 -0.003030273 -0.0010336956 0.0032244571 0.0015151829 -0.0078199 0.004165545
0.010318703 -0.018685512 0.004509815 -0.0114542525 -0.014257602 0.0037237478 -0.012846269 0.004482764
-0.008568042 -0.0029133407 -0.002697607 -0.00024328489 -0.005983722 0.0074864426 0.003156878 0.010420251
0.0014827679 -0.010017649 -0.00080913445 -0.0037084538 -0.013245742 -0.014960471 0.0037322205 0.009752173
0.009043796 0.008470609 -0.004654224 0.005789964 0.006224491 -0.005596991 -0.012827612 0.0026869543
-0.0017982358 0.0059296037 -0.00088077533 0.007990259 0.021659533 0.0011671707 0.009190482 0.0016934831
-0.0025814916 0.008222793 -0.0074358294 0.0069052773 -0.014343882 0.007983106 -0.014507215 0.0027452332

exp_avg f4 [128, 6]
00000000: 8b3c 85b9 7c1d 0636 00ae d836 82f1 b3b9
00000010: 0000 0000 a15b 90ba fd97 9ab9 c903 d734
00000020: 08e4 bbb8 0413 1cba 0000 0000 ade2 0fba
00000030: 919e 27b9 1074 a0b4 e226 59b9 0d05 6b38
00000040: 0000 0000 a2fe 5838 72a8 df39 8a1b 42b5
00000050: b189 0238 a2d5 a539 0000 0000 47de e839
00000060: f0bb 2cba 96fb 1334 bc69 37ba f0af e839
00000070: 0000 0000 2c1f bd39 5084 77b8 5497 0632
00000080: 26be a6b8 1009 ff37 0000 0000 38d6 5ab9
00000090: 17eb 1439 be19 4833 137c de38 beee 8838
000000a0: 0000 0000 683a 2439 678b 28ba 61ef 9235
000000b0: cffc 0fba aedb 8839 0000 0000 d405 8439
000000c0: 0d5c 1939 9a27 37b4 d4d8 a638 d609 8cb8
000000d0: 0000 0000 c0db 26b8 1745 3139 ad1f 6034
000000e0: 376b 4739 25fe 97b9 0000 0000 bb34 fbb8
000000f0: 7022 a337 f2df 04b3 c8e1 feb7 ec5b 0139
00000100: 0000 0000 5cfb 1b39 ab62 0cba 71db 1334
00000110: 2c56 7bba c455 c039 0000 0000 aef3 0f3a
00000120: 7c24 bcb9 f84d 5235 b8e4 fdb9 9fa8 a339
00000130: 0000 0000 d6dd 7e39 806b 72b9 9a05 c034
00000140: e77a aab9 a208 cc39 0000 0000 16a9 f139
00000150: b6e6 0ab9 3a45 6135 772d 21b9 2314 80b9
00000160: 0000 0000 612c 8bb9 d6e1 f538 3841 f935
00000170: beba 3239 6fcc 99b9 0000 0000 853b 2fba
00000180: 9ed6 5db8 ce43 4535 1e02 1c39 c8fb efb9
00000190: 0000 0000 25c9 03ba ac54 24ba 518d 0635
000001a0: 750a 34ba 4c8c 5739 0000 0000 8eb2 6738
000001b0: 90ec 01b9 d347 9334 50a3 87b9 2c78 5e39
000001c0: 0000 0000 2aaf a839 9697 1739 414d f734
000001d0: 9ab5 e138 11d4 9338 0000 0000 db4c 3839
000001e0: 76cc b939 21eb b9b5 52fa a439 03e6 7e39
000001f0: 0000 0000 864a f839 3ad5 a639 d5bd 1d35
00000200: 1c79 bb39 2032 5736 0000 0000 f6fd 8439
00000210: 89eb f539 52c4 17b5 c709 5738 c2e8 8c39
00000220: 0000 0000 18e1 a839 f737 cf39 ab1d 5235
00000230: f79e 8cba 8818 793a 0000 0000 a35f 2d3a
00000240: 4c06 9f39 872f 1735 e813 c039 06ce beb9
00000250: 0000 0000 e90c 42b9 aad5 7ab9 ec09 0eb4
00000260: e581 1cba 5ee8 ec39 0000 0000 881b 233a
00000270: ea9b 9db7 381d 9e35 7248 0839 6ac3 3c38
00000280: 0000 0000 d54e 9e38 8ba5 f7b9 864e de35
00000290: 8b46 8cb9 4b9e 45ba 0000 0000 d525 5cba
000002a0: d2a1 4fb9 12cc 0035 0ad2 9db9 0066 9a34
000002b0: 0000 0000 50a6 0337 100a 3e37 f726 2935
000002c0: 49f6 7538 a460 06ba 0000 0000 387b 08ba
000002d0: 00c5 283a 6eaf d2b4 fd21 cfb9 bf32 583a
000002e0: 0000 0000 5db3 283a 5536 3cba ab00 ef35
000002f0: 3ede 5cba 2628 e539 0000 0000 cdbd 313a
00000300: 2822 2339 1287 6cb4 d858 7439 db3d 56b9
00000310: 0000 0000 87ff a8b8 80bd 6e39 9afc 9035
00000320: 0832 083a 7118 a138 0000 0000 b91a 5b39
00000330: cac6 c0b9 ea7a e635 5bfc 10b9 be5f 4539
00000340: 0000 0000 3021 08ba 3561 3cba 6de5 7c35
00000350: 6136 65ba 851e 1439 0000 0000 2e22 1b39
00000360: 327f 35ba f277 2b35 f2dd 7bba c18a 3139
00000370: 0000 0000 8572 ae39 8c0f efb9 f13b dc35
00000380: 3e5d 93b9 4d55 2bba 0000 0000 5e90 2aba
00000390: fc45 5b39 a311 9f35 4b59 c539 a188 8d38
000003a0: 0000 0000 1a9c 22b8 3403 4cb8 6811 d535
000003b0: c00c 6439 c784 e4b9 0000 0000 cfbf 63ba
000003c0: 3752 02ba 9125 9535 2f86 e4b9 0686 9b39
000003d0: 0000 0000 b661 e339 5433 a039 b02f acb4
000003e0: a015 a439 b082 8937 0000 0000 ac9a 8239
000003f0: 1521 37ba 9df6 b635 9913 c0b9 860d 09ba
-0.00025412845 1.9984718e-06 6.457558e-06 -0.00034321478 0.0 -0.0011013636 -0.0002948641 4.0049625e-07
-8.959329e-05 -0.0005953761 0.0 -0.00054887944 -0.00015985432 -2.988677e-07 -0.00020709218 5.603307e-05
0.0 5.173556e-05 0.00042659376 -7.2310706e-07 3.112265e-05 0.0003163042 0.0 0.00044416098
-0.0006589284 1.3781968e-07 -0.00069966516 0.00044381572 0.0 0.00036072114 -5.9012615e-05 7.834235e-09
-7.950915e-05 3.0402589e-05 0.0 -0.00020869903 0.00014201958 4.658954e-08 0.000106088955 6.5294545e-05
0.0 0.00015662017 -0.0006429464 1.0947516e-06 -0.00054926885 0.00026103616 0.0 0.00025181344
0.00014625509 -1.705761e-07 7.955884e-05 -6.677552e-05 0.0 -3.9782142e-05 0.00016905773 2.0873149e-07
0.0001901806 -0.00028990317 0.0 -0.000119784345 1.944715e-05 -3.0937322e-08 -3.0384297e-05 0.00012336642
0.0 0.0001487559 -0.0005355279 1.3770274e-07 -0.0009587731 0.00036684994 0.0 0.0005491328
-0.00035885337 7.8344556e-07 -0.0004842633 0.00031215415 0.0 0.00024305968 -0.00023118965 3.5766863e-07
-0.00032516496 0.00038916344 0.0 0.0004609308 -0.00013246652 8.391977e-07 -0.00015371093 -0.00024429066
0.0 -0.0002654521 0.000117245756 1.8570927e-06 0.0001704497 -0.0002933475 0.0 -0.00066845893
-5.2890384e-05 7.348689e-07 0.00014878108 -0.00045773224 0.0 -0.0005027226 -0.00062687206 5.012453e-07
-0.00068680133 0.00020556262 0.0 5.5240984e-05 -0.00012390525 2.7433143e-07 -0.00025870884 0.00021216337
0.0 0.00032173964 0.00014456952 4.6063545e-07 0.00010762662 7.049007e-05 0.0 0.00017576238
0.00035438285 -1.3852006e-06 0.0003146702 0.00024309014 0.0 0.0004735777 0.00031820853 5.87633e-07
0.00035757653 3.2066673e-06 0.0 0.00025366218 0.0004690553 -5.653757e-07 5.12691e-05 0.000268763
0.0 0.00032211165 0.00039523814 7.827427e-07 -0.0010728528 0.00095022516 0.0 0.0006613677
0.00030331535 5.6321045e-07 0.00036635925 -0.00036393123 0.0 -0.00018506091 -0.00023921454 -1.322839e-07
-0.00059702835 0.00045186555 0.0 0.0006222059 -1.8788462e-05 1.1780421e-06 0.00012996959 4.5004686e-05
0.0 7.548711e-05 -0.0004723485 1.6563142e-06 -0.0002675544 -0.0007538541 0.0 -0.00083979714
-0.00019801341 4.798068e-07 -0.00030101865 2.875895e-07 0.0 7.846931e-06 1.1327225e-05 6.301411e-07
5.8641923e-05 -0.0005126095 0.0 -0.00052063493 0.00064380467 -3.924319e-07 -0.0003950744 0.0008247308
0.0 0.00064354186 -0.0007179727 1.7807082e-06 -0.00084254507 0.00043708197 0.0 0.00067802967
0.00015557616 -2.2028351e-07 0.0002330275 -0.00020431673 0.0 -8.05846e-05 0.00022768043 1.0802353e-06
0.00051954435 7.681631e-05 0.0 0.00020895422 -0.00036769203 1.7172108e-06 -0.0001382692 0.00018823051
0.0 -0.00051929336 -0.0007186116 9.4211174e-07 -0.000874376 0.0001412575 0.0 0.00014794685
-0.00069235556 6.387701e-07 -0.00096079626 0.00016931725 0.0 0.0003327319 -0.00045597216 1.6408723e-06
-0.00028107496 -0.0006535843 0.0 -0.0006506498 0.00020911539 1.1851556e-06 0.00037641297 6.748853e-05
0.0 -3.876919e-05 -4.8640373e-05 1.5874803e-06 0.00021748524 -0.00043586476 0.0 -0.00086879445
-0.00049713574 1.1112298e-06 -0.00043587523 0.0002966376 0.0 0.00043369614 0.0003055582 -3.2072194e-07
0.0003129663 1.6392529e-05 0.0 0.00024910772 -0.00069858256 1.3631831e-06 -0.00036635695 -0.00052281504

exp_avg_sq f4 [128, 6]
00000000: dcd0 f435 af5d 2b2d a993 0e36 2a11 1636
00000010: 0000 0000 d062 4f36 f5fc ca33 e5e2 322b
00000020: 72bb bf33 11b9 1834 0000 0000 bd4b 2734
00000030: 4f27 e433 323f 132b 5aa3 d733 03eb ea33
00000040: 0000 0000 25da ea33 b10c a835 34fc cd2c
00000050: 8dc5 8b35 23d4 db35 0000 0000 54ba c835
00000060: dc60 0336 d66d 042d c81d e835 db1e 1a36
00000070: 0000 0000 b4d4 1436 e827 cd34 785c ae2b
00000080: 4832 b534 e3ab d734 0000 0000 65fc c534
00000090: cfb8 8634 fd96 8a2b 43e2 9f34 7cd3 8834
000000a0: 0000 0000 5ca3 ab34 fc8c 8e35 89b8 7d2c
000000b0: 85d8 4735 db1d 9a35 0000 0000 0de8 7235
000000c0: c9f0 5634 16b1 662b 7796 3b34 d21f 8834
000000d0: 0000 0000 6865 6734 8bde 5935 8085 872c
000000e0: 6906 4c35 11c2 9235 0000 0000 4a8b 8b35
000000f0: 118f b032 aceb 262a b970 e432 252d f332
00000100: 0000 0000 73a1 2433 e5fc d535 fd63 ee2c
00000110: df17 e935 62a1 fa35 0000 0000 2550 1036
00000120: bf2d 5a35 1157 4f2c 93a2 5335 e645 7435
00000130: 0000 0000 a21f 7535 c77a 7d35 1f55 672c
00000140: b420 5a35 f383 8f35 0000 0000 aa75 8a35
00000150: e23e 5f33 7d2e 022b 1282 4d33 7646 bd33
00000160: 0000 0000 7a59 9d33 c12b 2135 3ac9 c22c
00000170: 167a 5535 75bf 7635 0000 0000 f401 a635
00000180: 7929 2d35 10b4 732c 2b0c 1535 14a4 6a35
00000190: 0000 0000 3ee2 6535 1957 c335 d7b6 bd2c
000001a0: bb90 cb35 5656 dc35 0000 0000 de16 ef35
000001b0: e8df 7834 62c2 aa2b 5d62 8334 fad9 b534
000001c0: 0000 0000 cfd4 cb34 9b27 2c34 f214 412b
000001d0: c4b3 5c34 ba49 2c34 0000 0000 83c6 6d34
000001e0: aedf 8435 97c8 932c 984b 7835 50f6 9b35
000001f0: 0000 0000 a765 9635 5111 a935 5697 b22c
00000200: a61a b435 dc8e b935 0000 0000 545c ca35
00000210: 7535 8d35 cf10 942c 25c2 5435 ec58 ac35
00000220: 0000 0000 d245 8f35 cd69 8436 e9b5 872d
00000230: 3db4 8236 6d80 9536 0000 0000 bb56 a436
00000240: c554 c535 5bb8 d92c b8ca 9f35 c9e3 f135
00000250: 0000 0000 2242 d235 6738 8c35 4c8b 932c
00000260: 1f3f 8b35 57de a535 0000 0000 7188 b635
00000270: 7e30 9a34 dc3c db2b 0f4e cc34 cf8d b234
00000280: 0000 0000 1a75 c634 8dd5 b534 ab15 3a2c
00000290: 94b7 a034 b0c3 1535 0000 0000 4e8a 2135
000002a0: 0ef2 2134 87bc 1c2b 674f 1c34 ee48 2b34
000002b0: 0000 0000 cac6 2034 acfa 0235 73d7 3d2c
000002c0: 2f47 0035 4e1f 4035 0000 0000 056d 5235
000002d0: f0a2 4636 5fb3 452d f7bc 1836 6303 7036
000002e0: 0000 0000 8157 4836 eade 4d36 358d 3b2d
000002f0: caab 3c36 fce7 6336 0000 0000 8f7f 6836
00000300: 3c57 eb34 a919 002c 1441 ed34 02e4 1235
00000310: 0000 0000 afb3 0e35 375a 8e35 5292 8d2c
00000320: 143f ae35 9ada 8935 0000 0000 ddcd b135
00000330: dea3 5436 551f 662d c6f5 4d36 6f51 6a36
00000340: 0000 0000 3cb9 7b36 a83e b535 7441 c72c
00000350: 28b4 cc35 f995 d035 0000 0000 744f fc35
00000360: abf8 dd35 769c db2c 2247 e035 3b4c fb35
00000370: 0000 0000 d2c5 0936 109b 4c34 09e1 032c
00000380: 5f39 4e34 030b cd34 0000 0000 7aff bf34
00000390: a559 a535 3a90 992c 7969 c035 b656 9a35
000003a0: 0000 0000 eced b835 ffdd 9e35 7a65 fb2c
000003b0: d34e a735 9c86 db35 0000 0000 b1f1 0236
000003c0: b63c 2336 59d6 142d 7dc4 1b36 086b 2d36
000003d0: 0000 0000 ca73 3936 d1b4 2b35 4b0f 4f2c
000003e0: bbd1 1c35 b22f 5935 0000 0000 993e 4835
000003f0: 378a 5935 3646 822c 8d9c 2b35 d23a 8035
1.8240203e-06 9.7410266e-12 2.1245598e-06 2.2361733e-06 0.0 3.090292e-06 9.4523706e-08 6.3553183e-13
8.928227e-08 1.422343e-07 0.0 1.558064e-07 1.06242275e-07 5.231259e-13 1.0041431e-07 1.09392225e-07
0.0 1.09361544e-07 1.2520669e-06 5.8544506e-12 1.0413802e-06 1.6378511e-06 0.0 1.495539e-06
1.95769e-06 7.52772e-12 1.7294014e-06 2.2965748e-06 0.0 2.2177528e-06 3.821326e-07 1.2389109e-12
3.3750462e-07 4.0171935e-07 0.0 3.687775e-07 2.509391e-07 9.847397e-13 2.9780685e-07 2.548585e-07
0.0 3.1970092e-07 1.0620856e-06 3.60559e-12 7.4448354e-07 1.1482583e-06 0.0 9.0489704e-07
2.00179e-07 8.195817e-13 1.7470471e-07 2.5355126e-07 0.0 2.1550443e-07 8.116264e-07 3.8517523e-12
7.600525e-07 1.0934328e-06 0.0 1.0396845e-06 2.0554156e-08 1.4825527e-13 2.6593954e-08 2.8309453e-08
0.0 3.8331063e-08 1.5943339e-06 6.7754678e-12 1.73668e-06 1.867342e-06 0.0 2.1504322e-06
8.12779e-07 2.94648e-12 7.88402e-07 9.09988e-07 0.0 9.1315644e-07 9.442851e-07 3.2874326e-12
8.125892e-07 1.0692733e-06 0.0 1.0316046e-06 5.1978425e-08 4.6249793e-13 4.784858e-08 8.813815e-08
0.0 7.327158e-08 6.0040844e-07 5.5361523e-12 7.952634e-07 9.192075e-07 0.0 1.2368532e-06
6.450787e-07 3.4632332e-12 5.552453e-07 8.741056e-07 0.0 8.5638374e-07 1.4553981e-06 5.3920024e-12
1.5166801e-06 1.6416404e-06 0.0 1.7813543e-06 2.3178256e-07 1.2133179e-12 2.447222e-07 3.3872476e-07
0.0 3.7966535e-07 1.6033157e-07 6.859644e-13 2.0554495e-07 1.604557e-07 0.0 2.2144563e-07
9.899866e-07 4.2002612e-12 9.24972e-07 1.1620086e-06 0.0 1.1205456e-06 1.2596521e-06 5.075866e-12
1.3418801e-06 1.3825152e-06 0.0 1.5077044e-06 1.0520877e-06 4.208279e-12 7.925867e-07 1.2840878e-06
0.0 1.0674651e-06 3.9462234e-06 1.5428507e-11 3.8952844e-06 4.4554968e-06 0.0 4.8976776e-06
1.4702315e-06 6.1879785e-12 1.1905422e-06 1.8022193e-06 0.0 1.5665466e-06 1.0447228e-06 4.1934563e-12
1.0374678e-06 1.2358167e-06 0.0 1.3599766e-06 2.8720018e-07 1.5577778e-12 3.8054756e-07 3.3258263e-07
0.0 3.6965577e-07 3.3869256e-07 2.6444218e-12 2.9935893e-07 5.579159e-07 0.0 6.0178434e-07
1.5082352e-07 5.568397e-13 1.4557519e-07 1.5952148e-07 0.0 1.497348e-07 4.879355e-07 2.6978114e-12
4.77873e-07 7.157113e-07 0.0 7.838974e-07 2.9599141e-06 1.1237982e-11 2.2759757e-06 3.5764758e-06
0.0 2.9853256e-06 3.0677134e-06 1.0661074e-11 2.8114177e-06 3.3960669e-06 0.0 3.4644943e-06
4.3835632e-07 1.8204138e-12 4.419204e-07 5.4721033e-07 0.0 5.3160596e-07 1.060608e-06 4.023706e-12
1.2982368e-06 1.0270917e-06 0.0 1.3247442e-06 3.1685845e-06 1.30809434e-11 3.069044e-06 3.4916118e-06
0.0 3.7509735e-06 1.3503786e-06 5.663187e-12 1.5251617e-06 1.5540855e-06 0.0 1.8798587e-06
1.6538155e-06 6.241725e-12 1.6710003e-06 1.8723143e-06 0.0 2.0529737e-06 1.9055392e-07 1.874114e-12
1.9206117e-07 3.8192238e-07 0.0 3.5762406e-07 1.2319548e-06 4.364534e-12 1.4335811e-06 1.149913e-06
0.0 1.3778313e-06 1.1836527e-06 7.1451152e-12 1.246541e-06 1.6355948e-06 0.0 1.9512192e-06
2.4324231e-06 8.460421e-12 2.321117e-06 2.584131e-06 0.0 2.7634546e-06 6.3965587e-07 2.9424959e-12
5.8419727e-07 8.0908205e-07 0.0 7.45969e-07 8.103993e-07 3.702617e-12 6.3930275e-07 9.553862e-07

exp_avg f4 [128]
00000000: f6f8 02ba d1f9 d1b8 01b2 9c38 a18e 3d39
00000010: a683 10b8 985f 03b6 fa6d 43b7 5f7e 8fb9
00000020: b9dc 3238 b7e0 5ab8 66c4 0137 f367 10b8
00000030: 1961 4db9 f186 bbb8 51fe 5bb9 7c6a f3b9
00000040: 59a4 40b9 3766 03b9 64d4 8fb8 9d82 f1b8
00000050: 3e90 b539 ba0c 1ab9 7135 1439 9533 4db9
00000060: e9a4 13b9 0fb3 0a38 1269 9ab9 3919 d9b9
00000070: df8f fbb8 6630 25b9 2bbd cd38 ee67 e9b9
00000080: cefc 6638 6497 8db9 6014 e1b9 aef8 76b9
00000090: 1774 27b9 5613 d7b9 d557 9bb9 3813 d0b9
000000a0: 79a7 91b9 8226 a838 26ad b2b9 b833 2439
000000b0: 6270 88b9 65ab bcb8 2fd0 8db9 402d 90b4
000000c0: daa6 99b8 43b4 9eb9 6273 6939 50e2 dbb5
000000d0: e353 78b9 ab4c 1db9 5189 3bb9 ef2f 68b9
000000e0: 61b9 c438 e7c2 acb9 519b cbb9 d771 96b9
000000f0: 41cc 81b8 da9c 7db9 75fd eb37 b667 8d39
00000100: 7ad3 93b8 de7a 81b9 a4fa 5337 a1cd 6739
00000110: 061f 01b9 ae4f 19b9 6da1 7fb9 3e68 8ab9
00000120: 3b07 36b9 969e 5439 0430 a3b9 c64e b5b9
00000130: 9541 19b9 8316 33b9 1ef0 42b9 3c73 02b8
00000140: 425f 63b9 77c9 55b9 0c67 40ba d490 6cb9
00000150: db07 5838 b8db e4b8 1474 57b8 5e2a 27b9
00000160: 1c63 b9b9 c8e4 40b8 59bf 90b7 0ed2 c937
00000170: 772c 5cb9 65c4 a838 86f3 97b9 0628 b7b9
00000180: aa0b 02b8 7069 b9b9 783c e2b8 6837 84b7
00000190: ebb0 01b7 fead 54b9 31f4 88b8 a703 dcb9
000001a0: ac62 32b9 e9da 48b9 6772 b8b9 96a3 5fb9
000001b0: e0a9 c4b6 4a4d d438 434d 45b8 6faf 8738
000001c0: 28cb e3b7 9cb9 ffb9 a4b3 9cb8 972f 5238
000001d0: e4e3 cbb8 1ef6 2cb7 4b8c 8bb8 e631 0fb9
000001e0: ed19 3eb9 590a 25b9 9134 80b9 8d2e 39b6
000001f0: d22f e9b7 0b51 0eba a7ed 8db9 c2e2 1eba
-0.00049962045 -0.000100124285 7.4718155e-05 0.00018077578 -3.4454883e-05 -1.9576164e-06 -1.1648512e-05 -0.0002736924
4.264407e-05 -5.2184532e-05 7.734727e-06 -3.4429086e-05 -0.00019586495 -8.94199e-05 -0.00020980208 -0.0004642791
-0.00018371771 -0.00012531212 -6.858332e-05 -0.00011516104 0.0003463048 -0.00014691325 0.00014134288 -0.0001956954
-0.00014080446 3.3068525e-05 -0.00029451452 -0.00041408258 -0.00011995411 -0.00015753656 9.810397e-05 -0.00044518657
5.5071716e-05 -0.0002700641 -0.00042930525 -0.00023553029 -0.00015969608 -0.00041022402 -0.00029629344 -0.0003968717
-0.00027781332 8.018037e-05 -0.0003407981 0.00015659526 -0.00026023673 -8.996463e-05 -0.00027048725 -2.6855014e-07
-7.326687e-05 -0.00030270414 0.00022263595 -1.6382637e-06 -0.00023682373 -0.00015001248 -0.00017884864 -0.00022143101
9.380538e-05 -0.0003295161 -0.00038834897 -0.00028695047 -6.1892446e-05 -0.00024186392 2.8132208e-05 0.00026970886
-7.048897e-05 -0.0002469634 1.2634937e-05 0.0002210648 -0.00012313956 -0.000146209 -0.00024378831 -0.00026399078
-0.00017359566 0.00020276973 -0.00031125557 -0.000345817 -0.00014615648 -0.00017079157 -0.00018590732 -3.1101736e-05
-0.00021683893 -0.00020388314 -0.0007339574 -0.00022560667 5.150573e-05 -0.00010912813 -5.13681e-05 -0.00015942144
-0.00035359792 -4.5989436e-05 -1.725524e-05 2.4058882e-05 -0.000209974 8.0474456e-05 -0.00028982403 -0.000349343
-3.100528e-05 -0.00035364507 -0.00010787783 -1.5761427e-05 -7.730191e-06 -0.00020282713 -6.5304695e-05 -0.0004196439
-0.00017012161 -0.00019155037 -0.0003518045 -0.00021327878 -5.8610312e-06 0.00010123344 -4.7040416e-05 6.469979e-05
-2.715511e-05 -0.0004877568 -7.47212e-05 5.0112223e-05 -9.722242e-05 -1.03093025e-05 -6.654168e-05 -0.00013656131
-0.0001812947 -0.00015739481 -0.00024453228 -2.7594244e-06 -2.7798033e-05 -0.00054289465 -0.0002707068 -0.0006061011

exp_avg_sq f4 [128]
00000000: c36e 2335 c79f 2a33 5c6e 0c33 1173 c434
00000010: 1699 fc34 194c a633 a630 8433 92fa 7134
00000020: ee03 5c33 7b3f 8134 8435 1f32 f15b e334
00000030: 1fbe 4534 95a1 5c34 8a55 f832 46c5 b934
00000040: d66b 6834 86ef b434 cdde a233 7f27 3833
00000050: 14f1 8c34 7352 aa34 f035 8d34 bd6d 8135
00000060: 08a4 cf34 9cb6 8c34 5a17 d133 3778 3134
00000070: 5e7a 1533 a90d 3534 0d8c 3c35 29df 3235
00000080: 2d58 f433 e804 8734 2378 5b35 5008 be34
00000090: 3c72 d134 9d8d fb33 1174 9234 31c2 ef34
000000a0: 72f2 0d35 5d7a 4534 267c 7834 52c2 5834
000000b0: 2f9f 0535 979f 0a34 bc8b a834 7890 0b34
000000c0: df68 8334 8739 da34 bfbd 9934 fc93 4734
000000d0: 5b77 7934 d27e f532 2754 4034 91e2 6c34
000000e0: c9bd 3e34 ff8d 2735 35a9 4834 64b0 a934
000000f0: 0ad1 1f33 baec b634 6467 3534 2b54 da34
00000100: 0529 7434 0606 a934 6bcf 8f33 d466 b234
00000110: cc2e 0534 0173 5234 f10b f934 0f52 4b35
00000120: 91a5 e733 5922 2e34 7971 5c34 51c2 b533
00000130: c846 4834 6a8d ee33 7c34 6f34 279a a434
00000140: 5054 ba34 72dc 3434 35a6 2935 c001 7c34
00000150: ca07 9533 2f50 8634 c193 d334 8813 d433
00000160: 11bb 5c35 aab0 ed33 d5bb 3434 f3eb 1334
00000170: 594a c734 0cf4 6c34 c48c 1835 d02c da34
00000180: c912 c333 f6c9 7c34 b134 b333 d4d5 a034
00000190: 8aa6 0c34 c277 8e33 1209 3234 2a46 cb34
000001a0: 5214 8633 41e5 3c34 c22e 7535 f2ad 1434
000001b0: 11ae 9434 5398 0033 86ff 6932 a08a 7235
000001c0: abd1 3433 ef4d de34 c5a2 9b33 c25d 6033
000001d0: 935d 0334 4e2d 3e34 b3a7 0134 4eac 8033
000001e0: 0ee7 3e34 b991 9733 6b74 0234 ee36 b833
000001f0: 7b6c d933 3ca5 8035 6e4b 7934 e77b 7635
6.088341e-07 3.9726526e-08 3.269666e-08 3.6591567e-07 4.7050042e-07 7.7438195e-08 6.155578e-08 2.2536031e-07
5.1226316e-08 2.407431e-07 9.267186e-09 4.234894e-07 1.841622e-07 2.054788e-07 2.8909898e-08 3.460247e-07
2.1645914e-07 3.370189e-07 7.58424e-08 4.287676e-08 2.625244e-07 3.1724957e-07 2.630254e-07 9.643187e-07
3.8676103e-07 2.6209898e-07 9.7365685e-08 1.6528143e-07 3.4803058e-08 1.6861908e-07 7.023926e-07 6.663491e-07
1.13781745e-07 2.514928e-07 8.175868e-07 3.5396306e-07 3.90124e-07 1.17138576e-07 2.727907e-07 4.4658512e-07
5.28794e-07 1.839157e-07 2.3141965e-07 2.0187261e-07 4.9778004e-07 1.291031e-07 3.139411e-07 1.2997941e-07
2.4476955e-07 4.064752e-07 2.863653e-07 1.8587156e-07 2.3233353e-07 2.8579425e-08 1.7912008e-07 2.2061637e-07
1.7764172e-07 6.241898e-07 1.8688009e-07 3.1607044e-07 3.7210192e-08 3.4072383e-07 1.6894552e-07 4.0666905e-07
2.2739194e-07 3.1483086e-07 6.6966855e-08 3.32299e-07 1.2403615e-07 1.9599612e-07 4.6388553e-07 7.5742804e-07
1.0786892e-07 1.6217508e-07 2.0530378e-07 8.463815e-08 1.8652202e-07 1.1108462e-07 2.2277703e-07 3.065954e-07
3.4706545e-07 1.6844004e-07 6.319927e-07 2.3469966e-07 6.93977e-08 2.5017786e-07 3.9409318e-07 9.875572e-08
8.2228604e-07 1.10683075e-07 1.6832139e-07 1.377628e-07 3.7120734e-07 2.2067996e-07 5.6829253e-07 4.063827e-07
9.083812e-08 2.3542802e-07 8.3449216e-08 2.9957903e-07 1.3099103e-07 6.634174e-08 1.6580842e-07 3.7862748e-07
6.2435575e-08 1.7592266e-07 9.1337654e-07 1.3846855e-07 2.7693798e-07 2.994086e-08 1.3620484e-08 9.035375e-07
4.2100208e-08 4.1407426e-07 7.2473576e-08 5.2239336e-08 1.2234368e-07 1.771161e-07 1.207507e-07 5.9918065e-08
1.7779186e-07 7.057992e-08 1.2149546e-07 8.578159e-08 1.01245824e-07 9.584833e-07 2.3217373e-07 9.1822443e-07
