results/ppo/MoveToGoal/MoveToGoal-499999.onnx (onnx, 75062 bytes, 7 tensors)

network_body._body_endoder.seq_layers.0.weight f4 [128, 6]
000000 d6 59 17 bf 87 23 04 bf 19 0c e5 be 0c 19 f3 3e
       -0.59121454 -0.5161671 -0.44735792 0.47480047
000010 4b b4 17 3f 99 25 43 bf 8b 9e c7 bd 29 bd 97 be
       0.5925948 -0.76229244 -0.097470365 -0.29636505
000020 f9 18 95 be 3e ce 11 3e b9 c9 86 bf db ff dc 3e
       -0.29120615 0.14238831 -1.0530311 0.43163952
000030 f5 50 59 3e ee 30 13 3f a3 77 9a 3e 29 06 05 bf
       0.21222289 0.57496536 0.301694 -0.51962525
000040 3f 79 56 3e 94 c3 e4 3d 34 83 3e bf 91 4f d7 3d
       0.20944689 0.11170116 -0.7441895 0.10513223
000050 70 5c 47 be d3 fd 53 3d d7 45 1e be da 60 28 be
       -0.19468856 0.051755738 -0.1545633 -0.16443196
000060 fb d1 be 3e 73 c7 af be 4e 55 ce 3e 50 b2 34 be
       0.37269577 -0.34331855 0.40299457 -0.17646146
000070 08 35 01 3f 24 cd 8d 3e d6 c7 3a bf 95 8b 97 bd
       0.50471544 0.27695572 -0.72961175 -0.0739967
000080 58 0b 45 3e da 8e d8 3e 5c 9e ec 3e 09 f4 bb be
       0.19242609 0.42296487 0.4621457 -0.36709622
000090 0f 56 15 bf 9d 3b b4 bd 82 5d c0 3b ad 41 1c be
       -0.5833444 -0.08800433 0.005870522 -0.15259428
0000a0 b2 bf b7 be 20 73 2a bf 99 39 8f 3e 0a d6 21 3e
       -0.3588844 -0.66581917 0.2797363 0.15804306
0000b0 a6 27 81 3f b2 3a a4 bc 4e 53 29 be 77 ab 8c 3c
       1.0090225 -0.02004752 -0.16535684 0.017171605
0000c0 fe 81 73 3e 4d 1b 17 3f c8 8b e7 be 02 8f ab 3e
       0.23780057 0.5902603 -0.45223832 0.33507544
0000d0 a2 2a 6f bf 8e 88 f1 be ad 4d 46 be 96 81 30 bd
       -0.9342443 -0.47174495 -0.19365568 -0.043092333
0000e0 56 be c3 3d 9f e0 71 3f eb eb eb be 9a 73 55 be
       0.09557788 0.9448337 -0.4607843 -0.2084488
0000f0 50 02 cc 3d 19 0b 5b 3e 63 10 4f 3f 8e 38 bc bc
       0.099613786 0.21390952 0.8088438 -0.022976186
000100 be 34 04 3d cc 0b e6 be 80 c2 57 bf 38 03 f8 be
       0.03227686 -0.44930875 -0.8428116 -0.48439956
000110 7b 65 46 bf dd 31 6b 3d df 0f da 3d 51 bf 12 3f
       -0.77498597 0.0574206 0.106475584 0.57323176
000120 11 1c c7 be 73 12 93 3e c1 0e ca 3e 22 01 42 3f
       -0.388886 0.28725013 0.3946438 0.7578298
000130 d2 6e 90 bd 0c 14 25 be 0f 41 c4 be 27 d1 bf be
       -0.07052387 -0.16120929 -0.38330886 -0.37464258
000140 0d 8e dc bc 96 42 bc 3e 53 0b 52 3d a7 1f 9b bd
       -0.026923204 0.3676955 0.05128033 -0.075743966
000150 c5 85 30 be 33 a3 9e be ce 79 3f bf b2 9d 0e 3f
       -0.17238529 -0.30983886 -0.74795234 0.55709374
000160 cd bf 81 bc 6d b4 44 bd 9a 33 16 3f 08 37 c7 3e
       -0.015838528 -0.04802363 0.5867249 0.38909173
000170 2d ec 45 3e 3b 64 d1 be d4 2a 04 bf f1 fe ec 3d
       0.19328375 -0.40896782 -0.5162785 0.11572064
000180 1a 07 41 bc c8 8a b7 bd 57 31 7c 3f 0f cc 0b 3f
       -0.011781478 -0.08962017 0.98512787 0.54608244
000190 cd bd 40 3d fa ad b8 be 44 22 9a be 77 bb c7 3e
       0.047056008 -0.36070234 -0.30104268 0.39010212
0001a0 f9 65 88 be 75 af e7 3e 88 49 2d bf af d4 03 3e
       -0.266403 0.4525105 -0.67690325 0.12874101
0001b0 86 70 a2 3c 45 b6 d4 3e c8 88 2f 3f ba 7d 32 be
       0.019829046 0.4154531 0.68568087 -0.17430773
0001c0 5f e8 a8 bd 67 33 d7 3e 70 4b 1e 3f 6c 50 65 bf
       -0.08247446 0.42031404 0.6183386 -0.8957584
0001d0 7a 39 75 3e c3 76 08 3c 57 aa 05 3f 53 32 99 be
       0.23947707 0.008329096 0.5221304 -0.29921207
0001e0 bb 89 15 bf 80 cb 43 3d 94 83 bd 3e 04 66 bc 3d
       -0.58413285 0.047801495 0.3701445 0.091991454
0001f0 49 d3 27 3e 1b d8 9d be 15 76 8b be 84 1f b3 be
       0.16389193 -0.30828938 -0.27238527 -0.34984982
000200 88 78 fe be 80 2b 90 bd 64 ee c7 3e d6 76 eb 3e
       -0.49701333 -0.07039547 0.39049065 0.45989102
000210 cc 14 b7 3e b8 ad e4 3c 81 28 a1 bd 98 6e bc be
       0.35758054 0.027914867 -0.07869054 -0.36803126
000220 9a fa d7 bd 3b 6f e3 bc 96 da 9b 3e 44 4d 7e bd
       -0.10545845 -0.027763 0.30440205 -0.062085405
000230 ed c6 46 be 7e e7 b8 3d 20 51 a4 3d b8 70 72 be
       -0.19411822 0.09028529 0.08023286 -0.23675811
000240 5e 47 29 3f 8c 9e a0 3d 0a d5 ba 3d 04 a1 d4 3e
       0.6612452 0.078427404 0.09122665 0.41529095
000250 ec ea 3c be 8e 6e fc 3e 44 d2 32 be d5 9c 4e be
       -0.1844899 0.49303097 -0.17463022 -0.20177014
000260 9d ad 24 bf 17 1c 74 3e 6a 05 1f 3d a5 a3 b2 bd
       -0.6432741 0.2383884 0.038823523 -0.08722619
000270 bb 73 c7 3e 1e 62 0e be a3 7b ff be 0e e5 23 3d
       0.38955483 -0.13904616 -0.49899015 0.040013365
000280 4b d3 68 3e 1a f8 9b 3d 6f b3 d4 3e 64 27 04 3f
       0.22736852 0.07615681 0.41543147 0.51622605
000290 b3 cd f6 3d 68 e6 6b be 92 25 bc be 12 93 de 3c
       0.12050953 -0.23037112 -0.36747414 0.027169738
0002a0 05 73 13 bf 8f 12 83 be e0 b1 24 3e 86 c1 57 be
       -0.5759738 -0.25600097 0.16083479 -0.21069917
0002b0 b2 d2 fb 3c b4 d2 ee bd 64 b3 03 3f 80 f1 9c 3e
       0.030740116 -0.11661282 0.51445603 0.30653
0002c0 32 e0 7a 3e 6c a3 df 3d a6 f8 6c 3e 1f 42 e1 3e
       0.24499586 0.10919842 0.23141727 0.4399576
0002d0 55 dc 20 bf 5f 12 fc be ca 14 27 3e 26 f3 34 be
       -0.628362 -0.49232766 0.16316524 -0.17670879
0002e0 70 6c 4a 3e 70 a8 74 3e 9f 58 bc 3d 3e 6f aa 3d
       0.19767928 0.23892379 0.09196591 0.08321999
0002f0 50 ef 4f 3b 73 bf 05 3e 57 bf 88 3d 86 1d 83 bd
       0.0031728335 0.13061313 0.0667712 -0.064021155
000300 d4 6f 3c 3f ab e2 06 3e f4 8f 24 bf 14 d3 02 3f
       0.73608136 0.13172404 -0.64282155 0.5110333
000310 65 95 89 3d 0f 86 d3 be 65 f9 a5 3e d3 7f c3 3e
       0.06717948 -0.41313216 0.32416835 0.3818346
000320 4d 32 cf 3d a8 c7 2c be db f1 0e bf 15 e9 23 bf
       0.10117016 -0.16873038 -0.5583779 -0.6402753
000330 fe c9 07 3d fa a3 12 bf 82 68 13 3c 5a 81 1c be
       0.03315162 -0.5728146 0.008997085 -0.15283719
000340 83 d9 0e be c5 87 98 bd 37 bc 86 3d 69 b5 b6 3d
       -0.13950162 -0.07447771 0.06578868 0.0892132
000350 ce e4 36 3f 55 46 2b be d0 d2 9d 3e dd 8b a3 3e
       0.7144288 -0.16726048 0.308249 0.31942645
000360 93 06 b3 3d a2 6e 5f bf eb b6 bb 3e b0 5c d0 3e
       0.08741488 -0.8727819 0.36662993 0.40695715
000370 b8 37 01 3f 28 f4 6e 3e 87 8d c7 3e 98 79 c8 3e
       0.50475645 0.23335326 0.38975164 0.3915527
000380 c6 22 71 3f 77 e4 c7 3e 78 0d 9b be 90 e3 08 bf
       0.94193685 0.39041492 -0.30283713 -0.5347223
000390 f6 ba f4 be 0a 01 72 3e 32 f1 39 bf 97 f0 8b be
       -0.4779889 0.23633209 -0.7263366 -0.27331993
0003a0 7b d8 8c bf d2 42 81 bc 0c d3 37 be 26 0c bd bc
       -1.1003565 -0.015778933 -0.17951602 -0.023077082
0003b0 9e a2 9d 3d 3d 37 30 3e af c0 12 3e 87 56 5c bd
       0.076970324 0.17208572 0.14331315 -0.053793456
0003c0 8e 9a 60 bf d1 ce 0b 3f 16 8f 86 3e f4 5b 78 bf
       -0.8773583 0.5461245 0.2628104 -0.9701531
0003d0 a1 fc 38 bf 27 f7 ea 3d 3e 9c 9b be 12 b5 0d be
       -0.7226048 0.11472922 -0.3039264 -0.13838604
0003e0 5b 0f ad 3d f8 30 1a be 9e c5 bd bd d1 7a 82 3e
       0.084501944 -0.15057743 -0.09266208 0.25484326
0003f0 41 64 e1 3d 4b 15 3c 3e cc 3f 4e bf 50 41 9c bc
       0.1100545 0.18367498 -0.80566096 -0.019074112

network_body._body_endoder.seq_layers.0.bias f4 [128]
000000 fe b8 5a 3c 6e c5 db bc b1 4f f3 3b 82 ec 18 3c
       0.01334977 -0.02682754 0.0074252714 0.009333732
000010 33 71 39 bc 81 b4 81 bb 6f c4 cb 3b 26 16 18 bb
       -0.011318493 -0.0039582853 0.006218485 -0.002320656
000020 e1 1b 15 3c 25 51 5c 3c 48 01 ff bc d8 66 d4 3a
       0.009100885 0.013447081 -0.03112854 0.0016204966
000030 5b 4e 88 3c fd 22 ed 3c d4 9f 57 bc 5c f6 28 3c
       0.016638925 0.028947348 -0.013160665 0.010312643
000040 af af 16 3d 13 1f c7 bc d0 e9 09 3b 24 4e aa 3c
       0.03678864 -0.02430681 0.0021043904 0.020789213
000050 60 cd 73 ba b5 b9 c7 3a 95 cd 8a 3c c4 94 6a bc
       -0.00093003176 0.001523784 0.016943732 -0.014317695
000060 9d 5a f4 bc 3e 84 a6 3c 22 bc 3f bb b6 e4 3b 3c
       -0.029828364 0.02032673 -0.0029256423 0.011468103
000070 9b 00 54 bc ef 21 8a bc 14 0f 10 bc c5 d2 9d 3c
       -0.0129395975 -0.016861884 -0.008792657 0.019265542
000080 9e 01 08 3d 9a 87 71 ba 57 38 12 bc 3b aa 43 bc
       0.033204667 -0.00092136266 -0.008924565 -0.011942442
000090 5c d4 14 3d 3a b7 5a bc 13 17 ba 3c d4 8e aa 3b
       0.036335334 -0.013349349 0.02271608 0.0052050147
0000a0 83 51 e5 bb 7a 3d f4 ba 8c fd 16 bc fd b4 0f 3c
       -0.0069982423 -0.0018634044 -0.009215724 0.008771178
0000b0 9d 6c 87 3b 28 85 52 bc c8 27 dc ba 0f 21 be 3c
       0.0041328208 -0.01284913 -0.0016796524 0.023209123
0000c0 f2 d8 9a bb 0d 83 a1 3b b4 5b 3b bb 82 83 4d b9
       -0.004725569 0.0049289525 -0.0028588595 -0.00019599314
0000d0 a2 2d ae bc eb 57 80 3b 4e a2 af 3b da 48 e8 3c
       -0.021261994 0.0039167306 0.0053599244 0.02835505
0000e0 dd 08 49 3c 71 26 22 3c f5 c5 b7 3b 6b e2 fc 3c
       0.01227018 0.00989686 0.005608315 0.030869683
0000f0 05 88 16 3c 7b d6 3b 3c 2c c7 49 bb 1d 29 12 bd
       0.009187703 0.01146471 -0.0030788882 -0.03568374
000100 58 9f 60 bc f3 43 42 3c 00 9a f4 3b 8f b6 cd bb
       -0.0137098655 0.011857021 0.0074646473 -0.006277866
000110 2f 04 56 3c 3f d1 3d bc de 1a 61 3c a1 d5 08 3c
       0.013062521 -0.011585533 0.013739316 0.008351714
000120 5d c9 50 3c ef eb 4e 3c e0 26 38 bc 92 88 45 3c
       0.012743321 0.012629493 -0.011239737 0.012056487
000130 46 b8 80 b8 44 09 07 bc 43 79 97 3c ff bf 9e 3c
       -6.137839e-05 -0.008241955 0.01849044 0.01937866
000140 e7 09 c8 3c ad e3 36 3d 9f 76 4b bc 44 40 ff b9
       0.024418784 0.044650722 -0.012418418 -0.00048685272
000150 5a f5 32 3b 19 2c 27 bc b8 c4 1a bc e1 21 57 3a
       0.0027306885 -0.010203385 -0.0094463155 0.00082066475
000160 92 70 3f 3b 81 6e 38 bb aa 10 e9 bb 1e 0b 18 bb
       0.0029211384 -0.0028142037 -0.007112582 -0.0023199986
000170 1e 70 85 bc 21 11 94 3b 7b 14 1d bc b2 95 e8 bb
       -0.016288813 0.0045186435 -0.009587402 -0.007097923
000180 ba 50 96 bc 66 1e ee 39 77 22 0c 3d 47 b1 83 bb
       -0.01834904 0.00045417546 0.034212556 -0.004018936
000190 3b 0a 48 bc 75 48 14 bc d8 f7 93 bc a9 f8 a8 bb
       -0.01220947 -0.009050478 -0.018062517 -0.0051565957
0001a0 2a 68 90 3c ea b5 29 3d 69 38 92 3c d2 2f 7b bb
       0.017627794 0.041433252 0.017849164 -0.0038328064
0001b0 ed 2b cd 3c 11 a8 69 3b fb 31 00 3d 11 77 8a bc
       0.02504536 0.0035653154 0.031297665 -0.016902478
0001c0 de 2d 2f 3b 2a 7f 33 3c c6 6a 80 3c b1 9e c1 3b
       0.002673022 0.010955611 0.015675914 0.00590881
0001d0 86 93 8b 3b a7 b6 c5 bc a4 cc 1d bb 7f 5d 0c bb
       0.0042595295 -0.024134947 -0.0024078274 -0.0021418033
0001e0 c3 60 39 3c 79 28 f1 bb a8 29 67 3c 83 d6 00 bd
       0.011314574 -0.007359561 0.014109053 -0.031454574
0001f0 d6 da 97 3c 40 ce 43 3c 52 bd 8c 3c 8a 23 ee 3b
       0.018536966 0.011951029 0.017180119 0.00726742

network_body._body_endoder.seq_layers.2.weight f4 [128, 128]
000000 d3 47 b5 bc 1c 5e 73 be 47 e6 9b bd 32 9a d7 bd
       -0.022128975 -0.23766369 -0.07612281 -0.10527457
000010 82 f4 ef bd ad 51 82 bc aa a1 35 3e da 9f c5 bd
       -0.11716558 -0.015908087 0.17737451 -0.0964963
000020 6a 1b 34 bd 4f 1d f7 3d e2 c0 9f bd ec c3 26 bd
       -0.043971457 0.12066137 -0.07800461 -0.04071419
000030 80 b1 51 3a 03 3b 83 3d cf 63 8e be 63 58 a9 3c
       0.0007999167 0.0640774 -0.27810523 0.020672029
000040 d6 00 e6 3c 42 21 0a be 3d 7a 37 3c 08 7c 52 be
       0.02807657 -0.1348925 0.0111985775 -0.20555127
000050 df 1f 8d 3d c3 bd 96 bd 59 5f 5b bd 09 ac aa 3c
       0.068908446 -0.07360413 -0.053557727 0.020833986
000060 29 52 dc bd 97 7a d5 39 68 87 d0 3d 7d 8e dc bd
       -0.10757858 0.00040717862 0.10182077 -0.10769365
000070 6d 5e 16 3c e3 8a b0 bd 26 fc 7c bd 1a db 85 3d
       0.009177786 -0.086202405 -0.061763905 0.06535931
000080 c2 7a 9f 3d af c1 3f bc 14 d0 93 bd e5 1a 4f b9
       0.07787086 -0.011703893 -0.07217422 -0.00019751077
000090 67 4b 74 3d 54 a9 42 3d 5a 91 36 3d f4 fd bb 3d
       0.05964222 0.047524765 0.04457221 0.09179297
0000a0 2d 42 1f bd cd f0 b3 bd 7c d1 9c bd 6b 38 dd 3d
       -0.03888147 -0.087861635 -0.076571435 0.108017765
0000b0 85 d1 61 3d 7b 1f 1e bd e5 c2 c7 3d 27 b8 60 bd
       0.055131454 -0.03860424 0.0975397 -0.05486312
0000c0 30 34 18 be fa 0c d8 3d d2 a4 1a 3d db 43 88 bd
       -0.14863658 0.1054935 0.03775484 -0.066535674
0000d0 e0 a0 05 be 58 ac 23 be 6e 1b 6a bd 8b 43 f7 3d
       -0.1304965 -0.15983713 -0.057155065 0.1207343
0000e0 87 fe 0f be 44 b4 98 3c 45 32 30 3d f4 5c 7f 3d
       -0.14061938 0.018640645 0.04301669 0.062344506
0000f0 1d af 4d bd ea 0c c7 3d bc 95 ab bc 37 62 dc bd
       -0.05021583 0.0971926 -0.020945422 -0.107609205
000100 8a 32 6b bd a3 ee 7a be 43 55 0e 3d 0b 5d cc bd
       -0.057421245 -0.24505095 0.03474928 -0.09978684
000110 73 a4 dd bc 0e 8c 27 be f4 81 42 bb 16 26 5c 3c
       -0.027055955 -0.1636202 -0.002967951 0.013436815
000120 70 99 a7 3d 6d 7a 89 bd 58 ef f1 3d a4 59 aa bd
       0.08183563 -0.06712804 0.11813229 -0.08317879
000130 84 b1 9e 3d bd a7 19 be 63 96 bb 3d 82 66 72 bd
       0.07748702 -0.15005393 0.09159543 -0.05917979
000140 24 70 f4 bb 26 5a 73 bd 8a 06 ab 3c 60 cd c1 bd
       -0.0074596573 -0.059412144 0.020877142 -0.09463
000150 8d 66 4b bd c3 d5 c9 bd 94 be 71 bd 1d b7 9c 3d
       -0.049658347 -0.09855225 -0.05901964 0.076521136
000160 51 ad b3 bc 9f 26 c9 3d 58 01 ed bc 91 8f 59 bd
       -0.02193323 0.098218195 -0.028931305 -0.05311543
000170 f1 1d 8e bc 9f 48 8b bd e3 e8 92 bc c5 08 18 3d
       -0.017348262 -0.06800961 -0.017933315 0.03711774
000180 e0 9b 89 3d a2 b4 cc bd d8 ff 1a bd 9b af 83 3d
       0.06719184 -0.099953905 -0.037841648 0.064299785
000190 65 75 4c bb b3 e2 b0 bd 55 3d f4 3c d5 21 50 be
       -0.0031197902 -0.086369894 0.029814402 -0.20325406
0001a0 f4 96 a3 3d c0 55 2a 3d 5a 22 a7 3c fc b3 86 bd
       0.079877764 0.041585684 0.020402122 -0.06577298
0001b0 b3 3b f9 bc a8 9b 86 bd d7 b6 0b 3e 38 d6 3d be
       -0.030423975 -0.06572658 0.13643967 -0.18538749
0001c0 bd 8a 86 3d a8 b4 08 3e 2e ad ae bd d7 d2 98 3d
       0.06569431 0.13350165 -0.08529125 0.074620895
0001d0 43 d0 53 3d 18 84 a4 bd cb 54 93 bd 37 8a 30 bc
       0.051712286 -0.080330074 -0.07193907 -0.0107751405
0001e0 cf 6e 77 3d c5 87 eb bd 5a 77 0f bd 16 d2 ee bc
       0.06040841 -0.11500505 -0.035025932 -0.029152911
0001f0 01 c3 3b 3d e6 cf 41 3d 01 50 8f 3d 31 4c ea bd
       0.045840267 0.047317408 0.069976814 -0.114403136
000200 82 8b cf 3d 33 c1 0b be be 77 21 bd ea 71 5a 3d
       0.10134031 -0.13647918 -0.039420836 0.053331293
000210 56 46 5c bd 54 44 aa 3d 7f dc 65 be cb a5 91 3d
       -0.053778015 0.08313814 -0.22447394 0.071117006
000220 85 63 42 bd 05 a6 1a bd 65 15 ab 3d 49 8a ca bc
       -0.04745819 -0.037755985 0.0835369 -0.024724143
000230 ed 4f 80 3d c8 05 de bd 7e 08 d0 bb c3 dd 69 3d
       0.06265245 -0.108409464 -0.0063486686 0.057096254
000240 d5 36 b1 3d 7c a6 c7 bd 64 28 f5 b9 36 7f 8c bd
       0.086530365 -0.09748551 -0.00046760135 -0.06860201
000250 c6 f8 37 bc cc 1c 25 3e c6 2d 45 be fe ed 8d 3d
       -0.011228746 0.16124266 -0.19255742 0.06930159
000260 da 56 9e bd 1a 9d 4a bd 43 df 96 bd 94 af 70 bd
       -0.07731409 -0.04946623 -0.073668025 -0.058761194
000270 d9 ff 23 bd 72 af 4a 3e f4 c7 13 be 0d 53 f0 3d
       -0.040038917 0.1979349 -0.14431745 0.11734591
000280 08 69 07 3d b5 45 f8 bd f6 1e cd 3d e8 ca 1e be
       0.03305915 -0.121226706 0.10015671 -0.1550709
000290 00 5a f1 3c 81 7e 61 be 67 73 0b be b6 ad e6 bd
       0.02946186 -0.22020914 -0.13618241 -0.112636015
0002a0 bf 4f d1 bd e3 a3 0d 3d 57 5a cf bd 97 a7 93 bc
       -0.102202885 0.034580123 -0.10124653 -0.018024249
0002b0 b8 72 68 3d c1 1c 99 3c f6 67 32 bd 50 21 c8 3d
       0.05675003 0.018690469 -0.043556176 0.09771979
0002c0 c3 46 98 3c 1f dc d7 3c 4e ac b5 3d b9 e6 61 bc
       0.01858843 0.02635008 0.08870755 -0.013787919
0002d0 6a 84 bc 3d f3 69 85 be 84 dd bc bd 96 86 a0 be
       0.092049435 -0.26057395 -0.09221938 -0.3135268
0002e0 57 8b 7f 3d 01 3a 6c 3c 82 13 98 bc e7 8f 1f bd
       0.062388744 0.014418126 -0.01856399 -0.038955595
0002f0 b7 b6 02 be 07 b7 36 bb 0e 5e a0 bd 61 e8 dc bd
       -0.12765013 -0.002788009 -0.078304395 -0.1078651
000300 62 66 e5 3d 6e 74 e7 3c 6f e9 d9 bc bb fb d9 bd
       0.112011686 0.02825376 -0.026600568 -0.10643717
000310 3b 6c 40 be 49 40 87 3d 86 88 47 be 74 a5 40 3b
       -0.18791287 0.06604058 -0.19485673 0.0029395493
000320 ab 42 bc bc 2c cf a5 3c 23 ec 59 bd 63 36 c5 bd
       -0.022981009 0.020240389 -0.053203713 -0.09629514
000330 4c b1 da bd 83 4e 00 be cf dc 65 bd 7a 0c 10 3e
       -0.10678348 -0.1252995 -0.056118783 0.1406726
000340 1e ea 25 3d e0 9b 31 3c ea 93 49 bc cd fd e8 3c
       0.040506475 0.010840386 -0.012303332 0.028441334
000350 72 00 53 bd 74 ec d1 3a 8a 76 1f 3c 5d d0 24 be
       -0.051514097 0.0016015903 0.009732852 -0.1609511
000360 d5 bc ee 3d 15 5c 02 be bd 34 1a 3e e1 25 08 bd
       0.116571106 -0.12730439 0.1505918 -0.03323925
000370 91 79 13 3b 69 95 1d 3e 48 73 b6 bd 23 06 b8 bd
       0.002250288 0.15389027 -0.08908707 -0.089855455
000380 be 4b 18 bd 32 af e9 bd 0c b2 0b 3c f6 65 d9 bd
       -0.03718161 -0.11410369 0.008526336 -0.10615151
000390 b6 02 93 ba 6e a9 37 3e c7 22 32 3d ea 33 96 3c
       -0.0011216018 0.17935726 0.043490198 0.018335301
0003a0 3c 34 60 3c 3d 01 0a bd 8c e6 98 bd 37 51 1d be
       0.013684329 -0.033692587 -0.07465848 -0.15363012
0003b0 5d 22 b0 bc 51 95 23 3e 9b 89 85 bd 2b 7e b1 3d
       -0.02150076 0.15974928 -0.06520387 0.08666643
0003c0 13 62 1f bc 7f ee 0d bc 4f bf fe 3d a1 c6 8a 3b
       -0.009727973 -0.008662819 0.12438833 0.004235104
0003d0 46 0b 19 bc e7 a6 89 3d 77 56 8a bc b7 af e2 bc
       -0.009341067 0.06721287 -0.016886933 -0.027671678
0003e0 a4 0a c0 3d 23 97 6f 3d 16 45 ac bd a9 d6 1b be
       0.093770295 0.058493745 -0.084116146 -0.15218605
0003f0 9e 06 e2 bc 39 bb fc bd 4c e6 50 3d 56 65 1d 3e
       -0.027591046 -0.123403974 0.05100088 0.15370688

network_body._body_endoder.seq_layers.2.bias f4 [128]
000000 64 83 64 3c d9 26 e7 3b ff 7c 2d 3c e1 71 8f bc
       0.013947342 0.0070541915 0.010588883 -0.017510356
000010 9c b7 6e bc 3b 8e 13 ba 82 09 51 3c fd 05 6f bc
       -0.014570143 -0.0005628799 0.0127586145 -0.01458883
000020 cd 1f 64 ba 05 f2 85 3b d6 94 2a bb 03 22 a7 3c
       -0.00087022485 0.004087689 -0.0026028655 0.02040196
000030 c3 07 0a b9 4c fe 90 3c c8 2a 96 3c 06 f7 b9 3c
       -0.00013163597 0.017699383 0.018330947 0.022700798
000040 ac 00 9f 3c 1b 89 2f 3b 26 58 4d 3a ce f5 33 3b
       0.0194095 0.0026784602 0.00078332645 0.0027459743
000050 79 85 99 bb 16 b0 6f bb 4d 6f f6 ba 45 72 a6 ba
       -0.0046851006 -0.0036573461 -0.0018801481 -0.001269885
000060 29 d6 39 3c 63 53 9e bb bf 37 5f 3b 26 be 0a 3c
       0.011342564 -0.004831718 0.0034060327 0.0084681865
000070 97 d8 b9 3b e1 6d 64 3c d8 6f ad 3b 0b 25 c4 bb
       0.0056715715 0.013942213 0.005292874 -0.005985861
000080 3f 33 ad ba 43 ae 70 bc 70 d1 60 3c 28 07 89 3b
       -0.0013214125 -0.014689985 0.013721809 0.0041817613
000090 7a a2 a4 bc 00 ae df 3b 66 e3 20 3c 7d 72 ed 3b
       -0.020097006 0.0068261623 0.009819841 0.007246314
0000a0 5d 59 3a 3c 24 d9 33 bb 46 66 57 bc c2 40 dd b9
       0.011373845 -0.0027442658 -0.0131469425 -0.00042200653
0000b0 34 53 2f 3b 36 ac 05 bb db 84 01 bc 10 f2 40 3b
       0.0026752474 -0.0020396835 -0.00790521 0.0029441155
0000c0 f0 36 84 3c c4 65 cf bb f7 e3 2d 3b 8d df ec 3b
       0.016139477 -0.00632927 0.0026533583 0.007228798
0000d0 00 0b ae bc ed 9d 6b bb e5 8c cc bb 85 09 55 bb
       -0.02124548 -0.0035952285 -0.006242382 -0.0032506895
0000e0 5a ac a5 bc 3e 68 5e bb 72 70 0a bc 86 28 f8 bb
       -0.020223785 -0.0033936645 -0.008449661 -0.00757319
0000f0 8f 55 9f 3a c9 db ab 3b 81 3b 8f 3c a9 fb 78 3c
       0.0012156236 0.0052447063 0.017484428 0.015196719
000100 dd 8b b5 3c a6 9c 32 3c 4c 7b fa 3c ef b3 cf b9
       0.022161419 0.010901606 0.03057637 -0.00039616178
000110 f7 81 d1 ba 5e 2e f0 ba eb ad 5a bc 31 ad 0c bc
       -0.0015984167 -0.0018324365 -0.013347129 -0.008586214
000120 ea a3 b1 3b 6c df 2b 3a 5d 5a 52 3c 3f 47 7d 3c
       0.0054211514 0.0006556425 0.012838927 0.015458881
000130 1d ec f1 3b 7e 40 27 bc c0 6b 04 3b a2 0d 6a 39
       0.007382883 -0.010208247 0.0020205826 0.00022321058
000140 2b 43 8a bc ad 5e 4a 3c 70 7f 24 ba 7b f1 09 3a
       -0.016877731 0.012351674 -0.0006275093 0.00052621186
000150 a1 1f 54 bb 09 a3 3b bb 69 dc 8e 3b 4b cf e0 3c
       -0.0032367485 -0.0028631112 0.004359771 0.027442595
000160 2b 7a 2e bc 68 76 69 3c 75 98 5c bc 77 15 81 bb
       -0.010649244 0.014249422 -0.013464083 -0.0039393264
000170 00 7f d8 bb 47 26 68 3b 74 e0 d6 3b 2f be 8f bb
       -0.0066069365 0.0035423206 0.0065575186 -0.0043866853
000180 77 44 a3 bc 90 67 73 3c 3d de 7f 3c b5 d9 aa 3a
       -0.019930108 0.014856234 0.015616951 0.0013034852
000190 29 64 9a 3c 47 10 b4 3c 7c 30 c6 3b 74 71 91 3b
       0.018846588 0.021980418 0.0060482603 0.0044385735
0001a0 aa 8b b3 3c 81 76 18 3c f3 b7 a0 3c 58 93 4b bb
       0.021917183 0.009305597 0.019618964 -0.0031063166
0001b0 8c cf 36 3c ff 54 93 bc 7f ca e5 3b 66 0c b4 ba
       0.0111578815 -0.017984865 0.007012665 -0.0013736605
0001c0 83 89 a8 bc a3 e2 4b 3c b1 43 13 3a 1c 67 be bb
       -0.020573383 0.012444171 0.0005617692 -0.0058106314
0001d0 1e 25 3b bb 1f f5 35 bc fe 23 30 bb 46 d3 5c 3b
       -0.002855606 -0.011105805 -0.0026876922 0.0033695265
0001e0 a2 39 e5 3c 36 aa f5 bb b7 20 94 bc 8c e9 0b bc
       0.027981583 -0.0074970974 -0.018082006 -0.008539569
0001f0 fa e6 06 3c d0 b4 da ba 1c 5d a0 3a af de 8f bc
       0.00823378 -0.0016685966 0.001223478 -0.017562238

action_model._continuous_distribution.log_sigma f4 [1, 2]
000000 46 ca 1a bd 97 7c 66 bd
       -0.03779056 -0.056271162

action_model._continuous_distribution.mu.weight f4 [2, 128]
000000 65 e3 1f 3d 6b fe 86 bc 91 b5 57 3d 1a 32 08 3d
       0.03903522 -0.016478738 0.05266339 0.033250906
000010 09 2a 69 3c c9 1d ec 3c a8 01 e7 bc 39 b8 c3 3b
       0.014231213 0.028822796 -0.028199032 0.005972889
000020 cc cc 4a 3d ed f7 1d bd 85 9d bd bc fd dd 02 bb
       0.049511716 -0.03856652 -0.0231464 -0.001996874
000030 19 b1 b8 ba 35 c5 06 3c e4 c2 1c 3b 12 db 96 3c
       -0.0014090865 0.008225729 0.0023919875 0.018415008
000040 d7 04 a2 3c 76 be 67 bc 45 90 5a bc 41 1c 9f bc
       0.019777698 -0.0141445305 -0.013340061 -0.019422652
000050 f5 ab d9 3c 38 d8 09 3d 6a cc 6a bc a7 b1 91 bc
       0.026571253 0.033653468 -0.014330963 -0.017784907
000060 6c f8 80 3b 78 c2 13 bd cb 80 1f 3b 02 6b 1a bc
       0.003935864 -0.03607413 0.0024338241 -0.009424927
000070 95 46 54 bc fd 1e ee bb 35 4e 29 3c 32 50 33 3d
       -0.012956281 -0.0072668777 0.010333587 0.043777652
000080 37 a8 82 bc fa e4 0b 3d 88 35 a6 bc 9c 73 1d bc
       -0.015949352 0.034153916 -0.020289198 -0.009610083
000090 df c6 1f 3c 66 b8 05 bd e0 f6 99 bc 78 5d 46 bb
       0.009752004 -0.03264656 -0.018794477 -0.0030268114
0000a0 4a 0a ff 3c cf 1a e4 bc f6 33 bc 3c 9d 67 90 bb
       0.031132836 -0.027844815 0.022973996 -0.004406883
0000b0 b2 35 b0 3c 19 0a 3d 3d 9f a0 a0 38 0b e6 c0 bc
       0.021509979 0.046152208 7.6593125e-05 -0.023547193
0000c0 c8 5b 97 bc 3a e1 dc 3c 58 e0 ee bc de c3 71 3c
       -0.018476382 0.026962865 -0.02915971 0.014756171
0000d0 be dd 7e bc 0b 8b 7f bc 03 a7 00 3d cf 54 80 3d
       -0.015555797 -0.015597115 0.031409275 0.06266176
0000e0 41 ad 21 bc fe b9 31 3b 57 3f ac 3c 29 db d5 bb
       -0.009867967 0.0027118917 0.021026297 -0.00652637
0000f0 82 c2 15 bc 83 02 b3 bc 29 f7 17 3d 0a 25 25 3c
       -0.009140613 -0.021851784 0.037100945 0.010079632
000100 81 00 35 3c d0 77 35 3c a2 70 9a 3c 4d d9 81 bc
       0.011047483 0.011075929 0.018852536 -0.015850687
000110 13 40 0e bd ed 5d 23 bc 4a c8 ed 3c ac 09 be bb
       -0.034729075 -0.009971124 0.02902617 -0.005799493
000120 6d 2b 16 bd 9c fd 2a 3b 1e 03 3d bd 64 91 e2 bb
       -0.036662508 0.0026091104 -0.04614555 -0.0069143046
000130 7b f6 54 3c 67 0f 4d 3b 85 06 3c 3d b8 00 70 bc
       0.012998219 0.0031289698 0.045904655 -0.014648609
000140 02 7d 28 3d 03 44 dd 3c b2 74 97 bc fc e6 18 bc
       0.04113484 0.02700997 -0.018488262 -0.009332415
000150 67 95 8b 3b 0d f7 59 bc 8c 02 9b bc 44 5a af bb
       0.0042597535 -0.01330353 -0.018922113 -0.0053513367
000160 24 31 36 3b eb f8 38 bd e3 42 9b 3c b0 a7 2c 3d
       0.0027800286 -0.04515926 0.018952793 0.042152107
000170 00 ca ee 39 d5 72 dc 3c a0 83 0b 3c 41 97 64 3c
       0.000455454 0.026910225 0.008515269 0.013952077
000180 5b f5 6a 3a bc 39 cb 3c e6 fa ff 3b b3 ee 48 3d
       0.00089629524 0.024807803 0.007811892 0.049055766
000190 b5 53 54 bb 91 f5 a3 3b 53 32 85 bc 43 d4 41 bd
       -0.0032398526 0.005003639 -0.016259348 -0.04732157
0001a0 eb c2 da 3c e6 09 b7 3c 40 92 09 3d c3 97 aa bc
       0.026704272 0.022343587 0.03358674 -0.020824319
0001b0 e7 cb 37 3c a4 33 bf 3c 26 9a 7c 3d 2c 48 84 bc
       0.011218048 0.023340054 0.061670445 -0.016147695
0001c0 4a 55 ee 3b 9e 89 a5 3c b8 92 e4 3a bb 2f 00 3d
       0.007273351 0.020207223 0.0017438745 0.03129552
0001d0 73 69 b0 bc 1c 07 08 3c 7a ba da bc 7a 7a 92 3c
       -0.021534657 0.008302476 -0.026700247 0.017880667
0001e0 48 32 89 3b 4b 5f d4 3c 4a 51 55 3c 09 a5 8c bb
       0.004186902 0.025924345 0.013019869 -0.0042921347
0001f0 9a 83 af bb fc e6 e8 bb 1a 4f f4 ba f8 60 9a 3d
       -0.0053562643 -0.0071076136 -0.0018639297 0.075380266
000200 15 d2 79 bd ca 5e 97 3b 43 0b 29 bc 0f 2d 03 3d
       -0.060991365 0.004619454 -0.010317626 0.032025393
000210 80 71 52 3c b2 d6 ed ba a3 e5 1b bd f1 cf 1e 3c
       0.012844443 -0.0018145649 -0.038060796 0.009693132
000220 1a 20 c1 3c 50 2f 01 3d 47 2a 38 3d 5d 3e d3 bc
       0.023574878 0.03153926 0.044962194 -0.025786573
000230 1c 0d 94 bb 7a 44 c4 bb c5 0f f8 bc 6a 0d 03 bd
       -0.0045181643 -0.0059896084 -0.030280957 -0.031995215
000240 28 6b 16 bd 80 42 00 3b d6 29 36 bb af 3c 24 bc
       -0.036723286 0.0019570887 -0.0027795932 -0.010024234
000250 98 d5 5d 3b 19 a7 f8 3b 85 8a b6 3a 42 83 0f 3c
       0.0033849236 0.007588279 0.001392678 0.008759322
000260 0e fe ae bc 4b 83 e8 3c ce 8b a2 bc f2 cb 00 3d
       -0.021361377 0.028382918 -0.019842055 0.031444497
000270 f2 71 7d bc d4 fa a8 bc ec 05 3d bc 7d 23 8a 3c
       -0.015469061 -0.020627417 -0.011537056 0.016862625
000280 33 f0 d1 3c ef 43 a8 3c 31 58 db 3c 5b 17 9b bc
       0.025627231 0.020540206 0.026775451 -0.018932035
000290 fd 7f 5b 3d cd 4b 11 3d 78 61 00 bd 4b 52 c5 bc
       0.053588856 0.03547268 -0.031342953 -0.024087092
0002a0 f4 f0 e4 bc 19 d2 99 3c 41 f8 82 3c 55 f9 6e 3c
       -0.027946927 0.01877694 0.015987517 0.014585813
0002b0 2b 66 cb 3b d1 a1 c5 3b 56 f4 6e 3c b7 9d 9f bb
       0.0062072477 0.006031253 0.014584621 -0.004871096
0002c0 75 73 19 bd b4 07 2a 3c 93 69 8c bc 52 13 27 bc
       -0.037463624 0.010377813 -0.017140185 -0.010197477
0002d0 72 72 2a 3d 68 c3 9c 3c ea c3 8e bb b7 06 d8 3c
       0.04161305 0.019136146 -0.004356851 0.02637039
0002e0 00 8f 02 3d 17 85 4e 3d d2 79 4a bb 5e 37 d7 3b
       0.031874657 0.050419893 -0.0030895364 0.0065678796
0002f0 3f 69 88 bc f5 2f 6f bc f7 32 97 bd 77 f6 4f bd
       -0.016651748 -0.014598836 -0.07382768 -0.050772157
000300 15 2b e9 bc d3 98 c5 bc 94 d4 43 bd a7 8d 42 38
       -0.028462926 -0.024120724 -0.047810152 4.638513e-05
000310 7b 76 bd 3c d0 86 5a 3c 38 9f 13 3d 98 4a 7d 3c
       0.023127785 0.013337806 0.036040515 0.015459679
000320 53 5f 3d 3d fc 3c 66 bc 38 c8 cf 3a 21 83 0b bd
       0.046233486 -0.014052626 0.0015852517 -0.0340606
000330 bc b7 03 bd d1 a2 e5 3b 10 9c 5c bc 8b dc 6f 3c
       -0.032157645 0.0070079346 -0.013464943 0.014639984
000340 92 c7 9e 3c 1f 51 fe bc 08 8e 21 3c 0c bf 03 bc
       0.019382272 -0.03104454 0.009860523 -0.008041155
000350 e9 c5 0e 3d fa 15 4d bb 0f 3f 5c bc 6a fc 5e bd
       0.03485671 -0.0031293617 -0.013442769 -0.05443994
000360 72 2a 8f 3c 0e 46 e6 3c f1 6d b7 3c fc d9 0f 3d
       0.017476294 0.028109577 0.022391291 0.035119995
000370 ae 57 c2 3c db cd 83 3d 27 4d 35 bc c8 87 46 bc
       0.02372345 0.06435748 -0.011065758 -0.012117334
000380 2c c5 bf 3c d2 5d e7 bc 88 7f 01 bd dc 61 c0 3c
       0.023409449 -0.02824298 -0.031615764 0.023484163
000390 9a 35 86 bc c2 0b c9 bc d4 4e 41 3d bc dd 1c 3d
       -0.016382981 -0.02454174 0.047194317 0.0382974
0003a0 78 af 7d bd 32 2b ca bc 99 cb 57 bd c3 32 3e 3b
       -0.06193492 -0.0246788 -0.0526844 0.0029021956
0003b0 b1 a5 db bb 6f b8 1c 3d c1 e8 f4 bc d2 1f da 3c
       -0.0067031016 0.038261827 -0.029896142 0.026626501
0003c0 2d 98 a0 3c 86 e1 af bc 91 13 49 bc 1e 34 e6 bb
       0.019603813 -0.021469843 -0.012272731 -0.007025256
0003d0 9b e0 5d bc bf 4a 9a 3c b1 c9 9f 3c 32 bf f4 bc
       -0.01354232 0.01883447 0.019505354 -0.029876325
0003e0 a6 58 28 bd 20 2a b3 3c de 30 9a 3c 3a 88 bc 3c
       -0.041100167 0.021870673 0.01882213 0.023014177
0003f0 d5 e2 8d bc 54 3e 44 3d 9a 6e 5a bc be 66 f8 3c
       -0.017320076 0.047911003 -0.0133320335 0.030322429

action_model._continuous_distribution.mu.bias f4 [2]
000000 5d 39 e0 bb d2 7f 31 bc
       -0.0068427757 -0.010833697
