results/ppo/MoveToGoal/MoveToGoal-128571.pt (torch, 441819 bytes, 36 tensors)

network_body._body_endoder.seq_layers.0.weight f4 [128, 6]
00000000: 4646 16bf f1db 02bf 27db e2be 0af2 ef3e
00000010: 167a 163f c8ba 42bf 6914 cebd 972f 9bbe
00000020: fa29 99be 3002 0b3e cd12 86bf 200b d83e
00000030: f515 543e 6404 143f 67e3 9b3e 1911 04bf
00000040: 17f4 573e d45e ee3d a62d 3dbf 7135 e03d
00000050: 894e 45be 0150 453d dd36 22be 04a6 26be
00000060: 9b5b c23e 9e2c b0be e578 c03e 1d1f 2abe
00000070: c3f1 023f 1cc6 903e 5cf9 39bf bc52 9abd
00000080: cbd1 4b3e 94a8 d63e d4b8 eb3e ec8f bdbe
00000090: 74ef 14bf 89c8 a9bd 060d f13b 7eab 1cbe
000000a0: beb1 b9be 5353 29bf e25f 8d3e cc4b 203e
000000b0: df04 803f fad1 babc c89f 29be cee5 713c
000000c0: cf87 7b3e a86c 183f 898e e5be 1e2b ad3e
000000d0: 1c30 70bf b96b efbe a546 40be d3b4 22bd
000000e0: 4802 d13d 33bd 723f 2c09 edbe 236a 52be
000000f0: 6695 c43d fb73 533e b684 4c3f 1525 f9bc
00000100: 8099 113d b97a ebbe f8c3 59bf d351 fabe
00000110: ec3c 46bf 1d6d 5a3d 57d9 e23d 238a 113f
00000120: 10c5 bcbe 102b 963e da62 c43e 6cbf 463f
00000130: cfbe 96bd 5efe 18be 3cab b6be 886f bcbe
00000140: fde0 36bd 3162 cb3e 2dba 453d 116b 77bd
00000150: abb8 33be d4b6 a0be c819 41bf 5342 0f3f
00000160: f612 46bc 66ea 4fbd 71e9 153f 7636 c83e
00000170: 0623 413e fb54 cdbe 0bf7 02bf c9f4 f83d
00000180: 8b72 8abb 6069 a3bd 2cd6 783f 1ad8 0e3f
00000190: 8649 413d 6466 b1be 3104 9ebe 4acb c43e
000001a0: 42f1 8abe 7734 e23e 1328 2cbf 9d0c fb3d
000001b0: 6bfc ca3c 2785 d53e c619 2f3f 9ad8 31be
000001c0: a74c acbd 627e d83e 6df0 213f 94bf 63bf
000001d0: d2f9 643e db20 883c 8ef6 043f 48ac 93be
000001e0: 42a5 14bf 2e59 533d 5a0e c13e 692a b83d
000001f0: 0dd2 233e 221a 9dbe 8873 8bbe 770b b5be
00000200: 27c8 01bf ea05 83bd bce3 c93e 57c1 ea3e
00000210: 3152 b33e bf87 053d dbd3 8fbd e73e babe
00000220: 9b3b d9bd e4f2 b0bc a4c8 943e 7713 7bbd
00000230: aac8 34be b729 a83d 1517 a13d a95d 77be
00000240: ce2a 273f 40e4 9c3d 0791 c23d 7ad1 cc3e
00000250: 2731 3ebe d1e6 f83e 3733 33be be21 49be
00000260: a946 23bf b2be 743e 48ed 0b3d 6411 a9bd
00000270: 6a54 c83e 7c8e 14be d6e2 00bf 8e20 1e3d
00000280: 4de9 6e3e 0e71 8f3d 0546 d53e 778d 043f
00000290: f9dc ea3d 1866 61be 4834 b9be 47d7 0c3d
000002a0: 73eb 12bf f868 82be a4d6 203e 4735 5cbe
000002b0: a653 e73c 03b3 f3bd 3ce7 013f a783 9b3e
000002c0: 3326 7a3e 521b da3d 5c2d 6d3e b6a2 e03e
000002d0: 6ef6 1fbf 8a12 fdbe bcc5 263e 0633 37be
000002e0: 28b0 493e 7176 723e d765 c53d c921 b43d
000002f0: 345d 093b 24ef 003e 01af 803d ab83 7abd
00000300: 713c 3e3f 1344 0c3e 4745 23bf 3686 063f
00000310: 9249 813d 61f8 d0be e437 a33e bae7 c23e
00000320: d154 cd3d 9885 2cbe 0371 0ebf c850 24bf
00000330: 7a07 063d 8736 13bf 5ac7 6c3c dea1 16be
00000340: fc85 0abe e1a0 94bd 9759 863d b4a9 b23d
00000350: f4fa 363f 2254 30be e4a7 9c3e c98a a13e
00000360: b2b0 c63d 25ab 5dbf 27b9 be3e c47a d33e
00000370: 099e ff3e b42a 783e efbf c63e bc26 c83e
00000380: df4f 713f 290c c53e 17bd 9cbe 15c6 09bf
00000390: b2c1 ecbe 39ea 773e 7a8d 3cbf 026f 82be
000003a0: e60e 8cbf ef17 20ba a47f 36be 416a 99bc
000003b0: 8917 9a3d 746c 2c3e 9ce8 0e3e cfac 53bd
000003c0: 4d40 60bf 70ec 0a3f afcd 883e 621a 78bf
000003d0: f861 38bf 40a6 e73d a500 96be af39 0fbe
000003e0: 42e7 a13d 9066 12be e5a2 b3bd cf19 843e
000003f0: 24ba c73d b8bb 353e 3912 4fbf fe80 7cbc
-0.5870098 -0.51116854 -0.44307825 0.4686435 0.5878004 -0.76066256 -0.10062487 -0.30309746
-0.29914838 0.13575053 -1.0474488 0.42195988 0.20711501 0.578192 0.30446932 -0.5158859
0.21089207 0.11639181 -0.7389778 0.10947693 -0.1926824 0.048172 -0.15841241 -0.16274267
0.37960514 -0.3440904 0.37592235 -0.16613431 0.5115015 0.28276145 -0.7264612 -0.075353116
0.19904248 0.4192549 0.4603945 -0.37023866 -0.58177876 -0.08290202 0.007356289 -0.15299794
-0.3626842 -0.6614277 0.27612215 0.15653914 1.0001487 -0.022805203 -0.16564858 0.014764262
0.24563526 0.59540796 -0.44835308 0.33821958 -0.9382341 -0.46761873 -0.18776949 -0.03972323
0.10205513 0.94819945 -0.4629606 -0.205483 0.09598808 0.20649712 0.7989 -0.03041319
0.03554678 -0.45992067 -0.8506465 -0.48890552 -0.7743671 0.053326715 0.110766105 0.56851405
-0.36869097 0.2932973 0.38356668 0.77635837 -0.073606126 -0.14940783 -0.35677516 -0.36803842
-0.04464816 0.39723352 0.048273254 -0.06040484 -0.17550914 -0.31389487 -0.75429964 0.5596058
-0.012089482 -0.05076065 0.5855933 0.3910405 0.18861017 -0.40103897 -0.5115821 0.12156064
-0.0042250804 -0.07979083 0.972018 0.55798495 0.047189258 -0.3464843 -0.30862573 0.38436347
-0.2713719 0.44180652 -0.6724865 0.12258265 0.024778565 0.4170315 0.683987 -0.17367783
-0.08413058 0.42283922 0.63257486 -0.889642 0.22360924 0.01661723 0.5193871 -0.28842378
-0.58064663 0.05159872 0.37706262 0.08992464 0.15998097 -0.30684 -0.2723658 -0.3536031
-0.50696033 -0.063976124 0.3943156 0.45850632 0.35023645 0.03260016 -0.0702283 -0.36376116
-0.10607072 -0.021600194 0.29059327 -0.06129786 -0.17654672 0.082110815 0.07865731 -0.24156822
0.6529969 0.07660723 0.09500318 0.40003568 -0.18573438 0.486136 -0.17500006 -0.19641778
-0.63779694 0.2390087 0.034161836 -0.0825527 0.39126903 -0.14507478 -0.50346124 0.038605265
0.23331185 0.07003985 0.41654983 0.5177836 0.114679284 -0.22011602 -0.361727 0.034384992
-0.57390517 -0.2547071 0.15706879 -0.21504699 0.028238129 -0.11899378 0.5074346 0.3037388
0.24428634 0.10649742 0.23161834 0.4387414 -0.62485397 -0.49428207 0.16286367 -0.17890558
0.19696105 0.23677994 0.09638565 0.087955065 0.0020960094 0.12591225 0.06283379 -0.061160725
0.74310976 0.13697843 -0.63777584 0.5254854 0.063128605 -0.40814498 0.3187858 0.38067418
0.10025943 -0.16847837 -0.5564119 -0.6418576 0.032721974 -0.5750508 0.014451826 -0.14710185
-0.13527673 -0.07257248 0.06560057 0.087237746 0.71476674 -0.17219594 0.3059684 0.31551197
0.09701671 -0.8658927 0.37250635 0.413046 0.4992526 0.2423504 0.3881831 0.39092052
0.942625 0.3848584 -0.30613014 -0.53817874 -0.46241528 0.24210443 -0.73653376 -0.25475317
-1.0942047 -0.0006107082 -0.17822129 -0.018727424 0.0752402 0.16838247 0.13955921 -0.051678475
-0.87598115 0.54267025 0.26719424 -0.96915257 -0.7202449 0.113110065 -0.29297367 -0.13986848
0.07905437 -0.14296937 -0.08771304 0.2580094 0.097523004 0.1774739 -0.8088718 -0.0154116135

network_body._body_endoder.seq_layers.0.bias f4 [128]
00000000: e321 2c3c 4871 97bc d73c 273b 0dff db3b
00000010: d47d 82bc 5a8f 70ba cff2 f43a 5534 31ba
00000020: c409 a53b 4f58 313c fdf4 b1bc c45d c93b
00000030: adc7 0a3c 8155 953c efa2 23bc 21e4 9c3b
00000040: 1bdd c33c e500 9bbc e4e7 06b9 32c8 4b3c
00000050: e615 32bb b471 813b 0a62 343c 0f32 3cbc
00000060: 5b8b d5bc 9a46 803c 0b14 4c3b 8fa1 a33b
00000070: 6670 37bc bc3f 84bc 3343 d6bb 798a 823c
00000080: ab9b ea3c 8917 0c3a 9c80 1cbc 55c2 09bc
00000090: 7232 ea3c 0104 2abc 5178 193c dbbf 273b
000000a0: fdd9 a8bb 43cb 84bb 248c 7bbb e0e4 823b
000000b0: f4e5 a93b 4c99 7bbc 1643 a4ba f770 963c
000000c0: bcbf 83bb 9842 82ba 4327 a8ba a26d 37ba
000000d0: 1528 85bc 95df 9dbb 742f b3bb 3a0e c03c
000000e0: 20e6 7a3c d69c 2f3b feb7 9838 fc02 cb3c
000000f0: bb9d 2d3b 2574 8a3b ce91 01bc 6653 f8bc
00000100: 5d26 fabb a7ba e93b c642 cb3b 849e 843b
00000110: bf44 953b 194e 83bc a66a 2f3c b416 d83b
00000120: 60c3 273c 7437 973c ce1b 34bc bf80 ee3b
00000130: 9d26 83bb bb7c c5bb c8ae 643c a848 283c
00000140: cac5 6e3c f7e8 223d 4f14 e6bb a83c 6ebb
00000150: 3527 b33b 83bf 0ebc f94f debb a7cb a9ba
00000160: 082d a13b 0a86 84ba 4a99 8ebb e5ad 85bb
00000170: a7ec 44bc 8199 43b9 3bd2 d8bb c1e7 b2bb
00000180: 03a1 4bbc e7e2 243b 5c08 f53c b7d8 c0bb
00000190: c28a 36bc 98ae 19bc a008 5dbc 492f 9bbb
000001a0: fb9d 523c 4f4b 0d3d 0f13 c83b 82b3 34bb
000001b0: 69cd b43c 3202 deba b337 f73c 3d4e 1ebc
000001c0: edde b83b 9df7 c93b 82dc 153c 86fb a73a
000001d0: 453f 093b 491b 6abc 2f96 8cbb 9373 7939
000001e0: 904c 003c ce5f 49bb 2c1e 343c 7a70 c1bc
000001f0: 33b2 d53c b901 ce3b c873 d23b 9b93 043c
0.010506126 -0.018486634 0.002551844 0.006713754 -0.01592914 -0.00091766345 0.0018688085 -0.0006759812
0.0050365645 0.010824277 -0.021723265 0.006145211 0.008470458 0.018229248 -0.009987577 0.0047879373
0.023909142 -0.018921325 -0.00012865622 0.012437867 -0.0027173697 0.003950322 0.011009702 -0.011486544
-0.026067426 0.015658665 0.0031139876 0.0049936245 -0.0111962315 -0.016143672 -0.0065387725 0.01593517
0.028638681 0.0005344083 -0.009552147 -0.008408149 0.028588507 -0.010376931 0.009367065 0.0025596533
-0.0051529394 -0.004052551 -0.003838309 0.003994569 0.0051848833 -0.015356373 -0.00125322 0.018364413
-0.0040206593 -0.0009938059 -0.0012829084 -0.00069972326 -0.016254464 -0.004817913 -0.0054683033 0.023444284
0.015313655 0.0026796362 7.282196e-05 0.024781696 0.002649172 0.0042252713 -0.007908298 -0.030313205
-0.007633968 0.0071328464 0.0062030284 0.004047217 0.0045553143 -0.01602845 0.010706579 0.0065945033
0.010239452 0.01845906 -0.010992957 0.0072785313 -0.004002406 -0.006026832 0.013957687 0.010271229
0.014573524 0.039772954 -0.007021464 -0.0036352072 0.0054673203 -0.008712652 -0.006784436 -0.001295437
0.004918698 -0.0010110748 -0.0043517696 -0.0040795677 -0.012019313 -0.00018653834 -0.0066168583 -0.005459756
-0.012428525 0.0025159658 0.029911213 -0.0058852094 -0.011141481 -0.009380005 -0.013490826 -0.0047358614
0.012855048 0.034495648 0.0061057876 -0.0027572815 0.022070603 -0.001693791 0.030177927 -0.009662208
0.005641809 0.006163551 0.009146811 0.0012816049 0.0020942253 -0.014288732 -0.004290364 0.00023789545
0.007830754 -0.003072727 0.010993522 -0.023613203 0.026085949 0.0062868265 0.0064224936 0.0080918325

network_body._body_endoder.seq_layers.2.weight f4 [128, 128]
00000000: 86fb ddbc a9c6 6ebe dc05 86bd 1697 d5bd
00000010: 6bb7 e4bd ae29 8bbc eda1 343e 997c a7bd
00000020: dfc7 48bd 942d ee3d 1c6f 92bd 424c 1bbd
00000030: b7ea 4a3c 7f79 703d 836f 91be 34fc db3c
00000040: 7657 183d 73b7 05be 7b04 b33c 789f 57be
00000050: 4d8f 953d cf9a 90bd 3a0a 51bd ef57 803c
00000060: 9c5a d2bd ffc5 afbb 4139 c23d bbce d0bd
00000070: 1ea8 753c c308 a7bd 83ca 46bd eb18 733d
00000080: d0e3 933d 841d 5dbc a736 98bd 2627 3b3c
00000090: 87c8 7d3d da76 5b3d d65b 333d d46e b93d
000000a0: aac6 e4bc 3294 a1bd bac9 a8bd 7822 d43d
000000b0: 1968 7a3d 9d38 f6bc de00 d03d 34bb 78bd
000000c0: f100 1ebe e27d d03d 6015 4e3d 5763 74bd
000000d0: ae32 0bbe e95f 28be f27b 4dbd 37ba eb3d
000000e0: b6fe 0abe 7a92 be3c e58b 463d e524 6c3d
000000f0: 2bf7 36bd 4661 dc3d 36e7 d1bc 80f9 d2bd
00000100: 3f2f 60bd a8ea 75be d1ef 323d 2b38 c2bd
00000110: 6255 d3bb a137 23be 84a8 f03a 19e1 283c
00000120: 1c7c 9d3d 1b39 7ebd 34f6 f73d 61b4 abbd
00000130: 90b5 973d 3273 15be d030 b43d 0a48 72bd
00000140: 99c0 02bb 5be5 85bd 9367 0e3d 6f81 ccbd
00000150: 7a45 39bd f85c d5bd 7e2d 82bd b1af aa3d
00000160: 0ee3 bebc 7f1b e23d 7cbf 9fbc 7c54 37bd
00000170: c6d4 55bc 9a2f 7bbd 3ca5 25bc 695a 013d
00000180: 85cf 7a3d a2f2 b9bd b579 2bbd f848 823d
00000190: 0b71 cdbb 353f a6bd 7e92 053d 9ca4 4dbe
000001a0: f281 973d b51c 1a3d 0ad4 003d 7a38 62bd
000001b0: ca61 12bd c4ac 5fbd 110f 103e d079 32be
000001c0: a1c1 903d d260 043e d98c a5bd 7330 9b3d
000001d0: 041d 473d 5384 8abd 1ec6 89bd 3e91 3739
000001e0: 6966 623d f8fd e8bd 27dd 22bd 55f1 c9bc
000001f0: 1dcf 4c3d 8ac6 6a3d e2e7 993d 68eb e0bd
00000200: fa24 d43d 841e 0ebe 809c 1dbd 1510 553d
00000210: 1ee9 5dbd a1cd a93d 6b8d 63be 3152 933d
00000220: 3083 33bd 128e 14bd c252 af3d 4071 d0bc
00000230: 3d9f 6e3d 9e8b dbbd beec 1cbb 7d21 733d
00000240: 200f af3d 05b6 cbbd 6e40 01bb cc10 86bd
00000250: 4958 2bbc deca 233e 0290 40be e330 933d
00000260: 104e a3bd b5ec 3abd 7368 8cbd bfc1 6dbd
00000270: 1f32 20bd 60b3 473e e07f 16be 17b6 f33d
00000280: 95be 193d 4a10 f0bd f411 d43d 238f 1fbe
00000290: 2a6c d53c 1fc8 5fbe b7d7 0dbe aba1 eabd
000002a0: 1856 d1bd 7b7e f33c 4edd cabd f8d8 68bc
000002b0: 7001 733d a8d0 333c ca1f 29bd 1acc d13d
000002c0: 9b6d b13c c9d4 df3c 9f8e b43d 6801 43bc
000002d0: 3786 c13d 178d 83be 1161 bdbd bca5 9ebe
000002e0: 993a 763d 6ef2 473c 567e b2bc 6933 13bd
000002f0: b00f 06be 2a07 15bc 8902 9dbd da65 e1bd
00000300: f842 e93d efdf d33c d9ff f9bc be1f e0bd
00000310: d08d 47be 482b 853d 8c0a 4abe 6dec e33b
00000320: 5a82 a1bc 9b1e 913c 24df 50bd ade3 bebd
00000330: 1300 d5bd 7bff 02be cce5 62bd 29f6 143e
00000340: 65e0 2a3d 897a 813c 34ef 23bc 648e fa3c
00000350: 8604 5fbd 1890 853b d84a 443c ba3e 22be
00000360: aaba f43d 220e 04be 1234 173e 48e0 0abd
00000370: b7ad 6e39 6147 1e3e 223e b5bd b220 b4bd
00000380: 9b77 07bd 8676 e6bd 1745 1e3c 0cdb d2bd
00000390: a689 873a 862e 343e 1aba 2e3d fc56 8f3c
000003a0: 4e21 873c ec2d 07bd c916 97bd dd22 1fbe
000003b0: c70f 98bc 1271 233e 59e4 89bd b682 b33d
000003c0: c70d 49bc 37d5 88bb e591 fa3d c217 753b
000003d0: 6310 f7bb 2dee 873d e44a 68bc 63f4 f3bc
000003e0: 7188 c73d 2600 7d3d 2d71 a5bd 9670 1ebe
000003f0: 05db f4bc c83e f8bd 75e6 503d 4c3a 193e
-0.027097475 -0.2331797 -0.06544086 -0.10429208 -0.11167797 -0.016987648 0.17639895 -0.08178062
-0.049018737 0.11629787 -0.07150099 -0.037914522 0.012385062 0.058709618 -0.2840539 0.026853658
0.037192784 -0.13058262 0.021852722 -0.21056926 0.07302723 -0.070607774 -0.051035143 0.01566693
-0.102711886 -0.005364179 0.094835766 -0.10195681 0.014993696 -0.08155968 -0.048532974 0.059349936
0.07221186 -0.013495807 -0.07432299 0.011422908 0.061958816 0.053580143 0.043788753 0.09054342
-0.027926762 -0.07889594 -0.08241601 0.10358137 0.06113443 -0.030056292 0.101564154 -0.060725406
-0.15430047 0.1018026 0.050313354 -0.05966505 -0.13593552 -0.16442837 -0.05016703 0.11510127
-0.13573727 0.023263205 0.048473258 0.057652373 -0.04466931 0.10760741 -0.025622945 -0.103014946
-0.054732557 -0.24015296 0.043685738 -0.094833694 -0.0064493874 -0.1593919 0.0018360768 0.010307574
0.076896876 -0.06206618 0.121075064 -0.08384014 0.07407677 -0.14594725 0.08798373 -0.059150733
-0.0019951223 -0.06537887 0.034766745 -0.09985625 -0.045232274 -0.10418123 -0.06356333 0.08334292
-0.023301627 0.11040401 -0.019500487 -0.044758305 -0.013051217 -0.061324693 -0.010110196 0.031580362
0.061233062 -0.09079482 -0.041864116 0.06361574 -0.0062695793 -0.081175245 0.03261041 -0.20082325
0.07397832 0.037625033 0.031452216 -0.05522964 -0.03573779 -0.05460812 0.14068247 -0.1742928
0.07068182 0.12927559 -0.08083505 0.075776 0.048611656 -0.0676352 -0.06727241 0.00017506347
0.055273447 -0.11376566 -0.03976169 -0.024651209 0.050002206 0.057318248 0.07514931 -0.109824
0.10358615 -0.13878828 -0.03847933 0.05201729 -0.054177396 0.08291174 -0.22221915 0.07193411
-0.043826282 -0.0362683 0.08560707 -0.025444627 0.05825733 -0.10719989 -0.002394482 0.05935811
0.08547807 -0.09946827 -0.001972224 -0.065461725 -0.010458061 0.15995356 -0.18804935 0.07187059
-0.079738736 -0.045635898 -0.068558596 -0.0580461 -0.0391103 0.1950202 -0.14697218 0.11899965
0.03753527 -0.11721857 0.10354987 -0.15581946 0.026052553 -0.21853684 -0.1385182 -0.11456617
-0.10221499 0.029723397 -0.09905492 -0.014211886 0.059327543 0.0109750405 -0.041290082 0.102440074
0.02165871 0.027323144 0.08816265 -0.011902191 0.094494276 -0.2569358 -0.092470296 -0.3098582
0.060114477 0.012203796 -0.021788757 -0.0359377 -0.13091922 -0.009095946 -0.07666499 -0.11005755
0.113897264 0.025863616 -0.030517505 -0.10943554 -0.19487691 0.06502396 -0.19730586 0.0069556744
-0.019715477 0.01771479 -0.050994053 -0.093207695 -0.10400405 -0.1279277 -0.055394933 0.14547028
0.041717906 0.0158055 -0.010005761 0.030585475 -0.054447673 0.004076015 0.011980735 -0.15844241
0.11949666 -0.12896016 0.14765957 -0.033905298 0.00022762163 0.15456916 -0.088497415 -0.08795299
-0.03307305 -0.11253075 0.009660027 -0.10295686 0.0010340705 0.17595872 0.04265795 0.017497532
0.016495373 -0.03300278 -0.07377393 -0.15540643 -0.01856221 0.15961102 -0.06733007 0.087651655
-0.012271351 -0.004175808 0.122348584 0.0037398194 -0.0075397952 0.06637225 -0.014178012 -0.029779619
0.09742821 0.06176772 -0.08078227 -0.15472636 -0.029889593 -0.121213496 0.05100103 0.14963645

network_body._body_endoder.seq_layers.2.bias f4 [128]
00000000: 39ba 203c 885d 1e3c ef96 5a3b 08fa 68bc
00000010: ed72 2abc 8b74 19bb 8173 203c 8749 69bc
00000020: d856 8abb 1f05 463b b05e 03bc f6fc 873c
00000030: 8d50 7f3a 8904 5e3c 4d7a 643c 6251 943c
00000040: 3747 6d3c a266 ca3b 6f78 0b3b 8894 7c3b
00000050: 6e10 04bc 8b8e 9dbb 96bb 25ba 06dc 483a
00000060: a191 0d3c efed 40bb fd81 c93a 088e e23b
00000070: 6390 793b 6ae7 7b3b 99b5 7e3b 41dd cebb
00000080: 6f02 2dba 5fb0 65bc 0c90 be3b 9347 f93a
00000090: 3acb 7cbc 52c2 853b f6ff 053c a319 d43b
000000a0: 4e97 e43b 7227 0fbc 6e1c 11bc 4e82 80ba
000000b0: aedf 3d3a 990a 7fbb 8492 00bc e472 9a3b
000000c0: a1d6 593c 7f69 c6bb d63e a63a a8f6 7c3b
000000d0: 82e7 a1bc ae5d 06bb b370 a1bb 6268 23bb
000000e0: dbda 70bc 8423 f0bb bc3b 22bc 318c 1cba
000000f0: b353 1bbb e5f9 0a3c 3900 493c a768 253c
00000100: 9893 8d3c 2c3c e93b 8ce5 cf3c c191 0e3b
00000110: fcb4 f0b9 e41c 4eb9 e17c 80bc a8d8 d7bb
00000120: a0c6 413a 538c 573a 417f 143c abc8 1e3c
00000130: 1907 9e3b f435 9ebb 05a0 28bb 75ac 6a3a
00000140: 8cce 90bc 1183 ca3b aa49 ba38 264d 7539
00000150: 36ac 12bc 6b30 8bba a48c 693a 3221 bc3c
00000160: 1a0c 54bc d37f 5a3c b8cf 6ebc 8a3e dcbb
00000170: 34f1 f5bb 2939 56bb b0f2 903b 8a50 fbbb
00000180: e37e c9bc 8b97 323c 5725 373c c6b5 93ba
00000190: 00ae 873c 5a86 983c 72d4 85bb 4aad 8b3b
000001a0: 14c1 8c3c 8430 923b 6a34 693c 6fc1 a33b
000001b0: 5b67 d93b e3dc 22bc e301 28ba 952a 6bba
000001c0: acae a0bc ef59 e33b 554d ef39 bbf1 f2bb
000001d0: 1c67 c7ba 8423 00bc 7d6b eaba c697 583b
000001e0: 724b c43c adba 55bc ec35 85bc c3cf f7bb
000001f0: 97b7 153c 9fca c5bb c106 c9b9 f14d 7ebc
0.009810024 0.009665854 0.0033354124 -0.014219768 -0.010403377 -0.0023415412 0.009793163 -0.014238722
-0.0042217784 0.0030215455 -0.008018181 0.016600113 0.0009739481 0.013550886 0.013945174 0.018105213
0.014482311 0.0061767856 0.00212815 0.003854068 -0.008060558 -0.004808252 -0.0006322203 0.00076621806
0.008640678 -0.0029438694 0.0015373823 0.006913904 0.0038080446 0.0038437494 0.0038865565 -0.0063129966
-0.0006599789 -0.014019101 0.0058155116 0.0019018523 -0.015429312 0.0040820027 0.008178702 0.0064727827
0.0069760447 -0.008737432 -0.008856876 -0.0009804459 0.00072431087 -0.0038916229 -0.007847432 0.004713403
0.0132958 -0.0060550566 0.0012683521 0.0038599167 -0.019763712 -0.0020502615 -0.004926765 -0.0024934043
-0.014700617 -0.0073284525 -0.009901937 -0.0005971818 -0.0023701012 0.008482431 0.0122681195 0.010095752
0.017282292 0.0071177687 0.025378011 0.0021754357 -0.0004591121 -0.00019656454 -0.015684547 -0.0065871067
0.0007391963 0.0008222509 0.009063543 0.009691398 0.0048226235 -0.004828209 -0.0025730145 0.00089520897
-0.017676614 0.006180175 8.882892e-05 0.00023393761 -0.008952191 -0.0010619288 0.0008909202 0.022965048
-0.012942338 0.01333614 -0.014575891 -0.0067213224 -0.0075055603 -0.0032687879 0.004423462 -0.007669513
-0.024596637 0.0109003885 0.011178336 -0.0011269383 0.016562462 0.018618751 -0.0040841633 0.004262601
0.01718191 0.00446135 0.014233688 0.0049974243 0.0066346354 -0.009940359 -0.00064089725 -0.0008970884
-0.01961454 0.006938211 0.0004564325 -0.0074140704 -0.0015213224 -0.007820968 -0.0017884817 0.0033049448
0.023961756 -0.013044995 -0.016261064 -0.007562609 0.0091380095 -0.006036117 -0.0003834274 -0.015521512

action_model._continuous_distribution.log_sigma f4 [1, 2]
00000000: b5a9 4ebc ae93 ffbc
-0.0126137035 -0.031198349

action_model._continuous_distribution.mu.weight f4 [2, 128]
00000000: c914 033d 8161 6abc 87ab f03c 6406 143d
00000010: 94e1 7a3c 73d9 ac3c 14f0 c5bc f505 a23b
00000020: 4078 0c3d ddc4 22bd c646 4bbc c241 b7bb
00000030: b3a6 f9ba 06ad 273c 19b4 e5ba 9752 513c
00000040: 7e9d 963c 944c babc 53e6 52bc fb23 a8bc
00000050: 27b5 ab3c 8e65 163d 5a70 22bc b279 89bc
00000060: 9b04 17ba b55d 16bd 924a fd3b 3d8e 9ebc
00000070: dd5b ebbb c5fc dcba f4a3 9d3b 4ec7 363d
00000080: 7f50 84bc 5a01 0e3d 73d3 c1bb ea0b bebb
00000090: 4e71 513c 548f f0bc e7a8 98bc 839c 4abc
000000a0: f086 df3c 77d6 56bc 347c c23c 82c6 5dbc
000000b0: fe7b 9f3c b53b fe3c f630 a73b 0ef1 cfbc
000000c0: f6f3 b0bc d753 ed3c 7cb3 dabc eac9 b03b
000000d0: 8af4 4bbc 914d 80bc c287 093d 1e00 8c3d
000000e0: ed73 e0bb 9959 9b3a 47a6 4f3c efeb 34bb
000000f0: 9d38 0cbc 36a4 bfbc a900 0d3d 8981 2c3c
00000100: 3387 c53b f69b 8b3a 07c8 5a3c 4554 77bc
00000110: a26f 0cbd 8c11 50bc 57a0 f13c 2d97 aebb
00000120: fe8a edbc 6b38 9f3b c7c3 c9bc 8bac 92bb
00000130: 676d b0ba 5ad2 893b f1e4 213d b80f 61bc
00000140: c824 273d 495c 6c3c 0f17 78bc fa64 a2bb
00000150: 841c 8f3b ab02 3dbc 63bf 80bb e6e1 15bc
00000160: 4663 893b bab5 16bd 93a0 b13c 8fd9 eb3c
00000170: 9416 6737 fe79 b93c d954 913b 09ca 3e3c
00000180: d1d0 fe3a 63f3 9f3c 2d97 8f3b 4a88 1b3d
00000190: c438 c2bb 6815 4739 0de5 36bc afd3 2cbd
000001a0: f142 b63c 6bd2 973c 28c8 f63c 1736 cbbc
000001b0: 16cb 223c bf37 d63c b369 483d 1074 66bc
000001c0: 92fe 0a3c f400 313c 422c 9d37 3e75 d83c
000001d0: c261 c8bc a568 273c fba1 aabc f27c 3b3c
000001e0: ac37 70b9 da66 b53c f78e 723c c3f1 bbbb
000001f0: 7ad3 39bc 2bd0 44bc 6e65 e13b 6367 a03d
00000200: 4216 65bd 483e eb3a 122c 6abb 1e38 e93c
00000210: ad4e 543c 77ae 083c 2b66 fcbc b84f 5b3b
00000220: 4838 933c 5eef 5e3c 5e34 ef3c 7e5a 95bc
00000230: 7ccb dabb 3ab9 05bb 6b10 cabc 5fcc d5bc
00000240: 0306 f4bc 477f debb 9573 68bb b3d8 24bc
00000250: a88f 8c3b a4cd db3b a224 0d3a e3a0 703b
00000260: 59cb 85bc ffb1 b33c 0e91 4bbc b912 8c3c
00000270: 32a6 1ebc c3bd 27bc a46e c8bb e2ff 633c
00000280: 02d5 8c3c 2b10 973c 9ed3 8a3c b565 70bc
00000290: 4e20 4b3d b0b5 a93c d1d1 dcbc 22fe b3bc
000002a0: aaaa bbbc 6baf 723c 4da7 533c 887d 3cbb
000002b0: 6cb6 dc3b 58c8 633c aa7d 413c 298c d0bb
000002c0: f864 fdbc 0e05 643c dcc1 90bb aa50 0a3b
000002d0: 09d3 123d 4aaa 483c 278d fbba 1499 ac3c
000002e0: 8807 e03c 37ad 103d 619e 3a3b 0b19 c03b
000002f0: 946b 2dbb 1a8f 40bc 8e37 8bbd 58a0 0fbd
00000300: 6152 b0bc fa1c 87bc a783 2abd ed0d afba
00000310: aaee a63c a923 fa3b 542d 003d d5c4 133c
00000320: ed02 013d 2620 35bc c314 213b 562b cebc
00000330: b441 dfbc 7668 d63b bcde 8fbb 92f6 e33b
00000340: 14b5 6d3c fe97 7fbc a462 1f3c 1359 c4bb
00000350: d653 da3c 8fcd 7c3b 0306 5c3a 6a36 47bd
00000360: 72c9 c23b 2a63 a83c e862 893c 6704 cd3c
00000370: c4ef 643c e9e5 193d be7e fcbb 9069 f4bb
00000380: 7586 8e3c a73a b8bc d580 cfbc a4f6 9e3c
00000390: 0267 38bc 5c8b 98bc 759a 003d a6f6 f43c
000003a0: f2bc 66bd 97cd 9abc 4e24 3dbd a652 a33b
000003b0: e68a e3ba a073 0e3d bf1c c3bc bd66 9c3c
000003c0: 1f2e 793c b27c 763b fac6 e2bb decb 3bbc
000003d0: 1d00 11bc 7e5a 933c a48b 5d3c 5a6c f8bc
000003e0: 1605 10bd 2f2b 793c 7068 783c cc5b 943c
000003f0: 0632 59bc e472 b83c 64e4 8e3b c8a2 e13c
0.032002244 -0.014305473 0.029378666 0.036138907 0.015312571 0.021099782 -0.02416233 0.004944558
0.034294367 -0.039738525 -0.01240701 -0.0055925557 -0.0019046873 0.010234123 -0.0017524987 0.012776039
0.018385645 -0.022741593 -0.012872296 -0.02052497 0.020960404 0.036717944 -0.009914482 -0.016781662
-0.0005760879 -0.03671046 0.0077298367 -0.019354934 -0.007182582 -0.0016859999 0.0048108045 0.044623666
-0.016151665 0.034669258 -0.0059150993 -0.00579976 0.012783362 -0.02936522 -0.018635226 -0.012366417
0.027286023 -0.013112656 0.023740865 -0.0135360975 0.019468304 0.03103433 0.005102272 -0.025383499
-0.021600705 0.028970642 -0.026696913 0.005395164 -0.012448439 -0.015661987 0.033576734 0.0683596
-0.006849757 0.0011852264 0.012673921 -0.0027606448 -0.0085584195 -0.023393732 0.034424458 0.01052893
0.00602808 0.0010651338 0.013353354 -0.015095775 -0.03428615 -0.012699496 0.029495401 -0.00532808
-0.02899694 0.0048590205 -0.024629487 -0.004476135 -0.0013460339 0.004205984 0.039524976 -0.013736658
0.04080656 0.014426299 -0.015142216 -0.004955885 0.004367413 -0.011536281 -0.003929065 -0.009148097
0.0041927425 -0.0367944 0.021683013 0.028790263 1.377393e-05 0.022641178 0.0044351635 0.011644849
0.0019440894 0.019525236 0.004382035 0.037971772 -0.005927177 0.00018986093 -0.011163008 -0.042194065
0.022248717 0.018532952 0.030124739 -0.024806065 0.009936115 0.026149629 0.048928928 -0.014065757
0.008483546 0.01080345 1.8736468e-05 0.026423093 -0.024460677 0.01021782 -0.020829191 0.0114433635
-0.00022908923 0.02214377 0.014804593 -0.0057356074 -0.011341924 -0.012012522 0.0068785464 0.078322195
-0.05592943 0.0017947638 -0.0035731834 0.028469142 0.012958211 0.008342377 -0.030810436 0.0033464264
0.017971173 0.013606874 0.029199775 -0.018231627 -0.0066770893 -0.0020404593 -0.024666032 -0.026098428
-0.029788023 -0.006790075 -0.0035469283 -0.010061431 0.004289586 0.006707864 0.0005384182 0.003671699
-0.016332315 0.021935461 -0.01242472 0.017098771 -0.009683179 -0.010238114 -0.006116705 0.013915988
0.017191414 0.018440327 0.01694661 -0.014672686 0.049591355 0.020716518 -0.026955517 -0.021971766
-0.022908527 0.014812331 0.012918306 -0.0028761346 0.0067356136 0.013902746 0.011809746 -0.0063643646
-0.030931935 0.013917221 -0.004417641 0.0021105208 0.03584579 0.012247631 -0.0019191847 0.021069087
0.027347341 0.03532144 0.002847575 0.0058623604 -0.0026461827 -0.011752868 -0.067977056 -0.035065025
-0.021523656 -0.01649331 -0.04162946 -0.0013355591 0.020377476 0.0076336456 0.03129323 0.009019096
0.03149693 -0.011055028 0.0024579025 -0.025167149 -0.02725301 0.0065432144 -0.0043905657 0.0069568837
0.014508504 -0.015600203 0.009728108 -0.005992064 0.026651304 0.003857467 0.000839323 -0.048635878
0.0059444243 0.020555098 0.016770795 0.025026513 0.01397318 0.037572775 -0.0077055385 -0.007458873
0.017398098 -0.022488905 -0.025329987 0.019404717 -0.011255028 -0.01862114 0.0313973 0.029902767
-0.056332536 -0.018896861 -0.0461772 0.0049842177 -0.001736012 0.034778237 -0.023817418 0.019091958
0.01520875 0.0037610945 -0.0069206925 -0.01146218 -0.008850125 0.017987486 0.013522062 -0.030325104
-0.0351611 0.01520805 0.015161619 0.018110178 -0.013256555 0.022515722 0.0043607224 0.02754344

action_model._continuous_distribution.mu.bias f4 [2]
00000000: f981 0abc 8d30 0bbc
-0.008453839 -0.008495462

exp_avg f4 [128, 6]
00000000: d339 37b8 a820 8d39 e2ba b239 862b 4ba9
00000010: 4476 4eb9 2a3b a43a 7aa7 9c35 edde 00b7
00000020: 63e1 34b7 b666 20a7 629c b836 7cd9 12b8
00000030: 523c f735 ccf9 e7b5 50e5 64b4 1f38 7929
00000040: 0b45 eb35 7725 3bb7 fc94 e9b7 f3d3 9638
00000050: d07b a438 758d 00a9 4649 60b8 d468 b239
00000060: 5729 57b6 a0e1 f7b7 0062 2db8 7d98 e428
00000070: 9da5 b337 a5e6 0eb9 e2c5 7f38 258e ef37
00000080: 3931 9c38 2d34 f6a9 27f0 8eb7 c366 e338
00000090: fc7e e8b7 dcda d138 3239 f438 ed25 60a8
000000a0: 00dd 9bb8 daf6 f739 454c 33b6 a2fe 52b7
000000b0: a52c 82b7 d3c9 91a7 9e66 1d37 1269 7ab8
000000c0: 9468 c1b7 1265 9338 c441 ae38 a4c2 d1a1
000000d0: 4a7b 5ab8 caca ad39 775a e6b7 50b6 bb37
000000e0: 6e7f 7037 e261 fda7 faff 97b7 6ad1 f138
000000f0: 4aeb 22b5 b8e6 5ab8 7454 81b8 42be 91a9
00000100: da8c 2438 67e4 82b9 41f5 3738 8c4f 8bb6
00000110: 88d4 5137 23ca 62a8 e840 5536 20a2 a9b7
00000120: 85c8 71b7 c0b7 e337 075f ca37 1c34 b526
00000130: 8c0a b4b7 f036 0f39 e7c5 f437 6e74 5038
00000140: 2037 af38 ff44 2ba8 2974 10b8 13d0 6539
00000150: da68 c837 aa37 afb7 96c7 58b7 f2a2 1128
00000160: 9c48 8b37 6e96 ddb8 26aa ddb5 af91 07b8
00000170: 720d 43b8 e9e6 342a 4e68 c137 cad8 19b9
00000180: d9a6 acb6 de26 1a38 ba01 2d38 5b76 46a8
00000190: 4f2e eab7 bb47 3a39 de19 8b37 8956 31b8
000001a0: ba1c 4cb8 f61a a926 4f81 0338 7236 51b9
000001b0: 590c 8ab6 90b4 0436 bc4f 1336 0da3 e2a9
000001c0: 719f 79b5 4890 c636 d715 16b8 94e3 c338
000001d0: 78fc ea38 ce55 af29 44a3 93b8 d3e0 ea39
000001e0: 5070 a1b5 6c95 5938 086c 8538 1e41 07aa
000001f0: 0c56 1db8 b04e 7a39 1b31 be37 2a42 28b7
00000200: 68d4 6eb6 0da9 17a8 010e 0137 7950 4db8
00000210: 2051 97b7 f14d a537 30ee 8d37 2dd0 d828
00000220: b780 85b7 0764 d438 758d 7c37 64a9 9337
00000230: b7a7 0d38 c75b b5a8 8b5c 42b7 0d9b 9a38
00000240: c25f f5b5 7e28 9db6 f53a 0fb7 e6c7 3fa6
00000250: 60bd 6b36 2e85 bbb7 72e5 7736 6442 6e39
00000260: 57ff a439 d07d 0a26 a688 2cb9 253e 893a
00000270: c8d8 d3b6 c079 33b8 8436 8cb8 e126 3928
00000280: b0aa fb37 8030 48b9 e6f5 3bb6 d10e 03b8
00000290: c854 3bb8 0039 c729 1e73 bc37 35e7 15b9
000002a0: 5b6b 90b7 356a 6b37 1c0a 0737 fe04 7da9
000002b0: 0e55 37b7 1ed5 9138 c787 e9b5 adc7 dfb6
000002c0: 51ca 27b7 38f6 9127 9ac7 ae36 7f07 0bb8
000002d0: 181d 9a37 6811 6e36 5680 8737 f498 0caa
000002e0: 50a2 dcb5 1881 2f37 f029 a6b7 6004 7e38
000002f0: b07d 9838 eb4a 3328 3281 3cb8 66f2 9539
00000300: 9714 34b8 2bfb 0539 da5b 2039 c613 a926
00000310: 0058 c6b8 ffc5 1d3a ba03 45b8 6f14 a8b7
00000320: d1fd 4eb8 a215 322a 44de 3a37 29a5 94b8
00000330: 76a6 5135 55ac 1bb8 0ca4 43b8 0bc1 15a9
00000340: a41a e637 8d09 37b9 028c 4f33 3269 b9b5
00000350: 0cc4 c9b5 d5af e0a9 121e dd35 8de3 2fb7
00000360: ad1a 9db6 68cb 8537 037a 8537 707e 3d27
00000370: 3067 4bb7 42cc a138 e606 b637 d148 be37
00000380: 1ca2 4238 449e 18aa b488 4db7 2f7e a338
00000390: 08c5 a338 d89a b7b6 50f4 ec37 04ec 1328
000003a0: 941c db36 244b 2eb8 52ab 3ab8 8b80 9e38
000003b0: 80c2 9d38 eaf9 dda7 1c8f 72b8 d3f1 c039
000003c0: 23be 8d36 c000 abb7 d8b9 54b7 8a27 81a9
000003d0: 988f 8437 70e4 d2b8 e836 5737 cc2f a0b7
000003e0: 9abd 85b7 3e14 38a9 a7d1 7537 ae89 c3b8
000003f0: 3d51 7937 3c98 51b8 5426 83b8 c460 1828
-4.3684453e-05 0.00026917947 0.00034090044 -4.5112805e-14 -0.00019689748 0.0012529839 1.1671648e-06 -7.6812985e-06
-1.0781313e-05 -2.226014e-15 5.5018327e-06 -3.501166e-05 1.842049e-06 -1.7283542e-06 -2.1317578e-07 5.5337784e-14
1.7528959e-06 -1.11547915e-05 -2.784514e-05 7.192036e-05 7.843191e-05 -2.8544404e-14 -5.3474003e-05 0.0003402891
-3.206156e-06 -2.954976e-05 -4.1337684e-05 2.5379216e-14 2.1415583e-05 -0.00013628097 6.098103e-05 2.8557211e-05
7.447828e-05 -1.09336456e-13 -1.7039549e-05 0.00010843344 -2.7715687e-05 0.00010006662 0.0001164548 -1.2442722e-14
-7.4321404e-05 0.0004729543 -2.6717473e-06 -1.2576262e-05 -1.5517997e-05 -4.0464403e-15 9.381822e-06 -5.97025e-05
-2.305609e-05 7.028332e-05 8.309216e-05 -1.4213912e-18 -5.2090072e-05 0.0003314822 -2.7460263e-05 2.2377033e-05
1.4334784e-05 -7.032773e-15 -1.8119801e-05 0.00011530782 -6.0692093e-07 -5.2190124e-05 -6.16693e-05 -6.472298e-14
3.9231825e-05 -0.00024965705 4.385901e-05 -4.1517833e-06 1.2506855e-05 -1.2589352e-14 3.1777254e-06 -2.0221865e-05
-1.44114065e-05 2.7146074e-05 2.4124527e-05 1.2573522e-15 -2.1462583e-05 0.00013658009 2.9179222e-05 4.9699498e-05
8.354918e-05 -9.507368e-15 -3.4440458e-05 0.00021916656 2.3890683e-05 -2.0887546e-05 -1.2921073e-05 8.08445e-15
1.6603903e-05 -0.00010566121 -1.6515303e-06 -3.2322187e-05 -4.6504145e-05 1.6067325e-13 2.3055964e-05 -0.00014671977
-5.145423e-06 3.675266e-05 4.1248022e-05 -1.1016872e-14 -2.7916538e-05 0.00017765064 1.6582137e-05 -4.228068e-05
-4.8664144e-05 1.1734038e-15 3.1353262e-05 -0.00019952076 -4.114158e-06 1.9774634e-06 2.1951118e-06 -1.0064701e-13
-9.2991746e-07 5.9176564e-06 -3.5783127e-05 9.340714e-05 0.000112050155 7.786446e-14 -7.039917e-05 0.00044799465
-1.2028122e-06 5.187599e-05 6.3620566e-05 -1.2013001e-13 -3.7511854e-05 0.00023871171 2.2672632e-05 -1.0028985e-05
-3.55884e-06 -8.418841e-15 7.69226e-06 -4.8950755e-05 -1.803838e-05 1.9705827e-05 1.6919425e-05 2.40711e-14
-1.5914773e-05 0.00010127579 1.5053306e-05 1.7602644e-05 3.3773216e-05 -2.0134839e-14 -1.1584848e-05 7.372173e-05
-1.8281792e-06 -4.6836785e-06 -8.537191e-06 -6.653735e-16 3.512796e-06 -2.2354154e-05 3.6939423e-06 0.00022722181
0.0003147076 4.8048876e-16 -0.00016454104 0.0010470791 -6.3135267e-06 -4.2790314e-05 -6.6858745e-05 1.02779935e-14
3.0001014e-05 -0.00019091554 -2.8008303e-06 -3.1246633e-05 -4.4663233e-05 8.847263e-14 2.2464952e-05 -0.00014295879
-1.7216129e-05 1.403182e-05 8.048981e-06 -5.6181615e-14 -1.0927453e-05 6.953835e-05 -1.7399369e-06 -6.669163e-06
-1.0001081e-05 4.0512536e-15 5.208841e-06 -3.3147164e-05 1.8371778e-05 3.5474895e-06 1.6153015e-05 -1.2487564e-13
-1.6438516e-06 1.046087e-05 -1.980827e-05 6.0562394e-05 7.271336e-05 9.952741e-15 -4.4943015e-05 0.00028600096
-4.293452e-05 0.00012777436 0.00015293006 1.173209e-15 -9.457767e-05 0.00060185784 -4.697193e-05 -2.0036676e-05
-4.9350612e-05 1.5817081e-13 1.1138214e-05 -7.0879534e-05 7.81008e-07 -3.7115376e-05 -4.6644403e-05 -3.3252084e-14
2.7430542e-05 -0.00017455798 4.832328e-08 -1.381419e-06 -1.5032724e-06 -9.9781e-14 1.6474535e-06 -1.0483794e-05
-4.68207e-06 1.5949554e-05 1.5911652e-05 2.629756e-15 -1.2123768e-05 7.715124e-05 2.1699303e-05 2.2683673e-05
4.640418e-05 -1.3555221e-13 -1.2250781e-05 7.795949e-05 7.8091456e-05 -5.471851e-06 2.824716e-05 8.211317e-15
6.5300355e-06 -4.1554813e-05 -4.450541e-05 7.55797e-05 7.522572e-05 -6.161078e-15 -5.7830577e-05 0.00036801267
4.2242623e-06 -2.0385138e-05 -1.2679455e-05 -5.73561e-14 1.5802492e-05 -0.0001005613 1.28277825e-05 -1.9095743e-05
-1.5943126e-05 -4.0873765e-14 1.46519515e-05 -9.3239694e-05 1.4860471e-05 -4.9971262e-05 -6.253706e-05 8.458678e-15

exp_avg_sq f4 [128, 6]
00000000: af82 8933 3aa1 2634 b9f3 da34 e51a 3433
00000010: 3748 ae33 a08d 5c36 16aa b92e 930e 1d2f
00000020: b0f0 0f30 083b e02e c4cf 9e2e b1f9 4831
00000030: f6a2 b831 8769 8c30 1223 f631 18bb ae33
00000040: b3d2 1130 d989 b832 0eea e532 4e12 d732
00000050: 21d4 b333 7954 8b33 0a34 5e32 4299 0c35
00000060: 600c 6930 d0ba b730 b314 3631 537b 3832
00000070: 7262 4330 2042 f732 2fea 7d33 2fec bd32
00000080: 8790 bf33 e1aa de34 af86 4132 05e8 f434
00000090: d78c af32 c3f3 e832 7238 9033 4a01 9134
000000a0: 86f1 7332 d05a 1a35 86d1 b532 8f05 9431
000000b0: 2961 fb32 bb06 8f34 ccf0 1831 a78b c133
000000c0: 7d7a b231 da99 5532 c18e 0f33 cafa 352f
000000d0: 482b e031 acd7 8d34 bcc8 7531 f4e2 9831
000000e0: eeac 1332 f5a3 ba30 1147 1d31 b508 c733
000000f0: 4407 6e32 4518 fe31 436d dc32 c645 2f34
00000100: 3833 8531 6e90 2834 7d02 4032 92d4 8c31
00000110: 8864 0033 f702 8e31 d8c7 0d31 396c b333
00000120: 9e6b 8e30 f933 1e31 0fc3 9a31 8669 d02f
00000130: 7b4b a730 f7b5 5333 05ff 5232 f02c 1f32
00000140: 8fdc 1f33 befd 2831 0722 a331 ab71 4e34
00000150: 5cf4 c230 6ea9 1c31 d0d4 c531 2382 9830
00000160: 8428 a230 e535 4d33 5069 3e33 723c 2c32
00000170: 4770 8333 d572 4035 85cc b431 d4cc 6434
00000180: 228a 0331 2f0f 4231 9a6a ce31 e6c6 2a32
00000190: 5cd9 cf30 1a84 8333 1aaa 6331 372a c331
000001a0: f110 aa32 061e 612f 23a6 4a31 cd39 0034
000001b0: b044 9732 2490 1c31 9a03 fc32 1afc 4534
000001c0: d270 9f30 80c5 4933 0757 4a32 7ea9 a432
000001d0: 9410 7333 9712 c433 170a 2a32 232f d734
000001e0: 2182 bc32 a059 2932 8a7f 3333 4243 8034
000001f0: 2623 b131 9d2a 6034 40e2 1b31 1359 a830
00000200: 87b8 ea31 d87e 3f31 786e 2a30 2dae d732
00000210: 8d28 bf30 c4b6 ee30 0990 7c31 c4ff 7332
00000220: b506 7830 25f0 1c33 26e6 8031 9108 9f31
00000230: 9f89 2132 4ed7 9d32 7fe3 2531 75ee d133
00000240: b8d2 1a2e daea 492d df15 b22e 4d46 a72e
00000250: d0de d02c 8829 842f a307 e433 b986 0934
00000260: 6dcc fe34 bef4 9531 adaf 8d33 a14d 3336
00000270: 205f 7431 6a4e aa31 fb6c 8b32 bf9d 7831
00000280: d97b 2e31 f9ce dc33 d7cd 4332 24b5 8831
00000290: 8a1d ab32 936c 3e34 6cba 1131 256b b833
000002a0: 30c2 ca31 d8df 3231 4dd5 1532 db1a cf33
000002b0: 57e7 ba30 9c86 6c33 97a4 ee2e b8e2 292e
000002c0: 81d1 592f da53 3130 741a bd2d 394f 6f30
000002d0: d86a dc32 28aa ae31 fba0 2233 908e a634
000002e0: ce3b 3231 d38d e133 f454 7631 08b7 1832
000002f0: f177 ca32 7a39 be31 857d 9f31 9dd5 4934
00000300: 2106 4632 83f6 1e33 96a3 c333 d473 0331
00000310: d1cf a632 8519 5335 8b6f ab33 447b c532
00000320: ac1b f833 a3a9 9335 5227 4b32 7f8b 0035
00000330: 9557 9332 06b8 1d32 5ae1 a632 487a ad34
00000340: cc1a a431 7dac 4f34 188e 9332 b1ff 3f31
00000350: f9a0 e332 d1a2 6c34 9c3e c630 bae0 7a33
00000360: 2790 462f 5d6b 1b30 edb9 2230 1e07 b62f
00000370: 83d9 a32f de59 4f32 40aa 3e33 7e7d 8832
00000380: b73f b633 dd00 e034 94d2 0d32 d379 b334
00000390: 7b81 0333 a3ce 4832 0e39 9833 8d15 b933
000003a0: a7a6 cb31 15dc 8034 38cb 2e32 2f4a b232
000003b0: 33a0 3a33 dafd 5531 9728 3a32 3695 eb34
000003c0: d143 5932 adfc a531 7b34 ca32 d017 a333
000003d0: f2b0 2c31 428a da33 63fa 4c31 f2a4 df30
000003e0: 8a51 bd31 39a8 db32 43f4 6730 b8c4 1233
000003f0: fdb8 e030 0d0e a431 18ab 5932 272e af31
6.403331e-08 1.5518609e-07 4.0782996e-07 4.1933976e-08 8.115642e-08 3.2864991e-06 8.443039e-11 1.4284245e-10
5.2365134e-10 1.0196827e-10 7.221915e-11 2.9245764e-09 5.3736313e-09 1.0216333e-09 7.1635293e-09 8.1365386e-08
5.3050114e-10 2.1483105e-08 2.6765544e-08 2.5037618e-08 8.373923e-08 6.4880574e-08 1.2933933e-08 5.2377084e-07
8.478249e-10 1.3368098e-09 2.6496252e-09 1.073825e-08 7.1080486e-10 2.8784655e-08 5.911914e-08 2.21099e-08
8.92042e-08 4.1475053e-07 1.1264702e-08 4.5617358e-07 2.0436728e-08 2.7119205e-08 6.71579e-08 2.7009293e-07
1.4199378e-08 5.750162e-07 2.1166453e-08 4.307999e-09 2.9264429e-08 2.6640723e-07 2.2255788e-09 9.0126655e-08
5.194407e-09 1.2433214e-08 3.3424616e-08 1.6550952e-10 6.5241785e-09 2.6420219e-07 3.5766297e-09 4.449584e-09
8.595846e-09 1.357988e-09 2.2886903e-09 9.2682434e-08 1.3855075e-08 7.395132e-09 2.5661057e-08 1.6323528e-07
3.8766323e-09 1.5698762e-07 1.1176437e-08 4.0987027e-09 2.9893755e-08 4.133081e-09 2.0631798e-09 8.3550226e-08
1.0362446e-09 2.302157e-09 4.5041655e-09 3.7909959e-10 1.2172302e-09 4.9292762e-08 1.22815935e-08 9.265236e-09
3.722067e-08 2.4591453e-09 4.747793e-09 1.9226597e-07 1.4184809e-09 2.2797297e-09 5.7576486e-09 1.1096443e-09
1.1798567e-09 4.77793e-08 4.4333603e-08 1.0025461e-08 6.120586e-08 7.1692676e-07 5.2619407e-09 2.1308671e-07
1.9141528e-09 2.8239346e-09 6.0075083e-09 9.940527e-09 1.512301e-09 6.124192e-08 3.312954e-09 5.680046e-09
1.9798309e-08 2.0474297e-10 2.9489307e-09 1.1941957e-07 1.7609949e-08 2.2782922e-09 2.9338299e-08 1.8438769e-07
1.1600838e-09 4.6978585e-08 1.1777735e-08 1.9169189e-08 5.6592924e-08 9.130343e-08 9.8975965e-09 4.0081167e-07
2.1945256e-08 9.857473e-09 4.179268e-08 2.3890794e-07 5.155374e-09 2.0877128e-07 2.2684077e-09 1.2248925e-09
6.8312747e-09 2.786626e-09 6.2002625e-10 2.51085e-08 1.3908604e-09 1.7368724e-09 3.67527e-09 1.4202616e-08
9.0231406e-10 3.653999e-08 3.751455e-09 4.628483e-09 9.402725e-09 1.8375115e-08 2.4139977e-09 9.775696e-08
3.5202702e-11 1.1477675e-11 8.098388e-11 7.606769e-11 5.9364527e-12 2.404017e-10 1.06184665e-07 1.2808131e-07
4.7459926e-07 4.3642947e-09 6.5977794e-08 2.6718265e-06 3.5560745e-09 4.956566e-09 1.6231288e-08 3.6178418e-09
2.5390732e-09 1.02821964e-07 1.1397296e-08 3.9787142e-09 1.9920453e-08 1.7734628e-07 2.1206246e-09 8.587657e-08
5.9010503e-09 2.602965e-09 8.7214405e-09 9.6440736e-08 1.3599032e-09 5.507046e-08 1.0852224e-10 3.8627518e-11
1.9810466e-10 6.4511385e-10 2.149856e-11 8.7060276e-10 2.5659958e-08 5.083411e-09 3.7864975e-08 3.1023637e-07
2.5936404e-09 1.05031766e-07 3.5846002e-09 8.889181e-09 2.3570438e-08 5.536262e-09 4.641779e-09 1.8797296e-07
1.152651e-08 3.7011443e-08 9.110151e-08 1.912885e-09 1.9419447e-08 7.864076e-07 7.9830976e-08 2.2989873e-08
1.15534334e-07 1.1001724e-06 1.1825096e-08 4.788671e-07 1.715288e-08 9.180445e-09 1.9427421e-08 3.2312732e-07
4.7760746e-09 1.9341128e-07 1.7177669e-08 2.7939502e-09 2.649948e-08 2.2038445e-07 1.4424191e-09 5.841205e-08
1.8059208e-10 5.6541244e-10 5.9199473e-10 3.3110664e-10 2.980408e-10 1.2069419e-08 4.4392664e-08 1.5889551e-08
8.486625e-08 4.172388e-07 8.25516e-09 3.3429987e-07 3.0618576e-08 1.1688516e-08 7.08843e-08 8.618654e-08
5.9270238e-09 2.400199e-07 1.017434e-08 2.0755662e-08 4.34522e-08 3.1139877e-09 1.0835854e-08 4.3880726e-07
1.2646482e-08 4.830858e-09 2.353976e-08 7.5946105e-08 2.5129876e-09 1.0176565e-07 2.9828235e-09 1.6272266e-09
5.509894e-09 2.5571454e-08 8.4384427e-10 3.417219e-08 1.6350722e-09 4.7746256e-09 1.2669965e-08 5.0984172e-09

exp_avg f4 [128]
00000000: 1a69 1cba 53db 8b37 0f3c b236 eee9 29b9
00000010: 9c18 8838 a392 58b8 0a28 6cb9 727c ee37
00000020: 3284 25b9 8c4d 66b8 8851 f938 388e 2137
00000030: 1665 88b8 8dde dab8 2c09 5338 5285 9238
00000040: e368 b1b8 0a40 c738 ad1b 3db6 8eb1 5fb9
00000050: 5563 eeb8 9689 c337 e246 4ab8 553e 13b8
00000060: 3997 3237 17b5 02ba 17a8 be38 d3c3 8e38
00000070: 56e3 0ab8 ab68 8437 9425 a7b6 7bce 0eb9
00000080: aa42 96b9 1891 0d38 3e52 ae38 6083 a736
00000090: de17 1ab8 25b5 1bb8 60fe a537 c0c1 37b9
000000a0: 92d9 4838 fa39 3a38 dfd6 e838 aa96 1db9
000000b0: 8686 e1b8 fe62 c937 bcea 99b7 0b47 6eb9
000000c0: 0c74 bc37 24cd 1fb9 f1e0 7bb7 920f 4739
000000d0: 6ee5 f338 955b 1837 dc96 1637 9686 79b9
000000e0: a3f1 8237 7c82 5eb7 1214 8838 dcc2 8ab9
000000f0: 6ca2 3638 c292 3837 8a93 d2b9 1423 dc37
00000100: 3e9c 7639 049f 6635 0c11 e637 243a 58b8
00000110: d51a 0138 acc0 4ab8 478a 28b7 adf1 1db9
00000120: 1d0e b2b9 4786 b2b6 42ac 4038 30f8 03b9
00000130: 28f7 19b9 6e3e 9637 a043 32ba 0abe 0338
00000140: 90ca 2138 d82a 06ba 3c9d 8e38 094d 98b9
00000150: 403c 4037 8036 e7b4 a470 a139 6145 bb37
00000160: 4e2c 4138 6c0c 90b7 f00a 8db7 127e 93b5
00000170: 994f 5437 359d 0738 3f88 8c38 6495 10b7
00000180: b0d3 0c38 60fd fd38 5a98 0cb8 8642 c138
00000190: 2002 b036 6bd5 d937 a21c 8538 9ac7 c6b7
000001a0: 66ab c8b9 a882 1dba f015 c8b7 5e73 1339
000001b0: 3d8b a9b9 2b93 fa37 7650 d5b7 00df 7c38
000001c0: 7264 b337 e187 48b9 9c0e eeb7 51e4 2d39
000001d0: 4c10 b0b9 ec0f c238 6ce0 eb38 d78d de37
000001e0: 6254 aab8 be8f 8739 4cfc 04ba 8046 cc37
000001f0: 8624 4937 1ce0 ecb8 ed38 18b7 b4e4 9438
-0.0005966589 1.6672222e-05 5.311805e-06 -0.00016204242 6.489569e-05 -5.163498e-05 -0.0002252163 2.842976e-05
-0.00015784873 -5.4908494e-05 0.000118884316 9.629461e-06 -6.503814e-05 -0.00010436503 5.0314862e-05 6.986655e-05
-8.4595544e-05 9.500988e-05 -2.8179304e-06 -0.00021333082 -0.000113672264 2.330988e-05 -4.8226568e-05 -3.5105582e-05
1.0644836e-05 -0.0004986091 9.091215e-05 6.807563e-05 -3.3113487e-05 1.5784366e-05 -4.9813625e-06 -0.00013619095
-0.00028659898 3.375215e-05 8.312285e-05 4.992282e-06 -3.673869e-05 -3.7123584e-05 1.9787985e-05 -0.00017524417
4.7886344e-05 4.439985e-05 0.00011102645 -0.00015028814 -0.00010753893 2.4007164e-05 -1.8348328e-05 -0.00022723914
2.2465385e-05 -0.00015239842 -1.5013139e-05 0.0001898392 0.000116298776 9.081229e-06 8.975821e-06 -0.00023796628
1.5609729e-05 -1.3262612e-05 6.488724e-05 -0.00026466593 4.354345e-05 1.1001424e-05 -0.00040164246 2.6242378e-05
0.00023518593 8.5913075e-07 2.7426075e-05 -5.155256e-05 3.0780986e-05 -4.8339993e-05 -1.00457755e-05 -0.00015062718
-0.0003396132 -5.3204453e-06 4.5936795e-05 -0.0001258559 -0.0001468329 1.7910465e-05 -0.0006800238 3.140982e-05
3.8574042e-05 -0.00051180786 6.800375e-05 -0.00029049095 1.145812e-05 -4.3066757e-07 0.00030792237 2.2324444e-05
4.6056048e-05 -1.7171922e-05 -1.6813603e-05 -1.0989045e-06 1.26547175e-05 3.233292e-05 6.701098e-05 -8.617852e-06
3.357575e-05 0.00012111175 -3.352049e-05 9.215348e-05 5.245456e-06 2.5967796e-05 6.3472675e-05 -2.3696386e-05
-0.00038274674 -0.0006008544 -2.3852073e-05 0.0001406199 -0.00032337932 2.9870853e-05 -2.5429046e-05 6.0289167e-05
2.1385236e-05 -0.00019124105 -2.8378614e-05 0.0001658362 -0.00033581478 9.2536065e-05 0.00011247475 2.6530512e-05
-8.121949e-05 0.00025856303 -0.00050729956 2.4351524e-05 1.1989037e-05 -0.000112951006 -9.07316e-06 7.099789e-05

exp_avg_sq f4 [128]
00000000: 570c 4835 674a 3630 b261 a731 e20d ff33
00000010: 4645 e031 2a23 de33 1401 0c34 2e8d af32
00000020: c5a7 8033 a487 b432 85e4 1833 e1bd a232
00000030: 2a07 4032 2e40 3b33 ce21 3a32 4d87 4f33
00000040: f093 6e32 f29b e832 4403 3732 a62d c333
00000050: 6053 4b33 dfa0 c331 f158 0e32 fa69 be32
00000060: 07c0 6f2e 29a2 2235 a147 c832 e345 a732
00000070: 3589 5632 8f0f 592f 8895 cc32 d911 3733
00000080: 3779 3f34 3730 e933 c65d 3c33 b18d 6332
00000090: d812 3c31 35ca a233 5ac2 6933 3bae d533
000000a0: e338 c632 8d1f 0532 e310 c332 c076 4533
000000b0: e1dd 9a33 544f 2731 828d 9132 0efb 1434
000000c0: d1b1 6a31 b66c a333 2cf9 9f32 b6b5 b033
000000d0: 6e73 0733 9021 2932 7c1c 4732 ced1 1634
000000e0: 0bb8 1f30 8243 1930 e4fa 8532 3ca1 3334
000000f0: b3c2 0332 e77a 1032 a7d1 bd34 d014 ec30
00000100: 67fe 1b34 c185 272f 91b1 8431 feaf b231
00000110: bc2f 0132 e2bc b332 5ba0 b62f 1e28 ad33
00000120: 7405 9834 58f1 6630 0f65 0733 db8a 4633
00000130: 5eb3 ca33 b05c c930 2243 9435 c1b6 3933
00000140: 0786 0033 f8ba 2535 5bc5 e732 d3e7 5234
00000150: bdd0 712f a789 8932 eb51 4b34 5f65 5a32
00000160: 5798 4134 c19c b532 db02 a033 efc7 1b33
00000170: 971e 8e30 5d1d e133 7f43 5433 6b48 1133
00000180: ba70 0832 9cb0 2234 abcc 6832 46b4 e033
00000190: 89bd 1733 f516 2831 1af1 4e32 90ab 7b33
000001a0: a3f2 b734 8379 2d35 92a7 4531 2b5b 2e34
000001b0: d39a 7c34 8ccd 2433 7e83 7631 7292 9032
000001c0: 3e7d 7031 75b3 ca33 c04a ed30 2640 b033
000001d0: 82e0 9534 3c58 2e33 1952 1933 8841 0433
000001e0: cadc ed32 d7dc 6534 7edc 1f35 1838 9930
000001f0: 4ff5 6e30 2214 6233 e360 2932 0d5e 8832
7.452376e-07 6.6316946e-10 4.8714464e-09 1.1876888e-07 6.5271335e-09 1.0344077e-07 1.3038908e-07 2.0436882e-08
5.9909816e-08 2.101644e-08 3.5598095e-08 1.8945629e-08 1.11775e-08 4.35977e-08 1.0834311e-08 4.8319e-08
1.388706e-08 2.707927e-08 1.06527445e-08 9.0886985e-08 4.734045e-08 5.693536e-09 8.285711e-09 2.2167104e-08
5.4512863e-11 6.0585677e-07 2.3315637e-08 1.947314e-08 1.2487637e-08 1.9741563e-10 2.3816725e-08 4.262424e-08
1.7832359e-07 1.0858678e-07 4.3857447e-08 1.3245356e-08 2.7368312e-09 7.580494e-08 5.44263e-08 9.950278e-08
2.3076103e-08 7.748793e-09 2.2708667e-08 4.597564e-08 7.2115434e-08 2.4346791e-09 1.6944572e-08 1.3874907e-07
3.4152559e-09 7.6100534e-08 1.8623346e-08 8.228692e-08 3.153712e-08 9.844726e-09 1.1589801e-08 1.4046165e-07
5.8105404e-10 5.575701e-10 1.559733e-08 1.6729331e-07 7.669473e-09 8.409848e-09 3.5356535e-07 1.7177175e-09
1.4528051e-07 1.523608e-10 3.8618926e-09 5.20049e-09 7.519642e-09 2.0924237e-08 3.3219547e-10 8.0632375e-08
2.8316174e-07 8.401648e-10 3.152405e-08 4.6226756e-08 9.438985e-08 1.4651018e-09 1.1046398e-06 4.3239883e-08
2.992422e-08 6.1739365e-07 2.6981686e-08 1.9642111e-07 2.1992981e-10 1.6011496e-08 1.893565e-07 1.2712319e-08
1.8029947e-07 2.1142457e-08 7.4511e-08 3.627059e-08 1.0340554e-09 1.048272e-07 4.9421484e-08 3.3826307e-08
7.941873e-09 1.5151676e-07 1.3550713e-08 1.04636044e-07 3.532981e-08 2.4460267e-09 1.2045598e-08 5.8596527e-08
3.4262948e-07 6.4624345e-07 2.8762526e-09 1.623818e-07 2.3525654e-07 3.837117e-08 3.5872456e-09 1.6830402e-08
3.4995788e-09 9.439001e-08 1.7265265e-09 8.207307e-08 2.7916764e-07 4.059278e-08 3.5697756e-08 3.0793245e-08
2.7690835e-08 2.1407628e-07 5.9552974e-07 1.1148158e-09 8.69325e-10 5.2638036e-08 9.859124e-09 1.5875253e-08
