V1/results/3/MoveToGoal/MoveToGoal-500012.pt (torch, 441819 bytes, 36 tensors)

network_body._body_endoder.seq_layers.0.weight f4 [128, 6]
00000000: dce3 66be 116c 26be 503d a9be 16c8 9fbe
00000010: 45ec 51bd 4aae ac3e 5017 e83e 65a6 febd
00000020: 341e aabe f3ad 4dbf 3eb4 66bc 4040 fd3d
00000030: f86e 47be b635 453d 45f9 f33e 5735 03be
00000040: 3cef ec3c febd 753e 53f4 29bf f713 723f
00000050: 0227 1fbe 6896 103e c892 54be bbee 823e
00000060: e57d 2a3d b02f 1ebf dca9 bf3e 8263 fabe
00000070: 13f1 123e 529f 66be c9da bbbe a431 1a3f
00000080: 58ae 01be 2658 313e a621 06be 519c 843f
00000090: a087 fc3e 7a5a e73d 9cd3 4e3d cd46 e33e
000000a0: 6032 6e3e ec0c 593f 720b 9a3e f85b 9a3e
000000b0: 4e9a 633e faad cb3e da10 c43e 089c 953e
000000c0: 7355 bcbe 80dd e2bd ade2 31be 4b24 cc3e
000000d0: 69f6 f0be 267f e63d b48c 30bf 5045 7abe
000000e0: 34d9 eb3d eedb a7be 2ff2 593e 76f9 ce3e
000000f0: 95dd 65bd bbbb bf3e e355 38be 8e53 ddbe
00000100: 1661 c93d 37cf ffbe 5f6f 8f3e eb74 68be
00000110: 28ec f43e 39d2 103f 0d56 6bbf d005 adbd
00000120: 60cd 04be 0f26 f03d 8550 5c3e 8db9 06be
00000130: 62da 4cbe 225c c73e d58f f53e ee62 2d3e
00000140: 5898 bb3e 401a 9cbf 4bcd b3bd cc4a 5d3f
00000150: fe83 92bd b147 fcbd fea2 23bf d39f 4f3d
00000160: 368b c33d 0243 53bf eadc cfbe 67eb 23bf
00000170: 66a9 313f 6c77 15be 881d aabe c98c 01bf
00000180: d69a 9cbe 8fda e73d 7c5b e1be d616 af3e
00000190: 120c 933b 421b 15bf 889c 053e 10fe c33b
000001a0: 1b40 133f d636 57bf 1b40 4dbe 5cbb 0cbf
000001b0: b02c 2bbe 9b6c f0bd ba59 efbd 4b69 b23e
000001c0: ce31 f43d f476 3fbe cb75 9f3d bced 33be
000001d0: 1549 56bc bde3 e4be d72b f93e 8f92 aa3e
000001e0: dee7 553f 870a 73bf 265a 8b3d 40ba 8d3e
000001f0: d1c6 003f 4bcd 8e3f f0bf 8c3d f0e6 af3e
00000200: 053f b9bd 116d 873e 7dda ccbe 78e9 013f
00000210: ba2f 12bf 5f35 973e 259b debe 4c2f 513e
00000220: 97c6 c83d d0e9 273e 73b0 f73e 6e09 0cbf
00000230: 1c9d a53e 1a25 c93d db9e cdbe 3866 b3bd
00000240: 1f4d be3e 2874 6cbc 5318 163f b63b b23e
00000250: 3c55 393f 9c55 3cbf db6f 003e cdb2 113d
00000260: 3629 303d 2e12 9d3f 8b4f 8e3e f6f4 21be
00000270: ddeb 21be 2673 013f af95 23be 1d79 a5be
00000280: 7fba 303f f5bf 82be e780 023f d5db 693d
00000290: 81a5 1fbc 4bec c23e c95e 403f c634 f4be
000002a0: 89bc f1be 363f 33bc f40a ee3e 71ee 863f
000002b0: 6ffd 1f3f a50d 8cbe dfb3 abbe 73fb d13e
000002c0: 3767 2cbe f50c 21bd b7de 4c3d 3470 143e
000002d0: c958 8bbf 39a9 333f 25e7 61bf c91b 963d
000002e0: a848 09bf 9fec 0bbe 2b4d 51bf 1134 0e3f
000002f0: aded 86be e6f6 a43e ae73 2e3f cf9e d93e
00000300: 5aad c23d 9e9d 213f 0f3e 7b3e 7838 16bf
00000310: 21d8 c23e a0e8 e43e 61eb d23e 3298 a7be
00000320: 6651 09bf b209 803d 5f65 073d 92eb 99bd
00000330: 5c1b 7cbe 77c7 a33e 8061 06be b97a c23e
00000340: e01a 1f3e df94 713f c888 ab3b 5afb 9dbe
00000350: a841 f8bd 8923 583f 1030 bebe c349 df3e
00000360: 5f16 5fbf 4a01 0e3e 5b32 78be 7c03 60bf
00000370: 1136 eebe 4039 9cbe 53dd 93bc 2bdb b83d
00000380: b773 bc3d c857 dcbe 4a1a 3cbe 5ce5 963e
00000390: be8f 183f 6e40 0f3e 6538 b3be 50f1 0dbf
000003a0: 3c24 b7be ff79 ba3d 0a34 1f3f 423e c33e
000003b0: 3cb3 803d 3fa1 b9bd a327 923e 1475 663f
000003c0: 0253 79be 31c3 0cbf ca0b d3be e208 02be
000003d0: feec 66bd f3ad 9fbf bb04 4b3e 9816 8d3e
000003e0: 2132 9fbd e6f0 d0be ad16 523d a785 0cbf
000003f0: d811 0abf d291 d8be 99fd 323f e892 14be
-0.22547859 -0.16252162 -0.3305459 -0.3120734 -0.051250715 0.33726722 0.45330286 -0.12434081
-0.33226168 -0.8034355 -0.014081059 0.1236577 -0.19475925 0.048146926 0.47651115 -0.12813316
0.02892267 0.23998258 -0.66388434 0.94561714 -0.15542224 0.14119875 -0.20759118 0.25572762
0.04162397 -0.61791515 0.3743428 -0.48904043 0.14349775 -0.22521713 -0.36690357 0.60231996
-0.12664163 0.17318782 -0.13098773 1.0360204 0.49322224 0.11296554 0.050494775 0.44389954
0.23261404 0.8478534 0.30086857 0.30148292 0.22226831 0.3978117 0.38294107 0.29220605
-0.36783943 -0.11077404 -0.17371626 0.3987144 -0.47062996 0.112547204 -0.68964696 -0.24440503
0.115160376 -0.3278498 0.21283792 0.404247 -0.05611952 0.37447914 -0.18001513 -0.4322781
0.09832971 -0.4996278 0.28014657 -0.2270085 0.47836423 0.56570774 -0.9192818 -0.08448374
-0.1296897 0.11726009 0.21515091 -0.1315672 -0.20005181 0.3893748 0.47961298 0.1693227
0.36639667 -1.2195511 -0.08779391 0.86442256 -0.07154082 -0.123183616 -0.6392058 0.05068953
0.09548037 -0.8252412 -0.40598232 -0.6403107 0.69399107 -0.14596337 -0.33225656 -0.50605446
-0.3058688 0.113209836 -0.4401511 0.3419711 0.004487523 -0.5824472 0.13047993 0.0059812143
0.5751969 -0.8406805 -0.20043986 -0.5497339 -0.16716266 -0.11739465 -0.11687036 0.34845957
0.11923562 -0.18697721 0.07786139 -0.17571157 -0.013078948 -0.44705 0.4866626 0.3331494
0.83556926 -0.9493794 0.06804304 0.2768116 0.5030337 1.11564 0.06872547 0.3435588
-0.09045223 0.264504 -0.40010443 0.5074687 -0.57104075 0.29532906 -0.4347774 0.20428199
0.09803503 0.16397786 0.48376808 -0.5470189 0.32346427 0.0982153 -0.4016026 -0.08759731
0.37168214 -0.014431991 0.58630866 0.3481118 0.7239568 -0.7356813 0.1254267 0.03557091
0.04300805 1.2271173 0.2779506 -0.15816101 -0.15812631 0.5056633 -0.15975069 -0.32318965
0.6903457 -0.25537077 0.5097794 0.057094414 -0.009744049 0.38070902 0.7514463 -0.47696513
-0.47214153 -0.010940364 0.46492732 1.0541517 0.62496084 -0.2735416 -0.33535668 0.41012153
-0.16836248 -0.039318997 0.050017085 0.14495927 -1.088647 0.7018009 -0.88243324 0.07329518
-0.5362649 -0.13664483 -0.81758374 0.555482 -0.26353207 0.3221962 0.68145263 0.42503974
0.095057204 0.6313113 0.24535392 -0.58679914 0.38055518 0.4470873 0.41195205 -0.32733303
-0.5363983 0.06251849 0.03305566 -0.075156346 -0.24619812 0.31988117 -0.13123131 0.37984255
0.15537596 0.94367784 0.0052348115 -0.3085583 -0.12121898 0.8442922 -0.37146044 0.43610963
-0.8714351 0.13867679 -0.24237959 -0.87505317 -0.46525624 -0.30512428 -0.018049872 0.09026178
0.09201758 -0.43035722 -0.18369403 0.29471862 0.59594333 0.13989422 -0.35003963 -0.5544634
-0.35769832 0.091053 0.6218878 0.38133436 0.06284186 -0.090639584 0.28545865 0.900224
-0.24348071 -0.5498534 -0.41219932 -0.12698701 -0.056378357 -1.247496 0.19826023 0.275563
-0.07773233 -0.4080879 0.051291157 -0.5489144 -0.5393348 -0.42298752 0.6991821 -0.14509165

network_body._body_endoder.seq_layers.0.bias f4 [128]
00000000: 3ec1 43bc 036c 03bb 5dee acbc e4d4 343b
00000010: 6123 5c3c 0d39 56bc 704b 47bc 7580 22bc
00000020: c38f 073d f210 cf39 beed f6bb 9340 183c
00000030: b7da b03c 2c32 c73c b778 243c 55d1 043c
00000040: d246 4bbc 8d51 b0bb 12b3 07bb 2642 963b
00000050: e933 ac3b 1b80 46bb 22ea efbb a2e6 503b
00000060: 4d7d 83bb 298f 5e3c 580d cf3b 8264 1fba
00000070: 5312 743c f87a daba 03f9 c83c ccfb 453a
00000080: e32e 43bb ec78 2f3c da92 e63a dc51 8b3b
00000090: d543 653c de75 883b 61b7 553c 3876 0cbc
000000a0: 663e 603c 9d40 eebb cabe 9ab9 4a45 00ba
000000b0: 9b96 7dbb b8f9 53bc bfac 6bbc 84ac 513c
000000c0: 0c90 4f3c ae86 5b3c 16f1 22bc 1235 b9bc
000000d0: 2f80 86bc 6468 d03b bc8f 563c 7299 cd3a
000000e0: 7df3 b93a 6498 02bb 1a9b 48bc 0b8c 05bc
000000f0: ad23 30bc 1d3f 783c 3303 c8bc 686e 683c
00000100: a02d 5a3b e624 e43b 8852 18bc 3b09 553c
00000110: 8739 753c 0a86 c6ba 9d2f 423b a15d 7ebc
00000120: 63c1 3c3c aa88 603c 590e 25bc a56c 5d3c
00000130: 2e76 3f3c 589a 61bc 8518 be3b dce9 b7bc
00000140: cb62 f6bb a1d1 babb 554e ca3a 6eea 103c
00000150: 8fd5 9a3c 1873 64bc bd1f 123b fe23 0cbc
00000160: b63a 42bc 3321 edbb a7fa 4b3c ce10 393c
00000170: ebdb 55bc 08d7 b03a d340 6c3c b1f0 493c
00000180: 5e61 a63b 740d 61bc b754 fabb 5e30 fa3b
00000190: 88e1 0abc 13bb 4c3c e52b 393c 3719 123c
000001a0: d801 293c e648 1d3c 36db 14bc 6a2d bd3b
000001b0: 2812 4d3c ce49 44bc f8e5 5f3c 263f 30bc
000001c0: 9bec 853c cb8f fe3b 99d4 dc3b e884 25bc
000001d0: 89c5 633c 22b9 72bb c86c 8e3b 2bcc 713b
000001e0: f106 c53c a019 26bc 062b 1fbc 4f31 ce39
000001f0: c7f4 553c 0307 623c f7cb 973c 9f22 06bb
-0.011947928 -0.0020053394 -0.021109754 0.0027592713 0.013436169 -0.013075125 -0.012163982 -0.009918322
0.033096086 0.00039494742 -0.0075356653 0.009292739 0.021588666 0.024315916 0.010038546 0.008106549
-0.012407022 -0.0053808154 -0.00207061 0.004585522 0.0052552116 -0.003028876 -0.007321612 0.003187575
-0.0040127398 0.013583937 0.0063187294 -0.00060803455 0.014896947 -0.0016668728 0.0245328 0.0007552474
-0.0029782585 0.010709982 0.0017591373 0.0042517018 0.013993223 0.0041644415 0.013044209 -0.008573107
0.013686752 -0.007270886 -0.00029515318 -0.00048931374 -0.0038694504 -0.012937956 -0.014384448 0.012797479
0.012668621 0.013398809 -0.009945175 -0.022608314 -0.016418545 0.0063601006 0.013095792 0.0015685989
0.0014186945 -0.0019927258 -0.01224401 -0.008151065 -0.010750693 0.015151766 -0.024415588 0.014186479
0.0033291355 0.0069624064 -0.009297021 0.013002689 0.014967329 -0.0015146148 0.002963043 -0.015525253
0.011520716 0.013704458 -0.0100742215 0.013514672 0.011685891 -0.013769709 0.005801263 -0.02245038
-0.0075191013 -0.0057012592 0.0015434722 0.008844955 0.01890066 -0.013943456 0.002229675 -0.008553503
-0.011854818 -0.0072366237 0.012449897 0.01129551 -0.013052921 0.0013491819 0.014419752 0.012325452
0.005077525 -0.013736118 -0.0076394933 0.0076351603 -0.008476622 0.012495774 0.011301969 0.0089171445
0.010315381 0.0095999 -0.009085467 0.005773236 0.012516536 -0.011980487 0.013665669 -0.010757243
0.016348174 0.0077686063 0.006739211 -0.010102488 0.0139020765 -0.0037036617 0.004346464 0.0036895375
0.024051161 -0.010137945 -0.009714847 0.0003932812 0.013058848 0.013795617 0.018529875 -0.0020467413

network_body._body_endoder.seq_layers.2.weight f4 [128, 128]
00000000: 3015 be3c 8778 e6bd 5654 8abd 2381 283e
00000010: 725b 14bd 5489 4c3d 8b81 c8bd 37f8 6fb9
00000020: c585 87bd 7e08 6dbe 5ffc 063e 3605 323e
00000030: 7d47 8bbd d2cf c83d cc33 ac3d a036 033d
00000040: 034e 693c 8c75 ae3d 3818 7a3c afe7 293d
00000050: 29ed 92bd dd44 963d e803 babc 42d4 143c
00000060: 3d8a 8cbe 64e4 d93c dab9 843d ce07 b6bd
00000070: 92d4 873d d888 4bbd c8e8 86bd 7e23 a0bd
00000080: ef16 b73d ad39 073d 4afc 2fbd beae d63d
00000090: 819c 1e3b f7e7 2dbd e8f0 d2bd a1cd 0abe
000000a0: d015 e93d 8406 20be 0138 47bd 7d59 80be
000000b0: 0c03 af3b 069a 9abd 4764 7f3c 34b8 22bb
000000c0: f306 bc3b cacf 653d 9630 aabd 8141 62bd
000000d0: 31fc 46bd 4519 73bd df3e 9c3d 8dbe 8cbd
000000e0: c08f 4e3e 2e58 86bb 4ee3 9e3d 2788 233d
000000f0: bc84 1b3d 5d20 a53c 0f86 08bd cdf2 893c
00000100: 3fab 5bbb 44bf 04be e1ee 1cbd c4b5 b03d
00000110: b22a a3bc af0c 333d 05fa 54bd 5003 273d
00000120: ea82 f1bc 8018 fc3c 0d1d 11be c429 703d
00000130: 1433 febd f341 6dbd 1a76 f0bd 180d 98bc
00000140: 282a 1cbe e464 0a3e 65f4 58bd 6e99 8e3c
00000150: e597 94bc 3422 8a3d c227 32bd 7612 58bb
00000160: 3ca7 04bc c96e 253e d212 cf3d c4ad acbd
00000170: 9a97 923d 4ab4 e4bd b2f5 68bc 1824 fbbd
00000180: de3e 1fbc fb37 f33d c8a8 d7bc 8358 823d
00000190: 7cb3 103e ea18 73bd 31fe 73bd 4a7b f8bc
000001a0: 1dd2 aa3d 27e2 b73c 6c85 a13d 79cb 76bd
000001b0: c675 18bd aac0 9e3d 6945 763d 28aa a8bd
000001c0: 9cb1 8a3d 9b94 623d 4c4b 153d 53eb aa3c
000001d0: 73e0 adbd 1771 b53c aa7e 813d b0ed 59bd
000001e0: 6129 97bc 5cd7 a23d 63a6 443d 43ef 02be
000001f0: f219 53bd 2298 ed3d 26ab a8bc 8e73 17bc
00000200: 192a d43c f9c4 d93d 9cf8 083d 843e 373c
00000210: b623 cb3c 7d0b 9d3c b8f4 dc3d 9f31 4f3c
00000220: 2bdb 94bd 0c3a 53bc d14a c4bd 872d 583d
00000230: b7a0 32bd 7533 fa3a 0b4b 45bd 57f2 663e
00000240: e4ce dabd 3a8d 063e ca2d 76bd 1438 91bd
00000250: 8a33 003e d681 2cbb f855 07be e5cc b8bd
00000260: b36b 4fbd cad7 22bd 9615 a0bd a667 32bd
00000270: 8feb f53c 081f 83bc 4dcb 19be 705a 103d
00000280: 85b4 bf3d b926 7dbd 6324 1c3d 11a7 fabd
00000290: 4bc4 25be 5b9e 313d 2a91 1d3d d178 993c
000002a0: ae12 aa3d 2663 1c3d 4b87 2fbd 1ad2 96bc
000002b0: f4cc 3e3e 5c1b c03d b338 2a3e fa0a c33d
000002c0: 0ac2 57bc d561 99bd 313b 8dbd c9ac 15be
000002d0: e87d 09be 79de b3bd 2a63 e1bc da82 a43d
000002e0: cc75 39be 5601 a93d c293 3a3b c341 ab3d
000002f0: 4984 783e af86 b6bc 1238 b9bc b8af 4c3d
00000300: 6f14 53bd a6c9 233d fe14 6cbe acf2 d4bd
00000310: 09e7 8ebd 6b36 443d 70fb 94bd 0748 3c3d
00000320: 265b 5abd 6875 f93d 8afc a2bd 2988 3fbe
00000330: 8c7e f23d 83f6 223e 4bad 7a3c 988d 2a3d
00000340: 16d4 99bd f001 00be efd2 9a3d 7f64 dd3c
00000350: 2323 2fbd 1119 dcbd 672e e4bd 6c94 ddbc
00000360: c309 483d 6d0e 953d 80ea 813d a75d 7dbd
00000370: e778 38bb a8ae 9c3d 8f1f 78bc 01e0 293e
00000380: d80e d73c 167c c43d 6df4 81bd c55a 26bc
00000390: 5140 77ba 9cbd edbd dcd8 ea3d 401a b9bb
000003a0: 4184 d8bd 64f4 c83d cfc6 6c3d 054e ed3c
000003b0: 7b83 253d 4b75 bdbd 721c a23d cc5a cf3d
000003c0: e47a 9c3d ffac a23c 02dc a4bc cd3c 1d3e
000003d0: 7c2d c9bd bce7 47bd f90f 1f3e 2fc3 1c3e
000003e0: e3dc 15bd 7d35 b63c 377e a23d 245c a83d
000003f0: 9524 90bd 6cf2 8d3d af2e fdbd 9081 113e
0.023203462 -0.112534575 -0.06754367 0.16455512 -0.03622002 0.049935654 -0.09790333 -0.00022885283
-0.066173114 -0.23147771 0.1318221 0.173848 -0.06800745 0.098052636 0.08408317 0.032034516
0.014239791 0.08518514 0.015264563 0.041480716 -0.07174141 0.073373534 -0.02270694 0.009083809
-0.27449217 0.026598163 0.06480761 -0.088882074 0.066323414 -0.04969105 -0.06587368 -0.078192696
0.08939921 0.03301399 -0.04296521 0.10482548 0.002420217 -0.042457547 -0.102998555 -0.13555004
0.113811135 -0.15627486 -0.048637394 -0.25068274 0.0053409394 -0.07548909 0.015587873 -0.0024829032
0.005738133 0.056106366 -0.08310048 -0.05523825 -0.048580352 -0.05935027 0.07629179 -0.06872282
0.20172024 -0.0040998673 0.07758199 0.039924767 0.037968382 0.020157034 -0.033330973 0.01683941
-0.0033518819 -0.12963587 -0.03831375 0.08628419 -0.01991782 0.043713268 -0.05199625 0.040774643
-0.02948137 0.030773401 -0.14171238 0.05863358 -0.12412086 -0.057924222 -0.11741276 -0.018560931
-0.15250456 0.13515049 -0.052967448 0.017407145 -0.018138835 0.06744805 -0.043494947 -0.0032969988
-0.008096512 0.16155542 0.101110116 -0.08431581 0.07157822 -0.111672 -0.014218735 -0.12262744
-0.009719579 0.11875912 -0.026325598 0.063645385 0.14130968 -0.05934993 -0.059568588 -0.030332226
0.08340857 0.022446705 0.07886776 -0.06025264 -0.037221693 0.077515915 0.06012479 -0.0823558
0.067721575 0.055317502 0.03644876 0.020864164 -0.08490076 0.022148652 0.063229874 -0.053205192
-0.018452348 0.07951233 0.04801024 -0.12786584 -0.051538415 0.11601283 -0.020589422 -0.009243859
0.02589898 0.10633273 0.033440217 0.0111843385 0.024797302 0.019170517 0.10788864 0.012646108
-0.072683655 -0.012892257 -0.095845826 0.052777793 -0.0436103 0.0019088822 -0.04816727 0.22553383
-0.106839925 0.13139811 -0.06010226 -0.07090774 0.1251966 -0.0026322505 -0.13216388 -0.090234555
-0.05063982 -0.039756574 -0.07816617 -0.043555878 0.03001955 -0.016006008 -0.1501896 0.035242498
0.09360603 -0.061804507 0.03812064 -0.12238897 -0.16188161 0.04336391 0.038468517 0.018734368
0.08304344 0.038180493 -0.042853635 -0.018410731 0.18632871 0.093802184 0.16623192 0.09523578
-0.013168821 -0.07489363 -0.068960555 -0.14616694 -0.13426936 -0.08782668 -0.027513105 0.080327705
-0.18111342 0.08252208 0.0028469418 0.083621524 0.24269213 -0.022281019 -0.022609744 0.049972266
-0.05153316 0.03998723 -0.23054883 -0.103978485 -0.0697766 0.04790346 -0.072745204 0.045967128
-0.053309582 0.121805966 -0.07958324 -0.18704285 0.11840543 0.1591435 0.015300105 0.04163894
-0.07511155 -0.12500739 0.07559764 0.02702546 -0.04275812 -0.107469685 -0.11141663 -0.027048312
0.048837435 0.07278142 0.063435555 -0.061856892 -0.0028148235 0.076505005 -0.015144243 0.16589357
0.026252195 0.0959398 -0.06345449 -0.010153477 -0.0009431886 -0.11608431 0.11467144 -0.005648881
-0.105721004 0.09812239 0.057806786 0.028967867 0.040408593 -0.092508875 0.07915582 0.1012474
0.07640627 0.019857882 -0.02012444 0.15355225 -0.098231286 -0.048804983 0.15533437 0.15308832
-0.036587607 0.022242302 0.0793423 0.082206994 -0.070382275 0.06931004 -0.1236242 0.1420958

network_body._body_endoder.seq_layers.2.bias f4 [128]
00000000: e7d2 213c d93a 3abc 86ca 083b 7cc4 7f3c
00000010: 90c1 673b 72d1 ca3a f8f7 cc3a c565 703c
00000020: e9c4 423c 043c 953a 207d 643c 9a54 d43a
00000030: 26de 52bc f970 333c 0132 10bc 2d32 653c
00000040: afca 18bc d6e4 753b f0ef 213b 4aeb 7a3a
00000050: 6353 023c 0e7c 50bb e1f1 673c 217c f4bb
00000060: 0a9e 833b 67ca 26bb e3da 7ebc 4321 ee39
00000070: 2ccf 86bc 20e3 dcbb 9563 06bc dd35 083c
00000080: 65d5 003c f071 fdba b1b8 063c 1655 5dbc
00000090: 42fd 1cbc 3a54 673c 6c24 a83b 46ba 423a
000000a0: e5d6 663c 6e33 eebb 5bee 0fbc c160 7ebb
000000b0: 7f45 9339 2e84 2cbc 11b4 c63b 7f7e 44bb
000000c0: 21c3 6b3c 0286 49ba 3052 793c 8bb3 26bc
000000d0: 2513 323c c854 efbb 99b0 4abc f3db 57bc
000000e0: 9827 383b abf4 2ebc 605f 1b3c 0f76 02bc
000000f0: 55a4 633c 640b 8f3c 8a44 59bb cdba 423c
00000100: cd82 833b e326 45bc d39b e73b 436e 693c
00000110: b640 38bc 712c acbb fbcd 4c3b 22c0 fa3b
00000120: 7c75 16bc 09cb e2ba b91c 853b 5d29 633c
00000130: bb60 353c f646 a8bb 9288 05ba 3a34 543c
00000140: a722 9a3b 0e5a 573c 4956 15bc d9a0 6d3c
00000150: 6873 58bc 6cfb 3e3c 2c4e 0abc 310b 613c
00000160: 62b8 3bbb a19c 38bc ebcc 813c ffa3 ea39
00000170: d1ae 7bbb f318 16bc f21a edbb fca6 36bc
00000180: 19a5 eb3b 162e 543c d34b fb3b b014 44bb
00000190: 653a 25bc 8c45 4a3c ac39 893c 54d2 54bc
000001a0: 1012 39bc 20f5 24b9 ca14 d0bb e525 3dbb
000001b0: ecf2 33bb 73cd 49bc e044 493b 15e5 323c
000001c0: ee2b 2c3c fc70 8e3a abf3 2eba 3a33 0bbb
000001d0: 27f1 953c 9aa6 6d3c 0a6f 623c c8be 0e3b
000001e0: 8a0a 503c 21c5 38bb 3c55 3fbb d595 203c
000001f0: 45d1 1d3c 2c09 42bb 0fe0 45bc d9d6 1c3c
0.009876943 -0.011366569 0.0020872667 0.01561081 0.0035363175 0.0015473797 0.0015637865 0.014672701
0.011887767 0.0011385684 0.013945848 0.001619953 -0.012870347 0.010952228 -0.008800984 0.013989014
-0.009325667 0.003752043 0.0024709664 0.0009571804 0.007954451 -0.0031812224 0.0141567895 -0.0074610864
0.0040166425 -0.002545023 -0.015555116 0.0004541968 -0.01645621 -0.0067409426 -0.008202453 0.008313623
0.007863377 -0.0019336324 0.008222745 -0.013509056 -0.009581866 0.014119202 0.005131295 0.00074282696
0.014089321 -0.0072693145 -0.008784856 -0.0038814994 0.00028089804 -0.010529561 0.006063946 -0.0029982624
0.014389784 -0.000768751 0.015217349 -0.010174642 0.010868822 -0.007303808 -0.012371206 -0.013174999
0.0028099772 -0.010678451 0.009483188 -0.007962718 0.01389416 0.017461486 -0.0033152425 0.011885357
0.0040133954 -0.012033197 0.0070681362 0.01424748 -0.011245897 -0.0052543213 0.0031250704 0.0076522985
-0.009183284 -0.0017302941 0.004062262 0.013864842 0.011070426 -0.0051354123 -0.0005093898 0.012951905
0.004703838 0.013144029 -0.00911481 0.014503681 -0.013211109 0.011656623 -0.008441489 0.013735578
-0.0028643836 -0.011267812 0.015844783 0.00044754145 -0.003840376 -0.009161222 -0.007235878 -0.011148211
0.007191312 0.012950441 0.007668951 -0.0029919557 -0.010084723 0.012345683 0.016751133 -0.012989599
-0.01129581 -0.00015731575 -0.0063501345 -0.0028861698 -0.0027458025 -0.012317049 0.0030711219 0.010918875
0.0105085205 0.0010867412 -0.00066738826 -0.002124025 0.018303467 0.014505053 0.013820419 0.0021781195
0.012697825 -0.002819367 -0.002919509 0.009801348 0.009632413 -0.0029607518 -0.0120773455 0.009572708

action_model._continuous_distribution.log_sigma f4 [1, 2]
00000000: a635 b8bd 5cc8 2dbd
-0.089946076 -0.042427406

action_model._continuous_distribution.mu.weight f4 [2, 128]
00000000: 1826 1fbc 5154 363c 49d4 333c cada c2bc
00000010: a89d 233c 4e22 043d 98e3 ac3c 79cc 9bbc
00000020: fde1 54bc bdb2 393d 5b38 b3bc 01f2 28bb
00000030: 485e d9bc 7d95 8fbc 62d1 9cbb 6a22 b7bc
00000040: 7483 673c fb5f a03c d8ad d0bc 4b2c f33a
00000050: b61b e53a 9901 513d 256d 16bd b10a c43c
00000060: 4683 9bbc c82a abbc 4834 a9bb 8dcc 6c3c
00000070: 4bd0 8bbc df98 ad3a 233f f6bb ed98 89bb
00000080: d339 1c3d 5ab9 4d3c e935 eb3c fae9 1a3d
00000090: a9b6 f03c 1e2d 58bd cacb 1ebc 10b6 c03b
000000a0: 17c4 06bd f5d1 90bb f46c c03c 3863 c13c
000000b0: ba47 8cbb 3bea 81bb 4f1b ef3c 4771 323c
000000c0: baf3 31bd ad5d da3a 926e 073c 7440 54bc
000000d0: 77cd 8fbc 737a 1f3d 5302 c33c 44a6 133d
000000e0: 3acd d4ba 10c6 d33a a230 a23a 584a 0bbb
000000f0: 3253 b6bc b17a f83b 049b b03c 5070 c6bc
00000100: 06d6 0ebc 97f4 133c 7f71 0cbc c6b5 10bd
00000110: 52fc ca3c 40ee a03c 1a61 dc3b 7e9a 263d
00000120: 3c49 c03c de0c b83c 6618 8abc 51c0 4abd
00000130: 536b fabb 00c3 b53c 763f 52bc 16bf 853c
00000140: d31c afbc 8024 a9bc 9df6 fdbb 0ef9 05bd
00000150: f61f c3bc 4f3e 0b3d 6c2f d4b9 5c38 f1bc
00000160: a6b5 ec3c 79cd 923c 6267 a8bc 7cf5 9f3c
00000170: b71c cabb f0e7 e83a 8fb3 113c 5634 d53b
00000180: afed b33c 7627 e7bc f93d 2ebd 7784 973c
00000190: c33e 9a3b ab94 ebbc 2023 15bd 6e16 393d
000001a0: 5209 ef3a 1b03 90bc 86d4 183c 03f3 de3c
000001b0: ee3f 573d 56eb 97bc bfd9 c0bc 3a90 a0bc
000001c0: 78c7 64bb f414 c9bc 4f73 003d 8835 103d
000001d0: 9f53 a23c 128e c0bc c473 30bd 41fc 543c
000001e0: c58b 07bd 3f5e 033d a7b4 babb 5af8 d4bc
000001f0: aedc 9dbc 1f55 0dbc 126e b33c 195c 64bc
00000200: 933f 0ebd 63c2 eaba afe5 4a3c 085e cfbc
00000210: 267b 9f3c c3e0 b23c e917 513c 52cf bdbc
00000220: 5927 6dbc 843c c03c b06f 06bc dc40 b4bc
00000230: 662a 823c 03ca 7bbd 02a3 623c fbd2 acbc
00000240: be05 ee3a 1df8 f13c 188a 5a3c c374 0d3d
00000250: 052e 4b3d 9142 ec3c 4409 eabb d330 083d
00000260: 346a 473c 580c c63c f35a 7bbc 1e61 0d3d
00000270: 404f 01bb 890c a03c 2f48 173c fb18 02bd
00000280: 00de 0b3b abb2 ca3c e941 4e3b 4037 963b
00000290: 69a5 443b b133 b0bc c0b9 30bc 3556 933c
000002a0: 71a6 c8bc ae3f 28bc e2c6 a23c 2d94 f63c
000002b0: 2e40 8bbc 8407 f1bb f61f febb 84d7 04bd
000002c0: e704 25bc d5fb 1e3d 65d5 3cbd 7ad2 3dba
000002d0: 3c14 7fbc 7b6a b7bc 118b 7d3b 4e59 383c
000002e0: cd89 a6bc df8d b33b 2e06 33bd e199 2c3c
000002f0: 3a63 c3bb 1200 ff3c 3cc1 18bc 136e c8b8
00000300: 971a 25bc 9c09 1439 71db 40bc 4e69 c0bb
00000310: 44e0 1f3a fdac ad3c 50fe 11bd a78e 843c
00000320: 2e3f 973c 3b98 45bc 043a 293b 5f2f 0abd
00000330: efe1 12bd 7a7f c7bc 2353 063d 7f58 053d
00000340: e941 bc3c 2dd8 b5bc 68b3 963c c962 30bc
00000350: 83f9 883c 4f2e 943c 975c 7ebb 3cf1 c73b
00000360: 2b7d c3bc d3a2 20bc 775b 6bbc 490b f83c
00000370: 6f49 8f3b 6b9c 51bb 59f5 8dbc e1c7 76bb
00000380: f0f3 ae3c d9db 0ebd e1c6 b63c 72e0 e1bc
00000390: 2100 a03c 9c11 1cbd 89a2 aabb 990f ee3c
000003a0: 85b3 4b3b c84d d53c 2307 a93c e8a7 0a3d
000003b0: cfae 3cbc 3784 613c 4143 fcb9 bbd1 023c
000003c0: 144b a43c 6200 973c 0692 df3c 8220 123d
000003d0: 317f 813c 9ec4 03bc c477 eabc 0bfe 313d
000003e0: 8b1e 84bb 7c98 a23a b070 1abb 8cbe 083c
000003f0: c83e 38bd b1d9 ad3c 991d d43b c9cb 8cbc
-0.009713672 0.011128501 0.010975906 -0.023785967 0.009986319 0.032259278 0.021104619 -0.019018399
-0.012993333 0.045336474 -0.021877458 -0.0025779011 -0.026534215 -0.017527336 -0.0047857026 -0.022355277
0.014130462 0.019577017 -0.02547352 0.0018552629 0.0017479572 0.051026914 -0.036725182 0.02393088
-0.018983494 -0.020894423 -0.005163703 0.014453066 -0.017067095 0.0013244412 -0.0075148507 -0.0041991384
0.038141083 0.012556398 0.02871223 0.037820794 0.029383974 -0.052777402 -0.009692142 0.0058810785
-0.03290185 -0.00441956 0.023489453 0.023606881 -0.0042810114 -0.00396469 0.029187826 0.010891265
-0.043445326 0.0016659998 0.008266108 -0.01295482 -0.017554028 0.038935136 0.02380482 0.036047235
-0.0016235479 0.001615705 0.0012374113 -0.002125403 -0.022256467 0.0075829853 0.021558292 -0.024223477
-0.008718019 0.009030483 -0.008571981 -0.035329603 0.024778519 0.019644856 0.0067254426 0.04067468
0.02347242 0.022467073 -0.016857337 -0.049499813 -0.0076421886 0.02218771 -0.012832513 0.016326468
-0.02137605 -0.020647287 -0.007750346 -0.03270822 -0.023818951 0.03399497 -0.00040471123 -0.02944582
0.02889521 0.017920243 -0.02055711 0.019526236 -0.006167974 0.0017769318 0.008892908 0.006506483
0.021963922 -0.028217059 -0.04253957 0.018495781 0.004707189 -0.028757414 -0.03641045 0.045187406
0.0018237031 -0.017579606 0.009328013 0.027215486 0.052551202 -0.018544834 -0.02354133 -0.019600023
-0.0034908932 -0.024546124 0.031359967 0.0352073 0.019815264 -0.023505244 -0.043079153 0.012999595
-0.03309228 0.032072302 -0.005697805 -0.02599733 -0.019270267 -0.0086262515 0.021903072 -0.013937973
-0.034728598 -0.0017910715 0.012383862 -0.025313392 0.019467901 0.02183569 0.012762048 -0.023170147
-0.014474713 0.023466356 -0.008205339 -0.022003584 0.015889358 -0.06147195 0.013832809 -0.021096697
0.001815967 0.029537255 0.013338588 0.03453518 0.049604435 0.028840335 -0.007142218 0.033249687
0.012171317 0.024175808 -0.015341508 0.034516446 -0.0019731075 0.019537227 0.0092335185 -0.031762104
0.002134204 0.024743399 0.003147239 0.004584223 0.0030005819 -0.021509023 -0.010786474 0.017985443
-0.024493428 -0.010269089 0.019870225 0.030099953 -0.016998377 -0.0073556323 -0.007755275 -0.032432094
-0.01007197 0.038814384 -0.046101946 -0.0007241141 -0.015568789 -0.022389641 0.0038687626 0.011251761
-0.02032938 0.005479559 -0.043707065 0.010534734 -0.0059627565 0.031127963 -0.009323414 -9.557246e-05
-0.01007714 0.0001411796 -0.011771069 -0.0058719283 0.0006098787 0.021200651 -0.035642922 0.016181303
0.018462744 -0.01206022 0.0025821934 -0.033736583 -0.03586 -0.024352778 0.03279413 0.0325551
0.022980647 -0.022197807 0.018396094 -0.01076574 0.016720539 0.018088488 -0.0038812512 0.0061017554
-0.023863396 -0.009804445 -0.014365069 0.030278819 0.0043727676 -0.0031984102 -0.017328905 -0.0037655758
0.021356553 -0.03487763 0.02231163 -0.027572844 0.019531311 -0.03810273 -0.005207364 0.029060172
0.0031082344 0.026038066 0.020633286 0.033851534 -0.011516287 0.013764433 -0.00048115294 0.007984574
0.020055331 0.0184328 0.02729131 0.035675533 0.01580772 -0.008042483 -0.028621562 0.043455165
-0.0040319613 0.0012405063 -0.0023565702 0.008346211 -0.044981748 0.021221967 0.006473255 -0.017187016

action_model._continuous_distribution.mu.bias f4 [2]
00000000: b068 63bc b3a7 17bc
-0.01387994 -0.009256291

exp_avg f4 [128, 6]
00000000: ad11 e039 603b 4038 ad68 b639 e841 033b
00000010: 1686 5537 6184 b03a 35fd 1a3b 3c52 e338
00000020: d5c7 e83a f664 9d3b 6705 0038 9faa 533b
00000030: 24b3 8cb9 26c5 b9b7 fe8c 4ab9 76fd 76ba
00000040: 70e5 c8b6 fe13 26ba 8902 dbba 5177 6eb8
00000050: 0e4d 9fba b13f 23bb 71c8 84b7 238a dbba
00000060: 373c c33b 85fb 9c39 eb3a 913b 221f 583c
00000070: ddc9 af38 6852 113c a822 3bb7 2a37 87b5
00000080: 97f9 0db7 0f65 3bb8 3a6c 98b4 f102 fcb7
00000090: 734b c4b6 6c92 00b5 c57a 93b6 4c3f b0b7
000000a0: 095b 0fb4 2805 6db7 1264 92b6 3451 a7b4
000000b0: 143e 7ab6 7414 a6b7 f315 07b4 d058 5fb7
000000c0: 482a e0b9 18ef e6b6 0f8c a2b9 0c71 a3b9
000000d0: 96f0 04b6 86cc 5bb9 46f4 cb3a 9215 8b38
000000e0: 5c19 973a 92bf 3d3b 4c56 9a37 342d ff3a
000000f0: 6a76 fe39 5ab3 e837 ce52 ae39 b655 993a
00000100: 3270 f936 0535 4e3a 4bc1 9038 badf c836
00000110: eb8a 5a38 9ed4 8a39 e7d7 e135 96b3 3a39
00000120: ecc4 7eb9 4b5f 48b7 9d06 46b9 28e7 15ba
00000130: 01db 73b6 8697 c9b9 a63c 493b c79e 2e39
00000140: e2c9 123b 0364 eb3b 2976 3f38 5047 9e3b
00000150: 1710 bb3a a7b6 c838 b2af 873a ff22 863b
00000160: 2a35 da37 a363 343b 8ebc 063a fc43 4737
00000170: 4373 8b39 20d3 45b7 c0e7 a0b3 6803 05b7
00000180: 1f93 5839 2998 9b37 7e43 6539 3aaf 6f3a
00000190: 3bf4 c236 6f2a 213a eabd 113b 0947 dd38
000001a0: 6150 d13a a810 953b 157e f237 1177 483b
000001b0: 32bf 95ba 66ce 2cb8 be51 5bba 31f1 ecba
000001c0: 36b9 40b7 6052 9fba be1a 673b 965f 5139
000001d0: 64d6 2d3b b995 123c 2e75 6e38 3121 c53b
000001e0: 86c7 6536 d819 e434 4d7f 2b36 715c 9d37
000001f0: f1fc ff33 289f 5337 ec50 0039 e9d7 ec36
00000200: 6edc be38 a812 a339 cea3 0436 944d 5b39
00000210: 63d1 d2ba 7f8e 6ab8 5d3b 95ba bde3 20bb
00000220: 32dd 82b7 ef5d d8ba b616 8f39 2cca f5b5
00000230: 580f 5639 2328 c8b8 92cd 22b5 4096 86b8
00000240: 0bf7 d8b7 a2c1 55b5 99b3 a3b7 6170 6139
00000250: f05d b735 3e96 1739 7156 6837 e44d 6135
00000260: 5446 2d37 d020 1d38 f19b 7f34 f74e d337
00000270: c3e5 bc3a 276d c338 5ea0 8a3a 3da4 7f3b
00000280: e6ee cf37 3ce5 2b3b c997 8a39 c99c 8fb5
00000290: e7c4 4939 4b1b bbb7 2b30 18b4 c49f 7bb7
000002a0: 03b0 8a38 6677 5f36 d50c 4438 8660 1539
000002b0: feff 7235 78e2 c838 c164 b2ba f00c 6fb8
000002c0: efe8 83ba 7934 24bb 8a8f 85b7 53d3 dcba
000002d0: a497 083b 9d63 1139 6c95 d73a ebec c93b
000002e0: e13d 2438 bcc6 873b fded 82ba 0173 e0b7
000002f0: d81e 37ba b110 9bba d440 fcb6 bc88 50ba
00000300: abb3 073b ab90 ff38 5c44 cb3a 1506 b43b
00000310: 686d 1238 4e19 723b 71bc 883a a197 4138
00000320: 8ef9 573a 8a94 0e3b 78f1 6737 83be bf3a
00000330: a8ac 19b8 d240 82b5 b85c f0b7 41af 3fb8
00000340: 79e9 9bb4 e9e3 00b8 d9f0 fd37 4d7b c935
00000350: df50 c037 7701 8d38 c161 e534 72a0 3d38
00000360: 8482 953b da05 8939 ae2f 5e3b e608 3b3c
00000370: 4421 9838 0087 fb3b 8b12 743b 60cb 5839
00000380: b809 333b 3f9d 123c 6e81 6e38 502b c53b
00000390: 4b38 7d3b 081d 4a39 7fc0 3c3b cf37 0b3c
000003a0: 4579 6238 fe38 bb3b 0e49 2434 98be 98b3
000003b0: ee9c 4534 f043 3736 6410 9532 4475 f635
000003c0: 2ecf 7e3b 0b2e 6e39 1f79 3e3b f2e9 213c
000003d0: 77b2 8338 8cbe d93b 0b4e 9d3a 6836 8638
000003e0: 58da 6d3a 712c 3a3b f26d 9737 865e fa3a
000003f0: 1a17 963a 72f2 9038 1534 523a 8047 463b
0.0004273778 4.5831664e-05 0.00034791735 0.0020028297 1.2727009e-05 0.0013467186 0.0023649458 0.00010839521
0.001775975 0.0048032952 3.052261e-05 0.0032297743 -0.0002683635 -2.2145523e-05 -0.00019316745 -0.0009421924
-5.9871745e-06 -0.00063353765 -0.001670913 -5.6854744e-05 -0.0012153701 -0.002490979 -1.5828964e-05 -0.0016749542
0.005958106 0.00029942035 0.0044320724 0.013191016 8.38225e-05 0.008869745 -1.1154138e-05 -1.0074339e-06
-8.462367e-06 -4.4678392e-05 -2.8390951e-07 -3.004211e-05 -5.8500386e-06 -4.789679e-07 -4.3952336e-06 -2.101031e-05
-1.3351031e-07 -1.4127501e-05 -4.362789e-06 -3.1165257e-07 -3.7289037e-06 -1.9798266e-05 -1.258084e-07 -1.3312514e-05
-0.0004275611 -6.8823683e-06 -0.000310034 -0.0003117401 -1.9809572e-06 -0.00020961658 0.001556047 6.632054e-05
0.0011527943 0.0028953296 1.8398416e-05 0.0019468428 0.0004853488 2.7740072e-05 0.0003324956 0.0011698517
7.4338395e-06 0.0007866177 6.902459e-05 5.9865097e-06 5.2104628e-05 0.00026479823 1.6826642e-06 0.00017805243
-0.00024296687 -1.1943116e-05 -0.00018885215 -0.0005718344 -3.6337299e-06 -0.000384506 0.0030706315 0.00016653082
0.0022398164 0.007183553 4.5647994e-05 0.0048302785 0.0014271763 9.570765e-05 0.0010352044 0.0040935273
2.6012382e-05 0.0027525208 0.0005139791 1.1877153e-05 0.00026598023 -1.1791271e-05 -7.492736e-08 -7.928211e-06
0.00020654172 1.8548295e-05 0.00021864285 0.0009143237 5.8100827e-06 0.00061479857 0.0022238442 0.000105513325
0.0015969389 0.0045491047 2.890736e-05 0.0030588547 -0.0011424778 -4.120022e-05 -0.00083663675 -0.0018077252
-1.1487215e-05 -0.0012155287 0.0035263742 0.00019967402 0.0026525492 0.0089468295 5.6852754e-05 0.0060159196
3.4239797e-06 4.2487113e-07 2.5555084e-06 1.8758905e-05 1.19203726e-07 1.26136365e-05 0.00012237177 7.0584833e-06
9.100964e-05 0.00031103683 1.976488e-06 0.00020914368 -0.0016084131 -5.5922657e-05 -0.001138549 -0.0024549805
-1.560021e-05 -0.0016507487 0.00027292006 -1.8312762e-06 0.00020414346 -9.544219e-05 -6.0648847e-07 -6.417604e-05
-2.5864245e-05 -7.9630456e-07 -1.9514746e-05 0.00021499537 1.3661902e-06 0.00014456452 1.3848404e-05 8.393238e-07
1.0327978e-05 3.7462276e-05 2.3805457e-07 2.5189931e-05 0.0014411736 9.318656e-05 0.0010576358 0.0039007806
2.4787569e-05 0.0026229164 0.000264345 -1.0699961e-06 0.00019242206 -2.2304846e-05 -1.4173627e-07 -1.4997964e-05
6.6131375e-05 3.3299088e-06 4.6741992e-05 0.00014245705 9.0524543e-07 9.578926e-05 -0.0013610349 -5.699409e-05
-0.0010063926 -0.002505569 -1.5921676e-05 -0.0016847647 0.0020842338 0.00013865386 0.001644773 0.006162276
3.9158276e-05 0.004143564 -0.0009989139 -2.6756434e-05 -0.0006985492 -0.0011830536 -7.5177322e-06 -0.00079549453
0.0020706456 0.00012186294 0.0015508044 0.005493889 3.4911005e-05 0.0036941352 0.0010432136 4.6156e-05
0.00082387857 0.0021756017 1.3824894e-05 0.001462892 -3.663884e-05 -9.70462e-07 -2.8653405e-05 -4.5701167e-05
-2.9040874e-07 -3.0729836e-05 3.0272104e-05 1.5011552e-06 2.2925842e-05 6.723677e-05 4.27257e-07 4.5210538e-05
0.004562678 0.00026135036 0.003390293 0.011415696 7.254121e-05 0.0076760054 0.0037242498 0.00020675128
0.0027319025 0.008948623 5.6864163e-05 0.006017126 0.003863829 0.00019275036 0.002880126 0.0084971925
5.399554e-05 0.005713581 1.5300267e-07 -7.1127204e-08 1.8404145e-07 2.730867e-06 1.7353337e-08 1.8362557e-06
0.0038880813 0.00022714601 0.0029063893 0.009882437 6.2798084e-05 0.0066450294 0.0012001408 6.399752e-05
0.0009073368 0.0028407837 1.80518e-05 0.0019101657 0.0011450977 6.911614e-05 0.0008018625 0.003025502

exp_avg_sq f4 [128, 6]
00000000: d8c1 c035 eadb db30 a08e 6935 3632 5a36
00000010: df5a 102f a24e c535 9a1d 9636 dc61 0032
00000020: 002e 1e36 24b2 7637 c235 2330 2014 df36
00000030: 39e1 1634 f7a7 1030 0816 8f33 230d 9835
00000040: 7530 492e ad7e 0935 1771 0637 5989 1232
00000050: c35e 9336 8dfa 8837 e73e 3530 f6ba f736
00000060: a05e 1f38 f775 9633 e68c a937 c286 1239
00000070: 04e1 c131 b57f 8438 bd4e 6830 afcf 332c
00000080: 2334 0330 742a b131 866b 6a2a 7034 2031
00000090: 0756 112e 8b90 522a 7a0d 9e2d 0269 e52f
000000a0: 16c6 9728 9472 4f2f df67 ea2e c0c0 022c
000000b0: 8930 a22e a664 8831 9e78 342a d8ab f630
000000c0: f78e e234 f9c9 a42f f8cb 8534 6bda 1835
000000d0: 2240 ca2d 4638 8a34 ecc2 3836 e8e0 8231
000000e0: c267 c235 95f2 f636 5660 a32f 5c4e 5f36
000000f0: 6c93 8f35 ff00 fe30 96a9 2035 992d 7836
00000100: c330 242f 366b e035 36c3 2b31 c1dc 882d
00000110: bf48 b930 6aad 1933 4c57 cb2b 0ff7 8a32
00000120: fecb 3633 2a07 be2e b11e cc32 d4cd 4634
00000130: 8486 032d 8dc5 b333 f53b 6037 29c5 f632
00000140: e763 e536 51c6 6f38 84a1 1e31 ead1 d837
00000150: fb05 8736 da67 3432 8c9b 1636 31d6 b737
00000160: 273f 7330 a93c 2637 8ee5 1a37 087a 8c32
00000170: bef3 a036 a2cc 1038 eb97 bf30 d4ef 8237
00000180: f774 4536 6f20 6331 3840 d335 8d24 d936
00000190: 73a8 8f2f bd5a 4436 031e 2c37 637d 7d32
000001a0: 0ea6 b636 cc53 f337 48fb a030 4f08 5c37
000001b0: c18e 0e36 6f13 2531 f436 9a35 3787 9a36
000001c0: 7577 4c2f 05bc 0b36 1495 1437 9352 b532
000001d0: a062 a336 622a 3638 1809 f130 dcb9 a437
000001e0: 9dcb 2f2d 0e3c 6c2a 3c7f b32c 53de 0030
000001f0: c083 aa28 1210 692f 2d07 2332 6366 e22d
00000200: 3821 b731 620e 6233 1a8e 152c 326a cc32
00000210: ab3c 3c37 d441 5232 6199 cb36 599b c437
00000220: 6112 8230 d9c8 3137 ecbd e233 ba6f 032f
00000230: 20d3 6933 1552 af34 71fa 672d 4789 1e34
00000240: 7088 d932 0ae0 d62f 6b3f 7232 03e5 a035
00000250: f7e3 542e cf7d 1135 26cf 432f 1d98 fc2a
00000260: 4db5 ce2e 8061 7d30 faa1 2729 a21f e52f
00000270: 571c 1336 0a37 e731 fdbf bf35 7444 7237
00000280: c147 2030 fb12 db36 2aec 3a34 6458 3b2f
00000290: 3c33 c633 5563 e134 fd1c 952d 89cf 4b34
000002a0: 8655 4f32 7bb4 ac2d 7ad0 ce31 7a1a 2733
000002b0: 1e1b dd2b 1e1b 9732 53ef 7a36 d525 a831
000002c0: a7cb 0b36 3c1c 1f37 9787 d22f bde0 8f36
000002d0: ecf4 3236 c3cd 0432 0c98 cd35 4a6b 8337
000002e0: a7e3 2d30 e9ac ed36 6b16 ad36 5337 9d31
000002f0: 891f 3e36 0fc7 1237 1536 c22f ccb9 8436
00000300: 2d42 5d36 7079 0c32 0a9c ec35 b537 8e37
00000310: 792d 3c30 319a 0037 b225 9235 794b e730
00000320: 0ecc 6435 ca46 6736 4102 192f a622 d135
00000330: 26ee e331 d318 f32c 0052 dd31 c8f1 6632
00000340: 00ca 182b d7d5 d031 b16b 0930 cb2b 8c2b
00000350: 674f 9b2f a903 0931 f24a b529 66cb 7730
00000360: db91 9837 d9d8 4233 a049 2237 3244 c338
00000370: 592f 8131 9592 3038 b3d2 7837 2166 0633
00000380: 04cc 0137 66a9 8438 9988 2f31 42ec ef37
00000390: b868 8b37 fa02 0233 7b68 1837 6190 7c38
000003a0: 9717 2731 7462 e437 b9ec fe2e 0692 2c2c
000003b0: 09bf c22e cb3f b231 87da 6b2a 352f 2131
000003c0: b911 5537 4aa9 0f33 70b3 e236 4c23 9238
000003d0: 795d 4131 c825 0438 c177 1535 522b fc30
000003e0: 587c c334 c75f 7536 d555 222f 08e2 dd35
000003f0: bfff 6236 4276 cd31 7a17 ec35 6ac0 4737
1.4361531e-06 1.599685e-09 8.700681e-07 3.2513758e-06 1.3129008e-10 1.4700529e-06 4.4737944e-06 7.472831e-09
2.357061e-06 1.4704219e-05 5.937545e-10 6.6482608e-06 1.4051774e-07 5.2625587e-10 6.662964e-08 1.1328706e-06
4.5745147e-11 5.1220815e-07 8.013353e-06 8.529548e-09 4.391973e-06 1.6329135e-05 6.5936806e-10 7.3829387e-06
3.799668e-05 7.006377e-08 2.021198e-05 0.00013973846 5.6426206e-09 6.318038e-05 8.4513e-10 2.5552717e-12
4.7731613e-10 5.1562044e-09 2.082068e-13 2.3312872e-09 3.304559e-11 1.8701895e-13 1.7968505e-11 4.172947e-10
1.6850274e-14 1.8867247e-10 1.0659539e-10 1.8581109e-12 7.375529e-11 3.9695633e-09 1.6029059e-13 1.7947697e-09
4.21998e-07 2.9974936e-10 2.4921587e-07 5.694225e-07 2.2993222e-11 2.5745447e-07 2.7531596e-06 3.809067e-09
1.4484324e-06 7.3596116e-06 2.9717978e-10 3.32752e-06 1.0697236e-06 1.8481215e-09 5.9851425e-07 3.698142e-06
1.4933037e-10 1.6720503e-06 2.499474e-09 1.5559444e-11 1.3481197e-09 3.5780808e-08 1.4448247e-12 1.6177664e-08
4.2560707e-08 8.641472e-11 2.3762682e-08 1.8515067e-07 7.476356e-12 8.371271e-08 1.33654e-05 2.8727827e-08
6.836362e-06 5.7166737e-05 2.3083837e-09 2.5846955e-05 4.0240097e-06 1.0500992e-08 2.2442282e-06 2.191504e-05
8.849263e-10 9.908495e-06 9.232563e-06 1.6353638e-08 4.796747e-06 3.4522855e-05 1.3940257e-09 1.5608886e-05
2.942337e-06 3.3051284e-09 1.5739415e-06 6.471359e-06 2.613124e-10 2.9259093e-06 1.0258987e-05 1.4755048e-08
5.443354e-06 2.9006878e-05 1.1712951e-09 1.3114956e-05 2.1242743e-06 2.4021707e-09 1.1489888e-06 4.6052987e-06
1.8596132e-10 2.0822056e-06 8.856197e-06 2.1108724e-08 4.86926e-06 4.3431653e-05 1.7537642e-09 1.9636871e-05
9.9928095e-12 2.0981846e-13 5.101612e-12 4.688207e-10 1.8930929e-14 2.1196936e-10 9.48948e-09 2.5738694e-11
5.3297775e-09 5.2632807e-08 2.1253056e-12 2.3797018e-08 1.1219799e-05 1.2238576e-08 6.067727e-06 2.343736e-05
9.463968e-10 1.0596786e-05 1.0558492e-07 1.1954074e-10 5.4441557e-08 3.2656013e-07 1.3186439e-11 1.4764838e-07
2.532417e-08 3.9085563e-10 1.41006735e-08 1.198758e-06 4.8405693e-11 5.4199785e-07 1.780874e-10 4.4869742e-13
9.400001e-11 9.217942e-10 3.722194e-14 4.1677334e-10 2.1921203e-06 6.729242e-09 1.4286485e-06 1.4440262e-05
5.830963e-10 6.528918e-06 1.7408516e-07 1.7038954e-10 9.229413e-08 4.198179e-07 1.6952212e-11 1.8981349e-07
1.2068432e-08 1.9634286e-11 6.01909e-09 3.8906798e-08 1.5710521e-12 1.7591045e-08 3.7392208e-06 4.8937445e-09
2.0831155e-06 9.483712e-06 3.829512e-10 4.287895e-06 2.666663e-06 7.730196e-09 1.5317942e-06 1.5666377e-05
6.3260547e-10 7.08328e-06 5.1584116e-06 4.575591e-09 2.8330562e-06 8.748625e-06 3.5326822e-10 3.955536e-06
3.2970086e-06 8.176684e-09 1.7628784e-06 1.695366e-05 6.845862e-10 7.665295e-06 1.0888818e-06 1.6828913e-09
8.523356e-07 3.4462887e-06 1.391607e-10 1.5581797e-06 6.633644e-09 6.9092314e-12 6.441269e-09 1.3442737e-08
5.428158e-13 6.0779075e-09 4.999335e-10 9.959753e-13 2.8250755e-10 1.9938204e-09 8.0510156e-14 9.0147123e-10
1.8187731e-05 4.5366367e-08 9.673095e-06 9.311027e-05 3.759777e-09 4.2098185e-05 1.4831009e-05 3.1292192e-08
7.7365e-06 6.3258034e-05 2.5543498e-09 2.8601036e-05 1.6618855e-05 3.027069e-08 9.084232e-06 6.0215945e-05
2.4315108e-09 2.7225564e-05 1.1592633e-10 2.452373e-12 8.856033e-11 5.1877342e-09 2.094801e-13 2.3455418e-09
1.2699916e-05 3.344875e-08 6.756214e-06 6.968397e-05 2.813833e-09 3.150644e-05 5.568109e-07 1.8347726e-09
3.6412052e-07 3.6563595e-06 1.4764308e-10 1.6531567e-06 3.3825488e-06 5.9797296e-09 1.7590203e-06 1.1906124e-05

exp_avg f4 [128]
00000000: 6098 afb9 a18f 52ba f235 2539 9f64 da39
00000010: 1e90 10bb 03b2 fa36 44c8 6b36 352e 5e36
00000020: a6a6 5a38 0cd8 fdb9 5221 4db9 fab9 39b8
00000030: 008a c838 b373 9dba 7572 33ba 9052 0436
00000040: f552 20b9 0e6b 47ba 5e7d 9e39 a219 c4ba
00000050: 3a84 52b6 5f28 5ab8 a83c d739 4ce2 8537
00000060: 92cb 16b8 7534 d2b6 6aff 2aba 404f 7a36
00000070: e3d5 c7b7 16ac db39 3511 87ba f271 4f39
00000080: a0d5 70ba 28be beb9 9537 0037 eca2 3cb7
00000090: b636 faba b323 c4ba ac3e baba be2b f5b4
000000a0: 6e9b d8ba c80f f9b9 d7a0 04ba f5b1 2d35
000000b0: a955 0339 5352 6439 5031 5f37 3616 08ba
000000c0: 6008 08b8 6f81 b5ba e8cb 1237 dce0 7c3a
000000d0: c5a4 d539 ee0f 0bba e7ae 1fbb 02e5 9ab7
000000e0: b0bf 2c3a 2c75 1437 bf26 9e38 f9ef 7db9
000000f0: 7673 79b6 9e7b baba 1e04 053a b482 02bb
00000100: ea5e 1eba a5e4 0f38 2cf5 9ab6 a00f 5fb7
00000110: 0259 84b8 cc12 cd38 bea8 6cb8 8fb9 4cb9
00000120: 1c04 83b8 30e3 18b7 0c0e 073a 9253 deb9
00000130: 5eb8 62ba 368a a738 4ef1 d2b6 f446 02b7
00000140: 4c5d 89b9 ddc3 5bb9 e23b 9938 16f2 3a3a
00000150: f3d6 a1b7 ad22 983a 9fff 98ba 2170 28b7
00000160: a442 8937 4c4d 4bba 8e58 bfba ced0 3fb9
00000170: d4a0 18b7 660e dab9 4030 b5ba 43ae cbba
00000180: 683d 4e39 6efd 9d35 0448 993a d49b 68b9
00000190: d106 0eba 94ab 37ba c7e8 61ba ade9 76b9
000001a0: 5637 29b9 c1f1 13ba db88 0e37 35e1 0ab7
000001b0: 10ee c5ba 5e07 5c3a c7d8 91b8 d39b ecb6
000001c0: be44 e3ba ac45 e0b8 fe36 53b8 9d7b 3db9
000001d0: 1b7b 54ba 7978 3dba 69aa 15ba 9456 4eb9
000001e0: d541 12b8 65c4 0f38 48b6 6038 e7f1 c2b8
000001f0: 0aae ddba ac39 0abb b3d1 c8b9 3701 043a
-0.0003349213 -0.00080322666 0.00015755722 0.0004165517 -0.0022058557 7.471304e-06 3.5134299e-06 3.3107474e-06
5.2130454e-05 -0.00048416888 -0.00019562736 -4.428064e-05 9.562448e-05 -0.001201263 -0.00068453635 1.971759e-06
-0.00015289693 -0.00076072 0.00030229514 -0.0014961252 -3.1369404e-06 -5.201285e-05 0.00041053188 1.5960213e-05
-3.5952376e-05 -6.2645945e-06 -0.0006523045 3.7299033e-06 -2.3822247e-05 0.0004189915 -0.0010304811 0.00019783506
-0.0009187106 -0.00036381301 7.642336e-06 -1.1243606e-05 -0.0019089791 -0.0014964252 -0.0014209352 -4.5666633e-07
-0.0016525814 -0.0004750474 -0.00050593674 6.4706484e-07 0.00012525044 0.00021774443 1.3303317e-05 -0.0005191298
-3.2432727e-05 -0.0013847778 8.749754e-06 0.0009646544 0.0004074929 -0.0005304803 -0.0024365725 -1.846487e-05
0.0006589843 8.848769e-06 7.541244e-05 -0.00024217357 -3.7171098e-06 -0.0014227515 0.0005074161 -0.001991433
-0.0006041365 3.43068e-05 -4.6180994e-06 -1.3295474e-05 -6.3108295e-05 9.778663e-05 -5.6423938e-05 -0.00019524082
-6.247332e-05 -9.112802e-06 0.00051519345 -0.00042405404 -0.00086486887 7.988924e-05 -6.2865793e-06 -7.765124e-06
-0.00026200188 -0.00020958432 7.3067626e-05 0.00071314105 -1.929279e-05 0.0011607014 -0.0011672861 -1.0039687e-05
1.6362705e-05 -0.00077553536 -0.0014598535 -0.00018292965 -9.097352e-06 -0.00041590928 -0.0013823584 -0.0015539605
0.00019668567 1.1771169e-06 0.0011694436 -0.00022183295 -0.0005417886 -0.0007006463 -0.00086177554 -0.00023547439
-0.0001613771 -0.0005643629 8.495724e-06 -8.277876e-06 -0.0015100855 0.0008393432 -6.954517e-05 -7.0514884e-06
-0.0017339212 -0.0001069413 -5.0357536e-05 -0.00018070494 -0.00081055023 -0.00072277297 -0.0005709292 -0.00019677944
-3.4870423e-05 3.4276763e-05 5.3575524e-05 -9.295699e-05 -0.001691283 -0.0021091504 -0.0003830321 0.00050355814

exp_avg_sq f4 [128]
00000000: 7240 c333 2cc1 dc34 f10f 0833 3826 f534
00000010: 511e 8336 2b89 1e2f 5549 4d2d de19 f42e
00000020: 9ec7 8832 dcfa 5c34 b414 de33 8084 8930
00000030: 15e6 b131 9d8f d635 5f81 2435 a092 8135
00000040: 124f 4234 7bbd 5935 4c47 0a34 8d02 a335
00000050: 7ca2 662d f948 ca30 bcee 2f35 71e2 1c32
00000060: c6f9 0f33 8cbc e22d adca d834 f1af 4932
00000070: 2b88 9530 0461 8e34 0833 eb34 cd57 8334
00000080: 6586 fe34 e1f4 ce33 d3a8 ce2f 7c36 752e
00000090: 9dbb 2e36 5d6c ed35 6501 e235 7581 1f2f
000000a0: 57c5 0236 4192 db33 23bf b234 2f3f 4a2f
000000b0: 25f2 4233 779c 2f35 0e61 6c2f 16d3 5435
000000c0: c4a6 7030 6813 a335 1876 0d30 a545 e235
000000d0: 6efc 4234 b800 0d34 0d1d 5636 c1d8 5732
000000e0: e81c d534 0677 ce2f dbc8 c833 30a3 b734
000000f0: 117b 4c32 ca81 0f36 b11f dc35 a72a 3836
00000100: 00bc 3634 1e0b c031 debf 1633 409c 942f
00000110: 5946 5231 af08 5432 3760 7e33 5fe2 8d32
00000120: 6942 2e31 7fbc d02e ae86 2335 092e d033
00000130: bccf 2135 63ea 9731 9160 962e 4fd3 aa2e
00000140: 219e 9b33 40b1 9433 0a0f f132 9990 3235
00000150: e898 2e2f c735 c135 8c7d 6e35 f0de f32f
00000160: c983 0531 a096 8134 c258 fd35 cc0e 0f34
00000170: e925 572f b738 bb33 f1c2 b435 0b80 1b36
00000180: d744 af33 9bad 2030 f043 0e36 e8a5 5134
00000190: 9506 2a34 9439 4435 980b 0035 cf5c ea33
000001a0: 510b 7d33 2499 ec34 9088 ed2f 6197 142f
000001b0: ff6f e835 b122 4a35 c7d1 4931 1a88 692e
000001c0: 43ea 0336 6490 4b33 ed97 5f34 949c 6933
000001d0: 3bcf 3c35 58da 8134 5da8 0934 85c6 9233
000001e0: 661c 1433 fd72 e134 eb6c 7b31 5c25 7932
000001f0: cb88 0436 a7d9 3836 a6d3 9d34 167d 9334
9.0921176e-08 4.1118744e-07 3.1679466e-08 4.5662614e-07 3.9076335e-06 1.4418748e-10 1.1669184e-11 1.110043e-10
1.592326e-08 2.0580359e-07 1.03414465e-07 1.0005721e-09 5.1775353e-09 1.598604e-06 6.128302e-07 9.653922e-07
1.8096424e-07 8.111453e-07 1.2878189e-07 1.2145189e-06 1.3110065e-11 1.4718174e-09 6.5539984e-07 9.131882e-09
3.352195e-08 2.5776957e-11 4.03806e-07 1.1739744e-08 1.0879878e-09 2.652015e-07 4.380929e-07 2.4464535e-07
4.7408972e-07 9.637166e-08 3.7591139e-10 5.5754942e-11 2.6037226e-06 1.7689414e-06 1.6838718e-06 1.4506958e-10
1.9486376e-06 1.02245856e-07 3.3294154e-07 1.839424e-10 4.5389374e-08 6.5420267e-07 2.1498556e-10 7.9283325e-07
8.754848e-10 1.2150094e-06 5.146332e-10 1.6858581e-06 1.8159491e-07 1.313191e-07 3.1905395e-06 1.2563931e-08
3.9695374e-07 3.7555753e-10 9.349761e-08 3.420514e-07 1.1902345e-08 2.1384208e-06 1.6400501e-06 2.7442964e-06
1.7018465e-07 5.5891993e-09 3.50991e-08 2.7032065e-10 3.059901e-09 1.23419985e-08 5.922649e-08 1.6517502e-08
2.5358082e-09 9.4922285e-11 6.0918217e-07 9.6941285e-08 6.0279467e-07 4.421325e-09 6.838364e-11 7.768241e-11
7.2465134e-08 6.9240286e-08 2.8062932e-08 6.6520585e-07 1.5879531e-10 1.4395272e-06 8.8844604e-07 4.435985e-10
1.9428958e-09 2.4137717e-07 1.8875801e-06 1.3323296e-07 1.9567604e-10 8.7181824e-08 1.346778e-06 2.317133e-06
8.1615944e-08 5.845437e-10 2.1199194e-06 1.9524998e-07 1.5834878e-07 7.3099477e-07 4.7700587e-07 1.0913356e-07
5.8916445e-08 4.406985e-07 4.3207082e-10 1.3514302e-10 1.7317942e-06 7.5301347e-07 2.9368594e-09 5.309895e-11
1.965688e-06 4.7395943e-08 2.0823764e-07 5.4391947e-08 7.033702e-07 2.4186988e-07 1.282037e-07 6.834765e-08
3.4484763e-08 4.199318e-07 3.658722e-09 1.4502202e-08 1.9749157e-06 2.7544827e-06 2.9397523e-07 2.7471896e-07
