V3/results/SpiderWalk/AgentTest/AgentTest-116736.onnx (onnx, 78270 bytes, 8 tensors)

network_body._body_endoder.seq_layers.0.weight f4 [128, 4]
000000 4e d3 34 3e 0c 44 b8 3d 87 64 d9 bd 1d ae 56 3f
       0.17658731 0.08997354 -0.10614877 0.83859426
000010 c1 fd 1c 3e 80 fb 73 3f e9 6d a7 3c 67 02 11 bf
       0.15331174 0.95305634 0.020438151 -0.5664429
000020 fa 6a 4b 3e ec d8 e0 be e5 56 42 3f d4 6b d3 bd
       0.19865027 -0.43915498 0.7591384 -0.10323301
000030 f8 e3 b7 3e 24 69 11 3f 44 15 6b 3e d6 0f 7b bd
       0.35916114 0.56801057 0.22957331 -0.0612944
000040 11 f9 53 3c e7 07 fc be fd cf f2 3d 8b 0e 4e bd
       0.0129378 -0.4922478 0.11856077 -0.050306838
000050 50 0e 2b bf 87 06 3a be f8 22 e1 3e f1 f4 37 3f
       -0.66818714 -0.18166552 0.43971992 0.71858126
000060 f2 32 49 bf c8 3f a2 3e 4c 6a 26 3f 8a d5 97 bd
       -0.7859336 0.31689286 0.65005946 -0.07413776
000070 3e ce 20 be 65 eb 00 3f 4c b6 9c 3e 08 99 ac 3f
       -0.15703675 0.50359184 0.3060783 1.3484201
000080 e2 32 b5 bc af 57 f2 bd e5 4c 01 bd 8b 9a ee 3d
       -0.02211899 -0.118331306 -0.031567473 0.116505705
000090 59 2c 07 bd 82 ab 41 be c5 89 eb bd 59 20 52 bf
       -0.033001278 -0.18913081 -0.11500887 -0.8208061
0000a0 8e 78 4e bd c8 0c 09 bf d6 c8 05 3f 83 6f fc bc
       -0.05040794 -0.5353513 0.52259576 -0.030814892
0000b0 9b 92 df be 3d c3 2e bf 49 7b e7 be 25 ae c1 3e
       -0.4366654 -0.6826666 -0.45211247 0.37828174
0000c0 7d 88 9e 3e 89 3d d9 bd b0 dc c3 3e e0 a5 60 bf
       0.30963507 -0.1060744 0.3825431 -0.87753105
0000d0 e8 87 32 be ab bf fc bd 55 fd c2 be 8c 76 16 3f
       -0.17434657 -0.12341245 -0.38083902 0.5877464
0000e0 9a 2b a5 3e f0 94 32 be dc 2c 16 3f 95 c3 b7 3f
       0.32259828 -0.17439628 0.586622 1.4356562
0000f0 b2 6b b6 3d aa 87 ff 3d 6b 77 99 be 83 44 4f 3e
       0.0890726 0.12477048 -0.2997392 0.20240979
000100 9f 5d 86 3e 35 b6 9e bd 67 61 d4 3e 8a 6c c7 3e
       0.26243302 -0.07749597 0.41480562 0.38949996
000110 9d 3b 83 3e d4 be b2 3d 13 d8 61 3e a8 0a 73 3e
       0.2563142 0.08727804 0.22055082 0.23734534
000120 17 8d 22 3f 77 a5 15 be 3d c5 61 bd 0a 94 8e be
       0.63496536 -0.14613901 -0.05511974 -0.2784732
000130 c0 39 a4 bf 56 df 56 be ed c0 3b 3e 43 6c 27 bf
       -1.2830124 -0.20983633 0.18335314 -0.6539957
000140 fa ac 0a 3f cf 11 33 bf 85 ea 45 3f 3c 13 e0 be
       0.5417019 -0.6994905 0.77310973 -0.43764675
000150 e9 c5 3e 3d 84 4a 8f be ed b6 d2 3d f4 a8 61 bf
       0.04657546 -0.27986538 0.102887966 -0.88148427
000160 68 60 97 3e 60 66 9d be ae 9e d3 be 73 e6 cc 3e
       0.2956574 -0.30742168 -0.41332 0.4001957
000170 72 ef a5 be d9 89 27 3f 4d 88 19 3d 5a ed 8a 3f
       -0.32409245 0.65444714 0.037483502 1.0853684
000180 5d 3d 2a 3f d8 59 62 bf 77 db 1e 3e 5d 24 9b be
       0.6649988 -0.8841834 0.15513407 -0.3030118
000190 83 2e 84 bf 1b 9d 1f be 27 a2 39 bf ae 4d 8f 3e
       -1.0326694 -0.15587275 -0.7251305 0.27988952
0001a0 df 06 70 3e 11 cc 43 bf 32 6c 35 bf 33 64 80 3e
       0.23440121 -0.76483256 -0.7086822 0.25076446
0001b0 02 c6 0a be fb ad 8b 3d df 49 85 be 8e b1 e6 bc
       -0.13552096 0.068202935 -0.26032922 -0.028160837
0001c0 ca b4 f4 be 7e e1 d1 3e 25 cd 28 bf d6 c5 9b 3b
       -0.4779418 0.4099235 -0.65938026 0.0047538085
0001d0 c8 18 5b bd 75 86 b8 bd ad 13 bc 3c 39 5f 33 bf
       -0.05349043 -0.09010021 0.0229586 -0.70067173
0001e0 ff ce 04 be 9b 2b 24 3e 23 ec 91 3d 26 b1 78 3e
       -0.12969588 0.16032259 0.07125118 0.24286327
0001f0 40 01 de bd 71 15 67 bc 77 ca f2 bc f7 64 7e 3e
       -0.10840082 -0.014104233 -0.029637558 0.24843203
000200 6b 6a af 3d 7a c9 21 3f 6b ff d1 be a1 b6 67 bf
       0.085652195 0.63198054 -0.4101518 -0.90513045
000210 00 32 43 be f1 33 39 bf c5 f2 99 3e 2b bb 0d 3f
       -0.19062042 -0.7234488 0.3006803 0.5536372
000220 d1 96 51 be 07 3c 88 3e 69 d8 33 be 99 fa c4 3c
       -0.20467688 0.26608297 -0.17563023 0.024045276
000230 ce 7a 66 3e b4 51 83 3c 54 4c db 3e 54 fe 42 bf
       0.22507784 0.01603017 0.4283167 -0.76169324
000240 1a 3e c1 3c f2 55 02 3f 0c 19 21 bf 6d 10 10 be
       0.023589183 0.5091239 -0.62928843 -0.14068766
000250 53 3c fd be b0 4b 50 be 72 83 69 3e a9 ad 0d bf
       -0.49460086 -0.20341372 0.22804049 -0.5534311
000260 4b 1c 88 3e 56 2e 0d be cd 46 3e 3e db 96 21 3e
       0.26584086 -0.13787207 0.18581696 0.15780203
000270 e7 f9 2f bf 17 6f 4c bf de 58 f3 be 61 66 19 3f
       -0.68740696 -0.7985701 -0.47528738 0.5992184
000280 de ce 46 be 82 d5 93 be 32 d3 7e bb b2 42 af bb
       -0.19414851 -0.2887383 -0.0038883206 -0.005348527
000290 da 3e 27 be 91 4a 97 be e7 34 72 3c 65 32 2a 3f
       -0.1633257 -0.29549077 0.014783121 0.66483146
0002a0 74 4b 4a 3c 9b 37 5a bd cf 6f 36 bf ee 9d 54 3d
       0.012347091 -0.053275686 -0.71264356 0.051908426
0002b0 29 bf ca 3d 86 60 c4 be 09 73 8a be b1 1a 29 3e
       0.09899742 -0.38354892 -0.2704089 0.16514088
0002c0 d7 3a 2d bf de b6 72 3e f8 e9 b7 3e 01 8d bd 3d
       -0.6766791 0.23702571 0.35920691 0.0925541
0002d0 ac fa ed be 96 99 6e bf 88 ef 00 3f df a4 ea 3e
       -0.4648031 -0.93203104 0.50365496 0.45828912
0002e0 fe d8 5a be f8 de 02 bf 70 a8 74 3d 49 d9 30 3f
       -0.21371838 -0.51121473 0.059730947 0.6908155
0002f0 d6 79 52 be 22 23 30 3e ad 3b 36 3e bd fe d6 be
       -0.20554289 0.17200902 0.17796202 -0.41991225
000300 08 b3 18 3f c9 cb 82 bf 23 eb 2a 3f f3 48 8d be
       0.5964818 -1.021844 0.6676504 -0.27594718
000310 a3 ad 18 3f 87 18 90 be dd 7c 84 3d 12 be e7 3e
       0.5963995 -0.28143713 0.06469128 0.452622
000320 c0 9e 92 be 0d 30 b8 be 66 fc 26 3e 61 10 05 bf
       -0.28636742 -0.3597416 0.1630722 -0.5197812
000330 b4 9d ee be ae ec 9d 3e 4d 9c 4c 3e 88 70 00 bf
       -0.46604693 0.30844635 0.19981499 -0.5017171
000340 03 1d 6b bf ed 5f d8 3e bf 58 a6 be 83 ec ad be
       -0.91841143 0.42260686 -0.32489583 -0.33969507
000350 14 73 be be f3 29 92 3d 97 cc ce 3d 98 d2 0c 3f
       -0.37197173 0.071369074 0.10097616 0.5500884
000360 eb d9 fb 3e f4 a5 5d 3f 89 21 66 3e c3 a7 26 3f
       0.49189696 0.8658135 0.2247373 0.65099734
000370 30 d4 09 3f ce 4e 36 be 40 e3 14 bf dc 46 69 3f
       0.538394 -0.17803499 -0.58159256 0.9112375
000380 8e 68 dc bd db ad 56 bf b3 81 58 3f 39 d5 01 bf
       -0.1076213 -0.8385903 0.84572905 -0.50715977
000390 61 f9 dd 3e da 64 93 3e 39 21 19 3f bc 9e d9 bc
       0.43354324 0.2878788 0.5981632 -0.026564948
0003a0 72 6f 38 be bf 06 b6 3e 05 f0 fb bd d4 c7 33 bf
       -0.18011263 0.35552022 -0.123016395 -0.7022679
0003b0 01 0e 53 3e 6e 57 af be c4 22 d4 3e 08 f2 75 3e
       0.20610811 -0.3424639 0.41432774 0.24018109
0003c0 d4 c0 2d 3e 11 6f 3b bf 22 4a 16 bf dd b9 71 3e
       0.1696809 -0.7321635 -0.5870687 0.23606057
0003d0 f6 23 65 be b5 26 88 3e 7c ef 0b 3e 9e bd e3 3d
       -0.22377 0.2659203 0.13665575 0.11120151
0003e0 7a ff ab bf c4 b4 5b 3f e8 41 82 bf af c0 46 be
       -1.343734 0.858227 -1.0176363 -0.1940944
0003f0 57 e3 d4 be 2e 8b c6 be a8 fa cf be 2f b3 ae 3e
       -0.41579697 -0.3877806 -0.40620923 0.3412108

network_body._body_endoder.seq_layers.0.bias f4 [128]
000000 7a 6d 97 b9 e6 b4 8f ba 55 87 c2 b9 eb de 11 ba
       -0.0002888253 -0.0010963946 -0.00037103394 -0.00055645284
000010 44 af 18 38 1e cc c4 b9 10 bf 1c ba 18 99 75 3a
       3.6402853e-05 -0.00037536112 -0.0005979398 0.0009368821
000020 8e 62 92 b8 ff 40 ea ba 10 ee a6 b9 c9 49 b5 b9
       -6.98018e-05 -0.0017872154 -0.00031839358 -0.00034577984
000030 d5 e9 85 b9 1e 60 42 38 a4 56 89 b9 73 82 c8 37
       -0.00025541955 4.634272e-05 -0.0002619523 2.3902603e-05
000040 4a da 27 ba bc 66 9f 3b a3 4e 33 ba 15 fd 4a ba
       -0.0006403072 0.004864542 -0.0006840026 -0.00077434006
000050 e2 d2 6a b9 43 33 ad b9 b5 02 28 b8 d9 3a 9d bb
       -0.00022394539 -0.00033035324 -4.0056842e-05 -0.004798275
000060 20 43 cf b9 9d 0b 29 ba 2a 64 6d ba 66 fc 0f ba
       -0.0003953213 -0.0006448569 -0.0009055758 -0.00054926274
000070 16 d5 54 ba eb f8 6c 38 91 70 3f 3b 60 3b 9f b9
       -0.00081189105 5.6498608e-05 0.0029211382 -0.0003037108
000080 19 b8 94 ba 04 76 d3 b8 a5 20 0a bb fd b3 80 ba
       -0.0011346369 -0.00010083246 -0.0021076587 -0.0009819266
000090 1e 6a 3b b9 0f c2 20 b9 f6 2c 55 ba 82 af bf b9
       -0.00017873241 -0.00015331082 -0.0008132005 -0.00036561122
0000a0 84 6a 36 ba 3d 02 83 ba 71 57 a4 ba 2a 08 2c ba
       -0.0006958621 -0.0009995174 -0.0012538267 -0.0006562496
0000b0 f8 f2 d1 3a 3f 27 94 39 7c 19 ff b9 5e ca 55 b9
       0.0016017845 0.00028258 -0.00048656377 -0.0002038865
0000c0 e2 ef 30 39 36 19 88 39 5f 4f c3 b9 09 e1 cd b9
       0.00016874031 0.00025958725 -0.00037252434 -0.0003926831
0000d0 8c 9f 50 ba e6 70 b2 bb 54 1e 8e b9 61 63 7b ba
       -0.00079583446 -0.0054455874 -0.00027106947 -0.0009589699
0000e0 79 b0 01 ba 0d 12 34 b8 04 a3 03 b9 d4 81 f5 ba
       -0.0004947256 -4.2932155e-05 -0.00012553862 -0.0018730708
0000f0 b7 bf 74 ba b9 fb 8a 3b bc ba 8d b9 43 9c 13 b9
       -0.0009336429 0.0042414335 -0.00027032744 -0.00014077224
000100 1c f9 ae b9 92 66 02 3b 6a ff 1d ba eb f4 03 ba
       -0.00033373467 0.0019897562 -0.00060271344 -0.0005033749
000110 40 63 53 36 2a ec ad ba 5c 0f 15 3a ae c8 37 3b
       3.1499221e-06 -0.0013269235 0.00056861877 0.0028043198
000120 07 df 91 ba 37 dd 5f ba d6 89 23 ba 2f e0 6c 3b
       -0.0011129089 -0.00085397385 -0.00062384957 0.0036144366
000130 59 71 36 b9 1f 5d 1d ba c7 90 4e b8 2d 91 bf 3a
       -0.00017399098 -0.0006002951 -4.924906e-05 0.0014615409
000140 41 4d 3b ba f8 56 1f b9 fd bd d2 ba c6 df 3f 3a
       -0.00071449956 -0.0001519582 -0.001607835 0.00073194166
000150 67 92 0f b9 a3 49 28 b9 2e 0b da 3a 54 4d 8f 39
       -0.00013692082 -0.0001604916 0.0016635412 0.000273327
000160 4f 0b 14 ba c3 a9 56 b9 19 a5 a2 bb c9 ca 1a ba
       -0.0005647437 -0.00020471872 -0.004963529 -0.0005904851
000170 47 71 95 3a 9f b8 ab 39 8e 94 f8 b9 05 3f b0 ba
       0.0011401557 0.00032753215 -0.00047412928 -0.0013446516
000180 04 fc 4a 38 9c a4 bf 38 64 89 4b bb 1b da 23 ba
       4.839526e-05 9.1382506e-05 -0.0031057233 -0.0006250457
000190 1d a4 9b ba 74 6e 00 b9 c3 60 8a bb 73 dd f0 39
       -0.0011874471 -0.00012248178 -0.0042229607 0.0004594136
0001a0 61 f2 97 3b 53 c1 dc b9 28 b3 b7 b9 76 56 28 ba
       0.004637048 -0.00042105708 -0.00035037962 -0.0006421575
0001b0 a2 73 9d b8 02 f8 5e 3a 24 22 bb b9 8d 02 2d ba
       -7.507882e-05 0.0008505584 -0.00035692856 -0.00065998064
0001c0 d0 28 13 39 cd a2 b3 ba c5 c1 ce ba 7c 8a a6 b8
       0.00014034216 -0.0013705135 -0.00157743 -7.9412916e-05
0001d0 c9 92 bd 38 4b f9 2e ba 0d ef a2 ba 86 ea b9 b9
       9.039563e-05 -0.0006674721 -0.0012430862 -0.00035460683
0001e0 31 8b dc ba 59 c2 9c 3b 07 46 9e ba 0b a9 13 bb
       -0.001682615 0.0047839102 -0.0012075313 -0.0022531177
0001f0 7c 32 77 bb 2d e1 97 b9 6e c3 e0 b9 65 e6 e9 ba
       -0.00377193 -0.00028968733 -0.00042870216 -0.0017845152

network_body._body_endoder.seq_layers.2.weight f4 [128, 128]
000000 4c 53 f9 3d f1 8f c3 3c fd 1d ac bd b8 6a 08 be
       0.12174091 0.023872348 -0.08404157 -0.1332196
000010 8a aa 07 3e 57 06 0e bd 5a c1 bc bd 77 ad 50 bd
       0.13248649 -0.034674015 -0.092165664 -0.05094668
000020 ca a7 8a bd 64 11 68 3d 02 a5 3f bd 90 61 dc 3b
       -0.067702845 0.05665721 -0.046788223 0.0067254975
000030 da 43 01 3e 02 3a d0 3d 97 5f 61 bd 2f 55 dd 3d
       0.1262354 0.10167314 -0.055022802 0.10807263
000040 5c 08 b3 bd 03 56 80 3e eb 44 cf 3d 3e d0 c2 3d
       -0.08741829 0.25065622 0.10120567 0.09512375
000050 c2 5b bc 3d 6b 04 cc bd ab aa 54 bb 7b 0b ef 3d
       0.09197189 -0.0996178 -0.003245036 0.116721116
000060 15 3a 8d 3d ec 76 27 bd 7a 66 6e bd e6 9b 51 3d
       0.06895844 -0.040884897 -0.058203198 0.051174067
000070 9c ed 1c bc d7 73 95 3d a5 a8 63 3e a1 c3 92 3d
       -0.009578135 0.07297485 0.22232302 0.071662195
000080 85 f1 e5 3c c9 4e c2 bc 46 97 f3 3d 80 b2 04 bd
       0.028069267 -0.023719208 0.118940875 -0.032396793
000090 87 5d 97 3d 43 b6 36 3e 6e 85 f2 3d b8 01 02 bc
       0.07390886 0.17842965 0.11841856 -0.00793498
0000a0 3c fb 67 be 4b 9e 0f 3e 46 df 84 3d 34 47 dd bc
       -0.22654432 0.14025228 0.064878985 -0.027011491
0000b0 77 f0 bd bd 65 0c 40 3e 32 67 59 bd 4e 5f 23 be
       -0.09274381 0.18754728 -0.05307693 -0.15954325
0000c0 ae 2e a0 3c e8 f7 9f bc 0a 55 b4 bd 0c 12 34 3e
       0.019553509 -0.01952739 -0.088052824 0.1758501
0000d0 8f c4 49 3c c6 e2 3f bb 5b 71 56 bc 7d ef 77 bd
       0.01231493 -0.0029279455 -0.0130885495 -0.06053113
0000e0 e3 a0 c7 3c 00 21 01 3e 9c 72 06 bc 64 cc 05 be
       0.024368709 0.12610245 -0.008206036 -0.1306625
0000f0 79 51 d6 3c f7 5c 54 3d 96 e2 5d bd 6a e4 b2 3d
       0.026161896 0.05184647 -0.054171167 0.08734973
000100 4b 7e 42 bd 67 cf 3c 3d 50 59 06 3e 04 94 89 3d
       -0.047483724 0.04609623 0.13120008 0.06717685
000110 0a c9 12 3e 77 c8 65 bc 8d 75 4b 3d 02 e8 6a 3c
       0.14334503 -0.014024845 0.049672652 0.014337542
000120 1c 5d 4d 3d 79 34 9a bd d6 92 9d bc 02 da 5e 3e
       0.050137624 -0.075295396 -0.019235056 0.21762851
000130 03 87 6e 3d ae 4f 20 be d1 17 88 bd a5 d0 e2 bd
       0.058234226 -0.15655395 -0.066451676 -0.11074952
000140 26 ab fc bd ed f1 03 3e 45 40 5f bd e6 20 d8 bd
       -0.123373315 0.12885256 -0.05450465 -0.1055315
000150 3e 14 65 bd 22 b7 83 3d 00 13 12 3e 65 00 8d 3d
       -0.055927508 0.06431414 0.1426506 0.06884841
000160 91 8f 43 3d 4d a4 fe 3d 51 35 e7 bc 99 23 4e bd
       0.047744337 0.12433682 -0.028223665 -0.050326917
000170 0e 5d c3 3c fb 76 f6 3d 89 74 14 3e ed 87 31 bd
       0.023848083 0.120344125 0.1449758 -0.04334252
000180 5f 24 14 3d e1 93 bd 3d c6 f4 83 3d ee ae 3e bc
       0.0361675 0.09256721 0.06443171 -0.011638386
000190 cb 8b f5 3c b3 28 6a bd 52 a6 5d 3d 96 1d ee 3d
       0.029973885 -0.05716772 0.054113694 0.11626737
0001a0 bf 50 f2 3d 79 53 4b bc 2d 0e 60 bd a5 ec 45 bd
       0.11831807 -0.012410038 -0.05470102 -0.048321385
0001b0 be bc d6 bc c6 66 0f bc 22 08 59 bd 30 a0 22 3d
       -0.026213046 -0.00875253 -0.05298627 0.039703548
0001c0 c7 c2 3b 3e ff 78 3e bd 2f d9 f6 3d 54 5b ab bd
       0.1833602 -0.04650211 0.12053143 -0.08367029
0001d0 05 c8 78 3d 64 3c 55 3d 06 ed 09 be 20 3f 6c bd
       0.06073763 0.052059546 -0.13469324 -0.05767739
0001e0 15 f3 9b bd 4f 6d 19 3d 4f c4 88 bd 82 04 80 bb
       -0.076147236 0.03745776 -0.06678068 -0.0039067874
0001f0 51 f5 aa 3c 1f 1b 7a 3d 0f 30 01 bd cc 90 ef bb
       0.02086893 0.06106102 -0.031539973 -0.0073109623
000200 b2 6a a2 3c fc 3b 6b bc 1b 85 3a bd 8d d3 e6 bc
       0.019826267 -0.014357563 -0.045537096 -0.028177047
000210 db 9a 0c 3e 46 18 7b 3e 85 85 0c bd 99 f4 49 bd
       0.13730948 0.24520978 -0.03430702 -0.049305532
000220 4f eb ea bd 70 6f ba 3c e5 fe b7 3a 1b b5 c6 bd
       -0.11470663 0.022758216 0.0014037756 -0.09702512
000230 9a 58 46 3d 5a 9f c4 3d be c5 44 3d fd 71 0e 3c
       0.04842434 0.096007064 0.048040144 0.008694169
000240 11 a2 49 3a c9 c3 86 bc 6c 9d 21 be 75 0a bf 3c
       0.0007691691 -0.01645078 -0.15782708 0.023320416
000250 1f 11 e3 bc a5 db 5b bc f5 9a f3 3d 72 44 b8 3b
       -0.027718125 -0.013419067 0.1189479 0.0056233937
000260 00 ab 22 be 6a c4 f8 3d 96 59 a0 3d 4c 0e 11 3e
       -0.15885544 0.12146838 0.07829587 0.1416561
000270 68 31 a0 3c 13 93 2b 3e 59 93 7c bd df 50 1e bd
       0.019554809 0.16755323 -0.06166396 -0.038651343
000280 51 2f 5b bd 17 05 4e bd 84 37 04 bd 54 a0 56 3d
       -0.05351192 -0.050297823 -0.032279506 0.052398995
000290 b0 5f 5f 3e c2 1d ab 3c 5f 0d de 3d 33 3e c7 bd
       0.21813846 0.020888213 0.10842394 -0.097286604
0002a0 4f 58 51 3d 2a 98 af be 11 c3 a4 ba 74 7b 6f be
       0.05110961 -0.3429578 -0.0012570341 -0.23386937
0002b0 f6 b0 b9 bc 8c 74 27 bc 94 9e 60 3e d1 b6 2b bc
       -0.02266739 -0.010220658 0.21935493 -0.010480599
0002c0 db ff 15 be 02 65 12 bd a8 44 8b 3d 77 41 36 3d
       -0.14648382 -0.03574086 0.068002045 0.044496026
0002d0 17 e4 8f 3d 13 cc e5 bc 13 5e 93 bd 44 ea 9a 3d
       0.070259266 -0.028051412 -0.071956776 0.07564214
0002e0 23 a0 ef 3c 2b 24 7d 3e 6e fe 54 bd e2 9a 69 bb
       0.029251164 0.24720828 -0.052000456 -0.0035645296
0002f0 d7 fb d5 bd 50 c1 0f bd 6e ee 58 bc 6e 3a 54 bd
       -0.10448425 -0.035096467 -0.01324044 -0.051813535
000300 f8 db c9 3d cb ec a8 bd 78 45 86 3c fa c7 32 3c
       0.09856409 -0.0824829 0.016390547 0.010911936
000310 7e de a9 bd c9 47 e6 bc 44 71 d6 bd 8f 81 16 bb
       -0.0829439 -0.028110402 -0.104708225 -0.0022965407
000320 ba 45 4b bd 48 08 26 bd 61 8d f3 3d ea 79 4c 3d
       -0.049627043 -0.04053524 0.118922 0.049920954
000330 81 b5 fc 3d cd 45 31 3c 3c f6 65 bd 46 97 07 be
       0.123393066 0.010819864 -0.05614303 -0.132413
000340 9d 53 b5 3b f3 0f 74 3d 3d 7c ce bc 0e 06 2f 3a
       0.005533649 0.059585523 -0.025205726 0.00066766224
000350 99 85 68 bd 32 ac 99 bd 00 74 d6 bd ff d1 6a bd
       -0.056768034 -0.07503547 -0.10471344 -0.057329174
000360 6f 3f 51 3e 7f 26 43 bd f3 88 29 3c 12 20 c0 3d
       0.20434354 -0.047644135 0.010347593 0.09381117
000370 65 91 81 3d 67 2b 25 bd 7e 0c 90 bc 64 b5 16 3e
       0.0632656 -0.040324595 -0.017584082 0.14717633
000380 40 99 5f 3d 1d 15 9f bd ee 5f 04 3e 5d 0e e9 bb
       0.05458951 -0.07767699 0.1292722 -0.007112308
000390 80 7c 9d 3d 20 37 b0 3d 83 33 96 bd 62 32 37 be
       0.07689762 0.08604264 -0.07334044 -0.17890313
0003a0 ba 6f 7c be 49 32 e8 3c d2 20 e1 bb 9a 5a a9 3d
       -0.24651995 0.02834429 -0.0068703676 0.08269234
0003b0 1b 9c 08 bc de c2 1b be ff 65 07 be b3 8f b9 bd
       -0.008338 -0.15211055 -0.13222502 -0.090606116
0003c0 46 0d 0b 3e e0 a5 0a 3e 40 ad 10 be 7f b4 6e 3c
       0.13579282 0.13539839 -0.1412859 0.014569401
0003d0 5d 35 08 be 7c 39 01 3e cc 1e 3d 3d 31 c0 29 bd
       -0.13301606 0.12619585 0.04617195 -0.041443054
0003e0 da ef b8 3d 63 4c 97 3d 79 33 2a be ef 6a fb bc
       0.09030123 0.073876165 -0.16621198 -0.030690638
0003f0 c2 cd aa bd bc 8a d6 bc f5 af 7e 3d b4 23 ba bd
       -0.083400264 -0.0261892 0.062179524 -0.09088841

network_body._body_endoder.seq_layers.2.bias f4 [128]
000000 b3 99 bb b7 3c b9 83 b9 d8 55 54 bb 5e a1 be ba
       -2.2363709e-05 -0.00025124277 -0.00323998 -0.0014543941
000010 3c e2 74 b9 91 5f 63 38 79 18 77 bb fa 1d 6a ba
       -0.00023353932 5.421002e-05 -0.0037703796 -0.00089308585
000020 bd 24 8b 39 44 c3 ae b9 b4 64 b5 b9 a7 3e 75 ba
       0.00026539518 -0.0003333335 -0.0003459804 -0.0009355344
000030 85 21 8d b9 c0 bb a0 ba ed 8a 40 ba 07 a1 02 3b
       -0.0002691859 -0.0012262985 -0.00073449203 0.0019932406
000040 a5 57 73 b9 82 2a 0d ba 68 f5 c0 b9 1f d2 2a ba
       -0.00023206936 -0.00053850573 -0.00036803936 -0.0006516296
000050 34 ce 3c b9 58 0b 01 ba 3a 90 55 b9 90 49 12 39
       -0.00018005894 -0.000492265 -0.00020366992 0.00013951049
000060 f0 7f a6 bb 60 90 52 bb f9 d6 df b9 b5 92 13 ba
       -0.0050811693 -0.0032129511 -0.00042694042 -0.0005629466
000070 20 ad 80 34 3f 1a 99 3b 4f 7c 21 b9 3a 4c 3e b9
       2.3967823e-07 0.004672318 -0.00015400465 -0.00018148209
000080 93 9e 8f 39 2f 08 92 b9 ff e5 0c bb 19 b5 0e ba
       0.00027393232 -0.00027853387 -0.0021499393 -0.0005443856
000090 98 a1 6a ba d7 b0 19 b9 82 04 82 3b 90 e0 95 39
       -0.0008950471 -0.00014657095 0.0039678225 0.00028586807
0000a0 d0 49 e7 36 b7 8d af b8 87 8c 85 b8 17 25 69 bb
       6.8929294e-06 -8.371047e-05 -6.3681095e-05 -0.0035575086
0000b0 78 74 1f ba d1 a9 e3 b9 20 8c 05 ba 4e c8 10 ba
       -0.0006082724 -0.00043423337 -0.00050944276 -0.0005523012
0000c0 04 ab 05 38 9f 99 0a 3b ee f5 d6 b8 98 db 89 b8
       3.186894e-05 0.0021148694 -0.00010250123 -6.5735716e-05
0000d0 bc fc 17 b9 35 7c 8e b9 90 9f 8a 3b f9 1b 0a ba
       -0.00014494633 -0.00027176892 0.004230447 -0.00052684505
0000e0 00 d2 ee b8 c7 c8 c3 ba b0 a6 33 b9 ae 5e f5 b9
       -0.0001138784 -0.0014937156 -0.00017132866 -0.00046800583
0000f0 a2 ec 12 b7 0a 35 8c b9 0c 40 1c ba 96 70 b1 ba
       -8.7573735e-06 -0.00026742398 -0.00059604715 -0.0013537582
000100 76 59 d4 b9 23 3f 76 ba d3 20 7f b9 21 fb 3f b9
       -0.00040502445 -0.00093935634 -0.00024330923 -0.00018308732
000110 1a 9b 55 b8 70 ab f4 b8 a9 d5 12 ba b0 ad f7 b9
       -5.0927607e-05 -0.000116667594 -0.0005601296 -0.00047240919
000120 89 60 33 3a 67 02 b5 b8 5d b7 f1 ba 2e 28 2f b9
       0.0006842693 -8.6312e-05 -0.0018441487 -0.00016704269
000130 9d 08 2e ba 04 88 85 38 85 ac d6 b9 9e af 1d b9
       -0.0006638857 6.367269e-05 -0.00040945798 -0.00015038109
000140 d9 0a 2e b8 dc 64 4a b9 e9 50 34 ba 20 1d 90 bb
       -4.1494935e-05 -0.00019301794 -0.00068785116 -0.004398003
000150 29 50 cb b9 e0 86 8d ba ba ff 7b b9 24 6e d4 b8
       -0.000387789 -0.0010797642 -0.00024032491 -0.00010129463
000160 08 68 63 ba a5 ca 0a 39 3f 0c 3a 3a 6f 78 4b ba
       -0.00086748647 0.00013236197 0.0007097162 -0.00077617815
000170 75 c9 54 bb cd 7b fc b8 49 22 87 3b dc 80 81 ba
       -0.003246871 -0.00012039356 0.00412396 -0.0009880322
000180 92 91 c1 37 db ca d2 b9 a7 c7 86 b9 72 cc ee b8
       2.307518e-05 -0.0004020546 -0.00025707224 -0.00011386805
000190 c8 92 52 bb d9 c8 ab b9 79 41 48 b9 25 cc 26 ba
       -0.0032130945 -0.00032765305 -0.00019097877 -0.00063628174
0001a0 3c 7c 10 ba c1 33 2c b9 c1 4b 8c ba 76 72 97 bb
       -0.00055116764 -0.00016422478 -0.0010703729 -0.004621799
0001b0 4b c5 d1 b9 0a f5 ea b9 48 6c 26 ba 89 99 22 3a
       -0.0004001058 -0.00044814526 -0.00063485326 0.0006202688
0001c0 41 ba 74 ba 9c 46 d4 38 71 65 2e b8 0c 37 11 3a
       -0.00093356153 0.000101221 -4.1579307e-05 0.00055395137
0001d0 1c e6 e2 b9 67 6c 06 3a 48 17 0f b9 db 90 36 ba
       -0.00043277524 0.00051278475 -0.00013646216 -0.0006964334
0001e0 6a 97 25 b9 74 ce 90 ba e5 ef a9 b8 42 70 e5 b9
       -0.00015792032 -0.0011047856 -8.103232e-05 -0.00043761922
0001f0 ae 57 a3 3a 42 3b ae b9 5e 3d 8f bb 5e f8 e3 b7
       0.0012462044 -0.00033232017 -0.004371329 -2.7176164e-05

action_model._continuous_distribution.log_sigma f4 [1, 4]
000000 37 0c 8a 39 c0 2a 29 b9 a1 79 2f 3b 38 48 a4 bb
       0.00026330512 -0.00016133022 0.0026775377 -0.005013492

action_model._continuous_distribution.mu.weight f4 [4, 128]
000000 9a 6a b3 3c 41 ba fd 3b 48 ef 3b bb a6 2a 8f 3b
       0.021901418 0.0077431505 -0.0028676558 0.0043690978
000010 dd 5b 7e ba 10 ef ce 3c 4f ca c4 bc 8b 24 f5 3b
       -0.000970302 0.025260478 -0.02402225 0.007481163
000020 b5 98 ab 3c ee 0f 5e 3c c1 c6 07 bd 6c b1 fa 3a
       0.02094684 0.013553603 -0.03314853 0.0019126362
000030 83 2f 79 3c 89 10 34 bb 49 6b b1 bb f3 f0 9f 3c
       0.015209082 -0.0027475676 -0.0054144007 0.019524073
000040 b6 58 b0 3c e6 57 40 bc fc a5 0d bd 00 53 38 3c
       0.021526676 -0.011739707 -0.034582123 0.0112502575
000050 39 17 49 3c 1f bb db 3c 3f ef 8e 3b b6 92 25 3b
       0.012273603 0.026822625 0.0043620165 0.0025264448
000060 0a 1e fd bc ae 51 25 bd e1 2d cf 3a 52 c1 34 bc
       -0.030898113 -0.0403611 0.001580652 -0.011032419
000070 0b d7 c2 bc 6b ac db 3c fa d6 2c 3a 38 31 95 3c
       -0.023784181 0.026815614 0.00065933133 0.018211946
000080 a5 20 66 bc c8 34 87 3c c4 39 18 3b 40 52 95 3b
       -0.014045869 0.01650466 0.002322779 0.004556924
000090 60 27 47 bc 6f 3d c8 3c ff bc b2 3b dc 8c 98 bc
       -0.012155384 0.024443356 0.005454659 -0.018621854
0000a0 a8 44 19 3c d8 9c 33 bd e8 03 0b 3d 71 5b ea bb
       0.009354748 -0.04385075 0.033939272 -0.007152014
0000b0 9f c3 bb bb ce 71 37 3c 54 08 e5 bb f7 37 ee bb
       -0.005730107 0.011196567 -0.006989518 -0.007269855
0000c0 93 42 b7 3c 69 3b bc 3c 0d 1c 2a bc 71 ea 4c bc
       0.022370612 0.022977548 -0.010382664 -0.012507067
0000d0 0f 51 0b ba ff ae a8 bb 4d 38 19 3b 60 6c 0b bd
       -0.0005314508 -0.0051478143 0.0023379505 -0.0340389
0000e0 92 70 e8 bb fd f2 67 3c 7b 4a 01 3b 01 c3 60 bb
       -0.0070934976 0.014157054 0.0019728232 -0.003429592
0000f0 00 04 7e bc f7 62 61 bb 04 ae 0f bc 45 2f 92 bb
       -0.015503883 -0.0034391263 -0.008769516 -0.0044612014
000100 9d ad 8b 3c d7 e5 85 bc c2 38 58 bc 25 d1 9c bc
       0.017050559 -0.016344948 -0.013197126 -0.019142697
000110 8e b1 d2 3c 9a d9 ea bc cb 30 0f bd af 49 e0 3b
       0.02571943 -0.028668214 -0.034958642 0.0068447213
000120 ba 8b 85 3c 76 bb 62 bb 0b 0f 68 3c fa 72 2c 3c
       0.016301978 -0.0034596599 0.014163743 0.010525459
000130 9d 9a 05 3b d0 81 e2 3c b1 0c 48 3c fa c1 f7 bb
       0.0020386346 0.02764979 0.012210057 -0.0075609656
000140 7a be d2 3b 60 2f f3 3b 0a 83 85 bc e9 95 12 bc
       0.006431398 0.007421419 -0.016297836 -0.008946874
000150 be 71 85 bc e7 ca 37 3b 5e 5f bf bc cf 38 1e bc
       -0.016289588 0.0028044523 -0.023360904 -0.009657099
000160 f9 c3 48 3c 88 f9 cb 3c 17 a4 07 ba fd cd cf bc
       0.012253755 0.02489926 -0.00051742926 -0.025366778
000170 98 94 ca bc 96 d0 c9 3c 1f 2a 5b 3c f6 fc 8c bb
       -0.024729058 0.024635594 0.013376742 -0.004302616
000180 ba 15 70 bb b3 e6 ae bc 33 b7 b9 bc 11 1e c8 bb
       -0.0036634044 -0.02135024 -0.022670364 -0.0061071
000190 3a bb c0 3a 76 ab 89 3c 72 c2 d3 3c 79 ba 39 bc
       0.0014704235 0.016805392 0.025849555 -0.011335962
0001a0 ac 44 64 bc c0 b0 d4 3b da f1 da 3a ed a5 2f bd
       -0.013932388 0.006490797 0.0016704157 -0.04288285
0001b0 fe 43 94 3c d6 35 12 bc 4e 02 62 bc d2 41 92 3c
       0.018098827 -0.008923968 -0.013794495 0.017853651
0001c0 f2 0a 05 bb 56 e6 ba b9 09 ae 03 3d 2c a2 c5 3c
       -0.0020300713 -0.00035648298 0.032148395 0.024125181
0001d0 78 d6 ac 3b 20 d5 af 3b 13 3c 95 3b 71 43 60 3a
       0.00527459 0.0053659827 0.0045542805 0.00085549714
0001e0 47 51 04 3d 24 9b 86 b9 54 33 4d bb 99 b2 ce ba
       0.032304075 -0.0002567406 -0.0031311112 -0.0015769779
0001f0 36 16 9a bb 1a a1 84 bc ca be 9e 3b bf 76 89 bc
       -0.004702355 -0.0161901 0.004844521 -0.016780255
000200 b4 99 6b 3c c2 1a e9 3c 3c 3b 11 bb 0c 28 22 3b
       0.014379907 0.028455142 -0.002216055 0.0024743108
000210 35 2d 45 3c 78 3b 11 3c 4b 7a c8 3b 4c c8 61 bc
       0.012034704 0.008864276 0.006118094 -0.013780665
000220 52 c2 8a 3c 6d 20 39 bc 12 c2 ad ba d0 a2 3a 3b
       0.016938362 -0.011299235 -0.001325669 0.0028478391
000230 7f a2 9f bc 6f c5 a0 37 0d 2e e0 3c 48 5f 90 3c
       -0.019486664 1.9165424e-05 0.027365709 0.017623559
000240 5c ac cb bc 28 3b 8a 3b 10 34 c3 bc fe 6d f2 3b
       -0.02486246 0.0042184778 -0.023828536 0.007398366
000250 1f a2 45 bc 99 ca ba 3b 71 7b 28 3d a5 d8 0f 3d
       -0.012062578 0.005700421 0.041133348 0.035118718
000260 24 10 89 bc ed 2d 26 bc 9a c1 48 bc 3b 6f 19 bc
       -0.01673133 -0.0101427855 -0.012253189 -0.009364898
000270 95 2d 16 bd ab fa 73 bc 4f 5b 2b bb 27 02 7f ba
       -0.036664564 -0.014891307 -0.0026146953 -0.0009727799
000280 5b 70 b1 bc 59 1c 85 3a f1 a4 b3 3b d6 e2 77 3c
       -0.02166002 0.0010155543 0.005482309 0.0151297655
000290 f5 18 a5 3c 84 be 0a bc d5 68 af 3c c8 b1 d3 bb
       0.020153502 -0.008468274 0.021412292 -0.006460402
0002a0 17 70 af bc 12 42 d1 3c a4 52 25 3b ba ef b5 bb
       -0.021415753 0.0255442 0.002522626 -0.0055522593
0002b0 1f b7 d2 bb 52 7e fb 3b cf 39 d6 bb 67 6d 13 bc
       -0.006430521 0.0076749707 -0.006537653 -0.0089982515
0002c0 2e 2b c3 bc c0 14 ce 3c 27 73 a5 3c 07 33 32 3c
       -0.0238243 0.025156379 0.02019651 0.010876424
0002d0 ed 09 dd bc 1a 78 f3 3c 19 92 a9 bc 50 b6 98 3c
       -0.026982272 0.029720355 -0.020699548 0.01864162
0002e0 a3 1a 24 3c 59 86 94 bc e4 88 45 bc fd cb 19 3c
       0.010016116 -0.018130468 -0.012056563 0.0093870135
0002f0 35 12 2b 3c f2 79 7b ba ed 0c 13 bc 2a e5 34 3c
       0.010441353 -0.00095930614 -0.00897525 0.011040965
000300 3c db b8 bb 49 26 59 bc d9 69 ce bc fa d8 bb 3b
       -0.005641369 -0.013253757 -0.025196956 0.0057326527
000310 e6 d6 ef bc 88 65 f3 bc 06 1f 08 3b 29 d4 07 3c
       -0.029277276 -0.0297115 0.0020770445 0.008290329
000320 68 56 84 bb 9b 09 7b 3b 24 f7 e4 bb 77 e4 e9 bc
       -0.0040386207 0.0038305286 -0.0069874693 -0.028551323
000330 40 6f 8d 3b 25 09 76 3c 56 cc 34 3c d2 43 da 3c
       0.0043162405 0.015016829 0.011035046 0.026643667
000340 99 92 8b 3c 19 18 07 3d a0 63 67 bc 99 d7 ac bc
       0.017037677 0.032981966 -0.014122874 -0.021098899
000350 d0 20 5a 3c 3f 03 83 3c ae 49 d1 3c 11 72 45 3c
       0.013313487 0.015992759 0.025547829 0.012051121
000360 17 4a 83 3c d7 ba 99 3c 4c db cf 3c 1f 77 bc ba
       0.01602654 0.01876585 0.025373124 -0.0014378763
000370 4e 63 95 bc a2 d8 f4 3c 1b 9e a4 bc a3 b7 9b bb
       -0.018235829 0.029888455 -0.020094922 -0.004752116
000380 2d 42 22 3c ef 61 b4 bc 0e 2b 28 3a 46 dd 4b bc
       0.009903473 -0.022019355 0.0006415107 -0.012442892
000390 4e fc 50 3b 49 1b 11 3d aa b9 f3 bb b2 22 d9 3c
       0.0031888667 0.03542641 -0.0074379044 0.026505802
0003a0 b2 01 07 3b 33 52 21 bb 3f b2 85 bb b2 36 c7 bc
       0.0020600376 -0.0024615645 -0.0040800865 -0.024318073
0003b0 d7 03 fc 3b 2b 1e 05 3c 02 80 ad bc 17 6b 9f bc
       0.0076908874 0.008124868 -0.021179203 -0.019460244
0003c0 e8 7d dd bb c6 e7 5a 3c 37 3f da bc c0 da d1 bc
       -0.006759394 0.013360923 -0.026641471 -0.025617003
0003d0 dc ff 16 3d 0d d2 06 bd d3 b1 f2 bc 9f dd bf bc
       0.0368651 -0.032915164 -0.029625809 -0.023421107
0003e0 64 5a 63 bc 21 69 84 3b e4 da 53 bb 75 07 10 bc
       -0.013876531 0.0040408527 -0.0032326514 -0.00879084
0003f0 6d af 0d 3a 8e 95 41 ba 8b f6 34 3c e4 df 07 3c
       0.00054048636 -0.0007384651 0.011045109 0.008293126

action_model._continuous_distribution.mu.bias f4 [4]
000000 71 6c 6d 38 06 3c b0 39 22 e2 9c 38 57 f3 b1 39
       5.6606197e-05 0.00033614057 7.48078e-05 0.00033941373

action_model._discrete_distribution.branches.0.weight f4 [1, 128]
000000 09 09 99 bb 23 ad 00 bc a5 07 63 3a a0 25 bc bb
       -0.0046702665 -0.007853779 0.0008660502 -0.00574179
000010 e8 53 fb ba e7 bf 7d bb 56 02 9e bb ce 2b 31 3c
       -0.0019174786 -0.003871912 -0.004822056 0.0108136665
000020 4a b8 cb 3b 12 2d 6d bb 9d bf c3 bb 6b 25 35 bc
       0.0062170373 -0.0036190194 -0.00597377 -0.011056284
000030 40 c9 50 bc 92 77 01 bb 24 ab 26 bb 88 ac 38 3c
       -0.012743294 -0.0019755107 -0.0025431598 0.011271603
000040 42 3b b5 3a 5a 2f 95 b9 97 d2 22 bc 77 0a 0d bb
       0.0013826864 -0.00028454774 -0.009937904 -0.002152113
000050 5f 44 38 bb ba ef 74 3c 5f aa f6 3b 5f 37 cd bb
       -0.0028116924 0.014949733 0.007527634 -0.0062627043
000060 ee ef 40 bc 1f 9b 92 ba e8 e1 53 bc 67 d9 10 bc
       -0.011775954 -0.0011185146 -0.012932278 -0.008840895
000070 9f 77 cf bc e3 e9 2c bc 7d 9b ee bb 32 d3 d5 39
       -0.025325594 -0.01055381 -0.0072817192 0.0004078388
000080 6f 80 82 3c 3f c1 60 39 67 0f 02 bc 4b 5a 28 3a
       0.015930383 0.00021434294 -0.0079382425 0.0006422146
000090 9a dc f7 3b 79 ac 8e bb 52 d7 8b bb c6 48 88 bc
       0.0075641396 -0.0043540564 -0.0042676115 -0.016636264
0000a0 ce 1d 31 bc 4d f4 d5 39 15 07 b9 3c a5 13 e8 3b
       -0.010810329 0.00040808544 0.022586385 0.00708242
0000b0 fa db 98 ba cf 0f 28 bb 8c ed 31 bb 4b 43 62 ba
       -0.0011662238 -0.0025644188 -0.0027149646 -0.0008631243
0000c0 dc 81 12 bb 58 4e 1d bc 90 8f 4e bc 03 d9 ff 3b
       -0.0022355234 -0.009601198 -0.01260747 0.0078078522
0000d0 07 9d a4 3b 37 12 6c bb ad 07 4e 3c 8b 32 68 bb
       0.005023602 -0.00360216 0.012575072 -0.0035430517
0000e0 85 06 c0 bb 20 3c fb ba 5b 45 35 3a 32 21 4d 3c
       -0.005860152 -0.0019167699 0.0006914937 0.012520121
0000f0 bf 83 e2 3b b3 18 96 bc 53 01 8f bb fa 7a 63 b9
       0.006912678 -0.018322324 -0.0043641715 -0.0002169422
000100 de df c8 bb f7 bd 69 3c 19 e1 36 3b da 11 52 b9
       -0.0061302027 0.014266483 0.0027905165 -0.00020033811
000110 2c b7 bf 3a 48 4c fe 3a 8b 12 fb 3b 8d 72 8f bc
       0.0014626733 0.0019401396 0.0076621226 -0.017510677
000120 8b 4d 1a 3c 7c 63 ba 3c 8b be 0f 3a ef d2 90 ba
       0.009417902 0.022752516 0.000548341 -0.0011049191
000130 4a 11 87 bb aa 62 41 bc 9e 2a 45 bb 8f ee 50 bb
       -0.004121934 -0.0118033085 -0.0030085216 -0.0031880473
000140 12 99 77 3b eb b5 c2 bb f1 ec 9b 3c f0 ae 68 3b
       0.0037780446 -0.0059420965 0.01903388 0.0035504662
000150 f1 33 11 bb 6a c2 c2 3b 20 1d 33 3b 05 e1 d2 bb
       -0.0022156204 0.005943586 0.0027330592 -0.006435516
000160 08 34 e1 ba 47 55 cc ba 29 f1 b2 3a de 71 a5 bb
       -0.0017181644 -0.001558938 0.0013652194 -0.0050489744
000170 c3 7c 36 bc 28 28 98 bb 78 8f e6 3b 3b 9c 41 3b
       -0.011138144 -0.004643459 0.007036146 0.0029542584
000180 68 87 53 3b 47 29 d5 bb 5f a5 47 bb ab 8f 37 3b
       0.0032276753 -0.006505165 -0.003046356 0.0028009217
000190 7b c7 12 3c 3f eb 12 bc 48 b0 31 ba f0 8f 8f bb
       0.008958693 -0.00896722 -0.0006778282 -0.0043811724
0001a0 b1 d8 40 3c c6 a5 25 3b 41 52 80 3b 07 8d 08 bc
       0.011770413 0.002527581 0.0039160554 -0.008334405
0001b0 3b 1d 47 bc 60 35 59 3b 57 82 23 3c 5b 3f e1 bb
       -0.012152965 0.0033143386 0.009979806 -0.0068740076
0001c0 72 f3 ec 3a 70 db 25 bc 44 dd 25 bc 43 7b 89 3b
       0.0018077923 -0.010123119 -0.010123555 0.004195602
0001d0 f5 15 5a 3c f0 9f 4f 3b 73 b2 9f 3b 95 74 f1 bb
       0.013310899 0.0031681024 0.0048735677 -0.007368634
0001e0 c2 d0 e0 bb fa 2a 6b 3b b1 5d b0 3a 87 c0 2c bb
       -0.0068608234 0.003588377 0.0013455657 -0.0026359872
0001f0 39 d1 30 bc 7f 3a ea bb ae b2 1e bc eb 80 0c bb
       -0.01079207 -0.0071480866 -0.009686155 -0.0021439146
