V3/Articulation/results/FirstWalk2/AgentTest/AgentTest-16896.onnx (onnx, 75174 bytes, 6 tensors)

network_body._body_endoder.seq_layers.0.weight f4 [128, 1]
1.1297793 0.02223981 0.39936632 0.13908115 -1.2791735 0.7539235 -0.02367759 -0.65309
0.037826654 -0.22965476 1.5131159 -0.649372 0.21430284 -0.26799393 -0.5359031 -0.034005895
1.1284751 0.16613954 0.11782475 2.052389 0.41858 -1.835021 0.45301315 -0.88256586
-1.4483614 -0.3367107 1.726221 0.555388 -0.34129998 1.4201987 -0.08383287 -0.96649843
-0.10021216 0.74602616 0.124107815 -1.6879184 1.4861367 -0.2493482 0.6154054 -0.32695952
1.8611728 -1.3708868 0.55376524 0.981133 0.17163214 -2.04952 1.7677698 -0.62126535
0.45420063 -0.02263558 0.8197927 -1.261284 -1.7401454 -0.30232105 -2.4743183 -1.1257592
-0.462141 -0.7439446 2.210937 -1.1437869 0.6610027 0.36904034 -0.23561719 0.4305559
1.0384909 1.3734524 1.1320095 1.5607665 -0.34433374 1.8164669 -1.0283397 -1.285699
0.78072256 0.2420408 1.0576975 1.5419693 1.2133617 -0.2650529 0.407728 -0.7152867
0.78525436 -0.17259464 -0.5275457 0.5761275 -0.02174689 0.8471834 -1.1559292 0.24116799
-2.3197474 0.12574065 -0.7690127 1.1089935 -0.51483166 -0.5324 0.78132576 -2.211298
-1.0462302 -0.44638285 -0.47777894 -1.0143534 1.5805963 -0.008397502 1.4193976 -0.4454716
0.5436586 -0.6911897 -0.17505166 -0.45291957 0.12965211 0.50107735 -2.2899132 0.03271523
-1.7847686 2.4355338 0.019909544 -1.5245048 0.62886286 1.1719007 -0.61904085 -0.54702586
1.2182002 -0.8418058 -0.21978009 0.8306137 -0.5633757 -0.83202183 -0.99644476 0.06167329
00000000: 9c9c 903f 4330 b63c be79 cc3e 4a6b 0e3e
00000010: f5bb a3bf 2101 413f 81f7 c1bc e830 27bf
00000020: 1ff0 1a3d 9e2a 6bbe c8ad c13f 3e3d 26bf
00000030: 3472 5b3e 8036 89be f230 09bf c449 0bbd
00000040: df71 903f 7c20 2a3e 1a4e f13d 575a 0340
00000050: 1e50 d63e f8e1 eabf 57f1 e73e d6ef 61bf
00000060: e863 b9bf 5865 acbe cff4 dc3f e82d 0e3f
00000070: dfbe aebe 12c9 b53f 91b0 abbd 716c 77bf
00000080: 083c cdbd 92fb 3e3f 3d2c fe3d b60d d8bf
00000090: ba39 be3f 2255 7fbe 358b 1d3f 3d67 a7be
000000a0: e93a ee3f 3879 afbf 8fc3 0d3f 882b 7b3f
000000b0: 56c0 2f3e 562b 03c0 4846 e23f 3f0b 1fbf
000000c0: fc8c e83e 406e b9bc efdd 513f c171 a1bf
000000d0: 16bd debf d3c9 9abe 3b5b 1ec0 e118 90bf
000000e0: bf9d ecbe 2773 3ebf fe7f 0d40 9c67 92bf
000000f0: 7937 293f dbf2 bc3e a245 71be d371 dc3e
00000100: 45ed 843f 4acd af3f b0e5 903f 32c7 c73f
00000110: 834c b0be fd81 e83f a3a0 83bf c991 a4bf
00000120: 6fdd 473f 8bd9 773e a262 873f 405f c53f
00000130: 704f 9b3f 04b5 87be b9c1 d03e 071d 37bf
00000140: 6e06 493f a6bc 30be 3c0d 07bf 187d 133f
00000150: 8926 b2bc 03e1 583f 7df5 93bf bef4 763e
00000160: be76 14c0 28c2 003e 04de 44bf 80f3 8d3f
00000170: 02cc 03bf 5e4b 08bf f704 483f e885 0dc0
00000180: dfea 85bf 4b8c e4be 719f f4be 55d6 81bf
00000190: fb50 ca3f ad95 09bc d2ae b53f db14 e4be
000001a0: 362d 0b3f cff1 30bf be40 33be 13e5 e7be
000001b0: 86c3 043e 9b46 003f f08d 12c0 6800 063d
000001c0: 4c73 e4bf c9df 1b40 5719 a33c f922 c3bf
000001d0: 28fd 203f d800 963f 7679 1ebf e309 0cbf
000001e0: fced 9b3f 9680 57bf 080e 61be 19a3 543f
000001f0: 6439 10bf 62ff 54bf 0117 7fbf 229d 7c3d

network_body._body_endoder.seq_layers.0.bias f4 [128]
-0.00043250792 -0.0010632522 -0.0010559531 0.00010133649 0.0003129929 -0.00040515757 0.00012965119 -0.00043870482
-0.0019319908 -0.00104561 -0.00046129362 -0.00056644256 -0.0005062247 0.00016671013 0.00087729417 -0.00044981373
7.324973e-05 -0.0002620698 -0.0008734767 0.00044614426 -0.00083614426 -0.00018847159 -1.5342275e-05 0.00017365115
-0.0019341599 0.00038826448 0.0007296914 -0.0010261234 -0.0010077284 -0.0022925888 0.0005016753 5.5663644e-05
-0.000389799 0.0028275247 -0.0003953977 0.00034103612 6.1193175e-05 -0.0004986166 -0.000592511 -0.00097085064
-9.418652e-05 -0.00050051854 -0.0016221983 -0.00085031526 0.001413734 0.0002953428 0.00042225685 2.1935428e-05
-0.00035122564 0.00028434524 -0.0020297533 1.2355838e-05 -0.0011140283 0.00018610213 0.00078781875 -0.0003828649
-0.00050859654 -0.00036916469 0.00035030593 0.00022509649 -0.002646979 0.0023806302 -0.00055294 -0.00012174206
0.003194918 -0.00059710525 -0.0003821044 0.0029454487 -0.0017331709 -0.0008303525 0.00041545174 -0.00026321397
0.0014568933 -0.00094528106 0.0024100218 0.0020675648 -0.0042568957 -0.0007924447 0.002098323 -0.0006563302
-0.0015047977 0.00028581484 0.00023161934 0.002031162 9.563996e-05 0.002077149 0.00041604807 -0.0003503269
-0.00056745554 -0.0009189302 0.0003292251 0.00045898213 0.00031146 -0.00042961744 0.0010753742 -1.5816964e-05
-0.0005145514 -2.907849e-05 -0.0005195617 -0.00027411128 0.00084689487 8.64643e-06 -0.004483414 -0.001077047
0.00080323336 0.00017989613 -0.00092407217 0.0005544777 0.0022457524 -0.00032915393 -0.0005411506 0.00017708617
-0.00079622475 0.0008251713 -0.000110547284 -0.0012606325 -0.00021567031 -0.00050037395 0.0004134517 -0.0010808198
-0.0012295413 -0.00053659605 -0.0003417083 0.00078884244 0.00026652493 -0.00045167614 0.00025043034 0.00051390537
00000000: 3bc2 e2b9 d35c 8bba e867 8aba 9d84 d438
00000010: 3219 a439 546b d4b9 faf2 0739 f701 e6b9
00000020: db3a fdba da0c 89ba c8d9 f1b9 517d 14ba
00000030: 2ab4 04ba e9ce 2e39 37fa 653a fad4 ebb9
00000040: a69d 9938 6a66 89b9 07fa 64ba 78e8 e939
00000050: b130 5bba 75a0 45b9 49b3 80b7 2016 3639
00000060: a383 fdba fa8f cb39 c348 3f3a fd7e 86ba
00000070: c115 84ba 423f 16bb dc82 033a 6278 6938
00000080: f05d ccb9 fe4d 393b 624d cfb9 18cd b239
00000090: d654 8038 98b5 02ba bd52 1bba af80 7eba
000000a0: 0186 c5b8 3b35 03ba f19f d4ba b1e7 5eba
000000b0: 0b4d b93a 3dd8 9a39 5b62 dd39 f901 b837
000000c0: b524 b8b9 2c14 9539 9c05 05bb ec4b 4f37
000000d0: 9604 92ba 6924 4339 9f85 4e3a 42bb c8b9
000000e0: 5653 05ba 728c c1b9 44a9 b739 e107 6c39
000000f0: f078 2dbb 5904 1c3b 2df3 10ba c54f ffb8
00000100: d461 513b 0e87 1cba 2f55 c8b9 6e08 413b
00000110: 912b e3ba 03ac 59ba fdd0 d939 fbff 89b9
00000120: 3af5 be3a bdcc 77ba 75f1 1d3b fb7f 073b
00000130: 6e7d 8bbb 10bc 4fba 0584 093b 930d 2cba
00000140: a23c c5ba 6bd9 9539 d8de 7239 3e1d 053b
00000150: 5092 c838 c720 083b 0721 da39 15ac b7b9
00000160: 4cc1 14ba 5de4 70ba d89b ac39 8aa3 f039
00000170: 744b a339 473e e1b9 92f3 8c3a acae 84b7
00000180: f6e2 06ba 95ed f3b7 3233 08ba 98b6 8fb9
00000190: 2702 5e3a 2210 1137 9ae9 92bb b32b 8dba
000001a0: 1490 523a 80a2 3c39 6f3d 72ba 5e5a 113a
000001b0: 792d 133b 4b92 acb9 01dc 0dba 35b0 3939
000001c0: bdb9 50ba 4f50 583a 9fd5 e7b8 cf3b a5ba
000001d0: 8f25 62b9 872b 03ba 8cc4 d839 4baa 8dba
000001e0: 8f28 a1ba 5aaa 0cba 5027 b3b9 52ca 4e3a
000001f0: 5fbc 8b39 f2ce ecb9 314c 8339 9bb7 063a

network_body._body_endoder.seq_layers.2.weight f4 [128, 128]
-0.07071732 -0.14540853 -0.05901172 -0.0101548815 0.047141198 -0.028738426 0.03153231 0.103135206
-0.06039655 0.0044725835 -0.023138754 0.022574868 0.011339569 0.08047899 -0.12234966 0.034500603
0.25820145 0.013916835 0.004341815 0.09445743 0.025382154 -0.100839205 0.022420024 0.08680551
0.014266363 0.065077744 0.12952705 -0.01275867 0.0920109 -0.0041091205 0.18882698 0.0023571958
0.04634194 0.004808228 -0.009417717 -0.11693734 0.06408228 0.051512487 -0.04909495 0.068874225
0.09233838 -0.032994032 -0.082311824 0.06766178 0.046241183 -0.104950115 0.0120647885 0.015383579
0.06922455 -0.1138362 -0.08479229 0.014266353 0.12126944 0.08311292 0.021774538 -0.013984113
-0.022186693 0.00037638203 0.031130783 0.08289962 0.08542532 -0.023348544 0.15720569 -0.15045062
-0.03776753 -0.025432369 0.07440256 -0.033325456 0.16346422 -0.019428674 -0.18724836 0.054335598
0.08173074 0.04749342 -0.13459831 0.014892033 0.029425317 -0.1332529 0.029111758 -0.07994162
-0.086239986 0.062826924 -0.24405225 -0.13738815 -0.02970321 0.08347817 0.008830144 -0.022787396
-0.02547948 -0.0067976494 0.04072123 0.042238835 0.118615635 0.043688484 0.065241985 -0.05526307
0.1127532 0.06809601 0.004648733 -0.035149127 -0.036751837 0.006282719 -0.028421445 -0.15858461
-0.017614566 0.012938178 -0.20529626 -0.000962519 0.09119101 -0.10018137 -0.0027483765 -0.09557785
0.025216976 0.05684619 0.0276314 0.0057664416 0.08464919 -0.06049906 -0.10336526 0.022529248
0.022730213 0.10790804 0.0034707668 -0.18037684 0.017709011 0.036905054 0.002602306 0.08589695
-0.14669406 -0.048032366 0.05214502 0.04030412 0.08589832 0.1037952 -0.11399424 0.09171217
0.04824017 -0.015291675 0.02130292 0.11310568 0.03440553 -0.05677067 -0.05284414 -0.025152115
-0.0057372362 -0.22191948 -0.012332422 -0.12901878 0.07049551 -0.085132934 0.076919094 -0.0376354
-0.14495969 0.025100991 -0.08473182 -0.06815447 -0.025987398 0.08569736 0.105348825 0.1951341
-0.07088568 -0.107510015 0.05714107 -0.01891819 -0.09070782 -0.10081411 -0.011799287 0.015878627
-0.07274945 0.09180192 -0.020461565 -0.26182398 0.08660993 0.13723128 -0.09717706 0.056914225
-0.0597472 -0.032437567 0.039234657 -0.017161269 0.027157862 0.22556327 -0.041909073 0.050746128
-0.038595468 0.07263828 -0.07270008 -0.11196981 -0.12496696 0.011850585 -0.14807191 -0.13167332
0.01947108 -0.11475654 0.059242103 -0.06371017 0.1635174 0.032296006 0.14476603 -0.0070940144
0.06265158 0.032870457 -0.1003071 0.026709909 0.057439562 -0.11638472 -0.05341979 0.033028312
0.028077949 0.13729018 -0.079915516 -0.24993186 0.016878098 -0.048775315 -0.10800212 -0.17078279
0.04535923 0.06107762 -0.06419831 -0.01404733 -0.034799855 0.013321084 -0.02038678 -0.018413624
0.0018507072 -0.070052624 0.12752753 -0.051494524 -0.0351277 0.07514836 -0.16514355 0.034794204
0.02490437 -0.254211 0.20576173 0.046812043 -0.0017053153 0.011878207 -0.04697323 -0.12129529
-0.17486861 -0.02977355 0.070197746 0.023034131 -0.1183263 -0.11599939 -0.22807571 0.15376166
0.10055641 -0.258217 0.032651953 0.07788319 -0.043818187 -0.047880765 0.036273032 -0.022832245
00000000: 3ed4 90bd f9e5 14be 46b6 71bd a960 26bc
00000010: 2117 413d d96c ebbc 0628 013d 8d38 d33d
00000020: 5f62 77bd c08e 923b 7c8d bdbc eeee b83c
00000030: 9ac9 393c 2bd2 a43d 7592 fabd 8150 0d3d
00000040: fb32 843e 7003 643c c945 8e3b e672 c13d
00000050: 3cee cf3c c984 cebd 33aa b73c 16c7 b13d
00000060: 77bd 693c 7b47 853d bda2 043e be09 51bc
00000070: 3670 bc3d cda5 86bb dc5b 413e 2f7b 1a3b
00000080: 0cd1 3d3d 578e 9d3b c54c 1abc d87c efbd
00000090: 923d 833d c2fe 523d c917 49bd ee0d 8d3d
000000a0: e81b bd3d c024 07bd 1a93 a8bd 4292 8a3d
000000b0: 6567 3d3d 16f0 d6bd 64ab 453c 680b 7c3c
000000c0: 9ac5 8d3d f422 e9bd 95a7 adbd 6cbd 693c
000000d0: 1d5c f83d 1b37 aa3d 8460 b23c 9f1d 65bc
000000e0: dec0 b5bc 2455 c539 fc05 ff3c 47c7 a93d
000000f0: 78f3 ae3d 7245 bfbc 87fa 203e ba0f 1abe
00000100: 20b2 1abd 8b57 d0bc 5f60 983d 4680 08bd
00000110: 2a63 273e e228 9fbc 09be 3fbe 018f 5e3d
00000120: 7262 a73d 7688 423d 24d4 09be b7fd 733c
00000130: 5d0d f13c 7373 08be c87b ee3c 6fb8 a3bd
00000140: 979e b0bd 67ab 803d d5e8 79be 7baf 0cbe
00000150: 2554 f3bc 9af6 aa3d 4fac 103c a2ac babc
00000160: 58ba d0bc d1be debb 4ecb 263d a102 2d3d
00000170: c1ec f23d b2f2 323d 979d 853d 875b 62bd
00000180: 26eb e63d ec75 8b3d 6654 983b 88f8 0fbd
00000190: 1889 16bd 44df cd3b 17d4 e8bc 0164 22be
000001a0: 6c4c 90bc a7fa 533c 2f39 52be 8f51 7cba
000001b0: 5ac2 ba3d e42b cdbd 1b1e 34bb 52be c3bd
000001c0: d593 ce3c 8dd7 683d 3f5b e23c 6bf4 bc3b
000001d0: 8e5c ad3d ddcd 77bd 2ab1 d3bd 428f b83c
000001e0: b634 ba3c e4fe dc3d ce75 633b b5b4 38be
000001f0: 7d12 913c c129 173d 738b 2a3b bdea af3d
00000200: f836 16be 96bd 44bd 0496 553d ef15 253d
00000210: 75eb af3d 9492 d43d d075 e9bd 97d3 bb3d
00000220: 7c97 453d ef89 7abc 7683 ae3c f3a3 e73d
00000230: d0ec 0c3d 5d88 68bd 1973 58bd cf0b cebc
00000240: 6dff bbbb dc3e 63be ed0d 4abc 801d 04be
00000250: f35f 903d 2d5a aebd c287 9d3d 9427 1abd
00000260: 5070 14be 98a0 cd3c e087 adbd 9294 8bbd
00000270: 86e3 d4bc 1982 af3d 20c1 d73d 3cd1 473e
00000280: 832c 91bd 362e dcbd c10c 6a3d 52fa 9abc
00000290: 06c5 b9bd a177 cebd cc51 41bc e513 823c
000002a0: aafd 94bd a502 bc3d 039f a7bc cb0d 86be
000002b0: 8c60 b13d 5b86 0c3e c404 c7bd e41e 693d
000002c0: 7bb9 74bd 41dd 04bd 85b4 203d ca95 8cbc
000002d0: 2a7a de3c 0ffa 663e d9a8 2bbd 2cdb 4f3d
000002e0: 4816 1ebd 61c3 943d c8e3 94bd 6e50 e5bd
000002f0: adee ffbd f528 423c 2aa0 17be 5fd5 06be
00000300: d081 9f3c 7a05 ebbd d9a7 723d 7a7a 82bd
00000310: 1b71 273e d148 043d 8c3d 143e e874 e8bb
00000320: 794f 803d 2ca3 063d cf6d cdbd bdce da3c
00000330: bf45 6b3d 1d5b eebd b6ce 5abd b248 073d
00000340: ba03 e63c cc95 0c3e bfaa a3bd 23ee 7fbe
00000350: f043 8a3c a0c8 47bd 3730 ddbd afe1 2ebe
00000360: 9aca 393d 872c 7a3d 677a 83bd c626 66bc
00000370: 4b8a 0ebd ad40 5a3c 2d02 a7bc 2bd8 96bc
00000380: 6e93 f23a c077 8fbd 9496 023e eceb 52bd
00000390: 10e2 0fbd 62e7 993d 641b 29be 5e84 0e3d
000003a0: 4004 cc3c f227 82be 34b3 523e fcbd 3f3d
000003b0: e384 dfba d09c 423c 0067 40bd aa69 f8bd
000003c0: c210 33be a9e7 f3bc d6c3 8f3d 13b2 bc3c
000003d0: 0f55 f2bd 1791 edbd ae8c 69be b273 1d3e
000003e0: 85f0 cd3d 0535 84be 0ebe 053d 3981 9f3d
000003f0: b37a 33bd 9f1e 44bd 0893 143d b00a bbbc

network_body._body_endoder.seq_layers.2.bias f4 [128]
-0.00064552936 0.0006534722 -0.00027387013 -0.0012816105 0.0008449706 0.00027617876 -0.0013580389 -0.00041463066
-0.000379925 -0.0004245573 -0.00036844728 -0.0017927579 0.00047577653 -0.00030912107 -5.4029624e-05 -0.0004107683
-0.0002881034 0.0002533459 0.0004981166 -0.00038400386 -0.0005249826 0.0002871181 -0.0005682254 0.00022457262
0.0013587712 -0.0004113935 0.00035658162 -0.00035118297 -0.00032603735 0.00032089115 0.001001521 -0.00047297258
-0.00010194676 0.00036284907 0.0007148913 0.0002832514 -0.00038573556 0.00020527278 -0.00034041976 -0.00047109922
-0.0005868507 0.0003101932 4.5216726e-05 0.00028624537 -0.00014280593 -0.00067812105 -0.00046692608 -0.00042829043
0.0002771885 -0.00046232133 -0.0011755534 -0.0004297014 -0.0005152563 0.00024089913 0.00031942828 -0.0023312042
0.00027358736 -0.00043728648 0.00033488162 0.00015396843 -0.00039441793 -0.00059479324 -0.00047343018 -0.0005087898
-0.00047449526 -0.00029205094 0.00012350717 -5.7341116e-05 -8.01305e-05 -0.0012805221 -0.0011473732 -0.00021211385
0.00017650341 -3.6658075e-05 -0.00037262795 -3.293052e-05 0.00024244326 0.0011594414 -0.0006399318 -0.00021700656
0.00034803487 0.0003051821 -0.00045610176 -0.00035324492 -0.00037845736 -0.00017732912 -0.0010977398 0.00031107364
-0.00038484068 -0.0004243464 -0.00043114522 -0.0015522125 -0.0001158167 0.0003804401 -6.1688275e-05 0.0013420025
0.0011708508 -0.00045954593 0.0013515429 0.00032459316 0.00034917673 2.28305e-07 0.0003873238 -0.0011221019
-0.0011235719 -0.00049834384 0.00024136498 -0.00039876293 -0.00041528832 -0.001210628 -0.0015744008 -0.0005197669
-0.00047264044 -0.0005454412 -4.47328e-05 0.00067090866 -0.0003617881 -7.6631826e-05 -0.00013092093 -0.00023242632
0.00031798286 0.00071016245 -0.001298004 0.00039485734 -0.00012442916 0.00031020844 0.00033823488 0.0002121697
00000000: be38 29ba c74d 2b3a 3a96 8fb9 b6fb a7ba
00000010: 0481 5d3a 16cc 9039 3900 b2ba c962 d9b9
00000020: ac30 c7b9 1e97 deb9 282c c1b9 f9fa eaba
00000030: a571 f939 8711 a2b9 de9d 62b8 635c d7b9
00000040: 950c 97b9 83d3 8439 0a94 023a 2054 c9b9
00000050: fc9e 09ba 5788 9639 f6f4 14ba 417b 6b39
00000060: cc18 b23a 4db0 d7b9 93f3 ba39 fb1e b8b9
00000070: feef aab9 483d a839 7845 833a 4ef9 f7b9
00000080: 40cc d5b8 c73c be39 8b67 3b3a 5c81 9439
00000090: 8d3c cab9 7e3e 5739 5e7a b2b9 defd f6b9
000000a0: e2d6 19ba 6da1 a239 17a7 3d38 3413 9639
000000b0: 2dbe 15b9 efc3 31ba c2cd f4b9 2b8c e0b9
000000c0: 9c53 9139 b863 f2b9 0715 9aba 8c49 e1b9
000000d0: 4412 07ba de99 7c39 f078 a739 1ec7 18bb
000000e0: 4670 8f39 9943 e5b9 0d93 af39 9672 2139
000000f0: e1c9 ceb9 e6eb 1bba b936 f8b9 4e60 05ba
00000100: adc5 f8b9 6a1e 99b9 b481 0139 8e81 70b8
00000110: bc0b a8b8 31d7 a7ba 7563 96ba e16a 5eb9
00000120: c613 3939 4fc1 19b8 475d c3b9 e01e 0ab8
00000130: 5e38 7e39 66f8 973a 19c1 27ba 418c 63b9
00000140: 7378 b639 d900 a039 f120 efb9 bb33 b9b9
00000150: b06b c6b9 6cf1 39b9 09e2 8fba 9917 a339
00000160: 71c4 c9b9 cf7a deb9 550b e2b9 9c73 cbba
00000170: 9ee2 f2b8 ce75 c739 a45e 81b8 22e6 af3a
00000180: 3c77 993a 36ef f0b9 4126 b13a 282e aa39
00000190: b511 b739 0024 7534 b811 cb39 7e13 93ba
000001a0: d144 93ba 4aa3 02ba eb16 7d39 0e11 d1b9
000001b0: 0ebb d9b9 efad 9eba 205c ceba f740 08ba
000001c0: bacc f7b9 f0fb 0eba 7a9f 3bb8 ebdf 2f3a
000001d0: 60ae bdb9 66b5 a0b8 d247 09b9 77b7 73b9
000001e0: f0b6 a639 322a 3a3a c921 aaba db04 cf39
000001f0: 3379 02b9 79a3 a239 1e55 b139 df79 5e39

action_model._continuous_distribution.mu.weight f4 [1, 128]
0.0003075048 0.009990675 -0.012379982 -0.011136982 0.009975788 0.020823352 -0.019881818 -0.0131318495
-0.009962509 -0.012335399 -0.016762411 -0.02281103 0.0143912025 -0.020291232 -0.007882771 -0.0143643245
-0.020584298 0.0017161049 0.0058724186 -0.012024126 -0.004887738 0.008500175 -0.007828551 0.021899361
0.003935431 -0.031648125 0.014029086 -0.037506428 -0.02274185 0.014938685 0.0031521425 -0.006457349
-0.007089526 0.017649235 0.016440645 0.008215749 0.0011456147 -0.021165075 -0.015369908 -0.011952066
-0.0025947853 0.016334292 -0.014481978 0.03542116 -0.0022140048 0.0007548669 -0.008035036 -0.0114713935
0.012869774 0.008700663 -0.0007438199 -0.029564906 -0.0060416614 0.01181431 0.019188778 -2.7131637e-05
0.014407842 -0.02233992 0.024414526 0.0036707278 -0.036828 -0.0031630942 -0.0066014803 -0.008744405
-0.016138691 -0.016876144 0.003495468 0.002045317 -0.009764997 -0.0015164614 -0.0123300105 -0.030701293
0.0042239125 0.017342525 -0.033536702 0.0021059553 0.007090693 0.032696266 -0.01178893 -0.011098711
0.013253406 0.013144091 -0.036390543 -0.017982176 -0.024881631 0.0014860998 -0.023031952 0.0037951327
-0.011636021 -0.02482037 -0.0057836124 -0.0012425683 0.0016640115 0.019092662 0.0019553616 0.01583411
0.016601807 -0.007882775 0.009683168 0.009445083 0.018366758 0.00618062 0.03979289 -0.003917539
-0.026272805 -0.0071680485 0.0059347367 -0.019583466 0.0006092613 -0.01312354 -0.012900158 0.0075452053
-0.012306001 -0.0038312261 -0.00011189553 0.012563384 -0.036121536 -0.013751009 0.009622051 -0.012409454
0.011395925 0.005232429 -0.00775451 0.028239762 0.015593325 0.021786092 0.013852015 0.0040765945
00000000: 9838 a139 eeaf 233c 68d5 4abc e377 36bc
00000010: 7d71 233c bc95 aa3c 32df a2bc f826 57bc
00000020: cb39 23bc 6a1a 4abc 5351 89bc 32de babc
00000030: 14c9 6b3c cc39 a6bc bd26 01bc 5858 6bbc
00000040: 67a0 a8bc edee e03a 6b6d c03b d700 45bc
00000050: 5129 a0bb 5144 0b3c 5343 00bc 4a66 b33c
00000060: caf4 803b 77a1 01bd 40da 653c 57a0 19bd
00000070: 1e4d babc 63c1 743c 2d94 4e3b 2b98 d3bb
00000080: 414f e8bb 2195 903c 88ae 863c 599b 063c
00000090: 7328 963a 6162 adbc 11d2 7bbc 99d2 43bc
000000a0: 460d 2abb 7ecf 853c d145 6dbc c715 113d
000000b0: d618 11bb 43e2 453a 62a5 03bc 83f2 3bbc
000000c0: bfdb 523c 3a8d 0e3c e9fc 42ba 1a32 f2bc
000000d0: 21f9 c5bb cf90 413c c931 9d3c bf98 e3b7
000000e0: df0e 6c3c 3502 b7bc f900 c83c 9890 703b
000000f0: f5d8 16bd ea4b 4fbb 3b51 d8bb b144 0fbc
00000100: 4a35 84bc d73f 8abc 3914 653b ba0a 063b
00000110: 5efd 1fbc 00c4 c6ba d003 4abc 4781 fbbc
00000120: bf68 8a3b e911 8e3c c85d 09bd 1104 0a3b
00000130: 0b59 e83b 85ec 053d 5b26 41bc 5ed7 35bc
00000140: d024 593c 505a 573c 400e 15bd 5b4f 93bc
00000150: 90d4 cbbc 3cc9 c23a 81ad bcbc c3b7 783b
00000160: 02a5 3ebc 1754 cbbc 7584 bdbb acdd a2ba
00000170: f61a da3a 3768 9c3c 8625 003b 89b6 813c
00000180: 8300 883c c126 01bc 26a6 1e3c 8dbf 1a3c
00000190: e275 963c cc86 ca3b dffd 223d b35e 80bb
000001a0: 113a d7bc f3e1 eabb 2e78 c23b 816d a0bc
000001b0: d5b6 1f3a 1e04 57bc 2f5b 53bc c53d f73b
000001c0: 1c9f 49bc 4f15 7bbb 75a9 eab8 a7d6 4d3c
000001d0: 2df4 13bd e94b 61bc cfa5 1d3c 0651 4bbc
000001e0: f9b5 3a3c cc74 ab3b 8b19 febb 1357 e73c
000001f0: 257b 7f3c bf78 b23c 90f3 623c f494 853b

action_model._discrete_distribution.branches.0.weight f4 [1, 128]
0.004975601 0.015373527 0.01136707 0.0016593328 0.009576089 -0.0003550741 -0.0026860768 0.012944877
0.002773365 0.00026923642 0.0035154254 0.00082124834 -0.0072037587 0.0100347875 -0.0032920663 0.0063609197
0.002294432 0.00032329877 -0.005097599 -0.0012263294 0.0015608344 0.006278444 -0.008931681 0.0022048317
-0.0015449402 0.005540911 -0.012783696 -0.0106647955 -0.022930525 -0.0003509882 -0.005195286 0.009930224
-0.011376553 -0.0032696605 -0.0010603006 -0.0017672329 0.010176086 0.002314841 -0.0033372287 -0.0071573793
-0.001826728 0.009080026 0.0049351254 0.0030767985 -0.009515285 0.020618629 0.010276548 -0.000711622
-0.00492601 0.0003582396 0.0050855326 -0.0037295222 0.001800856 -0.011211883 0.004667441 -0.003439238
-0.002464926 0.00016819294 0.0062107756 -0.0041091237 0.009305499 -0.0010239285 0.020266075 0.00805513
0.0038376027 -0.0022023644 -0.006609563 -0.004031761 0.008529696 0.0013315186 0.0067646774 -0.004878969
0.012034954 -0.012148092 -0.012622088 0.004055864 0.0037299388 -0.021832788 -0.005708538 -0.009596962
-0.0019533718 0.011520284 -0.0053256224 0.0009234789 0.012191036 0.0007344326 -0.004384832 0.0020506214
-0.0036519046 -0.004642687 -0.01035177 0.011770222 0.004630271 -0.019595684 -0.000526565 0.006660163
-0.0047173193 0.01047415 0.0113586895 -0.010440681 -0.0063808463 0.0067656273 -0.00841145 0.0060060713
-0.004572272 -0.017655853 0.0013134809 -0.007863033 0.0037569215 0.014078061 0.000435994 -0.0002890996
-0.004607045 -0.010404474 -0.0047259587 -0.0052277143 0.0044669313 0.0073345467 -0.008293018 0.0108252335
0.015130176 0.00423103 -0.0081590405 0.0051811063 -0.005941933 -0.0074237473 -0.0070731365 0.0045100804
00000000: 5e0a a33b 3fe1 7b3c f23c 3a3c f87d d93a
00000010: 07e5 1c3c 3d29 bab9 e408 30bb c016 543c
00000020: 58c1 353b 4d28 8d39 0d63 663b 0b49 573a
00000030: 820d ecbb f368 243c b5bf 57bb 436f d03b
00000040: 2e5e 163b 6d80 a939 c209 a7bb c9bc a0ba
00000050: e994 cc3a 68bb cd3b 2f56 12bc f07e 103b
00000060: 977f caba 8890 b53b b572 51bc 65bb 2ebc
00000070: ccd8 bbbc d704 b8b9 383d aabb 61b2 223c
00000080: b964 3abc cd47 56bb c9f9 8aba 7fa2 e7ba
00000090: 99b9 263c 96b4 173b 68b5 5abb 7388 eabb
000000a0: d26e efba 64c4 143c d5b6 a13b 1da4 493b
000000b0: ffe5 1bbc 66e8 a83c f75e 283c 258c 3aba
000000c0: 5e6a a1bb 1bd2 bb39 8aa4 a63b 006b 74bb
000000d0: b30a ec3a 0cb2 37bc 55f1 983b d764 61bb
000000e0: 998a 21bb f35c 3039 c383 cb3b d4a5 86bb
000000f0: 1776 183c 5735 86ba 0a05 a63c aaf9 033c
00000100: 4a80 7b3b 8b55 10bb 0895 d8bb dd1c 84bb
00000110: 23c0 0b3c 5a86 ae3a 3aaa dd3b c2df 9fbb
00000120: 412e 453c ca08 47bc e0cc 4ebc 0ee7 843b
00000130: fd71 743b adda b2bc b00e bbbb 933c 1dbc
00000140: 2404 00bb 93bf 3c3c 8f82 aebb 9f15 723a
00000150: e9bc 473c f086 403a a3ae 8fbb b863 063b
00000160: cb54 6fbb ae21 98bb 789a 29bc e4d7 403c
00000170: 87b9 973b 2187 a0bc 2e09 0aba 7f3d da3b
00000180: be93 9abb c59b 2b3c cc19 3a3c 640f 2bbc
00000190: 6b16 d1bb 32b2 dd3b 2ed0 09bc 94ce c43b
000001a0: ffd2 95bb 02a3 90bc 1b29 ac3a f3d3 00bc
000001b0: af36 763b aba7 663c 2096 e439 4b92 97b9
000001c0: b2f6 96bb 8777 2abc 37dc 9abb 3f4d abbb
000001d0: 565f 923b a356 f03b 70df 07bc 525c 313c
000001e0: 8fe4 773c 74a4 8a3b 7fad 05bc 45c6 a93b
000001f0: 8cb4 c2bb e842 f3bb c5c5 e7bb 4cc9 933b
