V3/Articulation/results/FirstWalk1/AgentWalk.onnx (onnx, 95702 bytes, 8 tensors)

network_body._body_endoder.seq_layers.0.weight f4 [128, 39]
-0.103753716 -0.07217485 0.2995016 -0.23537073 0.044660907 -0.1769688 -0.026755277 0.21252474
0.02085088 -0.0249906 -0.16744035 -0.283684 -0.13994531 -0.027915288 0.053827003 0.037247602
-0.011447447 0.107261814 -0.13873512 0.123500794 0.13888371 -0.31330475 0.12748976 0.2948595
0.2652524 -0.03547225 -0.32401937 0.036098897 0.18701434 -0.20717284 0.10068758 -0.054799724
0.2411348 0.058883548 0.21651375 -0.066201955 0.05804093 -0.12633637 0.02445038 -0.27821028
0.002089608 -0.013262182 -0.21826245 0.078825764 0.16761924 0.0032885103 0.27339566 0.00095150876
0.057871323 -0.06800245 0.061766855 0.010561121 -0.037834264 -0.029054966 -0.08327422 0.0271405
-0.044084735 -0.116553776 0.3711451 -0.03418744 0.13051452 0.17801167 -0.20378952 -0.0886896
0.0320563 -0.09552529 -0.06616536 -0.1473035 -0.15982348 -0.21260464 0.19896072 -0.17624241
-0.14198703 0.13533835 0.03405729 0.021341374 -0.16004111 0.21420929 0.060439497 -0.000119000266
-0.026695002 0.036558688 -0.066343844 0.11652599 0.041773517 -0.1907958 -0.3086761 0.14871946
0.32326183 0.1916819 0.1638321 -0.1846794 0.0039102295 -0.02313967 -0.055371642 0.2718835
-0.13106339 0.24152695 0.053148434 0.26252845 0.18087626 -0.15232898 0.042981222 0.22424097
-0.14686593 0.12006259 0.16741043 0.34318894 -0.03326021 0.11556393 -0.023250945 -0.023343276
0.16296798 -0.095366284 0.06455116 -0.078052126 -0.14741233 0.10259899 -0.015398323 0.048420466
0.07148697 -0.25171387 0.040278394 0.08883894 0.08849778 -0.30436954 -0.08783114 0.13176589
-0.08577537 -0.1120509 -0.112304345 -0.047652077 0.26279318 0.17292619 -0.14794691 -0.008156176
0.029541995 0.3701677 -0.054218937 0.13519846 -0.0903485 -0.11046449 -0.0757551 0.018593835
-0.052048612 -0.012882974 0.25310737 0.02999081 -0.026322223 -0.12354583 -0.082407385 0.1295728
0.006455375 -0.035249013 -0.22209714 0.16085936 0.052569717 -0.09508076 0.018856943 -0.046561487
0.10031946 -0.003341955 0.04569965 -0.2542287 0.14012802 0.055270582 -0.11101767 0.15544094
-0.05899575 0.05310544 0.16422722 0.005704068 -0.07393798 -0.07000686 0.007482685 0.17764977
-0.21138997 -0.3143878 -0.27243865 -0.13736197 0.016863653 0.15536788 0.19387162 -0.078744896
0.16593613 0.17639649 0.049384404 0.31323045 0.17172971 0.071844 -0.11400613 0.23198673
0.09909301 -0.08527941 -0.18615858 -0.027044453 -0.11753641 -0.046220504 -0.08999126 -0.18183129
0.05226329 0.01748646 -0.07858342 0.11621921 0.06987232 0.029576395 0.105408676 0.06606618
-0.05605332 0.12169955 -0.055743843 0.07464273 0.08882582 0.23695976 -0.2134242 0.15117091
0.13279442 0.11691127 0.10728036 0.22319323 -0.11365189 -0.22307187 0.09294976 0.08840179
0.2069319 -0.12989122 0.04532088 -0.16830748 0.24752143 -0.23785466 0.25406292 -0.19444254
0.09075667 0.009543573 0.0912638 0.16875115 0.06755258 -0.033820726 -0.015986728 0.008991145
0.017099697 0.16018772 0.13712068 0.23617777 -0.08759565 0.20054697 -0.00038862074 0.053001747
-0.05355803 0.03468024 0.18707642 -0.10863804 0.16596875 -0.1093941 0.077473395 0.13019155
00000000: d47c d4bd 68d0 93bd 4658 993e 0605 71be
00000010: 5bee 363d 4f37 35be e22d dbbc 16a0 593e
00000020: 77cf aa3c 16b9 ccbc 7c75 2bbe 073f 91be
00000030: d34d 0fbe 9aae e4bc b479 5c3d f190 183d
00000040: 138e 3bbc 15ac db3d 9410 0ebe fced fc3d
00000050: 8837 0e3e 7b69 a0be ad8c 023e d3f7 963e
00000060: 2acf 873e 5a4b 11bd dee5 a5be 70dc 133d
00000070: b080 3f3e 1e25 54be 4a35 ce3d ad75 60bd
00000080: 0aec 763e e02f 713d c8b5 5d3e e494 87bd
00000090: 54bc 6d3d 525e 01be 2a4c c83c 9471 8ebe
000000a0: cef1 083b 9f49 59bc 3180 5fbe 676f a13d
000000b0: 61a4 2b3e 0c84 573b 84fa 8b3e ac6e 793a
000000c0: 7b0a 6d3d de44 8bbd 3eff 7c3d 8d08 2d3c
000000d0: 1af8 1abd ae04 eebc ad8b aabd c155 de3c
000000e0: 3292 34bd bfb3 eebd bb06 be3e 2108 0cbd
000000f0: 99a5 053e b148 363e 33ae 50be e5a2 b5bd
00000100: 784d 033d c3a2 c3bd b481 87bd bbd6 16be
00000110: c4a8 23be 08b5 59be 5cbc 4b3e e478 34be
00000120: 0c65 11be 2396 0a3e a87f 0b3d 1bd4 ae3c
00000130: d1e1 23be ae59 5b3e 688f 773d c88f f9b8
00000140: 7aaf dabc 90be 153d 48df 87bd 2ea5 ee3d
00000150: b51a 2b3d f95f 43be cb0a 9ebe ea49 183e
00000160: 9382 a53e 4348 443e 9ac3 273e 991c 3dbe
00000170: 6221 803b 688f bdbc 60cd 62bd 5034 8b3e
00000180: 7b35 06be d752 773e 2cb2 593d 216a 863e
00000190: a037 393e 21fc 1bbe 140d 303d 6d9f 653e
000001a0: 0664 16be 60e3 f53d a46d 2b3e 76b6 af3e
000001b0: dc3b 08bd c8ac ec3d c478 bebc 663a bfbc
000001c0: 14e1 263e 664f c3bd 6633 843d cbd9 9fbd
000001d0: 42f3 16be 6b1f d23d 3f49 7cbc 8a54 463d
000001e0: c367 923d a4e0 80be f5fa 243d 31f1 b53d
000001f0: 533e b53d 53d6 9bbe d0e0 b3bd a3ed 063e
00000200: ffaa afbd f17a e5bd d2ff e5bd d32e 43bd
00000210: d48c 863e 9013 313e 657f 17be 7ba1 05bc
00000220: 0e02 f23c 9f86 bd3e ad14 5ebd 7771 0a3e
00000230: a208 b9bd 353b e2bd 7d25 9bbd 1952 983c
00000240: ed30 55bd 1c13 53bc 4a97 813e 4aaf f53c
00000250: b4a1 d7bc 9905 fdbd 34c5 a8bd bbae 043e
00000260: 9c87 d33b 4561 10bd 6f6d 63be 51b8 243e
00000270: 5853 573d b4b9 c2bd e079 9a3c 42b7 3ebd
00000280: 4a74 cd3d b304 5bbb 8e2f 3b3d 442a 82be
00000290: b87d 0f3e 6863 623d 3b5d e3bd e92b 1f3e
000002a0: 87a5 71bd 1785 593d 2e2b 283e 31e9 ba3b
000002b0: cc6c 97bd c25f 8fbd 5031 f53b d2e9 353e
000002c0: 9d76 58be 70f7 a0be 147d 8bbe 9ea8 0cbe
000002d0: a525 8a3c c218 1f3e 4886 463e 0145 a1bd
000002e0: 29eb 293e 48a1 343e 4d47 4a3d be5f a03e
000002f0: ead9 2f3e f222 933d 0c7c e9bd ee8d 6d3e
00000300: 47f1 ca3d f9a6 aebd 5ba0 3ebe 548c ddbc
00000310: eeb6 f0bd b651 3dbd 564d b8bd fb31 3abe
00000320: 0812 563d c43f 8f3c 58f0 a0bd 5604 ee3d
00000330: 3819 8f3d 324a f23c 81e0 d73d b54d 873d
00000340: 2b98 65bd 9d3d f93d a853 64bd 4ade 983d
00000350: 50ea b53d 94a5 723e e08b 5abe 8ccc 1a3e
00000360: 43fb 073e 2d6f ef3d ceb5 db3d c48c 643e
00000370: 52c2 e8bd f46c 64be 725c be3d ff0b b53d
00000380: f5e5 533e 3402 05be 63a2 393d cc58 2cbe
00000390: 4276 7d3e 2c90 73be 8914 823e f21b 47be
000003a0: a2de b93d a55c 1c3c 84e8 ba3d 1acd 2c3e
000003b0: 0259 8a3d 9a87 0abd 99f6 82bc 984f 133c
000003c0: aa14 8c3c 4008 243e 5d69 0c3e 96d8 713e
000003d0: 5965 b3bd 2f5c 4d3e cbbf cbb9 5c18 593d
000003e0: aa5f 5bbd de0c 0e3d f690 3f3e 9f7d debd
000003f0: b6f3 293e 040a e0bd 5faa 9e3d ef50 053e

network_body._body_endoder.seq_layers.0.bias f4 [128]
-0.0012735724 -0.0013319909 0.0042776894 -0.0009773973 -0.00076854695 -0.0024907785 0.0015653207 -0.0024253256
0.0011175919 0.008890385 -0.0015406433 0.0016271244 -0.0029053118 0.0023796563 -0.0008912076 -0.0102288835
-0.0014595169 -0.0009939248 0.0007128396 0.00076350407 -0.0018536745 0.00094980205 -0.004742496 -0.00016825972
-0.0009207804 0.0005932903 0.0012893493 0.0003776594 -0.00277453 -0.0015866593 -0.0019766367 -0.0012717802
-0.0022845934 0.0019748465 -0.0037786427 -0.0021640628 0.0038362986 0.0017897416 -0.0013524976 -0.0015999463
0.0006149775 -0.0019424361 0.0015095883 -0.0022441093 -0.0041120946 -0.0004967447 -0.0012808297 0.0007409802
-0.0041823145 -0.0023956366 -0.00535742 1.9141125e-05 -0.0032918227 -0.001132095 0.0008669625 -0.00343197
0.0035207628 0.0042816373 -0.0006789237 0.00418345 0.0053228717 0.0009022944 0.0076822364 0.0013126833
-0.0008499933 -0.0043376107 -0.0026840728 0.00035763902 -0.0012172426 -0.00041300184 1.115032e-05 0.0021477782
-0.0015257436 0.00074918364 -0.00041110907 -0.0025527568 0.0007590498 0.0022430962 0.0009992229 -0.00052990776
0.0011587766 0.0015745996 -0.0022236593 -0.0010245984 0.0083834445 -0.0026185566 -0.007842133 -0.0035928758
-0.0009614788 -0.00077433593 0.0008247847 -0.0023021367 -0.0021887876 0.0096597895 0.008721249 0.0013131234
0.00065726734 0.00014616284 0.00032559366 -0.0151472995 -0.0016417387 0.00019294264 0.0073767477 -0.00251609
-0.0006262661 -8.30976e-05 -0.00046713895 -0.0022311858 0.0011787476 -0.0014951964 0.0053685266 -0.0041641793
-0.0002498602 -0.0005429073 0.0013635678 0.0007186069 -0.00031566262 -0.008147515 0.0008502626 -0.0017420135
0.0003663579 0.007913927 0.0021998743 -0.0055051073 0.0027101305 -0.012511253 -0.0034695931 -0.0060744416
00000000: 00ee a6ba 3396 aeba dc2b 8c3b 031c 80ba
00000010: 5078 49ba 543c 23bb 722b cd3a 36f2 1ebb
00000020: 297c 923a faa8 113c 69ef c9ba 3c45 d53a
00000030: 0b67 3ebb 02f4 1b3b ee9f 69ba 0c97 27bc
00000040: 434d bfba 9546 82ba dbdd 3a3a e425 483a
00000050: fff6 f2ba 23fc 783a f166 9bbb e06e 30b9
00000060: 8760 71ba 0a87 1b3a 62ff a83a 9600 c639
00000070: e4d4 35bb 74f7 cfba 768a 01bb ddb1 a6ba
00000080: 1eb9 15bb 6d6c 013b 1ba3 77bb f3d2 0dbb
00000090: 696a 7b3b c395 ea3a 4a46 b1ba 4ab5 d1ba
000000a0: 7136 213a 5799 feba 61dd c53a e811 13bb
000000b0: c0be 86bb f937 02ba 83e1 a7ba 573e 423a
000000c0: cc0b 89bb 1d00 1dbb 4c8d afbb 4191 a037
000000d0: 9fbb 57bb ce62 94ba de44 633a e7ea 60bb
000000e0: 99bc 663b fa4c 8c3b ccf9 31ba 5215 893b
000000f0: 7c6b ae3b f487 6c3a 45bb fb3b 580e ac3a
00000100: 16d2 5eba 8422 8ebb 45e7 2fbb 7f81 bb39
00000110: e28b 9fba 2b88 d8b9 4212 3b37 bdc1 0c3b
00000120: 76fb c7ba dd64 443a 208a d7b9 274c 27bb
00000130: f8fa 463a e900 133b 5bf8 823a 82e9 0aba
00000140: 17e2 973a cc62 ce3a d0ba 11bb d14b 86ba
00000150: b75a 093c 179c 2bbb 4a7c 00bc 7476 6bbb
00000160: c00b 7cba cefc 4aba 5d36 583a 72df 16bb
00000170: c371 0fbb 1844 1e3c 92e3 0e3c 1c1d ac3a
00000180: 774c 2c3a 4a43 1939 71b4 aa39 612c 78bc
00000190: 9c2f d7ba a550 4a39 a5b8 f13b fce4 24bb
000001a0: 022c 24ba af44 aeb8 54ea f4b9 1639 12bb
000001b0: 3580 9a3a 77fa c3ba 77ea af3b ab73 88bb
000001c0: abff 82b9 e451 0eba beb9 b23a e560 3c3a
000001d0: 857f a5b9 287d 05bc 28e4 5e3a 4654 e4ba
000001e0: ba13 c039 6aa9 013c c42b 103b 3064 b4bb
000001f0: 729c 313b 00fc 4cbc 1d62 63bb 1c0c c7bb

network_body._body_endoder.seq_layers.2.weight f4 [128, 128]
-0.00060130435 -0.08036039 -0.08620496 0.18866524 -0.022355663 -0.045951203 -0.01475922 -0.029219434
-0.040070694 0.059271313 0.004805118 -0.0032240062 -0.016045172 -0.10048116 -0.075476125 0.05664653
-0.08148584 -0.0003124215 0.06370445 0.008315973 0.008244724 -0.23525816 0.02151953 0.0135329915
0.033351097 -0.08134245 -0.00887885 0.06746107 -0.037026573 -0.06780869 -0.053120904 -0.10325007
0.023968112 0.059205487 0.09067159 0.053891424 -0.1181293 -0.04839401 0.111097045 0.13476755
0.0665038 -0.071740694 -0.07007822 0.03605353 -0.049743444 0.1240133 0.04485385 -0.006885312
0.11066428 -0.14521414 -0.07517478 0.044179153 -0.18175371 0.0014853996 0.109055914 0.03109274
-0.07743687 0.07803244 0.029275311 -0.058042083 0.10532053 0.0006292523 -0.02408428 -0.09299813
-0.10880623 0.015800308 0.03599628 0.049844008 0.0056652958 -0.03669245 0.188988 -0.053609002
-0.08300353 0.029821916 0.018349418 -0.0751878 -0.06546358 0.023590153 -0.19230187 0.091179535
-0.11031737 -0.091583066 -0.07399415 -0.1290247 -0.0055985986 -0.10700609 0.032564793 0.12006079
0.059825078 -0.2108339 0.17744885 -0.06238218 0.045623705 -0.025909739 -0.050896954 0.0077164187
-0.021101203 -0.062178593 -0.20542364 -0.10171587 -0.066199794 -0.04901594 -0.12986152 0.0055343015
-0.17423657 0.08396529 0.1125395 -0.04289296 -0.063231625 0.021266913 0.07718297 0.0740392
0.26176158 0.2232484 -0.1474409 0.06797058 -0.048094675 0.057526067 -0.016572885 0.12968582
-0.057301205 -0.1280453 0.07621971 0.104788624 0.05543139 0.20390119 0.016459323 -0.07520927
-0.061653588 -0.05443562 0.137203 0.064165145 -0.027590996 -0.13286185 0.06032375 0.113782465
-0.017732207 -0.073896594 0.048650585 0.090279885 0.10972986 0.037145328 -0.14559916 -0.015432405
-0.014701592 0.14105535 -0.055501923 0.064152695 0.014022512 -0.0630139 0.1332114 0.01753652
-0.020263495 0.039770287 0.07888984 0.12665457 0.010757473 0.025559245 0.044317413 -0.022034023
-0.019517604 0.026302084 0.039888497 -0.113653645 -0.19637966 -0.05716365 0.03740547 0.04230815
-0.17867683 -0.04143925 0.1639531 0.21472026 0.12271457 0.02850327 -0.2841953 0.10116744
0.10003982 -0.062453303 0.17933394 0.07925031 0.01012606 0.07290423 0.012797567 -0.056868996
-0.05345527 0.005078999 -0.022323767 -0.043095794 0.012830575 0.075840764 0.012310563 0.049175106
-0.026425669 -0.02064951 -0.051841095 -0.12962045 0.020961605 0.014130843 0.06567136 -0.01331573
0.0039889915 0.07786705 -0.113540895 -0.059652902 -0.06275357 0.020702157 -0.009499114 0.1461521
0.11681398 0.05368623 -0.08998327 0.02181514 -0.1420768 -0.060506567 -0.14537956 0.16560876
0.027754728 0.13953812 -0.0024246068 -0.12666516 -0.025185319 0.12254094 0.042448863 0.088007666
-0.09384916 0.13742547 -0.001624765 0.04172923 0.0061929785 0.10955501 -0.25752234 0.048064515
-0.07918843 -0.066235624 -0.051524196 -0.0005022058 -0.0643545 0.020502584 -0.1253792 -0.05948632
-0.02170538 -0.07806393 0.0062291254 0.035845567 -0.058451686 -0.09500223 -0.11057067 0.12484817
-0.022829372 0.1313875 0.12281765 0.09166581 0.0131000895 -0.0524933 0.009676412 -0.23964356
00000000: daa0 1dba fd93 a4bd 3a8c b0bd 7631 413e
00000010: 3923 b7bc 5437 3cbd a8d0 71bc 985d efbc
00000020: 2b21 24bd 7ac6 723d 4074 9d3b d949 53bb
00000030: 2a71 83bc 11c9 cdbd 3a93 9abd 3106 683d
00000040: 0ce2 a6bd 81cc a3b9 7b77 823d b83f 083c
00000050: e114 073c 84e7 70be ba49 b03c 7bb9 5d3c
00000060: 299b 083d df96 a6bd 9978 11bc 0829 8a3d
00000070: 2da9 17bd 48df 8abd 4e95 59bd c674 d3bd
00000080: c658 c43c 7481 723d 07b2 b93d 41bd 5c3d
00000090: c6ed f1bd cc38 46bd d986 e33d 8100 0a3e
000000a0: 2533 883d c9ec 92bd 2b85 8fbd deac 133d
000000b0: c8bf 4bbd affa fd3d acb8 373d 2f9e e1bb
000000c0: f4a3 e23d 04b3 14be 3cf5 99bd 33f5 343d
000000d0: a51d 3abe bdb1 c23a b558 df3d 34b6 fe3c
000000e0: 3997 9ebd 79cf 9f3d c7d2 ef3c 89bd 6dbd
000000f0: 4ab2 d73d 68f4 243a 654c c5bc ce75 bebd
00000100: cdd5 debd a66f 813c d670 133d 3b29 4c3d
00000110: f2a3 b93b d34a 16bd 1286 413e 1d95 5bbd
00000120: c1fd a9bd 174d f43c 8551 963c 10fc 99bd
00000130: c511 86bd 2340 c13c c8ea 44be 56bc ba3d
00000140: 13ee e1bd e78f bbbd 3f8a 97bd 0d1f 04be
00000150: 7374 b7bb 0226 dbbd a962 053d 6ee2 f53d
00000160: 240b 753d d8e4 57be 27b5 353e 7584 7fbd
00000170: ecdf 3a3d a940 d4bc 5379 50bd 03da fc3b
00000180: 6edc acbc fbae 7ebd 935a 52be 6950 d0bd
00000190: c293 87bd f0c4 48bd 6bfa 04be 1659 b53b
000001a0: 126b 32be fef5 ab3d 1c7b e63d 87b0 2fbd
000001b0: 957f 81bd f337 ae3c 1b12 9e3d dda1 973d
000001c0: 9d05 863e 3b9b 643e bffa 16be 2934 8b3d
000001d0: ecfe 44bd 74a0 6b3d dcc3 87bc 5ccc 043e
000001e0: abb4 6abd 4f1e 03be 1419 9c3d 6b9b d63d
000001f0: 060c 633d 79cb 503e b4d5 863c 5107 9abd
00000200: 7988 7cbd e2f7 5ebd f17e 0c3e 0469 833d
00000210: 8306 e2bc f00c 08be 0916 773d c806 e93d
00000220: 2243 91bc 1957 97bd d645 473d a9e4 b83d
00000230: 0dba e03d b325 183d f217 15be 33d8 7cbc
00000240: f2de 70bc d070 103e fc55 63bd 7d62 833d
00000250: aebe 653c 6e0d 81bd 9268 083e bfa8 8f3c
00000260: a1ff a5bc 2be6 223d ff90 a13d bcb1 013e
00000270: 1d40 303c 9f61 d13c 2d86 353d b280 b4bc
00000280: 62e3 9fbc 7877 d73c 1f62 233d 3ec3 e8bd
00000290: c017 49be 6e24 6abd 7a36 193d 504b 2d3d
000002a0: 0ff7 36be 34bc 29bd 52e3 273e a1df 5b3e
000002b0: c751 fb3d b17f e93c 0c82 91be e030 cf3d
000002c0: ade1 cc3d 09cf 7fbd 51a3 373e fd4d a23d
000002d0: c6e7 253c d04e 953d e3ac 513c 77ef 68bd
000002e0: eaf3 5abd bb6d a63b 55e0 b6bc 3785 30bd
000002f0: 5537 523c 6752 9b3d 3eb2 493c d66b 493d
00000300: a57a d8bc 2929 a9bc 5457 54bd 39bb 04be
00000310: acb7 ab3c 0d85 673c b57e 863d 382a 5abc
00000320: 16b6 823b c378 9f3d 2188 e8bd 9a56 74bd
00000330: f284 80bd 9297 a93c 2ca2 1bbc e5a8 153e
00000340: 2b3c ef3d 18e6 5b3d 2649 b8bd aab5 b23c
00000350: 957c 11be bcd5 77bd 61de 14be 5895 293e
00000360: e25d e33c 15e3 0e3e 27e6 1ebb 83b4 01be
00000370: 7151 cebc bff6 fa3d dcde 2d3d 5d3d b43d
00000380: fd33 c0bd 43b9 0c3e 11f6 d4ba 45ec 2a3d
00000390: 78ee ca3b 615e e03d f8d9 83be 4cdf 443d
000003a0: 8b2d a2bd 8ba6 87bd 090b 53bd 76a6 03ba
000003b0: 4bcc 83bd 09f5 a73c 6863 00be eda7 73bd
000003c0: 7bcf b1bc fbdf 9fbd b11d cc3b cdd2 123d
000003d0: 096b 6fbd 8790 c2bd e072 e2bd 66b0 ff3d
000003e0: aa04 bbbc 728a 063e d287 fb3d 49bb bb3d
000003f0: c2a1 563c 3703 57bd d089 1e3c 1f65 75be

network_body._body_endoder.seq_layers.2.bias f4 [128]
0.0010317671 6.4022834e-06 0.00053618517 0.00021197172 0.00012141638 -0.0010261325 0.002005622 -0.000605612
-0.0017647888 -0.003400831 -0.00013373818 -0.004832231 0.0008209251 -0.0001959372 -0.0017817003 0.0009272827
-0.00029167705 -0.005130118 -0.0002823955 -0.0018928598 -0.004575074 -0.0025872043 0.00025058773 7.634607e-06
0.000391953 -0.0076449695 -0.0027713124 -0.00036794637 -0.002646742 -0.00011886431 -0.00088408944 -0.0014681146
0.00035431006 -0.00029793888 0.005022488 -0.0057904087 0.002698744 -0.004483881 -0.0017426731 -0.0058331843
-0.0012353034 9.4089526e-05 0.001660141 -0.0015356636 -0.0017708708 -0.003661022 -0.0028928043 -0.0014629691
-0.004480211 -0.0045104064 -0.00087524723 0.0008524663 -0.0030648976 -0.0051618814 -0.0038609453 5.553167e-05
-0.00058116636 -0.0030165333 0.0016821015 -0.0024200222 0.00015991586 -0.0003672775 0.0046489337 0.0006441989
0.0006772385 -0.0040653897 -0.0019061193 -0.0015859724 0.0002154303 0.00016996847 -0.0013727626 -0.010308308
-0.0023123599 0.0009774889 0.00036767486 -0.00494516 -0.003965415 -0.0017984136 -0.0021527025 -0.0006435366
0.004040638 0.0008664918 0.008484377 -5.748706e-05 -0.001217734 -0.0010392034 0.008489468 -0.0054238276
0.011133067 -0.0016523693 -6.827506e-05 -0.0017436246 -0.0010799227 -0.0010180578 -0.002919785 -0.0012771835
-0.0017095963 0.00054668565 -0.00084747886 0.0011217301 -0.0025551952 -3.549119e-05 -0.0021851016 -0.0025739965
-0.00032379586 -0.0043969806 -0.0007089564 -0.0026935893 -0.0020895428 -0.0001761625 -0.0027238042 -0.0011552189
4.3882363e-05 -0.0016719232 0.00091752864 0.00041722163 -0.00277484 0.0012520432 -0.0057520666 -0.0009411873
-0.0018094007 -0.002835222 -0.0027235071 -0.0052933875 -0.003786341 -0.002862312 -0.0008806991 -0.0025707297
00000000: 5c3c 873a 32d3 d636 c78e 0c3a ba44 5e39
00000010: eca0 fe38 4b7f 86ba c170 033b efc1 1eba
00000020: 7c50 e7ba 7ae0 5ebb 123c 0cb9 b157 9ebb
00000030: 5a33 573a 7e74 4db9 f187 e9ba e314 733a
00000040: 3bec 98b9 8d1a a8bb 7b0e 94b9 d619 f8ba
00000050: 81ea 95bb 168e 29bb 5161 8339 6316 0037
00000060: 0b7f cd39 a782 fabb e89e 35bb ede8 c0b9
00000070: f674 2dbb ca46 f9b8 3dc2 67ba c06d c0ba
00000080: b1c2 b939 ae34 9cb9 af93 a43b 78bd bdbb
00000090: 69dd 303b 85ed 92bb 686a e4ba 4c24 bfbb
000000a0: e7e9 a1ba ee51 c538 1799 d93a 5248 c9ba
000000b0: 901c e8ba c2ed 6fbb 3495 3dbb 19c1 bfba
000000c0: bcce 92bb 08cc 93bb d970 65ba 0c78 5f3a
000000d0: 73dc 48bb 0025 a9bb ea07 7dbb adea 6838
000000e0: 6a59 18ba 08b1 45bb f679 dc3a 3c99 1ebb
000000f0: 16af 2739 278f c0b9 1556 983b 75df 283a
00000100: b588 313a f636 85bb c0d6 f9ba 67e0 cfba
00000110: 21e5 6139 9039 3239 45ee b3ba 2de4 28bc
00000120: f68a 17bb 161f 803a 7cc4 c039 020b a2bb
00000130: 50f0 81bb bfb8 ebba 5b14 0dbb 03b3 28ba
00000140: 5467 843b 4825 633a 0e02 0b3c 431e 71b8
00000150: 5f9c 9fba e135 88ba 6917 0b3c 5dba b1bb
00000160: 7867 363c 5094 d8ba e52e 8fb8 558a e4ba
00000170: 318c 8dba 5a70 85ba dd59 3fbb 2b67 a7ba
00000180: 8814 e0ba 744f 0f3a 5829 5eba 0407 933a
00000190: 1075 27bb 60dc 14b8 ec33 0fbb 7fb0 28bb
000001a0: 25c3 a9b9 8c14 90bb 42d9 39ba ee86 30bb
000001b0: b6f0 08bb 43b8 38b9 da81 32bb b76a 97ba
000001c0: 540e 3838 6f24 dbba 4e86 703a 8abe da39
000001d0: 17da 35bb 991b a43a d57b bcbb 03ba 76ba
000001e0: 6a29 edba 22cf 39bb de7c 32bb 2774 adbb
000001f0: 4324 78bb a095 3bbb b7de 66ba b079 28bb

action_model._continuous_distribution.log_sigma f4 [1, 3]
-0.0068549807 -0.0014339947 -0.0049887784
00000000: bf9f e0bb e1f4 bbba e878 a3bb

action_model._continuous_distribution.mu.weight f4 [3, 128]
-0.007199889 0.013594735 -0.016025385 0.030579783 0.0105964085 0.01453331 0.018122906 -0.017308747
-0.011291917 0.015239769 -0.0066114836 -0.020370537 -0.03948358 0.019630324 0.02855525 0.020492151
-0.007285127 -0.013955816 -0.020899607 0.032959767 -0.0072966907 0.015779477 -0.010153146 0.0039243596
-0.028745348 -0.0100813275 0.008699112 0.013869275 -0.019872984 -0.010144752 0.017270014 -0.016170707
0.009547428 -3.475779e-05 0.031719606 -0.033532705 0.01125053 -0.0058723693 -0.010977366 -0.01447897
-0.011615545 -0.0038442577 -0.0061124046 -0.022120815 0.010127238 -0.011927655 -0.01828241 -0.016987776
0.019039435 0.011558562 -0.020082034 0.02177845 -0.016937694 -0.014999503 0.0051498325 0.0051774047
-0.0023612333 -0.0033033064 -0.009722323 -0.0070396257 -0.0043345783 -0.015074673 0.02172796 -0.017943056
-0.03311707 -0.023108797 -0.011642387 0.010442715 0.025835311 -0.039882023 0.011397935 -0.048939217
0.0047696666 -0.030627167 -0.017229369 -0.018244855 0.031145591 0.008991994 0.0023081573 0.00020773057
0.022968104 -0.025158858 0.007380199 -0.0024836485 -0.00036034008 -0.010421755 -0.01779576 -0.033306744
0.013567418 0.024952263 -0.012837524 0.021094402 0.0073312675 0.0005677676 0.0030365712 -0.0026834474
-0.005161366 -0.028116105 0.006576759 0.00628966 0.0034492842 -0.005888144 -0.0025872667 0.016624222
0.00010230395 0.015226792 0.028694961 0.007193348 -0.008518562 -0.0040265047 0.018004911 0.0051834616
0.009237041 -0.01827943 0.0011915112 0.010666213 0.0007717296 -0.018375099 0.0031869314 0.0038234582
-0.00903247 0.0055167424 -0.0017628066 -0.016099874 -0.013624106 -0.00036954574 0.056393787 0.02057094
0.021713214 0.025935143 -0.004723796 0.0010179355 -0.02717352 0.029408624 0.009267529 0.0031524897
-0.022235598 0.016708363 -0.035008717 -0.01472737 -0.0037571182 0.023998909 -0.031457473 -0.018371757
-0.02630379 -0.010831901 0.021548908 0.006750552 0.009707796 0.0042661116 0.013971135 -0.019961141
-0.0034077337 -0.008497685 -0.033921123 0.0038203204 -0.01770578 0.025992416 -0.00197431 -0.003310642
0.021544494 -0.005328888 0.011543772 -0.025475387 0.02069774 -0.0012214027 -0.0075973365 0.012471845
-0.0045415917 0.025715886 0.015681103 -0.025951743 0.0029855785 -0.0019127993 0.007725563 0.0022039716
-0.021675318 -0.039252438 -0.016209612 -0.039902322 -0.03095944 0.0054280506 -0.010655608 0.021336516
-0.001930966 0.01337826 0.026371827 -0.0041379137 0.026825966 0.01902888 0.0059170728 0.016974367
-0.0011089861 0.00709678 -0.012979163 -0.022222465 -0.014242453 -0.0059247264 0.004458071 -0.017106146
-0.0152496295 -0.002707202 0.012426604 -0.021514112 0.021394027 0.0069063366 -0.01361818 -0.0059313737
-0.0036636244 -0.0040669795 -0.017373508 -0.015098606 -0.006932362 0.0053739375 -0.027309865 -0.022736441
0.007454003 -0.00041267366 -0.001219003 0.012834191 0.01882781 -0.019143874 0.01363736 -0.0010014421
-0.027934337 -0.0053295647 0.0092165 -0.0105163455 -0.005823829 -0.0085075945 0.0076353448 -0.02430749
-0.003964953 -0.012201283 -0.02046004 -0.009061723 -0.018256728 0.006133142 0.0022378596 -0.011395604
0.007728913 -0.025213396 -0.02024097 -0.017141571 -0.017586717 0.027641265 0.00026543063 0.01131808
0.024108764 -0.026504856 -0.0021132103 0.0076406496 0.01651886 -0.007969592 0.01008024 -0.022893256
00000000: 0ced ebbb 74bc 5e3c ab47 83bc 7482 fa3c
00000010: 8f9c 2d3c 1f1d 6e3c 7d76 943c 13cb 8dbc
00000020: bc01 39bc 39b0 793c 25a5 d8bb 1de0 a6bc
00000030: 89b9 21bd c6cf a03c b3ec e93c 28df a73c
00000040: 13b8 eebb efa6 64bc a735 abbc d200 073d
00000050: 1419 efbb f643 813c 6259 26bc ea97 803b
00000060: 5d7b ebbc 272c 25bc b886 0e3c f53b 633c
00000070: abcc a2bc 2d36 26bc d879 8d3c 6e78 84bc
00000080: d16c 1c3c e5c8 11b8 6bec 013d 9759 09bd
00000090: 2554 383c 016d c0bb 69da 33bc 3439 6dbc
000000a0: 204f 3ebc f1ef 7bbb 914a c8bb b636 b5bc
000000b0: b7ec 253c 366c 43bc fec4 95bc f329 8bbc
000000c0: 97f8 9b3c 1f60 3d3c 1483 a4bc b868 b23c
000000d0: ebc0 8abc 7ac0 75bc edbf a83b 38a7 a93b
000000e0: ecbe 1abb 497c 58bb 614a 1fbc a9ac e6bb
000000f0: 1409 8ebb c3fb 76bc d6fe b13c 51fd 92bc
00000100: c4a5 07bd a94e bdbc b6bf 3ebc ec17 2b3c
00000110: 93a4 d33c 555b 23bd 68be 3a3c 7d74 48bd
00000120: dd4a 9c3b d3e5 fabc 9b24 8dbc 3c76 95bc
00000130: 0a25 ff3c 2853 133c 7444 173b 40d2 5939
00000140: 9b27 bc3c f319 cebc 99d5 f13b b5c4 22bb
00000150: 07ec bcb9 02c0 2abc 6ac8 91bc a76c 08bd
00000160: e049 5e3c b068 cc3c 7a54 52bc 2bce ac3c
00000170: 213b f03b 3dd6 143a 3601 473b c7dc 2fbb
00000180: ad20 a9bb bf53 e6bc da81 d73b 7e19 ce3b
00000190: 630d 623b 55f1 c0bb 228f 29bb 852f 883c
000001a0: 048c d638 cb79 793c b211 eb3c 2db6 eb3b
000001b0: 7091 0bbc c5f0 83bb 097f 933c 07da a93b
000001c0: f556 173c bebe 95bc 7b2c 9c3a 57c1 2e3c
000001d0: e64d 4a3a 6087 96bc d6db 503b fc92 7a3b
000001e0: edfc 13bc cac5 b43b f90d e7ba e2e3 83bc
000001f0: a437 5fbc 97bf c1b9 2cfd 663d 6384 a83c
00000200: e9df b13c f075 d43c 13ca 9abb 3f6c 853a
00000210: 009b debc 5bea f03c d5d6 173c 009a 4e3b
00000220: 6e27 b6bc fadf 883c 4d65 0fbd 114b 71bc
00000230: fc39 76bb 5c99 c43c 8dd9 00bd 5e80 96bc
00000240: 0c7b d7bc 4978 31bc 5687 b03c bc33 dd3b
00000250: 730d 1f3c bdca 8b3b 30e7 643c 8c85 a3bc
00000260: 4954 5fbb e039 0bbc e0f0 0abd 575e 7a3b
00000270: b60b 91bc 0cee d43c 6d63 01bb 5bf7 58bb
00000280: 147e b03c f49d aebb 1722 3d3c c2b1 d0bc
00000290: 4f8e a93c 7917 a0ba 14f3 f8bb b656 4c3c
000002a0: a2d1 94bb 1faa d23c a875 803c c098 d4bc
000002b0: b2a9 433b e5b6 faba b826 fd3b 8270 103b
000002c0: 7090 b1bc 2ac7 20bd 05ca 84bc 9e70 23bd
000002d0: a79e fdbc cadd b13b dc94 2ebc ebc9 ae3c
000002e0: 7818 fdba 7d30 5b3c bb09 d83c 5697 87bb
000002f0: 21c2 db3c 74e2 9b3c 01e4 c13b d40d 8b3c
00000300: 665b 91ba 1b8c e83b 8ea6 54bc e30b b6bc
00000310: 2d59 69bc 3524 c2bb 0315 923b 3022 8cbc
00000320: 95d9 79bc 506b 31bb f498 4b3c 5d3e b0bc
00000330: 8742 af3c 8d4e e23b c91e 5fbc f85b c2bb
00000340: 6b19 70bb 4c44 85bb e352 8ebc 2560 77bc
00000350: de28 e3bb db17 b03b f0b8 dfbc c641 babc
00000360: b640 f43b 1f5c d8b9 f4c6 9fba 8046 523c
00000370: c83c 9a3c 9dd3 9cbc 3c6f 5f3c d242 83ba
00000380: 8dd6 e4bc a1a3 aebb ce00 173c c04c 2cbc
00000390: d2d5 bebb 7063 0bbc ea31 fa3b 8020 c7bc
000003a0: 70ec 81bb e4e7 47bc d09b a7bc 9f77 14bc
000003b0: 228f 95bc 86f8 c83b 0ea9 123b a1b4 3abc
000003c0: d242 fd3b 538c cebc 64d0 a5bc 7b6c 8cbc
000003d0: 0512 90bc ef6f e23c 7f29 8b39 786f 393c
000003e0: be7f c53c b620 d9bc c97d 0abb 6a5e fa3b
000003f0: 8f52 873c e492 02bc 9727 253c a38a bbbc

action_model._continuous_distribution.mu.bias f4 [3]
-0.0006151456 0.0012629549 -0.00062929146
00000000: b941 21ba bc89 a53a 09f7 24ba

action_model._discrete_distribution.branches.0.weight f4 [1, 128]
-0.0070122317 -0.0036665292 0.0040582004 0.010192786 0.012037798 -3.5972706e-05 -0.0020615642 5.9074442e-05
0.016041053 0.0013171639 0.0022558258 -0.0020145741 -0.006985762 0.01378444 0.010396553 0.0014547486
-0.0044149766 -0.007997185 0.007875049 -0.015656158 0.01986125 -0.0013542272 -0.0074728825 0.0073418054
-0.013873706 -0.008222353 -0.0016465614 0.009519005 0.019953985 0.006432321 -0.0017032633 0.004773074
0.0039943657 -0.0018218143 -0.018964255 0.008822845 0.003951566 -0.0027133308 0.017635435 -0.0048635877
0.0025104384 -0.0027959894 -0.013657579 0.0012501002 0.0069447146 0.007736083 0.0042607295 0.0036185074
-0.00383687 0.0028189558 0.01333444 0.0027728372 0.026772091 -0.014162848 0.0071400474 -0.0008735968
-0.0064889975 0.0014453451 -0.002463287 -0.01068508 -0.0042774524 0.01606578 -0.009371023 -0.0042569097
-0.004383815 -0.0074732415 -0.00211679 0.011876379 -0.0061456966 -0.0007398932 -0.012272478 -0.0041189203
0.0029616454 -0.0057172156 0.0100379605 0.0017151235 0.0069615208 -0.0028940642 0.006295815 0.0012880493
0.02317523 0.008859088 -0.0040261033 -0.003301133 0.0012416093 0.010766308 0.01306887 -0.005327165
0.0011124009 0.0025869631 -0.0201707 0.00088926684 0.0022985379 -0.0085658915 -0.009749726 0.00062739995
-0.009302293 0.005548646 0.008048783 -0.008771408 -0.004646599 0.0030895623 0.016391011 0.0014086654
-0.0065367124 0.008756842 0.013180931 -0.010658163 -0.018536558 0.0071912752 0.018444221 0.0037054536
0.011360715 -0.007048294 -0.009917873 -0.009560671 -0.013707547 0.0058729583 -0.014122938 -0.0016550422
-0.0050751893 0.009135414 0.009617793 -0.0063984296 0.002158025 0.0033155007 0.0088669285 -0.020101255
00000000: ddc6 e5bb 274a 70bb a7fa 843b a5ff 263c
00000010: 2f3a 453c 66e1 16b8 4f1b 07bb b3c6 7738
00000020: 8768 833c b0a4 ac3a 7ad6 133b f206 04bb
00000030: d2e8 e4bb 22d8 613c 4e56 2a3c 43ad be3a
00000040: 82ab 90bb a006 03bc 5906 013c 5841 80bc
00000050: 0fb4 a23c 5380 b1ba 15df f4bb 8793 f03b
00000060: 8a4e 63bc 0cb7 06bc 6fd1 d7ba 9af5 1b3c
00000070: 8a76 a33c 38c6 d23b 0840 dfba 7267 9c3b
00000080: 2be3 823b f2c9 eeba ed5a 9bbc b28d 103c
00000090: 237c 813b 23d2 31bb 3078 903c bb5e 9fbb
000000a0: 2b86 243b eb3c 37bb 0ac4 5fbc 67da a33a
000000b0: 7d90 e33b f87e fd3b 979d 8b3b 7b24 6d3b
000000c0: ff73 7bbb 3bbe 383b b278 5a3c 7db8 353b
000000d0: 2551 db3c 4a0b 68bc 0ff7 e93b 1702 65ba
000000e0: a8a1 d4bb bc71 bd3a 196f 21bb 7910 2fbc
000000f0: df29 8cbb 629c 833c eb88 19bc 8c7d 8bbb
00000100: 1ba6 8fbb 18e2 f4bb d8b9 0abb 2595 423c
00000110: d761 c9bb 64f5 41ba 8112 49bc 02f8 86bb
00000120: 2a18 423b 7b57 bbbb 4276 243c ffcd e03a
00000130: 781d e43b 57aa 3dbb 204d ce3b c3d3 a83a
00000140: fbd9 bd3c b525 113c 67ed 83bb d257 58bb
00000150: 7fbd a23a 2b65 303c d01e 563c 808f aebb
00000160: fbcd 913a 0a8a 293b 063d a5bc b01d 693a
00000170: 11a3 163b f457 0cbc 51bd 1fbc 1978 243a
00000180: a568 18bc 6bd1 b53b 0bdf 033c f4b5 0fbc
00000190: 7f42 98bb 417a 4a3b 7146 863c f8a2 b83a
000001a0: eb31 d6bb dc78 0f3c d5f4 573c 939f 2ebc
000001b0: fbd9 97bc caa4 eb3b 5618 973c 32d7 723b
000001c0: 4b22 3a3c 60f5 e6bb 937e 22bc 5ca4 1cbc
000001d0: 9f95 60bc f271 c03b e563 67bc 00ee d8ba
000001e0: c64d a6bb b4ac 153c f393 1d3c eba9 d1bb
000001f0: a76d 0d3b df48 593b 9846 113c 63ab a4bc
