V2/PellerGrabber/results/Simple/AgentControl/AgentControl-499994.pt (torch, 446049 bytes, 39 tensors)

network_body._body_endoder.seq_layers.0.weight f4 [128, 6]
0	0xbe0266d9	-0.12734546
1	0xbcb92eeb	-0.02260538
2	0x3f4c37fd	0.7977293
3	0x3ef85fec	0.48510683
4	0x3e99a296	0.30006856
5	0xbe815533	-0.25260314
6	0x3d81877e	0.06324671
7	0xbe8bc3b9	-0.27297762
8	0xbef6f7ae	-0.4823584
9	0xbee27a71	-0.4423404
10	0xbd7a2ba6	-0.061076783
11	0x3e5bc9d4	0.2146371
12	0xbe13159b	-0.1436371
13	0xbcbe7e24	-0.023253508
14	0x3f566ff0	0.83764553
15	0xbead1c00	-0.33810425
16	0xbe7888bd	-0.24270912
17	0x3d47d497	0.048786726
18	0xbc65f2bb	-0.014034922
19	0xbda47bfd	-0.080314614
20	0xbe93a7b5	-0.28838888
21	0xbbd4ca2a	-0.0064938264
22	0xbe1c216b	-0.15247123
23	0xbf0640fc	-0.5244291
24	0xbe139114	-0.14410812
25	0x3edbdf00	0.42943573
26	0x3e9922fe	0.2990951
27	0x3ebb55df	0.36588952
28	0x3f241c0c	0.64105296
29	0x3d8f6061	0.07000805
30	0xbf5c8ebe	-0.8615531
31	0x3e8721d5	0.26393
32	0x3ea14630	0.3149886
33	0x3f5b39c5	0.85635024
34	0x3ed22572	0.41044194
35	0x3efa2e9b	0.48863682
36	0x3db4a8bd	0.08821247
37	0x3db2ba86	0.08726983
38	0xbe92e59f	-0.28690812
39	0x3eb19510	0.34684038
40	0xbe60e56e	-0.2196252
41	0xbf2ac8f0	-0.66712856
42	0xbdc75cb3	-0.09734478
43	0x3e0a58c5	0.13510425
44	0xbe3114f9	-0.17293157
45	0x3ef32790	0.4749112
46	0xbe0d1c40	-0.13780308
47	0xbe69f483	-0.2284718
48	0x3eab20e2	0.33423525
49	0x3e3be1af	0.1834781
50	0xbf1a7939	-0.6034122
51	0xbf3fa9b8	-0.74868345
52	0x3e506d2c	0.20354146
53	0xbe031b3d	-0.1280336
54	0x3e3ad1e1	0.18244125
55	0x3f14f04b	0.5817916
56	0x3eab5069	0.33459786
57	0x3e7110ea	0.23541608
58	0x3ecc08b3	0.39850387
59	0xbe93bc34	-0.28854525
60	0x3e38d736	0.18050846
61	0xbe9a1512	-0.300942
62	0x3f32cb51	0.69841486
63	0x3f55681b	0.8336198
64	0xbec265b5	-0.3796822
65	0xbe0b410f	-0.13599037
66	0xbdaca3b2	-0.0842966
67	0xbd83088d	-0.06398115
68	0xbea6bc96	-0.32565755
69	0x3cb893f8	0.022531494
70	0xbe8e9ca7	-0.2785389
71	0x3e8b5033	0.27209625
72	0x3ee75b2b	0.45186743
73	0xbe8e9ee9	-0.27855614
74	0xbdbc0b3c	-0.0918183
75	0x3efef4f0	0.49796247
76	0x3e19407f	0.1496601
77	0xbe32b289	-0.17450918
78	0x3f3bd76f	0.733756
79	0xbe6f975d	-0.23397584
80	0x3f620c1a	0.88299716
81	0x3cc89dc3	0.02448929
82	0xbdfa25bf	-0.12214231
83	0xbde8a90b	-0.113603674
84	0xbe6ee47c	-0.23329347
85	0xbe382b06	-0.17985162
86	0xbe80eee3	-0.25182256
87	0x3f045aaa	0.5170084
88	0x3defa757	0.117018394
89	0xbf20a79b	-0.62755746
90	0xbf35f7f4	-0.7108147
91	0x3e67c853	0.22635011
92	0x3f095878	0.5365062
93	0x3de01ac4	0.10942605
94	0x3ebc009e	0.3671922
95	0x3e5da223	0.21643881
96	0x3e14a70c	0.14516848
97	0x3f2a9918	0.6663985
98	0xbde8fc8b	-0.11376294
99	0xbec4c55c	-0.38431823
100	0x3f1b53f1	0.6067496
101	0x3e85e876	0.26153916
102	0x3ea750e3	0.326789
103	0xbe994981	-0.29938892
104	0xbedf9219	-0.4366615
105	0x3e462a83	0.19352154
106	0x3de0a2cd	0.10968552
107	0x3eb3fd8a	0.35154372
108	0x3f0c1922	0.5472585
109	0x3dc415ba	0.095744565
110	0xbe36ceee	-0.17852375
111	0x3e2bf17b	0.16791336
112	0xbd54de28	-0.051969677
113	0xbeb6b4dc	-0.3568486
114	0x3e714538	0.23561561
115	0xbe8d870c	-0.27642095
116	0xbeba5f00	-0.36400604
117	0x3f0aa748	0.541615
118	0xbf05c8fe	-0.52259815
119	0x3eb19fce	0.34692234
120	0xbd24d251	-0.040239636
121	0xbf1e672b	-0.6187617
122	0x3e477a8a	0.19480339
123	0x3f6002bf	0.8750419
124	0xbcf84bf8	-0.030309662
125	0xbf153177	-0.582786
126	0x3deb2022	0.11480738
127	0x3ee96e6f	0.45592067
128	0x3c010ef1	0.007877097
129	0x3e06cb73	0.13163547
130	0xbeb95746	-0.36199397
131	0xbeebe0e5	-0.46070018
132	0x3e32636a	0.17420736
133	0xbf05720c	-0.52127147
134	0x3f1bc256	0.6084341
135	0xbe839c78	-0.25705314
136	0x3e256bfc	0.16154474
137	0xbe915794	-0.2838713
138	0x3e9f452d	0.31107464
139	0xbe569d29	-0.2095839
140	0xbe8f2b4f	-0.2796273
141	0x3f3172b2	0.69315636
142	0x3dbef542	0.09324123
143	0xbe0095dc	-0.12557167
144	0xbebcccaa	-0.36874896
145	0xbf2c2b1e	-0.6725329
146	0x3ef7dc53	0.48410282
147	0xbe2a3329	-0.16621079
148	0x3cbe92cf	0.023263363
149	0x3eeb1ed8	0.4592197
150	0xbe836fd1	-0.25671247
151	0x3e70a336	0.2349976
152	0xbf321ad2	-0.69572175
153	0xbd98d9d3	-0.07463422
154	0xbed061e4	-0.40699685
155	0x3df1f4d0	0.118142724
156	0xbf07bb47	-0.5302014
157	0x3ec06903	0.37580118
158	0x3f162c2f	0.5866117
159	0x3dbfd8aa	0.09367497
160	0xbc9990a6	-0.018745732
161	0xbe657879	-0.22409238
162	0xbe5872b9	-0.21137513
163	0x3db42323	0.08795764
164	0xbeeb01e4	-0.4589988
165	0xbe0eb12c	-0.13934773
166	0x3f7c4fe8	0.9855943
167	0x3f228ba6	0.63494337
168	0x3ecc692c	0.3992399
169	0x3f814ccc	1.0101562
170	0xbde14d5b	-0.110010825
171	0xbd4bae2b	-0.049726646
172	0x3e347ec5	0.17626484
173	0x3e92d11a	0.28675157
174	0x3e653df9	0.22386922
175	0x3ed5109e	0.4161424
176	0xbafa0ce4	-0.0019077328
177	0xbf059f38	-0.52196074
178	0xbccb3a01	-0.024807932
179	0x3cd55cca	0.026045222
180	0xbd7a227f	-0.061068054
181	0xbe008859	-0.12552013
182	0xbe0a704a	-0.13519397
183	0xbeb5a0bf	-0.35474202
184	0x3eade151	0.33960965
185	0xbef7bde8	-0.48387074
186	0x3e2cc165	0.16870649
187	0x3f001199	0.5002685
188	0xbd545d96	-0.051847063
189	0xbebc845f	-0.3681974
190	0xbd3f8d39	-0.04676554
191	0xbf530a28	-0.8243737
192	0x3eab8a5d	0.33504
193	0xbec484e3	-0.38382635
194	0xbe1ad1c6	-0.15119085
195	0xbe405ff6	-0.18786606
196	0x3f16988d	0.58826524
197	0xbdfa3e89	-0.12218959
198	0x3da05735	0.078291334
199	0xbd9f463b	-0.07777067
200	0xbf69216a	-0.9106661
201	0xbcc3fd97	-0.023924632
202	0x3e98f1e8	0.2987206
203	0xbf562730	-0.83653545
204	0x3eddac25	0.43295398
205	0x3f11c4a5	0.5694068
206	0xbf5c19a8	-0.8597665
207	0x3f07ef8c	0.53099895
208	0x3e1f297c	0.15543169
209	0xbe647790	-0.22311234
210	0xbf015433	-0.505191
211	0x3f22ae8c	0.6354759
212	0xbf4cae77	-0.7995371
213	0xbd10042b	-0.035160225
214	0xbe03076f	-0.12795804
215	0xbf0acec3	-0.54221743
216	0xbf00487d	-0.5011061
217	0xbf1592dd	-0.5842722
218	0x3d1500fc	0.036377892
219	0xbf148ef7	-0.5803065
220	0x3e57d44e	0.21077082
221	0x3d92fa91	0.07176698
222	0xbea1e33f	-0.31618688
223	0xbf2362d3	-0.6382267
224	0xbdc439d3	-0.095813416
225	0x3ee3ad59	0.4446819
226	0xbec7592e	-0.38935226
227	0x3dd731ed	0.105075695
228	0x3d3bb6ea	0.045828737
229	0x3e8fa0ef	0.2805247
230	0xbf5e0cff	-0.8673858
231	0xbefda744	-0.49541676
232	0xbe05b5d4	-0.13057643
233	0xbf11870d	-0.56846696
234	0xbf131763	-0.5745756
235	0x3f01cfe9	0.5070787
236	0x3f02e24b	0.51126546
237	0x3ebf885c	0.3740872
238	0xbe2b6bba	-0.16740313
239	0xbc9bbe16	-0.019011538
240	0xbe85cc7c	-0.26132572
241	0xbee7ee50	-0.45299006
242	0x3ecea449	0.40359715
243	0x3f3538cc	0.7078979
244	0x3df0d460	0.11759257
245	0x3f6c604e	0.9233445
246	0xbef9f751	-0.488215
247	0xbe3fefe7	-0.18743859
248	0x3f00450a	0.50105345
249	0xbe3507b0	-0.17678714
250	0xbf6bc184	-0.92092156
251	0x3ee32972	0.44367558
252	0xbecd8f0f	-0.40148208
253	0x3ebac8ae	0.3648123
254	0xbef64d6d	-0.48105946
255	0x3e88979e	0.26678175

network_body._body_endoder.seq_layers.0.bias f4 [128]
0	0xbd14db95	-0.036342222
1	0x3bb590d3	0.005540946
2	0x3ccd315a	0.025047947
3	0xbcde6f15	-0.027152577
4	0x3d465139	0.048417304
5	0x3d1bd1ba	0.038041808
6	0x3d05810c	0.03259377
7	0x3d86fa4d	0.0659071
8	0x3d07029f	0.032961484
9	0xbc8b9307	-0.017037882
10	0x3d5d3fc4	0.05401589
11	0xbb085eab	-0.002080838
12	0x3c533382	0.012890698
13	0xbcbfb413	-0.023401296
14	0x3bd543a8	0.0065083094
15	0x3d053289	0.032518897
16	0x3d3a6264	0.04550399
17	0x3c940aba	0.018071521
18	0xbc9b9cd7	-0.018995686
19	0x3d4921ce	0.049104504
20	0x3d804835	0.062637724
21	0xbcae3a62	-0.021268073
22	0x3d5b7af7	0.053584065
23	0x3ce35400	0.027750015
24	0x3d60759e	0.05479967
25	0x3b7271b1	0.0036994035
26	0xbbddcb92	-0.0067686522
27	0xbb025fa1	-0.0019893425
28	0xbc7dbfa9	-0.01548759
29	0x3ced9153	0.02899996
30	0x3da1a126	0.07892065
31	0x3d08f587	0.033437278
32	0xbc9edf17	-0.019393487
33	0xbd086ee2	-0.03330887
34	0x3c4b4b99	0.012408161
35	0x3cc0b436	0.023523431
36	0xbc41657e	-0.011803983
37	0xbd1d4e3d	-0.038404692
38	0xbc2937f5	-0.010328283
39	0x3d4ca2c0	0.049959898
40	0x3da03be0	0.0782392
41	0x3a66dbd0	0.00088065583
42	0xbd16ec6a	-0.036846556
43	0x3d1a46ef	0.037665304
44	0x3bce0b2b	0.0062879524
45	0xbce36970	-0.027760237
46	0x3c3e0d04	0.011599783
47	0x3cffc7d2	0.031223211
48	0x3c326d87	0.010890371
49	0x3daa39be	0.08311795
50	0xbba6b4b8	-0.0050874613
51	0xb9d15447	-0.00039926378
52	0x3c227a01	0.009916783
53	0xbceac945	-0.028660426
54	0x3d4e11da	0.050309993
55	0x3d7e538a	0.062091388
56	0xbd8e6093	-0.06952014
57	0xbd14c052	-0.036316223
58	0x3d108513	0.03528316
59	0x3d9afb31	0.07567442
60	0xbb437bf5	-0.0029828523
61	0xbd1e7a56	-0.038690887
62	0xbc24e34d	-0.010063958
63	0x3ca179db	0.019711426
64	0x3c72845a	0.014802063
65	0x3da16212	0.078800336
66	0xbb7fb23c	-0.0039016148
67	0x3c596e63	0.013270947
68	0x3be4069c	0.0069587957
69	0x3b5f2b10	0.0034052767
70	0x3c91fe67	0.017821504
71	0x3cb4f5f2	0.022089932
72	0x3c7b3661	0.015332789
73	0x3d21d5f7	0.039510693
74	0x3d3d82cf	0.046267327
75	0xbb699671	-0.0035642649
76	0x3c52b9db	0.012861694
77	0xbcfbcccd	-0.030737305
78	0x3cc9949f	0.024607
79	0x3cefe13c	0.029282205
80	0x3d0bd818	0.03414163
81	0x3bb79e3b	0.0056035793
82	0x3c5987df	0.013277023
83	0x3bc6f263	0.006071375
84	0x3d436ce6	0.047711276
85	0x3c723db8	0.014785223
86	0x3b97855e	0.004624053
87	0x3d474ac2	0.04865528
88	0xbd4af612	-0.049551077
89	0x3d523d78	0.051328152
90	0x3d013773	0.03154702
91	0xbcbfbd7c	-0.023405783
92	0xbcd502d1	-0.02600232
93	0xbd4e8f31	-0.050429527
94	0x3ce44acb	0.027867695
95	0x3d62cd21	0.055371407
96	0x3caec1dc	0.021332674
97	0x3dd95652	0.106121674
98	0x3d0af9de	0.0339297
99	0xbc8d6674	-0.017260768
100	0x3d1c67ef	0.038185056
101	0xbca091f8	-0.019600853
102	0x3d375062	0.044754393
103	0x3c987e44	0.018614896
104	0x3d6279c2	0.0552919
105	0xbc8558ff	-0.016277788
106	0x3d007976	0.031365834
107	0xba08a888	-0.00052131014
108	0xbbf63191	-0.007513233
109	0x3d39b0a7	0.045334484
110	0xbcd587b1	-0.02606568
111	0xbbab3b48	-0.0052255727
112	0xbb3c1e69	-0.002870465
113	0x3d370bae	0.044688873
114	0x3d4dd396	0.050250612
115	0x3ccde359	0.025132822
116	0xbcf474a1	-0.02984077
117	0xbcbb5fc9	-0.022872822
118	0x3cc0047a	0.023439635
119	0x3c58b778	0.013227336
120	0x3d0884c6	0.033329748
121	0x3d580080	0.05273485
122	0xbc9db841	-0.019252898
123	0x3cb387c1	0.021915318
124	0x3c1130b7	0.008861712
125	0x3d9e05ca	0.07715948
126	0x3c3ca0ef	0.011512979
127	0xbb8e6cbc	-0.0043464582

network_body._body_endoder.seq_layers.2.weight f4 [128, 128]
0	0x3d917218	0.0710184
1	0xbd05f976	-0.032708608
2	0x3d5abd46	0.05340316
3	0xbd91bca9	-0.07116062
4	0xbd1e3ae4	-0.03863038
5	0x3e50f219	0.20404853
6	0xbd8ffff7	-0.07031243
7	0xbdab7082	-0.083710685
8	0x3cd0a800	0.025470734
9	0x3d33e36b	0.043918055
10	0x3dce6b81	0.100790985
11	0xbc296287	-0.010338432
12	0xbacc31b5	-0.0015578779
13	0x3be35db2	0.0069386596
14	0x3dbd23c5	0.09235338
15	0xbd31afdb	-0.0433806
16	0xbd7dbb10	-0.061945975
17	0xbc4a55bc	-0.012349542
18	0xbdba3bae	-0.09093414
19	0x3af00440	0.0018311813
20	0x3e19e71a	0.15029564
21	0xbc9cc8f4	-0.01913879
22	0x3cd89389	0.026437538
23	0x3d30e500	0.04318714
24	0xbba3ff24	-0.0050047804
25	0xbd2e4638	-0.042547435
26	0x3e3f28f3	0.18667965
27	0xbd49b699	-0.049246404
28	0x3c8ff92e	0.017574873
29	0x3e21c5fc	0.15798181
30	0xbc7b7a5c	-0.015348997
31	0x3de629aa	0.112384155
32	0x3ca31737	0.01990853
33	0xbd8c4f7f	-0.068511
34	0x3e23442b	0.15943973
35	0x3cc1a3c9	0.02363767
36	0xbd0a3b32	-0.03374786
37	0x3d0f36a1	0.034964208
38	0x3d84c94c	0.06483707
39	0xbaf4201d	-0.0018625293
40	0x3d233e27	0.039854195
41	0xbd6f74b1	-0.058460895
42	0x3e05cd4e	0.13066599
43	0xbccd1d47	-0.025038375
44	0x3d9f39a1	0.07774664
45	0x3e226c97	0.15861736
46	0xbd381601	-0.04494286
47	0xbd3e4782	-0.046454914
48	0xbd7838bc	-0.06060098
49	0xbdffc863	-0.124893926
50	0xbca758b8	-0.020428047
51	0xbc7fdc20	-0.015616447
52	0xbdf85744	-0.121260196
53	0x3e1f1d03	0.15538411
54	0x3dd335a0	0.103129625
55	0xbcddb219	-0.027062463
56	0x3da35104	0.07974437
57	0xbdd982ca	-0.10620649
58	0x3df5d5e5	0.12003688
59	0x3dc3cd68	0.095606625
60	0xbc850e9b	-0.016242316
61	0xbe0d4351	-0.1379521
62	0xbc9b0649	-0.018923895
63	0xbdbcf0fe	-0.09225653
64	0x3e0e68a0	0.13907099
65	0xbe0e667e	-0.13906285
66	0x3ca5fd2e	0.020262327
67	0xbd63afa0	-0.05558741
68	0xbd6404e4	-0.055668727
69	0x3e4807c0	0.19534206
70	0x3ad0fdb5	0.0015944751
71	0x3da656c1	0.08122016
72	0xbda6d07d	-0.08145235
73	0xbd593c9e	-0.053036325
74	0xbd3555f3	-0.04427142
75	0xbde7687a	-0.11299224
76	0x3e0e2849	0.13882555
77	0xbb443a26	-0.0029941886
78	0x3e05adf4	0.13054639
79	0x3d3aad11	0.045575205
80	0xbe11172b	-0.14168994
81	0xbd53c03d	-0.051697005
82	0xbbd51b7e	-0.0065035215
83	0x3cc2c744	0.023776658
84	0x3e4b9317	0.19880329
85	0xbcd0d8b0	-0.02549395
86	0xbdd40ed2	-0.10354389
87	0x3d9158e9	0.070970364
88	0xbbc468d0	-0.00599394
89	0x3d26aa59	0.0406898
90	0x3e3d35aa	0.18477502
91	0xbda54de6	-0.080714986
92	0xbd8a7213	-0.06760039
93	0x3e2722d3	0.16321878
94	0x3d8d7a69	0.069081135
95	0xbdf66c2a	-0.120323494
96	0x3de289ab	0.11061414
97	0xbd60f7fe	-0.054924004
98	0x3dc41e7d	0.09576128
99	0xbdcf56c1	-0.10123969
100	0xbd19ed20	-0.037579656
101	0xbe034f06	-0.12823114
102	0x3d1776f3	0.036978673
103	0x3cc8ea1e	0.024525698
104	0x3e0492c9	0.12946619
105	0x3d96e01b	0.073669635
106	0xbbdec0b0	-0.0067978725
107	0xbcc442c5	-0.02395762
108	0x3b89c990	0.0042049363
109	0x3e3878aa	0.1801478
110	0xbdb9c88f	-0.09071457
111	0x3d2b45a2	0.041814454
112	0xbcc34d99	-0.023840712
113	0xbde88cf3	-0.11355009
114	0x3c281981	0.010259987
115	0xbdbdc5a7	-0.09266215
116	0xbdd70e06	-0.10500722
117	0x3d9e3602	0.07725145
118	0x3c869ffa	0.016433705
119	0x3ca9045c	0.020631962
120	0x3dd0b5d7	0.10190933
121	0xbdec2743	-0.11530926
122	0x3c85ac54	0.016317524
123	0xbc7baac0	-0.015360534
124	0x3b58d614	0.0033086585
125	0xbb647443	-0.0034859336
126	0xbde9d015	-0.114166416
127	0x3db5f0dc	0.08883831
128	0x3b8b1600	0.004244566
129	0x3dbd74fa	0.09250827
130	0xbe06cf6c	-0.13165063
131	0xbcc667c6	-0.024219405
132	0x3e40e94b	0.18838994
133	0x3e0ca4c1	0.13734724
134	0xbcd4212e	-0.025894728
135	0x3e385c75	0.1800402
136	0xbdb99311	-0.09061254
137	0xbda4ff5d	-0.08056519
138	0x3d7c80b1	0.061646167
139	0x3d672020	0.05642712
140	0xbe255aeb	-0.16147964
141	0x3c560223	0.013062033
142	0x3ddee157	0.10882824
143	0x3d2e543f	0.042560812
144	0xbd0c757b	-0.034291726
145	0x3dddcf95	0.10830609
146	0xbc657b40	-0.014006436
147	0x3cd07e73	0.02545092
148	0x3e166314	0.14686233
149	0xbdf0eefe	-0.11764334
150	0xbe01fa38	-0.12693107
151	0x3e66ec4d	0.22551079
152	0x3d83e9c0	0.06441069
153	0x3dbc620f	0.09198391
154	0x3e1b0692	0.15139225
155	0x3e0bc885	0.13650711
156	0xbd68250a	-0.05667595
157	0x3c1faa4b	0.009745191
158	0xbde6e22b	-0.11273607
159	0xbe22c776	-0.15896401
160	0xbe1e0579	-0.15431775
161	0x3de0db17	0.10979288
162	0x3c9078e5	0.017635772
163	0xbe07f268	-0.13276064
164	0x3e46e0d9	0.1942171
165	0xbe28bca9	-0.16478218
166	0x3c4c4c9c	0.012469437
167	0x3e107eb3	0.14110832
168	0xbdcf9f90	-0.10137856
169	0x3ca2430c	0.019807361
170	0x3d9732bc	0.07382724
171	0xbd8d36b6	-0.06895201
172	0xbd3532c0	-0.044237852
173	0x3e09a7a6	0.13442859
174	0x3e30e07b	0.17273133
175	0x3d7a4fc4	0.061111227
176	0xbe2716c3	-0.16317277
177	0x3de239b0	0.11046159
178	0xbd3f0930	-0.04663962
179	0x3ddf2f6b	0.10897716
180	0xbc7033dc	-0.014660802
181	0xbc653b8e	-0.01399125
182	0x3d8d5532	0.06901015
183	0x3cf1d055	0.029518286
184	0xbc7fe260	-0.015617937
185	0xbd4cd149	-0.050004277
186	0xbe38f466	-0.1806198
187	0xbdab06da	-0.08350916
188	0xbd76dac7	-0.060267236
189	0xbd139f13	-0.036040377
190	0x3d410719	0.04712591
191	0xbd12dbdb	-0.0358542
192	0x3d24528f	0.040117797
193	0xbd538a8e	-0.051645808
194	0x3c4ac651	0.012376384
195	0x3c0ff23a	0.008785779
196	0x3dbd15e2	0.092326894
197	0x3cbc7903	0.023006922
198	0xbd3e2588	-0.04642251
199	0xbd3d1e8e	-0.046171717
200	0x3e0264d0	0.1273377
201	0x3dc8c804	0.09803775
202	0xbda24876	-0.07923977
203	0x3b81cd16	0.0039612157
204	0x3dadb42d	0.084816314
205	0x3db4edaf	0.08834397
206	0x3dd725d3	0.10505261
207	0x3de85093	0.11343493
208	0x3e8ace16	0.27110356
209	0xbe0839d2	-0.13303307
210	0xbdbdec42	-0.09273578
211	0x3ddc6afc	0.10762593
212	0x3e3e68da	0.18594685
213	0x3e27c467	0.16383515
214	0xbda34ee1	-0.07974029
215	0x3d3639bb	0.04448865
216	0x3cdc1971	0.0268676
217	0x3d66944a	0.056293763
218	0x3dc45a00	0.09587479
219	0x3da91ca3	0.08257415
220	0xbe087978	-0.13327587
221	0x3d2464ce	0.040135197
222	0xbe61df21	-0.22057773
223	0x3b68a06e	0.0035496014
224	0x3de80890	0.11329758
225	0x3dc44362	0.09583165
226	0xbdebeb4f	-0.11519491
227	0xbe1d8479	-0.15382566
228	0xbe365fb5	-0.17809947
229	0xbcee3ab6	-0.02908073
230	0xbe1bc532	-0.15211943
231	0x3ceafddb	0.0286855
232	0x3cd9c229	0.02658184
233	0xbca4fa03	-0.020138746
234	0x3d2f406b	0.042786043
235	0xbdad0713	-0.08448615
236	0x3e717e8e	0.23583433
237	0xbdc35767	-0.09538155
238	0x3e16aae9	0.14713635
239	0xbd6c370e	-0.05766969
240	0x3d4f71d0	0.05064565
241	0xbe4ed9ba	-0.20200244
242	0x3c3f3f46	0.0116728
243	0x3d9e1e0f	0.07720577
244	0x3d4680da	0.048462726
245	0xbd15e996	-0.036599718
246	0x3c9e0c25	0.0192929
247	0xbcc25edd	-0.023726875
248	0xbe0d5326	-0.1380125
249	0xbc8eb257	-0.017419023
250	0xbd4ddddb	-0.050260406
251	0x3ceb0ff7	0.028694136
252	0xbd46708d	-0.04844718
253	0x3d8ebd37	0.069696836
254	0x3c551ff0	0.013008103
255	0xbd93e3a5	-0.07221154

network_body._body_endoder.seq_layers.2.bias f4 [128]
0	0x3bc93325	0.00614013
1	0x3cd5e4d0	0.026110083
2	0x3d011037	0.031509604
3	0x3d3027e8	0.043006808
4	0x3d41a0f7	0.04727265
5	0x3cf7b014	0.030235328
6	0x3d2edcb1	0.042690936
7	0x3c792fb5	0.015209128
8	0xbbb4df6b	-0.0055197976
9	0x3d192d21	0.037396554
10	0x3cbfcf7f	0.023414372
11	0x3d0cd48b	0.034382384
12	0x3d320aa4	0.04346718
13	0x3ced3466	0.02895565
14	0x3c7157e9	0.014730432
15	0x3c309e02	0.0107798595
16	0x3cff93d2	0.031198416
17	0x3d4843c3	0.048892748
18	0x3c43ee5b	0.011958684
19	0x3d15b031	0.036544982
20	0x3cde5602	0.027140621
21	0x3c65a16a	0.014015535
22	0x3d6b463a	0.05744002
23	0x3d2cf7c4	0.042228475
24	0x3ca8ce88	0.020606294
25	0x3d3fe0f4	0.04684539
26	0x3d966426	0.073433205
27	0x3c834c3f	0.016027568
28	0x3d10f8ba	0.035393454
29	0x3d8bf9a1	0.06834722
30	0x3d7e09d8	0.062021106
31	0x3c55446d	0.013016802
32	0x3d61f053	0.05516083
33	0x3c92375b	0.017848661
34	0x3ca24a44	0.019810803
35	0x3c73968a	0.014867434
36	0x3cf0bd93	0.029387271
37	0x3c98dcc5	0.018659959
38	0x3bc13ae1	0.0058969115
39	0x3d0c5557	0.034261074
40	0x3d910798	0.070815265
41	0x3d405c80	0.046963215
42	0x3c2b83c1	0.010468424
43	0x3d1061de	0.035249583
44	0xbb17f703	-0.0023188002
45	0x3d948291	0.07251466
46	0x3cd9c635	0.02658377
47	0x3cbe5c44	0.023237355
48	0x3d4beb65	0.049785037
49	0x3cc0b208	0.023522392
50	0x3ce996f3	0.028514361
51	0x3c77f37d	0.015133736
52	0x3d80a47b	0.06281372
53	0x3d234952	0.039864846
54	0x3d1867e3	0.03720845
55	0x3bf2b259	0.0074065146
56	0x3d78afb0	0.060714424
57	0xbc231171	-0.009952889
58	0x3cd7ef74	0.026359297
59	0x3d9ca705	0.07649044
60	0x3d13f706	0.03612425
61	0x3c639588	0.0138906315
62	0x3c357d9c	0.011077311
63	0x3d53edaf	0.051740345
64	0x3ac2a975	0.0014851528
65	0x3cc84489	0.024446743
66	0x3d4555b2	0.04817743
67	0xbc975dc1	-0.018477323
68	0x3d5e46a4	0.054266587
69	0xb8dd4349	-0.00010550634
70	0x3d6f7594	0.05846174
71	0x3d635759	0.055503223
72	0x3d491561	0.049092654
73	0xb9bd2c72	-0.00036082003
74	0x3c469e55	0.01212271
75	0x3d03ae4a	0.032148637
76	0x3c37bba2	0.011214169
77	0x3cb0bcc5	0.021574387
78	0x3bb227ef	0.0054368894
79	0x3c4436a4	0.011975918
80	0x3b3afce9	0.0028532094
81	0x3d48ae53	0.048994374
82	0x3c1378a9	0.009000936
83	0x3c666b7f	0.014063715
84	0x3d30813a	0.04309199
85	0x3d1894d8	0.037251323
86	0x3d5e993a	0.054345347
87	0x3cdd6225	0.027024338
88	0x3d0cf6e2	0.034415133
89	0x3c77cd2a	0.0151245985
90	0x3bea866a	0.0071571367
91	0x3d4fec76	0.050762616
92	0x3d254bae	0.040355377
93	0x3c7cd887	0.0154324835
94	0x3c8adbbc	0.01695048
95	0x3d15a654	0.036535576
96	0x3bb82df7	0.005620714
97	0x3c9922bf	0.018693326
98	0x3d46de16	0.04855164
99	0x3c9103d2	0.017702017
100	0x3c4c45e0	0.012467831
101	0x3d5114f4	0.051045373
102	0x3cc1619e	0.023606118
103	0x3c318571	0.010835038
104	0x3bc2f0af	0.005949102
105	0x3d9bf6f0	0.07615459
106	0x3d76265c	0.060095176
107	0x3c32dbda	0.0109166745
108	0x3d1ed1bb	0.038774233
109	0x3c9dd98c	0.019268773
110	0x3d8ee1a3	0.069766305
111	0x3c958725	0.018252918
112	0x3caeeaf5	0.02135227
113	0x3ce11f44	0.027480729
114	0x3d0d034a	0.034426965
115	0x3d9d1748	0.07670456
116	0x3d0f91e1	0.03505123
117	0x3d2c37c9	0.04204539
118	0x3d3ac57a	0.045598485
119	0x3d7a56cd	0.061117936
120	0x3c8d0864	0.017215915
121	0x3d19ff7b	0.03759716
122	0x3d2e64d8	0.04257664
123	0x3a2048b5	0.000611435
124	0x3c804fc0	0.015663028
125	0x3d83c5c4	0.06434205
126	0x3d277c38	0.04088995
127	0x3cdf0404	0.027223594

action_model._continuous_distribution.log_sigma f4 [1, 2]
0	0x3b5175dc	0.0031961119
1	0x3ce50250	0.027955204

action_model._continuous_distribution.mu.weight f4 [2, 128]
0	0x3bf561fc	0.0074884873
1	0x3d0a25d9	0.0337275
2	0x3cf54853	0.029941713
3	0xbc4ceb1a	-0.012507224
4	0x3d5c5fb4	0.053802207
5	0xbcde2926	-0.02711923
6	0x3db951de	0.09048818
7	0x3cd7211c	0.026260905
8	0x3bf5e2b5	0.007503832
9	0x3c80e517	0.015734239
10	0xbd0c66c8	-0.034277707
11	0xbba7395e	-0.0051032742
12	0x3d06929f	0.032854673
13	0xbd7b13c4	-0.061298147
14	0xbcbe4a39	-0.023228751
15	0xbc940e72	-0.018073294
16	0x3d08cefe	0.033400528
17	0x3d7f3bae	0.062312774
18	0x3d209621	0.039205674
19	0xbd9904b2	-0.07471599
20	0x3db29818	0.08720416
21	0xba20f427	-0.0006139897
22	0x3dae2bdc	0.08504459
23	0x3dae8c91	0.08522905
24	0x3c164056	0.009170612
25	0xbd161d39	-0.036648963
26	0x3d46f323	0.048571717
27	0xbd005eec	-0.031340525
28	0xbcde0227	-0.027100636
29	0x3d9eccd8	0.077539146
30	0xbd0299cf	-0.031884965
31	0xbd2a2df5	-0.041547734
32	0x3b6308ed	0.0034642771
33	0x3d1a0ad0	0.037607968
34	0xbc7d6b66	-0.0154675
35	0x3ba32c33	0.004979634
36	0xbced7910	-0.028988391
37	0x3d762313	0.060092043
38	0xbd2771ea	-0.04088012
39	0xbc2d374d	-0.010572267
40	0xbd036a35	-0.03208371
41	0xbd76996b	-0.060204905
42	0xbd0f7014	-0.035018995
43	0x3d9c1421	0.07621027
44	0xbbac81cb	-0.005264496
45	0x3d830f51	0.06399406
46	0x3c8867f9	0.01665114
47	0x3cfc0745	0.030765185
48	0x3d567cfd	0.052365292
49	0x3cc82fb1	0.024436804
50	0xbc6ccc9c	-0.01445308
51	0x3d259e4b	0.040434163
52	0x3d8caeae	0.06869255
53	0xbd769423	-0.060199868
54	0xbd38d8cb	-0.045128625
55	0xbcaca3d1	-0.021074207
56	0xba92dd3d	-0.001120485
57	0xbb89f8c1	-0.004210562
58	0xbcbb72c1	-0.022881867
59	0xbdb3aeb6	-0.08773558
60	0xbd7ad273	-0.061235856
61	0x3d213b0f	0.039362963
62	0xbcd45672	-0.025920127
63	0xbd8f8abe	-0.07008885
64	0xbc1937d6	-0.009351691
65	0x3d189c60	0.037258506
66	0xba8ea6e9	-0.0010883483
67	0xbd10ca62	-0.035349257
68	0x3d325789	0.04354051
69	0x3be4f504	0.006987216
70	0x3d1dbea8	0.038511902
71	0xbd9bfe08	-0.07616812
72	0x3d4ed8d7	0.050499763
73	0xbd52295c	-0.051308975
74	0xbd279b71	-0.040919725
75	0x3d6e2203	0.058137905
76	0xbcd6f24e	-0.026238587
77	0xbdc18205	-0.094486274
78	0xbb853f27	-0.0040663662
79	0xbc824654	-0.015902676
80	0xbd469425	-0.048481125
81	0xbd17b815	-0.03704079
82	0xbd076498	-0.033054918
83	0x3cfd8f3a	0.030952085
84	0x3d8b93d4	0.06815305
85	0x3d9cec16	0.07662217
86	0x3d614bb3	0.055003833
87	0x3d151194	0.036393717
88	0xbd5f0701	-0.05445004
89	0x3d0ba16f	0.034089502
90	0xbd1686e1	-0.036749724
91	0x3c5c18ca	0.013433645
92	0x3c5214f6	0.01282238
93	0x3d5aa286	0.05337765
94	0x3d593226	0.05302634
95	0xbb886229	-0.004162092
96	0x3c8dfb47	0.017331732
97	0x3d28b0de	0.0411843
98	0x3d80538f	0.062659375
99	0x3c9f3b4c	0.019437455
100	0x3c592936	0.013254454
101	0xbd9e6863	-0.07734754
102	0x3d523587	0.05132058
103	0x3d37a5bb	0.044835787
104	0x3d005874	0.031334355
105	0x3d94781c	0.072494715
106	0x3d3fc9e8	0.046823412
107	0x3cf76432	0.030199144
108	0xbd9aa9be	-0.07551907
109	0x3d3af6b6	0.045645438
110	0xbddb9eb2	-0.10723628
111	0x3d28d291	0.041216437
112	0xbcef6cbe	-0.029226657
113	0xbd6a8034	-0.05725117
114	0xbcfbf1a5	-0.030754874
115	0xbd9d540d	-0.07682047
116	0xbcfe7d9b	-0.031065753
117	0x3d922f66	0.07137947
118	0x3cef0985	0.029179344
119	0x3dc7d28d	0.09756956
120	0xbd1cfdb8	-0.038327903
121	0x3d5dc650	0.054144204
122	0xbcdb6c9d	-0.02678519
123	0xbcf29f99	-0.029617118
124	0x3c17f115	0.009273787
125	0xb9eb67c4	-0.00044900004
126	0x3d33c34a	0.043887414
127	0x3d4a3899	0.049370382
128	0xbc788049	-0.015167304
129	0x3c7d33e3	0.015454265
130	0xbd57c7b0	-0.05268067
131	0x3d96f4e6	0.073709294
132	0x3d914b72	0.07094468
133	0x3c3cd81c	0.011526134
134	0x3d09362a	0.03349892
135	0x3d3fd6b4	0.046835616
136	0xbc5e97cd	-0.013585997
137	0xbd44a8a8	-0.048012406
138	0x3cbb9a76	0.022900801
139	0xbd9d3b12	-0.076772824
140	0x3d0b8d90	0.03407055
141	0x3bbeeef3	0.005826825
142	0xbd0c7844	-0.03429438
143	0x3cea2108	0.028580204
144	0x3d2b23cb	0.04178218
145	0xbdb35899	-0.08757133
146	0x3b562398	0.0032675024
147	0xbcfe0837	-0.031009777
148	0x3b9e239c	0.0048260223
149	0x3ccb6a53	0.024830973
150	0x3c9a391d	0.018826062
151	0x3d216ec5	0.03941228
152	0x3d2b4af0	0.041819513
153	0xbd3d50ff	-0.046219822
154	0x3dd0355c	0.101664275
155	0xbcb68fed	-0.022285426
156	0xbd1026a9	-0.03519312
157	0x3d8475d8	0.064677894
158	0xbd8bfe5e	-0.06835626
159	0x3c8f14e9	0.017466025
160	0x3ddb2d43	0.10701992
161	0xbd3b5814	-0.045738295
162	0x3d3a434a	0.045474328
163	0xbd173e08	-0.036924392
164	0xbcd3be79	-0.02584766
165	0x3cbb9ecb	0.022902867
166	0x3c1001a3	0.008789453
167	0xbd2ffebc	-0.042967543
168	0xbdb37d86	-0.08764176
169	0x3c0a9f7b	0.008460875
170	0x3c39fcc0	0.011351764
171	0x3cb69616	0.022288363
172	0xbccad77a	-0.02476095
173	0x3d950c12	0.07277693
174	0x3d877e50	0.06615889
175	0xbd5cbc96	-0.053890787
176	0x3d8ba58f	0.06818687
177	0x3c6e9678	0.014562242
178	0x3d71bc97	0.059017744
179	0xbda11090	-0.07864487
180	0x3d8ed685	0.0697451
181	0xbbfc960f	-0.007708318
182	0xbd47be9d	-0.048765767
183	0x3d0ae256	0.033907257
184	0xbdfa1b45	-0.122122325
185	0xb9b57aae	-0.00034614414
186	0xbce0a1f0	-0.027420968
187	0xbd53b8fa	-0.05169008
188	0x3ad84c84	0.0016502296
189	0xbc63c7b4	-0.013902593
190	0x3cf4a7ac	0.029865108
191	0x3d96d92f	0.07365643
192	0x3cbea321	0.023271145
193	0x3caf80b2	0.021423671
194	0x3d8ae2ec	0.06781563
195	0x3c20cf28	0.009815015
196	0x3df3e869	0.11909563
197	0xbc8e0053	-0.017334139
198	0x3dce0fb6	0.100615904
199	0xbd1ad717	-0.037802782
200	0x3d88b3cd	0.06674919
201	0xbae464f3	-0.0017425105
202	0x3cde9155	0.02716891
203	0x3cd6f0d1	0.026237877
204	0xbbd9128e	-0.0066245263
205	0x3ca4e159	0.020126985
206	0x3c7f2057	0.015571675
207	0xbd653630	-0.05595988
208	0xbd218066	-0.03942909
209	0xbd589780	-0.052878857
210	0xbd03b19a	-0.032151796
211	0x3d310e2f	0.043226417
212	0x3c14dd61	0.009085984
213	0x3c99a76b	0.018756589
214	0x3d47b2b9	0.048754428
215	0x3d17fbfd	0.03710555
216	0x3d1697f0	0.036765993
217	0x3cbd7189	0.023125427
218	0x3c9e346a	0.019312102
219	0xbdb88e9e	-0.09011577
220	0x3d461caf	0.0483672
221	0xbca2f692	-0.019892965
222	0xbce3c1c6	-0.02780236
223	0x3d844fd4	0.064605385
224	0xbc9dc3dd	-0.019258434
225	0xbda31114	-0.07962242
226	0xbb8b9241	-0.004259378
227	0x3c15a661	0.009133906
228	0x3d0ba91e	0.03409683
229	0xbc819edf	-0.015822826
230	0xbbb76075	-0.0055962154
231	0x3aa323e8	0.0012446614
232	0xbcf9248f	-0.03041294
233	0x3dd3567b	0.10319229
234	0x3d8d1c09	0.06890113
235	0xbcb13654	-0.021632351
236	0x3d1130ea	0.03544704
237	0x3cb484a8	0.022035912
238	0xbd5b694c	-0.053567216
239	0x3c0a6071	0.008445845
240	0x3d3afa8a	0.04564909
241	0x3d2cbdf3	0.042173337
242	0xbd5bfda0	-0.053708673
243	0xbd373277	-0.04472586
244	0x3d31c7b6	0.04340335
245	0x3c7c7fa7	0.015411294
246	0x3db659ab	0.089038216
247	0x3d9d256b	0.076731525
248	0xbc8a34d2	-0.01687089
249	0x3bcbda4a	0.0062210904
250	0xbd98222c	-0.07428393
251	0xbbb6fee1	-0.005584583
252	0x3cf8aa96	0.03035478
253	0x3d7ebc70	0.062191427
254	0x3d1b5487	0.03792241
255	0xbd89d88a	-0.06730755

action_model._continuous_distribution.mu.bias f4 [2]
0	0xbb2d22a6	-0.0026418357
1	0x3b879891	0.0041380604

action_model._discrete_distribution.branches.0.weight f4 [1, 128]
0	0xbc89cfb0	-0.016822666
1	0x3b99ee4d	0.004697597
2	0xba174103	-0.00057698804
3	0xbc7ca0a5	-0.01541916
4	0x3c534aa8	0.012896217
5	0x3a4b7390	0.00077610556
6	0x3b305df8	0.0026911478
7	0xbc0b2825	-0.008493458
8	0x3c8547e6	0.016269635
9	0xbc134825	-0.008989369
10	0xbb87a88b	-0.004139965
11	0xbab5a62b	-0.0013858726
12	0x3aca5546	0.001543679
13	0xbbf779ea	-0.007552375
14	0x3c38b886	0.011274463
15	0xbc029b3c	-0.007971581
16	0xbae76ae3	-0.0017655756
17	0xbc45e0b9	-0.012077504
18	0x3b979726	0.0046261726
19	0xbc2e6ef7	-0.010646573
20	0x3b9a51ff	0.0047094817
21	0x3c2465f4	0.010034073
22	0xbcc224ff	-0.023699282
23	0xbaeeb248	-0.0018211091
24	0x3c76657d	0.015038845
25	0xbc1a4580	-0.009415984
26	0xbc15b947	-0.009138412
27	0x3c11df1c	0.008903291
28	0xbc974be3	-0.018468803
29	0x3a858327	0.0010186181
30	0xbc628c7d	-0.01382744
31	0xb8a4dd24	-7.86132e-05
32	0xbb9fc27f	-0.0048754807
33	0x3bdcc677	0.006737526
34	0xbc31829a	-0.0108343605
35	0xbabec9bf	-0.0014555975
36	0x3b919e98	0.0044439547
37	0x3c63416f	0.013870581
38	0x3b981d25	0.004642146
39	0x3bb2d992	0.0054580653
40	0xbaab65d2	-0.001307661
41	0x3c5fc135	0.013656904
42	0xba558cea	-0.0008146303
43	0x3c413aaf	0.011793776
44	0x3c8c81ab	0.017151674
45	0x3a30a5ce	0.0006738574
46	0xbc08db49	-0.008353063
47	0x3bdff477	0.0068345624
48	0x3c248fc7	0.010044045
49	0x3b4a7bd3	0.003089656
50	0xbad683ab	-0.0016366144
51	0xba00feac	-0.00049207616
52	0x3c0afb64	0.008482788
53	0xbb86eade	-0.004117354
54	0x3cbf6aa5	0.023366282
55	0x3b920e61	0.0044572805
56	0x3c09024f	0.008362367
57	0x3b6b201a	0.0035877288
58	0x3b530755	0.0032200415
59	0xbc1864a4	-0.009301338
60	0xb916fa15	-0.00014398278
61	0xbbe2757b	-0.0069109774
62	0x397c80b0	0.00024080533
63	0x3c638978	0.013887756
64	0x3afb36fa	0.0019166165
65	0x36724d82	3.6105926e-06
66	0xbb5826cd	-0.0032982111
67	0xbc073d4a	-0.008254359
68	0x3c62f878	0.013853185
69	0xbb351271	-0.00276294
70	0xbbf6c428	-0.007530708
71	0x3bb3c343	0.0054859235
72	0xbb2c5d33	-0.0026300668
73	0xb8bcbb62	-8.999441e-05
74	0xbc450055	-0.012024005
75	0x3ac5642b	0.001505976
76	0xbb5748fb	-0.0032849896
77	0xbb9a2ee5	-0.0047052973
78	0x3c9dd909	0.01926853
79	0xbb4d4733	-0.0031322956
80	0xbc3f2a53	-0.011667806
81	0x3c9c8c19	0.019109773
82	0xbc63836d	-0.013886315
83	0x3a842ab7	0.0010083531
84	0x3bdd6d6a	0.006757428
85	0x3bf141fa	0.0073626013
86	0x3ae3bfd7	0.0017375898
87	0xbb490818	-0.003067499
88	0xbb4baec7	-0.0031079517
89	0x3bbf97d3	0.0058469563
90	0xbb27316b	-0.0025511633
91	0xbc63a5e7	-0.013894535
92	0x3b85b995	0.004080961
93	0x3b38bbaa	0.0028188028
94	0x3bdfbc17	0.006827842
95	0xba5d71b2	-0.0008447423
96	0x3acae7d3	0.0015480466
97	0x3c17becc	0.009261798
98	0x3aa76fa2	0.0012774358
99	0x3a410bbb	0.00073641137
100	0xbc06e27c	-0.008232709
101	0xbc220115	-0.009887953
102	0xbb9a29d0	-0.0047046915
103	0xbaafc3f3	-0.0013409838
104	0xbb842493	-0.0040326803
105	0xbc254437	-0.0100870645
106	0x3bf3caf0	0.0074399635
107	0xbb2c18c6	-0.0026259883
108	0x3aff2a7b	0.0019467616
109	0x3bda6e7d	0.0066660033
110	0xbaefaf5b	-0.0018286513
111	0xbb898427	-0.004196662
112	0x3b783065	0.0037870642
113	0xbb79ddbd	-0.003812655
114	0x3c4efcad	0.012633485
115	0x3c361d0e	0.011115326
116	0xba866ab6	-0.0010255191
117	0xbba71618	-0.0050990693
118	0xbbf484e5	-0.0074621313
119	0x3b84fe63	0.0040586456
120	0xbc8fbde6	-0.017546605
121	0xbbc8359d	-0.006109907
122	0xbba06c3a	-0.004895714
123	0x3baaea58	0.0052159242
124	0xbcb51b1c	-0.022107653
125	0x3bc5df37	0.006038572
126	0x3b2f3613	0.0026735112
127	0x3bee07a5	0.007264095

exp_avg f4 [128, 6]
0	0xbaa18191	-0.0012321939
1	0x358886c4	1.0172012e-06
2	0xba118302	-0.0005550833
3	0xba2bcc1f	-0.0006553549
4	0x00000000	0.0
5	0x3a0c7c7c	0.0005359126
6	0xb921bfac	-0.0001542556
7	0x342a5d7f	1.5866497e-07
8	0x39ba6dac	0.00035558396
9	0x3a2f31be	0.00066831324
10	0x00000000	0.0
11	0x3955ad92	0.00020377923
12	0xb9a0c94e	-0.00030667562
13	0x35284b2e	6.269428e-07
14	0xb89a8465	-7.367953e-05
15	0xb8e74ceb	-0.000110292654
16	0x00000000	0.0
17	0x3a069a77	0.00051347114
18	0x392e8219	0.00016642398
19	0xb41fff0c	-1.4900814e-07
20	0xb6c52c98	-5.876249e-06
21	0x388a1c5f	6.585637e-05
22	0x00000000	0.0
23	0x390bfdbb	0.00013350595
24	0x39a5ecef	0.00031647782
25	0x3600166b	1.9086535e-06
26	0xb98a83de	-0.0002641966
27	0xba7f057c	-0.0009728295
28	0x00000000	0.0
29	0xba7ab295	-0.0009563354
30	0x399fb72f	0.00030463326
31	0x3652294e	3.131648e-06
32	0xb9c01b92	-0.00036641635
33	0xba9fe80d	-0.0012199894
34	0x00000000	0.0
35	0xba95a9f8	-0.0011418452
36	0xb985aef9	-0.00025498102
37	0x358f60f6	1.068255e-06
38	0xb9abcf10	-0.00032769935
39	0xb9b572a3	-0.0003460842
40	0x00000000	0.0
41	0x3810784a	3.4444303e-05
42	0x3b1171dc	0.002219311
43	0x36287c6e	2.5106378e-06
44	0x3a85522f	0.0010171587
45	0x38a13f5d	7.6888806e-05
46	0x00000000	0.0
47	0xb8a7143c	-7.9669495e-05
48	0xbad12225	-0.001595561
49	0xb585f1a8	-9.979603e-07
50	0xbaa692d7	-0.0012708557
51	0xba0aea9e	-0.0005299243
52	0x00000000	0.0
53	0xba5d1e08	-0.0008434956
54	0xba7a6d2f	-0.0009553013
55	0x358c5440	1.0455333e-06
56	0xba0c6d3c	-0.00053568534
57	0xba59203c	-0.00082826964
58	0x00000000	0.0
59	0x38e7750d	0.00011036741
60	0x39e3eb8a	0.00043472304
61	0x35aa5afa	1.2692465e-06
62	0x35edfd80	1.7731654e-06
63	0xba1990da	-0.00058580714
64	0x00000000	0.0
65	0xba4f2ebf	-0.0007903389
66	0x3a98127a	0.0011602186
67	0x3388ef08	6.376473e-08
68	0x3a96d984	0.0011508917
69	0x3a7eb02d	0.00097155833
70	0x00000000	0.0
71	0x39b6e2ce	0.00034882728
72	0x39ea240f	0.00044658824
73	0xb4c7f485	-3.724455e-07
74	0x399b7277	0.00029649187
75	0x3946e972	0.00018969717
76	0x00000000	0.0
77	0xb9a50bb5	-0.00031479975
78	0xba89f322	-0.001052473
79	0x357cfc87	9.424479e-07
80	0xb9aa50e2	-0.0003248519
81	0xba324842	-0.00068009284
82	0x00000000	0.0
83	0xb6f9e218	-7.447099e-06
84	0x3a6fe18d	0.0009150736
85	0x35e23da4	1.6856252e-06
86	0x39c0cc44	0.00036773284
87	0x3935f0d6	0.00017351224
88	0x00000000	0.0
89	0x3a340d1f	0.000686841
90	0x3a05ab8a	0.00050991087
91	0x363fad0c	2.8561944e-06
92	0x381bb804	3.7126258e-05
93	0xba249c0f	-0.0006279358
94	0x00000000	0.0
95	0xb990d395	-0.0002762346
96	0xb9c535ea	-0.00037614937
97	0x35699762	8.7019555e-07
98	0x3a32039c	0.0006790699
99	0x3a97d8d6	0.0011585008
100	0x00000000	0.0
101	0x3909d92c	0.00013146241
102	0x3a848202	0.0010109546
103	0xb56aa5ae	-8.741289e-07
104	0x3a200822	0.00061047275
105	0x3a18d44d	0.0005829975
106	0x00000000	0.0
107	0xb9e90504	-0.0004444496
108	0xba508ec6	-0.0007955845
109	0x35641542	8.4967553e-07
110	0xb9d20ba0	-0.00040062983
111	0xb9d956ab	-0.00041454038
112	0x00000000	0.0
113	0x38d8d4cd	0.0001033932
114	0x3a6d553e	0.00090535346
115	0xb407de3a	-1.26537e-07
116	0x3a24f68b	0.0006292841
117	0x396b4928	0.00022438599
118	0x00000000	0.0
119	0xba7a250c	-0.00095422636
120	0x39fa8fa1	0.00047790728
121	0x36471f4a	2.9671523e-06
122	0xb93a69c3	-0.00017777742
123	0xba41a509	-0.0007386958
124	0x00000000	0.0
125	0xb9e5734c	-0.00043764187
126	0xbb0ab817	-0.0021166855
127	0x3580e9c6	9.60478e-07
128	0xbaed5a6e	-0.0018108615
129	0xbaed60d1	-0.0018110519
130	0x00000000	0.0
131	0xba3124e6	-0.00067575125
132	0xbadeed09	-0.0017007898
133	0x362b4040	2.5518384e-06
134	0xb9f45288	-0.00046600797
135	0xba8289fb	-0.0009959334
136	0x00000000	0.0
137	0x3a071b94	0.0005153951
138	0x3a8cd7da	0.0010745481
139	0x352fc282	6.5475626e-07
140	0x39ef5b18	0.00045653502
141	0xb9a62cc0	-0.0003169533
142	0x00000000	0.0
143	0xba8ccbe8	-0.0010741921
144	0x38c53fc4	9.405569e-05
145	0x359565b8	1.1130969e-06
146	0x37ac98dc	2.0575178e-05
147	0xb9a6da14	-0.00031824468
148	0x00000000	0.0
149	0xba3442a5	-0.0006876386
150	0x3a2fb3d0	0.00067025144
151	0x34b5aa6c	3.3837875e-07
152	0x3a418447	0.00073820766
153	0x3a2f323b	0.0006683205
154	0x00000000	0.0
155	0x3a044978	0.0005046348
156	0xba45cad7	-0.0007545179
157	0x3595a8c8	1.1150487e-06
158	0xba770e94	-0.00094244746
159	0xb9a241fa	-0.00030948204
160	0x00000000	0.0
161	0x3a6b6783	0.0008979963
162	0x3aa0e5e4	0.0012275544
163	0x35cf5d62	1.544988e-06
164	0x3aa2543a	0.0012384721
165	0x3a30ff4d	0.000675191
166	0x00000000	0.0
167	0x39b99bb0	0.00035401946
168	0xba39914c	-0.0007078841
169	0xb4932df7	-2.7414328e-07
170	0xb8b96c53	-8.8416644e-05
171	0x395bc1a1	0.000209576
172	0x00000000	0.0
173	0x39e5013c	0.00043679203
174	0xbab5bc66	-0.0013865351
175	0xb4a4d417	-3.0701696e-07
176	0xb9f01256	-0.00045790029
177	0xb8f4b6fc	-0.0001166891
178	0x00000000	0.0
179	0xb9d6b8d1	-0.0004095496
180	0xba189dca	-0.0005821852
181	0x35803fba	9.55529e-07
182	0xb9e2acd0	-0.00043234834
183	0x38cc2754	9.7348035e-05
184	0x00000000	0.0
185	0x38851060	6.344984e-05
186	0xba9468b2	-0.0011322706
187	0xb414851a	-1.3831996e-07
188	0xba965e28	-0.0011472153
189	0xba630932	-0.0008660733
190	0x00000000	0.0
191	0xba3ace2d	-0.00071260595
192	0xbb0b2cfe	-0.0021236534
193	0x34945658	2.7629972e-07
194	0xba82dce4	-0.0009984043
195	0xba27b280	-0.0006397143
196	0x00000000	0.0
197	0xb9296f18	-0.00016158482
198	0x38f3e55a	0.00011629863
199	0xb52a6d24	-6.3488756e-07
200	0xb90a3175	-0.0001317913
201	0x39cfa337	0.0003960372
202	0x00000000	0.0
203	0x399c7beb	0.00029846965
204	0x3aaad8ba	0.001303456
205	0xb3b62774	-8.482212e-08
206	0x3a8865f3	0.001040636
207	0x3a504aa3	0.0007945692
208	0x00000000	0.0
209	0x389dac17	7.5183976e-05
210	0x39f531b4	0.00046767073
211	0x35855f74	9.937053e-07
212	0x3a078663	0.00051698665
213	0x399ed9f8	0.00030298508
214	0x00000000	0.0
215	0x397cc058	0.00024104246
216	0x39853615	0.0002540803
217	0x3485842d	2.486935e-07
218	0x39c5d998	0.00037736888
219	0x39e8260f	0.00044278844
220	0x00000000	0.0
221	0x397effc8	0.00024318614
222	0x3a2663f2	0.00063472905
223	0x3531c37e	6.6222117e-07
224	0x39b07fb6	0.00033664488
225	0x385007e4	4.9598413e-05
226	0x00000000	0.0
227	0x37d50868	2.5395493e-05
228	0xb97fa21e	-0.00024379088
229	0x347253e0	2.256852e-07
230	0xb77984e8	-1.4872501e-05
231	0x3978faca	0.00023744549
232	0x00000000	0.0
233	0x34875300	2.52061e-07
234	0x3a419124	0.00073839934
235	0x364cf060	3.0538286e-06
236	0xb7ea2a74	-2.7914743e-05
237	0xba3bc5e6	-0.0007162973
238	0x00000000	0.0
239	0xba074100	-0.0005159527
240	0x3aadcb50	0.0013259444
241	0x363fb3d8	2.85659e-06
242	0x3a176562	0.00057753
243	0xba3c91e3	-0.00071933697
244	0x00000000	0.0
245	0xbad304e1	-0.0016099476
246	0x37381676	1.0972484e-05
247	0x355982b1	8.102898e-07
248	0xb91406eb	-0.00014116957
249	0xb99e2dfd	-0.00030170372
250	0x00000000	0.0
251	0xb9bf197f	-0.00036449355
252	0x3ab3fada	0.0013731376
253	0xb403dcf6	-1.2280711e-07
254	0x3a699efe	0.00089119363
255	0x3a777bb6	0.00094407366

exp_avg_sq f4 [128, 6]
0	0x358b356f	1.0371858e-06
1	0x2cc6814a	5.6418524e-12
2	0x35968997	1.1215915e-06
3	0x35e7aa16	1.7260343e-06
4	0x00000000	0.0
5	0x35de5c96	1.6567235e-06
6	0x35d3a667	1.5769155e-06
7	0x2c8b855f	3.9654248e-12
8	0x35cb9b87	1.5169943e-06
9	0x35e4cfd9	1.7047815e-06
10	0x00000000	0.0
11	0x35ce2e8c	1.5361743e-06
12	0x34ba9074	3.4750303e-07
13	0x2bf7fe08	1.7620913e-12
14	0x350e5179	5.301768e-07
15	0x34f01e93	4.472573e-07
16	0x00000000	0.0
17	0x3523ad9d	6.097487e-07
18	0x343e3b81	1.7716776e-07
19	0x2afde6dc	4.510202e-13
20	0x343f8e67	1.7840067e-07
21	0x3433e895	1.6755287e-07
22	0x00000000	0.0
23	0x3435e67c	1.6940788e-07
24	0x355dcf40	8.2630504e-07
25	0x2cb851b3	5.238665e-12
26	0x357f6329	9.51392e-07
27	0x35ea02d1	1.7435178e-06
28	0x00000000	0.0
29	0x35df5a31	1.6641044e-06
30	0x35b07748	1.3147737e-06
31	0x2d27778b	9.519395e-12
32	0x35efa207	1.7854044e-06
33	0x362b1d54	2.5498057e-06
34	0x00000000	0.0
35	0x36397740	2.763656e-06
36	0x3491c211	2.7149557e-07
37	0x2b82d70b	9.296742e-13
38	0x34984a8b	2.8366443e-07
39	0x34b14f58	3.302655e-07
40	0x00000000	0.0
41	0x34c6b030	3.7008567e-07
42	0x36325cc3	2.6578061e-06
43	0x2d1ad5bd	8.801346e-12
44	0x360f10d8	2.1318465e-06
45	0x366588d5	3.4203306e-06
46	0x00000000	0.0
47	0x36341f75	2.68404e-06
48	0x366aa4ff	3.4964758e-06
49	0x2d1cb074	8.906754e-12
50	0x3654d118	3.171217e-06
51	0x3662a03b	3.376989e-06
52	0x00000000	0.0
53	0x365246dd	3.1333686e-06
54	0x352308a0	6.0734783e-07
55	0x2c403c90	2.731846e-12
56	0x35300ac6	6.5580787e-07
57	0x354905d1	7.48868e-07
58	0x00000000	0.0
59	0x353a868d	6.9486197e-07
60	0x34f4d03a	4.5600046e-07
61	0x2c71529b	3.4294015e-12
62	0x34f51a4d	4.5653942e-07
63	0x358eebe4	1.0648478e-06
64	0x00000000	0.0
65	0x3581662e	9.640987e-07
66	0x35f20a50	1.8033406e-06
67	0x2c7d5183	3.599871e-12
68	0x35e9cc92	1.7419391e-06
69	0x35ee94db	1.7775704e-06
70	0x00000000	0.0
71	0x35d37342	1.575427e-06
72	0x34289144	1.5699067e-07
73	0x2b583a23	7.6819296e-13
74	0x33ce3848	9.60286e-08
75	0x34888736	2.5430353e-07
76	0x00000000	0.0
77	0x344a94be	1.8866828e-07
78	0x351e572d	5.8986444e-07
79	0x2c1f5466	2.264211e-12
80	0x3507503c	5.0408175e-07
81	0x35344cf0	6.7167184e-07
82	0x00000000	0.0
83	0x3519a51a	5.7237196e-07
84	0x35ff63f9	1.9028076e-06
85	0x2c894c92	3.902275e-12
86	0x35f096e1	1.7925305e-06
87	0x35e0a558	1.6737422e-06
88	0x00000000	0.0
89	0x35e522e7	1.7071987e-06
90	0x3557fd03	8.046192e-07
91	0x2ca7d3ae	4.7699266e-12
92	0x3591eb20	1.0871772e-06
93	0x35b1dcff	1.3251846e-06
94	0x00000000	0.0
95	0x35dacb89	1.6301502e-06
96	0x367243f6	3.6100369e-06
97	0x2d3f5b7c	1.0877407e-11
98	0x36760718	3.6660986e-06
99	0x36883503	4.059287e-06
100	0x00000000	0.0
101	0x36765ffb	3.6712725e-06
102	0x352cd67b	6.4387103e-07
103	0x2c433bee	2.7744434e-12
104	0x34ea5407	4.3647034e-07
105	0x35836175	9.788624e-07
106	0x00000000	0.0
107	0x3557139b	8.012227e-07
108	0x34755762	2.2849193e-07
109	0x2b7b90ba	8.937396e-13
110	0x34345211	1.6793662e-07
111	0x34c6d16b	3.7032746e-07
112	0x00000000	0.0
113	0x3493390a	2.7422385e-07
114	0x3580c6d4	9.59461e-07
115	0x2cf5b51b	6.9834256e-12
116	0x35603c99	8.3534684e-07
117	0x35f7a66e	1.8451371e-06
118	0x00000000	0.0
119	0x35fbd607	1.8763247e-06
120	0x3565eb67	8.5651703e-07
121	0x2cb31bb3	5.0905612e-12
122	0x353c1645	7.0067864e-07
123	0x35d3b462	1.5773223e-06
124	0x00000000	0.0
125	0x359ad3f6	1.1535583e-06
126	0x35c8caa0	1.4960133e-06
127	0x2c895897	3.9036096e-12
128	0x35ae2094	1.2973492e-06
129	0x35e4cba3	1.704659e-06
130	0x00000000	0.0
131	0x35bbced7	1.3992784e-06
132	0x3606e279	2.009938e-06
133	0x2d16c12a	8.569404e-12
134	0x361c1c7a	2.3262387e-06
135	0x362d47d2	2.5820814e-06
136	0x00000000	0.0
137	0x36391304	2.7578217e-06
138	0x354b33d6	7.5698824e-07
139	0x2ca2bc4a	4.625221e-12
140	0x35153a21	5.5591414e-07
141	0x35e863d3	1.73144e-06
142	0x00000000	0.0
143	0x35beebf6	1.4224777e-06
144	0x343bf575	1.7505029e-07
145	0x2be1ea3b	1.6052224e-12
146	0x348088ab	2.3941297e-07
147	0x34ae67f2	3.2485656e-07
148	0x00000000	0.0
149	0x3506f5fd	5.027685e-07
150	0x355e5d58	8.283728e-07
151	0x2bee4ba2	1.6931909e-12
152	0x35561bca	7.976165e-07
153	0x355102a2	7.78624e-07
154	0x00000000	0.0
155	0x35439338	7.285739e-07
156	0x35e2db02	1.6902052e-06
157	0x2cecd7ba	6.731474e-12
158	0x35f8f2b3	1.8548075e-06
159	0x3611a346	2.1701721e-06
160	0x00000000	0.0
161	0x361a492a	2.2990375e-06
162	0x35f0ed92	1.7950535e-06
163	0x2c762128	3.4977108e-12
164	0x35dd1d56	1.6474321e-06
165	0x35da4676	1.6262773e-06
166	0x00000000	0.0
167	0x35baaa41	1.390763e-06
168	0x3554883d	7.9174407e-07
169	0x2c735a86	3.4582628e-12
170	0x354db806	7.663624e-07
171	0x35994cf6	1.1421787e-06
172	0x00000000	0.0
173	0x35975ee3	1.1277992e-06
174	0x362a0ad3	2.5338275e-06
175	0x2cde1f2c	6.3130803e-12
176	0x361e996b	2.3633136e-06
177	0x3628b434	2.5138843e-06
178	0x00000000	0.0
179	0x3619219c	2.281834e-06
180	0x358409ea	9.837652e-07
181	0x2cb7db60	5.2255283e-12
182	0x357d9ba6	9.447634e-07
183	0x35e0a16d	1.6736282e-06
184	0x00000000	0.0
185	0x35ccc838	1.5257456e-06
186	0x35fedadc	1.8988171e-06
187	0x2ca36efb	4.64506e-12
188	0x35f553f6	1.8278358e-06
189	0x35f5ac6d	1.8304105e-06
190	0x00000000	0.0
191	0x35eea5fa	1.7780687e-06
192	0x35f98c2d	1.8592742e-06
193	0x2cab4961	4.868259e-12
194	0x35ca62d6	1.5078938e-06
195	0x360155cd	1.927244e-06
196	0x00000000	0.0
197	0x35dcfc42	1.6464694e-06
198	0x341438ae	1.3804194e-07
199	0x2ae0b3ca	3.9915147e-13
200	0x340f7404	1.3360119e-07
201	0x342e7df9	1.6250841e-07
202	0x00000000	0.0
203	0x3414cd7b	1.3858327e-07
204	0x34fea409	4.7430538e-07
205	0x2bd9e3da	1.5482019e-12
206	0x34c406e0	3.6512847e-07
207	0x3526fd08	6.220803e-07
208	0x00000000	0.0
209	0x34f036b8	4.4743297e-07
210	0x3417b5b4	1.4129074e-07
211	0x2b074406	4.8056036e-13
212	0x34181c72	1.4166451e-07
213	0x341ff82a	1.489831e-07
214	0x00000000	0.0
215	0x33ff74ae	1.1895587e-07
216	0x3478b5c6	2.3162929e-07
217	0x2b3030b5	6.2595355e-13
218	0x34812bd9	2.4060026e-07
219	0x3491f0cb	2.7183555e-07
220	0x00000000	0.0
221	0x34737ae4	2.2675846e-07
222	0x34b64da3	3.395663e-07
223	0x2b7be23e	8.948709e-13
224	0x34aa142f	3.1679653e-07
225	0x34b99507	3.4567367e-07
226	0x00000000	0.0
227	0x34bcfad4	3.520023e-07
228	0x349da2cc	2.936198e-07
229	0x2b802b78	9.107012e-13
230	0x34919900	2.7119677e-07
231	0x34b933d0	3.4496634e-07
232	0x00000000	0.0
233	0x34a4447e	3.0597215e-07
234	0x35966c4c	1.120739e-06
235	0x2d03fda7	7.50281e-12
236	0x35d4fdeb	1.5869131e-06
237	0x36124906	2.17982e-06
238	0x00000000	0.0
239	0x361fb836	2.3800071e-06
240	0x3591139b	1.0809048e-06
241	0x2d4ef17c	1.1763365e-11
242	0x3595e187	1.1167002e-06
243	0x363e5604	2.8362274e-06
244	0x00000000	0.0
245	0x363a340e	2.774646e-06
246	0x338f250f	6.665697e-08
247	0x2b195aac	5.448235e-13
248	0x33f83bbb	1.1559265e-07
249	0x341e0034	1.471497e-07
250	0x00000000	0.0
251	0x3461e9c1	2.1039797e-07
252	0x363cee04	2.8152726e-06
253	0x2ce66c67	6.5490282e-12
254	0x362b0998	2.548657e-06
255	0x36341bdf	2.6838313e-06

exp_avg f4 [128]
0	0xb987eb56	-0.00025924545
1	0xb85d9f0d	-5.2838634e-05
2	0xb926efbf	-0.00015920306
3	0x3821bb6c	3.855994e-05
4	0xb9fd6c73	-0.0004833672
5	0xba4dc9d6	-0.00078502053
6	0xb98cc748	-0.00026851357
7	0xba255955	-0.0006307562
8	0x39725bf9	0.00023113181
9	0xb988952c	-0.00026051083
10	0xb9a58c56	-0.0003157581
11	0xb723f0a0	-9.771582e-06
12	0x38c8ef95	9.581369e-05
13	0xb97f3922	-0.00024339979
14	0xb9e209b1	-0.000431133
15	0xba3cbbdd	-0.00071996247
16	0xb9804a9a	-0.00024469645
17	0x396d68b2	0.00022641083
18	0xb9614a2d	-0.00021485305
19	0x383f0c9c	4.5549692e-05
20	0xba44e951	-0.00075115735
21	0xb97baded	-0.00024002018
22	0xba281136	-0.0006411256
23	0xb920f7a0	-0.00015351037
24	0xb990cf96	-0.00027620484
25	0xb8ad429f	-8.261692e-05
26	0xb99a7820	-0.0002946267
27	0xb9c80972	-0.0003815401
28	0x38708565	5.7344692e-05
29	0x387491c6	5.8309895e-05
30	0xb983e06c	-0.00025153474
31	0x38079278	3.2322918e-05
32	0xb8b48527	-8.6078704e-05
33	0x391d8020	0.00015020417
34	0x37f8fe10	2.968221e-05
35	0xb97fa762	-0.0002438105
36	0xb8938024	-7.033374e-05
37	0xb92e90e6	-0.00016647912
38	0xb88f0b17	-6.820837e-05
39	0xba4c0cc8	-0.0007783887
40	0xba37e40e	-0.0007014879
41	0xb951d4e6	-0.00020011104
42	0x37c6a36c	2.3679539e-05
43	0x38872562	6.444265e-05
44	0xb82814b4	-4.0073603e-05
45	0xb97b49cc	-0.00023964717
46	0xb76ca723	-1.4105611e-05
47	0xb947ae2f	-0.00019043007
48	0xb8739a77	-5.807957e-05
49	0xb9c750e0	-0.00038016494
50	0x390ac16e	0.00013232764
51	0x398736b6	0.0002578997
52	0xb82b12a6	-4.0786945e-05
53	0xb994c052	-0.0002837205
54	0xba8f43ac	-0.0010930202
55	0xb9f75584	-0.00047175225
56	0x3902f860	0.00012490293
57	0x38044824	3.153844e-05
58	0xb93ebe20	-0.00018190639
59	0xb989e33c	-0.0002629998
60	0xb88a3d55	-6.591777e-05
61	0x39a21892	0.00030917354
62	0xb906152b	-0.00012787122
63	0x3935aed1	0.0001732663
64	0xba19d804	-0.00058686757
65	0xb98d92b2	-0.00027002912
66	0xb9a0884b	-0.00030619124
67	0x37f27d2c	2.8906936e-05
68	0xb9a35f83	-0.00031160944
69	0xb8af31c7	-8.353922e-05
70	0xba0bf5b3	-0.0005339041
71	0xb9280208	-0.00016022485
72	0xb9927281	-0.00027932602
73	0x389dc6ca	7.523371e-05
74	0xb9e48eb0	-0.0004359386
75	0x38e5ed28	0.00010963745
76	0x388b83fd	6.652621e-05
77	0xb9df8937	-0.00042636108
78	0xb99e89c5	-0.00030238755
79	0xba168cf9	-0.00057430525
80	0xb8a86ed9	-8.031511e-05
81	0x37e83952	2.7683247e-05
82	0xb9677132	-0.00022072045
83	0xb9bc89ed	-0.00035960917
84	0xba7714d2	-0.0009425405
85	0x38a6ecad	7.959581e-05
86	0xb941ee96	-0.00018494794
87	0xba8ddd84	-0.0010823463
88	0x38ea917a	0.000111850866
89	0x36f351e0	7.251496e-06
90	0xb814970e	-3.542663e-05
91	0x39143477	0.00014133925
92	0x3941038d	0.00018407237
93	0x399a8a92	0.00029476412
94	0xba017cea	-0.0004939573
95	0xba3c36d0	-0.00071797986
96	0x37cb9b84	2.4271903e-05
97	0xbab568bc	-0.0013840417
98	0xba731a6f	-0.0009273653
99	0x399900df	0.00029183083
100	0xb949bb71	-0.00019238681
101	0xb99299cd	-0.0002796188
102	0xb8c5a38d	-9.424156e-05
103	0xb9a1f2ae	-0.00030889123
104	0xb992a6fa	-0.00027971697
105	0x38e51608	0.000109236746
106	0xb91befba	-0.00014871257
107	0xb98d5d60	-0.00026963186
108	0xb9d82703	-0.00041227796
109	0xb9e381f0	-0.00043393625
110	0x39c894ca	0.0003825783
111	0xb8a98995	-8.0841746e-05
112	0x38776072	5.897921e-05
113	0xb9a34b36	-0.0003114582
114	0xb8b1183d	-8.4445324e-05
115	0xb944e2ea	-0.00018776549
116	0xb988de00	-0.00026105344
117	0xb9b15983	-0.00033826762
118	0x3892e7ca	7.0049966e-05
119	0x38141cd5	3.53128e-05
120	0xbab87688	-0.0014073411
121	0xb8abd8eb	-8.1943195e-05
122	0x3888913b	6.5120366e-05
123	0xb9aa1624	-0.00032441423
124	0x39cbf4da	0.00038901606
125	0xba6457ba	-0.0008710582
126	0xb9d4e779	-0.00040608252
127	0xb8bd338d	-9.0218244e-05
