results/5/MoveToGoal/MoveToGoal-29927.pt (torch, 441756 bytes, 36 tensors)

network_body._body_endoder.seq_layers.0.weight f4 [128, 6]
0	0xbd0a746a	-0.033802427
1	0x3d21fa0b	0.0395451
2	0x3f251ddb	0.6449868
3	0xbeeaa913	-0.45832118
4	0xbe565a11	-0.20932795
5	0x3f350615	0.70712405
6	0x3c923d6b	0.017851552
7	0x3ebe3b63	0.37154683
8	0xbdc40dcc	-0.09572944
9	0x3ed64f1f	0.4185724
10	0xbe541802	-0.20712283
11	0xbe153131	-0.14569546
12	0x3d434e8a	0.047682323
13	0xbf2830bf	-0.6569938
14	0xbebae2ed	-0.36501256
15	0xbeab0c9f	-0.33408067
16	0xbee7e238	-0.4528978
17	0xbe3d6494	-0.18495399
18	0xbdf3ee38	-0.11910671
19	0x3e177622	0.14791158
20	0xbd168c40	-0.036754847
21	0x3f1391c1	0.5764428
22	0xbf0fcdad	-0.5617321
23	0xbea692e3	-0.3253394
24	0xbef7d2e1	-0.48403075
25	0x3ec3ade3	0.38218603
26	0x3ee139aa	0.43989307
27	0x3e558ea7	0.20855199
28	0xbe02700b	-0.12738054
29	0xbe2c722d	-0.1684043
30	0x3d0e5ddd	0.034757484
31	0x3ee3c63d	0.4448718
32	0x3c3ff4fe	0.0117161255
33	0xbd16da9c	-0.036829576
34	0xbe6e533e	-0.23273942
35	0x3ece0b69	0.4024308
36	0x3ee1ee67	0.441272
37	0x3eba9a88	0.36446023
38	0x3e297d37	0.16551672
39	0xbdeab22d	-0.114597656
40	0xbeb42253	-0.35182437
41	0xbe9b15e4	-0.3029014
42	0xbeaf35ba	-0.34220678
43	0xbc4124d5	-0.011788567
44	0x3f0e7e67	0.55661625
45	0xbd8aa1f2	-0.0676917
46	0xbec35254	-0.3814875
47	0x3dd47db3	0.10375538
48	0x3e7b818f	0.24561141
49	0x3f115f5d	0.5678614
50	0xbdae1a1b	-0.08501073
51	0xbf4cd772	-0.80016243
52	0x3d44d5dc	0.048055515
53	0x3e3e8aaa	0.18607584
54	0xbec7d306	-0.39028186
55	0x3ea8582f	0.3287978
56	0xbe35f973	-0.17770939
57	0x3ee19349	0.44057682
58	0x3f45cf3d	0.77269346
59	0x3e4df504	0.20112997
60	0x3cd3661d	0.025805527
61	0xbe771723	-0.2412992
62	0x3ecfe6a4	0.40605652
63	0x3e88b759	0.26702383
64	0xbe51e801	-0.20498659
65	0x3eceb618	0.40373302
66	0x3f0e6bf9	0.55633503
67	0xbef1a908	-0.47199273
68	0x3f49c009	0.7880865
69	0xbdf0a5ff	-0.11750411
70	0xbee4173c	-0.44548976
71	0xbd8f6720	-0.070020914
72	0xbf74468f	-0.95420164
73	0xbdc402d6	-0.095708534
74	0x3d96345a	0.07334204
75	0xbec9d64f	-0.39421317
76	0x3f01cfd7	0.50707763
77	0x3eaa0749	0.33208683
78	0xbd419f20	-0.047270894
79	0x3ee10586	0.43949527
80	0x3eaf7d89	0.34275463
81	0xbef6d167	-0.48206636
82	0x3ddf5db6	0.10906546
83	0x3e98acfa	0.2981947
84	0x3e27256b	0.16322868
85	0xbacbc1f8	-0.0015545478
86	0xbe9823cf	-0.2971482
87	0x3ebb2cfe	0.36557764
88	0x3df4e36e	0.11957441
89	0x3e226525	0.15858896
90	0xbdc665ea	-0.09687407
91	0xbeaa8dc1	-0.33311275
92	0xbee3444f	-0.44388053
93	0xbc02daab	-0.007986705
94	0xbee433cf	-0.44570777
95	0x3d8e188a	0.06938274
96	0x3dbc2169	0.0918606
97	0x3d997f2b	0.074949585
98	0x3ebb714e	0.36609882
99	0x3e81927a	0.25307065
100	0x3e96fd17	0.29489967
101	0xbeae2c72	-0.34018284
102	0xbe21c4ec	-0.15797776
103	0x3d00afdb	0.03141771
104	0xbf12ff30	-0.57420635
105	0xbeda2b77	-0.42611286
106	0xbcc2fa9d	-0.023801142
107	0x3e57e4e9	0.21083416
108	0xbc62930d	-0.013829005
109	0xbf3d0d97	-0.7384886
110	0xbdff7e6a	-0.124752834
111	0x3d168623	0.036749016
112	0xbd44d617	-0.048055734
113	0x3e2c5cb5	0.1683224
114	0xbe31bb84	-0.17356688
115	0x3ee9035a	0.4551037
116	0x3ef91097	0.4864547
117	0x3ec50535	0.38480535
118	0x3cbd39dc	0.023098879
119	0x3e5bf64e	0.21480677
120	0x3ee33c08	0.44381738
121	0xbeb00c66	-0.3438446
122	0x3e8d3333	0.27578124
123	0x3eeea784	0.4661218
124	0xbe7c0215	-0.24610169
125	0x3f3bf2b0	0.73417187
126	0xbe316636	-0.17324147
127	0xbe8d3e2a	-0.2758649
128	0xbe68a09b	-0.22717516
129	0x3e0cacb2	0.13737753
130	0x3f3cf60e	0.7381295
131	0xbf263a94	-0.64933133
132	0xbea174a5	-0.31534305
133	0xbed16eb6	-0.40904778
134	0xbec55499	-0.38541105
135	0xbe8c5774	-0.2741047
136	0xbc195b5e	-0.009360163
137	0x3f6f62e3	0.93510264
138	0xbeb6c853	-0.3569971
139	0xbe664ebb	-0.22490971
140	0x3e505b36	0.20347294
141	0x3f301af0	0.68791103
142	0xbf4cd45f	-0.8001155
143	0x3ea88e62	0.3292113
144	0xbe906e9f	-0.28209397
145	0x3f14d73b	0.58140916
146	0xbeeced20	-0.46274662
147	0xbea44174	-0.32081187
148	0xbab83abb	-0.0014055589
149	0xbec286d1	-0.37993482
150	0x3d9720b7	0.07379287
151	0x3e0232cb	0.12714688
152	0xbe3e9ce9	-0.18614544
153	0x3e8554a7	0.26041147
154	0xbec940cd	-0.39307252
155	0xbf391262	-0.72293675
156	0x3e95d69f	0.29265305
157	0x3e082969	0.13297047
158	0x3e3e4b37	0.1858338
159	0x3d755acd	0.059901047
160	0xb9e7b8e6	-0.00044197513
161	0xbebba327	-0.36647913
162	0xbedfd188	-0.43714547
163	0xbcaf89ad	-0.021427954
164	0xbe8087b8	-0.25103545
165	0x3eaf99b1	0.34296945
166	0xbe33b493	-0.17549352
167	0x3e12237a	0.14271346
168	0x3e304111	0.17212321
169	0xbb1efcb2	-0.0024259505
170	0x3ee51549	0.44742802
171	0x3ec45c3b	0.38351616
172	0xbc77ad41	-0.015116991
173	0xbcbbe3d0	-0.022935778
174	0x3f4645e5	0.774504
175	0xbf0a81fd	-0.54104596
176	0x3f69f970	0.91396236
177	0x3e369725	0.17831095
178	0xbf1f3725	-0.6219352
179	0x3d0d019b	0.03442536
180	0xbe05c1a5	-0.13062151
181	0xbe712c00	-0.23551941
182	0xbf450f2c	-0.76976275
183	0x3d893770	0.06700027
184	0x3efe1bea	0.49630672
185	0x3f81152c	1.0084586
186	0xbc23ca52	-0.009996967
187	0x3f105d11	0.5639201
188	0x3e8b9680	0.2726326
189	0xbd81a402	-0.0633011
190	0x3cbff7f3	0.023433661
191	0x3e7a1fba	0.24426165
192	0xbec6a6e8	-0.38799214
193	0xbe06d770	-0.1316812
194	0x3eea5674	0.45769083
195	0x3f67cd84	0.90547967
196	0xbed98e75	-0.424915
197	0x3e92aea1	0.28648856
198	0xbe907002	-0.28210455
199	0xbee0ce69	-0.43907478
200	0xbe48024e	-0.19532129
201	0x3e6f55f6	0.23372635
202	0x3ecf69a7	0.40510294
203	0x3e07b7ec	0.13253754
204	0x3e239ca2	0.1597772
205	0x3ed8cdea	0.423446
206	0x3ece98d2	0.40350968
207	0xbe3736ca	-0.17891994
208	0xbd9d9679	-0.07694716
209	0xbe8a55d9	-0.27018622
210	0xbe5745fa	-0.21022788
211	0x3f628259	0.88480145
212	0x3f146a1f	0.5797443
213	0xbf22fcaa	-0.63666785
214	0x3e322c27	0.17399655
215	0xbe4f4096	-0.20239481
216	0x3eca9c63	0.3957244
217	0x3e283a86	0.16428575
218	0xbf444ef3	-0.76682967
219	0xbebe2e92	-0.37144905
220	0x3e501664	0.20321041
221	0xbed58efd	-0.41710654
222	0x3d345454	0.044025734
223	0x3e55779a	0.20846406
224	0xbf500c74	-0.81269
225	0xbe03dc3a	-0.12876979
226	0x3d870481	0.06592656
227	0x3c8f806d	0.017517293
228	0xbd5a4387	-0.053287055
229	0xbf461e8e	-0.7739037
230	0x3da6f3a9	0.08151943
231	0xbe24a147	-0.16077147
232	0xbe9c5b05	-0.30538192
233	0xbbd683db	-0.00654648
234	0x3f819952	1.0124915
235	0x3ea6b98a	0.3256343
236	0xbd02b9cb	-0.031915467
237	0xbe751196	-0.2393249
238	0x3d5058c2	0.050865896
239	0x3c8b44fd	0.01700067
240	0x3ee0f256	0.43934888
241	0xbf0f46f0	-0.5596762
242	0x3e65a66d	0.22426768
243	0xbf133917	-0.5750899
244	0x3e838dba	0.25694066
245	0xbb0887c1	-0.0020832869
246	0xbea48a0e	-0.32136577
247	0xbee98eae	-0.45616668
248	0xbec07c90	-0.37595034
249	0xbd29a9f9	-0.041421864
250	0x3d684677	0.056707826
251	0xbedd28fd	-0.43195334
252	0x3f64fd43	0.89448947
253	0x3ebe649a	0.37186128
254	0xbee4e360	-0.44704723
255	0xbdab8ee1	-0.08376861

network_body._body_endoder.seq_layers.0.bias f4 [128]
0	0x3afc877a	0.0019266449
1	0xbafe3ac9	-0.0019396181
2	0x3a44c742	0.00075064984
3	0xbac9be65	-0.0015391825
4	0x3c152666	0.009103393
5	0xbb9a5d53	-0.004710832
6	0x3a92ae21	0.001119081
7	0x3b413db4	0.002948624
8	0x3a426400	0.0007415414
9	0x3ae329df	0.0017331204
10	0xbb266400	-0.0025389194
11	0xbb2b1ffd	-0.0026111596
12	0xbb131980	-0.002244562
13	0xbaca3b8d	-0.0015429124
14	0x38eba15f	0.00011235731
15	0x3a98a1f1	0.0011644942
16	0xba6cb8b0	-0.0009030206
17	0x3aad4cea	0.0013221775
18	0x3a9b5206	0.0011850006
19	0xba1e5865	-0.00060403935
20	0xb961ae95	-0.00021522709
21	0xbb19d4b3	-0.0023472726
22	0xbaaf4fb6	-0.0013375196
23	0xbaa3870f	-0.0012476164
24	0x3aa16141	0.0012312309
25	0xbb1cdf5c	-0.0023936843
26	0xbb15c65d	-0.002285383
27	0xbb0e4618	-0.002170926
28	0xbac0e036	-0.0014715258
29	0x3b6394f0	0.0034726225
30	0xbb3a73cb	-0.0028450366
31	0xba4b886c	-0.0007764164
32	0xbb076fdb	-0.0020666036
33	0xba5c63ea	-0.00084072223
34	0xbb202d51	-0.0024441073
35	0xb99633cc	-0.0002864882
36	0xbb62d95e	-0.0034614424
37	0x3adb06e3	0.0016710426
38	0x3910ab98	0.00013796834
39	0xbac8ad0f	-0.0015310365
40	0xbb0905e4	-0.0020908052
41	0xbb895485	-0.0041909837
42	0xbb3b8d1c	-0.0028618043
43	0xba2af2e4	-0.0006521179
44	0x3a8fb925	0.0010965212
45	0xbb3d67f2	-0.0028901068
46	0x3a21308f	0.00061488984
47	0x3a7c1259	0.0009615771
48	0x39b35680	0.00034205988
49	0x38c128cc	9.210556e-05
50	0xbac31083	-0.001488224
51	0x3ab52527	0.0013820276
52	0x3b34b0aa	0.002757112
53	0xbaef86a5	-0.001827438
54	0xba271d43	-0.0006374905
55	0x39f2ed6d	0.00046334733
56	0x3b14e305	0.0022718322
57	0x3b139933	0.0022521734
58	0x3a8746ff	0.0010320841
59	0xbadcbce0	-0.0016840957
60	0xba5c0d0f	-0.000839428
61	0x3b232427	0.0024893375
62	0xbad59c16	-0.0016297128
63	0xba880d37	-0.0010379915
64	0x3ab078e7	0.0013463766
65	0x3aafef87	0.0013422825
66	0xba418a5b	-0.00073829823
67	0x3a6ed060	0.000911003
68	0xbb2ce4d9	-0.002638152
69	0x3ac620be	0.0015115959
70	0x3a9a8307	0.0011788317
71	0xbc194720	-0.009355336
72	0x3b914481	0.004433215
73	0x398c902d	0.000268103
74	0x3a81db97	0.0009907362
75	0x39ed54be	0.000452673
76	0xbae0c2a6	-0.0017147854
77	0xbb17df8e	-0.002317402
78	0xbb610c41	-0.003433958
79	0xbb06c783	-0.0020565696
80	0xb93f2eff	-0.00018232687
81	0xba9a918b	-0.0011792643
82	0x39e926e1	0.0004447019
83	0x395e9dde	0.0002123038
84	0x3b2122e6	0.0024587451
85	0xba3425c6	-0.0006872084
86	0xba90d844	-0.001105078
87	0xba9e9c50	-0.0012101028
88	0xbabc43da	-0.0014363483
89	0xbb340706	-0.0027470007
90	0xbb5ea869	-0.0033974892
91	0x3b45ab30	0.003016185
92	0xbb526d8a	-0.0032108747
93	0x3a9fc080	0.0012188107
94	0x3a84c23d	0.0010128688
95	0xba30d1ec	-0.0006745148
96	0xbae6873a	-0.0017587908
97	0x39885769	0.00026005067
98	0x3b07dd73	0.002073136
99	0xbaa29ce9	-0.0012406382
100	0x3ababb38	0.0014246469
101	0xbaea1470	-0.0017858874
102	0xbac5227e	-0.0015040187
103	0x3b29cd6b	0.0025909792
104	0xbad81c44	-0.0016487916
105	0x3a4dbbbb	0.00078481034
106	0xbbe33b85	-0.0069345855
107	0xbb78c83a	-0.0037961141
108	0x39a95a8c	0.00032301655
109	0x3a4783e5	0.00076109014
110	0xbb1f4ad1	-0.0024306069
111	0xbae92087	-0.0017786183
112	0xbb21c9a9	-0.002468685
113	0xbac65f66	-0.0015134632
114	0xbb0b9d7d	-0.0021303587
115	0x3c10b7ed	0.008832914
116	0x39ee7464	0.00045481615
117	0xbb142115	-0.0022602726
118	0x3a4fa178	0.0007920484
119	0xba952d39	-0.0011381275
120	0xbb55fb12	-0.003265087
121	0xbc04ed2a	-0.008113185
122	0xbb309c3d	-0.0026948594
123	0x3aa91d12	0.001290234
124	0xba659397	-0.00087576493
125	0xbafdd223	-0.0019364994
126	0x39ab0a40	0.00032623298
127	0x3ab490b7	0.0013776039

network_body._body_endoder.seq_layers.2.weight f4 [128, 128]
0	0x3d513b59	0.05108199
1	0x3ce1b9c3	0.027554398
2	0x3dc76d3e	0.09737633
3	0xbe2b6f70	-0.16741729
4	0x3cd953b4	0.02652917
5	0x3d6f0f04	0.05836393
6	0x3d9d4c23	0.076805376
7	0x3e132156	0.14368185
8	0xbe9ccab0	-0.30623388
9	0xbe05add4	-0.13054591
10	0x3b27f972	0.0025630859
11	0x3e0e70bc	0.13910192
12	0xbab1848e	-0.0013543533
13	0x3de6af11	0.1126386
14	0xbc9fd8f6	-0.019512635
15	0x3d8655f9	0.06559367
16	0x3d68c5bd	0.056829203
17	0x3dbb41e4	0.09143427
18	0xbd37dd9d	-0.04488908
19	0x3cc4b8c9	0.024013894
20	0x3ce9fb28	0.028562143
21	0x3c822075	0.015884617
22	0x3ce5235e	0.027970966
23	0xbd809729	-0.062788315
24	0x3caca0d1	0.021072777
25	0x3d8e9a48	0.069630206
26	0xbd19474f	-0.03742152
27	0xbda37c13	-0.0798265
28	0xba5011e5	-0.0007937237
29	0x3de432e8	0.11142522
30	0x3dd6cfbb	0.1048884
31	0xbc72dfa7	-0.014823831
32	0x3d51f127	0.05125537
33	0x3ca36a6e	0.01994821
34	0xbd9fc51b	-0.07801267
35	0x3d4316b0	0.04762906
36	0xbe10523a	-0.14093867
37	0xbd604885	-0.05475666
38	0xbcb2a4e3	-0.02180714
39	0x3cf963e2	0.030443136
40	0x3db02626	0.08601026
41	0xbd08550b	-0.03328423
42	0x3d724b71	0.059153978
43	0xbd9e8d58	-0.07741803
44	0xbe166946	-0.14688596
45	0xbd4f9aa3	-0.050684582
46	0xbda4e663	-0.08051755
47	0x3db5e4f6	0.088815615
48	0xbb6a4dce	-0.0035751942
49	0x3d5215dd	0.05129038
50	0x3bbcd5c7	0.005762789
51	0x3c94e3ef	0.018175093
52	0xbe779288	-0.24176991
53	0x3dab4cc2	0.0836425
54	0xbd8a5b98	-0.06755751
55	0x3d48d1ad	0.049028087
56	0xbd04e3f6	-0.032443963
57	0xbd1174e0	-0.03551185
58	0xbcc47bb4	-0.023984767
59	0xbdd3b444	-0.10337117
60	0xbe2028a7	-0.15640508
61	0xbe099756	-0.13436636
62	0x3d7d312f	0.061814483
63	0xbcdb5308	-0.02677299
64	0x3d9955ef	0.07487094
65	0xbcfdcb5f	-0.030980764
66	0xbe0f6ee1	-0.1400714
67	0x3d53016c	0.051515028
68	0xbdbf4178	-0.09338659
69	0xbdd53d9a	-0.1041214
70	0x3de352c4	0.11099771
71	0x3d7982a9	0.060915623
72	0x3c0d5487	0.00862611
73	0xbd7b5214	-0.061357573
74	0x3d6197b2	0.05507631
75	0x3d34676c	0.044043943
76	0x3de30717	0.11085337
77	0x3dd56dfa	0.10421367
78	0xbcfbba42	-0.030728463
79	0xbcd4d822	-0.025981966
80	0x3ca7202d	0.020401085
81	0xbd0edd3a	-0.034878947
82	0xbd09af69	-0.03361455
83	0x3d29696a	0.041360296
84	0xbc37c4ae	-0.011216326
85	0x3ded89d4	0.11598554
86	0xbce9fe99	-0.028563784
87	0xbcae2d51	-0.021261843
88	0x3d9497d1	0.07255519
89	0x3dbc412e	0.091921195
90	0xbda2579c	-0.079268664
91	0xbe226370	-0.15858245
92	0x3dd884dd	0.10572217
93	0x3caf91f7	0.021431906
94	0x3db14b38	0.08656925
95	0x3d9e722e	0.07736622
96	0xbe173e5a	-0.14769879
97	0x3ba3014a	0.004974519
98	0xbdd53726	-0.10410909
99	0x3ce48ebb	0.02790009
100	0x3ded603f	0.11590623
101	0xbdc9e407	-0.09857946
102	0xbded8eee	-0.11599527
103	0x3df1b9b0	0.11802995
104	0xbd292a53	-0.04130013
105	0x3dc2f28f	0.09518921
106	0x3dfa3074	0.12216273
107	0xbdc1046f	-0.09424674
108	0x3cffd845	0.031231055
109	0xbc745c06	-0.014914518
110	0xbd8d5534	-0.06901017
111	0x3e01df73	0.12682895
112	0xbd9430ce	-0.07235871
113	0xbe1d4de9	-0.15361752
114	0x3c3ec985	0.011644726
115	0x3c885204	0.01664067
116	0xbcb30324	-0.021852084
117	0x3cf45948	0.029827729
118	0x3ddac95b	0.10682937
119	0x3d9e65e9	0.077342816
120	0x3d6037be	0.05474066
121	0x3d3f468c	0.046698138
122	0xbcf93e5b	-0.030425241
123	0xbcae376e	-0.021266665
124	0xbe67f252	-0.22651032
125	0x3cfb606d	0.030685628
126	0xbc6094e4	-0.013707373
127	0x3c99d74e	0.018779423
128	0xbde5464f	-0.11195051
129	0xbdb425f7	-0.08796304
130	0x3d706967	0.05869427
131	0x3d899280	0.06717396
132	0x3dd3264a	0.103100374
133	0xbe125a26	-0.14292201
134	0xbda2f1ac	-0.079562515
135	0x3dadc81a	0.08485432
136	0xbdb2089a	-0.08693047
137	0xbaa1b2f6	-0.001233666
138	0x3e4d8360	0.20069647
139	0x3c6ff5d1	0.01464601
140	0xbe3788b3	-0.1792324
141	0x3d125de2	0.035734065
142	0x3e1977bf	0.14987086
143	0xbd2a919a	-0.041642763
144	0x3d8c5e6e	0.068539485
145	0x3af67435	0.0018802943
146	0x3d70e29e	0.05880987
147	0xbdab7127	-0.083711915
148	0x3c3d7259	0.011562907
149	0xbdddd574	-0.108317286
150	0x3e129edc	0.14318413
151	0xbde7916c	-0.11307034
152	0x3d1bfdb1	0.038083736
153	0x3a2d4276	0.000660933
154	0x3d0a23cf	0.033725556
155	0xbd3f0d2c	-0.04664342
156	0x3ce4e5cb	0.027941605
157	0xbdf4d6ff	-0.1195507
158	0xbdf43a81	-0.11925221
159	0xbdc45a1a	-0.09587498
160	0x3dee6959	0.11641187
161	0x3c7945fc	0.0152144395
162	0xbd89984d	-0.06718502
163	0xbd2114c6	-0.03932645
164	0xbe2c9686	-0.16854295
165	0xbda944f7	-0.08265107
166	0x3d95dba6	0.07317285
167	0x3ce07a98	0.027402207
168	0x3df01f3d	0.11724708
169	0xbe0b818b	-0.13623635
170	0x3cc5e917	0.024158997
171	0x3df015d2	0.11722912
172	0x3dd4ef05	0.10397152
173	0x3e12c763	0.14333872
174	0xbd83aef9	-0.06429858
175	0x374f77ac	1.2366025e-05
176	0xbd830250	-0.063969254
177	0x3d200f8a	0.03907732
178	0x3cd8a9d6	0.026448172
179	0xbcd0a8b3	-0.025471067
180	0x3d5f1350	0.054461777
181	0xbd8a6201	-0.06756974
182	0x3d1a612d	0.03769033
183	0xbd5f3277	-0.054491486
184	0xbe3d4054	-0.1848157
185	0xbd784fa2	-0.06062282
186	0xbd5cebec	-0.05393593
187	0x3d1fd697	0.03902301
188	0xbd3983f6	-0.045291863
189	0xbce85304	-0.028359897
190	0x3ce46a5e	0.027882751
191	0x3d44edf1	0.04807848
192	0x3e1126f5	0.14175017
193	0x3d06c216	0.03289994
194	0x3b5d14e7	0.0033734383
195	0x3cb6f80c	0.022335075
196	0x3d8d75e8	0.069072545
197	0xbb85dacd	-0.004084921
198	0xbc0bc9a6	-0.008531963
199	0x3df703f9	0.120613046
200	0xbdaf316b	-0.085543476
201	0x3e015274	0.1262911
202	0xbe08fc96	-0.13377604
203	0xbceb3491	-0.028711589
204	0xbc84b492	-0.016199384
205	0xbd0d85e4	-0.034551516
206	0x3b14fe8c	0.002273473
207	0xbe083845	-0.13302715
208	0xbc445396	-0.011982819
209	0x3d83e5ca	0.06440313
210	0xbc918a74	-0.017766215
211	0x3c017122	0.007900508
212	0xbbbffd79	-0.0058590737
213	0x3d7979b2	0.060907073
214	0x3d968400	0.07349396
215	0xbcdc7cef	-0.026915042
216	0xbc503ff1	-0.012710557
217	0x3c3b5479	0.011433714
218	0xbd101a20	-0.035181165
219	0x3b36f5f2	0.002791759
220	0xbe0dc0c2	-0.13843063
221	0x3da0eaba	0.078572705
222	0x3d9067be	0.07051037
223	0x3d1be4cc	0.038059995
224	0xbcbee007	-0.023300184
225	0xbca6c489	-0.020357387
226	0xbda43bad	-0.08019195
227	0x3d4a2a5d	0.049356807
228	0xbd189de0	-0.037259936
229	0x3bf4120c	0.0074484404
230	0xbd651268	-0.055925757
231	0xbde8cb77	-0.11366933
232	0xba30ae18	-0.0006739809
233	0x3da906c2	0.08253242
234	0x3d0f879e	0.035041444
235	0xbdaf5518	-0.08561152
236	0x3def4c5d	0.11684487
237	0xbc756f64	-0.014980171
238	0xbe269fa9	-0.16271843
239	0x3d3dab08	0.046305686
240	0xbd1feff6	-0.039047204
241	0xbe5fa998	-0.21842039
242	0xbe4e8a5a	-0.20169964
243	0x3a01531f	0.00049333455
244	0xbc17f880	-0.009275556
245	0xbd7b0b85	-0.061290283
246	0x3df70167	0.12060814
247	0xbd776fd3	-0.06040938
248	0x3d76bd9b	0.060239416
249	0xbd62a8c5	-0.055336732
250	0xbe3dc25a	-0.1853117
251	0x3e2526a9	0.16128029
252	0x3de226cd	0.11042557
253	0x3db83c8b	0.08995923
254	0xbcff2076	-0.031143408
255	0x3d8b8cbb	0.068139516

network_body._body_endoder.seq_layers.2.bias f4 [128]
0	0x3a1b08d0	0.0005914094
1	0x3acb830a	0.0015526724
2	0xba9b6b48	-0.0011857534
3	0x3a208c54	0.0006124426
4	0x3a8a68da	0.0010559813
5	0xbac345b4	-0.0014898092
6	0xbaff72ba	-0.0019489147
7	0xbad86ac3	-0.001651131
8	0xb89f2fe2	-7.59063e-05
9	0x3a5cd1f9	0.00084236223
10	0xbb0057cc	-0.001958358
11	0x395004f8	0.00019838277
12	0xbb19b509	-0.0023453853
13	0xbad4a411	-0.0016223212
14	0x3a98c459	0.0011655196
15	0x3a8d5031	0.0010781345
16	0xbb1ff29b	-0.0024406079
17	0xbaea6545	-0.0017882964
18	0xba3d72c0	-0.0007226877
19	0xbb155b66	-0.0022790073
20	0xbaf92f4b	-0.0019011287
21	0xb982260d	-0.00024823882
22	0xb9f57e5a	-0.0004682418
23	0xbac381a0	-0.0014915951
24	0xbb0b7775	-0.0021280919
25	0x3b9b2de4	0.004735695
26	0xbb02a14e	-0.001993257
27	0xbb0161cb	-0.0019742127
28	0xbad2be6a	-0.0016078476
29	0xbb0ebe87	-0.0021781044
30	0x3a8f4866	0.0010931611
31	0x3aa3950b	0.0012480331
32	0x3a1ff694	0.00061021117
33	0x3aba8f8c	0.0014233454
34	0x3a9743f1	0.0011540634
35	0xbacb293e	-0.0015499962
36	0x3aa964e3	0.0012923743
37	0x3a5bb0e2	0.00083805446
38	0x3b78c0ad	0.003795664
39	0xbb12f9f1	-0.0022426809
40	0x37de1142	2.6472499e-05
41	0x3a26b781	0.00063597417
42	0xbb6e13b7	-0.003632767
43	0x3a84beef	0.0010127703
44	0xba10b133	-0.0005519569
45	0x3a82dc41	0.0009983854
46	0xbb04cab1	-0.0020262415
47	0xba3578f0	-0.0006922623
48	0x3995021b	0.00028421063
49	0x3a5d9721	0.0008453001
50	0x3a3c1bbd	0.0007175764
51	0x3a362be9	0.0006949292
52	0xbab7419c	-0.0013981345
53	0x3ba6ec80	0.005094111
54	0xbb89699c	-0.004193498
55	0xbae67196	-0.0017581459
56	0xbae734c8	-0.0017639631
57	0x3ab32f58	0.0013670726
58	0x3afaf5a8	0.0019146698
59	0x3a9e512f	0.0012078638
60	0xbb35b404	-0.0027725706
61	0x3a9e2d2a	0.0012067903
62	0x3a4b8bf9	0.0007764693
63	0xba99d7f8	-0.0011737337
64	0x38ebaa1a	0.00011237357
65	0x3a695c61	0.000890201
66	0x3a7e5f69	0.0009703548
67	0xba2af527	-0.0006521516
68	0xbadf108b	-0.001701848
69	0xbb0a83e3	-0.002113574
70	0xbaf1a5bf	-0.0018436237
71	0x3a47b4fd	0.0007618217
72	0xbad7d75d	-0.0016467382
73	0xbae1bd98	-0.0017222641
74	0xbb2b07ea	-0.0026097246
75	0x399614c9	0.00028625716
76	0x3a6f1d6d	0.0009121511
77	0xbb0b5e8f	-0.0021266078
78	0x3a7c077f	0.0009614154
79	0x3ac8a30d	0.0015307382
80	0x3a4cd294	0.0007813361
81	0xbaa25306	-0.0012384362
82	0xbaa73a9f	-0.0012758559
83	0xbb84f8b9	-0.0040579704
84	0xbae2d4e8	-0.0017305883
85	0xbb1029e9	-0.0021997637
86	0xba76b6fb	-0.00094114215
87	0xbb05e569	-0.0020430929
88	0x39efc4a4	0.0004573214
89	0x3a554c34	0.00081366603
90	0xbab46cc4	-0.0013765325
91	0x3a33deeb	0.00068615255
92	0x39815aac	0.00024672353
93	0xbadda8a4	-0.0016911221
94	0xbb025526	-0.0019887178
95	0x3ac1f0e1	0.0014796519
96	0xbb011aec	-0.0019699885
97	0x39c2cc14	0.00037154614
98	0xbac54b9c	-0.001505244
99	0xbb0409b0	-0.0020147376
100	0x3a0dfab3	0.000541608
101	0xbadfef82	-0.0017084929
102	0xbb045395	-0.002019142
103	0xba039932	-0.00050200813
104	0x3a565903	0.0008176716
105	0xbad305fe	-0.0016099808
106	0xbae85169	-0.0017724457
107	0x3a8c4d4b	0.0010704187
108	0xbad17ed8	-0.0015983237
109	0xbb94b7ac	-0.004538497
110	0x3a4f825d	0.0007915849
111	0xbae3a546	-0.0017367981
112	0xbac1fc9b	-0.0014800014
113	0x3aa5a2fe	0.0012637076
114	0xbb10f7a7	-0.0022120269
115	0xbaefc10e	-0.0018291788
116	0xba8ca402	-0.001073003
117	0xbb3eb7cd	-0.0029101253
118	0x3a9578db	0.0011403816
119	0xbaeb68d4	-0.0017960318
120	0x3a3fdb5b	0.0007318758
121	0xbab63141	-0.0013900177
122	0x3960ea99	0.00021449699
123	0xba8ce10b	-0.001074822
124	0x3a96bc36	0.0011500183
125	0xbae51ab7	-0.0017479275
126	0x3b8c62ee	0.0042842543
127	0xbaa8d91c	-0.0012882086

action_model._continuous_distribution.log_sigma f4 [1, 2]
0	0xbbc335f2	-0.0059573585
1	0xbc12373a	-0.0089243

action_model._continuous_distribution.mu.weight f4 [2, 128]
0	0x3c412d5d	0.011790601
1	0xbbcca4e1	-0.006245241
2	0x3c5f66ad	0.01363532
3	0xbbcdf7ab	-0.006285628
4	0xbb228e16	-0.0024803928
5	0xbafe94f2	-0.0019423051
6	0x39d84ec2	0.0004125741
7	0x3bd2d99c	0.0064346325
8	0xbbb2ca32	-0.0054562325
9	0x3d25256d	0.040318895
10	0x3be7d02b	0.007074376
11	0xbb844220	-0.004036203
12	0x3bba0b98	0.0056776516
13	0x3c77855c	0.015107479
14	0xbc7c9ce4	-0.015418265
15	0xbc0a977c	-0.008458968
16	0xbcf6288b	-0.03004863
17	0x3ce09ceb	0.027418574
18	0xbbd4453e	-0.006477981
19	0x3b9cb9b2	0.004782879
20	0xbc8f1daf	-0.017470209
21	0x3b70edb7	0.0036762783
22	0xbc8d92b0	-0.01728186
23	0xbcae59db	-0.02128308
24	0x3be2a2ed	0.006916395
25	0xbc833315	-0.016015569
26	0x3c7be2cd	0.015373898
27	0xbc8c6ff6	-0.01714323
28	0x3c3f1d1b	0.011664654
29	0x3bd5c28d	0.0065234364
30	0xbc1b7223	-0.0094876615
31	0xbd27ba40	-0.040949106
32	0x3afdfb0b	0.0019377185
33	0xbb6ddc58	-0.0036294665
34	0xba4ce29a	-0.00078157487
35	0x3b2d0b44	0.002640442
36	0x3c964b67	0.018346502
37	0xbc621a35	-0.013800194
38	0x3cd76253	0.026292002
39	0x3c0d27fb	0.008615489
40	0x3cbfb04a	0.02339949
41	0xbcae8b0c	-0.021306537
42	0x3bde9a30	0.006793283
43	0xbccd62b7	-0.025071485
44	0xbc05ebed	-0.008173925
45	0xbc364bd0	-0.011126474
46	0x3cba714e	0.022759106
47	0xbb8d4503	-0.0043112054
48	0x3d021440	0.031757593
49	0xbc9e0ac6	-0.019292247
50	0x39f79bc8	0.00047227577
51	0xbc59e6c6	-0.01329965
52	0x3d0d7d3f	0.034543272
53	0xbb352176	-0.0027638352
54	0x3cc91062	0.024543945
55	0xb9890604	-0.00026135158
56	0xbc348195	-0.011017223
57	0xbbaea398	-0.0053295605
58	0x3cada038	0.021194562
59	0x3c714ccc	0.014727782
60	0x3bacf507	0.005278233
61	0xbcb7bbab	-0.022428354
62	0xbb9cfbd5	-0.004790763
63	0x3c8871fa	0.01665591
64	0x3c4b6545	0.012414281
65	0xbc86f391	-0.016473563
66	0xbcc07bd5	-0.023496548
67	0x3c584936	0.013201049
68	0x3c78809b	0.015167381
69	0x3b1938ee	0.002337988
70	0x3ccb96aa	0.024852116
71	0xbca9a068	-0.02070637
72	0x3b7afc39	0.003829731
73	0xbc88098e	-0.016606119
74	0x3a91a76a	0.0011112515
75	0xbc3df8d2	-0.011594968
76	0xba17cfd2	-0.00057911605
77	0xbbc7246e	-0.006077341
78	0x3d1cbb88	0.03826478
79	0xbcc3ec7e	-0.02391648
80	0xbcf12b4f	-0.029439596
81	0xbbe07f8e	-0.006851143
82	0xbb33985f	-0.0027404053
83	0xbbf74134	-0.0075456146
84	0x3b4d00b2	0.0031280932
85	0x3b1a4f1a	0.0023545683
86	0x3bf7c084	0.0075607914
87	0xbb8a1fc1	-0.004215211
88	0x3c8beac7	0.017079724
89	0x3b2203b0	0.0024721436
90	0xbb7ed0bb	-0.0038881737
91	0xb9fec8ac	-0.00048596167
92	0x3bb7df05	0.005611303
93	0x3baac9d9	0.0052120504
94	0x3c7e24e0	0.015511721
95	0xbbe986a9	-0.0071266484
96	0xbc9882fb	-0.018617144
97	0xbc5ee159	-0.013603532
98	0x3bb8591f	0.0056258584
99	0xbbbc477e	-0.005745827
100	0x3be519bd	0.0069915936
101	0x3ca00300	0.01953268
102	0xbc1c709a	-0.009548331
103	0x3d035f19	0.032073114
104	0xbc90ba98	-0.0176671
105	0x3c6e232d	0.014534754
106	0x3c694ee9	0.014240005
107	0xbc922929	-0.017841892
108	0xbbe9a920	-0.007130757
109	0x3a806081	0.0009794385
110	0xbcb2130b	-0.021737596
111	0x3c7b70ba	0.0153467
112	0xbc370e16	-0.011172792
113	0x3b926561	0.0044676517
114	0x3cb950be	0.022621509
115	0x3c50cd48	0.012744255
116	0xbc8f18c2	-0.01746786
117	0x3b194e3f	0.0023392586
118	0x3ccadef0	0.024764508
119	0x3ae7ed34	0.0017694593
120	0xbb3d7a38	-0.002891196
121	0x3cc21ade	0.023694452
122	0x3c829340	0.015939355
123	0xbb47bed8	-0.0030478742
124	0x3bc51b1c	0.0060151946
125	0x3b4a2dc4	0.0030850032
126	0xbb8b3761	-0.004248545
127	0xbcfba819	-0.030719804
128	0xbca732d6	-0.020409983
129	0xbb8e3cd2	-0.0043407464
130	0x3c6d284a	0.014474938
131	0x3b587880	0.0033030808
132	0xbc9a1ff1	-0.018814059
133	0xbbd4d61d	-0.006495251
134	0xbc81aa4f	-0.01582828
135	0xbc9db2af	-0.019250242
136	0xbb000bb8	-0.0019538235
137	0x3b80c300	0.003929496
138	0xbbebcbdf	-0.007195934
139	0x3cc720cb	0.02430763
140	0x3c0d4936	0.008623412
141	0xbc166368	-0.009178974
142	0x3cf0f419	0.02941327
143	0x3c9ea1ae	0.019364204
144	0x3c6228a0	0.013803631
145	0xbcbdb57f	-0.023157833
146	0xbb347696	-0.0027536503
147	0x3ba473b1	0.0050186743
148	0xbbde7dbc	-0.006789891
149	0x3c19e24f	0.009392335
150	0xbc898160	-0.016785324
151	0xbc9cc8cd	-0.019138718
152	0xbad92976	-0.0016568142
153	0x3ad328ed	0.0016110219
154	0xbc85c516	-0.01632933
155	0xbb74a4d5	-0.0037329693
156	0xbae648aa	-0.0017569263
157	0xb9af465f	-0.00033431032
158	0x3c7675e3	0.015042755
159	0x3bbdddae	0.0057942485
160	0x3c5bfc74	0.013426889
161	0xbcd749c9	-0.0262803
162	0xbd09f178	-0.03367755
163	0xbcc14b27	-0.023595406
164	0xbca94488	-0.020662561
165	0xbad5d5c6	-0.001631432
166	0xbcb7f385	-0.022454986
167	0x3b204d3d	0.00244601
168	0x3ce4d6d3	0.027934467
169	0xbc206d9e	-0.00979176
170	0x3c44f3eb	0.012021045
171	0x3cb43db8	0.022002086
172	0x3bdfeb95	0.0068335035
173	0x3d120ade	0.035654895
174	0x3acad3ff	0.0015474557
175	0x3b993c7d	0.0046764
176	0x3cb100aa	0.021606762
177	0x3b3719fa	0.0027939067
178	0xbc96d6ee	-0.018413033
179	0xbb966210	-0.0045893267
180	0xbc636609	-0.013879308
181	0x3c3f2622	0.011666806
182	0xba9c9b13	-0.0011948071
183	0xbcad8aa8	-0.02118428
184	0x3d3529c4	0.044229284
185	0x3aa021e7	0.0012217135
186	0x3b60e1b8	0.0034314226
187	0xbc092bd8	-0.00837227
188	0x3b9edbc2	0.0048479745
189	0x3ccd5a9a	0.025067616
190	0xbc5922ea	-0.013252953
191	0x3c01f414	0.007931728
192	0x3d0e64c1	0.034764055
193	0x3ca68d3d	0.02033102
194	0xba9dbf9a	-0.0012035251
195	0x3b7c5137	0.0038500556
196	0xbbc32190	-0.0059549287
197	0xbc0599dc	-0.008154359
198	0x3b551c8f	0.0032518243
199	0xbc0344dd	-0.008012024
200	0xbd3a1f7b	-0.04544018
201	0x3c49ef4d	0.01232512
202	0xbc88c404	-0.01669503
203	0x3ab9836c	0.0014153547
204	0xbcae434c	-0.021272324
205	0xbc008c7c	-0.007845994
206	0x3cc2f663	0.023799127
207	0x3cb0be55	0.021575132
208	0x3c81e4ab	0.015856108
209	0xbc6f63ef	-0.014611228
210	0xbba42841	-0.0050096815
211	0xbcec4b80	-0.028844595
212	0xbcb6e440	-0.022325635
213	0xbc9f93b2	-0.019479606
214	0x3cc8776f	0.024471013
215	0x3d038375	0.03210779
216	0x3ccc994f	0.024975447
217	0x3bb08e01	0.005388022
218	0xbcc7ed0c	-0.024405025
219	0x3c96abaa	0.018392403
220	0xbcec5dd9	-0.028853344
221	0xbc5eb923	-0.013593945
222	0x3c239707	0.009984738
223	0xbcdf2f94	-0.027244367
224	0xbcb4f8eb	-0.02209135
225	0xbb4ad892	-0.003095184
226	0x3d14ea2c	0.036356136
227	0xbbcd8b35	-0.0062726983
228	0x3cab6208	0.020920768
229	0x3c5a485a	0.013322914
230	0xbc03da20	-0.0080476105
231	0x3ce69945	0.028149256
232	0x3c37aa6e	0.011210067
233	0xbc74c062	-0.014938446
234	0xbb2a1cc5	-0.002595709
235	0x3bfd21a5	0.007724958
236	0xbc5073ad	-0.012722892
237	0xbbc0ea4f	-0.0058873068
238	0xbbf0726e	-0.00733786
239	0xbc52188d	-0.012823236
240	0x3b0a5ced	0.0021112517
241	0x3cdac0d9	0.026703285
242	0xbc211b33	-0.009833145
243	0xba2d8ae0	-0.000662012
244	0xbb79e1ab	-0.0038128893
245	0x3bf374be	0.0074296882
246	0xbc080a06	-0.008303171
247	0xbc305850	-0.010763243
248	0x3c354acf	0.011065199
249	0x3cac8bab	0.021062693
250	0x3cb356ac	0.021891914
251	0x3c7eeaca	0.015558908
252	0xbabb4641	-0.0014287905
253	0xbc38a426	-0.011269605
254	0xbc2b02d4	-0.010437686
255	0x3bcb9291	0.0062125404

action_model._continuous_distribution.mu.bias f4 [2]
0	0xbab4ec56	-0.0013803344
1	0x3aaa393f	0.0012987031

exp_avg f4 [128, 6]
0	0x37d44596	2.5304773e-05
1	0xb6178e45	-2.2583565e-06
2	0xb694b00a	-4.4312374e-06
3	0xb8d389f6	-0.00010086961
4	0xb52c0fa1	-6.4097736e-07
5	0xb88e3d8c	-6.782552e-05
6	0xb70dd05d	-8.452768e-06
7	0x353a4af6	6.939948e-07
8	0x3668e01d	3.4701145e-06
9	0x3803cd75	3.142418e-05
10	0x34566920	1.9968547e-07
11	0x37b1400c	2.1129868e-05
12	0x38bbff87	8.9644505e-05
13	0xb71ef12c	-9.473686e-06
14	0xb7a945cc	-2.0178872e-05
15	0xb9dd7e19	-0.00042246355
16	0xb6342838	-2.68455e-06
17	0xb994eef0	-0.00028406782
18	0xb7468733	-1.1833198e-05
19	0x3575090f	9.1282794e-07
20	0x363800d7	2.7418625e-06
21	0x382cd754	4.1208536e-05
22	0x348c95ce	2.618603e-07
23	0x37e87087	2.7708955e-05
24	0xb53431f6	-6.712793e-07
25	0x35030991	4.8815224e-07
26	0xb5a4f18b	-1.228925e-06
27	0x37b30263	2.1339574e-05
28	0x34119a2b	1.3560263e-07
29	0x3770bc0c	1.4348898e-05
30	0x359ff881	1.1918747e-06
31	0xb40a00ca	-1.2852539e-07
32	0xb37d5cc2	-5.8990516e-08
33	0xb6c0f346	-5.7503667e-06
34	0xb31cf106	-3.654079e-08
35	0xb681bdc6	-3.866592e-06
36	0x3987c0fe	0.00025892997
37	0xb7b59c45	-2.164965e-05
38	0xb836cb65	-4.3581607e-05
39	0xba7f3b92	-0.00097363547
40	0xb6cf99c5	-6.186982e-06
41	0xba2b9ede	-0.00065468054
42	0x378da8dd	1.6887143e-05
43	0xb5c580eb	-1.4715164e-06
44	0xb783ffa0	-1.5735452e-05
45	0xb890c909	-6.903901e-05
46	0xb4eb87c8	-4.3870955e-07
47	0xb842b5a3	-4.6422367e-05
48	0xb7f04542	-2.864248e-05
49	0x36277183	2.4951012e-06
50	0x3602e9e8	1.950766e-06
51	0x38e2c8f0	0.00010813947
52	0x3538763a	6.8717384e-07
53	0x38987df2	7.271384e-05
54	0x366142ff	3.356661e-06
55	0xb4afbcdf	-3.2733712e-07
56	0xb5ac2e93	-1.2828554e-06
57	0xb7765847	-1.4683296e-05
58	0xb3c85f17	-9.3305225e-08
59	0xb725a4ee	-9.873167e-06
60	0xb5f96acc	-1.8583028e-06
61	0x32d1badc	2.4415776e-08
62	0xb3bb98a2	-8.73563e-08
63	0x35958820	1.1140983e-06
64	0x31f34074	7.0795583e-09
65	0x354917d8	7.491303e-07
66	0xb6f66842	-7.3435085e-06
67	0x346e8380	2.2213317e-07
68	0x376593d9	1.3683887e-05
69	0x374adbdc	1.2091328e-05
70	0x33a5001c	7.683431e-08
71	0x37086770	8.130315e-06
72	0x36f22fb8	7.217717e-06
73	0xb5903b2f	-1.0746061e-06
74	0x35a75e8d	1.2469987e-06
75	0xb83e3ae6	-4.5354383e-05
76	0xb49aba9c	-2.8820511e-07
77	0xb7ffd30a	-3.0496642e-05
78	0xb93198a4	-0.00016936898
79	0x376e6022	1.4208288e-05
80	0x384f93a8	4.949016e-05
81	0x3a28232f	0.0006413934
82	0x3688c261	4.0757445e-06
83	0x39e21d25	0.00043127793
84	0x3759f3d0	1.2990975e-05
85	0xb5b9a689	-1.3832042e-06
86	0xb62e2369	-2.5948632e-06
87	0xb880cb9c	-6.141441e-05
88	0xb4d184c1	-3.9025875e-07
89	0xb82d34bf	-4.1295538e-05
90	0x385ca408	5.2604853e-05
91	0xb6a5251c	-4.9217033e-06
92	0xb78d8e32	-1.6874725e-05
93	0xb967b2af	-0.00022096442
94	0xb5bc7541	-1.4041217e-06
95	0xb91bcbab	-0.00014857824
96	0xb88fe439	-6.861281e-05
97	0x36a666df	4.9591613e-06
98	0x36918979	4.3373407e-06
99	0x39690531	0.00022222546
100	0x35bd8897	1.412135e-06
101	0x391caf48	0.00014942617
102	0x390a1f32	0.00013172327
103	0xb735a90c	-1.08278e-05
104	0xb80446cf	-3.1537198e-05
105	0xba006f97	-0.00048994407
106	0xb650ef11	-3.113357e-06
107	0xb9acb901	-0.00032944235
108	0x3620a917	2.3940281e-06
109	0xb42ef999	-1.6295816e-07
110	0xb5593a33	-8.092349e-07
111	0xb6ec985c	-7.051085e-06
112	0xb34070fa	-4.4806235e-08
113	0xb69f16a1	-4.7412036e-06
114	0x3605cd78	1.9938143e-06
115	0xb3b89d42	-8.596773e-08
116	0x34a624d3	3.0946703e-07
117	0xb683d605	-3.9290194e-06
118	0xb2d6770e	-2.4967019e-08
119	0xb6314b9e	-2.641907e-06
120	0xb5982f66	-1.1338677e-06
121	0x340b5b59	1.2978616e-07
122	0x347a0fcc	2.3288811e-07
123	0x36bf7444	5.7057787e-06
124	0x331bb979	3.6257436e-08
125	0x3680bc38	3.836609e-06
126	0xb7bc6024	-2.2456115e-05
127	0x360911dd	2.0424989e-06
128	0x37b71d15	2.1828842e-05
129	0x38c49f42	9.3756724e-05
130	0x351fed98	5.957786e-07
131	0x388435d3	6.304276e-05
132	0x3334f894	4.2135596e-08
133	0x33883535	6.342672e-08
134	0x35170bc4	5.6269005e-07
135	0x363d98ce	2.8252139e-06
136	0x329a36cb	1.7952877e-08
137	0x35fef920	1.899698e-06
138	0xb4bc1014	-3.5029427e-07
139	0x33424fff	4.52419e-08
140	0x3431c901	1.6557534e-07
141	0x3606762e	2.0036346e-06
142	0x325abc7c	1.27321265e-08
143	0x35b4d37e	1.3472597e-06
144	0x3917d127	0.00014478397
145	0xb745ad02	-1.17823965e-05
146	0xb7e28644	-2.7003822e-05
147	0xba0a6b9d	-0.0005280318
148	0xb6612d1b	-3.3553868e-06
149	0xb9ba2662	-0.00035505282
150	0xb657bc58	-3.2147127e-06
151	0xb66695df	-3.4359907e-06
152	0xb72f7524	-1.0458087e-05
153	0xb91e5259	-0.00015098731
154	0xb580c67c	-9.59451e-07
155	0xb8d4e9d5	-0.00010152502
156	0xb8abb996	-8.1884835e-05
157	0x36abbbfb	5.118081e-06
158	0x37f29311	2.8917131e-05
159	0x39787442	0.00023694432
160	0x35ca164c	1.5056662e-06
161	0x39271001	0.00015932323
162	0xb6434f13	-2.9103292e-06
163	0x34646521	2.1270945e-07
164	0x35d9de02	1.6232373e-06
165	0x372365d0	9.739262e-06
166	0x3384e772	6.188829e-08
167	0x36dbbd69	6.548759e-06
168	0xb70a1d83	-8.232312e-06
169	0x3551a1fc	7.8094286e-07
170	0x364bc8a6	3.036615e-06
171	0x38142c5a	3.5327255e-05
172	0x34710aaa	2.2448754e-07
173	0x37c74408	2.3754328e-05
174	0xb7177d87	-9.029528e-06
175	0x35472b1b	7.4196004e-07
176	0xb64b4fe9	-3.029587e-06
177	0x3808b773	3.2595777e-05
178	0x345e678e	2.0713034e-07
179	0x37b7dbd3	2.1917664e-05
180	0x357b23aa	9.3556685e-07
181	0xb3dd4ff2	-1.03056564e-07
182	0xb491a07a	-2.7125117e-07
183	0xb69bea4a	-4.646635e-06
184	0xb2fda2c9	-2.9527103e-08
185	0xb651ad61	-3.1244347e-06
186	0xb790b4be	-1.7250302e-05
187	0x35903666	1.0744668e-06
188	0xb562016a	-8.419362e-07
189	0x384d107f	4.8891172e-05
190	0x34a6cb7c	3.1067964e-07
191	0x3809e312	3.287482e-05
192	0xb5100c6e	-5.366227e-07
193	0x330ebc52	3.3233228e-08
194	0x33f81132	1.1551528e-07
195	0x35cf9278	1.546533e-06
196	0x3228d5aa	9.827469e-09
197	0x358b92b8	1.0399008e-06
198	0xb722cf34	-9.704196e-06
199	0x35618ea4	8.40266e-07
200	0x35ee0857	1.7734809e-06
201	0x381d34b8	3.7480815e-05
202	0x347fbc56	2.3817242e-07
203	0x37d369c1	2.5202406e-05
204	0xb88f580a	-6.83517e-05
205	0x35c6cadc	1.4811189e-06
206	0xb54618f8	-7.379708e-07
207	0x3897569a	7.216372e-05
208	0x34f630c8	4.5856564e-07
209	0x384b85ac	4.8523463e-05
210	0x38d97981	0.00010369998
211	0xb73277b3	-1.0637496e-05
212	0xb78e1764	-1.6938611e-05
213	0xb9f90df3	-0.00047503374
214	0xb64a934d	-3.0186086e-06
215	0xb9a77759	-0.00031941643
216	0x378be0c0	1.6674749e-05
217	0xb626b000	-2.4838373e-06
218	0x37c62b06	2.3623474e-05
219	0xb8e21396	-0.00010780168
220	0xb537e2bc	-6.8502754e-07
221	0xb8980402	-7.248671e-05
222	0x373c2537	1.1214338e-05
223	0x35b7bf78	1.3690287e-06
224	0x3685459b	3.971812e-06
225	0x386f0b14	5.6992358e-05
226	0x34c26eb0	3.6215852e-07
227	0x3820bc0e	3.8322112e-05
228	0x37f2545c	2.8887931e-05
229	0xb65aea2d	-3.262084e-06
230	0xb70c910b	-8.378421e-06
231	0xb9183220	-0.00014514523
232	0xb57795de	-9.2232756e-07
233	0xb8ccace7	-9.7596836e-05
234	0xb89815b0	-7.2519644e-05
235	0x36e3b101	6.785733e-06
236	0x37a45b26	1.9592768e-05
237	0x39a03829	0.0003055942
238	0x360251a2	1.9419026e-06
239	0x39577730	0.00020548399
240	0x37f98402	2.9744584e-05
241	0xb5a2ef68	-1.2139617e-06
242	0x37779140	1.4756166e-05
243	0xb87219c0	-5.7721278e-05
244	0xb4c4eb58	-3.667908e-07
245	0xb822ca60	-3.8812286e-05
246	0xb7719196	-1.4398616e-05
247	0xb4e803de	-4.321618e-07
248	0x3718ad52	9.10026e-06
249	0xb78940dd	-1.6361877e-05
250	0xb3df4720	-1.0397184e-07
251	0xb738949e	-1.1001857e-05
252	0x3809a157	3.2813605e-05
253	0xb6968992	-4.4863637e-06
254	0xb6bdbdbf	-5.6547283e-06
255	0xb94ee7d1	-0.00019732049

exp_avg_sq f4 [128, 6]
0	0x30135fca	5.3614413e-10
1	0x2d9f2399	1.8092016e-11
2	0x2df613bf	2.7975731e-11
3	0x3315febe	3.4923453e-08
4	0x2bc677f4	1.410204e-12
5	0x3287a2a2	1.5790025e-08
6	0x2f8a1bc6	2.5121788e-10
7	0x2d04f4b3	7.557665e-12
8	0x2da1b6fc	1.8384842e-11
9	0x327a0778	1.4553613e-08
10	0x2b256a4a	5.876728e-13
11	0x31e217b6	6.5801613e-09
12	0x32700a9b	1.397225e-08
13	0x2fe4ea19	4.1639295e-10
14	0x307b7cac	9.149044e-10
15	0x3557d612	8.0405255e-07
16	0x2e0ecb30	3.246753e-11
17	0x34c32c56	3.635384e-07
18	0x2f5bc3b4	1.9987462e-10
19	0x2cb8751b	5.242596e-12
20	0x2d845033	1.5042278e-11
21	0x322d2397	1.00780175e-08
22	0x2ae51783	4.0694886e-13
23	0x319c9044	4.5565987e-09
24	0x2b5d1043	7.853754e-13
25	0x2a3b9977	1.666218e-13
26	0x2b9dc30f	1.1209661e-12
27	0x2faf7e72	3.192216e-10
28	0x28683534	1.2890124e-14
29	0x2f1eb16e	1.4433052e-10
30	0x2b697f98	8.29553e-13
31	0x28b9aa64	2.0613021e-14
32	0x29cbbe76	9.048051e-14
33	0x2e2f9a7b	3.99276e-11
34	0x26e85a49	1.6122706e-15
35	0x2d9ecac4	1.8052566e-11
36	0x33963c0f	6.995844e-08
37	0x31076b24	1.9705988e-09
38	0x31aee8a3	5.0905142e-09
39	0x367e82b6	3.7925033e-06
40	0x2f28614b	1.5314076e-10
41	0x35e62528	1.7147149e-06
42	0x30c194d5	1.4084899e-09
43	0x2ead0ad7	7.869055e-11
44	0x2f0e6f1a	1.2954296e-10
45	0x34236fcc	1.522123e-07
46	0x2cd8410c	6.146311e-12
47	0x3393ca44	6.882013e-08
48	0x303af37e	6.801243e-10
49	0x2cff4434	7.255108e-12
50	0x2e6f3dac	5.4397084e-11
51	0x32702ffb	1.3980748e-08
52	0x2b1ee775	5.6454087e-13
53	0x31d93170	6.3211516e-09
54	0x2e0d1818	3.2081088e-11
55	0x2ba1a0b5	1.1484343e-12
56	0x2c3f5dbe	2.719477e-12
57	0x3118d6ca	2.2241005e-09
58	0x29ca3b4a	8.980887e-14
59	0x308a34fa	1.0055878e-09
60	0x2cd0379f	5.9178907e-12
61	0x29e1de04	1.0030521e-13
62	0x2adf3059	3.9646305e-13
63	0x2f53e32e	1.9271049e-10
64	0x280c2e67	7.781623e-15
65	0x2ebf9a3a	8.7130705e-11
66	0x315d162b	3.2172334e-09
67	0x2eaab307	7.7625066e-11
68	0x2f75bcc0	2.2349678e-10
69	0x34203b00	1.4922625e-07
70	0x2cd40300	6.0257355e-12
71	0x3390e40b	6.747003e-08
72	0x2ff1f0d0	4.4008752e-10
73	0x2d9f9068	1.8140336e-11
74	0x2ea73e94	7.605397e-11
75	0x33176d3a	3.5256768e-08
76	0x2bc85ce3	1.4236636e-12
77	0x3288ee0b	1.5940733e-08
78	0x33861c07	6.2449594e-08
79	0x30f374f5	1.7713818e-09
80	0x31916a4b	4.2321395e-09
81	0x3664c515	3.4089364e-06
82	0x2f1759b3	1.3765238e-10
83	0x35cede5e	1.5412913e-06
84	0x2f61ecc7	2.0547751e-10
85	0x2cb6edb9	5.1991436e-12
86	0x2d483237	1.1379834e-11
87	0x322c44f5	1.0027397e-08
88	0x2ae3f0f3	4.0490492e-13
89	0x319bc6f5	4.5337125e-09
90	0x31dce9e6	6.429434e-09
91	0x2f2cf981	1.573195e-10
92	0x3020e4a9	5.8532607e-10
93	0x34a26b78	3.0253045e-07
94	0x2d56e89d	1.2216142e-11
95	0x3412dee0	1.3678391e-07
96	0x3190ff8c	4.220004e-09
97	0x2ed115bd	9.508081e-11
98	0x2f87b17e	2.4682473e-10
99	0x34446429	1.829036e-07
100	0x2d01ede5	7.385624e-12
101	0x33b19702	8.269673e-08
102	0x32cfcbb1	2.41906e-08
103	0x303b07c9	6.8041267e-10
104	0x31003a2e	1.8659523e-09
105	0x35afaf9e	1.3089627e-06
106	0x2e687649	5.285575e-11
107	0x351edde4	5.918248e-07
108	0x2eb38c3e	8.1648896e-11
109	0x2bd0a995	1.4826357e-12
110	0x2cbc6dc5	5.3554682e-12
111	0x314409de	2.8527363e-09
112	0x2a01b224	1.1519307e-13
113	0x30b14555	1.289815e-09
114	0x2c9719f1	4.294558e-12
115	0x29a93605	7.5144785e-14
116	0x2adb4adb	3.8954156e-13
117	0x2f20cf95	1.4625663e-10
118	0x27d4c792	5.9058195e-15
119	0x2e916a65	6.612736e-11
120	0x2cd3a4d6	6.015281e-12
121	0x29e92c20	1.0354933e-13
122	0x2aaa6490	3.0267846e-13
123	0x2f5b7267	1.9958578e-10
124	0x28112eba	8.059249e-15
125	0x2ec67032	9.0239274e-11
126	0x32156fa8	8.698329e-09
127	0x2f9e5457	2.879996e-10
128	0x30392716	6.735815e-10
129	0x351543c1	5.560542e-07
130	0x2dc5808b	2.2453392e-11
131	0x3486f98c	2.5141014e-07
132	0x2cf6fea6	7.020012e-12
133	0x2a51f47c	1.8647752e-13
134	0x2b706f90	8.541995e-13
135	0x2fc61e25	3.603741e-10
136	0x2883124e	1.455186e-14
137	0x2f3326a6	1.6293686e-10
138	0x2abc9938	3.3501825e-13
139	0x287e0045	1.4099891e-14
140	0x2902bf82	2.9031905e-14
141	0x2df1d8f7	2.749488e-11
142	0x26a0009b	1.1102394e-15
143	0x2d5ab1bc	1.243133e-11
144	0x330c2ca0	3.2636876e-08
145	0x30735cc4	8.8534713e-10
146	0x31100b03	2.0961017e-09
147	0x35e4ca8b	1.7046272e-06
148	0x2e975d4f	6.88326e-11
149	0x354ee34d	7.7071746e-07
150	0x313ea34a	2.7741458e-09
151	0x2e942dfc	6.738429e-11
152	0x2f6ebaa2	2.1712279e-10
153	0x340d2c73	1.3147819e-07
154	0x2cbacbde	5.3090718e-12
155	0x337f511d	5.9445586e-08
156	0x32a67943	1.9380087e-08
157	0x302d0ba9	6.2953603e-10
158	0x30bd5d51	1.3778082e-09
159	0x35a26d35	1.2101724e-06
160	0x2e56eae0	4.8866577e-11
161	0x3512e06c	5.4715815e-07
162	0x2e6b08f8	5.344078e-11
163	0x2be5205a	1.6280408e-12
164	0x2caa0f4d	4.8333893e-12
165	0x31573925	3.13191e-09
166	0x2a0e635e	1.2646608e-13
167	0x30c29e6d	1.4160385e-09
168	0x2f4f6e95	1.8865827e-10
169	0x2cc3b578	5.5623804e-12
170	0x2d7beb76	1.4319981e-11
171	0x3237f67f	1.0708049e-08
172	0x2af369e6	4.3238953e-13
173	0x31a659ea	4.841458e-09
174	0x2effb9d3	1.16290665e-10
175	0x2bb63cf4	1.2948796e-12
176	0x2c973721	4.2977987e-12
177	0x312ad215	2.4857674e-09
178	0x29e20639	1.00374956e-13
179	0x309a779a	1.1238968e-09
180	0x2bafa4da	1.2480253e-12
181	0x28daaa20	2.4276642e-14
182	0x2a328a4e	1.585756e-13
183	0x2e4ffa0e	4.7288444e-11
184	0x2709980e	1.9094998e-15
185	0x2dbc10ea	2.1380637e-11
186	0x2f3e0efa	1.728572e-10
187	0x2c89b5df	3.913966e-12
188	0x2d83c887	1.4982028e-11
189	0x32024bbc	7.584216e-09
190	0x2aac6736	3.0624955e-13
191	0x316ba4d6	3.42907e-09
192	0x2aedd5ce	4.2248014e-13
193	0x287a0b6b	1.3880264e-14
194	0x292080c2	3.5638816e-14
195	0x2dead749	2.6698326e-11
196	0x269b5deb	1.0780742e-15
197	0x2d545bc5	1.2071182e-11
198	0x2f14dd8d	1.3539232e-10
199	0x2c5d97de	3.1490292e-12
200	0x2d21aafb	9.189756e-12
201	0x31d04241	6.061129e-09
202	0x2a89c7d8	2.4474758e-13
203	0x313c5238	2.7404337e-09
204	0x320b5c43	8.111843e-09
205	0x2f276abb	1.522648e-10
206	0x302ddeb3	6.325351e-10
207	0x349dcb3b	2.9391398e-07
208	0x2d50c9a8	1.1868208e-11
209	0x340eb003	1.3288813e-07
210	0x31f5e702	7.156701e-09
211	0x2f4d18d0	1.8653457e-10
212	0x3015dca8	5.4519456e-10
213	0x34c1076e	3.5954457e-07
214	0x2d7f68e0	1.4518359e-11
215	0x342e8ca6	1.625618e-07
216	0x31f2e6b8	7.0693567e-09
217	0x2f6ea7eb	2.170563e-10
218	0x30270d54	6.0773186e-10
219	0x34e16049	4.1979573e-07
220	0x2d951aed	1.6951296e-11
221	0x344bccbe	1.8980333e-07
222	0x312aef27	2.4874198e-09
223	0x2e47457f	4.5309086e-11
224	0x2f8dd520	2.5799185e-10
225	0x33bdcd51	8.838345e-08
226	0x2c7b23cb	3.5689114e-12
227	0x332ba1a0	3.9961037e-08
228	0x30f25c44	1.7634041e-09
229	0x2e32ea3c	4.0680556e-11
230	0x2f07b46d	1.2342279e-10
231	0x33a85d25	7.8400525e-08
232	0x2c5ec602	3.1658014e-12
233	0x33183ed9	3.5447417e-08
234	0x321c3bbb	9.093976e-09
235	0x2f9804b5	2.7651983e-10
236	0x303ba68d	6.8266887e-10
237	0x350edc86	5.3220026e-07
238	0x2dbd0792	2.1490174e-11
239	0x34812f41	2.4062504e-07
240	0x32703c22	1.3983511e-08
241	0x2fb80655	3.3473904e-10
242	0x30ac84cc	1.255239e-09
243	0x352f4a9d	6.5301157e-07
244	0x2de7f09c	2.6368512e-11
245	0x349e828a	2.9524773e-07
246	0x30b4184d	1.310363e-09
247	0x2e58a2ff	4.9257484e-11
248	0x2edffbde	1.01856065e-10
249	0x33cb0da1	9.455403e-08
250	0x2c865634	3.8180795e-12
251	0x33379d2c	4.2750955e-08
252	0x30efc4df	1.7445493e-09
253	0x2ded67ee	2.6989935e-11
254	0x2f311373	1.6104966e-10
255	0x335f55ab	5.1999148e-08

exp_avg f4 [128]
0	0x378d7f61	1.6867825e-05
1	0xb6b05310	-5.2548785e-06
2	0x389427d3	7.064608e-05
3	0xb6e739c0	-6.8910595e-06
4	0xb66f7a31	-3.56849e-06
5	0x35811050	9.615997e-07
6	0x392ab967	0.00016281531
7	0x3741b157	1.1544987e-05
8	0xb797b211	-1.8083521e-05
9	0x3624c77a	2.4554015e-06
10	0xb4480ad0	-1.8630385e-07
11	0xb607b0e0	-2.0219522e-06
12	0x36fe7d08	7.5843454e-06
13	0xb8e0eede	-0.00010725645
14	0x372c4d2f	1.026997e-05
15	0x381afb60	3.6950572e-05
16	0xb81bddce	-3.716145e-05
17	0x38abd213	8.193045e-05
18	0x359e41f7	1.1791116e-06
19	0x35305e8e	6.5702704e-07
20	0xb580101e	-9.541434e-07
21	0xb7838512	-1.5678383e-05
22	0xb4fda436	-4.7244401e-07
23	0xb4b3e1bb	-3.350559e-07
24	0x38b92d81	8.829963e-05
25	0x37d3cd2e	2.5248704e-05
26	0xb82630a6	-3.962279e-05
27	0xb5da97a6	-1.6286401e-06
28	0xb6c639a5	-5.9075705e-06
29	0xb6b6e600	-5.450798e-06
30	0x35509508	7.770291e-07
31	0xb7092ab8	-8.175783e-06
32	0xb48ad81f	-2.5861752e-07
33	0xb6d24f1c	-6.2676972e-06
34	0xb74a7590	-1.206751e-05
35	0x38a69775	7.943708e-05
36	0x379738c0	1.8027029e-05
37	0xb71fe524	-9.5304895e-06
38	0x37cb9b40	2.427178e-05
39	0xb856571c	-5.1102703e-05
40	0x3721f0b0	9.652387e-06
41	0x36379ddb	2.736101e-06
42	0x380a65f9	3.2996733e-05
43	0x36ca0aa4	6.021308e-06
44	0x38d2ec2b	0.0001005757
45	0x379aaff6	1.8440169e-05
46	0x38eed4ae	0.00011388339
47	0x39099621	0.00013121266
48	0xb89c9763	-7.466858e-05
49	0x38b7ec3b	8.770121e-05
50	0x387487e4	5.830069e-05
51	0x384780e9	4.7565354e-05
52	0xb807ca4d	-3.2374915e-05
53	0xb6e279a3	-6.7494852e-06
54	0x37a1d801	1.929328e-05
55	0x37821a1c	1.5509366e-05
56	0xb7b101d6	-2.11009e-05
57	0x37061752	7.992452e-06
58	0x372d1736	1.0317008e-05
59	0xb8aba82d	-8.1852406e-05
60	0xb60e63e2	-2.1217788e-06
61	0xb614dcd1	-2.218225e-06
62	0xb8423270	-4.6300178e-05
63	0x3693930c	4.39806e-06
64	0x36856b32	3.976188e-06
65	0x36be824c	5.67761e-06
66	0x37abb5a6	2.0469375e-05
67	0xb7d4a9f7	-2.5351515e-05
68	0x369d029a	4.6792675e-06
69	0x38c068fe	9.17483e-05
70	0x37a7551a	1.994758e-05
71	0x36bc422a	5.610539e-06
72	0xb5de12d0	-1.6545764e-06
73	0x3800c0e3	3.0697218e-05
74	0x38b96b10	8.8414294e-05
75	0xb6eababc	-6.995482e-06
76	0xb7e2d4d2	-2.7040402e-05
77	0xb613b376	-2.2009167e-06
78	0xb53c0bb1	-7.005247e-07
79	0xb7dbc717	-2.6199543e-05
80	0x384b2209	4.843067e-05
81	0xb6356752	-2.7031242e-06
82	0x37c90002	2.396107e-05
83	0x369716c5	4.5028014e-06
84	0xb7f72976	-2.9464001e-05
85	0xb4e3cb94	-4.2430167e-07
86	0xb82c3d0e	-4.1064857e-05
87	0xb89a7bd8	-7.36636e-05
88	0x37049b8a	7.904027e-06
89	0xb81a4a72	-3.6785794e-05
90	0x3709f9ab	8.223967e-06
91	0xb52bd99c	-6.401913e-07
92	0xb6ac18fc	-5.128908e-06
93	0x385a171e	5.199678e-05
94	0x391da770	0.00015035062
95	0xb7269e7c	-9.931271e-06
96	0xb860d7d8	-5.3606782e-05
97	0x36a5e75e	4.944318e-06
98	0x37c5fdc9	2.3602408e-05
99	0xb4127004	-1.363806e-07
100	0x38c6c308	9.477703e-05
101	0xb83cceaa	-4.5015164e-05
102	0xb70263eb	-7.771868e-06
103	0x354c25c8	7.60509e-07
104	0xb7bb81bd	-2.2352551e-05
105	0x382d0235	4.124847e-05
106	0x37a71d4b	1.9921592e-05
107	0x34b5c732	3.385881e-07
108	0x3495d67b	2.7909468e-07
109	0x38bd4418	9.024906e-05
110	0xb52150f0	-6.0094953e-07
111	0xb8a4f1ab	-7.8651436e-05
112	0xb4fc940e	-4.7046382e-07
113	0x34f7dbc0	4.6167224e-07
114	0x361b1db0	2.311408e-06
115	0xb6371ad8	-2.728475e-06
116	0x38b574d7	8.652516e-05
117	0xb3abde86	-8.003285e-08
118	0x3676ab52	3.6756578e-06
119	0xb71f2acd	-9.487104e-06
120	0x357d52e3	9.437046e-07
121	0xb52e2a1c	-6.488133e-07
122	0x360168d7	1.9283523e-06
123	0x38dce207	0.00010532518
124	0x37add452	2.0722076e-05
125	0xb8308cf0	-4.209293e-05
126	0x370680ba	8.016994e-06
127	0x389d132a	7.489913e-05

exp_avg_sq f4 [128]
0	0x308638e8	9.765957e-10
1	0x2fdfbcbc	4.0697568e-10
2	0x32c123d1	2.2484445e-08
3	0x2f9aeeb6	2.818205e-10
4	0x2d1d0a2f	8.926678e-12
5	0x2b9d2346	1.1165311e-12
6	0x33e3bf5b	1.06053186e-07
7	0x3192401d	4.256448e-09
8	0x2fd6ee2e	3.909561e-10
9	0x2e88c466	6.219451e-11
10	0x2cbd9b3c	5.3889376e-12
11	0x318f61a3	4.1729478e-09
12	0x308780df	9.85917e-10
13	0x33ccb6a8	9.532715e-08
14	0x2f9a277f	2.80405e-10
15	0x32115728	8.459928e-09
16	0x31afbd5d	5.1146984e-09
17	0x331d362f	3.660369e-08
18	0x2eaf6c8a	7.977359e-11
19	0x2c8fe696	4.0899046e-12
20	0x2cc45ef1	5.5811957e-12
21	0x32859196	1.5549443e-08
22	0x2d3148dd	1.0077464e-11
23	0x2b586a7e	7.6886403e-13
24	0x334cbb87	4.7668006e-08
25	0x317ca82e	3.6766425e-09
26	0x331158b3	3.3841115e-08
27	0x2ec0975f	8.758038e-11
28	0x2fa49e3f	2.9943867e-10
29	0x2e98dba3	6.951175e-11
30	0x2bba1b59	1.3223685e-12
31	0x2f69306b	2.1208428e-10
32	0x2b52256c	7.465892e-13
33	0x2f3a5bfb	1.694928e-10
34	0x320d3374	8.218979e-09
35	0x322cbb21	1.0054266e-08
36	0x3249ad35	1.1739123e-08
37	0x3129d7e3	2.4715454e-09
38	0x3116a8d0	2.1923832e-09
39	0x327fad6f	1.4882388e-08
40	0x329cdbcc	1.8260742e-08
41	0x3135b37c	2.6440992e-09
42	0x30c7d988	1.4540982e-09
43	0x2e48dc55	4.567043e-11
44	0x338178da	6.0290134e-08
45	0x3288170e	1.5842968e-08
46	0x332ecb66	4.0697522e-08
47	0x339a3784	7.181282e-08
48	0x31abddfc	5.0019917e-09
49	0x32b84ff6	2.1456781e-08
50	0x31890d27	3.98872e-09
51	0x32d3033d	2.4565106e-08
52	0x304fe5fc	7.563299e-10
53	0x2fbdc57d	3.4519224e-10
54	0x303bed68	6.836758e-10
55	0x31bb00c3	5.442503e-09
56	0x2ede9d71	1.01233584e-10
57	0x31a9d99a	4.943286e-09
58	0x2ff75aa3	4.499344e-10
59	0x33345fa3	4.1996497e-08
60	0x2e1b672e	3.533456e-11
61	0x2fa22c5b	2.9499145e-10
62	0x3298926c	1.7761714e-08
63	0x2e3ea4eb	4.3347475e-11
64	0x2f142298	1.3472812e-10
65	0x2f8ae053	2.5261446e-10
66	0x309ac5c9	1.1261189e-09
67	0x3032a6db	6.499314e-10
68	0x324362bb	1.1372943e-08
69	0x338c453f	6.531854e-08
70	0x31d05d59	6.064209e-09
71	0x2eaf1e4a	7.963459e-11
72	0x2d3fa3b8	1.0893446e-11
73	0x311042a9	2.099265e-09
74	0x330edf23	3.3264893e-08
75	0x303f14ce	6.951496e-10
76	0x32ec0759	2.7477357e-08
77	0x31439dd0	2.846594e-09
78	0x2bf1e98c	1.7188902e-12
79	0x3314ace9	3.4616196e-08
80	0x318e946a	4.1496167e-09
81	0x2f1e979f	1.4423883e-10
82	0x327b3b24	1.462357e-08
83	0x2e5d9967	5.038583e-11
84	0x30c1b9f6	1.4095451e-09
85	0x2f279bc5	1.5243902e-10
86	0x31abd220	5.0006435e-09
87	0x332afefb	3.9813113e-08
88	0x315acb0c	3.1838594e-09
89	0x32a15d29	1.8785231e-08
90	0x30c3532c	1.4211756e-09
91	0x30ab078a	1.244403e-09
92	0x3205e6cb	7.794095e-09
93	0x3298f960	1.7808532e-08
94	0x33bfd2e1	8.932489e-08
95	0x2f8c473c	2.5516467e-10
96	0x3309b9a2	3.206663e-08
97	0x2eb0cdc4	8.040105e-11
98	0x31d68eea	6.244467e-09
99	0x2bd356b5	1.5016518e-12
100	0x33a115cf	7.501114e-08
101	0x325313bc	1.22863035e-08
102	0x30f4d4de	1.7813837e-09
103	0x2d0039ea	7.288817e-12
104	0x3146f433	2.8951603e-09
105	0x31ca2ea5	5.8842766e-09
106	0x30203811	5.8287336e-10
107	0x2a844dbb	2.3501847e-13
108	0x2b4ade03	7.207292e-13
109	0x32d315ab	2.4573486e-08
110	0x323554a9	1.0554836e-08
111	0x33913590	6.7618316e-08
112	0x2e1d6d7f	3.579492e-11
113	0x3143398c	2.8408946e-09
114	0x301c9493	5.6963606e-10
115	0x2bd5d73b	1.5194299e-12
116	0x32e34ffa	2.6462647e-08
117	0x2a000553	1.1370531e-13
118	0x2e1ef5f4	3.614349e-11
119	0x308fff43	1.0477169e-09
120	0x2c7fc03d	3.6344393e-12
121	0x2e0561bb	3.03275e-11
122	0x2d7b8428	1.4297043e-11
123	0x33b78c03	8.5470695e-08
124	0x304722b6	7.2445105e-10
125	0x32a3a451	1.905042e-08
126	0x2f1cab35	1.4248942e-10
127	0x3322fcbe	3.7948432e-08
