V1/results/ppo/MoveToGoal/MoveToGoal-41719.pt (torch, 441756 bytes, 36 tensors)

network_body._body_endoder.seq_layers.0.weight f4 [128, 6]
000000 0a 70 3b bf 27 4c 0e 3e f9 f8 53 3f 30 71 cd 3e
       -0.73217833 0.13896237 0.8280178 0.40125418
000010 94 53 2d 3e 1e 64 8e 3d 6d dc 18 3f 13 63 0d 3f
       0.16926414 0.069526896 0.59711343 0.552293
000020 7e 5b c4 be ab e5 30 3f d4 68 31 be a4 71 88 be
       -0.38351053 0.69100446 -0.17325145 -0.266492
000030 13 92 07 3d 70 e3 f0 3e ad cf 41 3f f6 ef 6b be
       0.03309829 0.4704852 0.75707513 -0.23040757
000040 9d 44 30 be 10 8e 7b bd e5 39 2b 3e f0 01 1d bf
       -0.17213674 -0.06141478 0.16721304 -0.6133108
000050 b2 0a 43 bf ce a2 93 be c2 3e e1 bc a9 83 d2 3e
       -0.76188195 -0.28835148 -0.027495746 0.41116074
000060 15 c9 14 bf da 14 79 be 76 76 74 3e fb 76 90 3d
       -0.58119327 -0.2432436 0.23873314 0.07053944
000070 9e e8 4a 3e 00 51 46 3e 1b 95 7f 3d d5 64 e7 bd
       0.19815299 0.19366837 0.062398057 -0.11298529
000080 ad 73 15 3e 26 6a ba bc 62 af a6 3d 97 1a 8e be
       0.14594908 -0.022755694 0.0813892 -0.2775466
000090 8b 6e 42 3e a0 58 f4 bd 50 05 11 be e3 44 f8 be
       0.18987481 -0.119309664 -0.14162183 -0.48490056
0000a0 0f 22 8c be ea fa bf 3d 79 38 08 3d 20 a1 3f 3e
       -0.27369735 0.0937403 0.03325698 0.18713808
0000b0 6f ff 95 bd d3 23 ca bd 7b 10 d2 be cf bf 1e bf
       -0.07324111 -0.09870114 -0.410282 -0.62011427
0000c0 e5 c3 b3 bc 21 52 06 3e 8e f8 85 3e 1c c7 84 be
       -0.021943996 0.13117267 0.26166195 -0.25933158
0000d0 56 94 ef bd df 36 16 bf 30 cb e1 bd 41 13 34 3f
       -0.11698215 -0.58677477 -0.11025083 0.7034188
0000e0 db d1 a9 be ab f7 bc be ef d5 93 3e e1 95 09 bf
       -0.3316792 -0.36907706 0.28874156 -0.5374432
0000f0 b7 34 d4 3e c3 87 f9 be 23 5f 0e be f9 59 85 3f
       0.41446468 -0.4873639 -0.1390348 1.0418082
000100 7f 7a 50 bf fa e5 9a be 2d fd 06 3f f1 a9 db be
       -0.81436914 -0.30253583 0.52730066 -0.42903093
000110 32 f2 dd 3e a2 11 d7 3c 8f d8 55 3f cf a7 1f bc
       0.43348843 0.026253525 0.8353357 -0.0097445985
000120 6a 19 0c 3e 14 3f 8a 3e 77 4c 63 be 92 f3 06 bf
       0.1368157 0.2700125 -0.22197138 -0.5271541
000130 ab f4 49 3e 5c 5a cf be 0b 28 20 be 2d e6 65 be
       0.1972224 -0.40498626 -0.15640275 -0.22451086
000140 80 d8 6f bf 63 9c 67 3e 92 cb a3 3e 51 4c 37 3f
       -0.9368973 0.2261825 0.3199125 0.71600825
000150 c4 9f d5 3d cd 31 8f 3e a6 35 a1 be 7f b3 5f be
       0.104308635 0.27967682 -0.31486243 -0.21845816
000160 8b 28 ac 3c c8 88 a7 3e 6f 95 2c 3e 2f 17 38 bf
       0.021015426 0.32721543 0.1685388 -0.71910375
000170 26 ed 28 3f ff 87 96 3e db 40 6b 3f 93 c8 d2 3e
       0.6598686 0.29400632 0.91895837 0.4116865
000180 4a da 49 bd 06 6a ac 3e 4f 9a b4 be 9b 16 1c 3d
       -0.049280442 0.3367464 -0.35273978 0.038107496
000190 6c 52 f9 bc 95 f1 d2 3d 2f c8 82 3b 12 64 cc be
       -0.03043481 0.10299984 0.003991149 -0.39920098
0001a0 f9 69 99 3e 54 7b a5 be ba 5a 28 be e7 96 5e be
       0.29963663 -0.32320654 -0.1644086 -0.21737252
0001b0 5a b9 ab be b8 87 79 bf d5 9c 30 3e ec 59 c0 3e
       -0.3353985 -0.97472715 0.17247327 0.37568605
0001c0 6c 21 ad 3e 09 82 ce 3d 91 00 24 be 65 85 04 3e
       0.3381456 0.10083396 -0.16015841 0.12941511
0001d0 95 97 d9 bd af 59 d4 be 80 de 0c 3f dc 68 a1 3f
       -0.10624615 -0.41474673 0.5502701 1.2610126
0001e0 21 76 a9 3e c7 da 87 be b2 9e e0 3e ab 0a 86 3e
       0.33097938 -0.265341 0.43871075 0.26180014
0001f0 71 12 b9 3d de 5b f8 be 23 fd 9c 3e c7 22 1b 3e
       0.090367205 -0.4850759 0.30661878 0.15149985
000200 f4 b5 b6 be bd e9 e7 3d 04 25 c6 bd 4e df 96 be
       -0.35685694 0.11323879 -0.09675029 -0.29467243
000210 71 97 90 3d 2f d9 ab be 12 58 cd be da 2e fd 3e
       0.07060135 -0.33564135 -0.40106255 0.49449807
000220 54 77 54 bd 1a 12 aa be f2 e8 16 3f f8 4b c8 3e
       -0.051871613 -0.33216935 0.58949196 0.3912046
000230 1b a3 a5 bd e6 04 c1 be 38 61 35 3f 1f 2f 8a 3e
       -0.080877505 -0.3769905 0.7085147 0.26989076
000240 51 51 d1 bd fe 92 95 bd 28 3e 60 be 5e f1 a0 3d
       -0.10220588 -0.07303427 -0.2189871 0.07858537
000250 62 09 15 bf fe a5 fd be 07 4d 59 be 2d 8e a9 be
       -0.5821744 -0.49540704 -0.2122079 -0.33116284
000260 dc f0 1b 3e f0 4b 3b bf ce c0 44 3f e0 cd 14 bf
       0.152286 -0.73162746 0.76856697 -0.5812664
000270 52 89 e9 3c 62 ec 07 3e dc ad 8d bf 2c 20 55 be
       0.028507862 0.13273767 -1.1068683 -0.20813054
000280 51 8f 1d bf d3 46 ff 3e 66 7d 1f 3f 38 1c fb 3e
       -0.6154681 0.49858722 0.6230072 0.49044967
000290 ea 59 54 bf da 5f a1 3e b5 d2 01 bf 69 4f 75 3d
       -0.829497 0.3151844 -0.5071214 0.059890185
0002a0 cc db 86 bf 81 f7 81 3e 8c 67 a0 be 6b 15 3c 3e
       -1.0535827 0.25384143 -0.31329 0.18367545
0002b0 a5 1e 40 bd 6c 03 82 3f 2d 57 c2 be 84 e3 a1 3e
       -0.046904225 1.0157294 -0.37957135 0.31618893
0002c0 a6 d9 cc be 8f b0 ac be c1 06 02 bf ce 20 85 be
       -0.40009803 -0.33728454 -0.50791556 -0.2600159
0002d0 42 5c 92 bf 9d 23 ce be 49 2a 8e bd 85 ef 87 3e
       -1.1434405 -0.40261546 -0.06941659 0.26549926
0002e0 86 52 20 3d d7 0e cb 3c 37 a0 ee bc 29 37 46 3f
       0.0391412 0.02478735 -0.02912913 0.7742792
0002f0 cb a8 95 be f4 51 f6 3d 08 c1 4c 3e 36 bd d7 3e
       -0.2923034 0.1202735 0.1999551 0.42136544
000300 94 93 1a 3f c3 56 cf 3d 22 3f 85 bd 0c cc 31 3e
       0.60381436 0.1012397 -0.06506182 0.17362994
000310 f5 43 30 3e a7 19 59 3d ff 56 8b be 91 99 ba be
       0.17213424 0.05300298 -0.2721481 -0.36445287
000320 31 13 09 be 30 05 16 be 02 20 2a 3e 56 51 a8 be
       -0.13386227 -0.14650416 0.16613773 -0.32874554
000330 e9 f0 bf 3e e6 41 76 be ac 3e 2a bd e5 49 07 bf
       0.37488487 -0.24048576 -0.041563675 -0.5284713
000340 0a 29 46 be e6 d0 22 bf 19 12 a4 3e 8a 0b 09 3f
       -0.19351593 -0.63600004 0.32045057 0.5353323
000350 ac ed 58 be 7a a5 53 3e b6 2a f4 bd 43 da 80 3e
       -0.21184415 0.20668593 -0.11922209 0.2516652
000360 83 62 f9 bd c6 dd 1b 3e ae 3d 6b 3b 82 6a e3 be
       -0.12176993 0.15221319 0.0035894918 -0.44417197
000370 14 3f c8 3e a6 17 7c 3d 4d fc 5a 3f d5 cb a8 bd
       0.39110625 0.06154599 0.8554123 -0.08242003
000380 70 92 f9 3d 41 97 f7 3e 2c 42 44 3c 33 06 e7 3d
       0.12186134 0.48357585 0.011978667 0.11280479
000390 ef 69 23 bf 74 b3 02 3f fe a7 75 be 29 43 19 3e
       -0.63833517 0.51055074 -0.23989865 0.14967026
0003a0 d0 47 18 bf d2 20 33 bf aa 47 a8 bf 30 93 98 be
       -0.5948458 -0.69971955 -1.314687 -0.29799795
0003b0 ca 7f be 3e 6e ce bb 3e 69 c0 94 bc be 53 89 be
       0.3720687 0.3668093 -0.018158155 -0.26821703
0003c0 20 db dc bc 0d 0a 77 be b7 30 1a bd 4b 8e d0 bd
       -0.026959956 -0.24124928 -0.037644114 -0.1018339
0003d0 f3 f4 80 be 83 8e 24 bf bf 66 d1 3e cc a4 53 bc
       -0.2518688 -0.64279956 0.40898702 -0.012917709
0003e0 92 21 b8 bc e7 d7 fc be 31 46 70 be a1 0c 25 bf
       -0.022476945 -0.4938347 -0.23464276 -0.64472395
0003f0 a0 54 3a 3f 0e b4 bb 3e f9 c5 15 bf 97 3f 96 bb
       0.7278538 0.36660808 -0.5850521 -0.004585217

network_body._body_endoder.seq_layers.0.bias f4 [128]
000000 f6 ad 53 3a e7 62 b6 ba 87 c2 74 ba 86 5c d8 ba
       0.00080749334 -0.0013914973 -0.0009336848 -0.0016507066
000010 82 15 c8 39 05 38 05 3a 9e 64 04 ba a7 f7 2e b9
       0.00038162997 0.0005081895 -0.00050503935 -0.00016686191
000020 e3 33 97 b9 29 9c a6 3a 3c 6b 9a 3a b4 a6 85 b9
       -0.00028839623 0.0012711334 0.0011781226 -0.0002549194
000030 1d 59 0a ba 11 43 00 3b e2 3f 1f bb ee 0f 12 3b
       -0.0005277561 0.0019571225 -0.0024299552 0.0022287327
000040 24 a4 f9 ba ac 23 ed 39 72 07 84 ba bd b5 d1 b9
       -0.001904611 0.0004523074 -0.001007302 -0.00039998992
000050 5a 17 03 39 ec 86 c2 b8 09 8f 55 3a 7b 35 21 bb
       0.00012501833 -9.275772e-05 0.0008146619 -0.0024598527
000060 1d 7a 31 38 fd cf fc b9 4d 06 31 3a 19 64 18 3b
       4.2313815e-05 -0.0004822015 0.0006752953 0.0023253022
000070 d3 f0 93 b9 d3 4c 2d 3a 35 e8 c7 3a 1d a7 91 3a
       -0.00028217453 0.0006610874 0.0015251698 0.0011112426
000080 ac a3 8d bb 72 7b 25 b9 a6 03 e6 ba fc db 17 bb
       -0.0043224897 -0.00015781613 -0.0017548695 -0.0023171892
000090 f7 76 05 39 ce d7 b7 3a 2f b7 67 3a 8d d1 51 ba
       0.00012728186 0.0014026107 0.0008839247 -0.0008003943
0000a0 c8 dc c2 ba ac d6 ab 37 94 ff d4 bb 23 9f d3 ba
       -0.0014866823 2.0484753e-05 -0.006500194 -0.0016145449
0000b0 9a 2e 84 3a 31 bf 17 ba 2f 63 cd b9 7b 98 b6 39
       0.0010084689 -0.00057886826 -0.00039174545 0.00034827352
0000c0 85 4f 75 3a 45 a0 04 bb aa f2 86 ba 3a fc d7 b9
       0.00093578576 -0.002023713 -0.0010295708 -0.0004119592
0000d0 38 6a ef ba 49 36 0b ba 02 a3 10 39 1f a2 5c 3a
       -0.0018265909 -0.00053105183 0.00013793635 0.0008416492
0000e0 fa 3e 7d ba 54 91 f8 ba 92 28 50 3a f9 02 27 ba
       -0.00096605683 -0.001896421 0.0007940616 -0.00063709874
0000f0 95 13 3b ba f6 b7 a0 ba 62 90 08 3a 45 21 2c ba
       -0.0007136402 -0.0012261856 0.0005209503 -0.0006566237
000100 ae 56 d5 3a 8e 7b 82 39 c3 c6 1b 3a b7 4a 81 ba
       0.0016276443 0.00024887588 0.00059423986 -0.0009864186
000110 49 47 df 3a 39 ec a3 3a 7f a2 f8 b9 3f b0 be ba
       0.0017034794 0.0012506313 -0.00047423315 -0.0014548375
000120 d3 87 c1 3a b8 49 db b9 2c 93 7f 38 8e ab 9a ba
       0.001476521 -0.0004182586 6.0933802e-05 -0.0011800395
000130 e6 62 20 3a 42 42 09 3b 60 d4 b1 3a f7 4f 90 b9
       0.00061182526 0.0020944034 0.0013567321 -0.000275254
000140 a1 6e 16 3a e4 ed 14 3b 32 60 03 bb 8a c5 9a ba
       0.0005738531 0.0022724802 -0.002004635 -0.0011808139
000150 02 2e 9f 38 0f 5d a9 39 ab 0a 0b bb c4 84 e7 b9
       7.5902804e-05 0.00032303526 -0.0021216075 -0.00044158672
000160 30 a4 c1 ba 65 d0 a7 3a 11 02 e5 b9 c8 f7 3c 39
       -0.0014773663 0.0012803195 -0.00043679823 0.00018021383
000170 ce 09 7e 3a 92 1e 24 ba 51 17 3a b9 30 15 ab 3a
       0.0009690792 -0.0006260659 -0.00017747028 0.0013052579
000180 c4 cf aa ba f8 1e 19 3a 99 0b 90 3a 61 11 a0 39
       -0.001303189 0.00058411015 0.0010989784 0.00030530526
000190 e0 ce a6 ba 7d 8f e0 39 6d 6a e6 39 b6 0b bd 3a
       -0.0012726448 0.00042831516 0.00043948312 0.0014423046
0001a0 ac bd 84 39 07 4b 8c 39 73 29 98 ba ad 2b 90 b9
       0.00025318319 0.0002675878 -0.0011609033 -0.0002749836
0001b0 8f 7f 84 ba af 96 e0 b8 97 f5 4e 3a ce 63 67 ba
       -0.0010108816 -0.00010709219 0.0007894872 -0.0008826823
0001c0 f8 93 4a ba 94 c5 e8 b9 7e 96 26 bb ec 8a ee ba
       -0.00077277375 -0.00044397695 -0.002541929 -0.0018199361
0001d0 2a f6 c1 b8 0b 5d 47 ba 7a 95 b6 3a dc 4b 13 3a
       -9.248809e-05 -0.0007605112 0.0013930046 0.0005618909
0001e0 66 03 6b ba ca d6 03 bb d4 32 67 37 69 e3 41 3a
       -0.0008965045 -0.0020117038 1.3780507e-05 0.00073962525
0001f0 7f bc bb b9 d7 b8 7c 3a 07 01 8e ba e1 d4 65 b9
       -0.0003580786 0.00096405804 -0.0010834046 -0.00021918445

network_body._body_endoder.seq_layers.2.weight f4 [128, 128]
000000 08 dd d7 3d d7 a5 93 bd ca ff 05 3d 3d fc d2 3d
       0.10540205 -0.07209366 0.032714643 0.10302017
000010 1a 09 af 3c 78 a6 3d 3e f2 f7 7e 3c 3b 87 71 3d
       0.021366645 0.18520534 0.015562044 0.058966856
000020 ec ff 93 3d ef 8d 76 bd 4a 9b 16 3d af c9 96 3d
       0.072265476 -0.060193952 0.03676919 0.07362687
000030 97 24 57 bc 9f a8 87 3d 65 8a c2 3c e0 b6 d1 3d
       -0.013131282 0.06623959 0.023747632 0.10239959
000040 69 b1 55 3c 8f c2 02 3d fb d2 86 3d cf 1c 08 be
       0.013042786 0.031923827 0.0658321 -0.1329224
000050 ef ff c9 bd 95 09 12 3d ce 5c 09 bd 53 5a b8 bc
       -0.098632686 0.03565367 -0.03353577 -0.022504007
000060 00 14 2a 3d 7c 9f 58 3d 4a 0e 48 3d 0f dd d4 3d
       0.04152298 0.05288647 0.048841752 0.10393726
000070 7d 3f da 3d 77 80 a2 3d 30 d4 f8 3c 60 7e 49 3b
       0.10656641 0.07934659 0.030374616 0.0030745491
000080 10 1a 85 bd c1 8e ad bc 64 40 91 bd f8 af ca 3d
       -0.06499112 -0.021186234 -0.0709236 0.098968446
000090 cf 84 21 be 4d 77 8b 3d 90 21 ba 3c 97 0c 95 3d
       -0.15773319 0.06809864 0.022721082 0.07277792
0000a0 66 99 15 3d e8 3a 6d 3c 2e 1a 8b 3c a0 10 0a bd
       0.036523245 0.014479376 0.016980257 -0.03370726
0000b0 c2 7d 0e 3c c3 47 1d bc c7 65 f7 bc e3 13 20 3d
       0.008696975 -0.009599629 -0.030199898 0.039081465
0000c0 3a 3f 1f 3e e5 c8 81 3d 44 29 7b bc 03 6d 3a 3b
       0.15551463 0.06337146 -0.015329663 0.0028446324
0000d0 4d 9f bd 3d e2 5d 38 bd 8e ea c0 3c ad b3 08 3b
       0.092589 -0.04501141 0.023549344 0.0020859048
0000e0 1a 9c 16 bd f7 d8 03 3e 83 a1 0a 3d 57 c9 dc 3c
       -0.036769964 0.12875734 0.033845436 0.026951475
0000f0 10 ec 8a 3e df fe a0 ba 17 4e 1a bd 4c 39 0c 3e
       0.27133226 -0.0012282989 -0.03767213 0.13693732
000100 9e 1c 7c bd bf 11 bc bd 46 dd e9 bc 7b ec 33 be
       -0.06155073 -0.09183072 -0.028547894 -0.17570679
000110 c0 bb 36 3d 15 d4 59 3c 99 9b 9e 3d 94 8f b9 bd
       0.044612646 0.013295193 0.07744522 -0.090605885
000120 a0 aa 8e bd 7c 50 40 bd 24 0e 81 3d 59 15 fa 3c
       -0.06966138 -0.046951756 0.06301525 0.030527757
000130 a4 bc 81 bc d8 27 af 3c d1 02 e8 3c 34 c6 48 bd
       -0.015837021 0.021381304 0.028321655 -0.049017146
000140 9b 33 6e 3d de 29 0d bd bc 48 6a be 37 4f c1 bd
       0.058154684 -0.034463756 -0.22879308 -0.09438937
000150 ff 86 5f 3d 34 46 82 3d 19 8c 13 bd 65 c7 1f 3e
       0.0545721 0.063610464 -0.03602228 0.15603407
000160 2c 5f d1 3d 45 9f 90 bd e2 28 32 bc d2 b4 d4 3c
       0.10223231 -0.07061628 -0.010874005 0.025965128
000170 59 d1 48 be 33 85 44 3d 6e 91 72 3c a3 97 ff 3c
       -0.1961111 0.04797859 0.014805181 0.031200236
000180 a6 b7 c1 3c 54 df bf bb b0 75 be 3c cd 03 35 be
       0.02364714 -0.00585548 0.023249477 -0.17677231
000190 31 01 5a be 1b 97 76 bd c3 40 2d bd c3 e5 f0 bd
       -0.21289517 -0.0602027 -0.04229809 -0.117625736
0001a0 cb e5 a2 3d b8 7d b1 3a 10 01 e9 bd 75 2c f9 3d
       0.07953986 0.0013541495 -0.11377156 0.12166683
0001b0 74 12 5b bd 4a 4e bb 3d c0 ed c5 bd a5 14 9d bd
       -0.053484395 0.09145792 -0.09664488 -0.07669953
0001c0 f9 96 b9 bd b8 c7 a1 3b 1b 31 7f bc 5d 42 19 3c
       -0.09061999 0.0049371384 -0.0155756725 0.009354201
0001d0 bd bc 01 3e ca 0d 61 3e 27 85 8c bc 89 d9 6d bb
       0.12669654 0.21977916 -0.017153336 -0.003629299
0001e0 1d 5a 66 bd 7d ea 2e 3d d7 93 17 be 4e 57 05 bc
       -0.056238282 0.042704094 -0.1480249 -0.008138491
0001f0 df f8 30 3d 9f 92 36 3d ef 3e 0a be 98 d3 34 bd
       0.043206092 0.044573423 -0.1350057 -0.044147104
000200 fe a7 ab bd 90 1f 9b 3d 7c bd a9 3d c3 c7 c6 bd
       -0.08381651 0.075743794 0.082880944 -0.0970607
000210 f3 a5 a9 bc 31 0d c6 3d 7f a0 2b bd 55 df a0 bd
       -0.020709014 0.09670485 -0.041901108 -0.07855097
000220 43 96 ed bc 59 a2 09 3e 9b f0 a1 bc da e1 c7 3d
       -0.029002314 0.13440837 -0.01976805 0.09759875
000230 1e cd d0 bd 22 e6 ef 3d 3e 84 29 3d ae b7 f9 3c
       -0.10195373 0.11713816 0.04138588 0.030483093
000240 b5 fe ed 3c 8a c5 4e 3c c1 1a a4 3d 31 26 fd 3d
       0.029052118 0.012620339 0.080129154 0.123608
000250 f9 35 bb bc f2 be 3d bd 69 b2 71 bc f0 0a 35 3c
       -0.022852885 -0.046324678 -0.014752009 0.011049971
000260 56 90 cb bc 99 d8 13 3e 93 d3 60 3d b3 7d 9e 3d
       -0.024849098 0.14438094 0.054889273 0.07738819
000270 9a 3c 05 be 92 a5 2c 3b e2 dd 8a bd 5c fb 2a 3e
       -0.13011399 0.0026343805 -0.06780602 0.16697448
000280 72 67 1e b9 7e b9 fa 3b d7 40 82 3c 87 e4 c3 3d
       -0.0001510659 0.007651507 0.015900059 0.095650725
000290 bf 52 d2 bd 94 72 00 be ef b3 23 bd 84 41 21 3c
       -0.10269689 -0.12543708 -0.03996652 0.00984228
0002a0 76 b4 16 3e 08 d3 d0 3d 52 e9 d3 3b f9 c5 53 bd
       0.14717278 0.10196501 0.006467023 -0.051702473
0002b0 2e 41 50 bd fb ac 5b 3d 06 7d 93 bd 0c 14 1f bd
       -0.05084341 0.053631764 -0.07201581 -0.038837478
0002c0 56 0d b0 3c b0 11 10 be e2 c1 3f bd d1 49 92 bd
       0.021490734 -0.14069247 -0.04681576 -0.071429856
0002d0 fb 5e a4 bc 60 7b a1 3d 5f 52 b2 3d 64 30 f8 3d
       -0.020064821 0.0788486 0.08707117 0.12118605
0002e0 9a 7e 6b bd 4e 65 e9 bd c8 c5 2b 3d f8 41 ab bc
       -0.057493784 -0.113962755 0.041936666 -0.02090548
0002f0 07 91 26 bd 91 cc 81 3d 7e ec bd bd 0c 47 8e bd
       -0.040665653 0.06337846 -0.09273623 -0.06947145
000300 7e b5 41 bc fe 44 3c bc 22 e2 7e 3b 7f 53 be bd
       -0.011823056 -0.011491058 0.003889211 -0.09293269
000310 8a fb 16 bd e0 1a b2 bd ff aa 29 be 02 a6 31 3e
       -0.03686098 -0.08696532 -0.16569136 0.17348483
000320 97 9f 8b bd 63 47 24 3e 21 e0 06 bd f2 4c bd bc
       -0.06817549 0.16042857 -0.03292859 -0.02310798
000330 8a 2f 16 bd 70 2b db bc 6a 59 12 bd c8 05 34 3d
       -0.03666643 -0.026754111 -0.035729803 0.043950826
000340 92 24 85 3d f8 53 d2 bd 93 11 53 3e 69 31 12 be
       0.06501116 -0.10269922 0.20612173 -0.14276661
000350 89 a4 00 be 57 a2 3a bd d4 fc 80 bc 7d dc 3a be
       -0.12562765 -0.045564976 -0.015745558 -0.18248172
000360 bc 89 b5 3b 3a 50 33 3d 7e 15 14 be 87 ca 33 bd
       0.005540101 0.043777682 -0.14461324 -0.043894317
000370 36 a4 4d bd f4 dc 24 3d e7 92 01 3e e9 49 e8 3d
       -0.050205432 0.04024978 0.12653695 0.11342222
000380 62 f9 14 bc b9 5c 7e 3d 68 80 a1 bd 9b 8d 37 be
       -0.009092661 0.062100146 -0.0788582 -0.17925112
000390 d0 ed 55 3e ce 4a c5 3b 71 bf 07 be 94 55 65 3d
       0.208915 0.0060208803 -0.13256623 0.055989817
0003a0 21 1e 17 bc 28 ae 31 3e f7 20 d7 3d 11 9f 9b bd
       -0.009223492 0.17351592 0.105043344 -0.07598699
0003b0 2d e0 f8 bc 57 9a ee 3d 22 b2 5e bd 41 2a 18 be
       -0.030380333 0.11650532 -0.0543691 -0.14859869
0003c0 f6 94 09 be 5d ba ba 3c 2e da 77 bd dd ae 2d bd
       -0.1343573 0.022793943 -0.060510807 -0.04240309
0003d0 58 18 9a bd b5 74 69 bc 52 a6 2c 3d 99 3f 6c bb
       -0.075241745 -0.0142490165 0.042150803 -0.003604865
0003e0 be 7a ce 3b e2 fc 45 be 5c cb af bc f0 bc 1f be
       0.006301253 -0.19334748 -0.021459274 -0.15599418
0003f0 0c 75 50 be 79 92 ee bc cd a2 c6 bd 1c d5 e0 bd
       -0.2035715 -0.029122578 -0.096990205 -0.109781474

network_body._body_endoder.seq_layers.2.bias f4 [128]
000000 73 16 8e ba 4e 53 00 bb fa a6 9b 3a 7c 3a 88 39
       -0.0010840431 -0.0019580903 0.0011875324 0.00025983516
000010 7c b1 82 b9 c9 78 1f ba 9b 6c e5 b9 e3 e3 4c ba
       -0.00024927768 -0.0006083367 -0.000437592 -0.000781594
000020 21 f7 4f b9 9e 25 a4 b8 a8 81 34 3a cd cd a3 39
       -0.00019833121 -7.827136e-05 0.00068857754 0.00031243116
000030 c3 00 23 3a 7a 15 ba 38 c4 e2 56 b9 a0 0a cb 3a
       0.000621807 8.8731715e-05 -0.00020493107 0.0015490837
000040 60 d1 e3 ba 69 3a a8 ba 03 c0 7f ba 98 84 f9 b9
       -0.0017381124 -0.001283479 -0.000975609 -0.0004759177
000050 b7 db cc b9 59 86 69 ba c0 67 7d ba 2b a8 f1 b9
       -0.00039073612 -0.0008908264 -0.0009666644 -0.00046092397
000060 72 f8 8e 39 00 89 76 bb 42 de 66 39 f0 7d 38 3b
       0.00027269457 -0.003761828 0.00022017307 0.0028151236
000070 54 f2 39 3a f4 b9 8a 39 3c 47 c8 b9 3a d4 45 39
       0.00070932996 0.00026459957 -0.00038200046 0.00018866445
000080 44 99 ff 39 f4 cc 9f b9 b0 c5 20 b9 82 e8 3f b7
       0.00048751582 -0.00030479545 -0.00015332433 -1.1438622e-05
000090 c4 56 31 3a ac a0 14 ba ad e0 f7 39 aa 08 a3 b9
       0.0006764943 -0.0005669694 0.00047278908 -0.00031096238
0000a0 8b 8d 8a b9 0d d2 8d 38 51 1a 4c b9 ba 56 3f 39
       -0.0002642687 6.762529e-05 -0.0001946476 0.00018247488
0000b0 a9 43 72 39 45 13 f8 b9 b0 c2 e5 b8 22 89 67 3a
       0.00023104124 -0.00047316603 -0.00010955834 0.0008832385
0000c0 f7 c4 05 ba e2 04 b9 38 52 1d 1d bb db 9c 7e ba
       -0.00051028974 8.822397e-05 -0.0023973775 -0.00097127043
0000d0 21 3c 7f 39 32 f0 08 ba a2 00 a3 39 06 3a 0f bb
       0.00024341095 -0.000522378 0.00031090254 -0.0021854653
0000e0 0d 8c 77 b9 01 8b f0 3a 92 e0 0b bb 9f 8a 01 3b
       -0.00023607929 0.0018351973 -0.002134357 0.0019766463
0000f0 27 05 92 3a e9 cf 41 bb 42 2c c6 b9 20 d3 3b ba
       0.0011140452 -0.0029573387 -0.00037798478 -0.0007164944
000100 78 e6 bc b9 b5 70 02 ba 2e ae af ba 69 d4 d0 b9
       -0.00036029867 -0.0004975901 -0.001340335 -0.0003983111
000110 7a cd 3c ba ee 66 f3 b9 68 49 f4 ba e3 4c 5e 3a
       -0.0007202249 -0.0004642526 -0.00186376 0.0008480085
000120 f0 af ed 3a 13 6e ce 3a d7 18 7b b9 86 81 fe b9
       0.0018134099 0.0015749357 -0.00023946479 -0.00048543158
000130 5f 0f 35 39 0d 42 34 3b 48 1a 0f b9 34 de 99 b7
       0.00017267231 0.002750519 -0.00013647333 -1.8342493e-05
000140 d2 c3 13 bb c1 da 51 ba ce 49 3e b9 ed 53 f8 b9
       -0.0022547138 -0.0008005314 -0.00018147306 -0.00047364776
000150 b2 9b 12 ba 9a 6e d1 b9 9a aa 54 3a 0c 15 d2 ba
       -0.00055926584 -0.0003994599 0.000811258 -0.0016028001
000160 9e ea 08 ba cd 72 a7 39 56 a4 89 3a 6c 2a b8 3a
       -0.0005222949 0.00031938255 0.0010501246 0.0014050729
000170 c2 57 d6 b8 38 51 fc b9 9a 00 72 b9 05 4b 91 b9
       -0.00010220661 -0.00048125698 -0.00023079143 -0.0002771245
000180 85 49 91 39 d3 ea d6 b9 a2 f6 4f 37 8c cd 0f ba
       0.00027711331 -0.00040992218 1.2395585e-05 -0.0005485646
000190 25 d7 fd b9 86 22 9f ba 31 5b fb ba 4b 8c ac 3a
       -0.00048416216 -0.0012141026 -0.0019176957 0.0013164369
0001a0 bb 48 59 39 3b 68 c9 b9 61 4b 48 39 f1 30 3a bb
       0.00020721827 -0.00038415365 0.00019101567 -0.002841052
0001b0 29 69 7b 3b c0 48 d4 ba 9c 9c 9d b9 76 ff 2e 3a
       0.003836224 -0.0016195998 -0.00030062057 0.000667564
0001c0 6f 60 0f bb 71 e0 65 39 05 f1 31 ba 7e c4 84 b7
       -0.0021877547 0.00021922753 -0.0006787929 -1.5827125e-05
0001d0 73 2a d4 b9 0f 6a 18 ba 02 41 89 39 0c 4a fe b8
       -0.00040467418 -0.0005814144 0.0002617911 -0.00012125456
0001e0 86 8f e3 b9 e9 f6 cc b9 99 df 97 ba 2b 49 2a ba
       -0.00043403747 -0.00039093875 -0.0011587023 -0.0006495888
0001f0 6d 25 9d ba 9d 0a 20 bb e9 96 a2 3a 18 35 36 b9
       -0.0011989303 -0.0024420389 0.0012404594 -0.00017376652

action_model._continuous_distribution.log_sigma f4 [1, 2]
000000 80 50 76 b9 c3 20 b7 3a
       -0.00023490377 0.0013971556

action_model._continuous_distribution.mu.weight f4 [2, 128]
000000 6a c8 9b bc 14 a3 01 3c 94 bd 68 3b 45 bb a1 3c
       -0.019016463 0.007912416 0.0035513388 0.019742617
000010 e3 c3 db bb 62 5f 4a 3c 2e 96 be bc e9 c3 6c bb
       -0.006706701 0.012351843 -0.02326497 -0.0036127514
000020 81 b1 c1 bc 8f e9 a7 b9 06 ba 45 bc f4 d7 56 3c
       -0.02364421 -0.00032026737 -0.012068277 0.013113011
000030 f5 f3 f2 3b da 89 d1 3b c8 04 7a bb da 13 48 3c
       0.007414336 0.006394607 -0.0038149823 0.012211764
000040 36 51 81 3b 6c fb 8e bc 18 65 01 bc c1 cd 8e bc
       0.0039464487 -0.017453872 -0.007897638 -0.017432095
000050 4f 90 f4 bc 69 66 99 bc 09 61 80 3c e2 1b 2a bc
       -0.029853968 -0.01872559 0.01567127 -0.010382624
000060 f4 45 8a 3c c9 ec 7f bc 81 d3 7c 3c 70 a0 56 3c
       0.01687906 -0.015620419 0.015431286 0.013099775
000070 d2 3f a1 bc 7c 84 0e 3c a7 b9 0e bd e0 55 06 bc
       -0.019683752 0.008698579 -0.03484502 -0.008199185
000080 69 8e 61 bc 38 54 cc bb b4 19 dc bc 1b cb e0 3b
       -0.013766863 -0.0062356256 -0.026867725 0.0068601496
000090 ce 8f 50 3b 76 d6 ac bc 34 74 81 3b 21 41 a4 3b
       0.0031823996 -0.021098357 0.00395062 0.005012647
0000a0 31 6e 8a bc 03 31 15 3d 50 5d d2 bc de 76 89 bb
       -0.016898246 0.036423694 -0.02567926 -0.0041950783
0000b0 96 5b 8d 3c 94 2f 8d bc bc 65 83 bb e1 56 26 3c
       0.017255586 -0.017234601 -0.0040099304 0.0101525495
0000c0 09 56 11 bc be 52 9e 3c 62 1a 48 3d 6a 57 15 3b
       -0.00887061 0.019326564 0.048853286 0.0022787699
0000d0 98 c5 36 bc 31 ca e9 3b da 18 cd bc 2e 33 0f 3c
       -0.011155508 0.007134699 -0.025036264 0.0087402295
0000e0 32 ce 75 3c 9c 7a 9a 3c 85 38 43 bc 8a ec f6 ba
       0.015002774 0.018857293 -0.011915331 -0.0018838805
0000f0 de 86 ca 3c 81 50 9c bc 62 3d ae bc 32 c5 1c bc
       0.024722513 -0.019081356 -0.021269504 -0.009568499
000100 bf 09 d6 bc 62 50 a8 3c 5e 37 12 3b f9 8a 33 3c
       -0.026127694 0.020546142 0.0022310833 0.010958427
000110 5f bf 5f 3c fe cb b2 bc 39 d8 53 ba 50 d2 90 bc
       0.013656466 -0.021825787 -0.0008081231 -0.01767841
000120 2a ff b9 bb 92 9c 5c 3d de f5 8e 3b 9e 55 6a bc
       -0.00567617 0.053860255 0.0043628057 -0.014302639
000130 54 3f b4 3c ad d6 74 ba f4 2b 8e 3b 1a fc 85 3c
       0.022002853 -0.00093398505 0.0043387357 0.016355563
000140 2e cc d2 3a c8 82 80 bc a0 b1 33 3c f6 5e 8a bc
       0.0016082579 -0.015687361 0.010967642 -0.016890984
000150 07 5c f9 3b 2b f4 25 bd c1 30 25 bc 0d 83 f5 3c
       0.0076098475 -0.04051606 -0.010082425 0.029969716
000160 88 68 2e bc 9e 49 a2 bc 7c 18 51 3c 92 83 20 bc
       -0.010645039 -0.019810494 0.012762185 -0.009796994
000170 8d fd bc bc b3 b0 70 3c d5 68 7c bc 58 da b9 bc
       -0.023070121 0.014690566 -0.015405853 -0.022687122
000180 d0 57 4e 3d 69 d6 cf 3b 14 4e c4 3b 1f f5 ef bb
       0.050376713 0.0063426984 0.005990753 -0.007322922
000190 94 54 1d 3d d0 92 d6 3b e9 eb a9 ba 6d 93 23 3c
       0.038410738 0.006548263 -0.0012963983 0.0099838795
0001a0 9e 84 f3 3a 95 d6 0f 3a 8b 2d eb 3b 2d 69 c0 3a
       0.0018578952 0.00054869923 0.00717706 0.0014679782
0001b0 f9 7c b6 3c 45 5d 1b ba 90 e0 07 bd 08 64 a4 bc
       0.022276388 -0.0005926679 -0.033173144 -0.02006723
0001c0 d8 ea a3 bc ce c9 39 bd e1 96 62 3c 9a 54 60 bc
       -0.020009443 -0.04535847 0.013829918 -0.013692046
0001d0 58 ad ad bc fe 27 04 bc b9 63 4b 3d 2f 17 1f 3d
       -0.02120082 -0.0080661755 0.04965565 0.03884047
0001e0 25 e4 57 bc 8b 4c 35 bd 6a 8f e2 bb 37 8c c2 bb
       -0.0131769525 -0.04426245 -0.006914069 -0.005937125
0001f0 0b 77 4c 3b 37 21 af bc 7e 1a e9 39 39 d7 9b ba
       0.0031198885 -0.021378143 0.0004446096 -0.0011889703
000200 6e 12 a4 3c 68 87 87 3c 43 83 6b bb dc f9 51 3c
       0.02002832 0.016544059 -0.0035936392 0.012815919
000210 b4 20 de 3b 92 1d 26 3c 48 06 c8 3c 03 35 56 bc
       0.006778801 0.010138886 0.024417058 -0.013074162
000220 57 44 db bc 2f 14 77 bc af a2 8f 3c 8a 92 2e 3c
       -0.026765985 -0.015080496 0.017533628 0.010655055
000230 01 11 bb bb 3e b2 c3 3b ff 44 f8 3c d6 5a 18 3d
       -0.005708814 0.005972176 0.030306337 0.037196003
000240 0a eb 00 bc f1 06 a2 3c cf 29 7a b9 28 91 d3 ba
       -0.007868538 0.0197787 -0.00023857433 -0.0016141282
000250 b3 91 87 bb 2f 16 98 3b 38 48 dc ba 06 16 21 bc
       -0.0041372417 0.0046413164 -0.0016806191 -0.009831911
000260 b8 4a 42 3c 9b 31 c8 bc 0f e2 67 3c 07 2a 3a bc
       0.011858635 -0.024437716 0.014153018 -0.011362559
000270 f7 d4 91 bc 9c e3 39 bc 8e c9 3f 3b 53 5e 6c bc
       -0.017801745 -0.01134577 0.0029264423 -0.0144267855
000280 d8 d6 c8 3c 71 a4 0c 3b 66 2d cd bb 86 8c 58 3c
       0.024516508 0.002146032 -0.0062615154 0.013217097
000290 0b db bc 3b 68 52 0b bc d5 34 14 3d 31 c8 68 3c
       0.0057634166 -0.008503534 0.036183197 0.014207886
0002a0 d3 d8 20 3c a5 81 e7 3c 29 88 48 bb f1 69 94 3b
       0.00981732 0.028260062 -0.0030598736 0.0045292308
0002b0 cb d3 72 bc 63 01 61 39 4d 5b d3 bc 8f 94 0e bc
       -0.014821003 0.00021458189 -0.025800372 -0.008702411
0002c0 ba 94 27 bb d6 77 19 3c c3 90 8c 3c 86 4e 34 bb
       -0.0025570826 0.00936695 0.017158872 -0.0027512624
0002d0 46 14 32 bc 8b 90 18 3d 37 43 18 3b 06 a3 78 3c
       -0.010869091 0.037247222 0.0023233423 0.015175587
0002e0 20 81 a5 3b 04 b8 89 bc 53 56 9a 3c fd 84 ef 3c
       0.0050507933 -0.016811378 0.01883999 0.029238218
0002f0 72 14 28 bc 85 9d 0c 3c 51 2e da 3c cd 98 ba b9
       -0.010258781 0.008582477 0.026633414 -0.0003559053
000300 57 77 ac bc e7 23 02 3c 69 79 cf bc e7 6a a3 bb
       -0.021053 0.00794313 -0.025326448 -0.004987109
000310 33 dd 74 3b 8f 43 67 3c 55 35 c5 bc 8e 69 15 3c
       0.003736329 0.014115228 -0.024073282 0.0091194045
000320 a4 56 a6 3c 24 de 50 bd b8 c4 38 3c cd 05 89 3c
       0.020304985 -0.0509931 0.01127737 0.016726399
000330 df 32 1e bc 57 4e a5 bc af 14 9a bc c4 83 17 3d
       -0.009655683 -0.020178957 -0.01880869 0.036990896
000340 09 f0 02 bc 8d 20 5c 3c ee a0 d3 ba fc f2 a0 3c
       -0.007991799 0.013435495 -0.0016145983 0.019647114
000350 76 c9 11 bc 0c 60 1e 3c 9c fd b9 3b f6 b6 67 bc
       -0.00889813 0.009666454 0.0056759845 -0.014142742
000360 9d 41 2c 3b c1 4d 4d bb da 77 e3 3c 22 e8 22 3c
       0.0026284226 -0.0031326863 0.02776711 0.00994304
000370 4f 5d 87 bc d3 db f6 3b ae e8 0a bd da 52 7e 3b
       -0.016523985 0.0075335293 -0.033913307 0.0038806708
000380 a4 8b 0a bc 71 4a 4a bb d7 6f ce 3b 3b c0 d1 38
       -0.0084561445 -0.0030867124 0.0062999534 0.00010001702
000390 88 46 9a bc 17 a8 1f bc 2e 39 a8 3b 9a 71 44 3c
       -0.01883246 -0.009744666 0.0051337695 0.011989975
0003a0 94 66 28 3c 1a d0 af 3c 3c e8 3c bc 31 41 35 3c
       0.010278363 0.021461535 -0.011529978 0.011062906
0003b0 d0 13 c6 3c d5 86 f3 3c 7a fd b3 3b 86 cd 4a 3b
       0.02417937 0.029727379 0.0054928632 0.0030945255
0003c0 bb 21 ad ba 22 86 aa ba ab 26 61 bc 18 48 35 bc
       -0.0013208905 -0.0013009945 -0.013742129 -0.011064552
0003d0 cd 69 23 bc 1f a1 7c ba 47 32 7f 3c 42 41 02 bd
       -0.009973955 -0.0009637046 0.015575952 -0.031800516
0003e0 f9 ff 62 bb 08 3f 58 3c f9 56 2b bc 6c 4d 65 3c
       -0.0034637435 0.013198622 -0.010457748 0.01399551
0003f0 6d 1f 5e 3c ad c2 11 3c 5c 21 17 3c 46 0e 52 3b
       0.013557297 0.008896512 0.009224262 0.0032051965

action_model._continuous_distribution.mu.bias f4 [2]
000000 95 bf b5 39 37 e2 68 b9
       0.0003466575 -0.00022209516

exp_avg f4 [128, 6]
000000 e8 16 88 b8 de 9f a2 36 24 b4 00 39 82 7c 8f 38
       -6.489252e-05 4.846587e-06 0.00012274139 6.841963e-05
000010 07 02 39 b6 9f cb 2d 36 cc 66 fa b2 04 08 df b4
       -2.7568328e-06 2.5897532e-06 -2.9150577e-08 -4.154282e-07
000020 54 de 60 34 4b c1 db b6 72 ac 8d 34 5a 16 85 b4
       2.0942508e-07 -6.549211e-06 2.6388767e-07 -2.4789443e-07
000030 7c 99 4c b9 32 34 34 37 d6 6f 46 39 fc d9 37 39
       -0.00019512133 1.0740989e-05 0.00018924414 0.00017533445
000040 e4 0d ed b6 f0 af de 36 08 c5 f6 36 58 29 ac b7
       -7.0647675e-06 6.6365974e-06 7.3543088e-06 -2.052325e-05
000050 d4 65 27 38 e0 eb 6e b9 aa 07 1a 37 e0 b1 10 b7
       3.9910738e-05 -0.00022785319 9.1809e-06 -8.624484e-06
000060 60 67 42 b6 d8 ff 01 b6 f0 4a 04 38 3c 6d 93 b7
       -2.8968425e-06 -1.9371419e-06 3.1541043e-05 -1.7574632e-05
000070 c4 16 3e 35 6c 91 32 b5 fc 13 16 b8 d4 99 88 37
       7.0813644e-07 -6.6521784e-07 -3.57814e-05 1.6284095e-05
000080 32 e1 07 b8 10 b8 4b 39 d7 55 03 b7 40 c0 f6 36
       -3.2396238e-05 0.00019428157 -7.828195e-06 7.353752e-06
000090 c1 62 9a 38 c4 ea 56 37 81 26 06 b9 61 f3 54 39
       7.3616866e-05 1.2810055e-05 -0.0001279358 0.00020308561
0000a0 75 49 09 b7 71 f7 00 37 5c 27 ef 37 bc 09 4f b6
       -8.182939e-06 7.6870065e-06 2.8509348e-05 -3.085107e-06
0000b0 00 18 43 34 14 a3 09 b8 6c 77 b1 35 e0 b5 a6 b5
       1.8169521e-07 -3.2815224e-05 1.3222284e-06 -1.2420896e-06
0000c0 de 46 f9 b8 c5 15 97 b7 a9 33 4b 39 4e 0b 3e b9
       -0.00011886445 -1.801074e-05 0.00019378834 -0.00018124023
0000d0 eb 09 f5 36 1a 30 e6 b6 32 08 37 b9 eb 53 9d b7
       7.3027236e-06 -6.860134e-06 -0.00017455293 -1.8754936e-05
0000e0 a5 c0 41 39 1c 7d cd b9 ec 79 84 37 10 e5 78 b7
       0.0001847768 -0.0003919386 1.57924e-05 -1.4835285e-05
0000f0 36 d4 07 33 f2 86 8b b2 4d 0a 7b b3 7c 77 bb b4
       3.162514e-08 -1.6243096e-08 -5.844986e-08 -3.49184e-07
000100 23 b7 71 32 e5 10 63 b2 a7 78 dc b8 14 ce 29 b7
       1.4069687e-08 -1.321698e-08 -0.00010512891 -1.0121166e-05
000110 58 5b 1a 39 30 56 27 b9 9c c2 d7 36 0d af ca b6
       0.00014720613 -0.00015958468 6.430155e-06 -6.0404477e-06
000120 ca 92 0d b9 c2 ce 1d b7 a8 f3 31 39 42 31 1f b9
       -0.00013501491 -9.406069e-06 0.00016970804 -0.00015181772
000130 52 42 cd 36 b1 d1 c0 b6 c7 0f 9c b5 f8 86 0e b6
       6.117197e-06 -5.746457e-06 -1.1627498e-06 -2.123821e-06
000140 f3 f4 62 b6 22 9e 47 b8 f9 b0 00 36 9f c8 f1 b5
       -3.3819204e-06 -4.759257e-05 1.9176498e-06 -1.8014288e-06
000150 80 c1 2d 36 88 db 40 37 14 de b9 37 fa 64 80 39
       2.589164e-06 1.1495205e-05 2.2157132e-05 0.00024489296
000160 82 8c 25 b7 fe 83 1b 37 4a 54 13 b9 2c 06 6c b7
       -9.867481e-06 9.269452e-06 -0.00014050413 -1.4068133e-05
000170 cb 1b 15 39 ee 96 7f b9 97 c6 24 37 11 ca 1a b7
       0.00014220101 -0.00024374921 9.8213995e-06 -9.226163e-06
000180 85 05 ce 36 00 fd 20 34 f7 ce ed b6 58 6c 94 b5
       6.139921e-06 1.4993202e-07 -7.0872443e-06 -1.1058391e-06
000190 b8 5f 3f 33 38 c6 33 b3 3b 90 89 38 52 8a 01 b7
       4.455771e-08 -4.1856964e-08 6.559534e-05 -7.721204e-06
0001a0 22 b3 b1 b8 a6 60 44 b9 66 34 fd 36 e4 db ed b6
       -8.473384e-05 -0.00018728021 7.5460875e-06 -7.088749e-06
0001b0 a2 42 e1 38 9a bb 5b 37 33 15 0f b9 b4 0a 6a 39
       0.000107412474 1.3097097e-05 -0.0001364544 0.00022319966
0001c0 56 e2 16 b7 57 bd 0d 37 bf 6a 2c b9 20 a8 ef b7
       -8.993395e-06 8.448339e-06 -0.00016442964 -2.856931e-05
0001d0 09 0a b1 39 e4 fd 9b b9 d0 21 49 37 4a f1 3c b7
       0.00033767548 -0.00029753067 1.1988406e-05 -1.1261853e-05
0001e0 18 14 d7 37 5c c5 a4 35 18 68 0c b8 34 c8 11 38
       2.5639354e-05 1.2276391e-06 -3.3475546e-05 3.4757148e-05
0001f0 d2 f7 bb b5 78 93 b0 35 d5 a4 9f b6 70 30 a9 33
       -1.4004711e-06 1.3155941e-06 -4.7577582e-06 7.8784865e-08
000200 0a f4 3f 36 6f c0 7c 37 3c f2 22 b5 17 12 19 35
       2.8603267e-06 1.5065175e-05 -6.07022e-07 5.7023266e-07
000210 30 18 5e b5 5c ae 73 b5 76 70 fd 34 d1 ca 9c b7
       -8.273664e-07 -9.077828e-07 4.7206748e-07 -1.8691093e-05
000220 16 2a 4a 35 77 e9 3d b5 79 08 cc 37 d6 6c 07 b6
       7.5312107e-07 -7.074772e-07 2.432264e-05 -2.0179918e-06
000230 06 85 c2 37 22 84 78 38 2c 37 20 b6 62 81 16 36
       2.3188546e-05 5.9250866e-05 -2.3873972e-06 2.2427052e-06
000240 a7 22 2d b7 a4 0b 5a 36 5a ac eb 36 c3 f5 2a 38
       -1.0319672e-05 3.2491307e-06 7.02361e-06 4.0760042e-05
000250 91 6e dc b5 8a 12 cf 35 88 f8 05 b9 2c 44 02 b7
       -1.6423456e-06 1.5428097e-06 -0.00012776454 -7.764476e-06
000260 74 c7 88 39 68 e9 b0 37 3c 1b 64 b5 4c 48 56 35
       0.00026088546 2.1089523e-05 -8.497625e-07 7.982642e-07
000270 ef be c6 36 6c b3 04 37 43 90 86 b7 20 88 bf 38
       5.9230874e-06 7.909588e-06 -1.6041222e-05 9.132945e-05
000280 e9 f4 76 b6 58 fd 67 36 92 5a d7 b4 a3 c0 99 34
       -3.6799413e-06 3.4569148e-06 -4.011277e-07 2.8638632e-07
000290 6f f6 d6 b5 86 31 8e b6 48 57 37 34 c4 3a 2c b4
       -1.6015964e-06 -4.237695e-06 1.7074956e-07 -1.6040127e-07
0002a0 94 cf 38 b9 eb 1d b9 b7 62 9c 47 39 91 7f cb b9
       -0.00017624936 -2.206765e-05 0.00019036376 -0.00038814222
0002b0 70 31 83 37 e2 7b 76 b7 e9 40 b3 38 6d fa 6b 37
       1.5639438e-05 -1.4691586e-05 8.5474756e-05 1.4065398e-05
0002c0 59 46 98 b9 2a 7b ad b8 d4 ae 5f 36 4c 20 52 b6
       -0.00029044112 -8.272224e-05 3.3331353e-06 -3.1311238e-06
0002d0 c9 c5 0f b9 46 0f 07 b7 bc e7 24 39 c0 0f 22 b9
       -0.00013711223 -8.050183e-06 0.00015726587 -0.00015455391
0002e0 5e f5 d0 36 5d 4b c4 b6 de b2 23 b7 76 ea 93 b5
       6.2274476e-06 -5.8500286e-06 -9.757203e-06 -1.1020591e-06
0002f0 c2 a1 53 37 92 97 a5 b7 b9 82 55 35 12 92 48 b5
       1.2614242e-05 -1.9740113e-05 7.953891e-07 -7.4718366e-07
000300 20 cb 25 35 46 86 33 b3 f0 a8 c8 b3 4f 3c 00 35
       6.1762876e-07 -4.1798806e-08 -9.343955e-08 4.7771476e-07
000310 c0 57 a5 b2 72 52 9b 32 5a 8d be b8 52 f1 97 b7
       -1.9248432e-08 1.8081867e-08 -9.086235e-05 -1.8112976e-05
000320 08 15 39 39 24 48 8a b9 29 4c 32 37 d9 7d 27 b7
       0.0001765081 -0.0002637516 1.0627359e-05 -9.983277e-06
000330 84 33 dd 38 57 cd 96 37 09 df 04 b9 88 59 ac 39
       0.00010547697 1.7977012e-05 -0.00012671588 0.00032873102
000340 4e 39 5e b7 79 c1 50 37 ef b7 09 b6 da 82 ac b3
       -1.3245573e-05 1.24428125e-05 -2.0521654e-06 -8.033176e-08
000350 fb fc fc 36 c9 f3 1e 37 13 f3 cc b4 37 87 c0 34
       7.539636e-06 9.4742945e-06 -3.817482e-07 3.586117e-07
000360 b4 8f d8 37 3f 0c fa 37 9c 0c 28 b9 83 86 ab 39
       2.5816124e-05 2.9808025e-05 -0.00016026426 0.0003271588
000370 3e 29 5d b7 de c1 4f 37 d6 df fe 34 90 4a 89 b5
       -1.3182229e-05 1.23833e-05 4.747405e-07 -1.0228996e-06
000380 62 e5 70 b6 a0 19 de b7 76 2f 8f 35 ea 81 86 b5
       -3.5896305e-06 -2.6476395e-05 1.0668143e-06 -1.0021588e-06
000390 5c f3 69 b8 2d de 93 b6 4e 18 a3 38 6a 80 a2 b8
       -5.5778175e-05 -4.406806e-06 7.776973e-05 -7.748681e-05
0003a0 a1 86 51 36 d1 d3 44 b6 2a fa dc b8 5c 02 b1 b7
       3.1221791e-06 -2.932957e-06 -0.00010537014 -2.1101143e-05
0003b0 da 80 88 38 52 a4 be b9 2a cf 75 37 74 e9 66 b7
       6.508986e-05 -0.00036362052 1.4651372e-05 -1.3763423e-05
0003c0 08 9a 8e b6 1b ca d5 b6 a0 ef 43 b6 74 51 ca b8
       -4.2498614e-06 -6.371423e-06 -2.9196744e-06 -9.6472824e-05
0003d0 a8 6e 82 36 fe 0d 75 b6 28 7d 4d 39 86 c6 01 38
       3.887184e-06 -3.651599e-06 0.00019596948 3.0940886e-05
0003e0 e5 25 ad b9 dc 77 d8 39 f9 8d 8b b7 c4 18 83 37
       -0.00033025365 0.00041288033 -1.6636202e-05 1.562795e-05
0003f0 93 b7 ab b6 c6 54 ac b6 43 ed cf 36 68 3f b1 b8
       -5.117568e-06 -5.1358684e-06 6.1967016e-06 -8.451828e-05

exp_avg_sq f4 [128, 6]
000000 d2 e0 53 34 2e 42 15 31 05 6c 95 34 98 ab 34 35
       1.9732695e-07 2.1719972e-09 2.7832007e-07 6.7304927e-07
000010 7d 2e 96 30 8b 87 84 30 3b 7a b1 29 15 78 4e 29
       1.0927149e-09 9.642788e-10 7.8815826e-14 4.5845343e-14
000020 b2 bf 17 2a 2b 90 a9 2d eb f2 0c 29 85 c3 f8 28
       1.3478002e-13 1.9277099e-11 3.1296942e-14 2.7618324e-14
000030 04 8a 34 34 1e b4 39 31 fe 2a 8b 34 9c fd 66 35
       1.6814016e-07 2.7023428e-09 2.5922049e-07 8.6050727e-07
000040 a4 02 c0 30 0f 71 a9 30 66 8f 95 30 dc f5 b0 2f
       1.3970589e-09 1.2328502e-09 1.0881933e-09 3.2188907e-10
000050 ec 01 e4 30 3e 01 f6 33 a7 7d 4c 2f 83 74 34 2f
       1.658973e-09 1.14554936e-07 1.8598333e-10 1.6412298e-10
000060 c1 2e b7 32 5e e8 8c 2f f8 a5 f5 32 ce 21 aa 33
       2.1325265e-08 2.5630958e-10 2.8597228e-08 7.922391e-08
000070 fd 6b 0d 2f 33 99 f9 2e dd d1 de 33 d0 e1 d4 30
       1.286224e-10 1.1350423e-10 1.03758545e-07 1.548921e-09
000080 44 0e 25 34 f7 58 02 35 b1 b3 58 30 23 3b 3f 30
       1.5372012e-07 4.8558235e-07 7.88357e-10 6.9569434e-10
000090 3d ff 4d 33 f2 b0 2f 30 dc 28 9a 33 ea ef 54 34
       4.796242e-08 6.3916084e-10 7.178616e-08 1.9831319e-07
0000a0 e1 00 b1 2f da 32 9c 2f ca 07 14 33 cc 6d f6 2f
       3.2196737e-10 2.8412367e-10 3.446602e-08 4.4825155e-10
0000b0 90 e3 5e 33 04 50 15 34 29 3b 78 2f e8 0d 5b 2f
       5.189537e-08 1.3905816e-07 2.2576487e-10 1.9922874e-10
0000c0 c0 af 97 33 96 e5 99 30 b2 56 d4 33 1c e0 bd 34
       7.063454e-08 1.1197467e-09 9.887789e-08 3.5367054e-07
0000d0 5b d5 1d 30 25 48 0b 30 d1 84 15 33 a6 4b b1 2f
       5.7419464e-10 5.067043e-10 3.481256e-08 3.2249864e-10
0000e0 1b 00 44 33 99 30 e2 33 09 05 3c 2f 84 eb 25 2f
       4.5634902e-08 1.0532785e-07 1.7100289e-10 1.5090335e-10
0000f0 36 19 0a 28 62 01 e5 25 bb 72 69 28 40 00 1d 2a
       7.666006e-15 3.9726105e-16 1.29589764e-14 1.3944488e-13
000100 ad 81 82 25 7d 55 66 25 40 1e 1a 33 74 55 fe 2f
       2.2639277e-16 1.9978285e-16 3.588343e-08 4.626305e-10
000110 c3 47 6f 33 26 0e 1a 34 d9 0e 80 2f 2a 03 62 2f
       5.571179e-08 1.4347515e-07 2.3293614e-10 2.0555704e-10
000120 5b e7 01 33 fd ea c4 2f 5e 5a 2f 33 ac 82 ee 33
       3.024557e-08 3.5819162e-10 4.082755e-08 1.1106508e-07
000130 d4 42 46 2f 2c f5 2e 2f f8 c5 6a 2e 8e 11 d0 2c
       1.8031737e-10 1.591231e-10 5.338127e-11 5.9136645e-12
000140 ed b0 9c 2e 4e 4c 14 31 6f 8b 76 2c e5 90 59 2c
       7.125487e-11 2.1580209e-09 3.5036104e-12 3.0917987e-12
000150 eb 29 01 32 f1 2f ae 2f b5 83 3d 32 4e 71 e7 33
       7.518319e-09 3.168448e-10 1.1031195e-08 1.0777386e-07
000160 ca 62 40 2f ea c5 29 2f f1 2c 85 33 40 5f 3d 30
       1.7497395e-10 1.5440774e-10 6.20147e-08 6.889316e-10
000170 24 48 cb 33 fb 26 65 34 6d 7b be 2f d2 17 a8 2f
       9.4660464e-08 2.1341468e-07 3.4648498e-10 3.0575947e-10
000180 16 03 1c 2f db 69 e9 2b 82 aa 5a 2f c2 af 15 30
       1.4189214e-10 1.6585027e-12 1.9887561e-10 5.445565e-10
000190 5f da 78 2b 66 9a 5b 2b 51 da 83 33 3b 05 70 30
       8.841035e-13 7.80187e-13 6.1398744e-08 8.7318924e-10
0001a0 eb 3f c0 33 a8 05 98 34 60 bc fc 2f 8c 07 df 2f
       8.952323e-08 2.8316322e-07 4.5972381e-10 4.0568826e-10
0001b0 db 9b 56 32 a6 d2 ec 2e 60 4f 81 32 b9 da 0e 33
       1.2491877e-08 1.0769456e-10 1.5053672e-08 3.326088e-08
0001c0 96 7e 6d 2e 60 94 51 2e aa 93 06 35 c5 f1 e1 31
       5.3999992e-11 4.765288e-11 5.013377e-07 6.575848e-09
0001d0 77 1d 39 35 f2 d4 08 36 68 7b 63 31 7a be 48 31
       6.896075e-07 2.038953e-06 3.3102996e-09 2.9212104e-09
0001e0 b9 97 74 30 81 01 84 2d a6 fb 09 31 98 7d a1 31
       8.8982294e-10 1.500733e-11 2.007917e-09 4.699995e-09
0001f0 12 3d 06 2d ad eb ec 2c 92 bf 42 2e 8e 02 e7 2b
       7.6305785e-12 6.7336887e-12 4.428064e-11 1.6414246e-12
000200 f8 43 a5 2e e8 c8 23 30 4c 25 88 2b 58 49 70 2b
       7.515405e-11 5.958456e-10 9.673733e-13 8.5366913e-13
000210 d7 e2 29 2c 41 ef ac 2a 25 e2 76 2c b2 de 0c 2f
       2.4142266e-12 3.0719353e-13 3.5084238e-12 1.2812043e-10
000220 05 32 6a 2a 18 ab 4e 2a e3 ea ee 31 81 25 90 2f
       2.0800729e-13 1.8355836e-13 6.953415e-09 2.6220096e-10
000230 d8 c1 5a 32 52 0a c7 33 a1 73 25 2f 2e 01 12 2f
       1.2733345e-08 9.268537e-08 1.5047742e-10 1.3279042e-10
000240 ca a5 3f 2e 37 e0 0b 2d ca 0d 93 2e 61 b1 45 31
       4.3575622e-11 7.951021e-12 6.6872355e-11 2.8768101e-09
000250 e3 54 a4 2c 28 04 91 2c 17 21 95 34 22 c6 7f 31
       4.6705847e-12 4.1216093e-12 2.777749e-07 3.722001e-09
000260 26 de cf 34 8e ff 9b 35 4d ac 01 31 e7 dc e4 30
       3.871839e-07 1.1622776e-06 1.8869912e-09 1.6651968e-09
000270 c4 30 cd 2e fe 24 b4 2d d4 85 03 2f 44 95 06 32
       9.330983e-11 2.0480059e-11 1.1961926e-10 7.833766e-09
000280 5a be 5f 2d e7 71 45 2d ad cc 4b 2b da e7 fb 2a
       1.2718349e-11 1.1223445e-11 7.240413e-13 4.4747436e-13
000290 fb 48 b3 2b b5 f1 55 2f 2a d7 b1 2a f4 ef 9c 2a
       1.2738971e-12 1.9458109e-10 3.1590816e-13 2.7877668e-13
0002a0 3d 58 25 34 17 30 cc 30 fe 7c 5e 34 68 d6 f6 34
       1.5398923e-07 1.4856621e-09 2.0720833e-07 4.5977072e-07
0002b0 d7 2e 4d 30 e1 10 35 30 51 50 02 35 da a0 09 32
       7.464513e-10 6.5871403e-10 4.854565e-07 8.011023e-09
0002c0 a1 53 39 35 10 8f 2a 36 cb c6 8d 31 7c 39 7a 31
       6.9039567e-07 2.5415247e-06 4.1262402e-09 3.6412464e-09
0002d0 d0 21 d8 33 e6 dd 9b 30 12 f2 1b 34 b3 dc bc 34
       1.0064434e-07 1.1340802e-09 1.4523565e-07 3.517831e-07
0002e0 ba fd 1c 30 d8 89 0a 30 87 bb 69 2f 66 1d 14 2c
       5.7113037e-10 5.0399995e-10 2.125785e-10 2.1048384e-12
0002f0 ce b6 97 2f db 07 34 30 64 a6 95 2b 6a 0f 84 2b
       2.759663e-10 6.549478e-10 1.0633269e-12 9.383442e-13
000300 d8 0f 09 2e 6c f1 f8 2a 76 5c 55 2e 65 3b 19 2f
       3.1164266e-11 4.422117e-13 4.8512715e-11 1.393637e-10
000310 54 bf 7e 2a f7 cd 60 2a 11 32 19 34 42 11 f4 30
       2.2626112e-13 1.9966655e-13 1.426745e-07 1.7758242e-09
000320 34 6a 57 34 13 7c 13 35 3e 31 75 30 67 5f 58 30
       2.0062072e-07 5.494232e-07 8.920046e-10 7.8715917e-10
000330 6e 13 b3 32 62 6f 81 2f 9e b6 e4 32 f7 cb a5 33
       2.0847178e-08 2.3544106e-10 2.6625738e-08 7.720512e-08
000340 6d d1 09 2f fa 3c f3 2e 7f f1 c6 2e 76 d4 87 2c
       1.253448e-10 1.1061192e-10 9.046896e-11 3.8605187e-12
000350 07 f1 15 2f f7 4b b5 30 cd b3 16 2c 2c fd 04 2c
       1.3637101e-10 1.3191074e-09 2.1416092e-12 1.8898867e-12
000360 34 9e ac 34 2c cd a3 31 67 b4 f4 34 01 72 c8 35
       3.2152604e-07 4.7672497e-09 4.5579802e-07 1.4934341e-06
000370 99 9e 26 31 07 09 13 31 49 a5 97 2d df 3f 15 2c
       2.4246332e-09 2.1396447e-09 1.7240114e-11 2.120963e-12
000380 a5 a5 09 2e 44 c0 63 30 43 51 bd 2b b0 10 a7 2b
       3.1297315e-11 8.2855345e-10 1.3451812e-12 1.1870695e-12
000390 b7 d9 52 32 f5 02 d9 2e 93 fd 76 32 2e 36 03 33
       1.2273111e-08 9.868543e-11 1.4376741e-08 3.055009e-08
0003a0 7d 23 5a 2e b1 7f 40 2e 24 ad 68 34 c2 52 30 31
       4.959898e-11 4.376916e-11 2.1669672e-07 2.5658413e-09
0003b0 23 9b af 34 87 56 55 35 2b 56 b1 30 1d 7e 9c 30
       3.2709167e-07 7.94746e-07 1.2902935e-09 1.1386337e-09
0003c0 e0 8c 4a 32 a1 c1 1f 2f 34 c9 a4 32 8d c4 44 33
       1.1789979e-08 1.4529757e-10 1.918361e-08 4.5813568e-08
0003d0 0a 90 a3 2e 6e 56 90 2e c3 ba 9d 34 8e 71 71 31
       7.437968e-11 6.563715e-11 2.9379416e-07 3.5134664e-09
0003e0 4e 63 d6 34 3a df 91 35 ed 82 f2 30 c0 01 d6 30
       3.993286e-07 1.0868309e-06 1.7645029e-09 1.5571047e-09
0003f0 66 11 5d 2d 81 e2 8c 2c 93 0f b8 2d 88 ea 1d 31
       1.2566259e-11 4.0041863e-12 2.0925294e-11 2.2979822e-09

exp_avg f4 [128]
000000 60 28 0c b7 2b a8 56 35 20 96 b3 b7 ed 60 e9 37
       -8.354051e-06 7.996593e-07 -2.140837e-05 2.7820899e-05
000010 a4 01 10 36 2e fe c6 b7 b0 02 d0 b7 a0 71 86 36
       2.1458627e-06 -2.3721801e-05 -2.4796784e-05 4.006739e-06
000020 ad a2 b9 37 b8 b8 48 38 20 1e 37 33 64 74 a3 37
       2.212947e-05 4.785575e-05 4.2635406e-08 1.9485313e-05
000030 d4 7f 9b 37 a1 fc c2 36 e5 d4 fa b7 fc a8 f9 37
       1.8536964e-05 5.8110604e-06 -2.990146e-05 2.9761803e-05
000040 f8 fa 10 34 66 d2 bf 37 c2 9c e4 b7 75 5f 18 38
       1.3502347e-07 2.2866949e-05 -2.7252714e-05 3.6328525e-05
000050 64 66 8e b6 60 e3 f6 b5 a2 27 19 36 2e c0 f2 b6
       -4.2438496e-06 -1.8394603e-06 2.2821846e-06 -7.2345347e-06
000060 70 fe a6 b6 10 cf 2c b6 9d 16 3b b7 11 e5 0a 35
       -4.976806e-06 -2.5750523e-06 -1.1151334e-05 5.174234e-07
000070 fe c6 46 38 ee 74 29 37 44 4d 9e 37 1d c0 21 36
       4.7392205e-05 1.010041e-05 1.8871047e-05 2.4102694e-06
000080 42 85 7a b3 e9 12 07 38 f6 59 28 b8 c6 43 9b b5
       -5.8328858e-08 3.220412e-05 -4.0138104e-05 -1.1568125e-06
000090 d7 8b 27 b8 98 f2 58 36 53 bb 1e 37 21 38 3a 38
       -3.994614e-05 3.2327716e-06 9.461149e-06 4.439813e-05
0000a0 ed 9f 45 37 44 72 53 b8 c0 22 2d 37 f7 eb d1 36
       1.1779351e-05 -5.041274e-05 1.0319694e-05 6.2561553e-06
0000b0 30 ee 93 36 5e 33 1c 38 dd 61 06 38 88 f8 f0 34
       4.40867e-06 3.7241138e-05 3.2039232e-05 4.4884314e-07
0000c0 e8 a7 df b4 24 75 33 b7 81 32 3d 37 f0 ce b1 b6
       -4.1659155e-07 -1.0696505e-05 1.1277037e-05 -5.2991018e-06
0000d0 f4 56 31 b3 30 48 f6 b5 33 51 8b 37 00 bf 85 34
       -4.1290107e-08 -1.8349438e-06 1.6607903e-05 2.491215e-07
0000e0 96 20 8f b7 70 48 9d b6 1e a2 83 36 a8 fa 1e 34
       -1.7062102e-05 -4.6873974e-06 3.922977e-06 1.4806085e-07
0000f0 1d 17 61 38 54 f5 66 36 4e b9 b8 36 68 d3 e3 b6
       5.3665706e-05 3.441547e-06 5.5051996e-06 -6.789738e-06
000100 84 f7 9b 38 79 52 31 38 f4 40 49 37 80 76 bc 36
       7.437079e-05 4.2276897e-05 1.1995657e-05 5.616632e-06
000110 26 25 63 36 12 03 f0 37 0a e8 13 38 ba e8 ca b6
       3.384726e-06 2.861166e-05 3.5263634e-05 -6.047162e-06
000120 ec 28 6b 38 20 fc 4e 35 1d 3f b3 b7 c0 c7 a0 37
       5.6066478e-05 7.710787e-07 -2.1367852e-05 1.9166502e-05
000130 2e 67 c5 b6 a6 2f 48 38 97 81 45 b2 07 39 17 37
       -5.883069e-06 4.7728092e-05 -1.14963745e-08 9.013579e-06
000140 57 dd cc b7 57 34 9a 37 28 a1 bf 36 ab dc 18 36
       -2.4421764e-05 1.8382603e-05 5.7110046e-06 2.277821e-06
000150 dc 44 6b 38 90 e5 e9 34 54 ea 95 b5 4c ee c1 b3
       5.6092496e-05 4.356666e-07 -1.1169564e-06 -9.030609e-08
000160 f4 24 28 b6 0f 92 8b b6 19 1c fb 37 51 0a 99 37
       -2.505546e-06 -4.1595263e-06 2.9934616e-05 1.8243825e-05
000170 26 c8 2d 37 b2 d8 ec 35 55 ed 56 b7 d2 44 14 38
       1.0358204e-05 1.7646437e-06 -1.2810652e-05 3.5350044e-05
000180 3e cc 53 b7 9e 3f 52 35 54 f7 03 b5 d0 e6 5c 35
       -1.2624134e-05 7.832367e-07 -4.916121e-07 8.2292263e-07
000190 ac a1 89 b7 34 1e 07 b6 40 76 df 35 dc cb d7 b5
       -1.6406957e-05 -2.0134148e-06 1.664921e-06 -1.6078079e-06
0001a0 9e ff cf b7 72 ef b4 b7 75 2b 17 b6 be 9a 39 b7
       -2.4795354e-05 -2.1569173e-05 -2.2526049e-06 -1.1062888e-05
0001b0 3e 69 e6 b7 40 ac fb b3 62 93 a8 34 66 fc 42 33
       -2.7467144e-05 -1.17194304e-07 3.1399674e-07 4.53987e-08
0001c0 90 c6 61 b6 88 e2 9a 36 02 d0 8d 36 3b d1 a2 b5
       -3.3643191e-06 4.6159294e-06 4.2263428e-06 -1.2130835e-06
0001d0 c8 81 fc b5 a0 68 58 34 15 d4 88 35 ad 04 d0 36
       -1.8813234e-06 2.015463e-07 1.0194514e-06 6.1994274e-06
0001e0 40 1a 40 36 c4 1e 1f b8 60 aa 82 35 a4 12 9b b7
       2.862551e-06 -3.7937207e-05 9.73534e-07 -1.848612e-05
0001f0 1e 5b 30 38 c2 93 54 38 a0 53 5c 34 da 1a de 36
       4.204653e-05 5.068235e-05 2.0519519e-07 6.6192415e-06
