V3/results/Simple12/AgentControl/checkpoint.pt (torch, 445410 bytes, 39 tensors)

network_body._body_endoder.seq_layers.0.weight f4 [128, 6]
0	0xbedc9744	-0.43084157
1	0xbd266673	-0.040625047
2	0xbf3eb6f4	-0.74497914
3	0x3eb8b294	0.36073744
4	0x3f5ac893	0.854623
5	0x3f07e2b5	0.530803
6	0xbed34b57	-0.41268417
7	0xbe47aaf5	-0.19498809
8	0xbe1dda43	-0.15415291
9	0x3baba968	0.0052387007
10	0x3e6636d9	0.2248186
11	0x3ec37adc	0.38179672
12	0xbe951802	-0.2911988
13	0xbdb78448	-0.089607775
14	0x3cfb71a6	0.03069384
15	0xbe28dc31	-0.16490246
16	0x3ef5f77e	0.48040384
17	0x3e6731ff	0.22577666
18	0x3de9b997	0.114123516
19	0x3edb3e3d	0.42820922
20	0xbe0e50da	-0.1389803
21	0x3dc74c64	0.09731367
22	0xbf1fbbae	-0.6239575
23	0x3e5b66c5	0.21425922
24	0x3edd6eff	0.43248746
25	0xbe118eaf	-0.14214586
26	0x3fb6fb89	1.4295512
27	0x3cc45e4e	0.02397075
28	0xbea7052a	-0.32621127
29	0x3df60f5e	0.1201465
30	0xbef1e760	-0.47246838
31	0x3d97fa8f	0.07420837
32	0xbedf7f92	-0.43652016
33	0xbe6ad643	-0.22933297
34	0x3ec1ea24	0.37873948
35	0xbe9e483a	-0.3091448
36	0xbe11e538	-0.14247596
37	0x3e9772bb	0.2957972
38	0xbe35f399	-0.17768706
39	0xbf2b399b	-0.66884774
40	0xbdd32e4a	-0.10311563
41	0xbdcda033	-0.10040321
42	0x3cfc629d	0.030808741
43	0x3dcea4d8	0.10090035
44	0xbe84b2f3	-0.25917777
45	0x3e7b2580	0.24526024
46	0xbd3f4678	-0.046698064
47	0x3ebb062f	0.36528155
48	0x3d09ac90	0.033611834
49	0xbf2522be	-0.6450614
50	0xbe36044e	-0.1777508
51	0x3e3e7bfd	0.18601985
52	0x3ea79ac1	0.32735255
53	0xbf9082fe	-1.1289976
54	0xbf14d094	-0.58130765
55	0x3e0d49f7	0.13797747
56	0xbf268429	-0.6504541
57	0x3e2d31fb	0.16913597
58	0xbd83152f	-0.06400525
59	0xbd8b7f2b	-0.06811365
60	0x3f13c7b2	0.57726586
61	0x3d267af3	0.040644597
62	0xbf4c897b	-0.7989728
63	0x3e5dbd7a	0.21654311
64	0xbde65a38	-0.112476766
65	0xbe91ead5	-0.28499475
66	0x3e637a74	0.22214681
67	0xbf07ecde	-0.53095806
68	0x3ec3bfb8	0.38232207
69	0x3df8a349	0.12140519
70	0xbf208d49	-0.62715584
71	0xbf1be278	-0.6089244
72	0xbe7a18db	-0.24423544
73	0x3e5b53a8	0.21418631
74	0xbe616cea	-0.22014204
75	0x3c88b835	0.0166894
76	0xbecbd6da	-0.39812356
77	0x3e2c7703	0.16842274
78	0xbf1fa28e	-0.62357414
79	0xbe5f8b1e	-0.21830413
80	0xbf3de17c	-0.74172187
81	0x3c050e02	0.0081210155
82	0x3bbd95e3	0.00578569
83	0xbe20acb2	-0.15690878
84	0xbeab39e9	-0.3344262
85	0x3f66650e	0.8999795
86	0xbee37917	-0.44428322
87	0x3d98c367	0.07459145
88	0x3e63a330	0.2223022
89	0xbe899a82	-0.26875693
90	0xbedb8d39	-0.42881182
91	0x3f2fc597	0.68660873
92	0x3ec05406	0.37564105
93	0x3e6ada54	0.22934848
94	0xbea3c893	-0.31988963
95	0x3e00dcc4	0.12584215
96	0xbf06c7ae	-0.5264844
97	0x3f67bd12	0.90522873
98	0xbd2427b7	-0.040076938
99	0xbef3c152	-0.4760843
100	0x3f75035c	0.9570825
101	0x3dd01998	0.101611316
102	0x3d132e17	0.035932627
103	0x3e8885d8	0.26664615
104	0xbe51c783	-0.20486264
105	0x3e41e443	0.18934731
106	0xbec3ac9a	-0.38217622
107	0x3dae83a8	0.08521205
108	0x3ed57229	0.4168866
109	0x3e8949de	0.2681417
110	0x3e957fa2	0.2919894
111	0xbd4eec97	-0.0505186
112	0xbed2b062	-0.41150194
113	0xbef64e24	-0.48106492
114	0x3f0bbcc5	0.54584914
115	0xbf036b29	-0.5133539
116	0x3d6982aa	0.057009377
117	0xbeaceb07	-0.33773062
118	0xbf21e61b	-0.6324174
119	0x3df9270a	0.12165649
120	0xbf37c446	-0.71783864
121	0xbca029ba	-0.019551147
122	0xbe0cf52a	-0.13765398
123	0xbebf73c3	-0.37393007
124	0xbe1d7af4	-0.15378934
125	0xbf024b0e	-0.50895774
126	0xbe07bbde	-0.1325526
127	0x3f0d0870	0.55091
128	0x3d7373a9	0.059436474
129	0xbeb9c9ce	-0.36286777
130	0x3e790c3d	0.24321075
131	0xbf4a21cb	-0.78957814
132	0xbf000121	-0.5000172
133	0x3dd006b2	0.10157527
134	0x3e67f519	0.22652091
135	0xbe354f77	-0.17706095
136	0x3ebdee28	0.3709576
137	0xbef76ec2	-0.4832669
138	0x3e7ee3fa	0.24891654
139	0x3f1fb9bd	0.6239279
140	0xbc730daf	-0.014834805
141	0xbce8755c	-0.028376274
142	0x3d9d76d1	0.07688678
143	0xbc831939	-0.016003238
144	0xbc214556	-0.009843191
145	0x3d217a4b	0.03942327
146	0x3f0c190e	0.5472573
147	0xbe3660bd	-0.1781034
148	0x3e08c379	0.13355817
149	0x3e4ad512	0.19807842
150	0x3eaac391	0.3335233
151	0x3e7c9a06	0.2466813
152	0x3e4f4b4a	0.20243564
153	0xbe078fcb	-0.13238446
154	0xbd554e9e	-0.05207693
155	0xbefd94c2	-0.49527556
156	0x3ed7e14e	0.4216408
157	0xbdfd8e21	-0.123806246
158	0xbebc06a9	-0.3672383
159	0x3cad5568	0.021158889
160	0xbd1ab79a	-0.037772752
161	0x3ec4c26a	0.38429576
162	0x3f5415c9	0.8284574
163	0xbf736137	-0.95070213
164	0x3f1cd57e	0.61263263
165	0x3d34bd2b	0.044125717
166	0x3f6a9ab7	0.91642326
167	0xbf0a1b33	-0.5394775
168	0xbe701e0a	-0.23448959
169	0x3f0131a0	0.50466347
170	0x3e66a746	0.22524747
171	0xbc36b31f	-0.011151104
172	0xbd918f23	-0.07107379
173	0xbde81acf	-0.11333238
174	0xbebc0e15	-0.36729494
175	0x3e8fae50	0.28062677
176	0x3ba1bc1f	0.004935756
177	0xbe5e1cf9	-0.2169074
178	0xbf7dfcb1	-0.992137
179	0xbe329437	-0.17439352
180	0x3dd058e2	0.10173203
181	0xbe9c16e0	-0.30486202
182	0xbea37260	-0.319232
183	0x3e95d4f5	0.29264036
184	0xbee3ace2	-0.44467837
185	0xbf4050c6	-0.7512325
186	0x3e9862c4	0.29762852
187	0x3f1939fe	0.59854114
188	0xbf0f488d	-0.5597008
189	0x3e1c7c86	0.15281877
190	0x3e913219	0.28358534
191	0xbd9564e1	-0.07294632
192	0xbe5eab6d	-0.21745081
193	0x3ed207bd	0.4102153
194	0x3e16f8d3	0.14743356
195	0x3e2d9e6b	0.16954963
196	0x3f4da14d	0.8032425
197	0x3ed73d3a	0.420389
198	0x3ef19f8b	0.47192034
199	0x3e01a709	0.12661375
200	0xbe72369b	-0.23653643
201	0xbe57ef9f	-0.21087502
202	0x3ea52ae0	0.32259274
203	0xbd7016f0	-0.058615625
204	0xbd49de0b	-0.049284022
205	0xbe9b386c	-0.30316484
206	0x3d60d8c2	0.054894216
207	0x3f524c0d	0.82147294
208	0xbcced351	-0.025247248
209	0xbf0be280	-0.54642487
210	0xbe5f46d6	-0.21804366
211	0xbde36c10	-0.11104596
212	0xbeae01e4	-0.33985817
213	0x3f77e098	0.9682708
214	0xbeaf6500	-0.34256744
215	0x3e4821d1	0.1954415
216	0x3e4efe50	0.202142
217	0xbeb29a9f	-0.34883592
218	0xbdf87aea	-0.12132819
219	0xbec928a7	-0.39288828
220	0x3bb34c95	0.005471776
221	0x3e09e88d	0.13467617
222	0xbdf3ecb1	-0.1191038
223	0x3db196df	0.086713545
224	0xbe82d921	-0.2555628
225	0xbf871151	-1.055216
226	0xbe283fb6	-0.16430554
227	0xbf2c6a67	-0.6734986
228	0x3e18dcb1	0.14927937
229	0x3f2ee6dc	0.68321013
230	0x3d24d4d0	0.040242016
231	0xbf24ef7d	-0.6442793
232	0x3e98499d	0.29743662
233	0xbe04ab29	-0.12955917
234	0x3e98bb55	0.29830423
235	0xbe024c4a	-0.12724414
236	0xbe99a8f7	-0.30011722
237	0xbde1cbae	-0.11025177
238	0xbf469ac1	-0.77579886
239	0xbdbe7619	-0.09299869
240	0xbec48237	-0.38380596
241	0x3e556f73	0.20843296
242	0x3dfc3989	0.123156615
243	0x3eb82f1e	0.35973448
244	0xbed43905	-0.41449752
245	0x3a670f71	0.00088142516
246	0x3e9b209a	0.3029831
247	0xbeabc975	-0.33552137
248	0xbe92c2b4	-0.28664172
249	0xbe80d78b	-0.25164446
250	0x3ea4813d	0.3212985
251	0xbe8358ae	-0.25653595
252	0xbe7a31eb	-0.24433105
253	0xbe0b3506	-0.13594446
254	0xbf231a07	-0.6371159
255	0xbfa895de	-1.3170736

network_body._body_endoder.seq_layers.0.bias f4 [128]
0	0x3c4d37ca	0.012525508
1	0xbcbb01c0	-0.022827983
2	0x3c8ca7f2	0.017169926
3	0xbcd2a6ef	-0.025714366
4	0xba8acae8	-0.0010589035
5	0xbc2b6b1a	-0.010462547
6	0x3b9990cb	0.00468645
7	0xbbbb2cc7	-0.005712125
8	0x3c8d99c0	0.017285228
9	0x3c557b9d	0.01302996
10	0x3c9e852a	0.019350607
11	0xbc099656	-0.008397659
12	0xbc50d1a6	-0.012745297
13	0xbc2d66db	-0.010583605
14	0xbc89e6da	-0.016833711
15	0x3c78d84a	0.015188286
16	0xbadcbc2d	-0.0016840749
17	0xbcbf7157	-0.023369474
18	0x3c7af9dd	0.015318361
19	0x3af2894c	0.0018504052
20	0x3b261eb6	0.0025347895
21	0x3c2f3920	0.010694772
22	0xbc13a040	-0.009010375
23	0xbc33fa80	-0.010985017
24	0xbbffb813	-0.007803926
25	0x3b2b6c70	0.0026157163
26	0xbb7c1249	-0.0038463047
27	0x3c60e55c	0.013726559
28	0x3bb22e25	0.0054376298
29	0xbcc0f031	-0.023552032
30	0xbbf3f19d	-0.007444574
31	0xbccdd051	-0.025123747
32	0xbc8f565b	-0.017497232
33	0x3b76a8bf	0.0037637202
34	0xbc485ce4	-0.012229178
35	0x3cb4cbca	0.02206983
36	0x3b8ace02	0.004235984
37	0x3c734397	0.014847658
38	0xbc0cf01c	-0.008602168
39	0x3cb731db	0.02236264
40	0x3cb142cf	0.021638302
41	0xbb5539e9	-0.0032535738
42	0x3c242796	0.010019204
43	0x3ced939a	0.029001046
44	0x3c167ed9	0.009185516
45	0xbc627a18	-0.013823055
46	0x3c750a37	0.014956049
47	0x3c44c43d	0.0120096775
48	0x3ca01941	0.019543292
49	0xbc1e9505	-0.009679084
50	0xba35cf9b	-0.00069355377
51	0xbacd75d1	-0.0015675371
52	0xbc6720c6	-0.014106935
53	0xb999ba83	-0.00029321396
54	0x3b5dfb98	0.0033871885
55	0xbc5dcb44	-0.013537232
56	0xbb8bd8dd	-0.0042677955
57	0xb8026494	-3.1088086e-05
58	0xbb001d9d	-0.00195489
59	0x3c1df6cb	0.00964136
60	0xbc724540	-0.014787018
61	0xbc9f30fc	-0.019432537
62	0x3bce6e97	0.0062998044
63	0x3ba5d455	0.0050607123
64	0xba8240a7	-0.0009937481
65	0x3be265fc	0.00690913
66	0x3c08de1b	0.008353735
67	0x3c552d55	0.013011296
68	0x3ae88e0b	0.0017742527
69	0xbc292f52	-0.010326223
70	0x3a9263ac	0.001116862
71	0x3b8e45da	0.004341823
72	0xbc0f9c81	-0.008765341
73	0xbb983e20	-0.0046460778
74	0x3b268c28	0.002541313
75	0x3c2f690a	0.010706196
76	0x3c9ea567	0.01936598
77	0xbb2ccf5c	-0.0026368713
78	0xbc2b2366	-0.010445451
79	0x3c893618	0.016749427
80	0x3b67ec84	0.0035388777
81	0x3cd0a800	0.025470734
82	0x3c69bdbe	0.0142664295
83	0xbbc751ba	-0.0060827406
84	0xbc86615f	-0.016403852
85	0xbbc5d426	-0.006037253
86	0x3b7e2418	0.0038778838
87	0x3c883015	0.01662449
88	0xbc86b2b1	-0.016442629
89	0xbaa29995	-0.001240539
90	0xbc52f27f	-0.012875198
91	0x3bb1a9d0	0.0054218546
92	0x3c40b00d	0.011760724
93	0xbbe57b00	-0.007003188
94	0x3c831698	0.016001984
95	0xbbd57a54	-0.006514827
96	0x3c84dab9	0.016217576
97	0x3c1864be	0.009301363
98	0x3c7d36e3	0.015454981
99	0xbcdf7b0a	-0.02728035
100	0xbcbb5c53	-0.022871172
101	0x3c409962	0.011755319
102	0x3c16e08d	0.0092088105
103	0x3b2d0937	0.0026403198
104	0x3c9408cf	0.018070607
105	0xbc92ed20	-0.017935336
106	0xb94efdcd	-0.00019740239
107	0x3c8f776b	0.017512998
108	0xbc28b3d3	-0.01029678
109	0xbc584826	-0.013200795
110	0x3c90dd2c	0.017683588
111	0xbb303ed9	-0.002689293
112	0x3bbb9ef8	0.0057257377
113	0xbc43cd4d	-0.011950803
114	0xbca22f43	-0.019797927
115	0xbc2823ea	-0.010262469
116	0x3ab3d564	0.0013720212
117	0x3b294999	0.002583122
118	0x3b3d4820	0.0028882101
119	0xbc04aa12	-0.008097189
120	0x3c88ac0c	0.0166836
121	0x3c9d997c	0.019238226
122	0x3c4e36e1	0.012586326
123	0xbc9db66f	-0.01925203
124	0xbcb9988f	-0.022655753
125	0x3bf9cb71	0.007623129
126	0xbc4dd13e	-0.012562094
127	0xbc327760	-0.010892719

network_body._body_endoder.seq_layers.2.weight f4 [128, 128]
0	0xbcc48dcf	-0.0239934
1	0xbe1f0e7e	-0.15532872
2	0xbd68d23a	-0.056841113
3	0x3bd2d7f3	0.0064344346
4	0x3cbc772f	0.02300605
5	0x3d8276e3	0.06370332
6	0x3c84c9e5	0.016209552
7	0xbc215c10	-0.00984861
8	0x3c4a8978	0.012361877
9	0xbd2a36f7	-0.041556325
10	0x3ddbf05f	0.107392065
11	0xbd151248	-0.036394387
12	0x3da08dd1	0.07839549
13	0x3c3546f2	0.011064278
14	0x3d89fb67	0.06737404
15	0xbd3fddb0	-0.046842277
16	0x3ccd4fc1	0.025062444
17	0xbd88d5df	-0.06681418
18	0x3d94337b	0.072363816
19	0xbdb72eab	-0.08944448
20	0xbc10a0db	-0.008827413
21	0xbd3bbffd	-0.04583739
22	0xbe06baa5	-0.13157137
23	0x3d5a1303	0.053240787
24	0xbd8fe9b5	-0.07026998
25	0xbdb167a4	-0.08662346
26	0x3da7ceed	0.08193765
27	0x3d39cd74	0.04536195
28	0xbd800bd9	-0.0625226
29	0x3d3d0429	0.046146546
30	0xbd47b922	-0.04876054
31	0xbe0d3f31	-0.13793637
32	0x3d4a58a0	0.049400926
33	0xbd52b7f3	-0.05144496
34	0x3d07488c	0.03302817
35	0xbdbf3350	-0.09335959
36	0x3dec5262	0.11539151
37	0x3db2e251	0.08734573
38	0x3d67d8ba	0.05660317
39	0x3d2a85b7	0.041631427
40	0xbdc7b575	-0.09751407
41	0x3e755457	0.23957954
42	0xbc96cde4	-0.018408723
43	0x3dc343f8	0.095344484
44	0x3d72503f	0.05915856
45	0x3d816808	0.063186705
46	0xbd3e96b4	-0.04653044
47	0xbcd7946b	-0.026315888
48	0x3d54b7fc	0.051933274
49	0x3dae7603	0.08518603
50	0x3d8277c0	0.06370497
51	0xbcd003c7	-0.025392426
52	0xbc97c04b	-0.01852431
53	0x3bec3683	0.0072086467
54	0x3c1ef7ee	0.009702666
55	0x3d869fba	0.06573434
56	0x3cb32bca	0.021871466
57	0x3be69b8b	0.007037585
58	0xbbc572f2	-0.0060256654
59	0xbdff6731	-0.12470854
60	0xbd1d7fd3	-0.03845198
61	0x3e2a3564	0.1662193
62	0x3d911dec	0.07085785
63	0xbd85e0e2	-0.065370336
64	0x3d548329	0.051882897
65	0x3bb8988b	0.005633419
66	0xbe1001c2	-0.1406317
67	0xbd234d55	-0.03986867
68	0xbe2f9724	-0.171475
69	0xbcc43de9	-0.023955302
70	0xbd4b55e2	-0.04964245
71	0xbcb39b21	-0.021924557
72	0x3d640879	0.055672143
73	0xbdb98196	-0.0905792
74	0xbdaaf74a	-0.08347948
75	0x3d0dd4c2	0.03462673
76	0x3af36647	0.001856991
77	0x3c833c1b	0.016019871
78	0xbc6df98b	-0.014524828
79	0xbdf4f852	-0.11961426
80	0xbe31ad3f	-0.17351244
81	0xbe0ab7c7	-0.13546668
82	0x3d81238a	0.06305607
83	0xbdd2a5cc	-0.102855295
84	0x3dde3f38	0.10851902
85	0xbdc309bb	-0.0952334
86	0xbd2a6ac5	-0.04160573
87	0xbbc638ec	-0.006049266
88	0x3d8974bc	0.067117184
89	0xbd7a3b88	-0.06109193
90	0xbcfbbd1d	-0.030729825
91	0x3e4effb5	0.20214732
92	0xbe304fa4	-0.1721788
93	0x3e3cc573	0.18434696
94	0xbcd89489	-0.026438015
95	0xbd815581	-0.06315137
96	0xbdbccfcb	-0.09219321
97	0xbe1b1290	-0.151438
98	0xbe05fdfa	-0.13085166
99	0x3e541670	0.20711684
100	0xbd700089	-0.05859426
101	0xbdee06fc	-0.11622426
102	0x3db4ffc4	0.08837846
103	0x3ca2ced9	0.019874023
104	0x3d21e604	0.039526
105	0x3dca9143	0.09890988
106	0xbe1feacf	-0.15616916
107	0xbd0807b7	-0.033210482
108	0x3dd46f8a	0.10372837
109	0x3d710e5f	0.058851596
110	0xbd9398bc	-0.07206866
111	0xbd5c6956	-0.053811394
112	0xbe0dfe9d	-0.13866659
113	0x3df1bbd6	0.11803405
114	0xbc859498	-0.016306207
115	0x3e246d4c	0.16057318
116	0x3d8827bc	0.06648204
117	0x3d8453fc	0.06461331
118	0xbca54ce9	-0.020178275
119	0x3df10a39	0.11769528
120	0xbe7554df	-0.23958157
121	0xbded472a	-0.11585839
122	0xbb647371	-0.0034858848
123	0x3d2632da	0.04057584
124	0x3d8828c7	0.06648403
125	0x3e20c576	0.15700325
126	0xbe3a2c34	-0.18180925
127	0xbd16a1dc	-0.036775455
128	0xbc4df406	-0.012570387
129	0x3df92d79	0.12166876
130	0xbb97e4e5	-0.0046354407
131	0xbdb7f18b	-0.089816175
132	0x3e0dee5f	0.13860463
133	0x3dd2eaa0	0.102986574
134	0xbdeea92a	-0.11653359
135	0xbd6abd4a	-0.057309426
136	0x3d0c4509	0.034245525
137	0x3e2ec0b7	0.17065702
138	0xbd8e465a	-0.06947012
139	0x3e548684	0.20754439
140	0xbc5c07d5	-0.013429602
141	0x3c89dfc7	0.016830338
142	0xbdc7a68a	-0.09748562
143	0x3c81cbfc	0.015844338
144	0xbd28dc53	-0.041225743
145	0xbd1050b3	-0.03523321
146	0x3d3dfc37	0.04638311
147	0xbce76984	-0.028248556
148	0x3bd65bea	0.0065417187
149	0x3cd9d4b2	0.026590679
150	0x3cd49460	0.025949657
151	0xbd8e5a1a	-0.06950779
152	0x3d140c82	0.03614474
153	0xbb692dca	-0.003558027
154	0xbd9c5175	-0.07632724
155	0x3ce6135b	0.028085401
156	0x3e09e27b	0.13465302
157	0xbd955997	-0.072924785
158	0xbe237f5e	-0.15966555
159	0x3cd8cecb	0.026465794
160	0xbd596280	-0.053072453
161	0x3b4109d4	0.002945532
162	0x3e232895	0.1593345
163	0x3d41509a	0.04719601
164	0x3d7b0ef3	0.061293554
165	0x3b4db97a	0.003139107
166	0x3e06a690	0.13149476
167	0xbcec6d2a	-0.028860647
168	0x3de4986d	0.111618854
169	0xbe70ab0f	-0.23502754
170	0xbd5b3384	-0.053515926
171	0xbe5709cb	-0.2099983
172	0xbd17eaf8	-0.037089318
173	0x3c520ad9	0.012819969
174	0xbd88eab2	-0.066853896
175	0xbb35492c	-0.0027662022
176	0xbd6b4412	-0.057437964
177	0x3d04f25e	0.0324577
178	0xbcb3987d	-0.021923298
179	0x3dd73986	0.105090186
180	0xbdd69619	-0.104778476
181	0xbda0864b	-0.07838114
182	0xbbeb1a61	-0.0071747755
183	0xbe83e7fe	-0.25762933
184	0xbd4d5842	-0.050132997
185	0xba4b6b34	-0.000775981
186	0xbdc0af57	-0.094084434
187	0xbda4563f	-0.08024263
188	0xbe27f9cd	-0.16403885
189	0x3d262fff	0.040573116
190	0xbd51535e	-0.051104896
191	0x3db945ab	0.09046491
192	0xbd37d704	-0.04488279
193	0xbdc0402a	-0.09387238
194	0x3bdfa24f	0.0068247686
195	0xbd245c90	-0.040127337
196	0xbc301dae	-0.010749264
197	0xbd607c3f	-0.05480599
198	0xbc56053b	-0.0130627705
199	0xbd8f7577	-0.070048265
200	0x3c33a125	0.010963713
201	0x3d2f67ba	0.04282353
202	0x3db5239b	0.08844682
203	0x3deb65e4	0.114940435
204	0x3c38cdeb	0.011279563
205	0x3d2f39f0	0.042779863
206	0xbc888df0	-0.016669244
207	0x3e09c1f3	0.13452892
208	0x3db58fff	0.08865356
209	0x3e149718	0.14510763
210	0xbd4b4267	-0.049623873
211	0x3dcba3ff	0.09943389
212	0x3e1d7844	0.15377909
213	0xbdb4950b	-0.0881749
214	0x3d676fd6	0.05650314
215	0x3d497dd4	0.049192265
216	0xbca19c8c	-0.019727968
217	0x3d77dc1b	0.060512643
218	0x3d9fbe7b	0.07800003
219	0x3de24d46	0.11049895
220	0xbe3ba8a1	-0.18326046
221	0x3d11b44d	0.03557234
222	0x3e5b1d7c	0.21397966
223	0x3db5dbd0	0.088798165
224	0x3de5dd69	0.11223871
225	0xbe1042a6	-0.14087924
226	0xbc616910	-0.013757959
227	0x3d8bc9f6	0.0682563
228	0x3d5072c6	0.050890706
229	0x3d8f87e3	0.0700834
230	0xbdcac26e	-0.09900366
231	0x3cb18e25	0.021674225
232	0x3d05b68c	0.032644793
233	0x3d38eddf	0.045148727
234	0xbdb3d113	-0.08780112
235	0x3cff8662	0.031192008
236	0xbd6f8ff2	-0.058486886
237	0xbe44514c	-0.19171637
238	0xbd7d5b61	-0.061854724
239	0xbdf5969c	-0.11991617
240	0xbc9227b1	-0.017841192
241	0xbb0cde36	-0.0021494753
242	0xbdbb300b	-0.09140023
243	0xbda06c72	-0.07833184
244	0x3dc0979d	0.09403918
245	0xbdf0d7e0	-0.11759925
246	0x3d12eb59	0.035868976
247	0x3dd64cb1	0.104638465
248	0x3d19c96f	0.037545618
249	0xbda92103	-0.082582496
250	0x3e20336c	0.15644616
251	0x3d4f540f	0.050617274
252	0x3e028521	0.12746097
253	0x3da2e046	0.07952933
254	0x3d8b9986	0.06816392
255	0x3e33127f	0.17487524

network_body._body_endoder.seq_layers.2.bias f4 [128]
0	0xbccb3579	-0.024805771
1	0xbbdbd4ec	-0.006708732
2	0xbb61170c	-0.0034346012
3	0xbd181080	-0.03712511
4	0xbc224881	-0.009904982
5	0x3b52bba7	0.0032155307
6	0xbb19ca76	-0.0023466623
7	0xbbb910c9	-0.005647753
8	0x3bffe79f	0.007809594
9	0xbca5984d	-0.020214224
10	0xbd40b5b6	-0.047048293
11	0xbbd29790	-0.006426759
12	0xbcbc8c80	-0.023016214
13	0xbd22dea3	-0.039763104
14	0xbc43c59a	-0.011948967
15	0xbc9f2816	-0.019428294
16	0x3b133c34	0.0022466304
17	0xbba004ca	-0.0048833834
18	0x3bab906c	0.0052357223
19	0xbb95fe5d	-0.0045774416
20	0x3c492364	0.012276504
21	0x3cc5b498	0.024133965
22	0x3c93646b	0.017992219
23	0x3c60f69f	0.013730674
24	0x3b457530	0.0030129664
25	0xbb89a018	-0.004199993
26	0x3c8779d5	0.016537586
27	0x3cabc007	0.02096559
28	0xbd1f9343	-0.0389588
29	0x3b125b85	0.0022332382
30	0xbd402b7b	-0.046916466
31	0x3ca8470f	0.020541696
32	0xbcabc269	-0.020966725
33	0xbc5862e8	-0.013207175
34	0xbcb55ad0	-0.02213803
35	0x3c02de0d	0.007987511
36	0xbd5d0e97	-0.053968992
37	0xbba52003	-0.0050392165
38	0x3bd4233f	0.006473928
39	0x3bf7d794	0.0075635407
40	0xbc5fb789	-0.013654598
41	0x3be94e7c	0.007119952
42	0xbc6748d3	-0.014116484
43	0x3c47d696	0.012197157
44	0x3bffc0e9	0.007804979
45	0x3cbf1db2	0.02332959
46	0xbaed291b	-0.0018093915
47	0x3c60ea5e	0.0137277525
48	0x3c665355	0.014057954
49	0xbd20a8bd	-0.03922342
50	0x3bd2e551	0.006436028
51	0xbab9071d	-0.00141165
52	0xbbe3fc3b	-0.0069575584
53	0xbc99030e	-0.018678214
54	0x3a8545b1	0.0010167864
55	0xbc0108b9	-0.007875615
56	0xbc873db5	-0.016508916
57	0xbd298a1c	-0.041391477
58	0x3bf8ef09	0.0075968546
59	0xbc4d5ab1	-0.01253383
60	0xbcf18eb6	-0.029486995
61	0x3aa8f8dc	0.0012891549
62	0x3c706f48	0.014674969
63	0xbd11da1d	-0.0356084
64	0xbc18d99b	-0.009329225
65	0xbc1e68f4	-0.009668577
66	0x3c90e9e8	0.01768966
67	0xbb9b38af	-0.004736982
68	0xbcc9d958	-0.02463977
69	0xbbb0559b	-0.0053812987
70	0x3c5bd242	0.013416829
71	0xbd3fe3e5	-0.046848197
72	0xbb81c565	-0.003960299
73	0xbc97572b	-0.018474182
74	0xbbdc4296	-0.006721805
75	0xbc76164f	-0.015019967
76	0x3b7cc95c	0.0038572168
77	0x3c4f1a27	0.012640513
78	0x3c2b3874	0.010450471
79	0x3c6a41d8	0.014297925
80	0x3badb9ee	0.0053017056
81	0xbc211a22	-0.009832891
82	0xbaf8313d	-0.0018935573
83	0x3c11d536	0.008900931
84	0xbc3ee4b0	-0.011651203
85	0xbc408e46	-0.011752671
86	0x3baa2052	0.005191841
87	0x3ce77fb4	0.028259136
88	0xbd204751	-0.039130513
89	0xbc87a207	-0.016556753
90	0xbc5de79f	-0.013543992
91	0xbccc5f11	-0.024947675
92	0x3c23c1a1	0.009994895
93	0x3ca7f15d	0.020500833
94	0xbb29a9c4	-0.0025888542
95	0xbc131dda	-0.008979285
96	0xbbe22c64	-0.0069022644
97	0x3c2cd515	0.01054885
98	0x3b3707a5	0.002792814
99	0x3cef64f9	0.029222952
100	0x3c8227ce	0.015888121
101	0x3beeda28	0.00728919
102	0xbbba5582	-0.005686463
103	0x3c4fae41	0.012675823
104	0xbb179972	-0.0023132232
105	0xbc4c38c7	-0.012464709
106	0x3ae755cb	0.001764947
107	0xbc8d18a2	-0.01722366
108	0xbc609968	-0.01370845
109	0x3bff0f3e	0.0077837994
110	0xbbd43c25	-0.0064768963
111	0x3c577745	0.013150995
112	0x3cba04bf	0.022707341
113	0xbcf08326	-0.029359411
114	0xbd1d8023	-0.03845228
115	0xbc862fcf	-0.016380219
116	0xbd02c3aa	-0.03192488
117	0x3c03cc4f	0.008044316
118	0x3bc35440	0.005960971
119	0x3c71fd4d	0.014769864
120	0x3b2275b7	0.0024789402
121	0x3c298710	0.010347143
122	0x3c6f2693	0.014596599
123	0x3bd459be	0.0064804247
124	0x3cbafbc0	0.022825122
125	0x3b4a4b52	0.0030867648
126	0x3cf0a123	0.029373711
127	0xbbc8472b	-0.0061119995

action_model._continuous_distribution.log_sigma f4 [1, 2]
0	0x3d315ae7	0.04329958
1	0x3d086096	0.033295237

action_model._continuous_distribution.mu.weight f4 [2, 128]
0	0xbcb5da0d	-0.022198701
1	0x3b1f682c	0.0024323566
2	0x3c21ce5a	0.009875858
3	0xbce46777	-0.027881367
4	0xbd08fc75	-0.033443887
5	0x3c1870d4	0.009304244
6	0x3cac37d7	0.02102272
7	0x3c95e299	0.018296527
8	0x3ca992b0	0.020699829
9	0xbc6e6702	-0.014550926
10	0xbc3f4300	-0.011673689
11	0xbb1efc35	-0.0024259214
12	0xbbf56797	-0.0074891555
13	0xbcf41c77	-0.02979873
14	0xba449033	-0.0007498294
15	0xbc84bd8c	-0.016203664
16	0x3c767ce5	0.015044426
17	0xbc16f581	-0.009213806
18	0xbb33fc5c	-0.002746365
19	0x3c1850e6	0.009296631
20	0xbc27e2bc	-0.010246929
21	0x3c5dd261	0.013538928
22	0xbb803c76	-0.0039134575
23	0x3c2fee1b	0.010737921
24	0x3ca79de1	0.020461025
25	0x3c5fd357	0.013661227
26	0x3ba5b9f2	0.005057567
27	0xbbf7fe92	-0.007568189
28	0xbc085350	-0.0083206445
29	0xbad3caa7	-0.0016158418
30	0xbc544ad6	-0.012957295
31	0xbc8fff7d	-0.017577881
32	0x3a08486f	0.0005198782
33	0x3bce5c47	0.0062976214
34	0xbc8b8979	-0.017033326
35	0x3cb80424	0.022462912
36	0xbc669850	-0.0140744
37	0xbc1d95ce	-0.009618236
38	0x3c8ed048	0.0174333
39	0x3bd0f7e2	0.006377206
40	0x3bd91272	0.0066245133
41	0xbbadcaeb	-0.0053037307
42	0xbc2bb182	-0.010479333
43	0x3bbfc627	0.005852479
44	0xbc910d9c	-0.017706685
45	0x3cf648dd	0.03006404
46	0x3c534519	0.012894892
47	0xbc2d2eca	-0.010570237
48	0x3c4e66e1	0.01259777
49	0xbb41bd0c	-0.0029562144
50	0xbc1feae8	-0.009760596
51	0xbc3497fe	-0.011022566
52	0xbcaedde4	-0.02134604
53	0xbc098a03	-0.008394721
54	0xbbd2f8b2	-0.006438338
55	0x3c498ee1	0.012302131
56	0x3b1089aa	0.002205471
57	0xbcc335c9	-0.023829358
58	0x3d4df34e	0.05028086
59	0xbcfa8abd	-0.030583734
60	0xbc0be4d5	-0.0085384445
61	0x3bb9ee2e	0.005674145
62	0x3c3af134	0.011410046
63	0xbbe55478	-0.006998595
64	0xbcac3815	-0.021022836
65	0xbd2851de	-0.0410937
66	0xbb52f9b5	-0.0032192294
67	0x3c55a2aa	0.01303927
68	0xbcaa15e1	-0.020762386
69	0xbd034dd8	-0.03205666
70	0x3cce0401	0.025148394
71	0xbca8f8ab	-0.020626387
72	0xbc6fe6c8	-0.014642425
73	0xbceb7006	-0.02873994
74	0x3c3c64e4	0.011498664
75	0xbc200e55	-0.009769042
76	0xbcc1430a	-0.023591537
77	0x3ba32c2e	0.004979632
78	0xbb2e8bb4	-0.0026633563
79	0x3c1d37c1	0.009595812
80	0x3b817b32	0.0039514536
81	0xbc894a9a	-0.016759206
82	0xbd0129d7	-0.031534042
83	0xbb03f87b	-0.002013712
84	0xbd0a3c39	-0.03374884
85	0xbc528e9c	-0.012851384
86	0xbc47e038	-0.012199454
87	0x3bed6d01	0.0072456603
88	0xbd2e16b9	-0.04250214
89	0xbcc02d6d	-0.02345916
90	0xbbaad4a5	-0.0052133375
91	0x3c009e7e	0.0078502875
92	0x3cfca3f6	0.030839901
93	0xbc64751f	-0.0139439395
94	0xbcccf352	-0.025018368
95	0x3c086c57	0.0083266115
96	0xbd11f42f	-0.035633262
97	0x3cd2be9d	0.025725657
98	0x3c58594b	0.013204883
99	0x36340c30	2.6829184e-06
100	0x3b7097d0	0.003671158
101	0x3d37c41c	0.04486476
102	0xbc9b17df	-0.018932281
103	0x3c0b6193	0.00850715
104	0xbc345891	-0.011007444
105	0xbd03d496	-0.03218516
106	0x3c141ffa	0.009040827
107	0xbbf9ad66	-0.0076195477
108	0xbca32910	-0.019917041
109	0x3c2e92f7	0.010655156
110	0xbcab0c08	-0.02087976
111	0xbaa89284	-0.0012861048
112	0x3d197a67	0.037470248
113	0xbc0e8446	-0.008698529
114	0xbcbabfe2	-0.022796575
115	0xbba28a2b	-0.0049603186
116	0xbd146dff	-0.036237713
117	0x3bf07c91	0.007339068
118	0x3d03e4fa	0.03220079
119	0xbb60ba15	-0.00342906
120	0x3b86d4eb	0.0041147373
121	0x3c026d1a	0.007960582
122	0x3bbdec31	0.0057959785
123	0xbcf0c4ab	-0.029390654
124	0x3c073367	0.008252001
125	0x3c32e9c3	0.010919991
126	0x3d004e73	0.031324815
127	0xbc480bd9	-0.012209856
128	0xbcc1029c	-0.023560815
129	0xbc254d14	-0.010089178
130	0xbb40a889	-0.002939733
131	0xbca53b26	-0.020169806
132	0xbc4f6417	-0.012658141
133	0xbb961d8c	-0.004581159
134	0xbd04858a	-0.032353915
135	0xbd39cc26	-0.045360707
136	0x3b28a971	0.002573576
137	0xba82d7cf	-0.0009982529
138	0xbd021145	-0.03175475
139	0x3b5f7f4f	0.0034102981
140	0xbcd30b7d	-0.025762314
141	0xbcb8257c	-0.022478811
142	0xbce686c5	-0.028140435
143	0x3a75b145	0.00093724235
144	0xbc48e1d7	-0.012260876
145	0x3b13672e	0.002249192
146	0x3bf6d12e	0.0075322604
147	0xbcda57c9	-0.026653187
148	0x3ce7fbf6	0.028318387
149	0x3c56cd2e	0.013110442
150	0x3c3be3c1	0.011467875
151	0xbb1b4564	-0.0023692483
152	0xbc08a882	-0.008340957
153	0xbd21da60	-0.0395149
154	0x3bde9b9d	0.006793453
155	0x3d23449a	0.039860345
156	0xbb925c51	-0.0044665714
157	0xbc6c3db1	-0.014419005
158	0xbd24e93a	-0.040261485
159	0x3d0c8ae2	0.034312136
160	0xbd0d8b73	-0.034556817
161	0xb9fc54f3	-0.00048128478
162	0xbbe76030	-0.007061027
163	0xbba7e72a	-0.0051239925
164	0xbcb22631	-0.021746727
165	0x3c0448a3	0.008073959
166	0xbc91fa2f	-0.017819492
167	0xba6d4776	-0.0009051481
168	0xbc0bf556	-0.008542379
169	0x3cfaf357	0.030633612
170	0xbc9b430a	-0.018952865
171	0x3c83962b	0.016062817
172	0x3cb9fa13	0.022702252
173	0x3d04d7db	0.03243242
174	0xbca62e2d	-0.02028569
175	0x3ce9bf3c	0.02853357
176	0x3c1e606c	0.009666543
177	0xbbe83712	-0.007086643
178	0x3c45962a	0.012059728
179	0x3c07e07e	0.008293269
180	0x3c44a473	0.012002098
181	0x3b9410a7	0.0045185867
182	0x3c13ad86	0.009013539
183	0xbab98863	-0.0014155026
184	0xbcb10b53	-0.021611845
185	0xbcac2ab3	-0.021016454
186	0x3af966dd	0.0019027848
187	0xbc90abe6	-0.017660093
188	0xbc20c9ad	-0.009813708
189	0xbc0a3398	-0.0084351525
190	0x3a1a9b8e	0.0005897813
191	0xbcef2ef1	-0.029197188
192	0x3c1d12be	0.009586988
193	0xbb130aa4	-0.0022436762
194	0x3c9c615e	0.019089397
195	0xbcafa38d	-0.021440292
196	0xbd13f544	-0.036122575
197	0x3c183359	0.009289586
198	0x3beee426	0.007290381
199	0xbd0dc1fe	-0.034608833
200	0x3c53cf67	0.012927867
201	0xbc685d09	-0.014182338
202	0xbc1baef3	-0.00950216
203	0xb9154397	-0.00014234926
204	0x3d19dc3f	0.03756356
205	0x3c80e05e	0.015731987
206	0x3c5f013f	0.013611137
207	0x3c057171	0.008144722
208	0x3bdbee11	0.0067117293
209	0x3bfc814d	0.0077058435
210	0x3c26242a	0.010140458
211	0x3be787cb	0.0070657483
212	0xbc424c74	-0.011859048
213	0xbbc8e0a0	-0.006130293
214	0x3c2a6815	0.010400792
215	0x3c8dbe6f	0.01730272
216	0xbc624d0e	-0.013812317
217	0x3b4eabc3	0.0031535483
218	0xbc31de7f	-0.01085627
219	0xbcbe75cf	-0.023249535
220	0xbc51a684	-0.012796048
221	0x3cbdd9a0	0.02317506
222	0x3c30bf9e	0.010787873
223	0xbc7bc4ac	-0.015366714
224	0x3c2afdb3	0.010436463
225	0x3b90e07a	0.004421291
226	0xbc489f6b	-0.012245039
227	0x3ca2d7ec	0.01987835
228	0x3c73d916	0.0148833
229	0xbcc51f80	-0.024062872
230	0x3c829a31	0.015942665
231	0x3c35a776	0.011087289
232	0x3c1ed2ce	0.009693814
233	0xbc5a0525	-0.013306891
234	0xbc150858	-0.009096228
235	0xbaea9cfd	-0.0017899569
236	0xbd58f466	-0.05296745
237	0x3b997641	0.0046832864
238	0x39dcbb46	0.000421012
239	0x3cd90aeb	0.026494464
240	0x3c7aec8f	0.015315189
241	0xbba785ae	-0.0051123714
242	0xbd310e73	-0.04322667
243	0xbc8c9ba7	-0.017164065
244	0xbcca27a7	-0.02467711
245	0x3b6fe58e	0.003660533
246	0xbc7fade2	-0.015605422
247	0x3ce132ba	0.027490009
248	0x3afa19fd	0.0019081231
249	0x3bf7e0df	0.0075646485
250	0x3d17f0c2	0.03709484
251	0x3cdd9c93	0.0270522
252	0x3cb3636a	0.02189799
253	0xbc382ebc	-0.011241611
254	0x3c7c4e83	0.015399578
255	0xb9cf3ed5	-0.0003952893

action_model._continuous_distribution.mu.bias f4 [2]
0	0x3c4a0df3	0.012332427
1	0x3c9426d8	0.018084928

action_model._discrete_distribution.branches.0.weight f4 [1, 128]
0	0x3bd965d3	0.006634453
1	0xbba12707	-0.0049179825
2	0xbbd378ba	-0.0064536007
3	0xbaa47943	-0.0012548346
4	0x3c0da850	0.008646086
5	0x3c530d65	0.0128816115
6	0xbbfaeca5	-0.0076576048
7	0x3bfdb5a5	0.007742601
8	0xba8d4db9	-0.001078061
9	0x3c517f2b	0.012786667
10	0xbc168e04	-0.009189133
11	0x388e3035	6.780067e-05
12	0x3b5d3522	0.0033753593
13	0xbb5d60d7	-0.0033779645
14	0x3bcceaf7	0.006253596
15	0xbbe39ef5	-0.0069464394
16	0xbb10cfd5	-0.0022096534
17	0x3b0ddabb	0.0021645266
18	0x3bba4d7f	0.005685508
19	0xbb7da6f5	-0.003870425
20	0xbb85e8ff	-0.004086613
21	0x3ac28f3c	0.0014843713
22	0x3c29d862	0.010366531
23	0xbba7be8a	-0.0051191496
24	0xba892111	-0.0010462125
25	0x3c05d0e5	0.00816748
26	0x3b667ae7	0.003516847
27	0xba828fe9	-0.0009961101
28	0x3be52f57	0.0069941687
29	0xbbf26fa7	-0.007398564
30	0xba8ad2e1	-0.0010591411
31	0x3bce5d53	0.006297746
32	0x3ca4be88	0.020110384
33	0xbc6fc728	-0.014634885
34	0x3c3b01a3	0.011413964
35	0x3c28c136	0.010299971
36	0x3b99133c	0.0046714824
37	0x3c0b0713	0.008485573
38	0xbb00e3c3	-0.0019667007
39	0xbc01cb9e	-0.007922081
40	0x3b30756c	0.0026925458
41	0xbb769f28	-0.0037631486
42	0xbbf1652b	-0.0073667965
43	0x3a9bd9bc	0.0011890451
44	0x3afebc97	0.0019434866
45	0xbcd8a257	-0.026444597
46	0xbb2f6c1b	-0.0026767317
47	0xbb0ce198	-0.002149677
48	0xbbfae557	-0.007656734
49	0xbc18633f	-0.009301006
50	0x3b02c3b9	0.0019953086
51	0x3bdb96bd	0.006701319
52	0xbb5325cb	-0.0032218571
53	0xbbd8aaa7	-0.00661214
54	0x39bd2dbc	0.00036082964
55	0x3ab51756	0.0013816159
56	0xbc3330e5	-0.01093695
57	0xbc104e18	-0.0088076815
58	0xbbaf97e7	-0.0053586843
59	0xbb2944eb	-0.0025828432
60	0xbc3e4574	-0.011613239
61	0x3ba16286	0.004925075
62	0x3bbfcbfa	0.0058531733
63	0x3c3f34c1	0.011670292
64	0x3c337227	0.010952509
65	0xbc130070	-0.008972272
66	0x3c3aea11	0.011408345
67	0xba9adba1	-0.0011814722
68	0xbbf0cf82	-0.0073489556
69	0xbbcf8d45	-0.0063339793
70	0xbb9eab4f	-0.004842199
71	0xbbb683ac	-0.0055698957
72	0xbb5b1445	-0.003342883
73	0x3b05f40b	0.002043965
74	0x3c825032	0.01590738
75	0x3b3a282c	0.0028405292
76	0xba5ffc15	-0.0008544338
77	0x3b28fd52	0.0025785756
78	0xbb26ed8b	-0.0025471176
79	0x39e4fd05	0.00043676063
80	0xbbedf37d	-0.007261692
81	0x3c16ed79	0.009211891
82	0xbb871723	-0.004122631
83	0x3ca26192	0.019821916
84	0xbc4cb63a	-0.012494618
85	0xba86518e	-0.0010247694
86	0xbc94553a	-0.018107045
87	0xbc2e7e55	-0.010650237
88	0xbbe82e4a	-0.007085596
89	0x3afe4faa	0.0019402404
90	0xbb062e43	-0.0020474351
91	0xbb9b18c1	-0.0047331755
92	0xb9c66eff	-0.00037848201
93	0xbbb28b13	-0.005448708
94	0x3b5dbba7	0.0033833773
95	0x3c547233	0.01296668
96	0xbc409dcf	-0.0117563745
97	0xbbd1f61f	-0.0064075137
98	0xbb0fffe3	-0.0021972589
99	0xbad68307	-0.0016365953
100	0xbb65073b	-0.0034946937
101	0x3c14e93a	0.009088809
102	0xbacf4eea	-0.0015816365
103	0x3bad8a07	0.005295995
104	0xbc6fb973	-0.014631617
105	0x3aacf247	0.0013194763
106	0xbcc8f29a	-0.024529744
107	0xbb2ed61f	-0.002667792
108	0xbc0b09cb	-0.008486222
109	0x3ba1dfb8	0.0049399994
110	0x3c0255e7	0.007955051
111	0x3b08dde8	0.002088422
112	0x3b01c1ff	0.0019799469
113	0x3c206020	0.009788543
114	0x3c2778af	0.010221644
115	0x3b988bd1	0.0046553393
116	0x3b9f2dbf	0.0048577483
117	0x3b1bf07b	0.002379446
118	0x3aed9eeb	0.0018129026
119	0x3afe9b13	0.0019424878
120	0xbbbd38ef	-0.0057746093
121	0xbafb10ca	-0.0019154784
122	0xbb15e83c	-0.0022874018
123	0x3b6f4d05	0.0036514413
124	0x3ba9da87	0.005183521
125	0x3bb16fde	0.005414947
126	0xbb0cea33	-0.0021501898
127	0x3b310ed6	0.00270169

exp_avg f4 [128, 6]
0	0x38c08df4	9.181714e-05
1	0xb4302ad8	-1.6406864e-07
2	0x37a4b071	1.9632485e-05
3	0x389b384e	7.4014635e-05
4	0x00000000	0.0
5	0x389dcf05	7.524904e-05
6	0xb7ba6ce5	-2.2223636e-05
7	0x331b19ab	3.6112095e-08
8	0xb6a11148	-4.8001857e-06
9	0xb7908d58	-1.7231956e-05
10	0x00000000	0.0
11	0xb792f0d4	-1.75167e-05
12	0x3773f6ee	1.45414215e-05
13	0xb2754256	-1.427596e-08
14	0xb5fa6690	-1.8656301e-06
15	0x37ff8b10	3.0463125e-05
16	0x00000000	0.0
17	0x37f7b4b7	2.9528846e-05
18	0xb807b559	-3.23554e-05
19	0x333896ed	4.2978105e-08
20	0xb4a1aee2	-3.011583e-07
21	0xb8285c03	-4.0140014e-05
22	0x00000000	0.0
23	0xb82744d4	-3.9880004e-05
24	0x39270872	0.00015929507
25	0xb4b14ee0	-3.3026208e-07
26	0x383abcbc	4.452163e-05
27	0xb811d0ff	-3.4765337e-05
28	0x00000000	0.0
29	0xb8b17f0c	-8.463682e-05
30	0xb7564999	-1.277253e-05
31	0x32fa4bf6	2.9138373e-08
32	0xb7010f5d	-7.692576e-06
33	0x36e49e98	6.8133922e-06
34	0x00000000	0.0
35	0xb5b652b8	-1.3584131e-06
36	0xb81cb4cf	-3.736169e-05
37	0x341258f3	1.3629669e-07
38	0xb84b6109	-4.8489343e-05
39	0x38ef4e26	0.00011410964
40	0x00000000	0.0
41	0x390c0676	0.00013353847
42	0x36192860	2.2822278e-06
43	0xb13318c0	-2.6061997e-09
44	0xb7317a3c	-1.0578482e-05
45	0x37733a9c	1.4497575e-05
46	0x00000000	0.0
47	0x3779c188	1.4886617e-05
48	0xb84e6a24	-4.921308e-05
49	0x34344c06	1.6791464e-07
50	0xb87e9234	-6.069448e-05
51	0x3901fdde	0.00012396972
52	0x00000000	0.0
53	0x391b8153	0.00014830129
54	0xb650ec56	-3.113198e-06
55	0x31d52b34	6.2040275e-09
56	0xb59cb729	-1.1676212e-06
57	0xb6617f76	-3.3601805e-06
58	0x00000000	0.0
59	0xb66624e1	-3.4294137e-06
60	0xb97219bd	-0.00023088507
61	0x34e69a55	4.295313e-07
62	0xb86a8af7	-5.591937e-05
63	0xb924c157	-0.00015712283
64	0x00000000	0.0
65	0xb91a4fac	-0.00014716265
66	0xb7ff5c84	-3.044145e-05
67	0x322447d2	9.562386e-09
68	0x37229382	9.690297e-06
69	0xb8e19eb9	-0.000107584005
70	0x00000000	0.0
71	0xb8cd3330	-9.784696e-05
72	0xb796b086	-1.7963594e-05
73	0x32e8ff7a	2.7124532e-08
74	0xb5b09de2	-1.3158972e-06
75	0xb7a3b316	-1.9514508e-05
76	0x00000000	0.0
77	0xb79b7acf	-1.8534627e-05
78	0x3784e668	1.5842917e-05
79	0xb2eb7380	-2.7410124e-08
80	0x35f427d4	1.8191008e-06
81	0x37769afd	1.4698829e-05
82	0x00000000	0.0
83	0x37691c6e	1.38945015e-05
84	0x3660d44a	3.350217e-06
85	0xb1e49abe	-6.6532655e-09
86	0x33fec414	1.1863463e-07
87	0x3671a256	3.600629e-06
88	0x00000000	0.0
89	0x36a3bc49	4.879698e-06
90	0x38553f97	5.084238e-05
91	0xb3a21b93	-7.5487286e-08
92	0xb68445ab	-3.942017e-06
93	0x384630be	4.7252273e-05
94	0x00000000	0.0
95	0x3833b8e0	4.2849104e-05
96	0x354263d0	7.241588e-07
97	0x30c2a898	1.4163275e-09
98	0xb5289498	-6.280111e-07
99	0x37879b5d	1.61656e-05
100	0x00000000	0.0
101	0x37b259a7	2.1261001e-05
102	0xb923e5b4	-0.00015630462
103	0x3489fd38	2.570248e-07
104	0xb7d9f82b	-2.5983978e-05
105	0xb91bec53	-0.0001486999
106	0x00000000	0.0
107	0xb91a926f	-0.00014741135
108	0xb7df1fea	-2.6598533e-05
109	0x338a3bb8	6.4369885e-08
110	0xb77c9168	-1.50542255e-05
111	0xb7cf5c84	-2.4719404e-05
112	0x00000000	0.0
113	0xb7ff4aaa	-3.0433137e-05
114	0xb8da8cac	-0.00010421252
115	0x340bbd67	1.3014288e-07
116	0x36e67b64	6.8688987e-06
117	0xb93882f2	-0.00017596388
118	0x00000000	0.0
119	0xb92c40c8	-0.00016427331
120	0x3639a17d	2.7661147e-06
121	0xb2817c40	-1.5074079e-08
122	0x372c82d6	1.02824615e-05
123	0xb8066580	-3.204262e-05
124	0x00000000	0.0
125	0xb85a708e	-5.2080075e-05
126	0xb7bf377b	-2.279481e-05
127	0x338557b8	6.209251e-08
128	0xb691ee2f	-4.349065e-06
129	0x370ca2c8	8.382551e-06
130	0x00000000	0.0
131	0x33694880	5.431548e-08
132	0x3753012a	1.2576851e-05
133	0xb31c1e45	-3.634911e-08
134	0x3721fc99	9.65516e-06
135	0xb803cff2	-3.1426498e-05
136	0x00000000	0.0
137	0xb82e88ad	-4.1612122e-05
138	0xb8a1b870	-7.7114324e-05
139	0x33d9cddc	1.01422955e-07
140	0xb697355c	-4.5063625e-06
141	0xb9036793	-0.00012531718
142	0x00000000	0.0
143	0xb90041e6	-0.0001223158
144	0xb8151452	-3.5543293e-05
145	0x33897fe1	6.402821e-08
146	0xb7861b5f	-1.598679e-05
147	0xb81bf779	-3.7185357e-05
148	0x00000000	0.0
149	0xb81dd685	-3.7631504e-05
150	0xb85351c6	-5.0382478e-05
151	0x33b8afd6	8.600152e-08
152	0xb74cc1bc	-1.2204455e-05
153	0xb7abb298	-2.0467953e-05
154	0x00000000	0.0
155	0x3704b399	7.909629e-06
156	0xb7f40e84	-2.9093826e-05
157	0x3343a060	4.5547836e-08
158	0xb61c729f	-2.331253e-06
159	0xb7fe844e	-3.0340769e-05
160	0x00000000	0.0
161	0xb7f881ee	-2.9624407e-05
162	0xb8964fd5	-7.167427e-05
163	0x340221bf	1.211947e-07
164	0xb77bc638	-1.5006917e-05
165	0xb8b2b88d	-8.522077e-05
166	0x00000000	0.0
167	0xb897c836	-7.237533e-05
168	0x364d1576	3.0559872e-06
169	0x31ee18d9	6.9295365e-09
170	0x356f7214	8.9200444e-07
171	0x37c01500	2.2897962e-05
172	0x00000000	0.0
173	0x37b3bcfa	2.1426462e-05
174	0x386e59da	5.6827303e-05
175	0xb4428330	-1.8115384e-07
176	0x38791334	5.938411e-05
177	0xb8e87139	-0.000110837114
178	0x00000000	0.0
179	0xb901d09b	-0.0001238011
180	0x35542be8	7.9040046e-07
181	0x31b85d2e	5.365698e-09
182	0xb6ccb33b	-6.100539e-06
183	0x36348247	2.6897922e-06
184	0x00000000	0.0
185	0x364738bc	2.9686335e-06
186	0xb824c79e	-3.9286555e-05
187	0x3385b8c8	6.2269066e-08
188	0xb702332d	-7.760519e-06
189	0xb821ea44	-3.8603568e-05
190	0x00000000	0.0
191	0xb81ea768	-3.7826045e-05
192	0xb8115464	-3.464929e-05
193	0x336b213a	5.474542e-08
194	0xb6b874cd	-5.4972247e-06
195	0xb809639e	-3.275612e-05
196	0x00000000	0.0
197	0xb807b6ef	-3.235688e-05
198	0xb901830c	-0.00012351217
199	0x347fe1b2	2.3830833e-07
200	0xb82b221c	-4.0801344e-05
201	0xb89728bc	-7.2078285e-05
202	0x00000000	0.0
203	0xb889ea32	-6.576291e-05
204	0x379c2ecc	1.861844e-05
205	0xb32b08ac	-3.9821927e-08
206	0x369ca1df	4.6680066e-06
207	0xb3250700	-3.8423423e-08
208	0x00000000	0.0
209	0x359d2078	1.1706861e-06
210	0x38d649a4	0.00010218032
211	0xb44052fc	-1.7911583e-07
212	0x37b4dbe3	2.1560065e-05
213	0x38b5c48a	8.667361e-05
214	0x00000000	0.0
215	0x38b93db0	8.8329776e-05
216	0xb6fb7ebc	-7.4951367e-06
217	0xb23e9480	-1.1093221e-08
218	0x37063ff5	8.001914e-06
219	0xb8619cd1	-5.3790227e-05
220	0x00000000	0.0
221	0xb85f6aba	-5.326674e-05
222	0xb7ac8303	-2.0565005e-05
223	0x33a519e8	7.6881236e-08
224	0xb7955a11	-1.7804125e-05
225	0x372da304	1.0349559e-05
226	0x00000000	0.0
227	0xb69f8b72	-4.754803e-06
228	0x35a4ced2	1.2279145e-06
229	0xb2bb678b	-2.1816751e-08
230	0x3641d1e8	2.8881423e-06
231	0x3678dd5d	3.708373e-06
232	0x00000000	0.0
233	0x37ed8e74	2.8318937e-05
234	0xb88c1792	-6.6801105e-05
235	0x3417bb75	1.4131167e-07
236	0xb7d8000a	-2.5749225e-05
237	0xb7114a86	-8.660025e-06
238	0x00000000	0.0
239	0xb54383e0	-7.2835064e-07
240	0x38241cc1	3.9127426e-05
241	0xb384a2ce	-6.176343e-08
242	0x369d131b	4.681189e-06
243	0x382397a7	3.9003466e-05
244	0x00000000	0.0
245	0x381a5423	3.679482e-05
246	0xb8961a96	-7.1575094e-05
247	0x33feb006	1.1859815e-07
248	0xb7adb497	-2.07073e-05
249	0xb7e8a9c1	-2.7735603e-05
250	0x00000000	0.0
251	0x368d4c86	4.211036e-06
252	0xb8743564	-5.8223857e-05
253	0x346456e7	2.126577e-07
254	0xb8a4c599	-7.856935e-05
255	0x392d0525	0.00016500482

exp_avg_sq f4 [128, 6]
0	0x32b3f857	2.0951274e-08
1	0x2960f846	4.9953334e-14
2	0x30dd91b5	1.6121279e-09
3	0x3241c3c0	1.1278587e-08
4	0x00000000	0.0
5	0x324660a9	1.1547095e-08
6	0x314a0cfd	2.9402252e-09
7	0x27de08f8	6.16271e-15
8	0x309e3da3	1.1513531e-09
9	0x30da7c58	1.5896928e-09
10	0x00000000	0.0
11	0x3107acd6	1.9743331e-09
12	0x3139ee24	2.705641e-09
13	0x283c19d3	1.0441696e-14
14	0x314ef8c5	3.0118354e-09
15	0x3111d8e8	2.1223574e-09
16	0x00000000	0.0
17	0x31452ba1	2.8692073e-09
18	0x32aa0596	1.9793145e-08
19	0x2905cc83	2.9709318e-14
20	0x323bae0c	1.0924406e-08
21	0x31ddb8a2	6.452937e-09
22	0x00000000	0.0
23	0x320f6062	8.34561e-09
24	0x35293810	6.303899e-07
25	0x2bb37728	1.2751787e-12
26	0x34b7b91c	3.422109e-07
27	0x3498af05	2.843955e-07
28	0x00000000	0.0
29	0x34b1c066	3.3108807e-07
30	0x311250fe	2.1291835e-09
31	0x2802c44b	7.259014e-15
32	0x31129af6	2.1333881e-09
33	0x30e6eea6	1.680253e-09
34	0x00000000	0.0
35	0x313a5d1d	2.711949e-09
36	0x338d6636	6.584416e-08
37	0x2a61c46d	2.0052163e-13
38	0x33e28f5a	1.05500206e-07
39	0x338806ee	6.334254e-08
40	0x00000000	0.0
41	0x33a9690a	7.888782e-08
42	0x3434d304	1.6840573e-07
43	0x2a91bc3d	2.588779e-13
44	0x32a1df95	1.884454e-08
45	0x338460de	6.164349e-08
46	0x00000000	0.0
47	0x338abe6a	6.460762e-08
48	0x33470518	4.633793e-08
49	0x2a296bd8	1.5047631e-13
50	0x33842db1	6.15504e-08
51	0x333125b2	4.1245308e-08
52	0x00000000	0.0
53	0x3370cde7	5.606662e-08
54	0x314053b5	2.798726e-09
55	0x2817db8a	8.429789e-15
56	0x309d8406	1.1460777e-09
57	0x30af01e4	1.2733463e-09
58	0x00000000	0.0
59	0x30f379f2	1.7715236e-09
60	0x34c33fa6	3.636789e-07
61	0x2b23e898	5.823202e-13
62	0x32baeec4	2.1761828e-08
63	0x3415c86d	1.3949621e-07
64	0x00000000	0.0
65	0x341abdc6	1.4411407e-07
66	0x33bed924	8.887062e-08
67	0x2a5ca2fe	1.9596475e-13
68	0x33f186c7	1.1246953e-07
69	0x33345206	4.1984116e-08
70	0x00000000	0.0
71	0x33823a78	6.064232e-08
72	0x3166b4c4	3.3572158e-09
73	0x280935e0	7.61671e-15
74	0x309e5689	1.1520608e-09
75	0x30f3af53	1.7730407e-09
76	0x00000000	0.0
77	0x3120ea5b	2.341628e-09
78	0x31eeed3a	6.953681e-09
79	0x288fe4ef	1.5975473e-14
80	0x3153d64e	3.082636e-09
81	0x316cccf3	3.445902e-09
82	0x00000000	0.0
83	0x31a762de	4.8715796e-09
84	0x310660e1	1.9554636e-09
85	0x27663f31	3.1953168e-15
86	0x3039cc6a	6.75931e-10
87	0x304cd70d	7.4520373e-10
88	0x00000000	0.0
89	0x30900f4f	1.048173e-09
90	0x328da9e8	1.6491825e-08
91	0x293b9c09	4.165768e-14
92	0x3282f362	1.524467e-08
93	0x320bc3f0	8.135416e-09
94	0x00000000	0.0
95	0x32429e1f	1.1328239e-08
96	0x31d16de5	6.095194e-09
97	0x290f6214	3.1837448e-14
98	0x32c82e5a	2.3304143e-08
99	0x32020664	7.568449e-09
100	0x00000000	0.0
101	0x32480552	1.1642742e-08
102	0x33abcc7e	8.000005e-08
103	0x2a3088ba	1.5679377e-13
104	0x326d9c5f	1.383077e-08
105	0x331c70c5	3.6424144e-08
106	0x00000000	0.0
107	0x332516c5	3.8437765e-08
108	0x33363e19	4.2431655e-08
109	0x29cc8d94	9.08398e-14
110	0x338e017c	6.61266e-08
111	0x32a3e3eb	1.9079343e-08
112	0x00000000	0.0
113	0x330165f7	3.012789e-08
114	0x344a839b	1.8860594e-07
115	0x2ab4effe	3.214095e-13
116	0x33fda5a5	1.1811361e-07
117	0x33b80636	8.5692974e-08
118	0x00000000	0.0
119	0x33dc6679	1.0263188e-07
120	0x31f0fd09	7.013686e-09
121	0x29676b29	5.138525e-14
122	0x332692ec	3.878351e-08
123	0x326d8c06	1.3827053e-08
124	0x00000000	0.0
125	0x32bcf4c8	2.1997394e-08
126	0x33876239	6.304294e-08
127	0x2a2742b7	1.4855726e-13
128	0x33ccbe3d	9.5340944e-08
129	0x32f54b9d	2.8556139e-08
130	0x00000000	0.0
131	0x33643f2d	5.3142845e-08
132	0x31837667	3.8260626e-09
133	0x28acc7f1	1.9182547e-14
134	0x321d0667	9.1400585e-09
135	0x31b98d7a	5.4002927e-09
136	0x00000000	0.0
137	0x31f16b9e	7.026258e-09
138	0x34157069	1.3917601e-07
139	0x2a73fc8b	2.1670354e-13
140	0x335ae0a1	5.096138e-08
141	0x33501e13	4.8456126e-08
142	0x00000000	0.0
143	0x3374bb66	5.6981115e-08
144	0x32ab7f37	1.996487e-08
145	0x2901a262	2.87846e-14
146	0x328ce80d	1.640367e-08
147	0x31b2d88e	5.2051012e-09
148	0x00000000	0.0
149	0x32052ef9	7.752299e-09
150	0x33fb000c	1.1688107e-07
151	0x2a8c47db	2.4918855e-13
152	0x342f488d	1.6324539e-07
153	0x33752561	5.7077504e-08
154	0x00000000	0.0
155	0x33b25b3d	8.305367e-08
156	0x32950551	1.73483e-08
157	0x28d582b2	2.370443e-14
158	0x32572392	1.2522735e-08
159	0x31a0fbbd	4.685232e-09
160	0x00000000	0.0
161	0x31d48b2b	6.1858336e-09
162	0x32fe5c8d	2.9611579e-08
163	0x299122a5	6.4453034e-14
164	0x328b1c78	1.6194676e-08
165	0x32950628	1.7348682e-08
166	0x00000000	0.0
167	0x32a7720e	1.9493225e-08
168	0x32c7c3d4	2.3255701e-08
169	0x298a55a8	6.14329e-14
170	0x332869bd	3.9211717e-08
171	0x326d0760	1.37968925e-08
172	0x00000000	0.0
173	0x32bde00a	2.2104377e-08
174	0x32f34e1a	2.832444e-08
175	0x2a1f3194	1.4139238e-13
176	0x338b1636	6.476732e-08
177	0x33306944	4.1073932e-08
178	0x00000000	0.0
179	0x336a4f63	5.4554572e-08
180	0x332162a1	3.7575436e-08
181	0x29a21421	7.197737e-14
182	0x3325bb7f	3.8587583e-08
183	0x324aefea	1.1812498e-08
184	0x00000000	0.0
185	0x32e35ed3	2.64694e-08
186	0x329fe889	1.8615781e-08
187	0x293a81c6	4.1412857e-14
188	0x311a9723	2.249586e-09
189	0x320e3bb1	8.27906e-09
190	0x00000000	0.0
191	0x3211a243	8.477005e-09
192	0x32e0df09	2.6178457e-08
193	0x296d9a31	5.275831e-14
194	0x32e11759	2.6204065e-08
195	0x3230da93	1.0294246e-08
196	0x00000000	0.0
197	0x328439a1	1.5393029e-08
198	0x33db3d7d	1.0209167e-07
199	0x2a2ae0b0	1.5176987e-13
200	0x3344430b	4.569578e-08
201	0x331c1be0	3.6346933e-08
202	0x00000000	0.0
203	0x3340676a	4.4797538e-08
204	0x327a2f87	1.4562722e-08
205	0x2913453f	3.270062e-14
206	0x323b0daa	1.0887939e-08
207	0x31e1c6f1	6.570979e-09
208	0x00000000	0.0
209	0x32251bc3	9.610576e-09
210	0x337052ec	5.595477e-08
211	0x2a153331	1.3251619e-13
212	0x32328833	1.0391932e-08
213	0x32ff4a24	2.9719622e-08
214	0x00000000	0.0
215	0x33075ee4	3.151844e-08
216	0x332d9f4a	4.0424574e-08
217	0x29ab4665	7.606137e-14
218	0x32ecd1e9	2.7569472e-08
219	0x329b6b41	1.8093148e-08
220	0x00000000	0.0
221	0x32b8cfb3	2.151487e-08
222	0x33118796	3.3883758e-08
223	0x2a010fd4	1.1462993e-13
224	0x33b63e56	8.486374e-08
225	0x32cb634c	2.3677465e-08
226	0x00000000	0.0
227	0x3327a002	3.9028244e-08
228	0x339a7bc7	7.193699e-08
229	0x2a467bc3	1.7628871e-13
230	0x340d2050	1.3143404e-07
231	0x333197b0	4.1348983e-08
232	0x00000000	0.0
233	0x33805fd8	5.977898e-08
234	0x32d147a6	2.4363384e-08
235	0x2954a849	4.721942e-14
236	0x323d6cd0	1.1025989e-08
237	0x3224258c	9.554594e-09
238	0x00000000	0.0
239	0x324a8d45	1.17900685e-08
240	0x31b275f8	5.1938933e-09
241	0x288aa982	1.539459e-14
242	0x31852127	3.8745784e-09
243	0x31629f6f	3.2977956e-09
244	0x00000000	0.0
245	0x3192fe3c	4.2780623e-09
246	0x340d6988	1.317004e-07
247	0x2a830b35	2.327805e-13
248	0x33c734a4	9.276235e-08
249	0x33899396	6.4064054e-08
250	0x00000000	0.0
251	0x33a5b6c4	7.716656e-08
252	0x335af1ad	5.0976883e-08
253	0x2a8282a3	2.3183286e-13
254	0x33c233d2	9.043255e-08
255	0x33ae64e6	8.12086e-08

exp_avg f4 [128]
0	0x382c0a5f	4.1017654e-05
1	0xb7177792	-9.028141e-06
2	0x366f8254	3.5689636e-06
3	0xb73443ef	-1.0744653e-05
4	0x38ad27ed	8.2567196e-05
5	0xb6f46f7a	-7.2847442e-06
6	0xb80eeb9c	-3.4074867e-05
7	0x352eed40	6.5165295e-07
8	0xb8301318	-4.1979452e-05
9	0xb5d02c74	-1.5510145e-06
10	0xb8e13385	-0.00010738432
11	0xb6206905	-2.3902987e-06
12	0xb6e38a32	-6.7812152e-06
13	0x36e5ef81	6.8526138e-06
14	0x35df3fc0	1.6633348e-06
15	0x379e4f94	1.8872124e-05
16	0xb4be1f58	-3.5413063e-07
17	0xb886c1ac	-6.425692e-05
18	0xb786fe8f	-1.6092583e-05
19	0xb8087724	-3.2535885e-05
20	0x367ce801	3.768597e-06
21	0xb7823862	-1.5523463e-05
22	0x37187681	9.087497e-06
23	0xb7d4b32e	-2.5355806e-05
24	0xb786471a	-1.6007154e-05
25	0xb7b45c40	-2.150063e-05
26	0xb73f0b2b	-1.1387087e-05
27	0xb7fe2a5a	-3.0298881e-05
28	0xb5e88846	-1.7325008e-06
29	0x383df50e	4.5289336e-05
30	0xb5b40aae	-1.3414153e-06
31	0xb78296c8	-1.556742e-05
32	0xb7659f16	-1.3686504e-05
33	0xb879e334	-5.9577826e-05
34	0x3727075a	9.955687e-06
35	0x383bd19c	4.477949e-05
36	0x363a2098	2.7735132e-06
37	0xb7a13be7	-1.922059e-05
38	0x36b70441	5.45432e-06
39	0xb8142da3	-3.5328452e-05
40	0x3781875a	1.5441026e-05
41	0xb7f8b8c5	-2.9649944e-05
42	0xb85efdfd	-5.316547e-05
43	0x3519b71c	5.72634e-07
44	0x379a0c84	1.8364059e-05
45	0xb7af2da1	-2.0882873e-05
46	0xb7a7cb21	-2.000254e-05
47	0xb6b17dce	-5.2896567e-06
48	0x37d82cd8	2.5770089e-05
49	0x3824e194	3.9310733e-05
50	0xb724e9b4	-9.829575e-06
51	0xb797619c	-1.8046056e-05
52	0x37b7759b	2.1870064e-05
53	0xb724ba34	-9.8185155e-06
54	0xb75f9666	-1.3326853e-05
55	0x37b4a7ac	2.153575e-05
56	0x37515082	1.2476115e-05
57	0xb612f145	-2.1896133e-06
58	0xb777cd90	-1.47702085e-05
59	0xb72b7f7e	-1.0222078e-05
60	0xb82d3c6a	-4.130268e-05
61	0xb84e4f1f	-4.9187915e-05
62	0xb758ceb8	-1.2922734e-05
63	0x37b96410	2.2100314e-05
64	0x3742c3a7	1.1608855e-05
65	0xb73eca7c	-1.1372027e-05
66	0xb84b5938	-4.8482063e-05
67	0x3876ff2d	5.888862e-05
68	0xb703e75f	-7.862079e-06
69	0xb900470a	-0.00012233495
70	0xb6b62a2c	-5.428932e-06
71	0x3776ef22	1.471842e-05
72	0x37b04026	2.1010706e-05
73	0x38752ea1	5.845598e-05
74	0x3769c720	1.3934245e-05
75	0xb58b98a3	-1.040073e-06
76	0x371fa495	9.515458e-06
77	0xb718b566	-9.102141e-06
78	0xb88829c1	-6.4927626e-05
79	0x37b3f14a	2.1450822e-05
80	0xb6ea72e6	-6.9871194e-06
81	0xb85e6bf7	-5.3029475e-05
82	0x3834a53e	4.3069238e-05
83	0xb7a752f5	-1.9946581e-05
84	0xb803a7a0	-3.1388947e-05
85	0xb5921f95	-1.0887039e-06
86	0xb58e2fb8	-1.0593712e-06
87	0x3685f969	3.992744e-06
88	0x37ad4585	2.065558e-05
89	0xb7c0528c	-2.2926622e-05
90	0xb85b4133	-5.227439e-05
91	0x37ab2596	2.040229e-05
92	0xb73a5447	-1.1106086e-05
93	0x379e93ff	1.8903984e-05
94	0xb81ab73b	-3.6887108e-05
95	0x3809043e	3.2667296e-05
96	0x35b60699	1.3561977e-06
97	0xb5b3eece	-1.3406041e-06
98	0xb7051332	-7.931887e-06
99	0xb89689ec	-7.178247e-05
100	0xb64a8585	-3.0178064e-06
101	0xb846d273	-4.7402875e-05
102	0xb899f3a7	-7.340992e-05
103	0x37db5fdd	2.6151474e-05
104	0x38864653	6.402717e-05
105	0xb8a7ef4b	-8.007752e-05
106	0x3699f480	4.588219e-06
107	0x37ce06ae	2.4560224e-05
108	0x37ad0c35	2.0628891e-05
109	0xb8a628bf	-7.9230864e-05
110	0x3885051c	6.342886e-05
111	0x358dc502	1.0562655e-06
112	0x37dd0a66	2.6350095e-05
113	0x37abac04	2.046489e-05
114	0xb88c6dcb	-6.696171e-05
115	0xb79f8d14	-1.9019972e-05
116	0xb85f9d48	-5.3313823e-05
117	0xb8bf832a	-9.132021e-05
118	0xb6d83356	-6.443278e-06
119	0xb6f9fd6b	-7.45028e-06
120	0xb78b0f34	-1.657717e-05
121	0xb76fe4de	-1.4298797e-05
122	0xb7b606f6	-2.1699332e-05
123	0xb663fe5a	-3.3973688e-06
124	0xb81ab822	-3.688795e-05
125	0x361cc441	2.3360046e-06
126	0xb73ca86b	-1.1244886e-05
127	0xb652449c	-3.1332374e-06
