V3/Articulation/results/PremiersTestWalk/AgentWalk/AgentWalk-425503.onnx (onnx, 95702 bytes, 8 tensors)

network_body._body_endoder.seq_layers.0.weight f4 [128, 39]
0	0x3e966720	0.29375553
1	0x3b710030	0.0036773793
2	0xbe05a6c7	-0.13051902
3	0xbdaef256	-0.08542316
4	0x3d15de32	0.036588855
5	0x3e31f962	0.17380288
6	0xbd605296	-0.05476626
7	0x3e32d09a	0.17462388
8	0x3d5acbf7	0.053417172
9	0xbdc556ed	-0.096357204
10	0x3dc0c25e	0.094120726
11	0x3e78408f	0.24243377
12	0xbdc82c82	-0.09774114
13	0xbe2b3cce	-0.16722414
14	0xbe5b68f3	-0.21426754
15	0x3d2424ee	0.04007428
16	0x3e3eb5b5	0.18624003
17	0x3c5402ef	0.012940153
18	0x3e2845f9	0.16432942
19	0xbeb20262	-0.34767443
20	0xbe49bc44	-0.19700724
21	0x3d9de266	0.07709198
22	0x3ce8fd00	0.028440952
23	0xbe3cc643	-0.18435006
24	0xbe850fbc	-0.25988567
25	0x3dbe668a	0.092969015
26	0x3e4f461c	0.20241588
27	0x3e04d649	0.12972368
28	0x3d0a2f5e	0.03373658
29	0xbdec1bc3	-0.11528733
30	0x3d482de9	0.04887191
31	0x3cf70af2	0.030156586
32	0xbe03ab3b	-0.12858288
33	0xbec4ea59	-0.38460043
34	0x3e311aba	0.17295352
35	0x3de049bb	0.10951563
36	0xbe0ea5e0	-0.13930464
37	0x3d5e334f	0.05424815
38	0x3cb898c8	0.02253379
39	0xbe7e4170	-0.2482965
40	0x3d8fb39f	0.07016682
41	0x3da309c8	0.0796085
42	0x3e1fb106	0.15594873
43	0xbe0101f0	-0.12598395
44	0xbc6c9b0c	-0.014441263
45	0x3e7911ff	0.24323271
46	0xbe027bef	-0.1274259
47	0x3e0a587e	0.1351032
48	0x3d572ad0	0.052531064
49	0x3dd12f74	0.10214129
50	0xbe43692e	-0.19083092
51	0xbe2a1dcf	-0.16612934
52	0xbd846a3b	-0.06465574
53	0xbe80f0b2	-0.25183636
54	0xbd7850fa	-0.0606241
55	0x3e93e5cf	0.28886268
56	0x3e2cb971	0.16867615
57	0x3d5e2357	0.05423292
58	0x3df5a5bf	0.11994504
59	0xbe01f50d	-0.12691136
60	0xbdbc83f8	-0.092048585
61	0xbdd22b84	-0.10262206
62	0xbd86c060	-0.06579661
63	0xbe80373c	-0.2504214
64	0x3d8c6da1	0.068568476
65	0xbdda6607	-0.106639914
66	0x3a600d94	0.0008546945
67	0xbdf765a8	-0.12079936
68	0xbd9bfa55	-0.076161064
69	0x3e8a13aa	0.26968127
70	0xbd46d73f	-0.04854512
71	0x3d528e30	0.05140513
72	0xbdbeee7a	-0.093228295
73	0x3d8a01c1	0.06738616
74	0xbc0fd91e	-0.008779792
75	0x3e5a3b96	0.21311793
76	0xbc1411e1	-0.009037466
77	0xbdae28ee	-0.085039005
78	0x3d87e447	0.06635337
79	0x3dc57cd8	0.09642953
80	0x3d0fba61	0.035089854
81	0xbe325eef	-0.17419027
82	0x3e529f0c	0.20568484
83	0x3d9258c2	0.071458355
84	0xbd66a843	-0.05631281
85	0xbc050c60	-0.008120626
86	0x3dc4519b	0.095858775
87	0x3d638f5c	0.05555664
88	0xbde1487c	-0.110001534
89	0xbe6e03fa	-0.23243704
90	0x3d995f63	0.07488897
91	0xbdf1fc3a	-0.118156865
92	0x3e1d737a	0.15376082
93	0x3dcb3606	0.099224135
94	0xbe7e8dd9	-0.24858798
95	0xbdfa9162	-0.12234761
96	0x3d0f1b08	0.03493789
97	0x3d1ca7d5	0.038245995
98	0xbe71c5e6	-0.23610649
99	0x3e0f8bbc	0.14018148
100	0x3d4cbf34	0.049987033
101	0x3e114992	0.14188221
102	0x3d968307	0.0734921
103	0xbe86a806	-0.26300067
104	0x3f001e3e	0.50046146
105	0xbd8964a6	-0.0670865
106	0x3caf9cc2	0.021437053
107	0xbe2dbc63	-0.16966395
108	0x3d8b28dc	0.06794903
109	0xbcd92dc9	-0.02651109
110	0x3e34cfea	0.17657438
111	0xbd8442c9	-0.06458051
112	0x3ea91cde	0.33029836
113	0xbdeb30d0	-0.114839196
114	0x3d83d0b0	0.06436288
115	0x3e1d07cc	0.15335006
116	0x3cd45594	0.025919713
117	0xba130ee6	-0.0005609825
118	0xbc51ec18	-0.012812637
119	0xbe643972	-0.22287539
120	0x3e181cff	0.14854811
121	0xbe315f72	-0.17321566
122	0xbe83ce2f	-0.25743243
123	0x3c454592	0.012040513
124	0xbde09ef0	-0.10967815
125	0x3d93cf64	0.07217291
126	0xbe3b42ef	-0.18287252
127	0xbe064412	-0.13111904
128	0x3e47af0a	0.19500366
129	0xbcda11c7	-0.026619805
130	0xbdc66830	-0.09687841
131	0x3dea6f24	0.1144698
132	0xbd0dd3b6	-0.03462573
133	0xbe725522	-0.23665288
134	0xbea1162e	-0.31462234
135	0xbe1e1d23	-0.15440802
136	0xbe23f840	-0.16012669
137	0xbe9f58d0	-0.31122446
138	0x3e237122	0.15961125
139	0x3dd4c02a	0.10388215
140	0x3e1b2fae	0.15154907
141	0x3df0b45f	0.11753153
142	0x3cfebd65	0.03109617
143	0x3e2f55d1	0.1712258
144	0x3e38c8ac	0.180453
145	0x3d90c5cd	0.070689775
146	0xbdfa69e7	-0.122272305
147	0x3d1a5598	0.037679285
148	0xbeb1f758	-0.3475902
149	0x3c11ced3	0.008899408
150	0x3e419255	0.18903477
151	0xbe959dd7	-0.29221985
152	0xbdc9421b	-0.09827062
153	0xbbd05d3d	-0.006358771
154	0xbe1c112a	-0.15240923
155	0x3e18146a	0.14851537
156	0xbe76fe63	-0.24120478
157	0xbebeea5b	-0.37288174
158	0x3cf12625	0.029437134
159	0x3ec10af7	0.37703678
160	0xbdaefd40	-0.08544397
161	0x3e4ef6ef	0.20211385
162	0xbec4742c	-0.38369882
163	0x3e302521	0.17201664
164	0xbe7d0fce	-0.2471306
165	0xbcedb23d	-0.029015655
166	0xbe36ff6d	-0.17870875
167	0x3e0278cf	0.12741397
168	0xbe03b952	-0.12863663
169	0x3d0d71c2	0.034532316
170	0x3ca53d8f	0.020170955
171	0x3de84fc9	0.11343343
172	0x3cd6cbd4	0.02622024
173	0xbd6f38d1	-0.058403794
174	0xbd0ecfb9	-0.03486607
175	0xbeacbbe8	-0.3373711
176	0xbe05c7f0	-0.13064551
177	0x3e604590	0.21901536
178	0xbe68d659	-0.22738017
179	0x3dbb1ed9	0.09136743
180	0x3c9a8cc3	0.018865949
181	0x3ce18b8a	0.027532358
182	0xbdddaa64	-0.10823515
183	0x3e4ad27f	0.1980686
184	0x3e708b90	0.23490739
185	0xbe403d6a	-0.18773428
186	0x3c4ca087	0.012489445
187	0x3e3e9c6f	0.18614362
188	0x3db1da4e	0.086842164
189	0xbe1181d9	-0.14209689
190	0x3e273be4	0.1633144
191	0x3ddeaf10	0.10873234
192	0xbebcae1a	-0.3685158
193	0xbe52372d	-0.2052886
194	0x3e9d3e49	0.30711582
195	0x3d4fc833	0.050728034
196	0x3db1509c	0.08657953
197	0x3eb82103	0.35962686
198	0x3d645e97	0.05575427
199	0x3cbc2874	0.022968508
200	0x3ca50eff	0.020148752
201	0xbcb16e43	-0.021659022
202	0x3dc41026	0.095733926
203	0x3e2fb286	0.17157945
204	0x3d0245e8	0.03180495
205	0x3dd399c8	0.10332066
206	0x3cb7567e	0.02238011
207	0xbcbd3fcb	-0.023101708
208	0xbe04d653	-0.12972383
209	0x3e3f55c3	0.18685059
210	0x3e41cc97	0.18925701
211	0xbe154e64	-0.14580685
212	0x3c9ca728	0.019122675
213	0x3da2a138	0.07940906
214	0x3d37637a	0.044772603
215	0x3e4379bb	0.19089405
216	0x3c11b8f5	0.008894195
217	0xbbdd544f	-0.006754435
218	0x3db683ef	0.08911883
219	0x3e922b72	0.2854877
220	0x3e7c7cde	0.24657008
221	0x3ddd3485	0.10801033
222	0x3ede1eb3	0.43382797
223	0xbe646a77	-0.22306238
224	0x3caa86ea	0.020816285
225	0xbdb9355d	-0.09043381
226	0x3dcecdd3	0.100978516
227	0x3e0775a1	0.13228466
228	0x3d7631aa	0.060105957
229	0xbeb75a03	-0.3581086
230	0xbeaf8994	-0.3428465
231	0xbd7fe07e	-0.06246995
232	0x3e7a92f8	0.24470127
233	0xbde32416	-0.11090867
234	0x3e099e22	0.13439229
235	0x3db33614	0.08750549
236	0x3dcf0ca9	0.101098366
237	0xbdc839bc	-0.09776637
238	0x3e05d86b	0.13070838
239	0xbe3c60dd	-0.18396325
240	0xbde29b59	-0.110647865
241	0x3e3c02fc	0.18360513
242	0xbdb2153e	-0.08695458
243	0xbde21a7a	-0.11040206
244	0x3e9c215f	0.3049421
245	0xbdd0f6f4	-0.102033526
246	0x3d04c0cc	0.032410428
247	0x3e3cc684	0.18435103
248	0x3d0df670	0.03465885
249	0x3da19c06	0.07891087
250	0x3e83395b	0.25629696
251	0x3dbf03fb	0.09326931
252	0x3d71e211	0.059053484
253	0x3d9ce11d	0.076601245
254	0xbd12f288	-0.035875827
255	0xbe915075	-0.28381696

network_body._body_endoder.seq_layers.0.bias f4 [128]
0	0xb907311b	-0.00012892896
1	0x3adf7da1	0.001705099
2	0xbb2b6b6b	-0.0026156555
3	0xbaa02b7e	-0.0012219993
4	0xba08b1d1	-0.0005214485
5	0xbbabf4a3	-0.005247669
6	0x390b64b9	0.00013293595
7	0xbad5aa6c	-0.00163014
8	0xbb428071	-0.0029678608
9	0xbb8af934	-0.004241133
10	0x3b0f645c	0.0021879887
11	0x3af60798	0.0018770574
12	0x39e5e57b	0.0004384926
13	0xbbae8cfc	-0.0053268652
14	0xbc1539be	-0.009108005
15	0xb9e8eddd	-0.0004442771
16	0xbb543fe1	-0.0032386708
17	0x3a9d81c3	0.0012016821
18	0x3ba79436	0.0051141037
19	0xba3d6a04	-0.00072255754
20	0x3ae8c9a6	0.0017760291
21	0x3b2004aa	0.0024416842
22	0x3a8e01fd	0.0010834333
23	0xb7826848	-1.5545767e-05
24	0xbb3066c9	-0.0026916733
25	0xbb0476b7	-0.002021236
26	0x3bc26e63	0.0059335693
27	0xb9b9bb1b	-0.00035425354
28	0x3958543a	0.00020630742
29	0xbb049248	-0.0020228792
30	0xbb9968ce	-0.004681683
31	0xbb82dc53	-0.00399355
32	0x3bacb65d	0.005270763
33	0xb6fbe0cf	-7.506554e-06
34	0x3b9f640e	0.0048642224
35	0xba1b4f57	-0.00059246033
36	0xbbcab5db	-0.0061862296
37	0xbba5d9d6	-0.0050613685
38	0xbac2a583	-0.0014850352
39	0x39d10a34	0.00039871188
40	0x3b226ae6	0.0024782955
41	0x3b59193d	0.0033126615
42	0x3beed058	0.00728802
43	0x3bc317ef	0.005953781
44	0xba952fd9	-0.0011382058
45	0xbba9b11d	-0.0051785843
46	0xbb836c90	-0.0040107444
47	0xbbe8fb98	-0.0071100704
48	0xbaae52f1	-0.0013299865
49	0xbb95aa14	-0.004567394
50	0xba00ce0a	-0.0004913515
51	0xbbf74e69	-0.007547189
52	0xbb1ad4d0	-0.0023625381
53	0xbc19ef82	-0.009395482
54	0xbb24ec1a	-0.0025165142
55	0x3bfedadd	0.0077775554
56	0x3a3657d1	0.00069558347
57	0x3b09e2ff	0.0021039841
58	0xb8b62c4e	-8.686689e-05
59	0xbb63d2c4	-0.0034763077
60	0x3bdbdd66	0.0067097424
61	0xbb9b195c	-0.0047332477
62	0xb936d6c3	-0.00017436878
63	0x3b47fcfa	0.0030515776
64	0x3aec1d56	0.0018014114
65	0xba6af406	-0.0008962754
66	0xbb925655	-0.004465858
67	0xbb88ae3c	-0.004171161
68	0xbac19890	-0.0014770199
69	0xbb1c31ec	-0.0023833467
70	0x3afb6e76	0.00191827
71	0x3c18deca	0.009330461
72	0x3b31cb5d	0.002712927
73	0xbbb41d87	-0.005496684
74	0xbade414c	-0.0016956716
75	0xba05f203	-0.000510961
76	0xbb78d8c2	-0.0037970995
77	0xbb52ae67	-0.003214741
78	0xba29932e	-0.000646877
79	0x3b165d1e	0.0022943686
80	0xbafcbd04	-0.0019282405
81	0x3b9af35f	0.004728719
82	0xbaa1da75	-0.001234843
83	0xbb4338ff	-0.002978861
84	0xbaf58df3	-0.0018734321
85	0x3bd532f8	0.00650632
86	0xbb2fde1e	-0.0026835273
87	0xbb48b137	-0.0030623206
88	0x386d153e	5.6524987e-05
89	0x3b99f201	0.0046980386
90	0xbb1cb188	-0.0023909528
91	0xbb66c54f	-0.003521282
92	0xbae13c7e	-0.0017184166
93	0xbb886f84	-0.0041636843
94	0x38bd07e2	9.0136906e-05
95	0x3a7cea94	0.0009647992
96	0xba3646ac	-0.000695328
97	0x3b9fa941	0.0048724716
98	0x3b5bd5d9	0.0033544211
99	0xbb7ffcc9	-0.0039060584
100	0xbc2474b9	-0.0100375945
101	0x3b0b028d	0.0021211237
102	0x3a91083a	0.0011065074
103	0x38df5fc0	0.000106513035
104	0xbb741faf	-0.003725033
105	0xbb14c688	-0.0022701342
106	0x3a851bad	0.0010155343
107	0xb9a64085	-0.00031710058
108	0xbace66c7	-0.0015747183
109	0x3bb869c7	0.005627844
110	0xbbb54139	-0.005531457
111	0x38c03cf8	9.16663e-05
112	0x3a42538c	0.0007412962
113	0xbb0e2522	-0.0021689613
114	0xbb44d618	-0.0030034836
115	0x3a697a36	0.00089064555
116	0xbb4f0daf	-0.003159385
117	0xbba9db4d	-0.0051836134
118	0xbb5bf1a6	-0.0033560782
119	0xbb0cee44	-0.0021504322
120	0xbb3889a1	-0.0028158205
121	0xba0fa04a	-0.0005478902
122	0xbb72c329	-0.0037042594
123	0xbba95122	-0.0051671425
124	0xbba0d6d1	-0.0049084206
125	0x397cc2f6	0.00024105221
126	0xbae797d8	-0.0017669154
127	0x3a31117a	0.00067546184

network_body._body_endoder.seq_layers.2.weight f4 [128, 128]
0	0x3d8719d7	0.065967254
1	0xbd409844	-0.04702021
2	0x3c774305	0.015091662
3	0x3d9142f7	0.07092851
4	0x3d2b8738	0.041877
5	0x3d23560b	0.03987698
6	0x3db15a4e	0.086598024
7	0x3e0553e2	0.1302028
8	0x3dd86c9c	0.105675906
9	0x3dd517b1	0.104049094
10	0xbd851dae	-0.064998016
11	0xbb6c10ec	-0.0036020828
12	0x3dc19011	0.094513066
13	0x3d747486	0.059681438
14	0xbc6cddf7	-0.014457217
15	0x3df7d54f	0.12101232
16	0xbdc68c33	-0.0969471
17	0xbe256cec	-0.16154832
18	0x3d057c2b	0.03258912
19	0x3da012c7	0.078160815
20	0x3dbb11cc	0.09134254
21	0xbd018cb9	-0.031628344
22	0x3bf05bf8	0.0073351823
23	0xbd573e05	-0.05254938
24	0xbd1ce5d6	-0.038305126
25	0xbd85d795	-0.0653526
26	0xbd804f46	-0.0626512
27	0xbe0a914b	-0.13531987
28	0x3d887766	0.066633984
29	0x3d07306f	0.033005174
30	0xbd5fb140	-0.0546124
31	0x3d083720	0.033255696
32	0xbd517a76	-0.05114218
33	0x3da86117	0.082216434
34	0xbd99fa0f	-0.07518398
35	0xbd153ec5	-0.036436815
36	0xbd8ed064	-0.06973341
37	0x3d4a72bf	0.049425837
38	0x3db44294	0.08801761
39	0xbe042e8e	-0.12908384
40	0xbcbfe160	-0.023422897
41	0x3dbc475e	0.091933
42	0x3da535b0	0.08066881
43	0xbe192fbb	-0.14959614
44	0xbe27d2fe	-0.16389081
45	0x3e0c7966	0.13718185
46	0x3d77d4b1	0.060505573
47	0x3dd3459f	0.103160135
48	0x3dec5f6a	0.11541636
49	0x3cddd4fb	0.027079096
50	0x3db46774	0.088087946
51	0xbd9682b9	-0.07349152
52	0x3d6e65f0	0.058202684
53	0x3d8d14e1	0.06888748
54	0xbd8264e1	-0.063668974
55	0xbdee5ef5	-0.11639205
56	0x3c1a1e4d	0.009406638
57	0x3e02a69d	0.1275887
58	0x3e011b76	0.12608132
59	0xbd0dcfe4	-0.034622088
60	0x3de1670c	0.11005983
61	0x3d3048d6	0.04303821
62	0xbd8de60f	-0.06928646
63	0xbc299b37	-0.0103519475
64	0x3e4bd314	0.19904739
65	0x3d855b96	0.06511609
66	0xbd7b01ba	-0.061280943
67	0x3ba516d6	0.0050381226
68	0xbcff9715	-0.031199971
69	0xbd3ec5dd	-0.046575416
70	0xbd0291e6	-0.03187742
71	0xbd14d44b	-0.03633527
72	0x3dfa05e2	0.12208153
73	0xba4d5967	-0.00078334514
74	0xbdb27c09	-0.08715064
75	0x3cceaabb	0.025227895
76	0x3e1485a3	0.14504103
77	0xbdb26a27	-0.08711653
78	0xbc6f10fb	-0.014591451
79	0x3dc6f299	0.097142406
80	0x3c87bd08	0.01656963
81	0xbd799fa8	-0.060943276
82	0xbd1ffb8e	-0.03905826
83	0x3e362cbd	0.17790504
84	0xbe1bc272	-0.15210894
85	0x3db42706	0.08796506
86	0x3da704b6	0.081551954
87	0x3cbd432a	0.023103315
88	0xbe262aec	-0.16227311
89	0xbd1b453c	-0.037907824
90	0x3d66d7cd	0.056358147
91	0xbb973441	-0.0046143834
92	0xbc7b0f7d	-0.015323517
93	0x3ce5e629	0.02806385
94	0xbd4138fc	-0.047173485
95	0xbda889ca	-0.08229406
96	0xbca75fdb	-0.02043145
97	0x3c9591f1	0.018258067
98	0xbce943ed	-0.028474772
99	0x3dc50954	0.0962092
100	0x3d0ca26f	0.034334596
101	0x3c644936	0.0139334705
102	0x3ccf404d	0.025299216
103	0xbe7ecadc	-0.24882072
104	0x3d8db5cc	0.069194406
105	0xbc8a3281	-0.016869785
106	0x3e284940	0.16434193
107	0xbd277341	-0.0408814
108	0x3da11ee9	0.07867224
109	0x3daa77da	0.08323641
110	0x3dd1239b	0.10211869
111	0x3d11928b	0.035540145
112	0x3c0bf7a0	0.008542925
113	0x3d688a4c	0.056772515
114	0xbd6380c2	-0.055542715
115	0x3d93bf79	0.07214255
116	0x3ca8e29b	0.020615866
117	0xbdeae3b4	-0.11469212
118	0xbdb18fd7	-0.086700134
119	0xbdf50fdb	-0.11965915
120	0x3bce7bfe	0.006301402
121	0xbcd7f63d	-0.026362533
122	0x3e243639	0.1603631
123	0x3e58433a	0.21119395
124	0x3d9a25fc	0.07526776
125	0xbcd07cdf	-0.025450168
126	0xbcf24f74	-0.029578902
127	0x3e1148f4	0.14187986
128	0xbd4d9f6d	-0.05020087
129	0x3c6b08a4	0.014345322
130	0x3d69b815	0.05706032
131	0xbd5b29f1	-0.053506795
132	0x3d3a6840	0.045509577
133	0xbe42753c	-0.18990034
134	0xbd954b18	-0.072897136
135	0xbcf98ef7	-0.030463679
136	0xbdb64d0c	-0.08901414
137	0xbd3f03bb	-0.046634417
138	0x3cfa58d0	0.030559927
139	0x3df36953	0.118853234
140	0x3ce06fba	0.027397025
141	0x3ded1155	0.115755714
142	0xbdf87400	-0.121315
143	0xbc983fc7	-0.018585099
144	0xbd78c49f	-0.060734387
145	0xbce504c1	-0.027956368
146	0xbad858d9	-0.0016505971
147	0x3e0b2bde	0.13590953
148	0x3cec5805	0.028850565
149	0xbe08a20b	-0.13343064
150	0xbd5eb00b	-0.054367106
151	0xbce32a51	-0.027730139
152	0x3e072940	0.1319933
153	0xbde7b95a	-0.1131465
154	0x3d0771bd	0.033067454
155	0x3cc2337b	0.023706188
156	0xbdb9ac9d	-0.090661265
157	0x3b403e64	0.0029334063
158	0x3d485731	0.048911277
159	0xbc0073f4	-0.007840145
160	0x3d8751be	0.06607388
161	0xbd4046de	-0.046942584
162	0xbaba7e49	-0.001422831
163	0xbcb09eef	-0.02156016
164	0xbd22c04c	-0.03973417
165	0x3de59246	0.1120954
166	0x3cc2840a	0.023744602
167	0x3e030da6	0.12798175
168	0xbdce4223	-0.10071208
169	0x3c5504c9	0.013001629
170	0xbcf798cd	-0.030224228
171	0xbd8ab62f	-0.0677303
172	0x3d56ba64	0.05242385
173	0x3d246281	0.040133003
174	0xbcb22c74	-0.021749713
175	0x3e3f23b9	0.18665971
176	0xbda202ed	-0.07910714
177	0x3de8984c	0.11357173
178	0xbd9a52c1	-0.07535315
179	0xbd39545f	-0.04524648
180	0x3d096bf3	0.033550214
181	0x3d3d9409	0.046283755
182	0x3c99af94	0.01876048
183	0xbd8fa84f	-0.07014524
184	0xbd8f4d02	-0.0699711
185	0xbd9dcf2c	-0.077055305
186	0xbd70c209	-0.058778796
187	0xbe234d7c	-0.15947527
188	0x3d9b551f	0.07584595
189	0x3dba3d6a	0.09093745
190	0xbe554f1f	-0.20830964
191	0x3d4b1ad7	0.049586143
192	0x3da4f44e	0.0805441
193	0xbd330d47	-0.043713834
194	0x3c4b9c5c	0.012427416
195	0xbd92dcef	-0.07171046
196	0x3e085169	0.13312306
197	0x3d122748	0.035681993
198	0xbdf11993	-0.11772456
199	0x3ddf377e	0.10899256
200	0x3aadcd86	0.0013260103
201	0x3d6d28aa	0.05790011
202	0x3d72e3e4	0.059299365
203	0xbd7af095	-0.061264593
204	0xbdc1d165	-0.09463767
205	0xbc459553	-0.012059527
206	0x3d04f9bf	0.03246474
207	0xbcfdcdf2	-0.030981991
208	0x3d9b4911	0.07582296
209	0xbd25dee6	-0.040495776
210	0x3dbfef15	0.09371773
211	0xbe26ba25	-0.16281946
212	0x3c948acd	0.018132592
213	0x3bd0c763	0.006371425
214	0x3bbaf1f9	0.005705115
215	0x3cd27e8e	0.025695112
216	0x3d34da0c	0.04415326
217	0xbd8bb3bc	-0.06821391
218	0x3daebd74	0.08532229
219	0xbcd4f638	-0.025996312
220	0x3d126701	0.035742763
221	0x3ccc2e18	0.024924323
222	0xbd534bf8	-0.05158612
223	0x3d1822ca	0.037142552
224	0xb8f1630d	-0.00011510225
225	0xbcf14f4e	-0.02945676
226	0x3c01bde2	0.007918807
227	0x3e1cab6b	0.15299766
228	0x3e050e1a	0.1299366
229	0xbdfd1e16	-0.12359254
230	0xbdef1c9d	-0.116753794
231	0x3e01f2a2	0.12690213
232	0xb9d2fbef	-0.00040242026
233	0x3de89575	0.11356632
234	0xbdfc98db	-0.12333842
235	0x38af9e4a	8.374134e-05
236	0xbd8d4c64	-0.06899336
237	0xbe260abc	-0.16215032
238	0x3d09bb50	0.0336259
239	0x3d56a0d2	0.052399464
240	0xbd4f29ad	-0.050576854
241	0xbe054037	-0.13012777
242	0xbd970979	-0.07374854
243	0x3c93f26a	0.018059928
244	0x3dacd70a	0.08439453
245	0xbd3c2867	-0.04593697
246	0xbd78940b	-0.06068806
247	0x3e1ca8b6	0.15298733
248	0x3dde5eaf	0.10857903
249	0x3db83b80	0.08995724
250	0xbdbe7f57	-0.09301632
251	0xbd2b3b0c	-0.04180436
252	0x3dd14d38	0.102198064
253	0x3db036e8	0.086042225
254	0xbda40fbe	-0.08010815
255	0xbd3e180f	-0.046409663

network_body._body_endoder.seq_layers.2.bias f4 [128]
0	0xb9f8f15e	-0.0004748208
1	0xbc12b328	-0.008953847
2	0xbb2e1b19	-0.0026566444
3	0xbb2a9bb4	-0.0026032748
4	0xbaffae08	-0.0019506821
5	0xbba37156	-0.004987876
6	0xbb9af587	-0.004728976
7	0xba333737	-0.0006836536
8	0xba4d4ec1	-0.00078318646
9	0xbab9b043	-0.001416691
10	0xbbe5e2ff	-0.0070155854
11	0x3a503c67	0.0007943571
12	0xbbeec860	-0.00728707
13	0xba938aff	-0.0011256634
14	0xba9a0b3e	-0.0011752618
15	0x3b59fa45	0.0033260745
16	0xbafc0fec	-0.0019230819
17	0xbb8e7bcf	-0.004348255
18	0xbb5ca060	-0.0033664927
19	0xbac6d621	-0.0015170017
20	0xba75ec61	-0.00093812315
21	0xba979c30	-0.0011566933
22	0xbb2576f5	-0.0025247906
23	0xbb5aeed9	-0.0033406524
24	0xbbdc674f	-0.0067261825
25	0xbad6a6af	-0.001637658
26	0x3b90e570	0.0044218823
27	0xba7bee2a	-0.00096103793
28	0xbb2b6aa3	-0.002615609
29	0xbb942a55	-0.004521648
30	0x39da454c	0.0004163183
31	0xbac86c07	-0.0015290984
32	0xbb42c526	-0.002971956
33	0x3af7044d	0.0018845886
34	0x3a6a7e9e	0.0008945259
35	0xbb6d9a49	-0.0036255291
36	0xbb8d6188	-0.004314605
37	0x39879602	0.0002586097
38	0xbb67b21d	-0.0035353967
39	0xb9ad6b75	-0.00033077193
40	0xba4db3d0	-0.00078469235
41	0xbaebe7d5	-0.0017998168
42	0xb96f2afe	-0.00022808832
43	0x3b7acf9a	0.0038270713
44	0x3a7c5816	0.0009626163
45	0xb993c4e7	-0.0002818473
46	0xbb87bce5	-0.004142391
47	0xba47e57f	-0.0007625445
48	0x3b237c62	0.0024945964
49	0xbb0e0785	-0.0021671962
50	0x3944917b	0.00018746212
51	0x3ad3c0b4	0.0016155452
52	0xbb5ed61d	-0.0034002133
53	0xbb103af9	-0.0022007807
54	0x388028b9	6.111101e-05
55	0x3ae3dda6	0.0017384782
56	0x3b29a7be	0.0025887336
57	0xb9d29198	-0.00040162797
58	0xbb3d4546	-0.0028880402
59	0xbad0c9b3	-0.0015929252
60	0xb99393fc	-0.00028148282
61	0xbb3ef5a3	-0.002913811
62	0xba28814f	-0.000642796
63	0x3bb70f00	0.005586505
64	0xba87121c	-0.001030508
65	0xbb28d6df	-0.0025762839
66	0x3c24f936	0.010069182
67	0x37e4e828	2.7287824e-05
68	0x3b00a047	0.0019626783
69	0xbb4d710f	-0.0031347906
70	0xba696e4c	-0.000890468
71	0xbb4faae7	-0.003168756
72	0xbb34b916	-0.002757614
73	0xb9d5e555	-0.00040797392
74	0xbb8e92eb	-0.00435101
75	0xbb10629f	-0.002203144
76	0x3b302e47	0.0026883052
77	0x3b693192	0.0035582525
78	0x3ad12d72	0.0015958978
79	0x39e9339e	0.0004447968
80	0xba91d581	-0.0011126251
81	0x399952a0	0.00029243995
82	0xbbaa468f	-0.0051963995
83	0xbb1a4386	-0.0023538782
84	0xbaa60f98	-0.0012669442
85	0xbb952db2	-0.0045525664
86	0xba76e1d8	-0.00094178086
87	0xbbd872cc	-0.0066054817
88	0xbb2c2e98	-0.002627289
89	0x3c05704c	0.008144449
90	0x3ac2ae77	0.001485302
91	0x3994db11	0.00028391977
92	0x3b690651	0.0035556743
93	0xbbd5ff2b	-0.0065306625
94	0x3a9afaec	0.0011824048
95	0xbc118cea	-0.008883694
96	0xbb94038c	-0.0045170244
97	0x3b047afd	0.0020214908
98	0xbb25485b	-0.002522013
99	0xbaf6d4bc	-0.001883171
100	0xbbcd5b5d	-0.006266995
101	0xbb6ce753	-0.0036148622
102	0xbab294f3	-0.0013624713
103	0xbbccb413	-0.0062470525
104	0xbb86f969	-0.0041190875
105	0xba500e4e	-0.0007936702
106	0x3aa91870	0.001290096
107	0x3b648bbb	0.0034873325
108	0xbae3f566	-0.001739186
109	0x3a9278a2	0.0011174867
110	0x3aa5d1b1	0.0012650994
111	0x3b578f87	0.0032891945
112	0x3af841e5	0.0018940537
113	0x3b2f0f8d	0.002671215
114	0x3b384e90	0.0028122999
115	0x39e3f367	0.00043478163
116	0x3a0fb01e	0.00054812606
117	0xb9240730	-0.00015642936
118	0x3b374077	0.0027962008
119	0xba19cae0	-0.00058667175
120	0xbb047458	-0.0020210948
121	0xbaac7deb	-0.0013160085
122	0xba2bf4fe	-0.0006559639
123	0x3c48aaf2	0.012247788
124	0x3a714fbd	0.00092053023
125	0xbc45148f	-0.012028827
126	0xbb0ae147	-0.0021191405
127	0xbbb8bf1e	-0.0056380173

action_model._continuous_distribution.log_sigma f4 [1, 3]
0	0x3b457fea	0.0030136057
1	0x3bee1007	0.007265094
2	0x3c72fac2	0.014830293

action_model._continuous_distribution.mu.weight f4 [3, 128]
0	0x3c87d6d2	0.016581926
1	0x3c2acf6b	0.010425429
2	0xbc8749e5	-0.016514728
3	0x3caf4d79	0.021399247
4	0xbca1ffae	-0.019775238
5	0x3caefcd1	0.021360787
6	0xba4a8143	-0.000772495
7	0x3a9ad310	0.0011812169
8	0x3c84b938	0.0162016
9	0xbb1bbb30	-0.0023762695
10	0xbc0dbb04	-0.008650545
11	0xb9bbb2e4	-0.00035800703
12	0x3c085d3f	0.008323013
13	0xbc81b6aa	-0.015834171
14	0xbc813518	-0.015772387
15	0x3bea7e0e	0.00715614
16	0x3cb2911f	0.021797715
17	0x3c41bcc6	0.011824792
18	0x3c1e2367	0.009651995
19	0xbc0b9409	-0.008519181
20	0xbb5076c0	-0.0031809062
21	0x3c8c6d72	0.017142031
22	0x3d2f644a	0.042820252
23	0x3b71c9e5	0.003689402
24	0xb9b38603	-0.00034241387
25	0x3c9a0a7d	0.01880383
26	0xbc258315	-0.010102053
27	0x3bcea200	0.006305933
28	0x3d130e60	0.03590238
29	0x3b996e28	0.004682321
30	0x3c9f1fc7	0.019424332
31	0x3c042414	0.008065242
32	0xbc880ce9	-0.016607719
33	0xbcc87c5f	-0.024473367
34	0x3c6ca644	0.014443938
35	0x3cd757d0	0.02628699
36	0x3ccacbb4	0.024755336
37	0x3b707c79	0.0036695285
38	0xbb836153	-0.0040094047
39	0xbc21ff0c	-0.009887468
40	0xbc42c4de	-0.011887757
41	0x3ca1e064	0.019760318
42	0x3d39c94b	0.045357984
43	0xbc52d12c	-0.012867253
44	0xbce1b8dc	-0.027553968
45	0xbcf9138a	-0.030404825
46	0x3c6f3fd1	0.014602617
47	0x3bf2f983	0.007414998
48	0xbcd9f8c8	-0.026607886
49	0x3ca7bbc1	0.02047527
50	0xbc1ee030	-0.009697005
51	0xbc011c3d	-0.007880268
52	0x3cffa3f9	0.031206118
53	0x3c56727e	0.0130888205
54	0xbc962457	-0.018327875
55	0xbb83123a	-0.0039999755
56	0x3c24a582	0.010049226
57	0xbcf86b86	-0.030324709
58	0xbd1ba05d	-0.03799473
59	0x3c4091ae	0.011753483
60	0x3c0d6b69	0.008631566
61	0x3ca3515c	0.019936256
62	0x3d02bcda	0.031918384
63	0xbb143400	-0.0022614002
64	0xbbc4425a	-0.005989355
65	0x3bc869a8	0.006116111
66	0x3c3dae33	0.011577177
67	0x3caa84ae	0.02081522
68	0xbcd745d1	-0.026278408
69	0x3c8c0193	0.017090594
70	0xbc8db230	-0.01729688
71	0x3be90864	0.007111596
72	0x399c245b	0.00029781726
73	0xbc7c67ea	-0.015405634
74	0xba61e112	-0.0008616607
75	0x3cc4e141	0.02403319
76	0xbc77abbf	-0.015116631
77	0x3c81f7db	0.015865257
78	0x3bf702dc	0.0075381827
79	0xbcdc14ae	-0.02686533
80	0x3a185163	0.00058104674
81	0xbce7e005	-0.028305063
82	0x3a745a72	0.0009321339
83	0xbc24620e	-0.010033144
84	0xbc23f4c7	-0.01000709
85	0x3cb4fbcb	0.02209272
86	0x3cf9525c	0.03043478
87	0x3c7d9eff	0.015479802
88	0x3a15e797	0.00057184085
89	0x3cfd6aa1	0.030934634
90	0x3acd2eec	0.0015654243
91	0xbc4ac99f	-0.012377172
92	0xbc4d51df	-0.012531727
93	0xbb65d254	-0.0035067992
94	0x3c27e78c	0.010248076
95	0xbab04bb0	-0.0013450291
96	0x3b15a57b	0.002283423
97	0x3a6b62fa	0.0008979287
98	0xbcaf3d7b	-0.02139162
99	0x3cbe51da	0.02323239
100	0xbb82dff0	-0.0039939806
101	0x3b81caa9	0.0039609266
102	0x3cbaaf2b	0.022788605
103	0xbbce15f3	-0.0062892376
104	0xbbff9b79	-0.007800516
105	0x3c0d97d1	0.008642153
106	0x3bd3e2fe	0.0064662686
107	0xbca3e424	-0.020006247
108	0x3c2a04bc	0.010377105
109	0x3ba21408	0.0049462356
110	0xbca2ed66	-0.019888591
111	0x3cb7a5b1	0.022417875
112	0xbcd41435	-0.025888542
113	0xbb2c652c	-0.002630542
114	0xbc5a135a	-0.013310278
115	0xbc630333	-0.013855743
116	0xbd3d83fa	-0.04626844
117	0xbc18a802	-0.0093174
118	0xbcb9dabe	-0.022687312
119	0x3cccd0a0	0.025001824
120	0x3c262871	0.010141478
121	0x3bb59b00	0.005542159
122	0x3c19b0cc	0.009380531
123	0x3c79242c	0.015206378
124	0xba0d6b01	-0.0005394668
125	0xbc1d8851	-0.00961502
126	0x3c3bd028	0.011463203
127	0x3c0fd52b	0.008778851
128	0xbcaf2719	-0.021380948
129	0x3b3df53e	0.0028985287
130	0xbc171f2b	-0.00922374
131	0x3ce31ec1	0.027724626
132	0x3b268c1a	0.0025413097
133	0xbcfeca53	-0.031102335
134	0x3abddbfb	0.0014485115
135	0x3d40e7fb	0.047096234
136	0x3c623beb	0.013808231
137	0xbcb1ad9a	-0.021689225
138	0xbc3b4acd	-0.011431408
139	0x3c91cc76	0.01779769
140	0xbbe3395d	-0.0069343285
141	0x3ca9baa8	0.020718887
142	0xbb25146c	-0.0025189174
143	0xba4c265b	-0.0007787698
144	0xbbeed05e	-0.007288023
145	0xbc2c983c	-0.010534342
146	0x3bb5263c	0.0055282395
147	0x3b9b8a5d	0.004746719
148	0x3c1808e1	0.009279461
149	0x3c0d18e9	0.008611896
150	0xbd06544b	-0.03279523
151	0xbcae3712	-0.021266494
152	0xbaef8ee3	-0.0018276836
153	0x3c23c264	0.009995077
154	0x3d15c816	0.03656777
155	0x3cc9e7d9	0.024646686
156	0x3c27ece1	0.010249347
157	0x3b1d2f20	0.0023984388
158	0xbac1ac4f	-0.0014776083
159	0xbbe4d46c	-0.0069833305
160	0xbbe5b61f	-0.007010236
161	0x3d007c3b	0.031368475
162	0xbcdcfb5c	-0.026975326
163	0x3bb3081f	0.0054636146
164	0xbc1871c3	-0.009304467
165	0xbd0904ad	-0.033451725
166	0xbbec3d2e	-0.0072094416
167	0x3b1b9f3b	0.0023746032
168	0xbb288031	-0.0025711174
169	0xbc19666b	-0.009362797
170	0x3c351a27	0.0110535985
171	0x3ca82ed9	0.020530151
172	0x3c94aba9	0.01814826
173	0xbc8edf7c	-0.01744055
174	0xbb5b7f2d	-0.003349255
175	0x3cdfc6ed	0.027316535
176	0xbbb6d35f	-0.0055793966
177	0x3be5ad3f	0.007009178
178	0x3c48e29b	0.012261058
179	0x3d07d161	0.033158664
180	0xbbe28a78	-0.0069134794
181	0xbd081036	-0.033218585
182	0x3c8ce0ad	0.017196978
183	0x3b6b54f9	0.0035908802
184	0xbc9ed4c0	-0.019388556
185	0xbd0b0d0e	-0.033947997
186	0xbca32ee6	-0.019919824
187	0xbb070ea2	-0.0020608087
188	0x3bd1ffe5	0.006408679
189	0xbcef95b6	-0.029246192
190	0x3a1d30e1	0.0005996358
191	0x3ca28a5b	0.019841364
192	0x3c66fdcc	0.014098596
193	0x3c8ef8dd	0.017452652
194	0xbc90c117	-0.017670197
195	0xbc2a27ad	-0.010385436
196	0x3ba1bc97	0.0049358117
197	0xbc75d08a	-0.015003333
198	0x3b1c646c	0.0023863567
199	0xbd106531	-0.035252754
200	0xbd0543a4	-0.03253521
201	0x3bb045af	0.0053794007
202	0x3c5aa688	0.013345368
203	0x3b94c78a	0.0045403885
204	0x3c55ce06	0.013049608
205	0x3b9b8614	0.004746208
206	0x3ce12a17	0.02748589
207	0x3b56726e	0.0032722014
208	0x3cb76cdc	0.022390775
209	0x3bb2b958	0.0054542236
210	0xbc461c10	-0.012091652
211	0x3cbdadf5	0.023154238
212	0x3c33ee28	0.010982074
213	0x3b637a21	0.0034710246
214	0x388789e9	6.4629894e-05
215	0x3c19e89f	0.00939384
216	0xbbed743b	-0.007246522
217	0x3b98de0d	0.0046651424
218	0x3b849f0d	0.0040472806
219	0x3cd0d740	0.025493264
220	0xbd249e0a	-0.04018978
221	0xbb6a9b0b	-0.003579798
222	0x3c855fde	0.016281065
223	0xbc1a53cd	-0.009419394
224	0xbc490150	-0.012268379
225	0x3c90c767	0.017673207
226	0xbb6ff290	-0.0036613084
227	0x3b06deee	0.0020579654
228	0xbbb7a26f	-0.0056040804
229	0xbc5d67f2	-0.013513552
230	0xbb52392f	-0.003207754
231	0xbca0dd28	-0.019636706
232	0xbcd29282	-0.025704626
233	0xbc6e5ef7	-0.014549009
234	0x3c749509	0.014928111
235	0xb9cf3da5	-0.00039528045
236	0xbc65c4e2	-0.014023991
237	0x3cba862e	0.02276906
238	0x3c9842cc	0.018586539
239	0x3acb3b89	0.0015505414
240	0x3ce37626	0.027766299
241	0x3c347c4b	0.011015962
242	0x3d04ff34	0.032469943
243	0x3c3ab377	0.011395327
244	0xbc2f1ac9	-0.010687538
245	0x3c1c832b	0.009552757
246	0x3c968e94	0.018378533
247	0x3ce1948e	0.027536657
248	0xba8f4156	-0.0010929506
249	0x3c557ecb	0.013030718
250	0xbc345f64	-0.011009071
251	0xbd3ae296	-0.045626245
252	0xbc9331d2	-0.017968092
253	0x3ca7b401	0.020471575
254	0x3ce7cbf9	0.028295504
255	0xbc01a8d0	-0.007913783

action_model._continuous_distribution.mu.bias f4 [3]
0	0xba724d59	-0.0009243093
1	0x3b29ea9f	0.0025927199
2	0x39604fef	0.00021392082

action_model._discrete_distribution.branches.0.weight f4 [1, 128]
0	0xbaaf58cb	-0.0013377903
1	0xbc1b601a	-0.009483362
2	0xbc8df8bb	-0.017330518
3	0xba983719	-0.00116131
4	0xbb2c0b66	-0.0026251911
5	0x3bbe1bfd	0.0058016763
6	0xba11955b	-0.0005553567
7	0x3b3ba6f8	0.0028633457
8	0xbbea1328	-0.007143397
9	0x3af63273	0.0018783346
10	0xbc157e3e	-0.009124337
11	0x3b6927a8	0.0035576615
12	0x3c3a705c	0.011379328
13	0x3bb0cc06	0.0053954152
14	0xbacd7c8a	-0.0015677374
15	0xbcc43637	-0.023951633
16	0x3b62a402	0.003458262
17	0x3bb720b3	0.005588615
18	0xbba71d6c	-0.005099943
19	0xbbf613c8	-0.0075096823
20	0x3c4cc2a5	0.012497579
21	0x3bb6c845	0.005578073
22	0x3b1c985e	0.002389453
23	0x3c6206eb	0.013795595
24	0x3bb61ea0	0.00555785
25	0x3c279024	0.010227237
26	0xbbd028b3	-0.006352508
27	0x3c1eab4c	0.009684395
28	0xbba9daf5	-0.0051835724
29	0x3be92b92	0.0071157897
30	0x3b61256f	0.0034354588
31	0x3c437e64	0.011931989
32	0xbc02fb87	-0.007994539
33	0x3be29f20	0.006915942
34	0x3a646c90	0.0008713687
35	0xbc64f3c8	-0.013974138
36	0xbbf1e2dd	-0.0073817805
37	0x3bbd36b0	0.0057743415
38	0x3aa720a0	0.0012750812
39	0x3c50b5cf	0.012738659
40	0xbbe6fb1a	-0.0070489766
41	0x3b465a01	0.003026605
42	0xbaa2cf07	-0.0012421318
43	0x376ba3b2	1.4045205e-05
44	0x3c3691ee	0.011143191
45	0xbb1b5a47	-0.0023704933
46	0x3b44f7a0	0.0030054823
47	0xbbf43ccb	-0.007453536
48	0x3b5326cf	0.0032219177
49	0xbbe4b192	-0.006979176
50	0x3ca35978	0.019940123
51	0xbb8718cf	-0.0041228305
52	0xbb9bdd76	-0.004756625
53	0xbb462696	-0.0030235401
54	0x3c875772	0.01652119
55	0x3c357bde	0.0110768955
56	0xbc2632a5	-0.010143911
57	0xbb31475a	-0.0027050585
58	0xbbe45013	-0.0069675534
59	0xbc2bdc48	-0.010489531
60	0x3c062de0	0.008189648
61	0x3ae1bfd7	0.001722331
62	0x3bb999b1	0.0056640734
63	0xbbc4f51c	-0.0060106646
64	0xbb9b1663	-0.0047328933
65	0xbc1ec137	-0.009689621
66	0x3b6bf6ff	0.0036005375
67	0x3c41ca7b	0.01182806
68	0x3b9935b6	0.0046755923
69	0x3c472942	0.012155833
70	0xbc0003a2	-0.007813366
71	0x3b0040b0	0.0019569807
72	0xbc16ed42	-0.00921184
73	0xbb067897	-0.0020518654
74	0xbba8b207	-0.0051481756
75	0x3ba398fd	0.004992603
76	0x3c2b2d23	0.010447773
77	0xbbfb9e1f	-0.0076787616
78	0xb9c1cd0d	-0.00036964603
79	0x3bf5c8ab	0.007500728
80	0xbb4c1727	-0.003114173
81	0xbc4381d3	-0.011932808
82	0xbb639f88	-0.003473254
83	0x3ae51e3b	0.0017480323
84	0x3c07d73d	0.008291063
85	0x3bfbf99f	0.0076896693
86	0xbbd7538b	-0.0065712384
87	0x3bceb782	0.006308497
88	0xbbfa2f4d	-0.007635033
89	0x3c23e95b	0.010004367
90	0x3c63f4fd	0.01391339
91	0xbc6e3e22	-0.014541181
92	0xbc034078	-0.008010976
93	0xbcbf6384	-0.023362882
94	0x3b14b939	0.002269341
95	0xbafa774b	-0.0019109038
96	0x3b8b1233	0.004244113
97	0x3b377f0e	0.0027999314
98	0xbbd3ff8f	-0.006469674
99	0xbc19d504	-0.009389166
100	0xbb1ba8a6	-0.0023751645
101	0xbc655695	-0.013997694
102	0x3ae217ad	0.0017249488
103	0x3a96ebbf	0.001151435
104	0x3bf3cf0d	0.007440454
105	0x3ad7d108	0.0016465494
106	0x3beb1b47	0.0071748826
107	0x3c090a86	0.008364325
108	0x3a96a1f2	0.0011492355
109	0xbc75e2cf	-0.015007689
110	0x3c25c14f	0.010116889
111	0xbc3990da	-0.011326039
112	0x3c70d78d	0.014699829
113	0x3c9107a4	0.017703839
114	0x3b78846f	0.0037920733
115	0x3c03b5f9	0.008038991
116	0xbac5e503	-0.0015098158
117	0xbb9b31bb	-0.004736153
118	0x399a1d3d	0.00029394953
119	0x3b5e1353	0.003388603
120	0xbb9c9d61	-0.004779503
121	0x3bfc157a	0.00769299
122	0xbc215609	-0.009847173
123	0xbbe35b1f	-0.0069383527
124	0xbb055373	-0.002034393
125	0xbc19ac93	-0.009379524
126	0x3bd56daf	0.0065133194
127	0xb9ecb9aa	-0.00045151758
