V3/Articulation/results/FirstWalk3/AgentTest/AgentTest-999949.pt (torch, 428940 bytes, 33 tensors)

network_body._body_endoder.seq_layers.0.weight f4 [128, 1]
00000000: 081a 5f3e 25fb 063f e9e1 d5be 47a8 70bf
00000010: c028 38be 0d2b 9d3f 61e1 57bf 2219 a5bd
00000020: a67a ed3f a1ef 8b3e 6205 b13e 4818 3fbf
00000030: b84c 41be 1562 af3e b746 0d3e f70b c93e
00000040: de1e 593f 3638 8ebf 8b79 14c0 0a3e dbbf
00000050: a7a3 693f df7a 8cbf d11c d9bd 8c16 5fbf
00000060: 8209 063e 7af0 dd3d fcd0 0dbf fd93 da3e
00000070: 10ce 3d3e 15b8 2f3f a94e 8fbf 07e4 bcbf
00000080: 48b1 933f 8c0e 793e 566b 0f3e 847b ea3e
00000090: 1c34 fabf 18f8 873f 130c 0ebe 0200 dd3f
000000a0: 27bd 39bf 2826 e53f 6620 633f ccba d1bd
000000b0: 96e1 9f3f 851e ea3f de37 15bf 2c32 11bf
000000c0: dbe1 c0bd 5b13 853f d241 80bf 15cc 8c3e
000000d0: 5f84 453f 5b13 d3bd b468 37bf 2877 08bd
000000e0: 4dab 253e 4691 1ac0 dc48 28c0 a205 0bbf
000000f0: a5f4 92be ee3a 9dbf 6511 0d3f 4cc9 3bbe
00000100: 71e9 8cbd a819 4cbf 0aab 5ebf c2e8 7c3d
00000110: dd35 a8bf d742 983e 095d 02bf be97 8b3f
00000120: ce86 5e3f 1623 9b3e ba89 d73f c634 6fbd
00000130: c61a c6bf ca8d 3c3f b033 84bf fbb0 7cbf
00000140: 3ae1 6abf ad9d c8be e3e1 943f 5887 69be
00000150: a49d 193f 700e 913f 5636 fc3e 52c6 893e
00000160: 02de b13f de2b eb3e 05d0 9b3f ec23 cebd
00000170: f8be 64bf 32de d23e 6180 d73f 1827 6a3f
00000180: 866c b23f 3837 8ebe 8737 8abf 22ef 97bf
00000190: 82a5 343e be59 0340 4c41 13be 0526 e93f
000001a0: 2b07 ebbf 8e46 77bf d69c 7fbf ae8c 74bf
000001b0: f2de 10bf a13e ed3e 90bd 82bf 9452 973e
000001c0: c277 03bf 48e3 85be 5d46 ed3f 5230 20bf
000001d0: c623 3f40 a068 6ebd 49da 753e 3899 433f
000001e0: 78c2 dc3d bbfe a0be e5a6 e1bf c9ab b0bf
000001f0: 6757 1dbf 763f 80bf 5700 24bf ad62 373f
0.21787274 0.52726966 -0.41773918 -0.9400677 -0.17984295 1.2278763 -0.84328276 -0.08061434
1.8553054 0.2733126 0.3457442 -0.74646425 -0.18876922 0.34254518 0.13796507 0.3926694
0.84812725 -1.1110904 -2.3199184 -1.7128308 0.9126534 -1.0974997 -0.106011994 -0.8714378
0.13089564 0.10836883 -0.5539701 0.4269103 0.18535638 0.6864026 -1.119588 -1.4757088
1.1538477 0.24321955 0.14005789 0.4579736 -1.9547153 1.0622587 -0.13871793 1.7265627
-0.7255425 1.7902269 0.8872131 -0.10240707 1.2490718 1.8290564 -0.5828837 -0.5671718
-0.094180785 1.0396532 -1.0020087 0.27499452 0.7715511 -0.10306426 -0.7164414 -0.03331676
0.16178627 -2.4151168 -2.629447 -0.5430547 -0.28702274 -1.2283609 0.55104667 -0.18338507
-0.06880463 -0.7972665 -0.86979735 0.061745413 -1.3141438 0.29738495 -0.5092321 1.0905683
0.86924446 0.30300206 1.6838906 -0.058399938 -1.5476921 0.7365385 -1.0328274 -0.9870755
-0.9174992 -0.39182797 1.1631435 -0.22805536 0.60006166 1.1332531 0.49260205 0.2690912
1.3895876 0.45931906 1.2172858 -0.10065445 -0.89353895 0.41185147 1.6836053 0.914659
1.3939369 -0.27776504 -1.0798196 -1.1869853 0.17641261 2.0523524 -0.14380378 1.8214728
-1.8361562 -0.9659203 -0.9984869 -0.9552716 -0.5659019 0.46336845 -1.02141 0.2955519
-0.5135461 -0.26149964 1.8537098 -0.6257373 2.9865584 -0.058205247 0.2400905 0.7640567
0.107792795 -0.31444344 -1.7629057 -1.3802425 -0.6146149 -1.0019367 -0.6406302 0.7163494

network_body._body_endoder.seq_layers.0.bias f4 [128]
00000000: 30fc 7fbe 2827 af3d 576a 9e3d 8c71 8a3d
00000010: 3ec9 11be f56c 143e 305b 71bd 7a83 90bd
00000020: 950f 4c3e 01c0 45be c35d 6cbe 7aad 35bc
00000030: 1d56 0abe 3106 44be 25ac 4fbe ffb2 b4bd
00000040: 3682 223e 0b17 993d 7b0a 7d3c 6eea e7bd
00000050: 828b 3d3e d6c4 dfbc d7a3 6b3d 48ff c2bd
00000060: 6a05 0c3e 4bb6 6b3e ef22 40bd c801 1bbe
00000070: 245c 72be b8dd 01bd ac93 8d3d 5ea9 85bd
00000080: 48cc 693e 73c4 ddbd 01b7 60be d7a9 21be
00000090: 8238 2cb9 ca5c 40bd eb14 c1bd 10d1 373e
000000a0: f16c 973c cf0e 5d3e 9812 4d3e aef6 ecbd
000000b0: 0477 2e3e 34aa 313e 0714 52bc 812d 51bd
000000c0: 818d 733c 06b6 383e a2db 4bbd af24 98bd
000000d0: 5dbd 9ebd 8234 633c 888c 93bd 01c7 4cbe
000000e0: b255 6dbe 80c2 6cbd a512 10bd f58f e9bd
000000f0: 9f68 9fbd 2d3e c2bd af1a 7c3d bac2 a9bd
00000100: abfe 6abd ec8c a63d ddd9 c0bd d945 97be
00000110: 68b8 9fbd 0858 56be c2a6 95bd 05d7 403e
00000120: 5388 cfbd bd95 62be b52b e93b ea72 01be
00000130: 8c1b 7fbd d4e9 22be 8933 913d fd1b 643c
00000140: 9d48 2f3d 264d 8cbd b09b 343e aab9 0cbe
00000150: a925 e33d 31be d43d f076 3dbe ea21 7dbe
00000160: 27c5 273e ab47 bbbd de02 043e f327 65bd
00000170: 6117 8fbd ad54 ccbd c171 e43c d105 b83d
00000180: 9570 573e ace4 c2bd 19c1 83bd 91e6 0cbe
00000190: a61f b5bd 0374 5e3e 4fdb 40be 6b36 233e
000001a0: 11d0 88bd 4433 573d 5676 50bb 294f a4bd
000001b0: f4b8 e1bd 0086 a0bd cc21 0bbe 40dc 3abe
000001c0: fbd7 cbbd 13fd cc3b 24ec 4a3e 63e9 93bd
000001d0: 50f9 513e e914 d8bd bb14 413e 08bf 25be
000001e0: b865 7bbe 55d2 863d 71f7 8abd 7326 643c
000001f0: b46a 783d 91dd dbbb eb65 3dbd 05fc 213d
-0.24998546 0.0855239 0.077351265 0.067599386 -0.14236924 0.14494689 -0.058924854 -0.07056327
0.19927819 -0.19311525 -0.23082642 -0.011088723 -0.13509412 -0.19142987 -0.20280512 -0.08823203
0.15869984 0.07475098 0.015444393 -0.11324011 0.1851025 -0.027315538 0.057529297 -0.09521347
0.1367394 0.23018758 -0.046908315 -0.15137398 -0.23667961 -0.031705588 0.06912932 -0.06526445
0.22831833 -0.10828485 -0.2194481 -0.15787445 -0.00016424249 -0.04696349 -0.09427818 0.17950845
0.018484564 0.2158768 0.20026624 -0.11570488 0.17037588 0.17350084 -0.012822158 -0.051068787
0.01486528 0.18038186 -0.049770005 -0.07428872 -0.07750962 0.013867499 -0.072045386 -0.19997789
-0.23177221 -0.057802677 -0.03517403 -0.11404411 -0.07783627 -0.09484515 0.061548885 -0.08289094
-0.057371777 0.081323475 -0.09416554 -0.29545477 -0.077988446 -0.20932019 -0.07307197 0.18832023
-0.10133424 -0.22127433 0.007115806 -0.12641492 -0.06228213 -0.15909511 0.07089908 0.013922689
0.04279386 -0.068506524 0.17637515 -0.137427 0.110911675 0.10387839 -0.18502402 -0.24719968
0.16383801 -0.09144529 0.12891719 -0.0559463 -0.06986881 -0.09977088 0.027886273 0.089854844
0.2103904 -0.09516272 -0.06433315 -0.13759829 -0.08843927 0.21723942 -0.1883366 0.15938728
-0.066803105 0.052539125 -0.0031808815 -0.08022911 -0.11021605 -0.078380585 -0.13587111 -0.18248081
-0.099533044 0.0062557547 0.19816643 -0.07222249 0.20505261 -0.10550863 0.18855564 -0.16186154
-0.24550521 0.065830864 -0.06785477 0.013925183 0.060648635 -0.0067097624 -0.046239775 0.039546985

network_body._body_endoder.seq_layers.2.weight f4 [128, 128]
00000000: f1b4 133e a447 77bd 0b0c 78bc 247a 123d
00000010: 41c8 0bbe b509 43bb 0bdd c3bd c7cf 413b
00000020: eda4 033e 446b 1cbc ed0b 2e3e cdc4 7fbd
00000030: 5e83 183d a7a4 923d a416 193e 8e3d 983d
00000040: fb01 8dbd dedb 9a3d f8e5 c83d 4185 4c3d
00000050: 3ca3 d13d 2e30 32bd 010c 233e f66b e0bd
00000060: f376 e4bd 6ec1 e6bd d256 263e dacc 4dbc
00000070: 21ba 523c 7946 c23c 8706 a83d 0ae4 273d
00000080: 4a68 ffbc 99a2 b2bd 18b2 c43c c1c5 db3b
00000090: d3be 383d 9511 4fbd 3ebc 153e 5f48 293e
000000a0: 38b1 073e 5c23 1e3e aa47 fd3c e74e 21bd
000000b0: 1396 9b3d cb09 c33c a321 70bd 5081 b2bc
000000c0: c3df d6bc 2428 2c3d d915 76bd 500b 6a3c
000000d0: 8957 33bc 354b f0bd cc7a a63d 0a5d 543b
000000e0: 0891 c73d 2f37 6c3d 58f6 903b 72d3 1fbd
000000f0: c895 9ebd 4ddb 9bbd fce0 d6bd e5fb 6f3d
00000100: f814 febd aa6f f4bd b4b8 02be f895 29bd
00000110: 8c28 ad3d c85c 1f3e c158 bebc d1a8 1f3e
00000120: b422 4d3e 485d 5b3e be15 e1bd 0776 293d
00000130: 058a 6dbc e52c 003d d75b f13d efcb 21bc
00000140: 737c 76bc d6a1 3c3d cfbe fc3d fd20 cfbc
00000150: 1e24 bd3d f6e4 c6bd fcd4 403d 0ded 6abc
00000160: 9e62 22be 721b 483c 2b1b 6ebc 62b7 1ebd
00000170: b933 e6bc 5388 a53d 3f9c 163e 119f ba3c
00000180: 1b0f 15bd 8d64 583d 3fc5 0c3e 86cc 793d
00000190: 29cd ea3c 8492 86bd 7b29 0d3d 95ae b1bd
000001a0: 775d 5a3d 6652 1abe f19f ba3d ba14 38bc
000001b0: 8395 c63c 2a19 03be 6894 d2bd 4003 f53d
000001c0: edc8 503d bca7 8e3e 76c3 4bbd a5bf 9abd
000001d0: 2e3c c13d 5ddb adbd 4802 bc3d b247 aa3d
000001e0: 6ddc 00be 9ba5 f33c c800 f63d 9338 0dbe
000001f0: 3f86 3abc a4d7 003c 1bbf 21b9 7828 c53d
00000200: bd6e 713d fefd 1fbd 1841 d3bd 735d 07bc
00000210: 47e7 74bd afc9 d6bc e476 18bd a61d fb3d
00000220: 0942 a3bd bf53 f0bc 0bf7 583d 166c c5bd
00000230: 6397 553c 2deb bf3d b8a3 973d 74b9 a43d
00000240: 8060 5ebc c9c2 b3bd 1ec2 c63c 656f 673d
00000250: 06cf c93d 971a 28bc f161 44be 4712 9cb8
00000260: 63d9 e1bd 630c c739 4402 5a3d eb1c 8a3d
00000270: 4dc8 663e 8ddf 333e 7cca fcbd e29e e3bb
00000280: 8969 f6bd 6eb8 f23d d433 be3d 089d ad3d
00000290: 5e5f bfbc 08a4 733c 61ee 613c 92c6 8e3c
000002a0: 62d7 bcbc 089f 14bd 3b47 82bd 234b 62bb
000002b0: fe9a 73bd 1383 cebd 6246 ab3d 96c5 033e
000002c0: ecb7 2cbe 4d61 c03d 21c4 69bc 6222 a5bc
000002d0: 5066 56be 3a56 debd 7878 86bc 2258 863a
000002e0: 5e3a 5d3d 42ee 193e 39bb fd3c 858e 963d
000002f0: 287c 01bd 86d4 13be a00c ff3c 0d60 0dbe
00000300: b7cb 233d 66bd 5e3d 3774 90bc 3953 54bd
00000310: 1dee 29be c791 12bd c2d4 b93b d974 afbd
00000320: dcbd d53c 4665 943d e917 73bc 0748 cdbd
00000330: a277 cbbd d8f7 1b3e 9da0 63bc ce2b 3fbe
00000340: 7d7f 703d 1d54 12bd 7445 2a3d 8a70 d4bd
00000350: 9f7e c13d 921f 6a3c 50e9 d23d 913a 143e
00000360: 7337 aa3c cb5b 303e 8970 fc3d ef73 053e
00000370: 57ae 0a3e b9c5 9dbd d311 a5bd 909b f53b
00000380: 8699 e0bd 3279 41bd 3292 103e 4105 213e
00000390: 83bc 873d ad85 20be 0316 6abd 0190 013e
000003a0: 17db b3bd bca7 15bd b0fc aebd ef7e 11bd
000003b0: 5f65 1a3e 5998 bd3d 4a8b 0cbd d7ba 50bd
000003c0: 4599 833e ad61 94bd 90be 07bb 4f43 143d
000003d0: b224 52be f32a 073d c117 5ebd ebbc 1f3e
000003e0: 2210 983d 2342 283e 3080 c63d 64b2 b2bd
000003f0: b4f5 28be fe9c f8bd b072 843c 6921 4ebd
0.14424492 -0.060371056 -0.01513959 0.035761014 -0.1365061 -0.0029760425 -0.09563645 0.0029573308
0.12855883 -0.0095470585 0.16996737 -0.062443543 0.037234657 0.07160311 0.14950043 0.074336156
-0.06885143 0.075614676 0.09809488 0.04993177 0.102362126 -0.04350298 0.15922548 -0.10958092
-0.111555 -0.112673625 0.16244057 -0.012561047 0.012861759 0.023715245 0.0820437 0.04098896
-0.031177659 -0.08722419 0.024010703 0.0067069237 0.04510386 -0.050553877 0.1462259 0.16531514
0.13251197 0.15443176 0.030917961 -0.039381888 0.07596984 0.02380838 -0.05862583 -0.021790177
-0.026229745 0.04203047 -0.06007943 0.014284924 -0.010946163 -0.117330946 0.081288904 0.0032404088
0.097444594 0.057669815 0.0044238977 -0.03902001 -0.07743412 -0.07610188 -0.10492131 0.058589835
-0.12406343 -0.11935361 -0.12765771 -0.041402787 0.08454999 0.15562737 -0.02323568 0.15591742
0.2003277 0.21422303 -0.10990475 0.041372325 -0.014498238 0.031292815 0.11785095 -0.009875282
-0.015044319 0.046052776 0.12341081 -0.025284285 0.092354044 -0.097116396 0.047078118 -0.014338744
-0.15857932 0.012213575 -0.014532845 -0.038749106 -0.028100835 0.080826424 0.1470804 0.022780927
-0.03639136 0.052830268 0.13747118 0.060986064 0.028662281 -0.065709144 0.034463387 -0.08675877
0.05331179 -0.15070495 0.09112538 -0.01123541 0.024241215 -0.12802568 -0.102822125 0.119635105
0.050972868 0.27862346 -0.049746953 -0.075560845 0.094353065 -0.08489106 0.091801226 0.08314456
-0.12584086 0.029742053 0.12011868 -0.13791113 -0.011384546 0.007863913 -0.00015425349 0.096268594
0.0589435 -0.039060585 -0.1031515 -0.008262026 -0.059790876 -0.026219217 -0.037222758 0.12261514
-0.079715796 -0.029336808 0.052969974 -0.096397564 0.013036582 0.09371028 0.07404274 0.08043185
-0.013572812 -0.08777387 0.024262484 0.05650272 0.0985394 -0.010260246 -0.19177987 -7.442064e-05
-0.11027791 0.00037965467 0.053224817 0.06743797 0.22537346 0.17565747 -0.12343308 -0.0069464305
-0.12031848 0.118515834 0.09287229 0.08477217 -0.023360904 0.014870651 0.013789744 0.01742867
-0.023051921 -0.036284477 -0.063612424 -0.0034529648 -0.059473984 -0.10083594 0.08363034 0.12868342
-0.16867036 0.09393559 -0.014267952 -0.020157997 -0.20937467 -0.1085629 -0.016414866 0.0010249654
0.05401074 0.15032294 0.030973064 0.07351402 -0.031612545 -0.1443654 0.03113395 -0.13806172
0.0399892 0.054379843 -0.01763354 -0.05183718 -0.1659474 -0.035783555 0.0056711147 -0.08567209
0.026091509 0.07245879 -0.014837244 -0.10023504 -0.099349275 0.15231264 -0.013893274 -0.18669054
0.058715332 -0.035724748 0.041570142 -0.103730276 0.09447979 0.0142897535 0.10298407 0.14475466
0.020778393 0.17222516 0.12326152 0.13032506 0.13543068 -0.07703728 -0.0806004 0.007495351
-0.10966782 -0.04723472 0.14118269 0.1572466 0.06627753 -0.15675993 -0.0571499 0.1265259
-0.087820224 -0.036536917 -0.0854429 -0.035521444 0.15077733 0.09257574 -0.034312524 -0.050959434
0.25702873 -0.07245193 -0.002071295 0.036197003 -0.2052181 0.032999944 -0.054221872 0.1559941
0.07424952 0.16431479 0.096924186 -0.087254316 -0.16499978 -0.12139319 0.016167969 -0.05032483

network_body._body_endoder.seq_layers.2.bias f4 [128]
00000000: c917 1fbd 599f 34be 9b0b 99bd 1649 94bd
00000010: f453 7ebe e1fd 61be c217 95bd 4894 45be
00000020: db07 a1bd 46a3 90bd 8008 373d 5665 983c
00000030: 9efc 5ebe 42a4 6f3c 272c 25be 7bb2 043d
00000040: 3b43 483d 0daa 123e 7e4d 523d dec8 43be
00000050: 9fb2 79bd 22d8 cb3c a47c 57be 6183 35be
00000060: 278b 393d 6282 16be 9ad2 31be b6a3 51be
00000070: e941 50be e809 9abd c4d0 6abe a2ec 02be
00000080: 9db9 87bd bed5 6bbd e65f 96bd 44a6 84bd
00000090: b6bf 5a3d 1d57 9c3a 4a95 9abc 6b6a 62be
000000a0: 874f fc3c ba47 b0bd 3ce0 5d3d 1c61 4bbe
000000b0: 407d 44be a3bd 67be e20b 20be b525 51bd
000000c0: 633a 2ebe 5bb3 9e3d c359 dcbd c118 c2bd
000000d0: 6c22 c03d 1c8e d03c 5e47 1f3e 84e9 42be
000000e0: 503a ca3c aa4b d5bd 34d8 52be 4ca1 fcbd
000000f0: 11d9 35be d68c 34be b94f 3cbe 70af fdbd
00000100: 5ae2 d7bd edc8 46be daaf 7abe b4cd 123e
00000110: 9d83 b4bd ea73 433d 3745 11be 8674 19be
00000120: 2b51 1d3e 59d6 523d 453d a4bd 971a 6fbe
00000130: cb25 383d 6428 cabd eeca 903d a70b 3dbe
00000140: fe86 1cbe b0b5 00be c144 8bbd 3530 2bbb
00000150: ec21 9d3d 086b b03d 4b4b 56bd 8dbe dbbd
00000160: 9787 3ebe 3097 9ebd 57d2 603d 6e09 a73d
00000170: 44bd 883d b712 1fbe 8f36 43be 58af 30be
00000180: 5e49 783d 1033 67bd f996 c3bd ca4b c7bb
00000190: 3057 8ebd b360 2bbe 3a27 6dbe 14c1 84bd
000001a0: 38f0 a2bd a122 91bd b3ec 81bd 7039 0f3e
000001b0: 3a8e 74be 7e96 40be 4ed7 28be d5ac 0ebe
000001c0: cab8 27be 4de8 13be 2454 9bbd 8eaa a13d
000001d0: 6226 96bd 6f8f a83d 3ce3 01be b610 a0bd
000001e0: 5d14 35be 6668 71be 4242 8bbd b46d 86bd
000001f0: e789 27be a418 173e 1f16 a8bd 6947 e43d
-0.038841043 -0.17638911 -0.07472917 -0.072405025 -0.24836713 -0.22069503 -0.07279922 -0.19294846
-0.078628264 -0.07062392 0.04468584 0.018603008 -0.21776053 0.014626564 -0.16130124 0.032396775
0.04889224 0.14322682 0.051343434 -0.19119594 -0.060961362 0.024883334 -0.2104364 -0.17725898
0.04529872 -0.14698175 -0.17365494 -0.20472607 -0.20337643 -0.07521421 -0.229312 -0.12785581
-0.066272 -0.057576887 -0.0734251 -0.06477025 0.053405486 0.0011927817 -0.018870015 -0.22110908
0.03079964 -0.08607431 0.054168925 -0.19861263 -0.19188404 -0.22630934 -0.15629533 -0.05106135
-0.1701446 0.07749053 -0.10759308 -0.09477378 0.093815655 0.025458388 0.15554568 -0.19034392
0.024686009 -0.104148224 -0.20590287 -0.123354524 -0.17758586 -0.1763185 -0.18389787 -0.12386978
-0.1054122 -0.19412585 -0.24481145 0.14336282 -0.08814166 0.047717966 -0.1418656 -0.14985856
0.15362994 0.05147395 -0.08019499 -0.23349987 0.044957917 -0.09870985 0.07069956 -0.18461476
-0.1528587 -0.12569308 -0.06800223 -0.0026121263 0.07672486 0.086141646 -0.0523179 -0.10729704
-0.18606411 -0.077436805 0.054888096 0.081560954 0.066767246 -0.15534483 -0.19063781 -0.17254388
0.060616843 -0.05644518 -0.0955028 -0.006082033 -0.069502234 -0.16736107 -0.23159495 -0.06482139
-0.07955974 -0.07086683 -0.06343975 0.13986754 -0.2388238 -0.18807408 -0.16488382 -0.13933118
-0.16379085 -0.14444084 -0.07584408 0.07893859 -0.0733154 0.08230483 -0.1268434 -0.07815687
-0.17683549 -0.23574981 -0.06799747 -0.06563893 -0.163612 0.14755493 -0.08207344 0.11146433

action_model._continuous_distribution.mu.weight f4 [1, 128]
00000000: d1db 723b 9dee 173e bf93 b63c e732 aa3c
00000010: 6ecb 303e 2097 8d3d e747 033d d2bc 243e
00000020: 0548 cc3c 2a01 d93c eaba 38bb 429f 793a
00000030: 7759 053e 0d1e d93a 2748 383e a108 11bb
00000040: 8625 0fbc 2dc9 2abd 87e2 0fbd 90b3 2b3e
00000050: 20dc c93c 5ab3 553b 34d3 3d3e 4886 763d
00000060: e75e 2cbc d1d8 5c3d 1902 513e b5ec 173e
00000070: 8caa c63c 378c 673c c421 153e 22d5 4e3d
00000080: d5d5 8e3c e0c7 ab3c 2f3f ad3c 5dcb 3f3a
00000090: c304 c8bb 5293 163b 3793 253b 4dc8 363e
000000a0: b4a5 81ba c118 693c dbd7 1b3b d951 f13d
000000b0: 2e12 e83d c37e 373d 6470 a13d 5075 9d3b
000000c0: 8b8b 2c3e 6b72 eabb 0833 423d 5db7 a13d
000000d0: b578 26bd c0e4 9db9 1aeb 67bd 0f7f 4f3e
000000e0: 54a4 90b9 476f 063c 6d4e a33d 3ee6 b83d
000000f0: b15f 283e 41c4 f33c d99a 3c3e ba76 a03d
00000100: 8e65 073d f9a2 213e f3f0 d53d 6b37 1fbd
00000110: dad5 783c 328c 9ebc c675 133d 96e3 1f3e
00000120: 1fc5 6abd eca9 d6bb 9993 af3b 5299 3b3e
00000130: cf40 29bb bf0d 853c 20c3 00bd 8a94 403e
00000140: e6f8 3e3e 210d 8f3d 70f9 593c af8f 0e3b
00000150: cc59 0dbd 999d 8bbc 531f 7836 6a29 8b3c
00000160: 176a 1d3e 3f66 833c 3292 d7bc add9 4aba
00000170: 88f8 9ebc 438c 183e 1ef1 173e 5e35 b73c
00000180: 1b9d 5bbc c68c 313b 644c 193c 8349 7b39
00000190: 3470 ae3c d434 113e 9631 313e edbe 3e3c
000001a0: 2122 1c3d 577e 333d 5980 213d 814c 82bd
000001b0: 040f 2d3e 712c ac3d 1813 383e 40ee 8d3d
000001c0: 6ce4 523e 433a 7a3b f49f 753c 8190 dcbc
000001d0: ab3b 9c3c 2b79 f2bb 0585 f73b 2814 173d
000001e0: ece9 463e 30ad 1f3e 07c0 df3c ca27 0c3d
000001f0: f194 313e 8adc 8fbd e1d1 5d3c d927 17bd
0.003705729 0.14837117 0.022287248 0.020776225 0.17265102 0.069135904 0.032050993 0.16087654
0.024936685 0.026489813 -0.0028187581 0.00095223275 0.1302241 0.0016564742 0.17996274 -0.0022130387
-0.008736974 -0.041695762 -0.035128143 0.16767716 0.024641097 0.0032608123 0.18537599 0.060186654
-0.010520673 0.05391771 0.20410956 0.1483639 0.024251245 0.014132551 0.14563662 0.050496228
0.017435947 0.020969331 0.021148292 0.0007316375 -0.0061040833 0.0022975993 0.002526475 0.17849846
-0.0009891302 0.014227093 0.0023779783 0.11783189 0.113315925 0.044798624 0.07882765 0.0048052445
0.16850106 -0.007154753 0.04741195 0.07896302 -0.04064246 -0.00030115806 -0.056620695 0.20263313
-0.00027588254 0.0082052415 0.07973943 0.0902829 0.16442753 0.029756667 0.18418445 0.07835145
0.033055834 0.15784825 0.10446348 -0.03887121 0.015187705 -0.01935396 0.03600099 0.15614161
-0.057316896 -0.006551018 0.005358171 0.18320206 -0.0025825982 0.016241906 -0.031436086 0.18806663
0.18649635 0.06984926 0.013304099 0.0021753123 -0.034509465 -0.017042922 3.6973113e-06 0.016987521
0.15372501 0.016039966 -0.026314829 -0.00077381247 -0.019405618 0.14897256 0.14838073 0.022364315
-0.013404156 0.0027091964 0.009356592 0.0002396461 0.021293737 0.14180309 0.17304072 0.0116422
0.038118485 0.04382166 0.039429042 -0.06362248 0.1690026 0.08406914 0.17976034 0.06930208
0.20594949 0.00381817 0.014991749 -0.026924374 0.01907142 -0.0073996983 0.007553699 0.036884457
0.19425172 0.1559341 0.027313245 0.034217633 0.17341973 -0.07024486 0.013538809 -0.036903236

action_model._discrete_distribution.branches.0.weight f4 [1, 128]
00000000: 37d4 0dbc 9fcd a03c 4eee 8f3c e46c 143c
00000010: 55e4 8bba 4fb7 dabb b3df 803b 5a9e 7b3b
00000020: f71f 1abb e027 623c d99a 453b fd29 863b
00000030: 479b 5b39 7341 a93b a319 1cbc bb52 5f3c
00000040: 323f 90bb 12df 633b ba43 42bc f3a0 b7bb
00000050: 9010 a13b 8291 c7bb f313 513c 081e fabb
00000060: fed7 8039 8b73 803c b2a0 bb39 3e70 813c
00000070: f3c3 8dbc f796 bf3c bc95 46bb 8b51 46bb
00000080: 3f7e 91bc eb8f 70bc 6fcc a33c d78e 993b
00000090: 6399 5bbb c7cb 0a3a d190 0c3c 9e6a 383c
000000a0: c8b8 e1bc 2782 babb 2f4d 493b 3ac8 663b
000000b0: 8370 afbc c5e7 63ba 749c 333a 573c 4bbb
000000c0: 7b27 d43b 350b d9b9 fde5 763c 1d69 cebc
000000d0: 006e c23b c92a 26bb a5ff ad3b 3434 b23b
000000e0: 3786 d3b7 eade bebb c3dc b4bb d047 7d3b
000000f0: b3bf ed3c dbef 38bb 02b4 9cbb 2242 e13a
00000100: 91fd 0c3b efd3 9b3b a2f4 08bc 3da2 6ebc
00000110: 8735 1fbc ffbc a33a 0a24 09bc 529d a7bb
00000120: 01db 823b 4a38 93b8 ced1 ba3b 8b5d 93bb
00000130: b979 9cbc 8349 62bc ae4c 47bc 7f8c 3039
00000140: e2c2 6d3c c8e8 c83c e9c4 21bc 08ee d8ba
00000150: c239 713a 26eb 15bc c47c 99bb f81f 633b
00000160: 1616 2e3b 1d9c 32bb c216 1ebc d08c 58bc
00000170: 3221 29bc d881 503c aadc 33bc 0a33 75bc
00000180: eb34 8bb9 ab6e fcb7 606a eb3b c894 c33b
00000190: 2a52 6ebb adc3 d13a 4962 a9bb eb01 923c
000001a0: ca8b 553b 8e76 083a 40fa 4fbb 01da 913b
000001b0: 3f07 eb3a d06b 90bc 5dbc ddba 3f6d aabb
000001c0: 913a 81bc 8f84 cb3b ad30 ab3b 1b15 953a
000001d0: c70c b73a 5fea 5e3a 4a44 b6bc ede2 5cbc
000001e0: 4b4c 133c 9894 6d3b 9cb9 cc3b 1aac 173c
000001f0: 5146 033c a306 dd3b b77a a73b c070 db3b
-0.008656553 0.019629298 0.017569687 0.009059165 -0.0010672907 -0.006674684 0.003932917 0.0038393945
-0.0023517588 0.013803452 0.003015211 0.004094361 0.00020943313 0.005165273 -0.009527597 0.013630564
-0.0044020647 0.0034770411 -0.011856968 -0.0056039034 0.0049153045 -0.006090344 0.012761104 -0.0076329745
0.0002457499 0.015680095 0.00035787147 0.015800592 -0.01730535 0.023387415 -0.003030165 -0.0030261006
-0.017760394 -0.01468275 0.019994942 0.0046862173 -0.0033508174 0.00052946474 0.008579449 0.011255888
-0.02755393 -0.005691785 0.003071617 0.003521456 -0.021415954 -0.0008693899 0.00068516214 -0.0031011307
0.006474433 -0.00041397815 0.015069482 -0.025196606 0.005933523 -0.0025355092 0.005310016 0.005438352
-2.5215659e-05 -0.0058249133 -0.005519481 0.003864754 0.029022073 -0.0028219137 -0.004782201 0.0017185847
0.0021513442 0.004755489 -0.008359106 -0.014565048 -0.009717352 0.0012492238 -0.008370409 -0.0051151896
0.0039933925 -7.019991e-05 0.00570128 -0.004497235 -0.01910101 -0.013811472 -0.012164278 0.00016837007
0.014511796 0.024525061 -0.009873607 -0.0016550431 0.0009202027 -0.009150302 -0.0046840627 0.0034656506
0.0026563457 -0.0027253695 -0.009648981 -0.013217166 -0.010322856 0.01272627 -0.010977903 -0.014965782
-0.00026551573 -3.0092275e-05 0.0071843117 0.005968664 -0.0036364892 0.001600375 -0.005169187 0.01782318
0.0032584541 0.00052056543 -0.0031734854 0.004451037 0.0017931237 -0.017629534 -0.0016917099 -0.0052010114
-0.015774997 0.0062108706 0.0052243085 0.0011374088 0.00139656 0.0008503552 -0.02224936 -0.013481838
0.008990358 0.00362519 0.0062477123 0.009257341 0.00801237 0.006745176 0.0051110643 0.0066967905

exp_avg f4 [128, 1]
00000000: 8028 9438 b751 03b8 f1b0 b4ba c195 653a
00000010: 6400 13bb 0300 3e38 3ce6 aeba 24fa 41bb
00000020: a484 e637 9834 a938 13dd 8cb7 71cc e2ba
00000030: 7ff6 fdba 94ee 13b6 0807 1e39 e565 3e37
00000040: 0760 2637 94cd 383b 8007 8bbb 3fbe 41bb
00000050: 9c02 4f38 58a3 2fbb 1031 b33a ded3 293b
00000060: b07f 8939 98f4 df38 92d4 c1ba 7cb4 95b7
00000070: f727 a338 666a 21b8 42f2 023b e7ec a1bb
00000080: e6e4 b337 ad90 44b7 b983 c438 4e4f 80b8
00000090: b1df f1ba 31b9 0b38 ab64 6ebb 9090 7e36
000000a0: c48b 063b d42e 9537 587a b8b6 9fce bfbb
000000b0: 8ed8 3537 78d4 5f38 09bf 5fba 0392 03bb
000000c0: abdf b33a c3e4 0138 42ce 44bb ac7f f3b5
000000d0: 98fa 8d37 420d bdba 338b 19bb ee66 bfba
000000e0: 7161 e038 c32c de3a 6ada 44bb 0bd6 11bb
000000f0: 6add 8cbb a03d 4abb 889d da37 27f6 683a
00000100: a0b6 b13a e885 4a3b bdb1 40ba 06e4 e939
00000110: 92bb 1dbb 2a8a 2137 ee3c 9dbb be62 0fb8
00000120: 85ef 6437 f7ea edb7 c1e6 8538 9f9e 69bb
00000130: 8485 b8ba 2658 f8b7 0800 53b8 ebce 7fbb
00000140: 72a3 3f3b 3d05 48bb 9ec8 3238 3e1c b5ba
00000150: 7e0c 9837 f6f0 1bb8 989d aeb7 8c26 7238
00000160: a048 58b7 c1a6 ccb6 c838 51b7 e559 54ba
00000170: b6bc 31bb d7ed 9e37 468a b438 da23 a6b7
00000180: f00c 0d38 c7b5 60ba c240 3ebb c629 b4ba
00000190: d17a e538 bfed 2a38 422f 8aba 9432 2338
000001a0: 0f0b a6bb c446 833b efa6 87bb d925 55bb
000001b0: 2c1c 1fba 7c9b 66b7 4644 413a ca6b 2737
000001c0: 30d0 b7bb a2d5 11bb 7a09 7e38 44c3 82bb
000001d0: d811 8d37 112b 64bb c9c4 f438 ec41 32b7
000001e0: 102d a439 cc8b 413a 593d 3abb bb8c aa3a
000001f0: 34dc e73a d2e7 60ba b5d3 aebb 5631 9738
7.064734e-05 -3.1308937e-05 -0.0013785643 0.0008757972 -0.0022430653 4.529954e-05 -0.0013343762 -0.0029598558
2.7479902e-05 8.068344e-05 -1.6792246e-05 -0.001730336 -0.001937583 -2.2043578e-06 0.00015070674 1.1348607e-05
9.916729e-06 0.0028198706 -0.0042428374 -0.0029562858 4.9355076e-05 -0.0026800241 0.0013671238 0.0025913636
0.0002622581 0.00010679028 -0.0014788082 -1.7846229e-05 7.77989e-05 -3.8484483e-05 0.0019980823 -0.004941571
2.1445052e-05 -1.1716195e-05 9.3705436e-05 -6.118287e-05 -0.0018453506 3.3312655e-05 -0.003637592 3.7933096e-06
0.0020530084 1.778399e-05 -5.49787e-06 -0.0058534886 1.0838861e-05 5.336522e-05 -0.00085352414 -0.0020076043
0.0013723274 3.0969048e-05 -0.0030030166 -1.8142068e-06 1.6925202e-05 -0.0014423507 -0.0023428916 -0.0014602819
0.00010699302 0.0016950596 -0.0030037411 -0.0022252824 -0.0042988556 -0.0030859485 2.6060981e-05 0.0008886777
0.0013558455 0.0030902568 -0.0007350704 0.00044611114 -0.00240681 9.628517e-06 -0.004798523 -3.4185818e-05
1.36456265e-05 -2.8362016e-05 6.3849155e-05 -0.0035647524 -0.0014077877 -2.9604951e-05 -5.030635e-05 -0.0039033245
0.0029241708 -0.00305207 4.2625346e-05 -0.0013817621 1.812563e-05 -3.7179292e-05 -2.0815802e-05 5.7733196e-05
-1.2891513e-05 -6.0990865e-06 -1.2470591e-05 -0.00081005535 -0.0027120537 1.894582e-05 8.608824e-05 -1.9805437e-05
3.362907e-05 -0.0008572009 -0.0029030298 -0.001374536 0.00010942447 4.0752577e-05 -0.0010542648 3.8909333e-05
-0.0050672363 0.0040062387 -0.004139773 -0.003252378 -0.00060695666 -1.374527e-05 0.0007372539 9.979072e-06
-0.0056095347 -0.002225258 6.0567145e-05 -0.0039905626 1.6816819e-05 -0.0034815709 0.00011671481 -1.0624975e-05
0.00031314092 0.0007383197 -0.0028417914 0.0013011912 0.0017689527 -0.0008579466 -0.005335296 7.2094306e-05

exp_avg_sq f4 [128, 1]
00000000: b857 f834 8389 db33 c8db 8f38 c672 bc38
00000010: 2622 5e39 4905 8532 d3f4 9638 a59c cf39
00000020: b147 f832 9ebd 8534 6715 3934 7c7d e038
00000030: d4be 3539 3c57 9d33 284b 9c35 0bf2 2333
00000040: f6b5 6f33 b95d 113a 4f7b 363a bcad ba39
00000050: f6c5 3e32 c00f 9c39 87c3 0e39 a3f2 9539
00000060: cda7 c135 04c6 5d34 1c9e c538 40e9 2633
00000070: 757a 2135 793c 5f32 ca7f 8339 f444 873a
00000080: 076c 6133 fdda a433 1b6a da34 20f9 d832
00000090: 342f fb38 1fbf 2d33 2a79 203a 9b3b c432
000000a0: a816 5f39 3e95 0133 e76f 6933 b02c bf3a
000000b0: 4669 0034 1c36 cb32 2c9b 5c38 60b8 2539
000000c0: f32f e038 6fda 4832 c5b3 be39 ad56 f333
000000d0: aef5 8733 9fc1 c338 9a59 b239 45c5 0c39
000000e0: c87f 0335 8b69 2539 5a70 ba39 69e3 7739
000000f0: d4ce 463a 0642 e939 db49 fa32 92c2 4a38
00000100: 360c b738 2c99 dd39 952a a737 a914 4236
00000110: d665 7839 80d8 1d34 d0fc 833a b7ce f033
00000120: 81bc 6d33 0bd0 aa33 e1e9 9533 0f0a 103a
00000130: e93e a738 85e6 0933 e56b ed37 006e 1f3a
00000140: db2c 023a 3979 e639 14d6 c432 8f6c be38
00000150: f1ef ff31 d75b 0c33 b127 4033 8f2e b134
00000160: ebfb 8633 6558 eb32 b18d 6133 bfa1 f337
00000170: 53c3 b939 aaf7 6733 1759 0034 fd00 9332
00000180: 4a89 3d32 7178 e137 0824 d139 12b5 c838
00000190: cc01 b234 adea 4c33 ee22 2d38 1b72 c032
000001a0: 721e 993a e7f3 423a 53bd 313a c2c9 e639
000001b0: 112e c937 3fad f932 96c0 2738 4133 aa33
000001c0: 80fd b43a 6c3b 5a39 0ecb 6f32 c682 3c3a
000001d0: d2ca a833 b38e 053a 5d22 5434 1a7d 3533
000001e0: 4525 ed35 4aa0 8738 06ad c439 ba9d ab38
000001f0: 912b 7539 cadb d337 f4af 9a3a b9f9 f833
4.6257423e-07 1.02229954e-07 6.859709e-05 8.985917e-05 0.00021184291 1.5485641e-08 7.1981594e-05 0.00039598826
2.8903601e-08 2.4911145e-07 1.7237254e-07 0.000107045256 0.00017332594 7.32675e-08 1.1644779e-06 3.817153e-08
5.5812016e-08 0.0005545277 0.00069611234 0.00035606127 1.1104467e-08 0.00029766373 0.00013615015 0.00028600273
1.4428457e-06 2.0654267e-07 9.423142e-05 3.8862026e-08 6.015537e-07 1.2994058e-08 0.00025081477 0.0010320232
5.2485145e-08 7.676679e-08 4.0682866e-07 2.5258998e-08 0.00011977405 4.0453525e-08 0.00061215705 2.2844509e-08
0.00021275377 3.0170888e-08 5.4351315e-08 0.0014585461 1.1959227e-07 2.3656916e-08 5.2596602e-05 0.00015804311
0.000106900836 1.1691198e-08 0.00036373563 1.13313355e-07 6.331116e-08 9.334389e-05 0.00034017564 0.00013424929
4.898725e-07 0.00015774944 0.00035560393 0.00023640473 0.00075839204 0.00044490414 2.9137416e-08 4.834176e-05
8.7283945e-05 0.00042266527 1.992778e-05 2.8920279e-06 0.0002368906 1.4700527e-07 0.0010069851 1.1213472e-07
5.5352306e-08 7.954085e-08 6.9808955e-08 0.0005494663 7.9748985e-05 3.2107454e-08 2.8302844e-05 0.000608176
0.00049657904 0.00043959336 2.2914755e-08 9.0801266e-05 7.448755e-09 3.2679818e-08 4.4739583e-08 3.3002695e-07
6.285685e-08 2.7397798e-08 5.2515762e-08 2.9043176e-05 0.00035431478 5.4009128e-08 1.195334e-07 1.7113502e-08
1.1032464e-08 2.6878175e-05 0.00039890432 9.57047e-05 3.315639e-07 4.7710888e-08 4.1278945e-05 2.2403631e-08
0.0011682047 0.0007436857 0.00067802257 0.0004401934 2.3982519e-05 2.9066198e-08 3.9995262e-05 7.925565e-08
0.0013808459 0.00020812236 1.39578e-08 0.00071911176 7.8600024e-08 0.0005094811 1.975654e-07 4.2256126e-08
1.7668723e-06 6.467158e-05 0.00037512946 8.183294e-05 0.0002338125 2.5255507e-05 0.0011801706 1.1593824e-07

exp_avg f4 [128]
00000000: 0c62 ae38 247e b537 6095 cc36 8c4e 81b8
00000010: 10b5 ab38 7b28 b337 da83 2137 fe5d c538
00000020: 746b 5738 d88a 9438 2238 9138 f820 9337
00000030: ba4b 8838 62fa 8b38 f709 9e38 cca9 4338
00000040: 90ad ae36 5852 29b9 0264 9038 dcdf cf38
00000050: 08e1 9037 2ad1 3138 ab0a 86b8 03a3 33b8
00000060: 2d06 98b7 bcb1 96b8 2a8e 0938 2c8c 3838
00000070: 0a10 b438 60b4 e637 78db 28b9 8c7c 1739
00000080: 8ef4 fb37 ba81 5938 7680 8338 e4ac 1938
00000090: bc82 8a37 b2a6 9937 4274 1c39 9751 0338
000000a0: 5cf5 bfb8 5c05 2138 d4ef 5d37 754e 5d39
000000b0: 4c56 3a38 5ee6 6038 1b45 bfb7 c50c 8a38
000000c0: 9730 59b8 9534 ba37 34e6 9b38 b660 4e38
000000d0: 7638 8837 6ccc 3138 103e b938 7c58 d738
000000e0: 9d04 9038 06f8 f1b7 0343 3938 6903 d638
000000f0: 671e 2439 0163 f438 99d6 cb37 22be 21b8
00000100: 1239 06b8 c437 0ab9 858b 17b7 82d4 a338
00000110: 5991 4538 69ce ad38 e681 3939 4cda 6b37
00000120: 5620 0b37 5ef7 8d38 c52d 7a37 cf87 0c39
00000130: 4220 2838 d128 9d37 8199 84b8 4674 d138
00000140: a8b7 04b9 fc6a f438 e1c8 9837 d88a 3e38
00000150: e99e b437 d794 e936 b02e 2d38 a44e a838
00000160: 9935 d337 94c7 2d38 76aa 8a37 c550 c137
00000170: 26db ba38 88d5 3038 a62c e337 55b5 be37
00000180: 7c4e 0538 a4e4 1938 087c bd38 7bf7 1d37
00000190: a10d 1938 c6d8 9538 252c f737 1804 2038
000001a0: fc09 3039 100d 26b9 c3fb a338 a220 d038
000001b0: 4c59 8b35 b1bc ca37 deca 02b7 4d31 7638
000001c0: 90c6 4e39 f813 8738 0271 3538 fafc 1139
000001d0: 360c b338 36b4 f538 c4ac 9cb7 63dc 8137
000001e0: 3c44 6538 8e73 80b8 fe56 af38 46b5 d4b8
000001f0: bca2 cdb8 7e0f b036 ec37 2339 fc7a 0238
8.315229e-05 2.163562e-05 6.0970633e-06 -6.16583e-05 8.187641e-05 2.1357313e-05 9.627047e-06 9.4111994e-05
5.1360068e-05 7.0830516e-05 6.924594e-05 1.7539118e-05 6.4990905e-05 6.674674e-05 7.535883e-05 4.664976e-05
5.2058094e-06 -0.00016147771 6.885083e-05 9.912226e-05 1.7270926e-05 4.2394888e-05 -6.391605e-05 -4.2828742e-05
-1.8122688e-05 -7.185663e-05 3.2795746e-05 4.3999564e-05 8.586056e-05 2.750213e-05 -0.00016103487 0.0001444688
3.0035411e-05 5.185765e-05 6.2704945e-05 3.663906e-05 1.651176e-05 1.8316645e-05 0.00014920629 3.130882e-05
-9.1532915e-05 3.8390383e-05 1.3228466e-05 0.0002110543 4.4426226e-05 5.3620308e-05 -2.2801154e-05 6.582731e-05
-5.1782084e-05 2.2197413e-05 7.4338546e-05 4.9204296e-05 1.6238755e-05 4.239047e-05 8.8330475e-05 0.000102684804
6.8673144e-05 -2.8844934e-05 4.4169847e-05 0.000102049504 0.00015651585 0.000116532676 2.4299416e-05 -3.8562466e-05
-3.200124e-05 -0.0001318148 -9.032786e-06 7.812028e-05 4.7103826e-05 8.28773e-05 0.00017691366 1.4057918e-05
8.292574e-06 6.76948e-05 1.4911818e-05 0.00013402033 4.0084364e-05 1.8734865e-05 -6.322843e-05 9.987554e-05
-0.00012656918 0.00011654754 1.8213354e-05 4.542884e-05 2.153167e-05 6.9612684e-06 4.1289895e-05 8.025512e-05
2.5178118e-05 4.1432286e-05 1.6530259e-05 2.3045004e-05 8.909991e-05 4.2160536e-05 2.70813e-05 2.2734204e-05
3.1782765e-05 3.669098e-05 9.035325e-05 9.41555e-06 3.6490736e-05 7.145251e-05 2.9465251e-05 3.8150785e-05
0.00016788387 -0.0001583586 7.81934e-05 9.924291e-05 1.0382296e-06 2.4168143e-05 -7.7958375e-06 5.8696885e-05
0.00019719661 6.441021e-05 4.325901e-05 0.00013922519 8.5376596e-05 0.00011716077 -1.86771e-05 1.5480624e-05
5.4661403e-05 -6.125039e-05 8.360854e-05 -0.000101427126 -9.8054734e-05 5.2470123e-06 0.00015565724 3.1108953e-05

exp_avg_sq f4 [128]
00000000: e118 a633 ec21 1c32 235b 6a33 dfd8 3033
00000010: 09d2 e933 b236 ab31 9014 2433 c78d 3634
00000020: bc61 5633 7342 f432 2699 8233 3ae6 b633
00000030: 38c0 ac33 ecb5 1633 2211 1c33 478e 1732
00000040: 7656 d632 8781 7e34 cd3b b334 1fe3 2734
00000050: 14ff 7e32 6859 1a34 8ac5 9b33 5f9e 5834
00000060: f119 1133 3cda 3933 02e3 3033 3854 cf32
00000070: 830c 9b33 b43a b631 4fbc 1434 70b1 f034
00000080: f6a3 3933 1c78 3a32 8120 0d33 5187 8b32
00000090: 80df 8033 f8b7 af31 f37c a034 b0e7 a332
000000a0: cdcd c633 83c7 1033 ae17 9332 b718 2b35
000000b0: f01a b133 4e0e 4d33 6e25 c832 ef35 ab33
000000c0: 080c 4a33 c197 b931 26b9 3a34 b92b 5332
000000d0: 0dc6 1932 f047 5633 7a90 4334 bede fc33
000000e0: 8235 2833 23ce 9533 6a09 3534 df3e 1034
000000f0: 6283 b634 31ee 6034 fe7a c731 d765 0733
00000100: 0cf0 3133 8f32 4a34 b62e 4832 1595 d833
00000110: af22 fe33 5009 5533 480b fc34 0871 dc32
00000120: 8ee0 4b32 fecf 8033 6466 2f32 16da 8734
00000130: e81c 2433 8c7d cb32 2a0a f032 724c 9d34
00000140: 1715 6a34 e54e 5c34 189a 4333 63c5 6433
00000150: 46f4 2f31 00f8 bf31 6544 f132 2cad 9d33
00000160: f773 c232 47cd 2032 4f36 9532 2552 6332
00000170: 89cf 3b34 c5f4 6332 b592 8432 5d57 8431
00000180: f6dd ac32 2f39 aa32 cbdd 3734 eb76 2c33
00000190: bbf3 5732 e686 9633 486f 0933 dbba 3333
000001a0: f7b2 1035 0543 aa34 25b8 a734 3085 5a34
000001b0: 26ad ac32 77bc 6c32 4737 c732 3f00 d332
000001c0: dbd4 2235 28f6 c133 4e6f ed32 7379 b134
000001d0: 0ac4 9333 26f4 6834 6643 aa32 3874 4332
000001e0: b829 1b33 fa3b 0333 b085 3734 dc71 3033
000001f0: f6db db33 fd66 8232 f73d 0f35 e479 5d32
7.734503e-08 9.088108e-09 5.456526e-08 4.1175436e-08 1.0888113e-07 4.982973e-09 3.8202927e-08 1.7001649e-07
4.9914647e-08 2.8435556e-08 6.081454e-08 8.5169134e-08 8.0443385e-08 3.5090054e-08 3.6337163e-08 8.821707e-09
2.4952197e-08 2.3702715e-07 3.338486e-07 1.5635713e-07 1.4842744e-08 1.4374893e-07 7.253682e-08 2.0174183e-07
3.3784037e-08 4.3272152e-08 4.1184656e-08 2.413627e-08 7.220026e-08 5.303571e-09 1.385208e-07 4.4832586e-07
4.322279e-08 1.0853935e-08 3.2858683e-08 1.6243265e-08 6.001119e-08 5.114085e-09 2.9893235e-07 1.9081057e-08
9.2575284e-08 3.3709068e-08 1.712382e-08 6.373843e-07 8.247105e-08 4.7743292e-08 2.3300085e-08 7.9726185e-08
4.7042732e-08 5.401461e-09 1.7389956e-07 1.2291758e-08 8.950804e-09 4.9891185e-08 1.821335e-07 1.1775181e-07
3.9164213e-08 6.975849e-08 1.6860363e-07 1.3433917e-07 3.3995735e-07 2.0948279e-07 5.805645e-09 3.152476e-08
4.1429345e-08 1.8831109e-07 1.1652153e-08 1.0085402e-07 1.18341056e-07 4.9601397e-08 4.6946866e-07 2.5662771e-08
1.1867213e-08 5.998298e-08 1.0209622e-08 2.5304388e-07 3.8210516e-08 2.3689402e-08 2.79443e-08 2.929915e-07
2.180062e-07 2.0517798e-07 4.5542123e-08 5.326491e-08 2.5604705e-09 5.587026e-09 2.8087195e-08 7.342382e-08
2.2637307e-08 9.3599e-09 1.737058e-08 1.32318165e-08 1.7491233e-07 1.3268793e-08 1.5433537e-08 3.8516377e-09
2.0124372e-08 1.9816609e-08 1.7123891e-07 4.0155026e-08 1.2570065e-08 7.009457e-08 3.1999008e-08 4.184663e-08
5.390461e-07 3.171373e-07 3.1240157e-07 2.0351285e-07 2.0102174e-08 1.377986e-08 2.3191786e-08 2.4563745e-08
6.065945e-07 9.0320384e-08 2.7641047e-08 3.3057185e-07 6.88088e-08 2.1695504e-07 1.9821254e-08 1.1376919e-08
3.6126693e-08 3.0555363e-08 1.7091838e-07 4.1081748e-08 1.0237993e-07 1.5180825e-08 5.336182e-07 1.2891608e-08

exp_avg f4 [128, 128]
00000000: 2fac 40b5 2548 3036 840c 6a39 349a 033a
00000010: 5ac3 bf38 d412 0b37 deed ea39 8ad5 2238
00000020: 5ce7 5937 f005 bdb3 e4cb 0b35 0348 d039
00000030: 0f18 ca38 2633 1435 9a87 d1b5 9cc8 9c35
00000040: 8aaf b336 8099 1b3a d850 a23a dcf6 6e3a
00000050: 3fae c636 603f 193a 74e5 6638 e347 f239
00000060: e8eb 83b5 eb9a 95b5 04f6 9939 b215 b635
00000070: 1eac 8bb5 a643 7836 f8c1 1c3a 8a05 4e3a
00000080: e0b1 0337 4884 83b4 e4d7 d0b5 d8e9 d635
00000090: 84b7 883a a166 e036 dc3d 9338 6cdf 4937
000000a0: ab8d ca39 8344 5237 0297 c036 cdfc 5138
000000b0: 9a33 0e37 de63 5637 7e67 a239 2c9e 9d39
000000c0: 6d02 4838 9f97 e736 3ec1 0b3a 58ef 0334
000000d0: a6d6 9036 cad7 5d38 d73a c739 45bf 2c37
000000e0: d564 aeb5 d1ba a83a 24d5 b73a fe36 9639
000000f0: a479 1d39 fd39 2b3a 86b9 3a36 5175 c538
00000100: 4477 0638 074d df39 81ff f139 d4ee 74b6
00000110: 2a54 373a 0034 f233 f425 8d39 11c0 f436
00000120: 82a0 a936 b8f5 1c34 33dd 4137 a16c d337
00000130: 171e 583a a651 8236 94a4 103a b9fd 093a
00000140: 944e 003a 9c83 5839 4b79 0337 5137 f638
00000150: 7f07 5c36 bbf1 fa36 1c85 f835 308d 60b4
00000160: 2ac7 1f37 3869 e835 4908 0937 31b0 5238
00000170: 33e6 f839 7052 b135 b92e 4237 d7e4 c036
00000180: 9e89 2137 ece4 1739 7a94 163a fc35 253a
00000190: d2f6 70b5 6ce8 7137 4649 9538 fa40 5537
000001a0: 7d3c 803a e222 073a a880 0b3a bc0c 053a
000001b0: daa4 9c39 0ec6 f035 daf1 0d3a d080 1334
000001c0: cc16 8e39 b6d7 1039 84d8 5937 20d2 ad39
000001d0: fa92 b037 e9c8 d537 506b ab34 baa1 8936
000001e0: 8dca 0eb6 c282 2f39 dd36 763a 4af9 403a
000001f0: b1e8 ab39 def7 0b3a 9c43 b239 744c 8936
00000200: a890 f9b6 ec1c 8bb7 1a7c 39b8 6663 dcb8
00000210: b505 99b7 d289 3db8 4f91 cdb8 69ad d8b6
00000220: 2395 8fb8 1c0f 16b7 e353 49b7 e793 b2b8
00000230: cbab a1b7 5a08 42b7 f2cf 83b6 4c3c 53b7
00000240: 049a fab7 205e 02b9 8d4c 88b9 ce69 52b9
00000250: bec0 08b8 30e6 04b9 2621 fab6 5adc d6b8
00000260: 1daa 0436 1dbf 9936 e676 84b8 c477 71b7
00000270: 3667 cbb6 79b4 c5b7 f4a0 03b9 6508 34b9
00000280: 2e47 33b8 fc19 e1b6 ade5 8db6 846a 82b7
00000290: 6569 68b9 48d2 1cb8 b58a 57b7 c1ae 85b8
000002a0: b097 abb8 da92 8bb8 b301 04b8 bf75 18b7
000002b0: 50b8 41b8 53bf 8cb8 6812 8ab8 66fc 87b8
000002c0: c265 e3b6 beee 1eb8 5828 f4b8 6251 ffb6
000002d0: 016d e0b7 c942 01b7 64a0 aeb8 47b3 8bb6
000002e0: 1984 acb6 1ad4 8fb9 4205 9bb9 23b4 84b8
000002f0: 42e2 01b8 6887 17b9 2d54 95b7 dd74 97b7
00000300: e459 afb6 c7fb b8b8 8670 d6b8 1e92 5eb6
00000310: b23e 21b9 8b40 28b7 dc99 74b8 4eae 27b8
00000320: 64f7 fcb7 f6a6 2db7 2a2e 78b8 9c2a acb6
00000330: f66c 3cb9 7b2e d4b7 9c6c f2b8 64c6 ebb8
00000340: 98c4 d8b8 5505 38b8 d8ca 33b8 bb44 cbb7
00000350: b7ae a3b7 9ecb 2cb8 fbeb 8db7 4698 1cb7
00000360: e2da 57b8 dff7 7eb7 d527 3bb8 a0c4 0ab7
00000370: 25be dab8 68c9 61b7 82da 79b8 8592 08b8
00000380: 0cab 5ab8 72eb fbb7 022a 04b9 3b2c 14b9
00000390: 8262 78b6 73e3 9db8 d879 70b7 71a7 8bb8
000003a0: a16a 5eb9 9abb e3b8 6ad8 efb8 53c6 eab8
000003b0: 5069 8ab8 332e 80b7 9713 ffb8 e9a4 22b7
000003c0: ec10 79b8 d205 dfb7 0e77 8fb8 f6cc 97b8
000003d0: 1c92 d5b8 e218 a4b6 0809 f0b5 8ffd dbb7
000003e0: 7a31 71b6 6fa5 06b8 90f6 55b9 e509 25b9
000003f0: 40f2 8db8 d9f5 f0b8 ac36 9ab8 ccf9 ceb7
-7.1776134e-07 2.6268037e-06 0.00022320641 0.00050202315 9.143977e-05 8.289429e-06 0.00044809183 3.8822684e-05
1.29880755e-05 -8.802078e-08 5.2078235e-07 0.00039726504 9.636592e-05 5.520873e-07 -1.5611179e-06 1.1681291e-06
5.355051e-06 0.0005935654 0.0012383712 0.00091157644 5.9211447e-06 0.00058459304 5.5049968e-05 0.00046211397
-9.828918e-07 -1.1146452e-06 0.0002936573 1.3566371e-06 -1.04064e-06 3.6994256e-06 0.00059798313 0.0007859102
7.849623e-06 -2.44969e-07 -1.556004e-06 1.60123e-06 0.0010430668 6.687668e-06 7.0210284e-05 1.2032553e-05
0.00038633993 1.2532927e-05 5.7396255e-06 5.0064922e-05 8.475874e-06 1.2778646e-05 0.00030976156 0.0003006322
4.7685975e-05 6.9019875e-06 0.00053312245 1.2287398e-07 4.316523e-06 5.2891475e-05 0.00038000077 1.0296532e-05
-1.2993356e-06 0.0012873058 0.0014025313 0.00028651202 0.00015018001 0.0006531773 2.7824149e-06 9.415544e-05
3.2059164e-05 0.00042591264 0.00046157467 -3.649785e-06 0.00069934374 1.1278462e-07 0.00026921893 7.294126e-06
5.055278e-06 1.4618024e-07 1.1555198e-05 2.5203744e-05 0.000824423 3.883807e-06 0.0005517688 0.0005263943
0.00048945216 0.00020648394 7.836449e-06 0.000117404976 3.2786918e-06 7.4787217e-06 1.851618e-06 -2.091299e-07
9.52351e-06 1.731597e-06 8.167765e-06 5.0231993e-05 0.00047473758 1.321152e-06 1.157418e-05 5.7486864e-06
9.628389e-06 0.00014485762 0.00057441706 0.0006302295 -8.976614e-07 1.4418834e-05 7.118522e-05 1.2710918e-05
0.0009783652 0.0005155039 0.00053216005 0.0005075445 0.00029877463 1.7939035e-06 0.0005414762 1.3737304e-07
0.00027101336 0.00013813269 1.2984619e-05 0.00033153687 2.1049276e-05 2.5485135e-05 3.1929312e-07 4.1017456e-06
-2.127755e-06 0.00016738012 0.00093923305 0.0007361366 0.0003278903 0.0005339364 0.0003400118 4.0918185e-06
-7.4376185e-06 -1.6583559e-05 -4.4223016e-05 -0.00010508932 -1.8241679e-05 -4.5189467e-05 -9.8022276e-05 -6.4574892e-06
-6.84655e-05 -8.944215e-06 -1.2000065e-05 -8.5152504e-05 -1.9272693e-05 -1.1565246e-05 -3.9283123e-06 -1.2590619e-05
-2.9874042e-05 -0.0001243283 -0.00025996976 -0.00020066576 -3.2604432e-05 -0.00012674253 -7.4544396e-06 -0.00010245359
1.9768552e-06 4.582004e-06 -6.316397e-05 -1.43926045e-05 -6.061887e-06 -2.356827e-05 -0.00012553093 -0.00017169265
-4.2743217e-05 -6.7085475e-06 -4.2288652e-06 -1.5546808e-05 -0.00022164507 -3.7389138e-05 -1.2847294e-05 -6.374485e-05
-8.1821694e-05 -6.65539e-05 -3.1472835e-05 -9.087321e-06 -4.618644e-05 -6.711357e-05 -6.583781e-05 -6.4843145e-05
-6.7769734e-06 -3.789248e-05 -0.00011642341 -7.6090664e-06 -2.675364e-05 -7.704549e-06 -8.3268416e-05 -4.1633934e-06
-5.1413776e-06 -0.00027433113 -0.0002956782 -6.3278036e-05 -3.0966716e-05 -0.00014450925 -1.7801382e-05 -1.8055021e-05
-5.225871e-06 -8.820701e-05 -0.00010225274 -3.316563e-06 -0.00015377512 -1.0028608e-05 -5.8317426e-05 -3.9978237e-05
-3.0155941e-05 -1.0350477e-05 -5.91708e-05 -5.13096e-06 -0.00017969668 -2.5294014e-05 -0.00011559689 -0.00011242626
-0.00010336301 -4.3873984e-05 -4.286584e-05 -2.423149e-05 -1.9512472e-05 -4.119763e-05 -1.6918397e-05 -9.3337785e-06
-5.1463845e-05 -1.5197292e-05 -4.462137e-05 -8.271221e-06 -0.00010430467 -1.3457939e-05 -5.9569727e-05 -3.2561384e-05
-5.213455e-05 -3.003117e-05 -0.0001260415 -0.00014130857 -3.7012219e-06 -7.528709e-05 -1.4333484e-05 -6.659225e-05
-0.00021211292 -0.00010859147 -0.00011436718 -0.0001119493 -6.599969e-05 -1.5280302e-05 -0.000121629964 -9.694349e-06
-5.9381986e-05 -2.6586382e-05 -6.840947e-05 -7.238418e-05 -0.000101838465 -4.8904776e-06 -1.7884022e-06 -2.6224907e-05
-3.5940598e-06 -3.210216e-05 -0.00020405115 -0.00015739312 -6.7685265e-05 -0.000114898845 -7.353476e-05 -2.4673434e-05

exp_avg_sq f4 [128, 128]
00000000: ad73 902e 1347 1230 b9fb 1236 7742 3937
00000010: 562e d234 7e7a 5131 6c35 1437 f9c4 a033
00000020: 2e51 f131 4dc7 e62e b787 302f 6279 e836
00000030: 2227 e934 44cf 352f 21a4 862e 7f81 8d2f
00000040: 6427 c530 a25a 8137 8077 8c38 92ce 1838
00000050: 2ea2 e930 4903 7b37 0b4a 1634 68a8 1e37
00000060: c263 a12e 89c4 bc2e 46db 8036 ffa9 9a2f
00000070: bc70 7f2e 4e1a 6f30 eb22 8337 14e1 e237
00000080: 1077 3b31 2993 c52e e1a2 872e 8c97 b72f
00000090: 0fba 4738 5a9d 1231 f2d1 7734 dbc8 d031
000000a0: d2cb dc36 d358 e331 4452 dc30 b673 0234
000000b0: 06a8 5931 76e3 e831 71a0 8e36 a902 8636
000000c0: 8eea ed33 129e 1631 4a79 5137 0b16 022f
000000d0: d0f4 9230 3a38 0b34 66e1 d536 582b f431
000000e0: a83a 792e 5c38 9838 a453 b438 9617 7536
000000f0: 4d1a 8835 412c 9d37 c180 2030 1440 df34
00000100: ca77 7033 7a71 0537 4aa0 1e37 9c0d 2b2f
00000110: 8ae9 b337 7ba2 012f cb72 5736 4ec9 2631
00000120: a703 bd30 9eb6 002f 313d c031 f9a7 1d33
00000130: 9037 fa37 76e6 8030 77f1 5f37 9032 4b37
00000140: 165d 3037 77a0 fe35 8246 3a31 4370 2b35
00000150: 1f2e 4930 ebea 2f31 5d30 d42f a5be cb2e
00000160: e689 8631 d9dc cb2f 380e 4d31 c92c 0b34
00000170: 4c2c 2637 98a5 972f 9691 c031 c688 e130
00000180: b252 8931 46f7 8135 fb7b 7337 935f 9337
00000190: 0e2e 8e2e f456 1432 8e87 8834 b4d1 e631
000001a0: f09d 2f38 9f87 4337 920d 5037 caf0 3d37
000001b0: b0a8 8536 cc54 c72f 06a7 5937 1d80 062f
000001c0: 6583 5a36 186e 6735 be00 ef31 66bb a236
000001d0: b1e2 9d32 5139 2533 ac7f 012f e230 8d30
000001e0: b932 a02e 7b28 a735 1305 2238 869e c737
000001f0: a0e1 9e36 12c3 5237 8593 aa36 813a 8630
00000200: 4c0a 1f30 7c8f ca30 6402 6434 89d5 8f35
00000210: 5498 1833 2fb5 0632 4576 6535 1e8c c831
00000220: 5f44 9a32 ae60 1d30 1e28 6030 c740 3435
00000230: 3c75 2b33 b904 4c30 3e05 d72f e177 6230
00000240: 2a88 8431 173b c935 5f91 da36 70e6 6c36
00000250: ce18 9d31 f098 c235 3639 4932 9375 7535
00000260: 315c 8f2f 629b c52f 9e79 c734 5c0a 8630
00000270: 8735 0a30 8360 2031 e1ac cb35 80e9 2f36
00000280: 31ed fc31 729f d42f 5931 e82f 8611 9730
00000290: 3dac 9b36 ab03 b631 fd26 ac32 b29c 8432
000002a0: ca63 2b35 2264 9232 df0d 9631 b615 2532
000002b0: 05b0 0d32 705b 9332 7bd7 dc34 0f07 cf34
000002c0: 51d0 1932 b626 c931 a379 a235 3b05 f42f
000002d0: 76ec 4131 d5b3 3a32 fd62 2535 3d81 1130
000002e0: 664c fb2f 90ac ec36 f71c 0c37 3013 bd34
000002f0: dc34 cd33 81d1 f335 1c14 dd30 9100 2433
00000300: 8d26 9031 1b94 4f35 c44f 7535 32c8 1430
00000310: ac79 0b36 16f7 3230 e4db a534 8bce dd31
00000320: 57cd 7131 e48c 3930 067e 6532 cbd6 3931
00000330: 0d94 4236 1c36 2e31 fd1b ae35 36ec 9d35
00000340: e0fc 8835 7220 4334 5247 f531 fd6e 8133
00000350: 96ee 0831 20f0 e231 9580 b030 c74b 3730
00000360: 7b97 2d32 8a89 9830 b0e7 0332 b893 4132
00000370: 62a6 8035 d65b 7330 996a 6732 d536 9431
00000380: 54d1 3332 d0fc c533 b3ca bc35 2ad9 e435
00000390: 445c a32f 9ee5 bd32 0443 bd32 fc55 9132
000003a0: 6559 8836 cce1 9735 97a2 a135 f124 9335
000003b0: c7b2 ce34 a759 9630 ccb7 a835 1181 2330
000003c0: 68ea a734 c477 af33 6002 9932 2297 fb34
000003d0: ca56 4633 0179 3731 2790 f22f 0252 3b31
000003e0: b360 f82f 44ac 0034 62cb 7b36 f343 1b36
000003f0: 3d04 f734 3561 a435 1abb 0335 87fb 3231
6.56891e-11 5.3215493e-10 2.1902217e-06 1.1042334e-05 3.9149262e-07 3.0483132e-09 8.833926e-06 7.48641e-08
7.023252e-09 1.0494592e-10 1.6055322e-10 6.9282696e-06 4.3428105e-07 1.653549e-10 6.1227697e-11 2.5739763e-10
1.4344832e-09 1.5420203e-05 6.697979e-05 3.6432008e-05 1.6999075e-09 1.4961531e-05 1.3996775e-07 9.456744e-06
7.339153e-11 8.584162e-11 3.840224e-06 2.8133226e-10 5.8080415e-11 8.6985075e-10 1.5632677e-05 2.704611e-05
2.727976e-09 8.984664e-11 6.168022e-11 3.3395187e-10 4.7618578e-05 2.133524e-09 2.3080045e-07 6.0764314e-09
6.5802387e-06 6.6166677e-09 1.6030488e-09 1.2149289e-07 3.1673166e-09 6.777948e-09 4.2506076e-06 3.993821e-06
1.1078838e-07 2.1917725e-09 1.2485611e-05 1.1831262e-10 1.0692478e-09 1.2965839e-07 6.3741345e-06 7.1062622e-09
5.6668142e-11 7.2584226e-05 8.598648e-05 3.6521574e-06 1.0140444e-06 1.8736466e-05 5.839063e-10 4.158361e-07
5.5988302e-08 7.953839e-06 9.454854e-06 1.5557194e-10 2.1447213e-05 1.1790206e-10 3.2104315e-06 2.4270608e-09
1.3752598e-09 1.1706411e-10 5.594892e-09 3.670718e-08 2.9828196e-05 9.378727e-10 1.3348056e-05 1.2111515e-05
1.0512091e-05 1.8971176e-06 2.7106641e-09 6.3865826e-07 7.3188916e-10 2.5599387e-09 3.859694e-10 9.2652365e-11
3.9155905e-09 3.7082407e-10 2.9839509e-09 1.2961677e-07 9.904685e-06 2.7584401e-10 5.6044867e-09 1.6409778e-09
3.996626e-09 9.683215e-07 1.4512795e-05 1.756827e-05 6.465593e-11 8.634505e-09 2.5430603e-07 6.7177215e-09
4.1870342e-05 1.16544825e-05 1.2400926e-05 1.1321341e-05 3.9833467e-06 3.625814e-10 1.2973096e-05 1.2232744e-10
3.2561013e-06 8.6214413e-07 6.9559e-09 4.8497923e-06 1.8380293e-08 3.8469185e-08 1.177784e-10 1.0272994e-09
7.284968e-11 1.2454251e-06 3.8628536e-05 2.3796467e-05 4.735033e-06 1.2562394e-05 5.0835683e-06 9.766411e-10
5.7858496e-10 1.4738215e-09 2.1235024e-07 1.0716477e-06 3.55288e-08 7.841023e-09 8.548125e-07 5.8366956e-09
1.7959051e-08 5.725366e-10 8.1547735e-10 6.714949e-07 3.9920664e-08 7.422148e-10 3.9111997e-10 8.238868e-10
3.8571857e-09 1.4992864e-06 6.5138297e-06 3.5300873e-06 4.5721213e-09 1.4498637e-06 1.1712748e-08 9.1440705e-07
2.6077054e-10 3.5944497e-10 3.7155127e-07 9.752728e-10 5.0280174e-10 2.3337925e-09 1.5174993e-06 2.6212947e-06
7.361131e-09 3.8675868e-10 4.2235618e-10 1.0991676e-09 4.639411e-06 5.297314e-09 2.0041165e-08 1.543808e-08
6.3847676e-07 1.7042172e-08 4.3671515e-09 9.6092005e-09 8.247302e-09 1.7154633e-08 4.1134976e-07 3.856189e-07
8.953138e-09 5.854271e-09 1.2105342e-06 4.4387058e-10 2.8219609e-09 1.0867514e-08 6.1611337e-07 5.293435e-10
4.5710918e-10 7.053437e-06 8.351394e-06 3.5217954e-07 9.5556715e-08 1.8165885e-06 1.6085582e-09 3.818474e-08
4.1953343e-09 7.732903e-07 9.1385687e-07 5.412658e-10 2.0783436e-06 6.5107153e-10 3.0893636e-07 6.4554277e-09
3.5186838e-09 6.7502826e-10 1.3358209e-08 2.7043139e-09 2.899443e-06 2.535109e-09 1.2972156e-06 1.1766158e-06
1.0206386e-06 1.8172594e-07 7.1385466e-09 6.027219e-08 1.9926225e-09 6.6047647e-09 1.2842231e-09 6.66827e-10
1.0104368e-08 1.1098547e-09 7.677883e-09 1.1267666e-08 9.585167e-07 8.853339e-10 1.3470207e-08 4.3136006e-09
1.0466767e-08 9.219514e-08 1.4066085e-06 1.7050527e-06 2.9715086e-10 2.2106914e-08 2.2032971e-08 1.6919323e-08
4.0635227e-06 1.1316092e-06 1.2042755e-06 1.0963105e-06 3.8500568e-07 1.0939417e-09 1.2570467e-06 5.948247e-10
3.1276727e-07 8.170858e-08 1.7812624e-08 4.6862357e-07 4.61794e-08 2.6698788e-09 4.412197e-10 2.7258698e-09
4.5179646e-10 1.1983599e-07 3.75203e-06 2.3136352e-06 4.601042e-07 1.2247243e-06 4.907357e-07 2.6045386e-09
