V3/Articulation/results/FirstWalk3/AgentTest/AgentTest-1684621.pt (torch, 429011 bytes, 33 tensors)

network_body._body_endoder.seq_layers.0.weight f4 [128, 1]
00000000: 3fd3 673e b148 fb3e 1578 d4be b375 70bf
00000010: 9c37 38be 2559 9a3f 8793 57bf 2a47 a4bd
00000020: 2fae ed3f b6eb 8b3e 5ce6 ae3e dd2c 3ebf
00000030: 2f9e 3fbe 76cc a93e 9762 243e ab81 bc3e
00000040: 1857 513f 40f9 8dbf 206a 14c0 ab36 dbbf
00000050: 15fe 5e3f 7d41 8cbf f3bc d2bd d9b0 5ebf
00000060: e838 2c3e ceb7 203e 6935 0dbf 3dae d13e
00000070: fdef 4b3e a48e 253f f81f 8fbf 6ad7 bcbf
00000080: bde6 913f 2e36 813e a703 243e b9d9 da3e
00000090: ede0 f9bf c00a 863f 7b2b 0ebe c176 dc3f
000000a0: 9f52 39bf 66e2 e43f 22a2 5d3f ecd1 d2bd
000000b0: 1b11 9f3f 2cc7 e93f d7c5 14bf d3c4 10bf
000000c0: 5675 bebd b682 823f 2212 80bf a588 8c3e
000000d0: 06bb 413f 7383 d1bd 25d8 36bf e427 0cbd
000000e0: b33a 363e 145e 1ac0 8a37 28c0 e4d6 0abf
000000f0: 66fe 92be 3c0c 9dbf 2733 043f bacf 37be
00000100: c683 88bd 94dd 4bbf 4874 5dbf 1ecc 8a3d
00000110: e207 a8bf 4ba6 963e 0031 02bf c7a5 8a3f
00000120: adc6 5a3f 135a 9a3e 863c d63f d936 69bd
00000130: abe3 c5bf 06d1 353f 2b83 83bf 7e8d 7cbf
00000140: e56f 6abf 922c c8be 5bf8 933f 60df 67be
00000150: e5aa 0c3f cd6b 903f 4e34 f13e 43c3 8a3e
00000160: 2545 b13f afc0 dc3e 6fad 9a3f bf26 c8bd
00000170: f784 64bf cc45 ca3e e8c6 d63f f7e7 633f
00000180: bf71 af3f 7799 8cbe 2f17 8abf 0a92 97bf
00000190: 1aae 493e 7e51 0340 ac0a 11be a797 e93f
000001a0: f1fd eabf 0e07 77bf c670 7fbf 7730 74bf
000001b0: 6315 0fbf 76b2 e13e 0a19 82bf 08b3 953e
000001c0: a164 03bf c4f2 84be 4358 ec3f 35f1 1fbf
000001d0: 3421 3f40 5950 6bbd 491d 843e e773 3f3f
000001e0: 550c 013e 927b 9fbe 6563 e1bf 1e52 b0bf
000001f0: 1227 1dbf 3e7e 7fbf 1c09 24bf df3f 323f
0.22639178 0.49078897 -0.41497865 -0.93929595 -0.17989963 1.2058455 -0.84209484 -0.08021386
1.8568782 0.2732827 0.34160125 -0.74287206 -0.18712686 0.33163804 0.16053234 0.3681768
0.8177352 -1.109169 -2.3189774 -1.7126058 0.8710645 -1.0957485 -0.102899455 -0.869886
0.16818583 0.15695116 -0.5515962 0.40953246 0.19915767 0.6467078 -1.1181631 -1.4753239
1.1398541 0.25236648 0.16017018 0.42744234 -1.9521767 1.0472031 -0.13883774 1.7223741
-0.72391695 1.7881591 0.8657552 -0.10293946 1.2427095 1.8263907 -0.5811438 -0.5655033
-0.09299724 1.019614 -1.0005534 0.27448002 0.75676 -0.1023015 -0.7142356 -0.03421773
0.1779583 -2.411992 -2.6283898 -0.5423415 -0.28709716 -1.2269359 0.5164055 -0.17950335
-0.06665759 -0.79634976 -0.86505556 0.067772135 -1.3127406 0.29423746 -0.5085602 1.0831841
0.85459405 0.30146846 1.673722 -0.056937072 -1.5460104 0.7102207 -1.0274404 -0.986534
-0.9157699 -0.39096504 1.1560167 -0.22643805 0.54948264 1.1282898 0.47110218 0.27102098
1.3849226 0.43115756 1.2084178 -0.09773015 -0.8926539 0.39506376 1.6779451 0.89025825
1.3706588 -0.27460834 -1.0788325 -1.1841443 0.1969532 2.051849 -0.14164227 1.8249406
-1.8358747 -0.9649514 -0.99781454 -0.9538645 -0.5589201 0.44081467 -1.0163891 0.29238153
-0.5132542 -0.25966465 1.8464435 -0.6247743 2.9864016 -0.057449672 0.25803593 0.7478623
0.1260236 -0.31148964 -1.7608458 -1.377506 -0.6138774 -0.99802005 -0.640764 0.6962871

network_body._body_endoder.seq_layers.0.bias f4 [128]
00000000: 1640 96be 6987 b93d d3b1 883d 4906 873d
00000010: ea46 1ebe 458b 063e 396b 93bd a414 acbd
00000020: f10b 653e d659 6fbe e9f0 88be f532 49bd
00000030: b574 1abe 169d 69be ae2a 86be b8b4 f4bd
00000040: e90c 3c3e afa5 a83d ae44 153c c41d ffbd
00000050: 392b 483e 54c6 44bd f864 813d 069b aabd
00000060: 1e1c f53d e2dc 803e f2a6 84bd ec7c 3dbe
00000070: 1d28 91be 26b9 5ebd c6f4 a43d 7c5a 9abd
00000080: 064b 823e df75 1ebe bf04 8cbe 5e55 40be
00000090: b900 37bc f3e1 abbd 459a f5bd 35ac 503e
000000a0: 76f8 433c dce3 743e 4d82 683e 140c 05be
000000b0: cecc 483e 7a8f 443e 15dd 233b f018 c1bd
000000c0: 0dc1 49bb f758 353e ef69 90bd 1fb2 ecbd
000000d0: 800f e5bd 45d7 e03b ac88 cdbd 3773 70be
000000e0: f64d 91be 1839 9abd 1584 47bd e845 03be
000000f0: 655b ccbd d2e1 f2bd e151 5c3d ade3 d0bd
00000100: e919 72bd c2ad c53d 7370 ebbd 3d10 aebe
00000110: 4f63 dbbd 8306 7cbe 900b cbbd 4bcc 5e3e
00000120: 09ff 0cbe 4288 85be 145a 8ebc 5b5d 0dbe
00000130: cc67 bdbd 5041 43be 3cac 9f3d a40c c7bb
00000140: 94de 513d cf64 babd d363 4d3e 11c9 25be
00000150: d546 cf3d cf59 e73d 449f 5ebe be47 93be
00000160: 6eca 3f3e 0d90 f0bd cc40 153e 5866 96bd
00000170: fbe6 abbd 3781 0dbe 4652 3e3c 184e ac3d
00000180: c532 673e f286 01be 9465 93bd 1f45 0dbe
00000190: 44d1 1abe 5df6 753e 4969 64be 6890 383e
000001a0: 35b7 aebd a029 753d 8745 69bc c82a dabd
000001b0: 7e75 17be e3a7 ebbd d9d9 3dbe 4187 65be
000001c0: fe43 f0bd e302 01bb b7e6 593e 5b8d ccbd
000001d0: a932 693e 1a26 f9bd 9fb2 493e 0dd5 46be
000001e0: ab85 9abe 67c8 4d3d bbef bcbd 1d60 d83c
000001f0: 65a0 ab3d 439b 05bc d1fd 81bd 5fc6 283c
-0.2934577 0.090590306 0.06674542 0.06592996 -0.15456739 0.13139065 -0.071981855 -0.084023744
0.22367837 -0.23374113 -0.267463 -0.049120862 -0.15083583 -0.2281383 -0.26204437 -0.11948532
0.183643 0.08234727 0.009110613 -0.12456849 0.19547738 -0.048040703 0.063180864 -0.083303496
0.119682536 0.2516852 -0.06477155 -0.18504685 -0.28350917 -0.05437579 0.08054499 -0.0753679
0.25447863 -0.15474652 -0.2734737 -0.18782565 -0.011169606 -0.08392706 -0.11992315 0.20378192
0.011961093 0.23915046 0.22705956 -0.12992889 0.19609377 0.19195357 0.0025003601 -0.094285846
-0.0030785233 0.17709719 -0.07051455 -0.115574114 -0.11184597 0.0068615996 -0.10035834 -0.23481451
-0.28379792 -0.07530421 -0.048709948 -0.12819636 -0.099783696 -0.11859478 0.053789023 -0.10199676
-0.05910674 0.09652282 -0.11496057 -0.33996764 -0.10712301 -0.24611859 -0.09914315 0.21757619
-0.13769163 -0.2608052 -0.017376937 -0.13805144 -0.09248313 -0.19067883 0.07796523 -0.006074505
0.051237658 -0.09101259 0.20057611 -0.16189982 0.10120932 0.112964265 -0.21740443 -0.28765672
0.18729565 -0.117462255 0.145755 -0.07343739 -0.083936654 -0.13818823 0.011616295 0.08413333
0.22577961 -0.12649134 -0.07197109 -0.13795899 -0.15118891 0.24019761 -0.22305788 0.18023837
-0.08531038 0.05985415 -0.014237768 -0.10652691 -0.14790913 -0.11506631 -0.18540134 -0.22414877
-0.117317185 -0.0019685559 0.21279417 -0.09987899 0.22773232 -0.121654704 0.19697045 -0.1941721
-0.30180106 0.050239947 -0.092254125 0.026413018 0.08380202 -0.008154693 -0.0634724 0.010301202

network_body._body_endoder.seq_layers.2.weight f4 [128, 128]
00000000: 0714 423e 31f8 4fbd bfad 95bc cd26 053d
00000010: 3860 0ebe 4831 57bb 2970 cabd 2871 b439
00000020: 100a 023e ff93 c73c c03c 493e ad71 86bd
00000030: 9e13 0e3d cdec c73d a3ef 4a3e c0b6 bf3d
00000040: 5bca 88bd 8b28 943d bc20 c23d 2120 3f3d
00000050: ab0a d43d 4f8b 3fbd b547 203e 7ce6 e6bd
00000060: 34d6 b9bd efc9 d6bd 192a 233e 469a b53b
00000070: aea8 7d3d f8ab f63c e452 a13d 1d7b 1a3d
00000080: e0a1 01bd 8778 59bd 614e 963d 351f be3c
00000090: f43c 2b3d 836f 48bd 4b1e 133e bddf 273e
000000a0: d270 043e 2a86 1c3e 1544 043d fa82 2bbd
000000b0: 6e94 9a3d 3021 b73c 090d 7dbd 0fea cbbc
000000c0: 5a55 ebbc da45 2d3d d8ad 81bd c2fe 313d
000000d0: 12f2 c5bb 5b2a f6bd df02 a03d 700d 053b
000000e0: e1c6 173e 9cca 5e3d 665b 933a 684f 2cbd
000000f0: b85b a4bd 7e81 a2bd 4780 c4bd f3f6 653d
00000100: 8b31 01be 5510 fbbd 20fc 05be c2db 38bc
00000110: 347c a63d 3ebd 3f3e c663 d7bc b9b2 1f3e
00000120: faec 503e 2ab0 7b3e 0f65 e2bd ef09 203d
00000130: 1393 91bc 2515 1a3d 31a9 ea3d 6451 57bc
00000140: 05c5 95bc 8e87 303d 0b4b fc3d 2a82 e4bc
00000150: e7aa cb3d a61b c6bd 3310 7d3d 8a86 b93c
00000160: 6131 23be 7450 df3c 2134 70bc 5541 29bd
00000170: 8e45 00bd 5389 ca3d aadb 153e 0912 cb3c
00000180: 8181 19bd 802c 4d3d 8f72 093e 5994 6c3d
00000190: 511e 8d3d 7531 8abd b7ba 033d fb8a b4bd
000001a0: 92ea 4c3d 97a5 1dbe 7cf1 b33d 3ad8 6cbc
000001b0: 0bac ad3c 63f8 e7bd 0411 d9bd 9416 1a3e
000001c0: 5b51 443d a02b 8d3e 742f 52bd 5c27 a1bd
000001d0: d306 bd3d d2c0 b2bd f7d1 e23d 42f1 b53d
000001e0: 68e2 a2bd 268f db3c 9149 ef3d 5d90 10be
000001f0: 938e 6ebc 3b12 973b d31d 59bb d332 cf3d
00000200: e2ee 6f3d f7f0 1fbd 68f4 d3bd 1300 e6bb
00000210: 827d 81bd 6cef 8abc be1d 13bd 60bd f33d
00000220: 241d 95bd ce50 ecbc dc48 733d 391f c3bd
00000230: 11ee 1e3c 5f14 c93d 2f3e 8f3d eff8 a83d
00000240: 46d1 d8bb 3c2c b1bd a4b4 ce3c 21b5 6c3d
00000250: 6a3f d83d a26c 11bc 3afc 48be 73c0 a43a
00000260: ea5f 12be 164e 0fbd 9234 5c3d 44eb 983d
00000270: 3c7f 643e 2926 3e3e 0a2e fabd edc3 b7bb
00000280: 68cd e6bd 4be0 e63d 4f33 b73d 06ac be3d
00000290: 7f55 b6bc 6d75 e13c 9187 223c ad02 cc3c
000002a0: 0a47 b4bc dd14 f0bc 43e0 6abd 9955 ebbb
000002b0: 330e 50bd 20b5 bfbd deb5 ac3d 8d5e 043e
000002c0: f343 31be 5246 d13d 540a 53bc d546 d8bc
000002d0: 7820 49be 6ffc e6bd 7010 7bbc f019 d73b
000002e0: c08b 513d bdee 1a3e 5199 023d a987 973d
000002f0: f017 09bd 375e 12be f0b7 093d 23ef 10be
00000300: 125f 153d 3f45 633d e774 85bc c434 3ebd
00000310: 647f 28be 14ce 07bd 4a5f c33b 79d6 9ebd
00000320: f78e 233d 9dbe 9b3d 07e2 b4bb 2a23 d1bd
00000330: 3fcb c8bd 15c4 2a3e 59b5 4ebc 36d1 3dbe
00000340: 159f 753d a9e7 14bd e494 4d3d d93c dabd
00000350: 797b c53d 2496 c43c ed36 e93d 93b7 163e
00000360: dd65 f03c b812 363e 5bbf 073e 557d 013e
00000370: 3610 0c3e c1c2 94bd e55e 92bd 2e76 893c
00000380: 6418 d0bd 06e7 49bd 4a04 123e 7386 223e
00000390: 4acc 633d 2c35 1abe 49e7 79bd 561a 093e
000003a0: 4a65 b1bd cf7b 10bd aa3a acbd 75cc 0bbd
000003b0: e3f3 1a3e fb51 c93d 5ab4 06bd a9dc 4abd
000003c0: f5c3 833e 10c0 98bd d0cb a03b 8fb2 173d
000003d0: f455 4ebe 06c4 fc3c 802e acbd b9d4 2e3e
000003e0: 6156 963d 0ac4 263e 3404 c93d 990d b0bd
000003f0: 4f31 28be afda f5bd 54d1 8b3c b92e 29bd
0.18952952 -0.050773803 -0.018271325 0.032507706 -0.13903892 -0.003283577 -0.09884674 0.00034416583
0.12699151 0.024362562 0.1965208 -0.06564651 0.034686677 0.09761963 0.19817977 0.09361029
-0.06679221 0.072342955 0.094789 0.0466615 0.10353597 -0.046763714 0.15652354 -0.1127443
-0.09074059 -0.104877345 0.15934028 0.0055420725 0.061928444 0.030111298 0.07877138 0.037715066
-0.031648517 -0.05309346 0.07339168 0.02320824 0.041806176 -0.04893447 0.14367025 0.16393943
0.12933663 0.15285555 0.03229149 -0.041872956 0.07547842 0.022354692 -0.06178001 -0.024891881
-0.028727222 0.042302944 -0.06331986 0.043455847 -0.00604082 -0.120197974 0.078130476 0.0020302199
0.1482196 0.054392442 0.0011242449 -0.042067915 -0.080253065 -0.07934855 -0.095947795 0.056143712
-0.12616555 -0.122589745 -0.1308446 -0.011282863 0.081291586 0.18724534 -0.026292693 0.15595521
0.204029 0.2457892 -0.11054432 0.039071973 -0.017770326 0.03761782 0.11458052 -0.013141964
-0.018282423 0.043098025 0.12319001 -0.027894098 0.099447064 -0.09673242 0.061783027 0.022647161
-0.15936805 0.027260043 -0.014660866 -0.04132207 -0.031316333 0.09889474 0.14634576 0.024788873
-0.03747702 0.050091267 0.13422607 0.057758663 0.06890548 -0.067477144 0.032160487 -0.08815571
0.05002839 -0.15395199 0.08786294 -0.014455849 0.0212002 -0.11326673 -0.105989486 0.15047675
0.04792915 0.27572346 -0.051314786 -0.07868835 0.09229817 -0.08728184 0.11075204 0.08883907
-0.0795334 0.026801657 0.116839536 -0.1411757 -0.0145603595 0.0046103275 -0.003312935 0.10117116
0.058577426 -0.03904816 -0.10349351 -0.007019052 -0.06322767 -0.016959868 -0.035917036 0.11901355
-0.07280949 -0.028847124 0.059395656 -0.095274396 0.009700314 0.098183386 0.069942825 0.08250605
-0.006616744 -0.08651015 0.02523262 0.057789925 0.1055897 -0.008875998 -0.19627467 0.0012569561
-0.14294401 -0.034986578 0.053761072 0.07466748 0.22314161 0.18569244 -0.122158125 -0.005608073
-0.11269647 0.11273249 0.08945333 0.093101546 -0.022257565 0.027521813 0.009920017 0.02490362
-0.02200653 -0.029306823 -0.05734278 -0.007181835 -0.05079479 -0.09360719 0.08433126 0.12926693
-0.17311077 0.10218491 -0.01288088 -0.026400963 -0.19641292 -0.11278617 -0.015323743 0.0065643713
0.051158667 0.15130134 0.031884495 0.07398922 -0.033470094 -0.14293753 0.033622682 -0.14153723
0.03646762 0.05548596 -0.016291095 -0.04643704 -0.16454846 -0.033155516 0.005962287 -0.07755751
0.039931264 0.07604716 -0.0055201086 -0.10211785 -0.09804391 0.16676362 -0.012616479 -0.18536839
0.059966166 -0.03635374 0.05019082 -0.10656137 0.09642691 0.023997374 0.113874294 0.14718466
0.029345447 0.17780578 0.1325659 0.12645467 0.13678059 -0.07263709 -0.07147006 0.016779985
-0.10160902 -0.049292587 0.14259449 0.15871601 0.055614747 -0.15059346 -0.061011586 0.13388953
-0.086618975 -0.035274323 -0.08409627 -0.034130532 0.15132098 0.0983009 -0.03288684 -0.049526844
0.2573544 -0.07458508 0.004907109 0.03703552 -0.20149976 0.03085519 -0.08407307 0.17073335
0.07340694 0.1628572 0.09815255 -0.085963435 -0.1642506 -0.12004601 0.017067589 -0.041304324

network_body._body_endoder.seq_layers.2.bias f4 [128]
00000000: 3f83 84bd 3c3f 40be 4c97 c2bd 2a1d bebd
00000010: a8e3 82be 0279 75be deb5 bdbd c147 4fbe
00000020: 3029 cbbd ffa3 b8bd 24be 613d 7839 4d3c
00000030: 72aa 6bbe 1cdc 9dba 66f8 33be 8d49 313d
00000040: 117c 843d 89fd 2e3e ebe4 c53d 889d 46be
00000050: e863 9ebd 5981 bd3b 75dc 5ebe c1f9 50be
00000060: 641c 9d3d 13a7 32be d388 3cbe 0000 51be
00000070: 7a2d 4fbe 0629 c0bd 75c3 71be 26d5 14be
00000080: c17d aabd 0987 92bd 0fc6 bfbd 6388 89bd
00000090: 5895 8a3d cc46 0abc 14e1 2cbd ca08 6bbe
000000a0: 3ab1 0f3d 0d9b dfbd 47d3 243d 931c 5bbe
000000b0: 1696 52be 69c0 80be cad7 2ebe 4f23 88bd
000000c0: be55 37be 1a87 bb3d a444 08be 60cc dabd
000000d0: 2b7b 3c3e e30d 003d 6828 3f3e 6ec6 47be
000000e0: 7e20 d93c 448a 03be 236f 62be 760d 0cbe
000000f0: e3ab 35be c112 4bbe d0ba 42be 4cec 19be
00000100: d356 f6bd c97a 54be 9606 86be 12c3 333e
00000110: 914d e4bd 956a 893d 360a 23be 7c04 22be
00000120: cac2 3e3e b440 9b3d 4a8c b9bd 33f4 79be
00000130: ed33 593d 5eb4 09be 9445 ba3d 9489 42be
00000140: a9f1 27be 406c 0cbe 4939 b1bd 17e4 96bc
00000150: e923 c43d 72fc d33d 616c 57bd 7f95 0fbe
00000160: dde7 4bbe 28d1 c5bd ecbf b93d 2f63 8b3d
00000170: f28f c93d c102 28be e80a 43be 1994 34be
00000180: cfd5 b03d 654f 88bd 6c28 f4bd 926a 02bb
00000190: aeea b4bd afbf 3bbe 5aaf 73be 2946 90bd
000001a0: e6a2 d0bd 8dbf b9bd 7dd9 a7bd 3f5a 2c3e
000001b0: b971 79be dadf 51be 1384 2cbe af71 27be
000001c0: 4c24 33be 0fbb 2abe 5a59 c5bd 5755 ce3d
000001d0: 2b11 bebd d716 cb3d abe0 27be 0133 cdbd
000001e0: a946 3ebe 46db 79be ebca b1bd f9b0 a5bd
000001f0: 4fa9 2cbe 31ed 343e 2a2b 04be ca22 593e
-0.06470346 -0.18774122 -0.09501514 -0.09282906 -0.25564313 -0.23971942 -0.09263204 -0.20242216
-0.09919965 -0.09015655 0.055112973 0.012525909 -0.23014238 -0.0012043747 -0.17575225 0.043283034
0.06468976 0.17088903 0.09662803 -0.19396031 -0.07733899 0.0057832417 -0.21763785 -0.20407774
0.07671431 -0.17446546 -0.1841157 -0.20410156 -0.20232192 -0.093828246 -0.23609717 -0.14534435
-0.08324767 -0.07154662 -0.093639486 -0.06715467 0.06766766 -0.008439731 -0.04220684 -0.22952572
0.035081126 -0.109182455 0.040240552 -0.21397619 -0.20565066 -0.25146797 -0.17074504 -0.066473596
-0.17903802 0.09156628 -0.13307434 -0.10683513 0.1840636 0.031263243 0.18667758 -0.19509289
0.026504751 -0.12845713 -0.22112708 -0.1367701 -0.17741351 -0.19831373 -0.19016576 -0.15031546
-0.12028279 -0.20749964 -0.261769 0.17554882 -0.11147607 0.06709782 -0.15921864 -0.15822023
0.18628994 0.075807005 -0.09059961 -0.24409561 0.053028036 -0.13447711 0.09095302 -0.18997794
-0.1640078 -0.13713169 -0.086535044 -0.018419309 0.09577162 0.103508845 -0.052593593 -0.14021872
-0.19912668 -0.09659034 0.09069809 0.06806027 0.098419085 -0.164073 -0.19047129 -0.1763462
0.08634531 -0.06655768 -0.11921772 -0.0019899947 -0.08833824 -0.1833484 -0.2379736 -0.07044632
-0.101873204 -0.090697385 -0.081957795 0.16831301 -0.24359788 -0.20495549 -0.16847257 -0.1635196
-0.17494315 -0.1667292 -0.09636183 0.10074871 -0.09280618 0.09916466 -0.16394298 -0.10019494
-0.18581642 -0.24400052 -0.08681282 -0.080903955 -0.16861461 0.17668606 -0.12907091 0.21204677

action_model._continuous_distribution.mu.weight f4 [1, 128]
00000000: 9f99 553b a86f 573e ae5d b53c adfa a33c
00000010: 31fb 743e 41d3 043e 30d7 033d 1179 643e
00000020: f02b cd3c 69b8 d93c 70a4 0abb cec9 a93a
00000030: 7dd0 483e 502b 813a 7f56 7e3e 2426 5bbb
00000040: ce67 04bc 4066 3fbd fc13 2abd 61ca 6d3e
00000050: cad4 c73c 2d5e 6f3b ff6d 813e 2550 f53d
00000060: acf3 5abc 1d51 7e3d 1cc2 893e 2e6c 573e
00000070: 0283 3c3d f5bd 4f3c 3077 593e b72a 4c3d
00000080: c890 8d3c 2c22 a93c 46b9 ac3c 3425 2f3a
00000090: 3cf3 b0bb 97c4 6c3b fd8a 103b 78bd 7b3e
000000a0: e76d 86ba f133 683c af31 123c febc 383e
000000b0: 3223 2b3e dae1 bd3d a39b 1b3e e1ab f43b
000000c0: 6bfe 6a3e 7352 9bbb 0067 623d 9303 9b3d
000000d0: 3cf7 b5bd 90cd 9dba a1d1 8bbd 4f9a 8a3e
000000e0: f537 d5b8 8c0d 063c 83e0 0f3e 6728 0d3e
000000f0: a781 683e d01a 8f3d f48f 7d3e 8e80 133e
00000100: c6b0 063d e0e5 643e 3123 213e 17e5 5fbd
00000110: b6b1 793c 9071 93bc 0901 113d 4d9e 5e3e
00000120: 10bc 9bbd 4590 ffbb acd2 7f3b 2548 803e
00000130: 3782 a0ba dbb7 be3c 8d12 f7bc 55da 803e
00000140: 3ee8 813e becb 893d 3a69 483c 743c 1f3b
00000150: 90c9 fcbc f96d a5bc 3d81 d336 338b 9e3c
00000160: 379e 603e d0f8 7e3c 9001 f4bc 3593 013b
00000170: 2dc2 93bc 8fff 5a3e 1f74 553e 5b31 2f3d
00000180: 3a75 5fbc 885b 123a 9166 173c a472 68b9
00000190: 62de af3c 813d 543e 8007 753e d9fa d23b
000001a0: ab51 1b3d 9eb0 333d 6fec 1f3d 2f80 92bd
000001b0: 5d56 703e 6a57 0b3e 2126 793e 1b45 043e
000001c0: 80b7 8a3e 0c19 0f3c 3390 713c b403 cdbc
000001d0: 9614 9d3c fffe b6bb d4c0 aa3c b126 163d
000001e0: 39d0 863e 6243 633e 7df0 de3c d991 0b3d
000001f0: 70af 703e f922 a1bd a0a6 423d c55e c3bd
0.0032592786 0.21038687 0.022139397 0.020016992 0.23923947 0.12971212 0.03218764 0.22311808
0.025045365 0.026577191 -0.0021155141 0.0012953819 0.19610782 0.0009854827 0.24837683 -0.0033439482
-0.00808139 -0.046728373 -0.041522965 0.23221733 0.024393458 0.003652464 0.25279233 0.11978177
-0.01336376 0.062089074 0.26905906 0.21037361 0.046023376 0.012679567 0.21236873 0.049845424
0.017280951 0.020646177 0.021084439 0.0006681264 -0.0054000895 0.003612792 0.00220555 0.24583995
-0.0010256142 0.01417254 0.008922978 0.18040845 0.16712645 0.092715934 0.1519609 0.0074667786
0.22948615 -0.0047400533 0.05527401 0.07569041 -0.08885047 -0.0012039412 -0.06827093 0.27070853
-0.00010167054 0.008181941 0.14050488 0.13784944 0.22705708 0.06987536 0.24761945 0.14404508
0.032883428 0.22353315 0.1573608 -0.054661836 0.0152401235 -0.017998487 0.035401378 0.21740074
-0.076042295 -0.0077991807 0.0039035482 0.25055042 -0.0012245838 0.023281028 -0.030160213 0.25166574
0.253725 0.06728314 0.012232119 0.0024297507 -0.030857831 -0.02019404 6.3033353e-06 0.019353485
0.21935354 0.015562251 -0.029785901 0.001977158 -0.018036926 0.2138655 0.20845078 0.04277168
-0.013638789 0.0005583097 0.009240762 -0.00022167951 0.021468345 0.20726587 0.23928642 0.006438595
0.03791968 0.043869607 0.03904384 -0.07153355 0.23470445 0.13607565 0.24330951 0.12916987
0.27093124 0.008733999 0.014743852 -0.02502618 0.019174855 -0.005584597 0.0208439 0.036657993
0.26330736 0.22193673 0.027214283 0.034074638 0.23504424 -0.07867999 0.047522187 -0.0953956

action_model._discrete_distribution.branches.0.weight f4 [1, 128]
00000000: 37d4 0dbc 9fcd a03c 4eee 8f3c e46c 143c
00000010: 55e4 8bba 4fb7 dabb b3df 803b 5a9e 7b3b
00000020: f71f 1abb e027 623c d99a 453b fd29 863b
00000030: 479b 5b39 7341 a93b a319 1cbc bb52 5f3c
00000040: 323f 90bb 12df 633b ba43 42bc f3a0 b7bb
00000050: 9010 a13b 8291 c7bb f313 513c 081e fabb
00000060: fed7 8039 8b73 803c b2a0 bb39 3e70 813c
00000070: f3c3 8dbc f796 bf3c bc95 46bb 8b51 46bb
00000080: 3f7e 91bc eb8f 70bc 6fcc a33c d78e 993b
00000090: 6399 5bbb c7cb 0a3a d190 0c3c 9e6a 383c
000000a0: c8b8 e1bc 2782 babb 2f4d 493b 3ac8 663b
000000b0: 8370 afbc c5e7 63ba 749c 333a 573c 4bbb
000000c0: 7b27 d43b 350b d9b9 fde5 763c 1d69 cebc
000000d0: 006e c23b c92a 26bb a5ff ad3b 3434 b23b
000000e0: 3786 d3b7 eade bebb c3dc b4bb d047 7d3b
000000f0: b3bf ed3c dbef 38bb 02b4 9cbb 2242 e13a
00000100: 91fd 0c3b efd3 9b3b a2f4 08bc 3da2 6ebc
00000110: 8735 1fbc ffbc a33a 0a24 09bc 529d a7bb
00000120: 01db 823b 4a38 93b8 ced1 ba3b 8b5d 93bb
00000130: b979 9cbc 8349 62bc ae4c 47bc 7f8c 3039
00000140: e2c2 6d3c c8e8 c83c e9c4 21bc 08ee d8ba
00000150: c239 713a 26eb 15bc c47c 99bb f81f 633b
00000160: 1616 2e3b 1d9c 32bb c216 1ebc d08c 58bc
00000170: 3221 29bc d881 503c aadc 33bc 0a33 75bc
00000180: eb34 8bb9 ab6e fcb7 606a eb3b c894 c33b
00000190: 2a52 6ebb adc3 d13a 4962 a9bb eb01 923c
000001a0: ca8b 553b 8e76 083a 40fa 4fbb 01da 913b
000001b0: 3f07 eb3a d06b 90bc 5dbc ddba 3f6d aabb
000001c0: 913a 81bc 8f84 cb3b ad30 ab3b 1b15 953a
000001d0: c70c b73a 5fea 5e3a 4a44 b6bc ede2 5cbc
000001e0: 4b4c 133c 9894 6d3b 9cb9 cc3b 1aac 173c
000001f0: 5146 033c a306 dd3b b77a a73b c070 db3b
-0.008656553 0.019629298 0.017569687 0.009059165 -0.0010672907 -0.006674684 0.003932917 0.0038393945
-0.0023517588 0.013803452 0.003015211 0.004094361 0.00020943313 0.005165273 -0.009527597 0.013630564
-0.0044020647 0.0034770411 -0.011856968 -0.0056039034 0.0049153045 -0.006090344 0.012761104 -0.0076329745
0.0002457499 0.015680095 0.00035787147 0.015800592 -0.01730535 0.023387415 -0.003030165 -0.0030261006
-0.017760394 -0.01468275 0.019994942 0.0046862173 -0.0033508174 0.00052946474 0.008579449 0.011255888
-0.02755393 -0.005691785 0.003071617 0.003521456 -0.021415954 -0.0008693899 0.00068516214 -0.0031011307
0.006474433 -0.00041397815 0.015069482 -0.025196606 0.005933523 -0.0025355092 0.005310016 0.005438352
-2.5215659e-05 -0.0058249133 -0.005519481 0.003864754 0.029022073 -0.0028219137 -0.004782201 0.0017185847
0.0021513442 0.004755489 -0.008359106 -0.014565048 -0.009717352 0.0012492238 -0.008370409 -0.0051151896
0.0039933925 -7.019991e-05 0.00570128 -0.004497235 -0.01910101 -0.013811472 -0.012164278 0.00016837007
0.014511796 0.024525061 -0.009873607 -0.0016550431 0.0009202027 -0.009150302 -0.0046840627 0.0034656506
0.0026563457 -0.0027253695 -0.009648981 -0.013217166 -0.010322856 0.01272627 -0.010977903 -0.014965782
-0.00026551573 -3.0092275e-05 0.0071843117 0.005968664 -0.0036364892 0.001600375 -0.005169187 0.01782318
0.0032584541 0.00052056543 -0.0031734854 0.004451037 0.0017931237 -0.017629534 -0.0016917099 -0.0052010114
-0.015774997 0.0062108706 0.0052243085 0.0011374088 0.00139656 0.0008503552 -0.02224936 -0.013481838
0.008990358 0.00362519 0.0062477123 0.009257341 0.00801237 0.006745176 0.0051110643 0.0066967905

exp_avg f4 [128, 1]
00000000: 1123 a939 799b 1239 32e0 073a f8c3 5cba
00000010: 5de8 fc3a 3236 8b37 4c1b 433a 8e9c 1e3b
00000020: 86ca 96b7 2f4b f639 441b 7339 686b 2f3a
00000030: be13 d43a 7464 8939 02b5 7939 f5fc 8d39
00000040: 73eb e436 143e 0cbb 39cc 3c3b 4b79 193b
00000050: cec9 7838 7dd7 e03a 3157 98ba 7a3e 8cba
00000060: 0464 033a 0a36 6f39 c4b9 753a 8557 4239
00000070: 698c 9239 36ae 02b8 82b9 e2ba e0f1 643b
00000080: 9a5a 6ab6 77b5 a339 44f2 3739 36b5 4938
00000090: c794 c63a 4a2f 7937 7950 1a3b d4d9 ecb7
000000a0: b60c dcba e403 c2b6 6265 fcb7 e577 8c3b
000000b0: 3a08 c037 201f da35 a323 553a dadf 6c3a
000000c0: 7fc1 aeba b700 fa37 24e8 0e3b df5a ab39
000000d0: 5a40 4037 c698 4f3a cdd3 cd3a 8b3a 9b3a
000000e0: 877a 6639 1cf0 cbba d0c0 fe3a d231 e23a
000000f0: 8573 3c3b 1e55 1a3b 09f4 5b39 f38a 0dba
00000100: b3a9 76ba 6a56 0fbb 9c3e e439 c585 87b9
00000110: dd4a c23a e125 b039 7ed4 523b 5140 a1b8
00000120: 1bbf 6737 0fa9 6939 8c56 08b7 a535 463b
00000130: 4d65 843a 083e a0b8 c1d9 75b9 b619 133b
00000140: f825 f4ba a370 f53a 5e5a bb37 2737 993a
00000150: fc13 f038 aa5b 06b9 749e 0739 bad7 ce39
00000160: bcf6 bfb8 6577 3739 2993 43b8 3d79 233a
00000170: 1293 f23a eb85 6339 f4da 4737 a6e1 b8b8
00000180: 2891 5638 b8f9 f539 c877 183b a9c0 a73a
00000190: d3b3 d639 f687 0b38 e1b9 5b3a 2fd1 27b7
000001a0: 9bcd 5f3b 5096 40bb c69d 3e3b b661 133b
000001b0: b4f4 d839 78db 2e39 2ec6 fcb9 9463 a339
000001c0: a221 793b 88ae d33a 8af4 1a37 453d 2b3b
000001d0: b4a0 b837 5823 3e3b 8058 1e3a b659 3337
000001e0: 8c9d 0337 429b 77ba 4e75 083b 1fce 95ba
000001f0: 9021 94ba dc27 2e3a e019 653b c8c3 0139
0.00032260318 0.00013981563 0.0005183249 -0.00084215356 0.0019295324 1.6595328e-05 0.0007442727 0.00242022
-1.79757e-05 0.00046976793 0.00023184443 0.0006691725 0.00161802 0.0002620552 0.00023813921 0.00027082083
6.8223394e-06 -0.0021399306 0.002880825 0.0023418244 5.9315753e-05 0.0017154064 -0.0011622665 -0.0010699772
0.0005012157 0.00022812947 0.00093736895 0.00018533885 0.00027951904 -3.1156662e-05 -0.0017297717 0.0034934208
-3.4921454e-06 0.00031224985 0.00017542491 4.80909e-05 0.001515054 1.4852567e-05 0.00235465 -2.8234826e-05
-0.0016788456 -5.7821035e-06 -3.0087951e-05 0.0042867535 2.2892014e-05 1.6251324e-06 0.00081306155 0.0009036042
-0.0013332813 2.9802655e-05 0.0021805847 0.00032683366 1.1459075e-05 0.00079191884 0.001570338 0.0011843009
0.00021980154 -0.0015559229 0.0019436125 0.0017257279 0.0028755378 0.002354927 0.00020976378 -0.0005399428
-0.00094094424 -0.0021871575 0.00043534196 -0.00025848873 0.0014823336 0.00033597558 0.0032170112 -7.689058e-05
1.3813168e-05 0.00022283591 -8.126382e-06 0.0030244377 0.0010100991 -7.640949e-05 -0.0002344614 0.0022445745
-0.0018627038 0.0018725585 2.2334218e-05 0.001168941 0.00011447814 -0.00012813383 0.00012933632 0.0003945211
-9.1535476e-05 0.00017496718 -4.6628677e-05 0.00062360225 0.0018506965 0.00021698295 1.1912303e-05 -8.815834e-05
5.1156763e-05 0.00046916096 0.0023264755 0.0012798506 0.0004095124 3.3266806e-05 0.0008381885 -1.000268e-05
0.003414965 -0.0029386468 0.002908574 0.002248866 0.00041381049 0.00016675692 -0.0004821284 0.00031163974
0.0038014431 0.0016150037 9.2360515e-06 0.0026129049 2.2009343e-05 0.0029012766 0.0006040409 1.0690119e-05
7.84489e-06 -0.00094454375 0.0020821872 -0.0011429227 -0.0011301506 0.0006643513 0.003495805 0.00012375333

exp_avg_sq f4 [128, 1]
00000000: 1de3 9036 9dac 6735 fbac 2c38 ec2f 1038
00000010: 3550 1b39 0647 9d33 1545 2238 277a 7e39
00000020: 019b 0335 aa88 b436 9ed2 6836 b92f 8e38
00000030: 0f2f ee38 9f28 3f36 fcd7 2a36 1821 0836
00000040: 1180 3533 98cc 8239 5633 003a 9a55 8539
00000050: 2d5d 3434 aa42 5439 95fb 8638 7fc8 3739
00000060: 3413 9a36 03fc 7535 ba6c 7638 ffde 2536
00000070: 16d5 5a36 bea6 6c34 ff49 0a39 af19 313a
00000080: d9eb 0c34 df78 9a35 59b4 0836 0fa4 3235
00000090: 4c65 e738 5534 cd34 818c c239 7cd9 6b34
000000a0: c055 0b39 c8c4 2934 6276 b233 e66e 763a
000000b0: f772 4e34 df9c 2f34 d6ad 0438 6a73 c538
000000c0: e12b 8738 37c5 ac33 e26a 8639 ca5d d235
000000d0: e62a f434 2ff0 4938 5d91 1a39 8b28 ad38
000000e0: aef8 2636 b1ae ee38 5c4f 7c39 16c5 0e39
000000f0: 81f3 0b3a 04ac 9639 a855 0336 dbcb ae37
00000100: c835 7038 228b 8b39 3e6a 5137 416f 6b36
00000110: 54a7 2a39 108e 6736 86f6 273a 7cf4 b334
00000120: 05bc 2a35 47dd 3b36 e68c 4d33 47eb bd39
00000130: 0cd5 8238 ac38 d534 47f1 9d36 1c74 c239
00000140: 8735 6e39 cdd9 7c39 83cd 3134 a8fa 7e38
00000150: b71a 4435 7f57 b634 6c5e 3236 6acd d036
00000160: e06d f134 0f06 0236 da83 0a34 8820 9a37
00000170: 34c7 4139 ffc2 0f36 ece3 c733 b0a3 8f33
00000180: cfe1 1d33 39de 8637 8535 8a39 e391 8b38
00000190: e63b 4736 83dd 3c34 8a63 f237 f134 d434
000001a0: 93cd 353a 477b ee39 28c3 f739 531a 9639
000001b0: 67cd 4f37 9b77 f435 dd13 8637 f25b 4836
000001c0: a946 633a 8d36 1e39 af60 bf33 ba0a e639
000001d0: e6a7 a134 3370 bc39 dd80 1236 d76f 3a35
000001e0: 81d7 4636 a2a5 da37 8afd 7f39 db40 8338
000001f0: 24fc cc38 8de7 9c37 d705 443a 4f1c 1136
4.317974e-06 8.630539e-07 4.1169096e-05 3.4376906e-05 0.00014811831 7.323801e-08 3.8688147e-05 0.00024268833
4.9026863e-07 5.380328e-06 3.469329e-06 6.779977e-05 0.0001135749 2.8484862e-06 2.5457693e-06 2.0284842e-06
4.2258822e-08 0.00024947966 0.0004890462 0.00025431515 1.6797703e-07 0.0002024273 6.436479e-05 0.0001752693
4.591793e-06 9.163634e-07 5.875223e-05 2.4716717e-06 3.2608564e-06 2.2039873e-07 0.00013188271 0.00067558413
1.3124317e-07 1.1509072e-06 2.0370555e-06 6.6548904e-07 0.000110338064 3.8222302e-07 0.00037107247 2.1965201e-07
0.00013288017 1.581094e-07 8.3103046e-08 0.00094006804 1.9227069e-07 1.6355214e-07 3.163315e-05 9.4151896e-05
6.445475e-05 8.045247e-08 0.00025638106 1.5673515e-06 4.5479754e-07 4.8145823e-05 0.00014740737 8.2568346e-05
2.4880678e-06 0.00011381263 0.00024062156 0.00013615596 0.0005338714 0.0002873839 1.957038e-06 2.0837344e-05
5.7270547e-05 0.00026615808 1.2482107e-05 3.5082487e-06 0.00016274798 3.4504374e-06 0.0006407279 3.3519234e-07
6.360354e-07 2.7993972e-06 4.785843e-08 0.00036224184 6.238566e-05 3.9715576e-07 4.707053e-06 0.00037089072
0.00022717389 0.0002411373 1.6559174e-07 6.079176e-05 7.3054565e-07 3.3963804e-07 2.6579028e-06 6.2227964e-06
4.4969693e-07 1.9375036e-06 1.2900219e-07 1.837338e-05 0.00018480123 2.1422163e-06 9.3081184e-08 6.688731e-08
3.6759783e-08 1.6077525e-05 0.00026361286 6.65521e-05 2.9688176e-06 1.758945e-07 2.8895e-05 3.9526597e-07
0.0006935235 0.00045486746 0.00047256914 0.00028629843 1.2385985e-05 1.8214226e-06 1.5983294e-05 2.9855842e-06
0.0008669892 0.00015088376 8.911717e-08 0.0004387701 3.011075e-07 0.0003594175 2.1830704e-06 6.945315e-07
2.962974e-06 2.6064754e-05 0.00024413146 6.258647e-05 9.774443e-05 1.8704473e-05 0.0007477677 2.1623162e-06

exp_avg f4 [128]
00000000: bbb5 94b8 bee9 e637 e35a 5337 26a0 5e37
00000010: 0c1a d1b8 f3ab b137 a42c f6b7 725c bcb8
00000020: 9070 9a38 ce31 dcb7 6a61 47b8 e011 dfb7
00000030: 21c0 a1b8 aa2e 09b8 1280 80b8 1015 a0b5
00000040: e379 3f38 05e3 3d38 d38a 2fb8 e9d8 81b8
00000050: 8654 4238 b06f 1ab8 acdb 8f38 db9c 1fb8
00000060: 0cb9 ba38 ad47 1139 d310 12b8 6e15 a1b7
00000070: 5c29 a3b8 3457 51b6 4ef8 1c38 48c2 9db8
00000080: d73a a038 9085 f8b7 a46e 8cb8 fc07 01b8
00000090: ce0f 10b8 189c ec35 e845 d2b8 b561 6738
000000a0: 401b 3bb4 173a 7e38 e18d 2f38 fd7e 04b9
000000b0: 7514 d738 9465 9238 890a 06b8 3ea4 54b8
000000c0: 8079 0c38 f26b f337 e554 93b8 a5f9 a6b7
000000d0: e06a 7eb7 6d7c ce36 f350 acb8 b8eb 20b9
000000e0: 6c5d 8bb8 d99e 6037 6d47 1bb8 ebd6 b5b8
000000f0: 681a afb8 f2ce b2b8 881d 1c38 228f b8b7
00000100: 12e6 e2b6 2cfe 5138 d3c5 f9b7 7c41 ebb8
00000110: 2e5f 55b8 2a8c 29b8 2e99 feb8 7b65 3938
00000120: 209b b7b7 4c81 78b8 0712 32b7 7acb 17b9
00000130: 7439 07b8 e4a6 1bb8 0e48 ca36 32f4 80b8
00000140: bd95 b537 69d3 8eb8 94b5 7938 bcb0 a0b8
00000150: 58d6 cd37 64bc 9cb6 1d1a a8b7 269d 5db8
00000160: 475d 1d38 04a4 6536 346e f437 99c0 bdb7
00000170: c91e 8cb8 3612 82b7 5621 d236 2486 6636
00000180: 1c8a 7838 e1cd 08b8 a6da 95b8 fab1 37b8
00000190: e621 ebb7 e531 da38 4307 9ab8 890b 6938
000001a0: 0aa5 b3b8 f0c4 5738 edb5 94b8 d693 bfb8
000001b0: bf12 41b8 a286 64b7 1aad b8b7 ca8b 10b8
000001c0: afe2 02b9 7288 7bb7 fe27 6138 7137 deb8
000001d0: ec02 d938 af1f f0b8 2f92 8a38 251f 77b7
000001e0: 86d9 85b8 3cd4 bd37 524a 81b8 d383 c337
000001f0: be55 4c37 5f80 d0b7 c99a c1b8 5a65 7437
-7.09104e-05 2.7526981e-05 1.2597741e-05 1.3269519e-05 -9.970748e-05 2.1180114e-05 -2.9346273e-05 -8.981758e-05
7.3642586e-05 -2.6249236e-05 -4.753602e-05 -2.6591995e-05 -7.712865e-05 -3.2706805e-05 -6.1273706e-05 -1.1927059e-06
4.5651464e-05 4.527254e-05 -4.185254e-05 -6.191602e-05 4.6331923e-05 -3.682048e-05 6.8596884e-05 -3.8054637e-05
8.903639e-05 0.00013854979 -3.482478e-05 -1.9202675e-05 -7.7801495e-05 -3.1194186e-06 3.742455e-05 -7.522531e-05
7.640354e-05 -2.9626099e-05 -6.696329e-05 -3.0763433e-05 -3.4346995e-05 1.76288e-06 -0.000100266014 5.516569e-05
-1.7425646e-07 6.061242e-05 4.1855386e-05 -0.00012635808 0.00010255809 6.980743e-05 -3.19579e-05 -5.06977e-05
3.3491757e-05 2.9018123e-05 -7.025319e-05 -1.9904992e-05 -1.5164464e-05 6.1537635e-06 -8.216677e-05 -0.00015346601
-6.645438e-05 1.3388425e-05 -3.70214e-05 -8.670784e-05 -8.349569e-05 -8.526248e-05 3.72208e-05 -2.200116e-05
-6.7621086e-06 5.00662e-05 -2.9775232e-05 -0.000112178706 -5.08718e-05 -4.0423278e-05 -0.00012140196 4.420195e-05
-2.1887536e-05 -5.9248225e-05 -1.0613824e-05 -0.00014476283 -3.2240016e-05 -3.711031e-05 6.0284574e-06 -6.1490005e-05
2.1646609e-05 -6.810466e-05 5.9535334e-05 -7.662314e-05 2.4537716e-05 -4.671094e-06 -2.003932e-05 -5.2836862e-05
3.751859e-05 3.4219129e-06 2.9138384e-05 -2.2620241e-05 -6.6814544e-05 -1.5505688e-05 6.2623685e-06 3.435075e-06
5.9256432e-05 -3.2616666e-05 -7.1456e-05 -4.3796354e-05 -2.8029968e-05 0.000104043436 -7.344645e-05 5.5562272e-05
-8.566126e-05 5.1443407e-05 -7.091076e-05 -9.135126e-05 -4.6032244e-05 -1.3621206e-05 -2.2015116e-05 -3.4462464e-05
-0.00012482212 -1.49925345e-05 5.3681426e-05 -0.00010596112 0.000103479106 -0.00011449993 6.6075816e-05 -1.4729599e-05
-6.382451e-05 2.2629385e-05 -6.1650426e-05 2.3307197e-05 1.2179311e-05 -2.485531e-05 -9.231788e-05 1.4567131e-05

exp_avg_sq f4 [128]
00000000: 01a2 3834 9d81 e432 1723 6f33 6092 7c32
00000010: 33b5 8e33 7682 b031 dcf0 b332 9beb c933
00000020: 1f43 1333 2338 1f34 bbe5 1c34 a88b dc33
00000030: a4a8 4333 a64a ed33 bff4 de33 795d 8a33
00000040: da59 1b32 171d d533 62d7 8834 532e cf33
00000050: c7d7 3132 96de f233 df0e 2033 9274 7034
00000060: 3cb0 3834 7143 5634 425e d132 ad3c b833
00000070: 7016 2334 a557 a332 4d70 9633 40aa 8f34
00000080: df1a c432 254a 6233 2422 cd33 269e 6433
00000090: f992 6633 1f6e 7a32 db44 3b34 5571 8332
000000a0: d03c 6333 f413 a732 05cd 2432 f9ab c934
000000b0: eb8a 3133 b4d3 d732 6055 a432 c74d a733
000000c0: 2c5e dc32 37c5 a131 ba0c 0134 6420 6e33
000000d0: 0f1c c332 fea0 0d33 12ef 9833 3cbf 2234
000000e0: d6eb eb33 d7b6 5933 d2c6 1434 fbd8 9733
000000f0: 1ea6 8634 473d 0234 a236 4733 878e 8d32
00000100: 2b18 0b33 f675 f033 e9ee ec31 5d3c 3e34
00000110: 31c1 d233 0e67 1534 0287 9e34 b1ff be32
00000120: 7f17 de32 4526 0f34 7eed d931 6d34 2c34
00000130: 138a 0233 20d2 2f33 0437 8d32 11ed 5c34
00000140: 43b0 ce33 6faf e733 9c1e b532 d439 0733
00000150: 0b17 b732 155d 6c32 fd53 c433 6925 5a34
00000160: 8653 b632 8e1e 7b33 77c2 2232 8578 fe31
00000170: def5 9f33 8491 a133 9fca 2732 582c 2c32
00000180: f930 3232 71c7 2832 3c52 c933 b687 d032
00000190: f84a aa33 2104 3d33 d1f6 cf32 15ef d032
000001a0: a638 a734 1d5d 3a34 9648 6434 3701 0c34
000001b0: ae46 1532 7460 8333 2734 8432 8dd6 d933
000001c0: 541d bc34 8dca 8e33 c61a 8132 1ebc 6234
000001d0: 6321 4b33 b0be 1334 ccf0 cc33 5a75 0433
000001e0: 7e09 d733 b421 9732 0766 e333 085e 1733
000001f0: 13db 4b33 1586 0e32 20fe be34 f470 9233
1.7195272e-07 2.6601635e-08 5.5678438e-08 1.4701612e-08 6.64535e-08 5.137106e-09 2.0947873e-08 9.402648e-08
3.428715e-08 1.4828451e-07 1.4612208e-07 1.02699516e-07 4.5555353e-08 1.1049751e-07 1.03821996e-07 6.443128e-08
9.042617e-09 9.923877e-08 2.5488686e-07 9.647615e-08 1.0351818e-08 1.1309491e-07 3.7266428e-08 2.239415e-07
1.7200449e-07 1.9954838e-07 2.4373666e-08 8.5792045e-08 1.518872e-07 1.9015554e-08 7.005347e-08 2.67597e-07
2.2829623e-08 5.268716e-08 9.5522665e-08 5.3229222e-08 5.368472e-08 1.4576954e-08 1.7440782e-07 1.5301945e-08
5.2907865e-08 1.9450432e-08 9.592672e-09 3.7564294e-07 4.133737e-08 2.5125566e-08 1.9130937e-08 7.790691e-08
2.5654195e-08 4.7081374e-09 1.2018691e-07 5.5443152e-08 2.2713747e-08 3.2975542e-08 7.121538e-08 1.5156996e-07
1.09859386e-07 5.069054e-08 1.3855905e-07 7.070954e-08 2.508031e-07 1.2129486e-07 4.6382986e-08 1.6479374e-08
3.238544e-08 1.1197328e-07 6.895665e-09 1.7717089e-07 9.814028e-08 1.3914197e-07 2.9528024e-07 2.2235186e-08
2.5854886e-08 1.3331835e-07 6.342531e-09 1.603782e-07 3.039356e-08 4.093647e-08 1.6439579e-08 2.0575341e-07
9.624684e-08 1.0788687e-07 2.1085093e-08 3.148473e-08 2.1314483e-08 1.3758172e-08 9.1422386e-08 2.0316442e-07
2.122557e-08 5.846828e-08 9.473857e-09 7.4060744e-09 7.4487374e-08 7.523616e-08 9.76675e-09 1.00218e-08
1.0372099e-08 9.824235e-09 9.37475e-08 2.4276101e-08 7.9298786e-08 4.4008747e-08 2.421021e-08 2.4323109e-08
3.114739e-07 1.7356474e-07 2.1260561e-07 1.3038958e-07 8.689012e-09 6.1177076e-08 1.5390539e-08 1.01438765e-07
3.5039068e-07 6.649234e-08 1.5029752e-08 2.1116327e-07 4.7294986e-08 1.3759814e-07 9.543291e-08 3.0840376e-08
1.0013444e-07 1.759404e-08 1.058907e-07 3.5242948e-08 4.7463868e-08 8.295975e-09 3.5575158e-07 6.819201e-08

exp_avg f4 [128, 128]
00000000: 86ad d835 fcee 8936 8061 0ab9 26ab 9cb9
00000010: a76c 6bb8 fb02 1137 8ca9 8bb9 fdc1 cab7
00000020: 6103 5037 ef38 0c36 16f3 3a36 1564 76b9
00000030: f41e 75b8 288c 3436 b1d0 8735 3566 4c36
00000040: 4c52 d436 6127 b9b9 8983 41ba 4782 0eba
00000050: 950b df36 d132 b6b9 82af 0bb8 7450 90b9
00000060: 7aab 3c35 42ae ea34 446a 36b9 041b 6636
00000070: a828 b435 68a6 b036 81a6 bab9 a88f f5b9
00000080: 0764 0937 107f f635 9765 8835 9e93 7036
00000090: fdcd 22ba e49b 0237 84c4 35b8 cfee 4237
000000a0: bad0 70b9 06ef 4837 667e dd36 d0fc 03b8
000000b0: c4f6 1337 e077 4d37 47f1 40b9 62c0 3ab9
000000c0: 8e98 f6b7 9fb6 fc36 162a a6b9 cb6a 0a36
000000d0: ecc8 c836 793a 08b8 9a4e 6cb9 ad62 ecb6
000000e0: b8ed 9a35 1521 49ba 8d3d 5bba 97b2 32b9
000000f0: 0429 bdb8 cccc cbb9 6017 9136 a146 6db8
00000100: 7d73 a6b7 a2f0 84b9 e348 8fb9 c6bf be35
00000110: 1036 dab9 2a15 1b36 86c0 27b9 ec34 0437
00000120: b78e dd36 9d1d 2036 ba32 4137 6dc0 82b7
00000130: cda6 00ba d72b be36 1474 abb9 8f24 a4b9
00000140: d2a9 98b9 dddc 00b9 eb7a 0b37 2d3d 94b8
00000150: 8b58 9936 d67c 0937 2253 8436 9436 0b36
00000160: 68ed 2137 4751 7336 0f16 1137 bc8a fdb7
00000170: 120e 94b9 b38c 5d36 453e 4137 62e5 e336
00000180: 3423 2037 6a7c b4b8 6c40 b3b9 f28b c4b9
00000190: 5efc a635 fb49 6337 07e2 35b8 7881 4d37
000001a0: e9e8 18ba 8dee a0b9 8efc a5b9 6c2d 9eb9
000001b0: f904 38b9 33f3 7836 fd4e a8b9 4098 1936
000001c0: 7021 29b9 21fa acb8 7a26 4f37 0a72 4eb9
000001d0: 26c0 a137 dd7e 85b7 488a d635 7378 c636
000001e0: 56e4 7035 fe52 d0b8 7f9e 12ba e2c1 e5b9
000001f0: 68d2 4cb9 ca0c a6b9 dc25 54b9 e6cb bb36
00000200: 12a6 8fb5 9d97 d9b7 9e1d 4cb8 8e1f f1b8
00000210: 5a47 39b7 f223 92b8 38aa d1b8 837f 0fb6
00000220: a07b eab8 0369 aab6 16a1 15b7 6c6c b8b8
00000230: 18c2 4ab7 81d1 16b7 831d 2536 7a8f 61b7
00000240: 0f24 49b8 e851 0fb9 ef23 97b9 12f6 5bb9
00000250: eed0 57b8 1efe 0ab9 27b1 05b7 7671 d8b8
00000260: 2e23 9ab6 0419 e4b6 c4d0 84b8 3187 77b7
00000270: 62e4 0435 5852 05b8 227a 10b9 bd0f 3db9
00000280: f03e 91b8 01e6 a8b6 0c81 3136 b17a 84b7
00000290: 026c 7db9 f7ff 63b8 b9d9 e7b6 8112 d8b8
000002a0: c7f0 b5b8 52db e2b8 0406 5ab8 f2c9 45b6
000002b0: 79c0 9ab8 3f6f e4b8 bcbb 8fb8 7447 87b8
000002c0: 3d20 b0b6 0add 7ab8 62c7 fbb8 9cc3 f2b6
000002d0: fa53 1ab8 063a d6b6 3296 aeb8 d0cf 7736
000002e0: 397d ee35 c0d7 9cb9 1e60 abb9 67eb 7eb8
000002f0: 3af8 e3b7 7f26 1bb9 b489 dfb7 2bbb 4eb7
00000300: aa90 eab5 c6c2 ccb8 58f9 d5b8 94d0 e936
00000310: bcd6 26b9 d66e d1b6 5e49 6fb8 9bc6 87b8
00000320: ae59 2fb8 489b d8b6 d22a c3b8 08ff 3035
00000330: 1638 46b9 7e3a 07b8 0977 04b9 e7a5 fab8
00000340: 743d eab8 42dc 2eb8 6b0a 90b8 a0b0 8fb7
00000350: ea34 fab7 6736 87b8 23ac 95b7 2989 87b6
00000360: 982a acb8 8dbf 92b7 1748 93b8 d472 81b6
00000370: ee8d deb8 7e33 78b7 0e9f c5b8 17bf 4fb8
00000380: eaea acb8 bea6 cfb7 2b41 08b9 1011 15b9
00000390: 0e45 bfb5 7830 02b9 2e8d 9db6 1a6a e3b8
000003a0: 6af6 6cb9 9e96 f7b8 194b fdb8 4ff0 edb8
000003b0: 961a 83b8 c434 98b7 3c8b fbb8 ab0f dab6
000003c0: 9831 70b8 88f4 d8b7 bd6e e8b8 ecda 96b8
000003d0: 7f7f 3cb9 a8a0 8934 7021 4fb7 3dfe 0fb8
000003e0: 8012 9f36 e82a 10b8 62de 62b9 d0c7 31b9
000003f0: e22a 9cb8 c28f fdb8 d1b0 9cb8 a436 18b8
1.6143756e-06 4.1107396e-06 -0.00013197027 -0.00029882154 -5.6129556e-05 8.643367e-06 -0.00026638468 -2.417061e-05
1.2398553e-05 2.0894765e-06 2.7857654e-06 -0.00023497672 -5.844138e-05 2.6903672e-06 1.0119021e-06 3.0457861e-06
6.327673e-06 -0.0003531529 -0.0007381966 -0.0005436283 6.647266e-06 -0.00034751606 -3.3303637e-05 -0.00027525763
7.028499e-07 4.3712686e-07 -0.0001739646 3.4288396e-06 1.3422878e-06 5.264581e-06 -0.0003560074 -0.00046837074
8.189126e-06 1.8365408e-06 1.0162356e-06 3.5848711e-06 -0.0006210504 7.7849e-06 -4.3336782e-05 1.1618903e-05
-0.0002296594 1.1976581e-05 6.601028e-06 -3.1468284e-05 8.819337e-06 1.2246863e-05 -0.0001840043 -0.0001781001
-2.9396524e-05 7.531445e-06 -0.00031693344 2.0625764e-06 5.983855e-06 -3.2479384e-05 -0.00022535995 -7.0448355e-06
1.1543079e-06 -0.0007672471 -0.0008363359 -0.00017041933 -9.019862e-05 -0.00038871763 4.324058e-06 -5.657098e-05
-1.984252e-05 -0.00025356287 -0.0002732939 1.4211917e-06 -0.0004162048 2.310912e-06 -0.00015998082 7.880135e-06
6.6029274e-06 2.3859095e-06 1.1515507e-05 -1.5586813e-05 -0.0004907668 5.667545e-06 -0.00032702147 -0.00031307756
-0.00029118225 -0.00012289309 8.313665e-06 -7.068585e-05 4.570063e-06 8.194902e-06 3.9435845e-06 2.0744383e-06
9.651623e-06 3.6257131e-06 8.647809e-06 -3.0224553e-05 -0.00028239243 3.3013464e-06 1.1518195e-05 6.791831e-06
9.5449395e-06 -8.606243e-05 -0.0003418954 -0.000374883 1.2441412e-06 1.3547479e-05 -4.3364267e-05 1.22490965e-05
-0.0005833046 -0.00030695312 -0.0003165942 -0.0003016995 -0.0001754946 3.709644e-06 -0.00032102308 2.2887398e-06
-0.00016129552 -8.248189e-05 1.234712e-05 -0.00019688174 1.9282172e-05 -1.591391e-05 1.5984488e-06 5.914882e-06
8.973924e-07 -9.9336714e-05 -0.0005593076 -0.00043822738 -0.00019533338 -0.00031671516 -0.00020231999 5.596771e-06
-1.0702663e-06 -2.5939016e-05 -4.8664973e-05 -0.00011497653 -1.1043472e-05 -6.968518e-05 -9.997602e-05 -2.1382882e-06
-0.000111810165 -5.07862e-06 -8.918598e-06 -8.793999e-05 -1.2085329e-05 -8.989476e-06 2.4604094e-06 -1.3444451e-05
-4.7955717e-05 -0.00013668055 -0.00028827737 -0.00020977136 -5.1454575e-05 -0.00013255372 -7.968664e-06 -0.00010320816
-4.593653e-06 -6.7978417e-06 -6.333136e-05 -1.4753824e-05 4.950617e-07 -3.178636e-05 -0.00013778408 -0.00018030308
-6.925862e-05 -5.033566e-06 2.645017e-06 -1.5792759e-05 -0.00024168196 -5.4359403e-05 -6.9096827e-06 -0.00010303129
-8.675601e-05 -0.000108173714 -5.1980853e-05 -2.9472835e-06 -7.379143e-05 -0.000108926084 -6.8537396e-05 -6.450611e-05
-5.2489618e-06 -5.9810503e-05 -0.000120057506 -7.234934e-06 -3.679467e-05 -6.384452e-06 -8.3249426e-05 3.692683e-06
1.7768826e-06 -0.00029915385 -0.00032687275 -6.0777555e-05 -2.7176098e-05 -0.00014796293 -2.6647795e-05 -1.2322135e-05
-1.7476461e-06 -9.7637574e-05 -0.00010203075 6.968223e-06 -0.00015910988 -6.2415884e-06 -5.705037e-05 -6.474295e-05
-4.1806772e-05 -6.4553788e-06 -9.3063005e-05 6.593623e-07 -0.00018903645 -3.2240983e-05 -0.00012632845 -0.00011951831
-0.00011169436 -4.1689964e-05 -6.8683956e-05 -1.7129176e-05 -2.9826962e-05 -6.447435e-05 -1.7842342e-05 -4.039281e-06
-8.209533e-05 -1.7493754e-05 -7.022934e-05 -3.8578673e-06 -0.000106122214 -1.4793941e-05 -9.423318e-05 -4.9530612e-05
-8.245355e-05 -2.4753968e-05 -0.00012994248 -0.00014216104 -1.4250706e-06 -0.00012415822 -4.6954e-06 -0.000108439664
-0.0002259851 -0.000118059324 -0.00012077968 -0.000113458016 -6.251519e-05 -1.8144383e-05 -0.00011994547 -6.4987303e-06
-5.7266647e-05 -2.5863075e-05 -0.00011083249 -7.193335e-05 -0.00017976573 2.563513e-07 -1.2345947e-05 -3.4330635e-05
4.740723e-06 -3.4372235e-05 -0.00021635884 -0.00016954471 -7.446647e-05 -0.00012090757 -7.471594e-05 -3.6290512e-05

exp_avg_sq f4 [128, 128]
00000000: f968 e22e 4735 8a30 9164 a435 3d52 d036
00000010: a345 6b34 f5e9 d331 f29f a636 ed57 3433
00000020: 5e77 7a32 a5d8 482f 2fb9 a82f c349 8236
00000030: 3504 8134 a59e a62f bd6d 712e 34f4 f52f
00000040: 8761 4931 9c5f 1137 6133 1e38 300c ac37
00000050: 0a9a 6531 ea3c 0d37 eb7b a433 fbcb b136
00000060: 53d8 de2e b06a e82e c394 0f36 d89c 1130
00000070: 1ec2 aa2e 78f3 e030 909e 1337 0a8f 7f37
00000080: 7d76 c231 2546 372f 20cd 6f2e e70f 2530
00000090: 5f77 e037 c194 9431 de62 0b34 8f4d 5732
000000a0: 9f83 7736 ee9e 6932 b2f7 6131 0219 9433
000000b0: a1ca e131 1c6f 7132 b9a2 1f36 903e 1636
000000c0: b148 8133 8151 9a31 945c eb36 b434 6f2f
000000d0: 0c40 1531 84c3 9b33 62d0 6f36 43a3 9831
000000e0: 7784 892e f51d 2b38 f50f 4b38 e977 0936
000000f0: 9d1f 1935 2cb6 3037 64c9 9430 81b2 7334
00000100: 5e4f fe32 7504 9636 dcb0 b036 6447 8e2e
00000110: 4f61 4a37 b451 6f2f df2e f235 b61d ad31
00000120: 625f 3e31 d239 772f 7fd2 4332 9e47 a932
00000130: 8285 8c37 f0b4 fc30 f5c7 fa36 84fc e436
00000140: c31c c636 8106 8f35 dd02 c431 50ca bd34
00000150: ddf3 b030 f8f5 b531 abb4 4430 b171 342f
00000160: e85e 0b32 76dc 3030 dcfb d231 e77b 9033
00000170: a8fb ba36 9e4c 0c30 cf64 4532 3f0f 6331
00000180: 5895 0b32 6055 0e35 58c4 0837 67df 2437
00000190: 174b cc2e bc14 9932 6eef 1134 7220 7032
000001a0: 02e0 c537 95ce db36 1845 ea36 c88b d536
000001b0: e6f5 1336 d31d 3830 211b f336 931f 722f
000001c0: 6305 f635 131d 0035 7b32 7832 1af8 3636
000001d0: f255 2033 a0a3 ad32 c7e8 932f ccd8 0b31
000001e0: bb4b 442e c920 3a35 b53d b637 eff6 5f37
000001f0: 086f 3236 e287 eb36 9c65 4036 574d 0531
00000200: 97bf db30 091d 4132 b7d6 2334 2d49 5135
00000210: d51c b232 e973 9933 8a26 2435 a72f 4c31
00000220: 88d3 3534 6f0a 1f31 c5c2 7d31 0fa9 0035
00000230: 4c5b c732 41c9 7531 d042 8c30 fdf0 aa31
00000240: 9183 1133 b62e 9235 2716 9e36 b609 2a36
00000250: a89d 2533 9208 8c35 64ca f631 dba5 2e35
00000260: 3aef b130 e13c d430 52fe 8b34 cdf7 cd31
00000270: 4e6c b530 dc99 9e32 0f65 9435 cd3a fd35
00000280: 5ff1 8d33 6544 0d31 1edd 8e30 5ea8 e731
00000290: 79fa 5f36 f15b 5533 79db 4232 f146 1c34
000002a0: a97b f634 4daa 2934 ba49 2433 086e b031
000002b0: 2965 a433 f0f3 2e34 10ea 9d34 24f4 9134
000002c0: 7331 ad31 1e48 6033 0589 6835 bf9b 2e31
000002d0: ff02 d532 47d4 da31 bf61 ea34 cec5 c92f
000002e0: 21a9 9e30 652a aa36 ed59 ca36 97fd 8334
000002f0: b983 8933 1a19 ae35 9be5 4f32 8fe7 bf32
00000300: 9901 0a31 276c 1735 49e6 2c35 d1a2 7830
00000310: 4dd1 c735 a62f 3a31 f874 6934 cdbe 7c33
00000320: 2217 0833 859c 4131 4ecc 0c34 ae81 a030
00000330: d630 0b36 e939 b332 960a 7c35 5227 6435
00000340: 9786 4635 461f 0734 3cc0 8e33 84fc 1b33
00000350: ab1d 7732 501c 8433 c0b8 0a32 673c 1831
00000360: 42da ca33 643b f531 123e 9933 5f4c b831
00000370: 4309 3835 248e c431 7e2b 0e34 9f93 2333
00000380: e6be ca33 84b2 7a33 3122 8735 ece5 a135
00000390: f7a8 ae30 5afd 5d34 5a95 3d32 f80e 2e34
000003a0: ac56 4436 d587 5c35 0e1b 6935 53e5 5135
000003b0: c2b4 8d34 9c7a 0032 30f3 6c35 2e29 3931
000003c0: f623 6c34 bccd 6b33 4de5 3334 1e31 b234
000003d0: 8b69 e734 52de a430 3e78 5c31 d3e7 c632
000003e0: c443 8130 099f b433 98ad 3436 5cc6 df35
000003f0: 11b3 b334 4c59 6a35 93c6 bc34 ed05 be32
1.0295937e-10 1.0055964e-09 1.2248221e-06 6.208457e-06 2.1911414e-07 6.167506e-09 4.9658056e-06 4.1989484e-08
1.4579056e-08 1.8266862e-10 3.0690603e-10 3.882889e-06 2.4031183e-07 3.0307948e-10 5.4894523e-11 4.4738757e-10
2.9304787e-09 8.664934e-06 3.7717986e-05 2.0509673e-05 3.3411447e-09 8.418438e-06 7.659386e-08 5.2987575e-06
1.0133818e-10 1.056909e-10 2.1395251e-06 5.297358e-10 7.765187e-11 1.6367343e-09 8.798801e-06 1.5232488e-05
5.6596137e-09 1.6668673e-10 5.4524496e-11 6.004925e-10 2.6758467e-05 4.3242783e-09 1.2981351e-07 1.2532282e-08
3.6882482e-06 1.3598521e-08 3.2882608e-09 6.896336e-08 6.571398e-09 1.405331e-08 2.3787563e-06 2.2388158e-06
6.020253e-08 4.491256e-09 7.0143233e-06 2.1755647e-10 2.171876e-09 7.253314e-08 3.573507e-06 4.442343e-09
6.253569e-11 4.0797477e-05 4.8413833e-05 2.0484388e-06 5.7042945e-07 1.0532833e-05 1.0825656e-09 2.2696078e-07
2.9605584e-08 4.470867e-06 5.265798e-06 6.470094e-11 1.2062795e-05 2.176595e-10 1.8044046e-06 5.0383404e-09
2.7702858e-09 2.2485061e-10 1.1398355e-08 1.9706757e-08 1.675147e-05 1.8386839e-09 7.4738587e-06 6.824326e-06
5.904208e-06 1.0656223e-06 5.7046763e-09 3.5351195e-07 1.2874996e-09 5.2957567e-09 7.156113e-10 1.6411296e-10
8.112444e-09 6.434172e-10 6.1404375e-09 6.72806e-08 5.5725286e-06 5.1040583e-10 1.148983e-08 3.3041514e-09
8.124822e-09 5.302336e-07 8.1519465e-06 9.827177e-06 9.2901846e-11 1.7820973e-08 1.3591281e-07 1.3977216e-08
2.3588542e-05 6.550758e-06 6.981787e-06 6.3641673e-06 2.2047839e-06 6.6981193e-10 7.2451226e-06 2.2020989e-10
1.8329996e-06 4.7726024e-07 1.4446978e-08 2.7264527e-06 3.733107e-08 2.0214259e-08 2.6904542e-10 2.0350397e-09
4.4632503e-11 6.933811e-07 2.1724825e-05 1.33493295e-05 2.6588696e-06 7.0193646e-06 2.8669374e-06 1.939801e-09
1.59888e-09 1.124068e-08 1.5258671e-07 7.796505e-07 2.0735039e-08 7.1457016e-08 6.115084e-07 2.9712994e-09
1.6933893e-07 2.3143476e-09 3.692706e-09 4.792973e-07 2.3208166e-08 3.5766592e-09 1.020533e-09 4.9750484e-09
3.3880102e-08 1.0891442e-06 4.711346e-06 2.5337627e-06 3.8560444e-08 1.0433307e-06 7.1825514e-09 6.50614e-07
1.2946437e-09 1.5442333e-09 2.607581e-07 5.994457e-09 1.3200265e-09 1.8463588e-08 1.1056271e-06 1.8867082e-06
6.609729e-08 2.0557078e-09 1.0394705e-09 6.742126e-09 3.3375384e-06 4.9676547e-08 1.13421885e-08 1.455444e-07
4.5911045e-07 1.5801307e-07 3.825128e-08 5.1347833e-09 7.655246e-08 1.6293757e-07 2.9413832e-07 2.718599e-07
5.0405844e-09 5.2219654e-08 8.6626125e-07 2.5408864e-09 2.4797826e-08 6.368768e-09 4.3657016e-07 3.6702236e-10
1.1544082e-09 5.07133e-06 6.030538e-06 2.4585162e-07 6.40352e-08 1.2971316e-06 1.2101192e-08 2.2340627e-08
2.0082551e-09 5.6409266e-07 6.44101e-07 9.045325e-10 1.488757e-06 2.7093647e-09 2.1742369e-07 5.8846855e-08
3.1686007e-08 2.8174167e-09 1.3112842e-07 1.1678389e-09 2.074104e-06 2.0864677e-08 9.389272e-07 8.499384e-07
7.39566e-07 1.2584232e-07 6.6473575e-08 3.631841e-08 1.4384038e-08 6.151879e-08 8.0746645e-09 2.2153246e-09
9.446059e-08 7.1371904e-09 7.135908e-08 5.363787e-09 6.855882e-07 5.7205103e-09 1.3240603e-07 3.8085656e-08
9.441082e-08 5.837002e-08 1.0068235e-06 1.2062351e-06 1.2708189e-09 2.0674398e-07 1.10352065e-08 1.6210458e-07
2.9256726e-06 8.215405e-07 8.6838634e-07 7.819228e-07 2.6394815e-07 7.478459e-09 8.8270735e-07 2.6944451e-09
2.1992295e-07 5.4902316e-08 1.6754093e-07 3.319082e-07 4.3103896e-07 1.1995758e-09 3.2082563e-09 2.3155655e-08
9.405245e-10 8.4108315e-08 2.6923135e-06 1.6672525e-06 3.3471636e-07 8.7301737e-07 3.516221e-07 2.2121606e-08
