V3/Articulation/results/FirstWalk3/AgentTest/AgentTest-1735758.onnx (onnx, 75174 bytes, 6 tensors)

network_body._body_endoder.seq_layers.0.weight f4 [128, 1]
0	0x3e65344c	0.22383231
1	0x3ef9b80f	0.48773238
2	0xbed46c31	-0.41488793
3	0xbf705ecb	-0.9389464
4	0xbe38140b	-0.17976396
5	0x3f9a8800	1.2072754
6	0xbf5782e1	-0.8418408
7	0xbda410c5	-0.08011011
8	0x3fee0999	1.8596679
9	0x3e8ad34d	0.27114335
10	0x3ead908f	0.33899352
11	0xbf3e1d70	-0.7426367
12	0xbe3fa2b5	-0.18714412
13	0x3ea84399	0.32864073
14	0x3e2228ba	0.15835848
15	0x3ebb4a33	0.36580047
16	0x3f5133f5	0.81719905
17	0xbf8df7c6	-1.109124
18	0xc0146759	-2.3188078
19	0xbfdb32e4	-1.7124906
20	0x3f5f2cfe	0.8717803
21	0xbf8c4012	-1.0957053
22	0xbdd294c8	-0.10282284
23	0xbf5eb9a8	-0.8700204
24	0x3e2c82b2	0.16846731
25	0x3e2262dd	0.15858026
26	0xbf0d37d1	-0.55163294
27	0x3ed04f60	0.40685558
28	0x3e49304c	0.1964733
29	0x3f2486df	0.64268297
30	0xbf8f21d7	-1.1182202
31	0xbfbcd748	-1.4753199
32	0x3f924d2f	1.1429805
33	0x3e7ff8e4	0.24997288
34	0x3e21ce0a	0.15801254
35	0x3ed85243	0.4225026
36	0xbff9d9e4	-1.951962
37	0x3f85e726	1.0461166
38	0xbe0e19f1	-0.13877083
39	0x3fdcc005	1.72461
40	0xbf394f32	-0.7238647
41	0x3fe540ef	1.7910441
42	0x3f5dbdc1	0.86617666
43	0xbdd2ad4c	-0.1028696
44	0x3f9f789c	1.2458682
45	0x3fea4111	1.8301107
46	0xbf14c672	-0.58115304
47	0xbf10baf8	-0.5653529
48	0xbdbde5da	-0.09272356
49	0x3f82b4b2	1.0211394
50	0xbf800cc2	-1.0003893
51	0x3e8b436f	0.27199885
52	0x3f414ede	0.75510967
53	0xbdd0e23f	-0.10199403
54	0xbf36c501	-0.71394354
55	0xbd0f58cb	-0.03499679
56	0x3e3409cb	0.1758186
57	0xc01a5cdb	-2.4119174
58	0xc028357a	-2.628264
59	0xbf0ad8ba	-0.5423695
60	0xbe92fbae	-0.2870764
61	0xbf9d0847	-1.2268151
62	0x3f03b9c6	0.5145534
63	0xbe37a51f	-0.17934082
64	0xbd87b6fc	-0.066266984
65	0xbf4bddcb	-0.79635304
66	0xbf5d6366	-0.86479795
67	0x3d894583	0.067027114
68	0xbfa806bf	-1.3127059
69	0x3e954131	0.291513
70	0xbf022d16	-0.50850046
71	0x3f8ab5b1	1.0836698
72	0x3f5a465c	0.8526361
73	0x3e98c28d	0.2983593
74	0x3fd6a0f6	1.6767871
75	0xbd693406	-0.05693438
76	0xbfc5df65	-1.54588
77	0x3f34de55	0.7065175
78	0xbf83611d	-1.0264012
79	0xbf7c8ef8	-0.98655653
80	0xbf6a6deb	-0.9157397
81	0xbec82761	-0.39092544
82	0x3f94701c	1.1596713
83	0xbe67df61	-0.22643806
84	0x3f0c3749	0.5477186
85	0x3f907602	1.1286013
86	0x3eefca7b	0.46834168
87	0x3e898e6c	0.26866472
88	0x3fb15ae0	1.3855858
89	0x3edb3cc9	0.42819813
90	0x3f9abb0a	1.208833
91	0xbdc717e4	-0.09721354
92	0xbf6481c0	-0.8926048
93	0x3ec9498c	0.39313924
94	0x3fd7385b	1.6814073
95	0x3f63ade0	0.8893719
96	0x3fb00fe2	1.3754847
97	0xbe8c2813	-0.27374324
98	0xbf8a17f6	-1.0788562
99	0xbf97939a	-1.184192
100	0x3e4879c9	0.19577707
101	0x400399cf	2.0562627
102	0xbe10d533	-0.14143829
103	0x3fea047c	1.8282619
104	0xbfeafa88	-1.8357706
105	0xbf7700db	-0.9648568
106	0xbf7f6c52	-0.9977466
107	0xbf743028	-0.9538598
108	0xbf0f23b4	-0.55913854
109	0x3ee06f96	0.43835133
110	0xbf820d94	-1.0160394
111	0x3e946217	0.28981087
112	0xbf0365dc	-0.513273
113	0xbe84dd57	-0.2595012
114	0x3feceea6	1.851033
115	0xbf1ff0f8	-0.62477064
116	0x403f59ed	2.9898636
117	0xbd6b36bd	-0.05742525
118	0x3e8458be	0.25848955
119	0x3f3edc5e	0.74555004
120	0x3dfdd2f6	0.12393753
121	0xbe9f76f2	-0.31145436
122	0xbfe16217	-1.760806
123	0xbfb04283	-1.3770298
124	0xbf1d1a5d	-0.6136835
125	0xbf7f69e4	-0.9977095
126	0xbf240374	-0.6406777
127	0x3f320c3c	0.6954992

network_body._body_endoder.seq_layers.0.bias f4 [128]
0	0xbe9984e5	-0.29984203
1	0x3db2d93b	0.0873284
2	0x3d8c9b7f	0.06865596
3	0x3d8adc10	0.06780255
4	0xbe21d313	-0.15803175
5	0x3e0429c5	0.12906559
6	0xbd9378fa	-0.07200809
7	0xbdb0c0cb	-0.08630522
8	0x3e683616	0.22676882
9	0xbe7417eb	-0.23837249
10	0xbe8c29c1	-0.27375606
11	0xbd4cc285	-0.049990196
12	0xbe1e2d64	-0.15447003
13	0xbe70190d	-0.23447056
14	0xbe896c8b	-0.26840624
15	0xbdfdbcdf	-0.1238954
16	0x3e3dc7e3	0.18533282
17	0x3dae18e2	0.0850084
18	0x3c2dc013	0.010604876
19	0xbe01e4d8	-0.12684953
20	0x3e489c4b	0.19590871
21	0xbd455b5c	-0.04818283
22	0x3d8be979	0.06831641
23	0xbdaed87e	-0.08537386
24	0x3e005c48	0.12535203
25	0x3e854c22	0.26034647
26	0xbd8a9252	-0.0676619
27	0xbe434d82	-0.19072536
28	0xbe94adae	-0.29038757
29	0xbd7ff0be	-0.06248545
30	0x3dad3708	0.08457762
31	0xbd9c38e6	-0.0762804
32	0x3e83ab70	0.25716734
33	0xbe24a4ea	-0.16078535
34	0xbe8f4961	-0.2798567
35	0xbe4886a1	-0.19582607
36	0xbc2c4121	-0.010513575
37	0xbdb579fe	-0.08861159
38	0xbdfda109	-0.12384231
39	0x3e52c1da	0.20581761
40	0x3c28a286	0.010292655
41	0x3e77f52e	0.24214622
42	0x3e6754be	0.2259092
43	0xbe0773e0	-0.13227797
44	0x3e4bcb83	0.19901852
45	0x3e47c0be	0.19507119
46	0x3b8b034d	0.004242337
47	0xbdc87686	-0.097882316
48	0xbb2a809a	-0.0026016594
49	0x3e337054	0.17523319
50	0xbd9295a3	-0.07157447
51	0xbdf79df0	-0.12090671
52	0xbdf1616e	-0.11786161
53	0x3c010366	0.007874345
54	0xbdd4ba60	-0.10387111
55	0xbe77f001	-0.24212648
56	0xbe94993a	-0.29023153
57	0xbda0ad70	-0.078455806
58	0xbd447cef	-0.04797071
59	0xbe086757	-0.13320671
60	0xbdd1ab17	-0.10237711
61	0xbdfa5182	-0.12222578
62	0x3d557442	0.052112825
63	0xbdd54d64	-0.10415152
64	0xbd7703a2	-0.0603062
65	0x3dcaa509	0.09894759
66	0xbdf189d4	-0.11793867
67	0xbeb20b04	-0.3477403
68	0xbddf2eca	-0.10897596
69	0xbe81310c	-0.25232732
70	0xbdd218f5	-0.102586664
71	0x3e5f1389	0.21784796
72	0xbe12ac40	-0.1432352
73	0xbe8924b9	-0.2678583
74	0xbc971b53	-0.018445646
75	0xbe11a2e8	-0.142223
76	0xbdc3f4f6	-0.09568207
77	0xbe4b36b6	-0.1984509
78	0x3da97ab6	0.082753584
79	0xbbe53912	-0.0069953287
80	0x3d562e22	0.05229009
81	0xbdc0b2c3	-0.09409096
82	0x3e51dab3	0.20493583
83	0xbe2ae6aa	-0.16689554
84	0x3dc9e9c2	0.09859039
85	0x3ddf3ae2	0.10899903
86	0xbe64a186	-0.22327241
87	0xbe962aa5	-0.2932941
88	0x3e3f9562	0.18709329
89	0xbdfaf816	-0.1225435
90	0x3e13c275	0.14429648
91	0xbd9a7e07	-0.07543569
92	0xbdb090e8	-0.08621389
93	0xbe1253ce	-0.14289781
94	0x3c49d0a6	0.012317812
95	0x3d9befb7	0.07614081
96	0x3e69b8cc	0.228244
97	0xbe060b7e	-0.13090321
98	0xbd988fff	-0.0744934
99	0xbe0ecc79	-0.13945188
100	0xbe1e4552	-0.15456131
101	0x3e79abf6	0.24382004
102	0xbe695173	-0.22784977
103	0x3e3c2bef	0.18376134
104	0xbdb1e2be	-0.08685826
105	0x3d77ef61	0.060531024
106	0xbc6635d1	-0.014050917
107	0xbddf69ec	-0.10908875
108	0xbe1d4a38	-0.15360343
109	0xbdf65c60	-0.12029338
110	0xbe45009d	-0.19238515
111	0xbe6b731f	-0.22993134
112	0xbdf632ee	-0.12021433
113	0xbab4a706	-0.0013782687
114	0x3e5d66f7	0.21621309
115	0xbdd2b9c5	-0.10289339
116	0x3e6c94d7	0.23103653
117	0xbdfeff29	-0.12451012
118	0x3e502f55	0.20330556
119	0xbe4d38b2	-0.20041159
120	0xbe9dc383	-0.30813226
121	0x3d53b8b1	0.051689807
122	0xbdc26d0d	-0.09493456
123	0x3cfec316	0.031098884
124	0x3db0a832	0.08625831
125	0xbbcd2ef2	-0.0062617
126	0xbd849938	-0.06474537
127	0x3bebb59b	0.00719328

network_body._body_endoder.seq_layers.2.weight f4 [128, 128]
0	0x3e436f18	0.19085348
1	0xbd4e5e0f	-0.05038267
2	0xbc97524d	-0.018471861
3	0x3d045546	0.032307886
4	0xbe0e8902	-0.13919452
5	0xbb468327	-0.0030290575
6	0xbdcad6dc	-0.099042624
7	0x3977f584	0.00023647217
8	0x3e02421f	0.12720536
9	0x3ccf2eb8	0.025290832
10	0x3e49ee15	0.19719727
11	0xbd86d87a	-0.065842584
12	0x3d0d6e9a	0.034529306
13	0x3dc95822	0.09831263
14	0x3e4d151d	0.20027585
15	0x3dc0e49d	0.094186045
16	0xbd884193	-0.06653132
17	0x3d93bf9b	0.0721428
18	0x3dc1b764	0.09458807
19	0x3d3e50f6	0.04646393
20	0x3dd48e17	0.10378664
21	0xbd405a81	-0.04696131
22	0x3e201dad	0.1563632
23	0xbde74c3c	-0.112938374
24	0xbdb79928	-0.08964759
25	0xbdd507ae	-0.104018554
26	0x3e22f788	0.15914738
27	0x3bc6aa0c	0.0060627516
28	0x3d821f1c	0.0635359
29	0x3cf97882	0.03045297
30	0x3da0e9f1	0.07857121
31	0x3d19ab8e	0.037517123
32	0xbd00aa51	-0.031412426
33	0xbd557115	-0.052109797
34	0x3d9aa2c4	0.07550576
35	0x3cc2273a	0.023700345
36	0x3d2a6b35	0.041606147
37	0xbd473324	-0.048632756
38	0x3e12f7ee	0.1435239
39	0x3e281a28	0.16416228
40	0x3e043d2d	0.12913962
41	0x3e1cbecf	0.15307163
42	0x3d0549ee	0.032541208
43	0xbd2bffc8	-0.04199198
44	0x3d9b14e0	0.07572341
45	0x3cb8ea2c	0.0225726
46	0xbd7ddc4d	-0.061977673
47	0xbccd7bef	-0.02508351
48	0xbcec6a20	-0.028859198
49	0x3d2e4d0d	0.04255395
50	0xbd8214ed	-0.063516475
51	0x3d357473	0.044300508
52	0xbbbb1f8a	-0.005710547
53	0xbdf67ce0	-0.12035537
54	0x3d9f9d67	0.07793694
55	0x3b0dbf11	0.0021628777
56	0x3e19b4b1	0.15010335
57	0x3d5df9d3	0.05419333
58	0x3a722971	0.00092377426
59	0xbd2d15b8	-0.04225704
60	0xbda4b9ea	-0.08043273
61	0xbda2e845	-0.07954458
62	0xbdc3b99b	-0.09556886
63	0x3d65549b	0.05598889
64	0xbe0144ae	-0.12623855
65	0xbdfb79be	-0.1227908
66	0xbe062ee5	-0.13103826
67	0xbc0b0619	-0.0084853405
68	0x3da6151a	0.081094936
69	0x3e409817	0.18808018
70	0xbcd8f294	-0.026482858
71	0x3e1ff380	0.15620232
72	0x3e51425d	0.20435472
73	0x3e7c8611	0.24660517
74	0xbde1e547	-0.11030059
75	0x3d1fdfc8	0.039031774
76	0xbc93317a	-0.017967928
77	0x3d1b8357	0.037967052
78	0x3dea4072	0.11438073
79	0xbc5a934a	-0.0133407805
80	0xbc9766ae	-0.018481579
81	0x3d2fc427	0.042911675
82	0x3dfccc3d	0.12343643
83	0xbce5d96a	-0.028057773
84	0x3dcc60fd	0.099794365
85	0xbdc58fa1	-0.09646536
86	0x3d7ee718	0.062232107
87	0x3cc18d57	0.023626966
88	0xbe22f1b6	-0.15912518
89	0x3ce34334	0.027742006
90	0xbc6bffdc	-0.014404263
91	0xbd29c5e6	-0.041448496
92	0xbd0112de	-0.031512134
93	0x3dcba243	0.09943058
94	0x3e161add	0.14658685
95	0x3ccd64a4	0.025072403
96	0xbd188e4c	-0.03724508
97	0x3d4c772f	0.04991835
98	0x3e093ef4	0.13402921
99	0x3d6bc7be	0.057563536
100	0x3d8ffb7a	0.07030387
101	0xbd89c729	-0.0672744
102	0x3d033900	0.03203678
103	0xbdb4182f	-0.08793675
104	0x3d4c1a4c	0.049829766
105	0xbe1dd9df	-0.15415142
106	0x3db38968	0.087664425
107	0xbc700b5d	-0.014651147
108	0x3cac23d2	0.021013174
109	0xbde700c7	-0.11279445
110	0xbdd97559	-0.106180854
111	0x3e1af10f	0.15131019
112	0x3d438af2	0.04773993
113	0x3e8d12dc	0.2755345
114	0xbd514e68	-0.051100165
115	0xbda18c59	-0.07888097
116	0x3dbd5fb9	0.09246773
117	0xbdb2db7f	-0.08733272
118	0x3de41fc1	0.11138869
119	0x3db6a5b7	0.08918326
120	0xbd9d6d22	-0.07686831
121	0x3cd9fb08	0.026608959
122	0x3deee1a1	0.11664129
123	0xbe10c477	-0.14137445
124	0xbc71d85a	-0.014761055
125	0x3b909329	0.004412074
126	0xbb65e73e	-0.0035080458
127	0x3dcfd8e0	0.101487875
128	0x3d79d5c4	0.06099488
129	0xbd280ff1	-0.041030828
130	0xbdd25570	-0.10270202
131	0xbbccf354	-0.006254593
132	0xbd7c2161	-0.06155527
133	0xbc9b6a4d	-0.018971587
134	0xbd0f652a	-0.035008587
135	0x3df823ff	0.12116241
136	0xbd99d002	-0.075103775
137	0xbce38aab	-0.027776083
138	0x3d762203	0.06009103
139	0xbdc144e9	-0.09436972
140	0x3c394619	0.0113082165
141	0x3dca03d0	0.098640084
142	0x3d95e32f	0.073187225
143	0x3da7b80a	0.081893995
144	0xbc0e68bc	-0.008691963
145	0xbdafac40	-0.08577776
146	0x3cd43cee	0.02590796
147	0x3d6ffde5	0.058591742
148	0x3dd3faa4	0.1035054
149	0xbc039f0b	-0.008033524
150	0xbe4844a6	-0.19557437
151	0x3b0e2e2c	0.0021695
152	0xbe15a9cb	-0.14615552
153	0xbd24a6fd	-0.040198315
154	0x3d602382	0.054721363
155	0x3d98462a	0.07435258
156	0x3e675b8b	0.22593515
157	0x3e3cbc3c	0.1843118
158	0xbdf8adbe	-0.12142514
159	0xbb9d637b	-0.0048031188
160	0xbdeb3f96	-0.114867374
161	0x3de7c27c	0.11316392
162	0x3dbe1e0a	0.09283073
163	0x3dbdeec8	0.092740595
164	0xbcb07ec4	-0.021544822
165	0x3cd3b58a	0.0258434
166	0x3c4011a7	0.011722959
167	0x3cb9a0f6	0.02265976
168	0xbcad5daf	-0.021162836
169	0xbd01644b	-0.031589787
170	0xbd73c114	-0.059510306
171	0xbba0f530	-0.004912041
172	0xbd58b12b	-0.052903336
173	0xbdc45a67	-0.095875554
174	0x3dae7f48	0.08520371
175	0x3e0562f7	0.13026033
176	0xbe3001a5	-0.17188127
177	0x3dcd1b75	0.10015003
178	0xbc44aa6b	-0.012003521
179	0xbcd9e73d	-0.02659952
180	0xbe4a82ac	-0.1977641
181	0xbde49f06	-0.11163144
182	0xbc6b4899	-0.01436057
183	0x3c64cd18	0.013964914
184	0x3d5e99e5	0.054345984
185	0x3e1ba78b	0.15200631
186	0x3d05626c	0.032564566
187	0x3d99a95d	0.075030066
188	0xbd044f2c	-0.032302067
189	0xbe11790e	-0.14206335
190	0x3d02662a	0.031835712
191	0xbe0f75b3	-0.14009742
192	0x3d1d8290	0.038454592
193	0x3d6653b8	0.056232184
194	0xbc7b7d9c	-0.015349772
195	0xbd295371	-0.04133934
196	0xbe27a04b	-0.1636974
197	0xbd03dceb	-0.032193106
198	0x3be4ab90	0.0069784597
199	0xbda32d31	-0.07967604
200	0x3d1dc22a	0.038515247
201	0x3d9dd88a	0.07707317
202	0xbbf9bfd2	-0.0076217437
203	0xbdc9f75b	-0.098616324
204	0xbdc724ff	-0.09723853
205	0x3e29a666	0.16567382
206	0xbc428cb7	-0.011874369
207	0xbe3cf8ec	-0.18454331
208	0x3d78d137	0.060746398
209	0xbd10987c	-0.03530167
210	0x3d44f923	0.048089158
211	0xbdd73dbd	-0.105098225
212	0x3dc171fd	0.0944557
213	0x3cb46291	0.022019656
214	0x3de87214	0.11349884
215	0x3e1869d5	0.14884122
216	0x3cdeebc7	0.027212037
217	0x3e354030	0.17700267
218	0x3e05a8b6	0.1305264
219	0x3e034e2e	0.12822792
220	0x3e0cfed3	0.13769083
221	0xbd95ef20	-0.07321
222	0xbd96b644	-0.07358983
223	0x3c7481e4	0.014923546
224	0xbdd48317	-0.10376566
225	0xbd44d7ea	-0.048057474
226	0x3e12e71b	0.14345972
227	0x3e237102	0.15961078
228	0x3d680e4c	0.05665426
229	0xbe1c9e4d	-0.15294762
230	0xbd708caf	-0.058727916
231	0x3e06c93f	0.13162707
232	0xbdafd465	-0.08585433
233	0xbd0d574a	-0.034507073
234	0xbdaa8792	-0.08326639
235	0xbd080a78	-0.03321311
236	0x3e1c079e	0.1523728
237	0x3dc79853	0.097458504
238	0xbd02bf5b	-0.031920772
239	0xbd47b594	-0.04875715
240	0x3e844bf6	0.25839204
241	0xbd96c651	-0.073620446
242	0x3b2bee08	0.0026234407
243	0x3d1bbb94	0.038020685
244	0xbe50f028	-0.20404112
245	0x3d0ba771	0.03409523
246	0xbdb39c0d	-0.08769999
247	0x3e2da6fa	0.16958228
248	0x3d9f0299	0.07764167
249	0x3e279a76	0.16367516
250	0x3dca9ba5	0.09892968
251	0xbdae866f	-0.08521735
252	0xbe276765	-0.16348036
253	0xbdf42bcc	-0.11922416
254	0x3c938937	0.018009765
255	0xbd2fd506	-0.042927764

network_body._body_endoder.seq_layers.2.bias f4 [128]
0	0xbd884a53	-0.06654801
1	0xbe46e46e	-0.19423077
2	0xbdc63af0	-0.0967921
3	0xbdc199a7	-0.09453135
4	0xbe861923	-0.26191053
5	0xbe7d11d1	-0.24713828
6	0xbdc196af	-0.09452569
7	0xbe55a969	-0.20865406
8	0xbdcf4d83	-0.10122206
9	0xbdbc3bee	-0.09191118
10	0x3d686a3b	0.056741934
11	0x3c408dec	0.011752587
12	0xbe72c6a3	-0.23708586
13	0xbb051d3f	-0.0020311621
14	0xbe3adf59	-0.18249263
15	0x3d3c4e94	0.045973375
16	0x3d891b0e	0.066946134
17	0x3e2fed06	0.17180261
18	0x3dd16202	0.10223772
19	0xbe4cae04	-0.19988257
20	0xbda224e9	-0.07917196
21	0x3b8efe95	0.0043638446
22	0xbe6522ce	-0.22376558
23	0xbe582ca0	-0.21110773
24	0x3da69e33	0.08135643
25	0xbe33233c	-0.1749391
26	0xbe42ec47	-0.19035445
27	0xbe56d88d	-0.20981045
28	0xbe558047	-0.20849715
29	0xbdc34ded	-0.095363475
30	0xbe782d43	-0.24236016
31	0xbe16c395	-0.14723046
32	0xbdae54cb	-0.08512267
33	0xbd964249	-0.07336862
34	0xbdc37795	-0.09544293
35	0xbd8ac361	-0.06775547
36	0x3d8eebf2	0.06978597
37	0xbc30a299	-0.010780954
38	0xbd352833	-0.04422779
39	0xbe719750	-0.23592877
40	0x3d12a680	0.035803318
41	0xbde2ee4d	-0.110806085
42	0x3d1c3f83	0.038146507
43	0xbe623387	-0.22089969
44	0xbe58ebdd	-0.21183725
45	0xbe8461e9	-0.2585595
46	0xbe3640e8	-0.17798197
47	0xbd91e07d	-0.07122896
48	0xbe3d8460	-0.18507528
49	0x3dbefb54	0.09325281
50	0xbe08ba78	-0.13352382
51	0xbdde168f	-0.108441465
52	0x3e43623b	0.1908044
53	0x3d04afd4	0.032394245
54	0x3e402915	0.18765672
55	0xbe4df3ca	-0.2011253
56	0x3cd94d81	0.026526215
57	0xbe0549a0	-0.13016367
58	0xbe69f804	-0.22848517
59	0xbe127618	-0.14302862
60	0xbe3b4975	-0.1828974
61	0xbe532f67	-0.20623551
62	0xbe4895a5	-0.19588335
63	0xbe21e826	-0.15811214
64	0xbdfa1352	-0.12210716
65	0xbe5b6b12	-0.21427563
66	0xbe896d07	-0.26840994
67	0x3e34cc0f	0.17655967
68	0xbde7c254	-0.11316362
69	0x3d8f41ad	0.069949485
70	0xbe24e57b	-0.16103165
71	0xbe2852e9	-0.16437878
72	0x3e3fb5dd	0.18721719
73	0x3da24cb9	0.0792479
74	0xbdbc35d2	-0.09189953
75	0xbe804cd5	-0.25058618
76	0x3d5ca60f	0.053869303
77	0xbe0a9ed3	-0.13537149
78	0x3dbfbd48	0.093622744
79	0xbe4890af	-0.19586442
80	0xbe2ed8cb	-0.17074887
81	0xbe0e1558	-0.1387533
82	0xbdb466b0	-0.088086486
83	0xbca8fc90	-0.020628244
84	0x3dc83968	0.097765744
85	0x3dd6ca45	0.104877986
86	0xbd570b17	-0.05250081
87	0xbe115c65	-0.14195402
88	0xbe53000d	-0.20605488
89	0xbdc9dccd	-0.098565675
90	0x3dc33da2	0.0953324
91	0x3d868e35	0.065700926
92	0x3dcf5e95	0.10125462
93	0xbe2e89fb	-0.17044823
94	0xbe48b291	-0.19599368
95	0xbe3b2685	-0.18276413
96	0x3db66249	0.08905465
97	0xbd89355f	-0.06699633
98	0xbdf7887d	-0.1208658
99	0xbafc673b	-0.0019256839
100	0xbdb7d00d	-0.089752294
101	0xbe42bcee	-0.19017383
102	0xbe7a1bd4	-0.24424678
103	0xbd9218e5	-0.071336545
104	0xbdd4114a	-0.1035486
105	0xbdbdae92	-0.09261812
106	0xbdabca58	-0.083882034
107	0x3e2d4a78	0.16922939
108	0xbe7f8d22	-0.24956182
109	0xbe58cf9d	-0.21172948
110	0xbe327bae	-0.17429993
111	0xbe2f4903	-0.17117696
112	0xbe395373	-0.1809824
113	0xbe32bfd2	-0.17455986
114	0xbdc91234	-0.09817925
115	0x3dd2bd2a	0.102899864
116	0xbdc17503	-0.09446146
117	0x3dcf74a4	0.10129669
118	0xbe30ba33	-0.1725853
119	0xbdd09572	-0.101847544
120	0xbe44a74a	-0.1920444
121	0xbe802d9f	-0.25034806
122	0xbdb5a9a1	-0.08870245
123	0xbda9719d	-0.08273623
124	0xbe329f7d	-0.17443652
125	0x3e35c949	0.17752565
126	0xbe0d02bf	-0.13770579
127	0x3e5fc618	0.2185291

action_model._continuous_distribution.mu.weight f4 [1, 128]
0	0x3b53631a	0.0032255114
1	0x3e5c03b1	0.21485783
2	0x3cb50278	0.022095904
3	0x3ca3b349	0.01998295
4	0x3e79eb7e	0.2440624
5	0x3e08f21b	0.13373606
6	0x3d03b6ed	0.032156873
7	0x3e693645	0.22774608
8	0x3ccceb99	0.025014685
9	0x3cd96aa5	0.02654011
10	0xbb0c3b98	-0.0021397825
11	0x3ab5b804	0.0013864045
12	0x3e4d6357	0.20057426
13	0x3a967bc7	0.001148098
14	0x3e8151b9	0.25257662
15	0xbb729780	-0.003701657
16	0xbc055697	-0.00813832
17	0xbd3eedce	-0.046613507
18	0xbd2f67b7	-0.04282352
19	0x3e72d96e	0.23715755
20	0x3cc77c0e	0.024351146
21	0x3b7adb91	0.0038277844
22	0x3e83ebbc	0.2576579
23	0x3dfd2d2a	0.1236213
24	0xbc641b5b	-0.013922538
25	0x3d809589	0.062785216
26	0x3e8c26cc	0.2737335
27	0x3e5c97f0	0.21542335
28	0x3d47b28f	0.04875427
29	0x3c4ef119	0.012630724
30	0x3e5e945c	0.21736282
31	0x3d4be5fe	0.049779885
32	0x3c8d354a	0.017237324
33	0x3ca8b883	0.020595795
34	0x3cac64f8	0.02104424
35	0x3a5098d2	0.00079573423
36	0xbbb145f3	-0.00540995
37	0x3b779d30	0.00377829
38	0x3b0e30e2	0.0021696617
39	0x3e805765	0.25066677
40	0xba87a569	-0.0010348979
41	0x3c67ded6	0.014152249
42	0x3c207a57	0.009794793
43	0x3e3d2678	0.18471706
44	0x3e2f94c4	0.17146593
45	0x3dc528f9	0.096269555
46	0x3e208dd4	0.15679103
47	0x3bfe2615	0.0077560046
48	0x3e6fc0fa	0.23413458
49	0xbb99829a	-0.0046847584
50	0x3d64afd4	0.055831745
51	0x3d9ac814	0.07557693
52	0xbdc06c34	-0.09395638
53	0xbaa94877	-0.0012915273
54	0xbd8c0df1	-0.068385966
55	0x3e8d207f	0.27563855
56	0xb88a9393	-6.6078406e-05
57	0x3c05b27f	0.008160233
58	0x3e143d9d	0.14476629
59	0x3e114f5c	0.1419043
60	0x3e6db7ef	0.23214696
61	0x3d969b49	0.07353837
62	0x3e81433b	0.25246605
63	0x3e176ee8	0.14788401
64	0x3d0689b3	0.032846164
65	0x3e6981d7	0.22803436
66	0x3e255813	0.16146879
67	0xbd608be2	-0.054820903
68	0x3c796059	0.015220725
69	0xbc93cb30	-0.018041223
70	0x3d10c610	0.035345137
71	0x3e636f75	0.22210486
72	0xbd9c9e74	-0.0764741
73	0xbc028ce9	-0.007968166
74	0x3b7a5e7a	0.0038203285
75	0x3e82b997	0.2553222
76	0xba9d4e53	-0.0012001492
77	0x3cc2efed	0.023796046
78	0xbcf729b2	-0.030171249
79	0x3e835805	0.2565309
80	0x3e842a6f	0.25813624
81	0x3d899818	0.06718463
82	0x3c477d40	0.012175858
83	0x3b22b4cd	0.0024827004
84	0xbcfaa1a6	-0.030594658
85	0xbc9a351a	-0.018824149
86	0x3599482a	1.1420391e-06
87	0x3ca20f56	0.019782703
88	0x3e650929	0.22366776
89	0x3c7e2aa1	0.015513093
90	0xbcf9222e	-0.030411806
91	0x3b0a5669	0.0021108633
92	0xbc900744	-0.01758159
93	0x3e5fe818	0.2186588
94	0x3e5a9b68	0.21348345
95	0x3d398ec8	0.045302182
96	0xbc5defb3	-0.013545918
97	0x3a18845a	0.0005818062
98	0x3c16f301	0.00921321
99	0xb8fe965a	-0.00012139669
100	0x3caf8f5d	0.021430666
101	0x3e588736	0.21145329
102	0x3e7a08d7	0.24417435
103	0x3bcfe3fb	0.006344316
104	0x3d1b3826	0.037895344
105	0x3d338afb	0.043833714
106	0x3d1fb5c3	0.0389917
107	0xbd926228	-0.07147628
108	0x3e756518	0.23964345
109	0x3e0f83a7	0.14015065
110	0x3e7e4350	0.24830365
111	0x3e082aba	0.13297549
112	0x3e8d2208	0.27565026
113	0x3c18b13f	0.0093196025
114	0x3c70ce96	0.014697691
115	0xbccc4497	-0.02493505
116	0x3c9cc833	0.019138431
117	0xbbb82223	-0.005619304
118	0x3cb5fa94	0.022214212
119	0x3d160703	0.03662778
120	0x3e894912	0.2681356
121	0x3e683ce3	0.22679476
122	0x3cde89c5	0.027165303
123	0x3d0b6cc9	0.034039292
124	0x3e75b4f0	0.23994803
125	0xbda12dfa	-0.078700975
126	0x3d4d45bb	0.05011533
127	0xbdccc046	-0.09997611

action_model._discrete_distribution.branches.0.weight f4 [1, 128]
0	0xbc0dd437	-0.008656553
1	0x3ca0cd9f	0.019629298
2	0x3c8fee4e	0.017569687
3	0x3c146ce4	0.009059165
4	0xba8be455	-0.0010672907
5	0xbbdab74f	-0.006674684
6	0x3b80dfb3	0.003932917
7	0x3b7b9e5a	0.0038393945
8	0xbb1a1ff7	-0.0023517588
9	0x3c6227e0	0.013803452
10	0x3b459ad9	0.003015211
11	0x3b8629fd	0.004094361
12	0x395b9b47	0.00020943313
13	0x3ba94173	0.005165273
14	0xbc1c19a3	-0.009527597
15	0x3c5f52bb	0.013630564
16	0xbb903f32	-0.0044020647
17	0x3b63df12	0.0034770411
18	0xbc4243ba	-0.011856968
19	0xbbb7a0f3	-0.0056039034
20	0x3ba11090	0.0049153045
21	0xbbc79182	-0.006090344
22	0x3c5113f3	0.012761104
23	0xbbfa1e08	-0.0076329745
24	0x3980d7fe	0.0002457499
25	0x3c80738b	0.015680095
26	0x39bba0b2	0.00035787147
27	0x3c81703e	0.015800592
28	0xbc8dc3f3	-0.01730535
29	0x3cbf96f7	0.023387415
30	0xbb4695bc	-0.003030165
31	0xbb46518b	-0.0030261006
32	0xbc917e3f	-0.017760394
33	0xbc708feb	-0.01468275
34	0x3ca3cc6f	0.019994942
35	0x3b998ed7	0.0046862173
36	0xbb5b9963	-0.0033508174
37	0x3a0acbc7	0.00052946474
38	0x3c0c90d1	0.008579449
39	0x3c386a9e	0.011255888
40	0xbce1b8c8	-0.02755393
41	0xbbba8227	-0.005691785
42	0x3b494d2f	0.003071617
43	0x3b66c83a	0.003521456
44	0xbcaf7083	-0.021415954
45	0xba63e7c5	-0.0008693899
46	0x3a339c74	0.00068516214
47	0xbb4b3c57	-0.0031011307
48	0x3bd4277b	0.006474433
49	0xb9d90b35	-0.00041397815
50	0x3c76e5fd	0.015069482
51	0xbcce691d	-0.025196606
52	0x3bc26e00	0.005933523
53	0xbb262ac9	-0.0025355092
54	0x3badffa5	0.005310016
55	0x3bb23434	0.005438352
56	0xb7d38637	-2.5215659e-05
57	0xbbbedeea	-0.0058249133
58	0xbbb4dcc3	-0.005519481
59	0x3b7d47d0	0.003864754
60	0x3cedbfb3	0.029022073
61	0xbb38efdb	-0.0028219137
62	0xbb9cb402	-0.004782201
63	0x3ae14222	0.0017185847
64	0x3b0cfd91	0.0021513442
65	0x3b9bd3ef	0.004755489
66	0xbc08f4a2	-0.008359106
67	0xbc6ea23d	-0.014565048
68	0xbc1f3587	-0.009717352
69	0x3aa3bcff	0.0012492238
70	0xbc09240a	-0.008370409
71	0xbba79d52	-0.0051151896
72	0x3b82db01	0.0039933925
73	0xb893384a	-7.019991e-05
74	0x3bbad1ce	0.00570128
75	0xbb935d8b	-0.004497235
76	0xbc9c79b9	-0.01910101
77	0xbc624983	-0.013811472
78	0xbc474cae	-0.012164278
79	0x39308c7f	0.00016837007
80	0x3c6dc2e2	0.014511796
81	0x3cc8e8c8	0.024525061
82	0xbc21c4e9	-0.009873607
83	0xbad8ee08	-0.0016550431
84	0x3a7139c2	0.0009202027
85	0xbc15eb26	-0.009150302
86	0xbb997cc4	-0.0046840627
87	0x3b631ff8	0.0034656506
88	0x3b2e1616	0.0026563457
89	0xbb329c1d	-0.0027253695
90	0xbc1e16c2	-0.009648981
91	0xbc588cd0	-0.013217166
92	0xbc292132	-0.010322856
93	0x3c5081d8	0.01272627
94	0xbc33dcaa	-0.010977903
95	0xbc75330a	-0.014965782
96	0xb98b34eb	-0.00026551573
97	0xb7fc6eab	-3.0092275e-05
98	0x3beb6a60	0.0071843117
99	0x3bc394c8	0.005968664
100	0xbb6e522a	-0.0036364892
101	0x3ad1c3ad	0.001600375
102	0xbba96249	-0.005169187
103	0x3c9201eb	0.01782318
104	0x3b558bca	0.0032584541
105	0x3a08768e	0.00052056543
106	0xbb4ffa40	-0.0031734854
107	0x3b91da01	0.004451037
108	0x3aeb073f	0.0017931237
109	0xbc906bd0	-0.017629534
110	0xbaddbc5d	-0.0016917099
111	0xbbaa6d3f	-0.0052010114
112	0xbc813a91	-0.015774997
113	0x3bcb848f	0.0062108706
114	0x3bab30ad	0.0052243085
115	0x3a95151b	0.0011374088
116	0x3ab70cc7	0.00139656
117	0x3a5eea5f	0.0008503552
118	0xbcb6444a	-0.02224936
119	0xbc5ce2ed	-0.013481838
120	0x3c134c4b	0.008990358
121	0x3b6d9498	0.00362519
122	0x3bccb99c	0.0062477123
123	0x3c17ac1a	0.009257341
124	0x3c034651	0.00801237
125	0x3bdd06a3	0.006745176
126	0x3ba77ab7	0.0051110643
127	0x3bdb70c0	0.0066967905
