V3/Articulation/results/FirstWalk3/AgentTest/checkpoint.pt (torch, 428514 bytes, 33 tensors)

network_body._body_endoder.seq_layers.0.weight f4 [128, 1]
000000 4c 34 65 3e 0f b8 f9 3e 31 6c d4 be cb 5e 70 bf
       0.22383231 0.48773238 -0.41488793 -0.9389464
000010 0b 14 38 be 00 88 9a 3f e1 82 57 bf c5 10 a4 bd
       -0.17976396 1.2072754 -0.8418408 -0.08011011
000020 99 09 ee 3f 4d d3 8a 3e 8f 90 ad 3e 70 1d 3e bf
       1.8596679 0.27114335 0.33899352 -0.7426367
000030 b5 a2 3f be 99 43 a8 3e ba 28 22 3e 33 4a bb 3e
       -0.18714412 0.32864073 0.15835848 0.36580047
000040 f5 33 51 3f c6 f7 8d bf 59 67 14 c0 e4 32 db bf
       0.81719905 -1.109124 -2.3188078 -1.7124906
000050 fe 2c 5f 3f 12 40 8c bf c8 94 d2 bd a8 b9 5e bf
       0.8717803 -1.0957053 -0.10282284 -0.8700204
000060 b2 82 2c 3e dd 62 22 3e d1 37 0d bf 60 4f d0 3e
       0.16846731 0.15858026 -0.55163294 0.40685558
000070 4c 30 49 3e df 86 24 3f d7 21 8f bf 48 d7 bc bf
       0.1964733 0.64268297 -1.1182202 -1.4753199
000080 2f 4d 92 3f e4 f8 7f 3e 0a ce 21 3e 43 52 d8 3e
       1.1429805 0.24997288 0.15801254 0.4225026
000090 e4 d9 f9 bf 26 e7 85 3f f1 19 0e be 05 c0 dc 3f
       -1.951962 1.0461166 -0.13877083 1.72461
0000a0 32 4f 39 bf ef 40 e5 3f c1 bd 5d 3f 4c ad d2 bd
       -0.7238647 1.7910441 0.86617666 -0.1028696
0000b0 9c 78 9f 3f 11 41 ea 3f 72 c6 14 bf f8 ba 10 bf
       1.2458682 1.8301107 -0.58115304 -0.5653529
0000c0 da e5 bd bd b2 b4 82 3f c2 0c 80 bf 6f 43 8b 3e
       -0.09272356 1.0211394 -1.0003893 0.27199885
0000d0 de 4e 41 3f 3f e2 d0 bd 01 c5 36 bf cb 58 0f bd
       0.75510967 -0.10199403 -0.71394354 -0.03499679
0000e0 cb 09 34 3e db 5c 1a c0 7a 35 28 c0 ba d8 0a bf
       0.1758186 -2.4119174 -2.628264 -0.5423695
0000f0 ae fb 92 be 47 08 9d bf c6 b9 03 3f 1f a5 37 be
       -0.2870764 -1.2268151 0.5145534 -0.17934082
000100 fc b6 87 bd cb dd 4b bf 66 63 5d bf 83 45 89 3d
       -0.066266984 -0.79635304 -0.86479795 0.067027114
000110 bf 06 a8 bf 31 41 95 3e 16 2d 02 bf b1 b5 8a 3f
       -1.3127059 0.291513 -0.50850046 1.0836698
000120 5c 46 5a 3f 8d c2 98 3e f6 a0 d6 3f 06 34 69 bd
       0.8526361 0.2983593 1.6767871 -0.05693438
000130 65 df c5 bf 55 de 34 3f 1d 61 83 bf f8 8e 7c bf
       -1.54588 0.7065175 -1.0264012 -0.98655653
000140 eb 6d 6a bf 61 27 c8 be 1c 70 94 3f 61 df 67 be
       -0.9157397 -0.39092544 1.1596713 -0.22643806
000150 49 37 0c 3f 02 76 90 3f 7b ca ef 3e 6c 8e 89 3e
       0.5477186 1.1286013 0.46834168 0.26866472
000160 e0 5a b1 3f c9 3c db 3e 0a bb 9a 3f e4 17 c7 bd
       1.3855858 0.42819813 1.208833 -0.09721354
000170 c0 81 64 bf 8c 49 c9 3e 5b 38 d7 3f e0 ad 63 3f
       -0.8926048 0.39313924 1.6814073 0.8893719
000180 e2 0f b0 3f 13 28 8c be f6 17 8a bf 9a 93 97 bf
       1.3754847 -0.27374324 -1.0788562 -1.184192
000190 c9 79 48 3e cf 99 03 40 33 d5 10 be 7c 04 ea 3f
       0.19577707 2.0562627 -0.14143829 1.8282619
0001a0 88 fa ea bf db 00 77 bf 52 6c 7f bf 28 30 74 bf
       -1.8357706 -0.9648568 -0.9977466 -0.9538598
0001b0 b4 23 0f bf 96 6f e0 3e 94 0d 82 bf 17 62 94 3e
       -0.55913854 0.43835133 -1.0160394 0.28981087
0001c0 dc 65 03 bf 57 dd 84 be a6 ee ec 3f f8 f0 1f bf
       -0.513273 -0.2595012 1.851033 -0.62477064
0001d0 ed 59 3f 40 bd 36 6b bd be 58 84 3e 5e dc 3e 3f
       2.9898636 -0.05742525 0.25848955 0.74555004
0001e0 f6 d2 fd 3d f2 76 9f be 17 62 e1 bf 83 42 b0 bf
       0.12393753 -0.31145436 -1.760806 -1.3770298
0001f0 5d 1a 1d bf e4 69 7f bf 74 03 24 bf 3c 0c 32 3f
       -0.6136835 -0.9977095 -0.6406777 0.6954992

network_body._body_endoder.seq_layers.0.bias f4 [128]
000000 e5 84 99 be 3b d9 b2 3d 7f 9b 8c 3d 10 dc 8a 3d
       -0.29984203 0.0873284 0.06865596 0.06780255
000010 13 d3 21 be c5 29 04 3e fa 78 93 bd cb c0 b0 bd
       -0.15803175 0.12906559 -0.07200809 -0.08630522
000020 16 36 68 3e eb 17 74 be c1 29 8c be 85 c2 4c bd
       0.22676882 -0.23837249 -0.27375606 -0.049990196
000030 64 2d 1e be 0d 19 70 be 8b 6c 89 be df bc fd bd
       -0.15447003 -0.23447056 -0.26840624 -0.1238954
000040 e3 c7 3d 3e e2 18 ae 3d 13 c0 2d 3c d8 e4 01 be
       0.18533282 0.0850084 0.010604876 -0.12684953
000050 4b 9c 48 3e 5c 5b 45 bd 79 e9 8b 3d 7e d8 ae bd
       0.19590871 -0.04818283 0.06831641 -0.08537386
000060 48 5c 00 3e 22 4c 85 3e 52 92 8a bd 82 4d 43 be
       0.12535203 0.26034647 -0.0676619 -0.19072536
000070 ae ad 94 be be f0 7f bd 08 37 ad 3d e6 38 9c bd
       -0.29038757 -0.06248545 0.08457762 -0.0762804
000080 70 ab 83 3e ea a4 24 be 61 49 8f be a1 86 48 be
       0.25716734 -0.16078535 -0.2798567 -0.19582607
000090 21 41 2c bc fe 79 b5 bd 09 a1 fd bd da c1 52 3e
       -0.010513575 -0.08861159 -0.12384231 0.20581761
0000a0 86 a2 28 3c 2e f5 77 3e be 54 67 3e e0 73 07 be
       0.010292655 0.24214622 0.2259092 -0.13227797
0000b0 83 cb 4b 3e be c0 47 3e 4d 03 8b 3b 86 76 c8 bd
       0.19901852 0.19507119 0.004242337 -0.097882316
0000c0 9a 80 2a bb 54 70 33 3e a3 95 92 bd f0 9d f7 bd
       -0.0026016594 0.17523319 -0.07157447 -0.12090671
0000d0 6e 61 f1 bd 66 03 01 3c 60 ba d4 bd 01 f0 77 be
       -0.11786161 0.007874345 -0.10387111 -0.24212648
0000e0 3a 99 94 be 70 ad a0 bd ef 7c 44 bd 57 67 08 be
       -0.29023153 -0.078455806 -0.04797071 -0.13320671
0000f0 17 ab d1 bd 82 51 fa bd 42 74 55 3d 64 4d d5 bd
       -0.10237711 -0.12222578 0.052112825 -0.10415152
000100 a2 03 77 bd 09 a5 ca 3d d4 89 f1 bd 04 0b b2 be
       -0.0603062 0.09894759 -0.11793867 -0.3477403
000110 ca 2e df bd 0c 31 81 be f5 18 d2 bd 89 13 5f 3e
       -0.10897596 -0.25232732 -0.102586664 0.21784796
000120 40 ac 12 be b9 24 89 be 53 1b 97 bc e8 a2 11 be
       -0.1432352 -0.2678583 -0.018445646 -0.142223
000130 f6 f4 c3 bd b6 36 4b be b6 7a a9 3d 12 39 e5 bb
       -0.09568207 -0.1984509 0.082753584 -0.0069953287
000140 22 2e 56 3d c3 b2 c0 bd b3 da 51 3e aa e6 2a be
       0.05229009 -0.09409096 0.20493583 -0.16689554
000150 c2 e9 c9 3d e2 3a df 3d 86 a1 64 be a5 2a 96 be
       0.09859039 0.10899903 -0.22327241 -0.2932941
000160 62 95 3f 3e 16 f8 fa bd 75 c2 13 3e 07 7e 9a bd
       0.18709329 -0.1225435 0.14429648 -0.07543569
000170 e8 90 b0 bd ce 53 12 be a6 d0 49 3c b7 ef 9b 3d
       -0.08621389 -0.14289781 0.012317812 0.07614081
000180 cc b8 69 3e 7e 0b 06 be ff 8f 98 bd 79 cc 0e be
       0.228244 -0.13090321 -0.0744934 -0.13945188
000190 52 45 1e be f6 ab 79 3e 73 51 69 be ef 2b 3c 3e
       -0.15456131 0.24382004 -0.22784977 0.18376134
0001a0 be e2 b1 bd 61 ef 77 3d d1 35 66 bc ec 69 df bd
       -0.08685826 0.060531024 -0.014050917 -0.10908875
0001b0 38 4a 1d be 60 5c f6 bd 9d 00 45 be 1f 73 6b be
       -0.15360343 -0.12029338 -0.19238515 -0.22993134
0001c0 ee 32 f6 bd 06 a7 b4 ba f7 66 5d 3e c5 b9 d2 bd
       -0.12021433 -0.0013782687 0.21621309 -0.10289339
0001d0 d7 94 6c 3e 29 ff fe bd 55 2f 50 3e b2 38 4d be
       0.23103653 -0.12451012 0.20330556 -0.20041159
0001e0 83 c3 9d be b1 b8 53 3d 0d 6d c2 bd 16 c3 fe 3c
       -0.30813226 0.051689807 -0.09493456 0.031098884
0001f0 32 a8 b0 3d f2 2e cd bb 38 99 84 bd 9b b5 eb 3b
       0.08625831 -0.0062617 -0.06474537 0.00719328

network_body._body_endoder.seq_layers.2.weight f4 [128, 128]
000000 18 6f 43 3e 0f 5e 4e bd 4d 52 97 bc 46 55 04 3d
       0.19085348 -0.05038267 -0.018471861 0.032307886
000010 02 89 0e be 27 83 46 bb dc d6 ca bd 84 f5 77 39
       -0.13919452 -0.0030290575 -0.099042624 0.00023647217
000020 1f 42 02 3e b8 2e cf 3c 15 ee 49 3e 7a d8 86 bd
       0.12720536 0.025290832 0.19719727 -0.065842584
000030 9a 6e 0d 3d 22 58 c9 3d 1d 15 4d 3e 9d e4 c0 3d
       0.034529306 0.09831263 0.20027585 0.094186045
000040 93 41 88 bd 9b bf 93 3d 64 b7 c1 3d f6 50 3e 3d
       -0.06653132 0.0721428 0.09458807 0.04646393
000050 17 8e d4 3d 81 5a 40 bd ad 1d 20 3e 3c 4c e7 bd
       0.10378664 -0.04696131 0.1563632 -0.112938374
000060 28 99 b7 bd ae 07 d5 bd 88 f7 22 3e 0c aa c6 3b
       -0.08964759 -0.104018554 0.15914738 0.0060627516
000070 1c 1f 82 3d 82 78 f9 3c f1 e9 a0 3d 8e ab 19 3d
       0.0635359 0.03045297 0.07857121 0.037517123
000080 51 aa 00 bd 15 71 55 bd c4 a2 9a 3d 3a 27 c2 3c
       -0.031412426 -0.052109797 0.07550576 0.023700345
000090 35 6b 2a 3d 24 33 47 bd ee f7 12 3e 28 1a 28 3e
       0.041606147 -0.048632756 0.1435239 0.16416228
0000a0 2d 3d 04 3e cf be 1c 3e ee 49 05 3d c8 ff 2b bd
       0.12913962 0.15307163 0.032541208 -0.04199198
0000b0 e0 14 9b 3d 2c ea b8 3c 4d dc 7d bd ef 7b cd bc
       0.07572341 0.0225726 -0.061977673 -0.02508351
0000c0 20 6a ec bc 0d 4d 2e 3d ed 14 82 bd 73 74 35 3d
       -0.028859198 0.04255395 -0.063516475 0.044300508
0000d0 8a 1f bb bb e0 7c f6 bd 67 9d 9f 3d 11 bf 0d 3b
       -0.005710547 -0.12035537 0.07793694 0.0021628777
0000e0 b1 b4 19 3e d3 f9 5d 3d 71 29 72 3a b8 15 2d bd
       0.15010335 0.05419333 0.00092377426 -0.04225704
0000f0 ea b9 a4 bd 45 e8 a2 bd 9b b9 c3 bd 9b 54 65 3d
       -0.08043273 -0.07954458 -0.09556886 0.05598889
000100 ae 44 01 be be 79 fb bd e5 2e 06 be 19 06 0b bc
       -0.12623855 -0.1227908 -0.13103826 -0.0084853405
000110 1a 15 a6 3d 17 98 40 3e 94 f2 d8 bc 80 f3 1f 3e
       0.081094936 0.18808018 -0.026482858 0.15620232
000120 5d 42 51 3e 11 86 7c 3e 47 e5 e1 bd c8 df 1f 3d
       0.20435472 0.24660517 -0.11030059 0.039031774
000130 7a 31 93 bc 57 83 1b 3d 72 40 ea 3d 4a 93 5a bc
       -0.017967928 0.037967052 0.11438073 -0.0133407805
000140 ae 66 97 bc 27 c4 2f 3d 3d cc fc 3d 6a d9 e5 bc
       -0.018481579 0.042911675 0.12343643 -0.028057773
000150 fd 60 cc 3d a1 8f c5 bd 18 e7 7e 3d 57 8d c1 3c
       0.099794365 -0.09646536 0.062232107 0.023626966
000160 b6 f1 22 be 34 43 e3 3c dc ff 6b bc e6 c5 29 bd
       -0.15912518 0.027742006 -0.014404263 -0.041448496
000170 de 12 01 bd 43 a2 cb 3d dd 1a 16 3e a4 64 cd 3c
       -0.031512134 0.09943058 0.14658685 0.025072403
000180 4c 8e 18 bd 2f 77 4c 3d f4 3e 09 3e be c7 6b 3d
       -0.03724508 0.04991835 0.13402921 0.057563536
000190 7a fb 8f 3d 29 c7 89 bd 00 39 03 3d 2f 18 b4 bd
       0.07030387 -0.0672744 0.03203678 -0.08793675
0001a0 4c 1a 4c 3d df d9 1d be 68 89 b3 3d 5d 0b 70 bc
       0.049829766 -0.15415142 0.087664425 -0.014651147
0001b0 d2 23 ac 3c c7 00 e7 bd 59 75 d9 bd 0f f1 1a 3e
       0.021013174 -0.11279445 -0.106180854 0.15131019
0001c0 f2 8a 43 3d dc 12 8d 3e 68 4e 51 bd 59 8c a1 bd
       0.04773993 0.2755345 -0.051100165 -0.07888097
0001d0 b9 5f bd 3d 7f db b2 bd c1 1f e4 3d b7 a5 b6 3d
       0.09246773 -0.08733272 0.11138869 0.08918326
0001e0 22 6d 9d bd 08 fb d9 3c a1 e1 ee 3d 77 c4 10 be
       -0.07686831 0.026608959 0.11664129 -0.14137445
0001f0 5a d8 71 bc 29 93 90 3b 3e e7 65 bb e0 d8 cf 3d
       -0.014761055 0.004412074 -0.0035080458 0.101487875
000200 c4 d5 79 3d f1 0f 28 bd 70 55 d2 bd 54 f3 cc bb
       0.06099488 -0.041030828 -0.10270202 -0.006254593
000210 61 21 7c bd 4d 6a 9b bc 2a 65 0f bd ff 23 f8 3d
       -0.06155527 -0.018971587 -0.035008587 0.12116241
000220 02 d0 99 bd ab 8a e3 bc 03 22 76 3d e9 44 c1 bd
       -0.075103775 -0.027776083 0.06009103 -0.09436972
000230 19 46 39 3c d0 03 ca 3d 2f e3 95 3d 0a b8 a7 3d
       0.0113082165 0.098640084 0.073187225 0.081893995
000240 bc 68 0e bc 40 ac af bd ee 3c d4 3c e5 fd 6f 3d
       -0.008691963 -0.08577776 0.02590796 0.058591742
000250 a4 fa d3 3d 0b 9f 03 bc a6 44 48 be 2c 2e 0e 3b
       0.1035054 -0.008033524 -0.19557437 0.0021695
000260 cb a9 15 be fd a6 24 bd 82 23 60 3d 2a 46 98 3d
       -0.14615552 -0.040198315 0.054721363 0.07435258
000270 8b 5b 67 3e 3c bc 3c 3e be ad f8 bd 7b 63 9d bb
       0.22593515 0.1843118 -0.12142514 -0.0048031188
000280 96 3f eb bd 7c c2 e7 3d 0a 1e be 3d c8 ee bd 3d
       -0.114867374 0.11316392 0.09283073 0.092740595
000290 c4 7e b0 bc 8a b5 d3 3c a7 11 40 3c f6 a0 b9 3c
       -0.021544822 0.0258434 0.011722959 0.02265976
0002a0 af 5d ad bc 4b 64 01 bd 14 c1 73 bd 30 f5 a0 bb
       -0.021162836 -0.031589787 -0.059510306 -0.004912041
0002b0 2b b1 58 bd 67 5a c4 bd 48 7f ae 3d f7 62 05 3e
       -0.052903336 -0.095875554 0.08520371 0.13026033
0002c0 a5 01 30 be 75 1b cd 3d 6b aa 44 bc 3d e7 d9 bc
       -0.17188127 0.10015003 -0.012003521 -0.02659952
0002d0 ac 82 4a be 06 9f e4 bd 99 48 6b bc 18 cd 64 3c
       -0.1977641 -0.11163144 -0.01436057 0.013964914
0002e0 e5 99 5e 3d 8b a7 1b 3e 6c 62 05 3d 5d a9 99 3d
       0.054345984 0.15200631 0.032564566 0.075030066
0002f0 2c 4f 04 bd 0e 79 11 be 2a 66 02 3d b3 75 0f be
       -0.032302067 -0.14206335 0.031835712 -0.14009742
000300 90 82 1d 3d b8 53 66 3d 9c 7d 7b bc 71 53 29 bd
       0.038454592 0.056232184 -0.015349772 -0.04133934
000310 4b a0 27 be eb dc 03 bd 90 ab e4 3b 31 2d a3 bd
       -0.1636974 -0.032193106 0.0069784597 -0.07967604
000320 2a c2 1d 3d 8a d8 9d 3d d2 bf f9 bb 5b f7 c9 bd
       0.038515247 0.07707317 -0.0076217437 -0.098616324
000330 ff 24 c7 bd 66 a6 29 3e b7 8c 42 bc ec f8 3c be
       -0.09723853 0.16567382 -0.011874369 -0.18454331
000340 37 d1 78 3d 7c 98 10 bd 23 f9 44 3d bd 3d d7 bd
       0.060746398 -0.03530167 0.048089158 -0.105098225
000350 fd 71 c1 3d 91 62 b4 3c 14 72 e8 3d d5 69 18 3e
       0.0944557 0.022019656 0.11349884 0.14884122
000360 c7 eb de 3c 30 40 35 3e b6 a8 05 3e 2e 4e 03 3e
       0.027212037 0.17700267 0.1305264 0.12822792
000370 d3 fe 0c 3e 20 ef 95 bd 44 b6 96 bd e4 81 74 3c
       0.13769083 -0.07321 -0.07358983 0.014923546
000380 17 83 d4 bd ea d7 44 bd 1b e7 12 3e 02 71 23 3e
       -0.10376566 -0.048057474 0.14345972 0.15961078
000390 4c 0e 68 3d 4d 9e 1c be af 8c 70 bd 3f c9 06 3e
       0.05665426 -0.15294762 -0.058727916 0.13162707
0003a0 65 d4 af bd 4a 57 0d bd 92 87 aa bd 78 0a 08 bd
       -0.08585433 -0.034507073 -0.08326639 -0.03321311
0003b0 9e 07 1c 3e 53 98 c7 3d 5b bf 02 bd 94 b5 47 bd
       0.1523728 0.097458504 -0.031920772 -0.04875715
0003c0 f6 4b 84 3e 51 c6 96 bd 08 ee 2b 3b 94 bb 1b 3d
       0.25839204 -0.073620446 0.0026234407 0.038020685
0003d0 28 f0 50 be 71 a7 0b 3d 0d 9c b3 bd fa a6 2d 3e
       -0.20404112 0.03409523 -0.08769999 0.16958228
0003e0 99 02 9f 3d 76 9a 27 3e a5 9b ca 3d 6f 86 ae bd
       0.07764167 0.16367516 0.09892968 -0.08521735
0003f0 65 67 27 be cc 2b f4 bd 37 89 93 3c 06 d5 2f bd
       -0.16348036 -0.11922416 0.018009765 -0.042927764

network_body._body_endoder.seq_layers.2.bias f4 [128]
000000 53 4a 88 bd 6e e4 46 be f0 3a c6 bd a7 99 c1 bd
       -0.06654801 -0.19423077 -0.0967921 -0.09453135
000010 23 19 86 be d1 11 7d be af 96 c1 bd 69 a9 55 be
       -0.26191053 -0.24713828 -0.09452569 -0.20865406
000020 83 4d cf bd ee 3b bc bd 3b 6a 68 3d ec 8d 40 3c
       -0.10122206 -0.09191118 0.056741934 0.011752587
000030 a3 c6 72 be 3f 1d 05 bb 59 df 3a be 94 4e 3c 3d
       -0.23708586 -0.0020311621 -0.18249263 0.045973375
000040 0e 1b 89 3d 06 ed 2f 3e 02 62 d1 3d 04 ae 4c be
       0.066946134 0.17180261 0.10223772 -0.19988257
000050 e9 24 a2 bd 95 fe 8e 3b ce 22 65 be a0 2c 58 be
       -0.07917196 0.0043638446 -0.22376558 -0.21110773
000060 33 9e a6 3d 3c 23 33 be 47 ec 42 be 8d d8 56 be
       0.08135643 -0.1749391 -0.19035445 -0.20981045
000070 47 80 55 be ed 4d c3 bd 43 2d 78 be 95 c3 16 be
       -0.20849715 -0.095363475 -0.24236016 -0.14723046
000080 cb 54 ae bd 49 42 96 bd 95 77 c3 bd 61 c3 8a bd
       -0.08512267 -0.07336862 -0.09544293 -0.06775547
000090 f2 eb 8e 3d 99 a2 30 bc 33 28 35 bd 50 97 71 be
       0.06978597 -0.010780954 -0.04422779 -0.23592877
0000a0 80 a6 12 3d 4d ee e2 bd 83 3f 1c 3d 87 33 62 be
       0.035803318 -0.110806085 0.038146507 -0.22089969
0000b0 dd eb 58 be e9 61 84 be e8 40 36 be 7d e0 91 bd
       -0.21183725 -0.2585595 -0.17798197 -0.07122896
0000c0 60 84 3d be 54 fb be 3d 78 ba 08 be 8f 16 de bd
       -0.18507528 0.09325281 -0.13352382 -0.108441465
0000d0 3b 62 43 3e d4 af 04 3d 15 29 40 3e ca f3 4d be
       0.1908044 0.032394245 0.18765672 -0.2011253
0000e0 81 4d d9 3c a0 49 05 be 04 f8 69 be 18 76 12 be
       0.026526215 -0.13016367 -0.22848517 -0.14302862
0000f0 75 49 3b be 67 2f 53 be a5 95 48 be 26 e8 21 be
       -0.1828974 -0.20623551 -0.19588335 -0.15811214
000100 52 13 fa bd 12 6b 5b be 07 6d 89 be 0f cc 34 3e
       -0.12210716 -0.21427563 -0.26840994 0.17655967
000110 54 c2 e7 bd ad 41 8f 3d 7b e5 24 be e9 52 28 be
       -0.11316362 0.069949485 -0.16103165 -0.16437878
000120 dd b5 3f 3e b9 4c a2 3d d2 35 bc bd d5 4c 80 be
       0.18721719 0.0792479 -0.09189953 -0.25058618
000130 0f a6 5c 3d d3 9e 0a be 48 bd bf 3d af 90 48 be
       0.053869303 -0.13537149 0.093622744 -0.19586442
000140 cb d8 2e be 58 15 0e be b0 66 b4 bd 90 fc a8 bc
       -0.17074887 -0.1387533 -0.088086486 -0.020628244
000150 68 39 c8 3d 45 ca d6 3d 17 0b 57 bd 65 5c 11 be
       0.097765744 0.104877986 -0.05250081 -0.14195402
000160 0d 00 53 be cd dc c9 bd a2 3d c3 3d 35 8e 86 3d
       -0.20605488 -0.098565675 0.0953324 0.065700926
000170 95 5e cf 3d fb 89 2e be 91 b2 48 be 85 26 3b be
       0.10125462 -0.17044823 -0.19599368 -0.18276413
000180 49 62 b6 3d 5f 35 89 bd 7d 88 f7 bd 3b 67 fc ba
       0.08905465 -0.06699633 -0.1208658 -0.0019256839
000190 0d d0 b7 bd ee bc 42 be d4 1b 7a be e5 18 92 bd
       -0.089752294 -0.19017383 -0.24424678 -0.071336545
0001a0 4a 11 d4 bd 92 ae bd bd 58 ca ab bd 78 4a 2d 3e
       -0.1035486 -0.09261812 -0.083882034 0.16922939
0001b0 22 8d 7f be 9d cf 58 be ae 7b 32 be 03 49 2f be
       -0.24956182 -0.21172948 -0.17429993 -0.17117696
0001c0 73 53 39 be d2 bf 32 be 34 12 c9 bd 2a bd d2 3d
       -0.1809824 -0.17455986 -0.09817925 0.102899864
0001d0 03 75 c1 bd a4 74 cf 3d 33 ba 30 be 72 95 d0 bd
       -0.09446146 0.10129669 -0.1725853 -0.101847544
0001e0 4a a7 44 be 9f 2d 80 be a1 a9 b5 bd 9d 71 a9 bd
       -0.1920444 -0.25034806 -0.08870245 -0.08273623
0001f0 7d 9f 32 be 49 c9 35 3e bf 02 0d be 18 c6 5f 3e
       -0.17443652 0.17752565 -0.13770579 0.2185291

action_model._continuous_distribution.mu.weight f4 [1, 128]
000000 1a 63 53 3b b1 03 5c 3e 78 02 b5 3c 49 b3 a3 3c
       0.0032255114 0.21485783 0.022095904 0.01998295
000010 7e eb 79 3e 1b f2 08 3e ed b6 03 3d 45 36 69 3e
       0.2440624 0.13373606 0.032156873 0.22774608
000020 99 eb cc 3c a5 6a d9 3c 98 3b 0c bb 04 b8 b5 3a
       0.025014685 0.02654011 -0.0021397825 0.0013864045
000030 57 63 4d 3e c7 7b 96 3a b9 51 81 3e 80 97 72 bb
       0.20057426 0.001148098 0.25257662 -0.003701657
000040 97 56 05 bc ce ed 3e bd b7 67 2f bd 6e d9 72 3e
       -0.00813832 -0.046613507 -0.04282352 0.23715755
000050 0e 7c c7 3c 91 db 7a 3b bc eb 83 3e 2a 2d fd 3d
       0.024351146 0.0038277844 0.2576579 0.1236213
000060 5b 1b 64 bc 89 95 80 3d cc 26 8c 3e f0 97 5c 3e
       -0.013922538 0.062785216 0.2737335 0.21542335
000070 8f b2 47 3d 19 f1 4e 3c 5c 94 5e 3e fe e5 4b 3d
       0.04875427 0.012630724 0.21736282 0.049779885
000080 4a 35 8d 3c 83 b8 a8 3c f8 64 ac 3c d2 98 50 3a
       0.017237324 0.020595795 0.02104424 0.00079573423
000090 f3 45 b1 bb 30 9d 77 3b e2 30 0e 3b 65 57 80 3e
       -0.00540995 0.00377829 0.0021696617 0.25066677
0000a0 69 a5 87 ba d6 de 67 3c 57 7a 20 3c 78 26 3d 3e
       -0.0010348979 0.014152249 0.009794793 0.18471706
0000b0 c4 94 2f 3e f9 28 c5 3d d4 8d 20 3e 15 26 fe 3b
       0.17146593 0.096269555 0.15679103 0.0077560046
0000c0 fa c0 6f 3e 9a 82 99 bb d4 af 64 3d 14 c8 9a 3d
       0.23413458 -0.0046847584 0.055831745 0.07557693
0000d0 34 6c c0 bd 77 48 a9 ba f1 0d 8c bd 7f 20 8d 3e
       -0.09395638 -0.0012915273 -0.068385966 0.27563855
0000e0 93 93 8a b8 7f b2 05 3c 9d 3d 14 3e 5c 4f 11 3e
       -6.6078406e-05 0.008160233 0.14476629 0.1419043
0000f0 ef b7 6d 3e 49 9b 96 3d 3b 43 81 3e e8 6e 17 3e
       0.23214696 0.07353837 0.25246605 0.14788401
000100 b3 89 06 3d d7 81 69 3e 13 58 25 3e e2 8b 60 bd
       0.032846164 0.22803436 0.16146879 -0.054820903
000110 59 60 79 3c 30 cb 93 bc 10 c6 10 3d 75 6f 63 3e
       0.015220725 -0.018041223 0.035345137 0.22210486
000120 74 9e 9c bd e9 8c 02 bc 7a 5e 7a 3b 97 b9 82 3e
       -0.0764741 -0.007968166 0.0038203285 0.2553222
000130 53 4e 9d ba ed ef c2 3c b2 29 f7 bc 05 58 83 3e
       -0.0012001492 0.023796046 -0.030171249 0.2565309
000140 6f 2a 84 3e 18 98 89 3d 40 7d 47 3c cd b4 22 3b
       0.25813624 0.06718463 0.012175858 0.0024827004
000150 a6 a1 fa bc 1a 35 9a bc 2a 48 99 35 56 0f a2 3c
       -0.030594658 -0.018824149 1.1420391e-06 0.019782703
000160 29 09 65 3e a1 2a 7e 3c 2e 22 f9 bc 69 56 0a 3b
       0.22366776 0.015513093 -0.030411806 0.0021108633
000170 44 07 90 bc 18 e8 5f 3e 68 9b 5a 3e c8 8e 39 3d
       -0.01758159 0.2186588 0.21348345 0.045302182
000180 b3 ef 5d bc 5a 84 18 3a 01 f3 16 3c 5a 96 fe b8
       -0.013545918 0.0005818062 0.00921321 -0.00012139669
000190 5d 8f af 3c 36 87 58 3e d7 08 7a 3e fb e3 cf 3b
       0.021430666 0.21145329 0.24417435 0.006344316
0001a0 26 38 1b 3d fb 8a 33 3d c3 b5 1f 3d 28 62 92 bd
       0.037895344 0.043833714 0.0389917 -0.07147628
0001b0 18 65 75 3e a7 83 0f 3e 50 43 7e 3e ba 2a 08 3e
       0.23964345 0.14015065 0.24830365 0.13297549
0001c0 08 22 8d 3e 3f b1 18 3c 96 ce 70 3c 97 44 cc bc
       0.27565026 0.0093196025 0.014697691 -0.02493505
0001d0 33 c8 9c 3c 23 22 b8 bb 94 fa b5 3c 03 07 16 3d
       0.019138431 -0.005619304 0.022214212 0.03662778
0001e0 12 49 89 3e e3 3c 68 3e c5 89 de 3c c9 6c 0b 3d
       0.2681356 0.22679476 0.027165303 0.034039292
0001f0 f0 b4 75 3e fa 2d a1 bd bb 45 4d 3d 46 c0 cc bd
       0.23994803 -0.078700975 0.05011533 -0.09997611

action_model._discrete_distribution.branches.0.weight f4 [1, 128]
000000 37 d4 0d bc 9f cd a0 3c 4e ee 8f 3c e4 6c 14 3c
       -0.008656553 0.019629298 0.017569687 0.009059165
000010 55 e4 8b ba 4f b7 da bb b3 df 80 3b 5a 9e 7b 3b
       -0.0010672907 -0.006674684 0.003932917 0.0038393945
000020 f7 1f 1a bb e0 27 62 3c d9 9a 45 3b fd 29 86 3b
       -0.0023517588 0.013803452 0.003015211 0.004094361
000030 47 9b 5b 39 73 41 a9 3b a3 19 1c bc bb 52 5f 3c
       0.00020943313 0.005165273 -0.009527597 0.013630564
000040 32 3f 90 bb 12 df 63 3b ba 43 42 bc f3 a0 b7 bb
       -0.0044020647 0.0034770411 -0.011856968 -0.0056039034
000050 90 10 a1 3b 82 91 c7 bb f3 13 51 3c 08 1e fa bb
       0.0049153045 -0.006090344 0.012761104 -0.0076329745
000060 fe d7 80 39 8b 73 80 3c b2 a0 bb 39 3e 70 81 3c
       0.0002457499 0.015680095 0.00035787147 0.015800592
000070 f3 c3 8d bc f7 96 bf 3c bc 95 46 bb 8b 51 46 bb
       -0.01730535 0.023387415 -0.003030165 -0.0030261006
000080 3f 7e 91 bc eb 8f 70 bc 6f cc a3 3c d7 8e 99 3b
       -0.017760394 -0.01468275 0.019994942 0.0046862173
000090 63 99 5b bb c7 cb 0a 3a d1 90 0c 3c 9e 6a 38 3c
       -0.0033508174 0.00052946474 0.008579449 0.011255888
0000a0 c8 b8 e1 bc 27 82 ba bb 2f 4d 49 3b 3a c8 66 3b
       -0.02755393 -0.005691785 0.003071617 0.003521456
0000b0 83 70 af bc c5 e7 63 ba 74 9c 33 3a 57 3c 4b bb
       -0.021415954 -0.0008693899 0.00068516214 -0.0031011307
0000c0 7b 27 d4 3b 35 0b d9 b9 fd e5 76 3c 1d 69 ce bc
       0.006474433 -0.00041397815 0.015069482 -0.025196606
0000d0 00 6e c2 3b c9 2a 26 bb a5 ff ad 3b 34 34 b2 3b
       0.005933523 -0.0025355092 0.005310016 0.005438352
0000e0 37 86 d3 b7 ea de be bb c3 dc b4 bb d0 47 7d 3b
       -2.5215659e-05 -0.0058249133 -0.005519481 0.003864754
0000f0 b3 bf ed 3c db ef 38 bb 02 b4 9c bb 22 42 e1 3a
       0.029022073 -0.0028219137 -0.004782201 0.0017185847
000100 91 fd 0c 3b ef d3 9b 3b a2 f4 08 bc 3d a2 6e bc
       0.0021513442 0.004755489 -0.008359106 -0.014565048
000110 87 35 1f bc ff bc a3 3a 0a 24 09 bc 52 9d a7 bb
       -0.009717352 0.0012492238 -0.008370409 -0.0051151896
000120 01 db 82 3b 4a 38 93 b8 ce d1 ba 3b 8b 5d 93 bb
       0.0039933925 -7.019991e-05 0.00570128 -0.004497235
000130 b9 79 9c bc 83 49 62 bc ae 4c 47 bc 7f 8c 30 39
       -0.01910101 -0.013811472 -0.012164278 0.00016837007
000140 e2 c2 6d 3c c8 e8 c8 3c e9 c4 21 bc 08 ee d8 ba
       0.014511796 0.024525061 -0.009873607 -0.0016550431
000150 c2 39 71 3a 26 eb 15 bc c4 7c 99 bb f8 1f 63 3b
       0.0009202027 -0.009150302 -0.0046840627 0.0034656506
000160 16 16 2e 3b 1d 9c 32 bb c2 16 1e bc d0 8c 58 bc
       0.0026563457 -0.0027253695 -0.009648981 -0.013217166
000170 32 21 29 bc d8 81 50 3c aa dc 33 bc 0a 33 75 bc
       -0.010322856 0.01272627 -0.010977903 -0.014965782
000180 eb 34 8b b9 ab 6e fc b7 60 6a eb 3b c8 94 c3 3b
       -0.00026551573 -3.0092275e-05 0.0071843117 0.005968664
000190 2a 52 6e bb ad c3 d1 3a 49 62 a9 bb eb 01 92 3c
       -0.0036364892 0.001600375 -0.005169187 0.01782318
0001a0 ca 8b 55 3b 8e 76 08 3a 40 fa 4f bb 01 da 91 3b
       0.0032584541 0.00052056543 -0.0031734854 0.004451037
0001b0 3f 07 eb 3a d0 6b 90 bc 5d bc dd ba 3f 6d aa bb
       0.0017931237 -0.017629534 -0.0016917099 -0.0052010114
0001c0 91 3a 81 bc 8f 84 cb 3b ad 30 ab 3b 1b 15 95 3a
       -0.015774997 0.0062108706 0.0052243085 0.0011374088
0001d0 c7 0c b7 3a 5f ea 5e 3a 4a 44 b6 bc ed e2 5c bc
       0.00139656 0.0008503552 -0.02224936 -0.013481838
0001e0 4b 4c 13 3c 98 94 6d 3b 9c b9 cc 3b 1a ac 17 3c
       0.008990358 0.00362519 0.0062477123 0.009257341
0001f0 51 46 03 3c a3 06 dd 3b b7 7a a7 3b c0 70 db 3b
       0.00801237 0.006745176 0.0051110643 0.0066967905

exp_avg f4 [128, 1]
000000 8b 14 11 b9 6f 2b 32 b8 58 65 8f 38 e0 3a 17 b8
       -0.0001383593 -4.2478958e-05 6.837648e-05 -3.6056037e-05
000010 b4 a0 b2 39 ac c3 bc b5 64 47 1f 39 e0 be af 39
       0.0003407054 -1.406404e-06 0.00015190017 0.00033520814
000020 be a5 f1 37 ea 1d 3f b9 b2 c4 31 b9 b8 57 ac 39
       2.8806619e-05 -0.00018226323 -0.0001695331 0.00032871752
000030 20 f5 f8 38 6f 46 07 b9 a4 ce e5 b8 cf c4 cf b8
       0.000118712196 -0.00012900842 -0.00010958061 -9.9071876e-05
000040 e8 24 25 b7 e8 24 15 ba 90 da 36 3a ee 9c 24 3a
       -9.843359e-06 -0.00056893984 0.00069753174 0.0006279488
000050 2b 6b fe b7 70 70 fd 39 85 1b 0e ba d4 d9 67 ba
       -3.0329064e-05 0.00048339693 -0.0005420971 -0.00088444096
000060 cc da 8b b9 08 5a 22 b9 d0 bc 48 39 e9 da f8 b8
       -0.00026675162 -0.00015483063 0.00019143824 -0.00011866337
000070 f3 fe c5 b8 62 ad c4 b7 6c dd 10 ba 0c 07 25 3a
       -9.44118e-05 -2.3445758e-05 -0.00055261585 0.00062953006
000080 08 7f 5f 37 7e 2b e5 b8 05 70 87 b8 e8 00 3d b8
       1.3321413e-05 -0.00010927672 -6.458167e-05 -4.5061955e-05
000090 3c 1a c7 39 c7 9e d3 b7 a2 da 84 3a 26 22 64 37
       0.00037975784 -2.5227097e-05 0.0010135958 1.359781e-05
0000a0 c8 c8 66 b9 c7 7d 1a 38 1e a2 8e 36 38 f1 a8 3a
       -0.00022009306 3.68336e-05 4.2508027e-06 0.0012889272
0000b0 87 60 d8 b7 e5 fd 2f 38 30 1f 6f 38 ac 86 22 3a
       -2.5794156e-05 4.195971e-05 5.7011086e-05 0.0006199877
0000c0 e0 d3 9e b8 76 61 12 b8 5a d6 18 3a 38 b6 03 b9
       -7.573492e-05 -3.489988e-05 0.0005830281 -0.00012561015
0000d0 03 9c 02 b8 30 cd c4 38 2c 29 01 3a 4a 92 54 3a
       -3.1139713e-05 9.3842275e-05 0.00049270946 0.0008108957
0000e0 43 f9 bb b8 46 c0 00 ba cc ec 09 3a 58 6f 99 39
       -8.9632835e-05 -0.00049114635 0.0005261421 0.00029265392
0000f0 60 e2 9b 3a 42 b2 4d 3a b9 23 cf b8 1a 4e 21 b9
       0.0011893027 0.0007846692 -9.877183e-05 -0.00015383252
000100 d8 0e 58 b9 9a 31 36 ba 68 18 b7 38 bc 52 e5 b8
       -0.00020604895 -0.000695014 8.730666e-05 -0.000109349814
000110 72 61 33 3a 13 2e 34 b9 c8 3a a1 3a b6 e5 05 38
       0.00068428286 -0.00017183302 0.0012300843 3.1923606e-05
000120 72 ef 2a b8 72 c8 09 b9 e1 cb d4 37 14 27 00 3a
       -4.075416e-05 -0.0001314001 2.5367308e-05 0.00048886356
000130 a2 71 f6 39 b6 1c 8b b7 d0 c6 9e b7 1c f0 f8 39
       0.0004700544 -1.658346e-05 -1.8927647e-05 0.00047481142
000140 b8 6f 00 ba 64 6c 0d 3a 94 88 d8 b6 b8 ff 8c 39
       -0.000489946 0.00053948746 -6.4532014e-06 0.00026893406
000150 1a 9a 18 b8 01 71 53 38 d4 5f cb b8 8f 7a 4d b9
       -3.6383142e-05 5.0411563e-05 -9.697644e-05 -0.0001959598
000160 91 08 74 38 af 5e ab b8 64 72 7d b6 95 cc 8c 39
       5.818211e-05 -8.1715516e-05 -3.7766522e-06 0.00026855306
000170 b0 80 d9 38 98 c8 c7 b8 38 89 9f 37 ea 53 98 37
       0.00010371336 -9.526423e-05 1.9018174e-05 1.8158888e-05
000180 62 eb f0 b7 3e 9d aa 39 90 8c c0 39 d0 10 96 38
       -2.8719838e-05 0.0003254208 0.0003672582 7.155689e-05
000190 96 b9 2f b9 d4 b8 7b 37 e4 bd 0a 39 14 02 3b 37
       -0.00016758437 1.50037995e-05 0.00013231445 1.1146552e-05
0001a0 c0 90 82 3a c4 19 00 ba 1c c0 1a 3a 98 a6 00 3a
       0.0009961352 -0.0004886652 0.00059032603 0.0004907637
0001b0 c8 63 6a 38 fc 19 d8 b8 b0 12 5a 39 ca 81 0d b9
       5.5882876e-05 -0.000103045226 0.00020797062 -0.00013495158
0001c0 58 9a 91 3a 70 79 d1 39 f0 0f 01 38 a8 60 52 3a
       0.001110862 0.00039954064 3.077084e-05 0.0008025267
0001d0 94 aa 01 38 40 66 2c 3a 65 82 41 b9 c4 2c a0 b8
       3.091486e-05 0.0006576516 -0.0001845449 -7.637733e-05
0001e0 bc 76 e7 b7 1c 75 12 b9 b2 7e 0b 3a 34 3e 55 b9
       -2.7592636e-05 -0.00013967272 0.0005321308 -0.00020336435
0001f0 42 e4 b3 b9 38 e1 1e b8 7e c1 8d 3a 85 50 54 b8
       -0.00034311606 -3.7879887e-05 0.0010815111 -5.061973e-05

exp_avg_sq f4 [128, 1]
000000 1d 39 94 36 c0 4f 5d 35 30 e5 22 38 6a 51 05 38
       4.4173926e-06 8.2444967e-07 3.8837257e-05 3.1785494e-05
000010 c2 a7 10 39 e5 de 8f 33 c8 e6 14 38 cd 2e 6d 39
       0.00013795405 6.699501e-08 3.550088e-05 0.00022619516
000020 cf 67 03 35 99 e4 b4 36 74 12 70 36 72 c5 88 38
       4.8952364e-07 5.3910303e-06 3.5773528e-06 6.5217624e-05
000030 ef 3d df 38 27 44 41 36 d8 e0 30 36 36 fa 06 36
       0.00010645005 2.879891e-06 2.635692e-06 2.0113198e-06
000040 e4 95 28 33 45 93 70 39 ab 5a ef 39 a3 0b 79 39
       3.9251873e-08 0.00022943046 0.00045653185 0.00023750825
000050 c2 56 2f 34 c2 97 47 39 03 17 77 38 b3 19 2c 39
       1.6329707e-07 0.00019034653 5.891082e-05 0.00016412772
000060 20 3e 9a 36 e4 b0 7c 35 f8 32 66 38 45 36 25 36
       4.59679e-06 9.4134725e-07 5.488374e-05 2.4618505e-06
000070 e5 54 60 36 be 46 64 34 b4 ec 00 39 17 57 25 3a
       3.3428016e-06 2.125989e-07 0.0001229521 0.0006307228
000080 33 ce 16 34 94 84 9e 35 d0 b2 0e 36 4d 3f 38 35
       1.4044853e-07 1.1810503e-06 2.1263731e-06 6.8637456e-07
000090 82 ab da 38 3b e9 c2 34 07 3b b5 39 b0 4c 6c 34
       0.00010426996 3.6305013e-07 0.0003456699 2.2007112e-07
0000a0 c2 32 02 39 9d 59 37 34 be 5d b0 33 77 fe 65 3a
       0.00012416675 1.7075804e-07 8.21269e-08 0.0008773575
0000b0 32 64 4a 34 93 a2 3f 34 52 0b f5 37 ce 2b ba 38
       1.8849167e-07 1.7847405e-07 2.9211547e-05 8.8773304e-05
0000c0 39 06 7b 38 6c 4a a4 33 59 67 7c 39 98 c3 d6 35
       5.984886e-05 7.6503824e-08 0.00024071093 1.6001168e-06
0000d0 89 24 f2 34 a3 13 3c 38 7e 16 0e 39 58 0e a6 38
       4.5102595e-07 4.484098e-05 0.00013550554 7.9181686e-05
0000e0 f8 81 2c 36 85 5e df 38 87 89 6c 39 fe 89 04 39
       2.570565e-06 0.00010651074 0.00022557947 0.00012639907
0000f0 02 ba 03 3a 07 f8 8c 39 a0 e9 00 36 da 7f a1 37
       0.0005024971 0.00026887676 1.9209474e-06 1.9252231e-05
000100 2a bd 66 38 7f 5f 82 39 fc 83 40 37 9f 91 6b 36
       5.5012446e-05 0.00024866682 1.1474822e-05 3.5102491e-06
000110 1b f4 20 39 7b de 6d 36 11 32 1d 3a 5e 2d bf 34
       0.00015349725 3.5445253e-06 0.0005996535 3.560953e-07
000120 11 d6 27 35 b2 9f 40 36 05 31 47 33 ab af b0 39
       6.2523856e-07 2.8703184e-06 4.637788e-08 0.0003370022
000130 4b 89 76 38 12 16 d1 34 d6 48 94 36 cc 76 b6 39
       5.8778835e-05 3.8945342e-07 4.419223e-06 0.00034802256
000140 bb 59 5b 39 3f e7 6a 39 76 82 30 34 02 51 6f 38
       0.00020918895 0.00022402125 1.6438739e-07 5.7057485e-05
000150 a5 c5 3c 35 95 4e bd 34 90 57 30 36 89 1d d4 36
       7.032307e-07 3.526117e-07 2.6277012e-06 6.3215307e-06
000160 54 f5 fd 34 7a 95 fd 35 31 46 07 34 27 7c 8f 37
       4.7303422e-07 1.8893472e-06 1.259839e-07 1.7104741e-05
000170 58 d3 32 39 92 d3 0e 36 84 b0 bd 33 48 2b 93 33
       0.00017054135 2.12828e-06 8.833106e-08 6.853094e-08
000180 5a 7f 20 33 b4 db 7a 37 e7 fb 80 39 d9 4b 82 38
       3.736873e-08 1.4952315e-05 0.00024601744 6.213011e-05
000190 ed 8a 4d 36 89 e7 4e 34 cf 33 e2 37 e4 2b ce 34
       3.0628246e-06 1.9269477e-07 2.6965425e-05 3.8402425e-07
0001a0 20 36 29 3a 31 96 de 39 72 94 e7 39 73 07 8d 39
       0.00064549036 0.0004245504 0.00044170354 0.00026899166
0001b0 a1 b4 41 37 e0 56 f5 35 fa 6c 73 37 18 f8 49 36
       1.1545752e-05 1.8279206e-06 1.4509302e-05 3.0095744e-06
0001c0 6a 09 54 3a 47 03 14 39 d6 11 d4 33 5e 91 d7 39
       0.0008088561 0.00014115601 9.8752636e-08 0.00041116303
0001d0 a5 29 a9 34 3a 8b b0 39 7c 4c 12 36 16 3f 3d 35
       3.1509003e-07 0.00033673068 2.1800215e-06 7.049979e-07
0001e0 a3 d7 48 36 13 ae c9 37 66 09 71 39 2c 58 7e 38
       2.992784e-06 2.4042127e-05 0.00022987052 6.0640436e-05
0001f0 1a 81 be 38 06 ad 91 37 29 16 37 3a d9 38 0b 36
       9.083953e-05 1.7365917e-05 0.0006984198 2.0745704e-06

exp_avg f4 [128]
000000 8c 1e fd 38 39 eb a8 36 fc 7d f6 b7 b6 fe 19 b7
       0.0001206967 5.0341737e-06 -2.9384151e-05 -9.178815e-06
000010 04 c3 87 38 5a f1 a4 37 a0 21 d0 34 2a ce 55 38
       6.473626e-05 1.9662712e-05 3.8767485e-07 5.0975163e-05
000020 27 05 2d b8 a0 ae 88 38 a3 d3 e8 38 c8 c7 78 b6
       -4.1251213e-05 6.517512e-05 0.000111020425 -3.7071168e-06
000030 b0 aa 67 38 d3 a5 a9 38 7c 88 d5 38 a3 aa 34 38
       5.5233657e-05 8.089435e-05 0.00010182054 4.3074262e-05
000040 a2 4d d8 b7 8f 42 bf b7 35 18 71 b8 10 84 aa 37
       -2.5785357e-05 -2.2799968e-05 -5.7481422e-05 2.0327076e-05
000050 b2 bb c5 b6 fe d0 0a b7 ae f6 62 b8 09 31 b6 38
       -5.892908e-06 -8.274101e-06 -5.4112337e-05 8.68757e-05
000060 f8 04 19 b9 dd 2e 72 b9 ec f7 c8 37 be e1 8f 38
       -0.00014593068 -0.00023096376 2.3957306e-05 6.860819e-05
000070 76 5a 07 39 27 51 45 38 41 e4 f2 b7 64 39 21 37
       0.00012908303 4.704404e-05 -2.8954937e-05 9.60971e-06
000080 d4 6c 27 b8 bd b2 60 38 cc 84 ea 38 69 8e a2 38
       -3.9917257e-05 5.3572225e-05 0.00011182725 7.751288e-05
000090 0f 62 8d b7 5d ac 39 38 b0 08 a3 38 57 b2 97 b7
       -1.6854172e-05 4.4267963e-05 7.774064e-05 -1.8083649e-05
0000a0 04 a7 00 38 92 ef 0a b8 6d 34 36 b7 09 e9 75 38
       3.0673124e-05 -3.312488e-05 -1.0860252e-05 5.8629583e-05
0000b0 6a 1b 82 b8 80 5f 18 b8 ac 1d dc 35 92 0e 09 38
       -6.203989e-05 -3.6328565e-05 1.6399913e-06 3.2676915e-05
0000c0 db 66 07 37 68 f0 05 37 f8 50 18 36 b5 b3 2c 38
       8.070575e-06 7.983392e-06 2.2696895e-06 4.117536e-05
0000d0 f4 ee 85 38 da 4d 8b b7 6d ab 1b 38 da 1b 3e 39
       6.386443e-05 -1.6606344e-05 3.7114532e-05 0.00018130188
0000e0 17 d5 ef 38 42 d1 1a 38 30 e4 0a b8 4c f8 93 38
       0.00011436099 3.6911348e-05 -3.311428e-05 7.055755e-05
0000f0 cd 3a 3c 38 23 7a 2d 38 8c 6a 86 36 73 5c 29 38
       4.4877455e-05 4.1360163e-05 4.005915e-06 4.037884e-05
000100 d6 bc fe 37 59 8b 90 b7 d6 e4 7d 37 4b cf 52 39
       3.0367093e-05 -1.7231027e-05 1.5133255e-05 0.00020104383
000110 e8 99 17 37 ac 30 c4 38 a4 2a 86 38 bf 86 d0 b7
       9.036135e-06 9.355074e-05 6.39756e-05 -2.4858278e-05
000120 59 9d 6e 38 c1 17 e9 38 1d 77 10 38 72 37 d0 38
       5.6890163e-05 0.0001111473 3.444321e-05 9.9285404e-05
000130 6c 9c 8c 37 2b b6 bd 38 4a 25 e4 b7 a0 e5 b0 36
       1.676214e-05 9.046154e-05 -2.7197082e-05 5.2719406e-06
000140 14 80 97 36 5c 82 29 38 86 d1 3e b8 d8 c4 83 38
       4.515061e-06 4.0414146e-05 -4.5494664e-05 6.283232e-05
000150 c3 9e 8c 37 54 a7 f9 37 d6 16 a3 38 91 b5 e1 38
       1.676323e-05 2.9761031e-05 7.776699e-05 0.000107626554
000160 a8 eb f6 b6 da 0d 28 38 08 e1 62 b6 28 a1 1d 37
       -7.3588053e-06 4.006722e-05 -3.380761e-06 9.395451e-06
000170 bc 04 0d 38 12 7d 94 38 d0 c0 b9 37 dd 46 3e 38
       3.362143e-05 7.080486e-05 2.2143504e-05 4.5365527e-05
000180 12 9e 9b b7 48 b2 ba 37 c6 ee 14 38 02 54 8b 37
       -1.8551047e-05 2.2255947e-05 3.5508325e-05 1.660921e-05
000190 63 52 48 38 87 e2 8c b8 64 3d 8b 38 b4 4b 11 b8
       4.7760444e-05 -6.717914e-05 6.6394714e-05 -3.4641198e-05
0001a0 1c 9b 48 37 80 72 37 36 88 2c 53 b7 75 a3 18 38
       1.1957043e-05 2.7335773e-06 -1.2586948e-05 3.6391855e-05
0001b0 06 f3 14 38 3b 53 78 38 0a f5 16 38 eb cb 9b 38
       3.5512283e-05 5.9205322e-05 3.5990997e-05 7.4289586e-05
0001c0 32 4b 87 38 3f 33 9d b7 d4 4e e4 b7 18 b2 54 38
       6.451308e-05 -1.8739722e-05 -2.7216425e-05 5.07106e-05
0001d0 1e d9 84 b8 b0 e5 8e 38 fa 3c 0a b9 c6 fa 72 38
       -6.334692e-05 6.81387e-05 -0.00013183421 5.7930847e-05
0001e0 1b 5a eb 38 c0 a6 a7 b3 3d a7 cf 37 6c e6 08 b8
       0.00011222457 -7.806875e-08 2.47542e-05 -3.2639524e-05
0001f0 e0 ec 32 b7 e4 99 dd b5 14 e9 10 37 d6 2e 8b 38
       -1.06647785e-05 -1.6510571e-06 8.637337e-06 6.6367604e-05

exp_avg_sq f4 [128]
000000 c3 7f 38 34 b0 a0 e0 32 e2 24 66 33 ff d9 6c 32
       1.7182815e-07 2.6150104e-08 5.3584593e-08 1.37865745e-08
000010 7b 5d 84 33 88 05 a7 31 56 f8 a5 32 53 d0 ba 33
       6.163733e-08 4.8609685e-09 1.9321458e-08 8.699194e-08
000020 5a b1 0b 33 62 e4 1e 34 77 3d 1d 34 0c d9 d6 33
       3.252476e-08 1.4797982e-07 1.4644125e-07 1.0004632e-07
000030 a3 08 37 33 9b 89 ed 33 3e b0 e2 33 22 cf 89 33
       4.2615863e-08 1.1061203e-07 1.05560034e-07 6.417237e-08
000040 06 22 13 32 96 f6 c4 33 cd 21 80 34 33 e9 c1 33
       8.564262e-09 9.171815e-08 2.386645e-07 9.0296815e-08
000050 dc e4 2b 32 32 9a e5 33 7d 98 16 33 86 b3 68 34
       1.0005547e-08 1.06916914e-07 3.5063284e-08 2.1671994e-07
000060 da 3a 37 34 3f f0 56 34 dd 91 c3 32 e4 08 b7 33
       1.7064613e-07 2.0017704e-07 2.2767319e-08 8.523219e-08
000070 33 41 23 34 a2 04 a5 32 da 6a 8f 33 72 75 85 34
       1.5204277e-07 1.9210635e-08 6.6783926e-08 2.4858633e-07
000080 3f fb bb 32 9d b5 65 33 28 18 cf 33 9f 99 67 33
       2.1883919e-08 5.3483394e-08 9.6435826e-08 5.3923596e-08
000090 e3 b1 59 33 c6 7a 6f 32 55 62 31 34 62 9b 7a 32
       5.0686037e-08 1.3939546e-08 1.6520183e-07 1.4587245e-08
0000a0 43 16 54 33 10 8c 9f 32 f4 e1 1b 32 3a 97 bc 34
       4.9380343e-08 1.857373e-08 9.073563e-09 3.512776e-07
0000b0 57 67 29 33 1d 90 ce 32 bd ca a1 32 a4 fb a3 33
       3.9442366e-08 2.4047091e-08 1.8835062e-08 7.636052e-08
0000c0 94 ea d0 32 98 9e 9c 31 cd 08 f3 33 14 bf 71 33
       2.432106e-08 4.5582276e-09 1.131717e-07 5.628597e-08
0000d0 35 f7 bf 32 57 cc 06 33 35 a7 8d 33 ac f8 21 34
       2.2347743e-08 3.1385152e-08 6.596239e-08 1.508476e-07
0000e0 56 b9 ed 33 ed ec 4e 33 35 57 0c 34 ea 41 8f 33
       1.1069885e-07 4.8178595e-08 1.3070242e-07 6.670946e-08
0000f0 49 8e 80 34 5f 7d f7 33 ee c1 44 33 ab 76 86 32
       2.3945384e-07 1.1524639e-07 4.5811184e-08 1.5653617e-08
000100 bb 78 05 33 7d 23 e3 33 be 59 dd 31 0a d0 3e 34
       3.107628e-08 1.05769665e-07 6.442149e-09 1.7770813e-07
000110 71 36 cb 33 c6 eb 16 34 86 ab 96 34 4f 13 ba 32
       9.462827e-08 1.4055612e-07 2.8064477e-07 2.166203e-08
000120 d7 59 d7 32 b0 79 0f 34 7a ab d6 31 f5 a1 21 34
       2.5070149e-08 1.3362182e-07 6.2477143e-09 1.5053213e-07
000130 b3 da fb 32 af 81 2e 33 49 53 8b 32 48 bf 50 34
       2.9319699e-08 4.063048e-08 1.6219603e-08 1.9441097e-07
000140 3e db be 33 49 07 d9 33 9b d2 ab 32 c6 5e 00 33
       8.8874444e-08 1.0106175e-07 2.0002792e-08 2.988852e-08
000150 c2 65 b2 32 fb 01 6b 32 02 24 c1 33 3d b9 59 34
       2.0768201e-08 1.3679251e-08 8.9938126e-08 2.0277089e-07
000160 7a d8 b0 32 2c 3c 78 33 03 cd 1b 32 68 b3 ec 31
       2.0587539e-08 5.7796726e-08 9.068802e-09 6.8889e-09
000170 7f 3a 92 33 9e cc 9f 33 95 0e 20 32 1e f3 2a 32
       6.809295e-08 7.441234e-08 9.316541e-09 9.950581e-09
000180 81 e6 2c 32 69 a0 1d 32 f4 4d bb 33 69 d7 c4 32
       1.0064128e-08 9.175076e-09 8.722046e-08 2.291536e-08
000190 74 61 ad 33 6e a9 36 33 7f b9 c5 32 b4 be c4 32
       8.073667e-08 4.2529273e-08 2.3018172e-08 2.2904125e-08
0001a0 86 6f 9c 34 9b 40 2d 34 f1 ae 54 34 9f d3 04 34
       2.9138408e-07 1.6135384e-07 1.9807682e-07 1.2370445e-07
0001b0 2d 3d 0f 32 f8 88 82 33 9a 45 84 32 b8 cf d9 33
       8.337605e-09 6.078511e-08 1.5398474e-08 1.0142634e-07
0001c0 dd ae b0 34 74 f8 85 33 f7 90 78 32 44 f5 57 34
       3.2909784e-07 6.2384885e-08 1.4468461e-08 2.0112662e-07
0001d0 d5 b4 43 33 ac 26 0a 34 89 1c cf 33 58 dd 03 33
       4.556644e-08 1.286632e-07 9.644379e-08 3.0702125e-08
0001e0 37 67 d8 33 ed d9 91 32 68 c8 d8 33 3e a5 16 33
       1.00770585e-07 1.6979323e-08 1.00947375e-07 3.5074883e-08
0001f0 14 46 43 33 8c ff 03 32 36 6a b3 34 bf c9 8c 33
       4.546571e-08 7.683308e-09 3.3418627e-07 6.5559554e-08

exp_avg f4 [128, 128]
000000 af fb ae b5 f4 40 eb b5 b0 fd fd b7 70 aa 8e b8
       -1.303726e-06 -1.7527768e-06 -3.0278083e-05 -6.802834e-05
000010 18 ca 64 b7 f9 20 4b b6 12 80 80 b8 7c ed d2 b6
       -1.3636913e-05 -3.026855e-06 -6.1273706e-05 -6.2861345e-06
000020 c4 b5 83 b6 36 cf c1 b5 45 c9 ea b5 dc f9 62 b8
       -3.9252645e-06 -1.4439927e-06 -1.7492936e-06 -5.41153e-05
000030 f8 df 6d b7 b2 c5 e0 b5 a8 f3 8e b5 02 74 e4 b5
       -1.4178448e-05 -1.6746837e-06 -1.0650738e-06 -1.7021086e-06
000040 2c cf 13 b6 b4 1a a8 b8 7c 7a 2e b9 e4 6c 01 b9
       -2.2025297e-06 -8.015838e-05 -0.00016639562 -0.00012342964
000050 ea 81 18 b6 28 5a a6 b8 d4 a0 00 b7 9e 1f 85 b8
       -2.2725385e-06 -7.93229e-05 -7.66684e-06 -6.3478234e-05
000060 74 41 12 b5 ca 1f 80 b4 a8 e6 29 b8 17 02 01 b6
       -5.4484485e-07 -2.3864987e-07 -4.0507555e-05 -1.9223714e-06
000070 fe b1 a0 b5 2e 66 1f b6 dc 7f a9 b8 f0 38 df b8
       -1.1972731e-06 -2.3752323e-06 -8.082364e-05 -0.00010644074
000080 77 ea 2e b6 a3 20 ac b5 0c 5e 90 b5 11 f1 04 b6
       -2.6064497e-06 -1.2824497e-06 -1.0756207e-06 -1.9809852e-06
000090 4c 14 13 b9 f6 d3 58 b6 b8 fc 30 b7 8f f0 7a b6
       -0.00014026574 -3.2309886e-06 -1.0549258e-05 -3.7392927e-06
0000a0 08 79 5d b8 0e cc 7c b6 c4 3a 13 b6 d2 50 06 b7
       -5.2803225e-05 -3.7669702e-06 -2.1938913e-06 -8.00584e-06
0000b0 42 91 44 b6 68 91 84 b6 c4 23 32 b8 40 39 2e b8
       -2.9290827e-06 -3.950834e-06 -4.2471816e-05 -4.153815e-05
0000c0 bc e1 ee b6 c1 b1 2d b6 ac 30 98 b8 5c b9 b2 b5
       -7.1192317e-06 -2.5882475e-06 -7.256991e-05 -1.331598e-06
0000d0 ff 6d 36 b6 6c 5f ff b6 bc ed 5a b8 48 53 44 b6
       -2.718414e-06 -7.610701e-06 -5.2196658e-05 -2.9254752e-06
0000e0 d7 f3 97 b5 60 ce 35 b9 2c c3 45 b9 50 c9 27 b8
       -1.1321343e-06 -0.00017338386 -0.00018860091 -4.000339e-05
0000f0 10 8b b3 b7 a4 3f ba b8 ca 46 fc b5 10 8c 64 b7
       -2.1403219e-05 -8.881025e-05 -1.8796065e-06 -1.362247e-05
000100 d0 65 b4 b6 e0 67 72 b8 d4 26 84 b8 c1 72 90 b5
       -5.3762706e-06 -5.7794037e-05 -6.301483e-05 -1.0762234e-06
000110 b8 05 c7 b8 9d 99 ce b5 34 36 1d b8 08 74 2e b6
       -9.490125e-05 -1.5392903e-06 -3.7482198e-05 -2.599556e-06
000120 ce 37 47 b6 3a 13 d4 b5 3e 6c 8c b6 c2 be 9c b6
       -2.9685793e-06 -1.5800827e-06 -4.184926e-06 -4.6713694e-06
000130 bc cb e9 b8 f4 ec 38 b6 a4 a7 9b b8 48 da 95 b8
       -0.00011148254 -2.7556061e-06 -7.4222015e-05 -7.145532e-05
000140 6c 4d 8b b8 c8 26 f3 b7 75 83 39 b6 5a 77 8f b7
       -6.6424574e-05 -2.8985916e-05 -2.7643666e-06 -1.7102506e-05
000150 d0 c6 fa b5 fe 3e 45 b6 2f 12 11 b6 c4 4f c6 b5
       -1.8684314e-06 -2.9391954e-06 -2.1617268e-06 -1.4775364e-06
000160 56 b0 56 b6 1e 44 00 b6 29 16 49 b6 38 52 fa b6
       -3.1991126e-06 -1.9113136e-06 -2.9964233e-06 -7.460152e-06
000170 b4 2b 88 b8 a0 54 f4 b5 e0 51 8a b6 eb 55 2d b6
       -6.493126e-05 -1.8204046e-06 -4.122252e-06 -2.582902e-06
000180 79 95 4e b6 20 e3 ab b7 04 f7 a3 b8 88 01 b4 b8
       -3.0783397e-06 -2.0490552e-05 -7.818456e-05 -8.583354e-05
000190 57 59 8e b5 ae 1e 8e b6 0c 7c 38 b7 90 5c 85 b6
       -1.0605826e-06 -4.2355014e-06 -1.0996137e-05 -3.9744846e-06
0001a0 dc 8e 0a b9 06 9f 92 b8 cc 8f 97 b8 e8 65 91 b8
       -0.00013213925 -6.991443e-05 -7.227025e-05 -6.93312e-05
0001b0 5c 10 2d b8 2a 2e 02 b6 c4 39 9b b8 03 23 cb b5
       -4.126165e-05 -1.939838e-06 -7.401736e-05 -1.5134868e-06
0001c0 30 dd 1e b8 a0 2e a0 b7 0c 12 84 b6 50 2c 40 b8
       -3.7876132e-05 -1.9095198e-05 -3.9360075e-06 -4.5817636e-05
0001d0 5d 05 ca b6 30 90 9c b6 d0 95 55 b5 8a 0c 3f b6
       -6.0206935e-06 -4.665948e-06 -7.956669e-07 -2.8468517e-06
0001e0 af c1 8c b5 7c 33 c0 b7 26 f8 04 b9 0c 6b d0 b8
       -1.0487182e-06 -2.2912158e-05 -0.00012680943 -9.938152e-05
0001f0 a8 95 3b b8 7c 92 97 b8 6c 94 44 b8 6e fe 1d b6
       -4.4723653e-05 -7.227526e-05 -4.686827e-05 -2.354292e-06
000200 56 8d bb b6 fb bb 05 37 f3 8f 77 37 32 29 ed 37
       -5.589488e-06 7.971185e-06 1.4755863e-05 2.8271785e-05
000210 f0 ca 8d b4 ca 97 6c 37 a8 4e a9 37 9c 55 d2 b5
       -2.6410953e-07 1.4102037e-05 2.0182997e-05 -1.5671135e-06
000220 70 eb c1 37 b6 30 5e b6 0a ff 4b b6 73 42 9b 37
       2.3117027e-05 -3.3108931e-06 -3.039781e-06 1.8508383e-05
000230 40 a1 0a 34 4a 7d 1a b6 fc c6 d0 b6 98 3c 73 35
       1.2910914e-07 -2.3020716e-06 -6.222048e-06 9.061273e-07
000240 06 32 55 37 94 23 0d 38 ef 95 89 38 1b 90 2f 38
       1.2707436e-05 3.3650154e-05 6.5605964e-05 4.185746e-05
000250 fe 83 60 37 fc b2 e8 37 e6 3b 8b 36 85 fe ab 37
       1.3382172e-05 2.7739901e-05 4.149496e-06 2.0503308e-05
000260 f1 37 af 36 ec 7c 26 37 38 1e 60 37 00 76 9d b4
       5.221919e-06 9.923457e-06 1.3358476e-05 -2.9329385e-07
000270 6e 03 c7 b6 9e 20 9f 36 2e 13 0e 38 47 b1 1b 38
       -5.9310614e-06 4.7423664e-06 3.38733e-05 3.7119982e-05
000280 ae 00 91 37 1a 34 ec b5 0a b2 d9 b6 c6 fd 80 b4
       1.7285663e-05 -1.7598534e-06 -6.4878304e-06 -2.4026502e-07
000290 d8 d5 60 38 f8 7e f8 36 30 24 65 b5 6e 7f b1 37
       5.360492e-05 7.405757e-06 -8.536181e-07 2.1159383e-05
0002a0 e0 49 ab 37 5e 9e bf 37 ca da 6f 37 fc 80 1c b6
       2.041919e-05 2.284272e-05 1.4296451e-05 -2.332089e-06
0002b0 58 8c 89 37 99 21 b8 37 f8 78 8b 37 b8 e5 53 37
       1.6397025e-05 2.1950154e-05 1.6626422e-05 1.2630066e-05
0002c0 22 3c c0 35 87 2f 68 37 96 d7 cb 37 fa 1a ad b4
       1.4322616e-06 1.3839343e-05 2.4299876e-05 -3.224339e-07
0002d0 2a c3 8f 36 86 06 07 36 35 94 85 37 19 7b db b6
       4.284452e-06 2.0120365e-06 1.592385e-05 -6.541039e-06
0002e0 c3 36 d5 b6 e4 79 87 38 49 2b 98 38 c8 4f 38 37
       -6.3542698e-06 6.4600055e-05 7.255987e-05 1.098583e-05
0002f0 be ed b0 36 82 e6 ee 37 ce 65 ec 36 24 c1 b6 35
       5.2728856e-06 2.847915e-05 7.0451997e-06 1.3616268e-06
000300 32 cc 8a b5 77 c7 d8 37 f8 63 a0 37 54 73 1c b7
       -1.034123e-06 2.584209e-05 1.9120038e-05 -9.3251765e-06
000310 89 54 03 38 7c 9f 5c b6 64 6b 3b 37 f7 da 82 37
       3.1311563e-05 -3.2875387e-06 1.1171072e-05 1.5599171e-05
000320 e0 c4 98 36 08 ba 6c b6 2a a8 7f 37 dc ea 74 b6
       4.5528723e-06 -3.5275025e-06 1.5238338e-05 -3.649554e-06
000330 a5 dc 20 38 10 15 14 36 c0 e8 02 38 4e f3 dd 37
       3.8352464e-05 2.2065979e-06 3.121118e-05 2.645855e-05
000340 8c d1 e2 37 c7 b3 0f 37 a7 be 84 37 14 8a ac 35
       2.7038877e-05 8.565322e-06 1.5824406e-05 1.2855185e-06
000350 9d eb 10 37 22 f5 57 37 1c e3 d5 b4 88 75 9a b6
       8.637927e-06 1.2872073e-05 -3.9839585e-07 -4.60324e-06
000360 44 6b 91 37 d4 ac d5 35 4f bf 73 37 88 35 53 b5
       1.7335296e-05 1.5920036e-06 1.4528471e-05 -7.8681524e-07
000370 53 f5 af 37 9d eb 42 35 8b bb 85 37 86 c6 28 37
       2.0975864e-05 7.2613494e-07 1.5942167e-05 1.0059803e-05
000380 74 85 9a 37 a1 4f 85 36 fa 97 dc 37 0a d8 df 37
       1.8420375e-05 3.972979e-06 2.6296813e-05 2.6684273e-05
000390 59 a7 32 b6 54 38 d7 37 9c fb 75 b6 f5 72 b5 37
       -2.6621476e-06 2.5656227e-05 -3.66543e-06 2.1630412e-05
0003a0 64 20 45 38 32 b5 f0 37 62 08 de 37 56 09 b6 37
       4.6998626e-05 2.8694605e-05 2.6468366e-05 2.1700438e-05
0003b0 70 d8 33 37 50 57 ea 35 6a 34 ab 37 8f 70 3b b6
       1.0719625e-05 1.745977e-06 2.0409196e-05 -2.793069e-06
0003c0 cc a9 33 37 66 0b fe 36 56 bd be 37 84 61 68 37
       1.0708765e-05 7.571117e-06 2.2737931e-05 1.3850982e-05
0003d0 bd 49 19 38 52 60 53 b6 06 96 23 37 64 87 27 36
       3.6546717e-05 -3.1497516e-06 9.750487e-06 2.4963747e-06
0003e0 c3 5c 02 b7 a4 39 3b 37 94 b5 3a 38 31 ab 22 38
       -7.770202e-06 1.1159489e-05 4.4514964e-05 3.8783244e-05
0003f0 18 04 ad 37 ae a8 e0 37 01 5c 82 37 72 52 e6 36
       2.0625113e-05 2.6781428e-05 1.554005e-05 6.864132e-06
